models/BPI17/hoeg/exp_v3/lr=0.01_hidden_dim=64/GraphModule_20230828_11h11m/state_dict_epoch10.pt (torch, 219787 bytes, 33 tensors)

convs.0.event__follows__event.lin_rel.weight f4 [64, 27]
0.04576986 -0.06441914 -0.41400462 -0.350248 -0.30111548 -0.54366577 -0.2705912 -0.05714196
-0.39453152 -0.34210545 -0.24344234 -0.38023376 -0.23733857 -0.5437526 -0.29297638 -0.38218766
-0.39027846 -0.1657958 -0.39281178 -0.47794655 -0.36058295 -0.072271645 -0.35324985 -0.27448797
-0.41578627 -0.1290266 0.02852305 -0.013074616 -0.35067695 -0.39724576 -0.49063352 -0.47892514
-0.33728164 0.022830749 0.32680798 -0.19392781 0.039168876 -0.09904663 0.069457166 -0.3232144
0.014081141 -0.0019095807 0.06807544 -0.07914957 -0.16334379 -0.28272006 0.21943474 -0.092736386
-0.48286083 -0.49176303 -0.1866161 -0.054091275 -0.34192443 -0.17282572 -0.17175981 -0.23573938
-0.18949094 0.010676774 0.06842617 -0.25267062 -0.12171513 0.13174865 -0.22641805 0.23841879
-0.42785898 -0.5092598 -0.47373632 -0.1489502 -0.2584922 0.070514254 -0.30464736 -0.10622868
-0.19640508 -0.059757747 -0.15055503 -0.29387054 -0.15646492 -0.36644968 -0.17596802 -0.0904918
0.35299432 -0.10322656 0.30739427 -0.2584052 -0.09633026 -0.17690451 0.00077518565 -0.18020259
-0.556974 -0.39512026 -0.09849396 -0.41222227 -0.21599494 -0.19345228 -0.39966187 -0.05150678
0.0072210087 -0.3598519 -0.037119087 -0.11274181 -0.10462039 -0.22121413 -0.39817184 -0.08120403
-0.3169208 -0.034158412 0.034842025 0.05276981 -0.6750783 0.030001992 0.05901549 0.6518392
0.21868558 -0.1905193 -0.009886337 -0.5157961 -0.49062514 -0.27803975 -0.31491646 -0.425077
-0.27681875 -0.40800977 -0.062861755 -0.29813433 -0.49003574 -0.15762131 -0.29337215 -0.3277308
0.037904575 -0.40587726 -0.42584884 -0.45507985 -0.18549894 0.34856838 -0.1987529 -0.65323186
-0.75948673 -0.53137803 -1.6113757 -1.6302091 -0.3572455 -1.1428725 -0.7850611 -0.8653251
-0.863934 1.3948325 1.2169607 -0.32969463 0.34065953 0.046801385 -0.03801849 -0.49575293
-0.21035251 -0.48026717 0.05970064 -0.43667135 -0.5437403 -0.23681661 -0.38558844 -0.14782995
-0.69180334 -0.95936525 0.91114444 -0.37179777 -0.63222444 0.8270913 -0.71245784 -0.33464816
-0.11181451 -0.9096076 -0.17995554 -1.0703566 -0.16196133 -0.75354433 -1.0102758 -0.48463708
-0.42889267 -0.1708749 -0.5929742 -0.26617262 -0.17124628 -0.20526691 -0.031183004 -1.2695595
-0.5311298 -0.42634532 0.34578338 -0.4357497 -0.06380036 -1.178725 -1.0022229 -0.7448216
-2.7083592 -1.3092173 -0.03889103 -1.3122864 0.107165046 -0.32718283 -0.41267413 0.49027476
0.4515785 0.6747145 1.3304334 0.7758449 1.1203849 0.010472191 -0.16258128 0.27059034
-0.31085604 -0.10135722 0.30097455 -0.062242236 0.5217141 0.9952331 -0.16321029 -0.8660196
-0.46284357 -0.21026364 -0.13627413 0.13454401 -0.17858621 -0.42861107 -0.14578333 -0.45555055
-0.15858254 -0.32278442 -0.22021519 -0.28126326 -0.26382878 -0.27697065 -0.35348898 -0.33257732
-0.6009795 -0.33692864 -0.1113096 -0.26200774 -0.39862892 -0.31355953 -0.3530164 -0.70634097
-0.23897204 -0.06763469 -0.06480762 -0.36581716 -0.355495 -0.15736142 -0.33977887 -0.22134367
-0.071360745 -0.042156745 -0.28012547 -0.17245318 -0.2385302 -0.442561 -0.52374744 -0.018510386
00000000: 2d79 3b3d 2fee 83bd 6af8 d3be b553 b3be
00000010: cf2b 9abe ae2d 0bbf ee8a 8abe b00d 6abd
00000020: 0900 cabe 7228 afbe f348 79be 00ae c2be
00000030: e208 73be 5f33 0bbf 0001 96be 1aae c3be
00000040: 94d2 c7be 60c6 29be a01e c9be 69b5 f4be
00000050: 549e b8be 2803 94bd 2add b4be b089 8cbe
00000060: f0e1 d4be 8d1f 04be 2ca9 e93c ea36 56bc
00000070: ee8b b3be cc63 cbbe 5134 fbbe ad35 f5be
00000080: 2eb0 acbe 8d07 bb3c 6053 a73e 0395 46be
00000090: 8b6f 203d f6d8 cabd 8f3f 8e3d 5c7c a5be
000000a0: 96b4 663c e54a faba 236b 8b3d 2b19 a2bd
000000b0: 9843 27be afc0 90be 80b3 603e 93ec bdbd
000000c0: 8939 f7be 5dc8 fbbe 4a18 3fbe d08e 5dbd
000000d0: b810 afbe 3af9 30be cee1 2fbe aa65 71be
000000e0: ea09 42be a3ed 2e3c 0523 8c3d 0b5e 81be
000000f0: c845 f9bd 1ee9 063e 22da 67be 0e24 743e
00000100: 5510 dbbe da5e 02bf 918d f2be 6786 18be
00000110: 1759 84be c769 903d bdfa 9bbe 6c8e d9bd
00000120: 6a1e 49be 8ac4 74bd 192b 1abe 3376 96be
00000130: 5738 20be 4b9f bbbe f630 34be c453 b9bd
00000140: acbb b43e 7268 d3bd c862 9d3e b04d 84be
00000150: cd48 c5bd 7526 35be d435 4b3a 0787 38be
00000160: d995 0ebf 344d cabe 34b7 c9bd cc0e d3be
00000170: c72d 5dbe 5b18 46be 7ba0 ccbe c6f8 52bd
00000180: 369e ec3b 823e b8be 2f0a 18bd 2ee5 e6bd
00000190: 3743 d6bd f585 62be 2edd cbbe 4c4e a6bd
000001a0: 7143 a2be b1e9 0bbd 83b6 0e3d 2825 583d
000001b0: eed1 2cbf bdc6 f53c 3aba 713d efde 263f
000001c0: 1def 5f3e 7e17 43be 4efa 21bc 370b 04bf
000001d0: 3833 fbbe 3a5b 8ebe bb3c a1be b1a3 d9be
000001e0: 30bb 8dbe a8e6 d0be aabd 80bd 10a5 98be
000001f0: f7e5 fabe 7b67 21be e034 96be 55cc a7be
00000200: d441 1b3d 25cf cfbe dc08 dabe 3a00 e9be
00000210: 6ff3 3dbe 8e77 b23e e185 4bbe 343a 27bf
00000220: b96d 42bf 6408 08bf 8f41 cebf b1aa d0bf
00000230: e2e8 b6be a549 92bf c4f9 48bf f285 5dbf
00000240: c72a 5dbf df89 b23f 5ec5 9b3f bccd a8be
00000250: ed6a ae3e cfb2 3f3d 47b9 1bbd 54d3 fdbe
00000260: a666 57be 94e5 f5be a988 743d 6393 dfbe
00000270: 9032 0bbf 0e80 72be d96b c5be bc60 17be
00000280: 061a 31bf f698 75bf c340 693f 475c bebe
00000290: 76d9 21bf 41bc 533f a363 36bf 0157 abbe
000002a0: 01ff e4bd 0bdc 68bf 4446 38be 7201 89bf
000002b0: 31d9 25be 48e8 40bf b850 81bf 5a22 f8be
000002c0: d297 dbbe d4f9 2ebe 28cd 17bf c747 88be
000002d0: 2f5b 2fbe 7d31 52be 8073 ffbc ed80 a2bf
000002e0: 1ff8 07bf ef49 dabe 850a b13e 961a dfbe
000002f0: c3a9 82bd 76e0 96bf d748 80bf a1ac 3ebf
00000300: c255 2dc0 6f94 a7bf 334c 1fbd 00f9 a7bf
00000310: 5979 db3d 8284 a7be 064a d3be 4b05 fb3e
00000320: 4c35 e73e 17ba 2c3f a44b aa3f c59d 463f
00000330: c668 8f3f 8d93 2b3c b57b 26be d18a 8a3e
00000340: 8628 9fbe 6094 cfbd 5619 9a3e b7f1 7ebd
00000350: 0e8f 053f 99c7 7e3f 9920 27be 76b3 5dbf
00000360: d5f9 ecbe 5a4f 57be 728b 0bbe e8c5 093e
00000370: 4edf 36be e972 dbbe 3a48 15be ec3d e9be
00000380: 7663 22be 0044 a5be 1780 61be bd01 90be
00000390: 9114 87be 19cf 8dbe 82fc b4be 9347 aabe
000003a0: cbd9 19bf e981 acbe 4af6 e3bd e125 86be
000003b0: 1719 ccbe e08a a0be 91be b4be c3d2 34bf
000003c0: 16b5 74be 0e84 8abd dcb9 84bd 634c bbbe
000003d0: 7103 b6be 5a23 21be 7ff7 adbe eaa7 62be
000003e0: 9525 92bd 8dac 2cbd 9b6c 8fbe 9197 30be
000003f0: 4341 74be 5b97 e2be 5014 06bf 18a3 97bc

convs.0.event__follows__event.lin_rel.bias f4 [64]
-0.11902498 0.036688678 -0.12131958 -0.08915436 -0.44577459 -0.19959602 -0.2215227 0.05611912
-0.038628284 -0.25277403 -0.18628655 -0.2260989 0.020129485 -0.26256642 -0.25822273 -0.25657752
0.0895204 -0.37635288 -0.09936063 -0.011875734 -0.36131954 0.06193071 -0.17801164 -0.03822553
-0.12787025 -0.08904701 -0.019575046 -0.040612858 0.04565416 0.26196185 -0.018897884 0.01623629
0.026454221 -0.24289022 -0.1646311 -0.15500514 -0.07508561 -0.12724614 -0.34025908 0.07962348
-0.16897136 -0.17059517 -0.29820177 -0.14524636 0.05735581 0.068294555 -0.07551364 -0.070875525
0.22662625 -0.30755958 -0.36648607 -0.04196338 0.09506718 -0.14319603 0.06367106 -0.3139201
0.078287415 0.17055671 0.16717675 -0.1140948 -0.27854785 -0.23996133 -0.08727767 -0.14240453
00000000: 5ec3 f3bd de46 163d 6676 f8bd 9096 b6bd
00000010: 913c e4be e662 4cbe d9d6 62be 2add 653d
00000020: b138 1ebd 996b 81be e7c1 3ebe 7886 67be
00000030: 97e6 a43c 1b6f 86be c535 84be 215e 83be
00000040: 7956 b73d 53b1 c0be 967d cbbd 7092 42bc
00000050: e0fe b8be 0eab 7d3d af48 36be 6092 1cbd
00000060: 6bf0 02be 475e b6bd d95b a0bc ab59 26bd
00000070: dbff 3a3d dd1f 863e bccf 9abc f801 853c
00000080: 86b6 d83c 37b8 78be 0e95 28be abb9 1ebe
00000090: 7cc6 99bd d04c 02be 7036 aebe a311 a33d
000000a0: d406 2dbe 80b0 2ebe e7ad 98be 76bb 14be
000000b0: eded 6a3d 04de 8b3d e5a6 9abd 3027 91bd
000000c0: b610 683e 7378 9dbe 10a4 bbbe cbe1 2bbd
000000d0: 95b2 c23d fba1 12be f965 823d 23ba a0be
000000e0: 2755 a03d 6ba6 2e3e 6230 2b3e 89aa e9bd
000000f0: d39d 8ebe 6cb8 75be a3be b2bd 7ed2 11be

convs.0.event__follows__event.lin_root.weight f4 [64, 27]
-0.08578791 0.30101207 0.044897888 0.03519861 -0.298645 -0.19026977 -0.40272766 -0.12284533
-0.2361966 -0.105006985 -0.27702707 -0.13984396 -0.45965624 -0.6293132 -0.02604615 -0.19718114
-0.09996818 -0.2705273 -0.20918195 -0.28582418 -0.34387478 0.16449384 -0.27538136 -0.042469263
-0.08655881 0.0058561554 -0.1606283 0.07671174 0.09996164 0.08181894 -0.082353316 -0.034063373
0.0038217208 -0.057909835 0.24944891 -0.12602086 -0.15309049 0.238954 0.28412595 -0.11301993
0.02015477 0.0041503576 0.14492726 -0.06181538 0.12411716 -0.15581708 0.6131337 0.20180847
-0.102112934 -0.14911355 -0.2785232 0.00029090958 -0.14669774 -0.13762431 -0.19894661 -0.2976589
-0.3006721 -0.46313122 0.31291854 -0.12534638 -0.41904688 0.6186213 0.016069526 0.19710304
-0.1085699 -0.25239623 -0.32660747 -0.19646902 -0.005264383 -0.0886127 0.027663587 -0.16047423
-0.0793129 -0.039368518 0.046718683 0.16180345 -0.17513917 -0.17285594 -0.1734204 -0.6920289
0.7392176 0.14710958 -0.08918603 0.09013003 -0.026579706 -0.25798985 0.040312253 0.11415228
-0.32468566 -0.19396658 -0.1722395 -0.0329221 -0.34932828 -0.26832503 -0.38809675 -0.06992683
-0.12138805 -0.4278255 -0.20227422 0.21288553 -0.22911316 -0.08731124 -0.388082 -0.08912303
-0.11312357 0.094771884 -0.0849366 -0.0044089737 -0.17297077 -0.025755776 -0.44220537 0.05202066
0.52400637 -0.4793729 0.025082033 -0.5927087 -0.6454111 -0.12554222 -0.21070148 -0.24115688
-0.11959103 -0.7265008 0.04652891 -0.22156896 -0.5026153 -0.34556925 -0.30094144 -0.28034925
0.15922408 -0.68068033 -0.26478902 -0.22201218 -0.63949287 0.096760415 -0.39021596 -0.30209285
-0.29777682 -0.23021404 -0.9379521 -1.4022533 -0.049112618 -0.4835983 -0.34432384 -0.21292636
-0.22247098 0.79356545 2.068209 -1.1460205 0.9958522 0.38613668 0.6188994 -0.29963687
0.035490528 0.2085351 0.5172185 -0.13031408 -0.5118841 -0.33773258 0.16236036 1.4266995
-0.24289487 -0.5584231 -1.1275928 0.42518887 -0.03765448 1.8665624 -0.2820377 -0.25588337
-0.48783696 -1.0267885 -0.10825356 -0.37662274 0.2371779 -0.2619493 -0.7464718 -0.8226035
-0.6578132 -0.31691468 -0.78598124 -0.31595573 -0.0137121575 -0.04963816 0.15119721 -1.0042686
-0.27814144 0.6243453 0.40229765 0.6383117 -0.31287876 -1.2205498 -1.0319641 -0.382968
-1.1982158 -0.94470406 -0.3798322 -1.2054534 -0.24685898 0.4984203 -0.33080405 -0.9029059
1.6883167 0.89491785 1.0279212 0.9347721 1.21203 -0.19155878 0.16702515 0.11630039
-0.12696081 -0.21009356 0.16175641 0.23047341 0.47117046 1.2398287 -0.1408262 -0.51353157
-0.4906565 -0.20274855 0.1998767 -0.14991005 -0.11132288 -0.27857834 0.086008035 -0.4658991
-0.47463852 0.24216434 -0.0861224 -0.35635117 -0.04043493 -0.3677026 -0.11948681 -0.3071045
-0.2614298 -0.23917809 -0.09858935 -0.27527457 -0.12328291 -0.3261462 -0.13891257 -0.60008806
-0.63394535 -0.23694044 0.13180089 -0.18606599 0.05161741 -0.06802005 -0.2743675 -0.094178416
-0.071355455 -0.12187017 -0.31917396 -0.20876917 -0.036976695 -0.46501857 -0.2717398 -0.053374726
00000000: 92b1 afbd 411e 9a3e d9e6 373d 6b2c 103d
00000010: ffe7 98be 14d6 42be 5232 cebe 5596 fbbd
00000020: 86dd 71be e70d d7bd 7ed6 8dbe 4133 0fbe
00000030: 1058 ebbe ab1a 21bf bc5e d5bc dae9 49be
00000040: 1ebc ccbd 8e82 8abe cb33 56be 8c57 92be
00000050: 5b10 b0be 1371 283e c9fe 8cbe 40f4 2dbd
00000060: bf45 b1bd fee4 bf3b bf7b 24be 0b1b 9d3d
00000070: b0b8 cc3d b090 a73d dba8 a8bd 0986 0bbd
00000080: d675 7a3b dd32 6dbd 896f 7f3e 9d0b 01be
00000090: c1c3 1cbe 5bb0 743e f578 913e fe76 e7bd
000000a0: 9e1b a53c b9ff 873b d067 143e 2032 7dbd
000000b0: 2331 fe3d 838e 1fbe 55f6 1c3f e1a6 4e3e
000000c0: 9620 d1bd 39b1 18be 989a 8ebe 3985 9839
000000d0: ef37 16be 63ed 0cbe a9b8 4bbe bf66 98be
000000e0: b2f1 99be 891f edbe dc36 a03e cd5a 00be
000000f0: 508d d6be f75d 1e3f 3da4 833c 61d5 493e
00000100: e559 debd 143a 81be 1839 a7be 2d2f 49be
00000110: d880 acbb 937a b5bd bf9e e23c 5b53 24be
00000120: cd6e a2bd e240 21bd 175c 3f3d ceaf 253e
00000130: af57 33be 2601 31be 1e95 31be ce28 31bf
00000140: 5d3d 3d3f e5a3 163e 2aa7 b6bd 1896 b83d
00000150: afbd d9bc 3f17 84be 761e 253d acc8 e93d
00000160: 333d a6be 2d9f 46be 8d5f 30be 53d9 06bd
00000170: 28db b2be e661 89be 9eb4 c6be cc35 8fbd
00000180: 4c9a f8bd f20b dbbe f920 4fbe aafe 593e
00000190: a49c 6abe 3cd0 b2bd afb2 c6be 2386 b6bd
000001a0: 55ad e7bd c317 c23d 3df3 adbd 2779 90bb
000001b0: 401f 31be c7fd d2bc be68 e2be 9e13 553d
000001c0: 4825 063f 5d70 f5be d678 cd3c c2bb 17bf
000001d0: a939 25bf 248e 00be 21c2 57be d4f1 76be
000001e0: 24ec f4bd f5fb 39bf 1995 3e3d f9e2 62be
000001f0: 65ab 00bf 74ee b0be ff14 9abe f089 8fbe
00000200: a30b 233e 1141 2ebf 6d92 87be 2957 63be
00000210: ceb5 23bf 532a c63d 63ca c7be eaab 9abe
00000220: 3476 98be 3bbd 6bbe a11d 70bf 097d b3bf
00000230: 502a 49bd 329a f7be 374b b0be 5e09 5abe
00000240: 6fcf 63be 1b27 4b3f 895d 0440 cdb0 92bf
00000250: 2bf0 7e3f b5b3 c53e 3170 1e3f 016a 99be
00000260: 845e 113d 3a8a 553e 6e68 043f 0e71 05be
00000270: d60a 03bf 49eb acbe cb41 263e 179e b63f
00000280: 6fb9 78be d1f4 0ebf f654 90bf 5bb2 d93e
00000290: 963b 1abd 84eb ee3f 3f67 90be 2503 83be
000002a0: c4c5 f9be ce6d 83bf 0bb4 ddbd b2d4 c0be
000002b0: c3de 723e 381e 86be c718 3fbf 2596 52bf
000002c0: 7266 28bf a442 a2be 1136 49bf f3c4 a1be
000002d0: f5a8 60bc 6251 4bbd 71d3 1a3e e08b 80bf
000002e0: 8e68 8ebe 18d5 1f3f f5f9 cd3e 6568 233f
000002f0: a531 a0be fa3a 9cbf 6617 84bf 6214 c4be
00000300: 235f 99bf 20d8 71bf 5e79 c2be 4c4c 9abf
00000310: 9ac8 7cbe f230 ff3e 265f a9be d724 67bf
00000320: c31a d83f 5619 653f ec92 833f 394d 6f3f
00000330: cd23 9b3f fc27 44be a408 2b3e e62e ee3d
00000340: 0402 02be c422 57be 79a3 253e 3901 6c3e
00000350: 413d f13e b5b2 9e3f be34 10be ce76 03bf
00000360: 5437 fbbe 519d 4fbe 7aac 4c3e 0582 19be
00000370: 40fd e3bd d2a1 8ebe fb24 b03d 548a eebe
00000380: d203 f3be eef9 773e f160 b0bd a973 b6be
00000390: 199f 25bd 8443 bcbe 80b5 f4bd cd3c 9dbe
000003a0: 20da 85be 1aeb 74be 37e9 c9bd caf0 8cbe
000003b0: c07b fcbd a2fc a6be 193f 0ebe 5f9f 19bf
000003c0: 3e4a 22bf 84a0 72be d0f6 063e 1588 3ebe
000003d0: c76c 533d 194e 8bbd e679 8cbe 9de0 c0bd
000003e0: cf22 92bd 1197 f9bd c56a a3be 96c7 55be
000003f0: e074 17bd ea16 eebe 7b21 8bbe 759f 5abd

convs.0.application__interacts__event.lin_rel.weight f4 [64, 3]
-0.49350864 -0.39612412 -0.27197665 0.06710734 -0.05851871 0.02033089 -0.41593686 0.134838
-0.06445113 0.037277356 0.054934572 0.11691707 0.21469863 0.38881373 0.099619076 0.46918914
0.06776669 -0.0062825265 1.8677369 1.3518833 -0.15706706 0.43677834 0.028830903 0.1628602
0.08220617 -0.08618853 -0.16788283 0.7853317 0.2673038 -0.009178832 0.7816262 -0.15007482
0.24414262 -0.14134805 -0.14368567 -0.263538 0.8141031 -0.5349134 0.17607935 1.121784
-0.18682244 0.03497839 -0.086034656 -0.016732702 -0.17573419 0.8768713 0.5022899 0.3284601
-0.67873514 0.31689152 -0.19563021 -1.2200502 -0.22339839 0.50739753 -1.0670979 -0.6086247
-0.3343205 -0.47892404 0.34894678 -0.08452828 -0.19795215 0.20831545 -0.08214247 -0.26372305
-0.040600196 -0.22812745 -0.5218587 -0.4645881 -0.62044007 0.18072963 -0.29145113 -0.1917115
-1.4708055 0.0512536 -0.23406932 -0.10637403 0.24035102 -0.1643108 -0.581623 -0.02332363
0.045480505 -0.04708074 0.6132288 0.26212958 -0.4280647 -0.22871017 -0.25451693 -0.45689607
-0.30025163 -0.68741405 -0.06963815 -1.0921798 -0.6871532 -0.4232318 -0.05770748 -0.107906885
-0.13847914 -0.1990956 0.13816853 -0.47082266 -0.25142875 -0.1482515 -0.16613989 0.14744896
0.06846566 -0.94875574 -0.13917427 -0.3531606 -0.7699796 -0.14834312 -0.5522724 0.0582161
0.1452732 0.08607189 -0.6208627 0.14451137 -0.16503833 0.27445966 -0.07648348 -0.240048
-1.4833219 0.1466606 -0.030697782 -1.0678123 0.10525805 -0.102527805 0.15105146 -0.24651845
-0.24914435 0.5040194 -0.372399 -0.063268274 0.02092459 0.3399485 0.21186051 -0.71241254
0.20394138 -0.21675213 0.6501322 -0.050123796 -0.16549659 0.5349032 0.18730174 0.15364021
3.8560314 2.714498 -0.43848377 -1.4620459 0.004337754 -0.3007356 -0.7113597 0.13905267
-0.34894037 0.45625514 -0.33855563 0.09378773 -0.14707534 0.45179293 0.28256473 -0.8229928
-0.39001098 -0.2863849 0.34249434 0.42859375 0.1308406 -1.1022997 0.24658073 0.06864937
0.29517373 0.37070858 0.124492735 -0.5248011 0.28711817 0.5522016 -0.23796794 -0.26190165
-0.38728777 -1.1619946 0.26590285 0.13487898 0.39500567 -0.4795374 -0.09358753 -0.2514913
-0.2105239 -0.23030081 -0.035055324 0.3226268 -0.033624813 0.08566037 0.19727568 -0.03891283
00000000: 2aad fcbe c8d0 cabe 8640 8bbe 936f 893d
00000010: 51b1 6fbd f78c a63c adf5 d4be f912 0a3e
00000020: f4fe 83bd 24b0 183d 1303 613d 3772 ef3d
00000030: f5d9 5b3e 9812 c73e 1605 cc3d 8f39 f03e
00000040: 43c9 8a3d a7dd cdbb 0112 ef3f 830a ad3f
00000050: 30d6 20be 69a1 df3e c92e ec3c d3c4 263e
00000060: b55b a83d 9d83 b0bd 7ae9 2bbe 800b 493f
00000070: 0bdc 883e d062 16bc a818 483f 37ad 19be
00000080: 8600 7a3e 8bbd 10be 5622 13be 74ee 86be
00000090: 1069 503f 16f0 08bf 254e 343e 9e96 8f3f
000000a0: 624e 3fbe 8045 0f3d f032 b0bd 0513 89bc
000000b0: aaf3 33be a37a 603f 1296 003f ec2b a83e
000000c0: 96c1 2dbf 9b3f a23e 4953 48be 9b2a 9cbf
000000d0: 8cc2 64be cee4 013f aa96 88bf d4ce 1bbf
000000e0: 0e2c abbe 8835 f5be 27a9 b23e 2a1d adbd
000000f0: f8b3 4abe a550 553e 503a a8bd b506 87be
00000100: 644c 26bd 3e9a 69be 8898 05bf 7ede edbe
00000110: 29d5 1ebf 3011 393e 1539 95be 0550 44be
00000120: 5b43 bcbf 4bef 513d deaf 6fbe a1da d9bd
00000130: 941e 763e 1741 28be 3fe5 14bf 3311 bfbc
00000140: c449 3a3d bcd7 40bd 90fc 1c3f d935 863e
00000150: 4c2b dbbe 0033 6abe 0b50 82be 48ee e9be
00000160: 95ba 99be 5efa 2fbf 729e 8ebd 8ccc 8bbf
00000170: 46e9 2fbf d7b1 d8be ae5e 6cbd 49fe dcbd
00000180: 7acd 0dbe b8df 4bbe 0d7c 0d3e ab0f f1be
00000190: 45bb 80be 3ecf 17be 9320 2abe dcfc 163e
000001a0: b937 8c3d a8e1 72bf b383 0ebe 77d1 b4be
000001b0: 621d 45bf 42e7 17be b961 0dbf 0174 6e3d
000001c0: 7fc2 143e 7646 b03d dcf0 1ebf cafa 133e
000001d0: cfff 28be fa85 8c3e 5fa3 9cbd 25cf 75be
000001e0: 7edd bdbf 322e 163e ea79 fbbc 13ae 88bf
000001f0: 8891 d73d 19fa d1bd 3cad 1a3e 556f 7cbe
00000200: b21f 7fbe 6a07 013f 15ab bebe cc92 81bd
00000210: 0c6a ab3c bb0d ae3e f6f1 583e ab60 36bf
00000220: 02d6 503e 45f4 5dbe 106f 263f 9c4e 4dbd
00000230: f077 29be 6bef 083f 07cc 3f3e dc53 1d3e
00000240: 38c9 7640 56ba 2d40 f280 e0be 5224 bbbf
00000250: b823 8e3b 04fa 99be ab1b 36bf d363 0e3e
00000260: 50a8 b2be 469a e93e 2a57 adbe c813 c03d
00000270: eb9a 16be 6751 e73e 53ac 903e a8af 52bf
00000280: 85af c7be 0ba1 92be 6b5b af3e a470 db3e
00000290: 14fb 053e 2818 8dbf a97f 7c3e 0a98 8c3d
000002a0: 0321 973e 84cd bd3e 0cf6 fe3d 5d59 06bf
000002b0: 2701 933e 165d 0d3f dead 73be f917 86be
000002c0: 954a c6be 3dbc 94bf 6b24 883e b71d 0a3e
000002d0: 2f3e ca3e ed85 f5be d2aa bfbd 78c3 80be
000002e0: 9493 57be fad3 6bbe 2c96 0fbd 572f a53e
000002f0: 2cba 09bd b46e af3d a302 4a3e 0f63 1fbd

convs.0.application__interacts__event.lin_rel.bias f4 [64]
-0.34501016 -0.4967948 0.06676584 -0.47136497 0.1969217 -0.4330942 -0.13424754 -0.2455424
0.1470869 0.2592674 0.11288024 0.2676435 -0.1430136 -0.36621746 -0.28995618 -0.33275002
-0.49608198 0.12945467 0.25267294 0.26315537 0.3340574 0.1553859 -0.56288105 -0.10470861
-0.2355645 -0.48780173 0.09911376 -0.0921483 -0.16388912 -0.19537422 0.39496908 0.09231957
-0.5244919 0.14297046 -0.36226112 -0.3317895 -0.6445632 -0.12006994 0.19465245 -0.04435956
0.25897008 -0.26459822 0.31868103 -0.52190864 -0.2764382 0.0091500245 -0.39670548 0.061757624
-0.12723921 -0.16316405 0.16521026 -0.55836755 -0.19935471 0.11357082 0.25420547 0.17612131
-0.61715215 -0.20248134 -0.4508626 -0.3056622 0.002865252 -0.23395868 -0.5417345 -0.14949724
00000000: 2ca5 b0be e35b febe 87bc 883d c056 f1be
00000010: d8a5 493e 86be ddbe 3078 09be 786f 7bbe
00000020: f39d 163e b2be 843e c12d e73d 9208 893e
00000030: 2872 12be db80 bbbe 2375 94be 365e aabe
00000040: 75fe fdbe c48f 043e 595e 813e 4dbc 863e
00000050: 9209 ab3e 7b1d 1f3e f918 10bf 7871 d6bd
00000060: d237 71be 26c1 f9be 28fc ca3d 3fb8 bcbd
00000070: 8dd2 27be 2e10 48be 6339 ca3e 0b12 bd3d
00000080: 1a45 06bf d966 123e 4a7a b9be 50e0 a9be
00000090: 1802 25bf 3be7 f5bd f952 473e 5fb2 35bd
000000a0: ba97 843e 6b79 87be 292a a33e ce9b 05bf
000000b0: 4f89 8dbe fce9 153c fb1c cbbe 90f5 7c3d
000000c0: ff4a 02be 7a14 27be e12c 293e 2df1 0ebf
000000d0: a423 4cbe d197 e83d 3827 823e 2559 343e
000000e0: affd 1dbf 4557 4fbe 76d7 e6be c27f 9cbe
000000f0: f4c6 3b3b dd92 6fbe 1daf 0abf ce15 19be

convs.0.application__interacts__event.lin_root.weight f4 [64, 27]
-0.07915 0.0992275 -0.14333083 -0.09772732 -0.30493796 -0.2362975 -0.36495394 -0.4245848
-0.22808482 -0.12915942 -0.50156295 -0.09770084 -0.44631022 -0.31372458 -0.11630651 -0.11207089
-0.3649109 -0.3499848 -0.14894411 -0.08353812 -0.26811242 0.19844718 -0.16398516 -0.0063504823
0.16763571 0.01906237 -0.049638685 -0.026257975 -0.16898087 -0.16949558 0.028307905 -0.13426077
0.040207684 -0.1782603 0.44153032 -0.15702215 -0.03389877 0.19573373 0.23044781 -0.2693306
0.0074743284 0.063278645 0.124735735 0.08897868 0.017495178 -0.0038702085 0.6100667 0.017333888
-0.15009981 -0.01481879 -0.15226448 0.005986127 -0.10864393 0.19388302 0.052451465 -0.23162314
-0.17730197 -0.4473564 0.2872857 -0.1313231 -0.44529584 0.7689384 -0.20324193 0.090337075
-0.11607297 -0.40436542 -0.28917167 -0.16294265 -0.05610373 -0.14097033 -0.10035352 -0.061954904
-0.06760611 -0.16032562 0.1428193 0.10836041 -0.07151383 -0.21056795 0.059084944 -0.5831155
0.8625878 -0.12903956 -0.20865342 0.11855891 -0.09562096 -0.18660717 -0.22132356 0.09363246
-0.44544816 -0.31624484 0.048514143 -0.2567774 -0.18754968 -0.18097267 -0.44827858 0.04537027
-0.118726455 -0.34788787 -0.32688484 0.052598424 -0.21484336 -0.22303906 -0.42428803 -0.13236405
-0.16752198 0.036607854 -0.14927863 0.028799705 -0.10383736 -0.35565254 -0.4550444 0.077164635
0.569633 -0.124990895 -0.16981824 -0.4600164 -0.5436978 0.13525207 -0.514488 -0.4974981
-0.08578775 -0.79375005 -0.047324408 -0.4534361 -0.48194852 -0.3570629 -0.18175237 -0.17373525
-0.060484808 -0.75049114 -0.27027887 0.020693017 -0.5401148 0.3586173 -0.24920377 -0.46735862
-0.2309824 0.08115291 -0.9829066 -1.3041205 0.038757134 -0.6800723 -0.60986555 -0.2710982
0.10745828 0.6752406 1.9913939 -1.1526446 0.8642542 0.57118416 0.62947565 -0.089261256
0.051212918 -0.019306693 0.3367176 -0.25897682 -0.43767768 -0.17200708 0.39201698 1.2742639
-0.2393004 -0.41508505 -1.4286892 0.56462336 0.07426574 2.0851874 -0.537417 -0.4612608
-0.5454619 -0.97998625 -0.2624532 -0.58850014 0.19695374 -0.5867117 -0.6673535 -0.8375237
-0.6157868 -0.5961337 -0.49606234 -0.16714312 -0.063629605 -0.109081015 0.15761635 -0.96481305
-0.52106464 0.42318165 0.32283348 0.886591 -0.29462638 -1.0331199 -1.093358 -0.5397666
-1.3849277 -0.7960283 -0.3719207 -1.221867 -0.521926 0.65545934 -0.10894455 -0.64536357
1.4801201 0.8596763 0.8413543 0.9366147 1.0027982 -0.20453483 0.5209269 0.1923892
-0.41178995 -0.10927778 0.28038508 0.27064234 0.33918554 1.2088691 -0.30226412 -0.5979977
-0.4934805 -0.046714272 -0.04017945 0.1285444 -0.10033047 -0.15853766 0.08906477 -0.47494718
-0.3447965 0.18202774 -0.06828721 -0.48818082 -0.08991878 -0.35155946 -0.11617607 -0.2912448
-0.14557263 -0.5568408 -0.047107615 -0.0943832 -0.24575427 -0.6086084 -0.07596448 -0.53513
-0.696765 -0.22548917 0.08815084 -0.3033061 -0.11075521 -0.16108386 -0.15602644 0.13481241
-0.16950703 0.09192428 -0.1663871 -0.123066336 -0.091164835 -0.47750875 -0.1508957 -0.07468872
00000000: 6519 a2bd ca37 cb3d 51c5 12be 4325 c8bd
00000010: d420 9cbe f9f7 71be 3edb babe 2e63 d9be
00000020: 118f 69be 5e42 04be 6e66 00bf 6117 c8bd
00000030: c682 e4be 82a0 a0be 1c32 eebd 6c85 e5bd
00000040: 9ad5 babe 3531 b3be ce84 18be 0916 abbd
00000050: 0846 89be bd35 4b3e baeb 27be b517 d0bb
00000060: b2a8 2b3e b028 9c3c ef51 4bbd f71a d7bc
00000070: 5209 2dbe 4090 2dbe fbe5 e73c a87b 09be
00000080: d0b0 243d de89 36be 4310 e23e 6aca 20be
00000090: 70d9 0abd 6c6e 483e 83fa 6b3e b3e5 89be
000000a0: 36eb f43b 3c98 813d 7375 ff3d 743a b63d
000000b0: 0c52 8f3c 53a3 7dbb 552d 1c3f ccff 8d3c
000000c0: c4b3 19be 83ca 72bc 38eb 1bbe 4627 c43b
000000d0: b580 debd 4589 463e 59d7 563d 9e2e 6dbe
000000e0: a68e 35be e60b e5be 1c17 933e 9079 06be
000000f0: d1fd e3be 26d9 443f a71e 50be a502 b93d
00000100: aab7 edbd fc08 cfbe 4f0e 94be 70da 26be
00000110: 06cd 65bd 875a 10be 2586 cdbd 6dc4 7dbd
00000120: 1275 8abd 662c 24be 393f 123e 10ec dd3d
00000130: d875 92bd 209f 57be 0e03 723d 0f47 15bf
00000140: 8ed2 5c3f f222 04be 3ea9 55be 04cf f23d
00000150: ecd4 c3bd f315 3fbe a5a2 62be 60c2 bf3d
00000160: c811 e4be d8ea a1be c4b6 463d 5478 83be
00000170: 060d 40be e650 39be c584 e5be 2dd6 393d
00000180: db26 f3bd 5c1e b2be 735d a7be 7271 573d
00000190: e6ff 5bbe 5a64 64be 483c d9be 718a 07be
000001a0: e28a 2bbe 1ef2 153d 7fdc 18be 5ced eb3c
000001b0: afa8 d4bd 1718 b6be 94fb e8be 7e08 9e3d
000001c0: 78d3 113f 3afb ffbd d5e4 2dbe 4587 ebbe
000001d0: c72f 0bbf 857f 0a3e 7cb5 03bf 12b8 febe
000001e0: 7db1 afbd 3433 4bbf 3dd7 41bd c728 e8be
000001f0: f5c1 f6be f3d0 b6be 4b1d 3abe a7e7 31be
00000200: ebbe 77bd 3020 40bf fe61 8abe 6784 a93c
00000210: f744 0abf b09c b73e 462f 7fbe a149 efbe
00000220: a686 6cbe 7f33 a63d c49f 7bbf 6ced a6bf
00000230: cdbf 1e3d 3819 2ebf 2620 1cbf 62cd 8abe
00000240: 1613 dc3d 91dc 2c3f ffe5 fe3f dc89 93bf
00000250: c33f 5d3f 2039 123f 5125 213f 9bce b6bd
00000260: a3c4 513d 1229 9ebc 4066 ac3e 9c98 84be
00000270: 4a17 e0be a022 30be 73b6 c83e 141b a33f
00000280: 2a0b 75be 0786 d4be 4adf b6bf 288b 103f
00000290: a318 983d b673 0540 2994 09bf 602a ecbe
000002a0: 64a3 0bbf 61e0 7abf 4460 86be f2a7 16bf
000002b0: 3eae 493e bd32 16bf aed7 2abf f467 56bf
000002c0: 34a4 1dbf 389c 18bf e2fb fdbe 9127 2bbe
000002d0: 3d50 82bd de65 dfbd 2e66 213e fdfd 76bf
000002e0: 7e64 05bf 44ab d83e 6e4a a53e a1f7 623f
000002f0: 45d9 96be 463d 84bf 28f3 8bbf 252e 0abf
00000300: 5045 b1bf 83c8 4bbf 646c bebe 2366 9cbf
00000310: f19c 05bf 2fcc 273f 521e dfbd 8c36 25bf
00000320: 9374 bd3f bf13 5c3f ff62 573f fbc5 6f3f
00000330: b15b 803f 9471 51be 775b 053f ad01 453e
00000340: 22d6 d2be 07cd dfbd a28e 8f3e a291 8a3e
00000350: baa9 ad3e 39bc 9a3f 5dc2 9abe 6116 19bf
00000360: 7aa9 fcbe 7757 3fbd 3593 24bd 25a1 033e
00000370: 107a cdbd b257 22be 9767 b63d 472c f3be
00000380: 2b89 b0be 7b65 3a3e 2ada 8bbd d6f2 f9be
00000390: 5627 b8bd 9aff b3be b8ed edbd 0a1e 95be
000003a0: fe10 15be 1e8d 0ebf eaf3 40bd fb4b c1bd
000003b0: 02a7 7bbe c3cd 1bbf 4493 9bbd 48fe 08bf
000003c0: 315f 32bf a2e6 66be 6d88 b43d f04a 9bbe
000003d0: a1d3 e2bd 2bf3 24be 65c5 1fbe 440c 0a3e
000003e0: 4093 2dbe cc42 bc3d 6161 2abe 340a fcbd
000003f0: a1b4 babd 077c f4be 6784 1abe 66f6 98bd

convs.0.offer__interacts__event.lin_rel.weight f4 [64, 7]
0.31200224 -0.655232 -0.30202994 -0.33053765 0.17803928 -0.12687026 0.0847246 0.9735692
0.28588247 0.28724173 -0.057683032 0.73780775 0.13378634 -0.2330664 0.7402814 0.12914215
0.4601095 0.0012492941 -0.6107786 0.18586713 0.04979345 0.12031034 -0.46403617 -0.64689815
-0.20129207 0.5402585 -0.597826 -0.34684464 -0.27913016 -0.5608494 -0.5416064 -0.084274285
-2.641906 0.1505055 -0.27483955 -0.22687174 0.2905048 -0.008107554 0.7377877 1.5326128
0.33578545 0.9785508 -1.1322242 1.4589264 1.4673662 0.29991248 6.957009 -0.10549305
-0.28949326 -1.3307313 -0.7295747 -0.99845964 0.017031252 1.5915401 -0.24036273 -0.1848554
0.5171206 -0.25291553 -0.30605674 0.18113652 1.073563 0.2541481 0.28053394 0.5902436
0.37361962 0.05898029 0.04779251 1.1298965 0.28885046 -0.081630394 0.019020624 -0.6135966
-0.2385899 -0.20427412 1.1179298 -0.030626448 -0.098826736 -0.06553646 -0.010048126 0.31678867
0.09730594 1.2404178 0.059869934 -0.21575284 -0.46664685 -0.2870486 -0.38574055 -0.059664305
0.3918835 0.6719958 0.30274624 0.16163039 -0.11268269 0.19613786 -0.25858155 -0.32317042
-0.30325738 -0.63092697 0.41373873 0.32251063 0.32834625 -0.1442689 -0.72697526 -0.1282573
-0.9361109 -0.036568858 -0.33333093 -0.23435138 -0.18350518 0.5489803 0.30895716 -0.2844669
-0.17511076 0.5051777 0.6380112 -0.32837126 0.8630611 0.077122144 -0.023479644 1.2561636
0.35498282 -0.15626332 0.17672835 -12.479474 0.42871952 1.099487 0.7783682 -0.8848594
-0.9471557 0.11176578 0.5487992 -0.2817852 0.35037732 -0.9117349 -0.34714898 -0.19926551
0.08489175 0.6939062 -0.27785692 -0.31073818 0.06415974 -0.16170228 -0.7245516 -0.1667075
0.5389133 0.07004416 -0.08778914 0.11377364 -0.2839049 -0.57472456 -0.4302516 0.428169
0.25739408 -0.6515205 0.4293325 0.28751728 0.83989245 0.73411065 1.241757 0.6685875
1.0867712 1.2568235 -0.21746112 -0.33863175 -0.34972414 0.011566669 0.09671662 -0.28748235
0.023272488 -0.42990825 -0.67078745 -0.40764737 1.8788277 -0.095035665 -0.13685939 0.4731317
-0.6953153 -0.27706596 -0.34314662 0.62630993 0.20923643 -0.4862891 -0.3687247 -0.63562876
-0.56536466 -0.35149541 1.0070167 -0.33730453 0.34926423 0.71007705 0.008024066 -0.22813705
-0.05410511 0.53015465 -0.08806661 -0.23127066 0.72448814 0.042852715 -0.100627 -0.06193964
-0.47072735 -0.17482816 -0.05101909 1.19066 -0.11104218 -0.069270566 -0.25439042 0.85905993
-0.22859116 -1.4698172 0.57652247 -0.51946634 -0.4441903 -0.7748766 0.8864944 0.18399338
0.28029713 0.649768 -0.3744132 -0.544136 -0.066972286 0.010849705 -0.4286238 -0.35188216
0.1251471 -0.3004188 -0.11401304 0.21574222 1.4655714 -0.22329852 -0.38768473 -0.046243023
0.32396534 0.34907132 -0.24724707 0.811274 -0.30099732 0.19431232 0.2903145 -0.40258828
-0.64579946 -0.030392967 0.18571629 0.060591035 -0.3084975 -0.7630261 -0.5184355 -0.43762484
-0.413314 0.4124669 -0.35608575 -0.4427771 0.62190616 -0.40007332 -0.4586086 -0.41132903
00000000: c2be 9f3e 49bd 27bf aba3 9abe 3b3c a9be
00000010: ee4f 363e 47ea 01be 1784 ad3d d53b 793f
00000020: 305f 923e 5911 933e 0b45 6cbd f8e0 3c3f
00000030: 49ff 083e f5a8 6ebe 1583 3d3f d73d 043e
00000040: 7993 eb3e 5bbf a33a fd5b 1cbf f453 3e3e
00000050: 37f4 4b3d 4465 f63d 2696 edbe 1e9b 25bf
00000060: 821f 4ebe 624e 0a3f 200b 19bf 9f95 b1be
00000070: 26ea 8ebe d493 0fbf b8a6 0abf ff97 acbd
00000080: fd14 29c0 1d1e 1a3e c5b7 8cbe 1151 68be
00000090: 0cbd 943e 8cd5 04bc a8df 3c3f a82c c43f
000000a0: 12ec ab3e 4e82 7a3f b9ec 90bf 1abe ba3f
000000b0: a8d2 bb3f 218e 993e d19f de40 bd0c d8bd
000000c0: 7638 94be 6755 aabf 68c5 3abf 0d9b 7fbf
000000d0: 2085 8b3c 96b7 cb3f a621 76be bc4a 3dbe
000000e0: 0462 043f 257e 81be 78b3 9cbe da7b 393e
000000f0: 836a 893f b31f 823e 25a2 8f3e 341a 173f
00000100: 124b bf3e 5195 713d 14c2 433d 73a0 903f
00000110: 35e4 933e d62d a7bd 24d1 9b3c ab14 1dbf
00000120: e950 74be 3c2d 51be 5318 8f3f 51e4 fabc
00000130: ac65 cabd fb37 86bd e5a0 24bc 2032 a23e
00000140: 5648 c73d 03c6 9e3f 2d3a 753d 50ee 5cbe
00000150: 56ec eebe 09f8 92be c97f c5be 8f62 74bd
00000160: f4a4 c83e eb07 2c3f 8e01 9b3e 7082 253e
00000170: 2fc6 e6bd 5dd8 483e cd64 84be 9876 a5be
00000180: 8d44 9bbe 6e84 21bf 90d5 d33e 1d20 a53e
00000190: 001d a83e 3abb 13be 0d1b 3abf e255 03be
000001a0: f7a4 6fbf 3ac9 15bd 5aaa aabe cff9 6fbe
000001b0: c8e8 3bbe f989 0c3f a22f 9e3e a5a5 91be
000001c0: 3c50 33be 5353 013f b454 233f 4720 a8be
000001d0: 92f1 5c3f 37f2 9d3d 6258 c0bc f8c9 a03f
000001e0: 4fc0 b53e 7e03 20be 47f8 343e edab 47c1
000001f0: 2081 db3e fdbb 8c3f 2343 473f 2586 62bf
00000200: cc78 72bf 75e5 e43d 1b7e 0c3f 2646 90be
00000210: a864 b33e 7567 69bf 83bd b1be 420c 4cbe
00000220: badb ad3d d6a3 313f 4343 8ebe 1319 9fbe
00000230: 2f66 833d 4895 25be 377c 39bf 5fb5 2abe
00000240: 39f6 093f 5073 8f3d cbca b3bd 2702 e93d
00000250: fc5b 91be 2621 13bf f049 dcbe f838 db3e
00000260: 28c9 833e 0cca 26bf 78d1 db3e 7735 933e
00000270: 3103 573f adee 3b3f e5f1 9e3f 8d28 2b3f
00000280: 521b 8b3f 98df a03f 21ae 5ebe 2461 adbe
00000290: 0b0f b3be 2082 3d3c 5d13 c63d e330 93be
000002a0: f2a5 be3c ef1c dcbe bab8 2bbf 28b7 d0be
000002b0: 6d7d f03f 0fa2 c2bd de24 0cbe 513e f23e
000002c0: 2f00 32bf 97db 8dbe eab0 afbe d955 203f
000002d0: 1342 563e e3fa f8be 7cc9 bcbe 91b8 22bf
000002e0: bdbb 10bf 35f7 b3be ece5 803f 2eb3 acbe
000002f0: c3d2 b23e 9cc7 353f 5f77 033c c29c 69be
00000300: 529d 5dbd 37b8 073f 445c b4bd 37d2 6cbe
00000310: 0e78 393f 5486 2f3d 8715 cebd 6cb4 7dbd
00000320: 2d03 f1be 2706 33be 65f9 50bd 8c67 983f
00000330: 156a e3bd badd 8dbd 763f 82be 5aeb 5b3f
00000340: cd13 6abe f822 bcbf fa96 133f bffb 04bf
00000350: e96c e3be 505e 46bf 4cf1 623f c368 3c3e
00000360: 1b83 8f3e 3257 263f 16b3 bfbe 7f4c 0bbf
00000370: c428 89bd f6c2 313c 9474 dbbe e629 b4be
00000380: 9026 003e 7ed0 99be ab7f e9bd 87eb 5c3e
00000390: d897 bb3f 5ea8 64be 9d7e c6be 5369 3dbd
000003a0: c9de a53e 7ab9 b23e 562e 7dbe a7af 4f3f
000003b0: 521c 9abe cff9 463e 1aa4 943e 0d20 cebe
000003c0: 1d53 25bf acfa f8bc 692c 3e3e 4e2e 783d
000003d0: 62f3 9dbe ae55 43bf 30b8 04bf 5d10 e0be
000003e0: e59d d3be dd2e d33e df50 b6be aeb3 e2be
000003f0: 3e35 1f3f 69d6 ccbe bfce eabe b899 d2be

convs.0.offer__interacts__event.lin_rel.bias f4 [64]
0.09724402 0.2820138 -0.30294895 0.1454451 0.073055595 0.28371903 0.26156652 -0.07541756
-0.03193928 -0.5148919 0.11606274 -0.4970955 -0.117241114 -0.068601735 -0.22365712 0.1239962
-0.404785 -0.27995422 -0.32363975 -0.37961292 -0.5051738 -0.12615103 0.08532973 -0.25895774
-0.047069807 -0.3227337 -0.061262283 -0.35809752 -0.27582243 0.12116018 0.066765 -0.3471836
0.15606536 -0.28615206 0.19906023 -0.63658327 -0.32872498 -0.19931655 -0.321545 -0.35647258
-0.06966909 -0.21083242 -0.21928702 0.26635545 -0.31372723 -0.15058404 -0.1505058 -0.0959467
-0.25824422 0.19575088 -0.056146055 0.1848529 -0.16553444 -0.2949138 0.18222365 0.104872145
-0.23176838 -0.055583574 0.27415016 -0.06957434 -0.058943138 -0.22711904 0.12584803 0.25338995
00000000: df27 c73d 1d64 903e 201c 9bbe 8fef 143e
00000010: 2c9e 953d 9f43 913e 0cec 853e 8674 9abd
00000020: c3d2 02bd f5cf 03bf 4db2 ed3d 4d83 febe
00000030: 1c1c f0bd 117f 8cbd 5f06 65be b8f1 fd3d
00000040: fb3f cfbe 2956 8fbe 1cb4 a5be a05c c2be
00000050: 1253 01bf bc2d 01be 5ac1 ae3d 1c96 84be
00000060: 45cc 40bd 5a3d a5be 29ee 7abd 8f58 b7be
00000070: 9938 8dbe d422 f83d 17bc 883d 0cc2 b1be
00000080: 99cf 1f3e 8682 92be 72d6 4b3e 1ff7 22bf
00000090: a44e a8be a319 4cbe 8ca1 a4be 9383 b6be
000000a0: abae 8ebd 74e4 57be c78c 60be be5f 883e
000000b0: dba0 a0be b432 1abe 311e 1abe b47f c4bd
000000c0: 9638 84be eb72 483e 68f9 65bd 144a 3d3e
000000d0: dc81 29be f1fe 96be d698 3a3e 35c7 d63d
000000e0: b154 6dbe 9aab 63bd 695d 8c3e fe7c 8ebd
000000f0: 5c6e 71bd e591 68be 4ede 003e 54bc 813e

convs.0.offer__interacts__event.lin_root.weight f4 [64, 27]
-0.05708143 0.24740683 -0.032350544 -0.06331813 0.0028457604 -0.20411749 -0.10121598 -0.20780922
-0.22638105 -0.30800802 -0.32477695 -0.1348559 -0.36476982 -0.5158837 -0.21349587 -0.17223187
-0.12622696 -0.04798577 -0.21456428 -0.3644444 -0.22908676 0.08806717 -0.4491514 -0.3069305
-0.17718558 -0.110093236 -0.33465928 -0.19865015 0.13534282 0.06145287 0.008077039 0.013783533
-0.04907658 0.016707134 0.32040128 -0.41128555 -0.078437775 0.12562779 0.3971173 -0.08610091
0.04747586 0.13526867 0.037794728 0.013853585 -0.122096114 0.13919945 0.7692377 0.223094
-0.2074648 -0.18922806 0.047247883 0.07069092 0.026377855 0.06791889 0.10250337 -0.22799526
0.054393776 -0.37478614 0.3984371 -0.41488287 -0.24115847 0.74210364 -0.21307623 0.34514418
-0.04604472 -0.32622328 -0.21969548 -0.14538223 -0.16581975 0.024272822 -0.11949526 0.018458717
0.11439026 -0.07063848 0.19119498 -0.11351617 -0.2216223 -0.033380557 0.105178885 -0.6354424
0.80818903 -0.10379041 -0.12231017 0.092320025 -0.1594687 -0.068407014 -0.1108756 -0.1430295
-0.4217652 -0.13634732 0.014963166 -0.23650323 -0.15386727 -0.03758291 -0.18934324 0.011868541
-0.25029644 -0.44364604 -0.16728732 0.34953085 0.020623103 -0.096489765 -0.49822018 -0.11866224
-0.053757 0.023977684 0.13848536 0.1241234 -0.008664347 -0.3984097 -0.07810636 -0.22359209
0.5832988 -0.16645479 -0.06838738 -0.5994506 -0.5617089 0.07239222 -0.1624275 -0.55694073
-0.43288445 -0.8738889 -0.3026831 -0.20123523 -0.73676026 -0.31100973 -0.2630205 -0.0701326
-0.19301541 -0.7169393 -0.2823552 -0.14122169 -0.7145625 0.412505 -0.2742917 -0.41912842
-0.07777415 -0.22265673 -1.064598 -1.4318551 -0.032289468 -0.59404486 -0.61446613 -0.5013611
0.009154365 0.74306065 2.1453815 -1.1328135 1.1505829 0.40252328 0.32241577 -0.20215474
0.29090688 0.15729931 0.29318342 -0.2774782 -0.44760555 -0.24334663 0.303741 1.4355794
-0.018913135 -0.21948224 -1.0992589 0.5897899 0.18214592 1.8623682 -0.21272545 -0.4183688
-0.21407755 -1.1077454 -0.2452117 -0.58524084 0.29051107 -0.6123387 -0.8627868 -0.95163924
-0.56235176 -0.25933534 -0.5435914 -0.27480963 -0.017299931 -0.14854993 0.2751271 -1.0306541
-0.16909741 0.65505713 0.32914218 0.87079746 -0.47802022 -1.0692116 -0.8314659 -0.3546726
-1.5239154 -1.1482437 -0.1559178 -1.1763742 -0.43974522 0.75562763 -0.18061878 -0.65094215
1.4100791 0.76843977 1.0100824 1.0328006 1.1517022 0.107261576 0.44013807 0.15614058
-0.17969678 -0.32444036 0.29433924 0.22557561 0.3653332 1.2894833 -0.33995217 -0.6084373
-0.2351572 -0.36761895 0.17147292 -0.018576417 -0.1665431 -0.16487329 -0.071075834 -0.4687852
-0.37870657 0.1289921 -0.116099425 -0.3989494 -0.074888706 -0.35765016 -0.05894596 -0.5599026
-0.2400125 -0.21083166 0.064650185 -0.0770228 -0.15162869 -0.6268647 -0.16888498 -0.40467504
-0.42423 -0.23843561 -0.06799275 -0.15902318 -0.108491294 0.17490703 -0.3799541 -0.042926814
-0.10889269 -0.07979154 -0.14487468 -0.38254535 -0.34284723 -0.5324084 -0.32921293 -0.08879668
00000000: 38ce 69bd 3758 7d3e 0182 04bd f0ac 81bd
00000010: f07f 3a3b 2d04 51be 534a cfbd f1cb 54be
00000020: 6fd0 67be 3ab3 9dbe 2a49 a6be aa17 0abe
00000030: 1cc3 babe f410 04bf a99e 5abe 8d5d 30be
00000040: a441 01be ba8c 44bd bdb6 5bbe 7598 babe
00000050: b895 6abe 8f5c b43d 2cf7 e5be ff25 9dbe
00000060: 2370 35be 9078 e1bd 7658 abbe f26a 4bbe
00000070: 4f97 0a3e 01b6 7b3d 8f55 043c 54d4 613c
00000080: 8604 49bd 66dd 883c a30b a43e 0594 d2be
00000090: fca3 a0bd 92a4 003e f552 cb3e ad55 b0bd
000000a0: 0c76 423d df83 0a3e a5ce 1a3d 26fa 623c
000000b0: 870d fabd 4d8a 0e3e c3ec 443f c172 643e
000000c0: a771 54be 00c5 41be ff86 413d 67c6 903d
000000d0: 5f16 d83c 0f19 8b3d 49ed d13d 9777 69be
000000e0: 02cc 5e3d f8e3 bfbe f3ff cb3e 876b d4be
000000f0: 3ff2 76be 81fa 3d3f a830 5abe bdb6 b03e
00000100: 6399 3cbd bd06 a7be daf7 60be 14df 14be
00000110: a7cc 29be ccd7 c63c eeb9 f4bd bc36 973c
00000120: 7145 ea3d e8aa 90bd 9ec8 433e 2a7b e8bd
00000130: f5f0 62be 0dba 08bd 0768 d73d 5aac 22bf
00000140: 7ae5 4e3f 1190 d4bd c17d fabd 4812 bd3d
00000150: c34b 23be fa18 8cbd bf12 e3bd 5376 12be
00000160: 9cf1 d7be a29e 0bbe 1128 753c e72d 72be
00000170: 628f 1dbe 8af0 19bd 32e3 41be 4574 423c
00000180: db26 80be 9325 e3be 5e4d 2bbe b5f5 b23e
00000190: c8f1 a83c 6d9c c5bd b716 ffbe 3005 f3bd
000001a0: 4d30 5cbd d96c c43c 1bcf 0d3e 6934 fe3d
000001b0: e8f4 0dbc 5bfc cbbe 3af6 9fbd 53f5 64be
000001c0: 1253 153f 2073 2abe af0e 8cbd 9875 19bf
000001d0: 28cc 0fbf 5f42 943d 6553 26be ab93 0ebf
000001e0: 08a3 ddbe 2fb7 5fbf 47f9 9abe 9c10 4ebe
000001f0: 529c 3cbf ab3c 9fbe 9faa 86be aea1 8fbd
00000200: d5a5 45be 5589 37bf dc90 90be 6b9c 10be
00000210: 91ed 36bf db33 d33e f66f 8cbe 0098 d6be
00000220: 0e48 9fbd 2000 64be bf44 88bf 0747 b7bf
00000230: f641 04bd 5313 18bf a74d 1dbf 3359 00bf
00000240: 31fc 153c 3939 3e3f ee4d 0940 0800 91bf
00000250: 4d46 933f 8817 ce3e ae13 a53e a701 4fbe
00000260: bff1 943e 1213 213e 231c 963e 9f11 8ebe
00000270: 8e2c e5be dc2f 79be f183 9b3e 11c1 b73f
00000280: b8ef 9abc f4bf 60be 84b4 8cbf 79fc 163f
00000290: 7684 3a3e 1562 ee3f b3d4 59be 6f34 d6be
000002a0: 2537 5bbe 9aca 8dbf c718 7bbe 58d2 15bf
000002b0: debd 943e 3bc2 1cbf 99df 5cbf a19e 73bf
000002c0: 49f6 0fbf 9ac7 84be ce28 0bbf d9b3 8cbe
000002d0: 96b8 8dbc 791d 18be 76dd 8c3e 79ec 83bf
000002e0: df27 2dbe d3b1 273f 5385 a83e 95ec 5e3f
000002f0: 11bf f4be eddb 88bf f3da 54bf a697 b5be
00000300: a90f c3bf a6f9 92bf eaa8 1fbe 6e93 96bf
00000310: 4926 e1be d070 413f 21f4 38be 25a4 26bf
00000320: 797d b43f 78b8 443f 614a 813f cf32 843f
00000330: fa6a 933f f5ab db3d c759 e13e 51e3 1f3e
00000340: 6f02 38be 0c1d a6be a2b3 963e 4bfd 663e
00000350: f40c bb3e ca0d a53f 360e aebe 8cc2 1bbf
00000360: 0dcd 70be 8d38 bcbe 9996 2f3e 922d 98bc
00000370: 468a 2abe 8bd4 28be 3590 91bd 9d04 f0be
00000380: d4e5 c1be 8116 043e 89c5 edbd 1943 ccbe
00000390: 405f 99bd ec1d b7be 5271 71bd c755 0fbf
000003a0: d6c5 75be 41e4 57be 5167 843d 21be 9dbd
000003b0: 8d44 1bbe 347a 20bf 2ff0 2cbe 9131 cfbe
000003c0: ad34 d9be 7728 74be c83f 8bbd f9d6 22be
000003d0: af30 debd d41a 333e 5889 c2be 07d4 2fbd
000003e0: 2103 dfbd bf69 a3bd 075a 14be fcdc c3be
000003f0: ac89 afbe eb4b 08bf 998e a8be 09db b5bd

convs.0.application__updates__application.lin_rel.weight f4 [64, 3]
-0.13657549 -0.31154338 -0.3056279 0.50515825 0.1664232 0.4174912 -0.592558 -0.06233646
-0.17642428 -0.29437268 0.21669447 0.32109588 -1.1198806 0.116421774 0.25117373 0.19974369
-0.46263602 0.14172994 0.106837004 -0.39602724 0.30472067 -0.30504707 0.1588363 -0.024951164
0.03130387 0.26507694 0.08814482 0.5233075 -0.37728113 0.22373845 -0.13662688 -0.62210065
-0.14311863 -0.8917224 -0.0061844434 -0.044016484 0.16489005 0.14023118 -0.090724975 0.36079988
0.26984334 0.122909494 0.38496974 1.0179697 0.56915855 -0.34654146 0.108895555 0.13474889
0.16805609 -0.3679707 -0.12740912 -0.3726074 0.13941991 -0.4432121 0.22448678 0.21100013
0.18738145 -0.34702206 -0.27727798 -0.11400458 -0.7700353 -0.8605883 0.09737541 -0.83379763
0.020794591 -0.04440205 0.30810446 -0.15829125 -0.17135611 -0.9655211 -0.6974841 -0.6105466
-0.80449545 0.4842683 0.12764914 0.019269297 0.50511956 0.58099407 -0.2874895 -0.67584467
-0.57631415 -0.20192447 -0.049875956 -0.28738293 0.2926769 -0.8220911 -0.40769097 0.38814518
-0.026425939 -1.034774 -0.23453711 -0.02763058 -0.14743748 -0.4304972 -0.21767467 -0.36224902
-0.4601021 -0.105962284 -0.60854924 -0.47006208 -0.34158266 -0.24518114 -0.26502794 -0.4790305
-0.30771238 -0.6330892 -0.06987541 0.1757504 3.1763046 1.5741534 -0.7211592 -0.3649864
-0.38715023 -0.18003361 0.22647361 -0.52258 0.06587002 -0.09509961 -0.34718415 -0.03752969
-1.0968214 -0.7182509 0.2011741 -0.6404446 0.1328677 0.23230907 -0.4892999 -0.05190889
-0.08003537 0.11817142 0.28338405 -0.062073123 -0.40425017 -0.34220737 -0.23471586 -0.011480049
0.051214177 -0.6816656 -0.9179727 0.14233403 0.058300454 0.425446 -0.06797061 -0.22158448
-0.45514354 0.34706396 0.42786056 0.34900177 0.3175085 -0.2560835 -0.41162005 -0.009105898
-0.792515 -0.864139 -0.10054239 -0.788686 -1.1483608 0.1676181 -0.08082865 -0.12237627
-0.09356994 -0.22055824 -0.5617687 -0.027102245 0.12008043 -0.78203225 -0.7871166 -0.3786999
-0.23589595 -0.017352665 0.02614555 0.04034974 -0.13034824 0.28033385 -0.14326304 -0.10339947
0.4891667 -0.25317064 -0.044001136 -0.03341071 0.0157767 0.30084243 0.28600484 -0.22864126
-0.37189883 0.01755118 -0.3903349 -0.538157 -0.17018229 0.034727998 0.02400345 -0.30203685
00000000: 72da 0bbe 9d82 9fbe 437b 9cbe 0d52 013f
00000010: d86a 2a3e 68c1 d53e e2b1 17bf 8454 7fbd
00000020: 91a8 34be 04b8 96be 28e5 5d3e ae66 a43e
00000030: 3f58 8fbf 8a6e ee3d d899 803e 9c89 4c3e
00000040: a1de ecbe a721 113e 5ccd da3d 15c4 cabe
00000050: 5904 9c3e 212f 9cbe fca5 223e 6266 ccbc
00000060: 7d38 003d 2ab8 873e 4585 b43d 7bf7 053f
00000070: fe2a c1be b11b 653e ebe7 0bbe fd41 1fbf
00000080: b18d 12be eb47 64bf dfa6 cabb a14a 34bd
00000090: f0d8 283e c398 0f3e 04ce b9bd c3ba b83e
000000a0: e828 8a3e f9b7 fb3d c11a c53e d54c 823f
000000b0: 60b4 113f e26d b1be a204 df3d 9dfb 093e
000000c0: e516 2c3e a866 bcbe 8977 02be 66c6 bebe
000000d0: 18c4 0e3e b2ec e2be dddf 653e 6b10 583e
000000e0: ece0 3f3e e0ac b1be 61f7 8dbe 3c7b e9bd
000000f0: 0921 45bf 844f 5cbf c26c c73d c373 55bf
00000100: 6b59 aa3c edde 35bd debf 9d3e 1a17 22be
00000110: fa77 2fbe 642c 77bf 518e 32bf c84c 1cbf
00000120: 6af3 4dbf 04f2 f73e 75b6 023e a5da 9d3c
00000130: 844f 013f 07bc 143f d331 93be 2804 2dbf
00000140: 5389 13bf 4ac5 4ebe bb4a 4cbd db23 93be
00000150: bfd9 953e 9074 52bf dfbc d0be f7ba c63e
00000160: 367b d8bc 7973 84bf 7f2a 70be 8759 e2bc
00000170: daf9 16be 216a dcbe 1ce6 5ebe b478 b9be
00000180: 8192 ebbe c102 d9bd e2c9 1bbf faab f0be
00000190: ece3 aebe c410 7bbe beb1 87be 7c43 f5be
000001a0: 7a8c 9dbe 2212 22bf d71a 8fbd eaf7 333e
000001b0: 9348 4b40 dc7d c93f e49d 38bf 7fdf babe
000001c0: 8e38 c6be bb5a 38be b3e8 673e cec7 05bf
000001d0: dce6 863d 96c3 c2bd 1fc2 b1be bbb8 19bd
000001e0: a564 8cbf 4adf 37bf 9500 4e3e 2df4 23bf
000001f0: 780e 083e 6ee2 6d3e 8485 fabe 6b9e 54bd
00000200: 96e9 a3bd dc03 f23d b717 913e 6340 7ebd
00000210: e1f9 cebe ce35 afbe 5b59 70be d116 3cbc
00000220: f5c5 513d a381 2ebf 4200 6bbf 03c0 113e
00000230: 75cc 6e3d 0fd4 d93e 2d34 8bbd 0be7 62be
00000240: 9308 e9be 5eb2 b13e 8a10 db3e 5cb0 b23e
00000250: 7990 a23e 601d 83be ddbf d2be e830 15bc
00000260: 43e2 4abf 3738 5dbf 2be9 cdbd 53e7 49bf
00000270: 7dfd 92bf 14a4 2b3e 7e89 a5bd 69a0 fabd
00000280: 99a1 bfbd 05da 61be 13d0 0fbf 8705 debc
00000290: baec f53d 4433 48bf 7980 49bf f4e4 c1be
000002a0: b58e 71be 2d27 8ebc 312f d63c c545 253d
000002b0: 027a 05be eb87 8f3e 8cb3 12be 1ac3 d3bd
000002c0: 0f74 fa3e 959f 81be 893a 34bd abd9 08bd
000002d0: 233e 813c 0508 9a3e 3a6f 923e ef20 6abe
000002e0: 8669 bebe 7ec7 8f3c fad9 c7be a8c4 09bf
000002f0: 4444 2ebe f23e 0e3d e2a2 c43c 93a4 9abe

convs.0.application__updates__application.lin_rel.bias f4 [64]
0.24247283 -0.4504591 0.23259608 -0.38592556 -0.72351676 -0.8136998 -0.74446553 -0.0934781
-0.4989988 -0.022298474 0.10444594 -0.19815104 -0.27774656 -0.6389755 0.48370796 -0.3831594
-0.09592454 0.10924614 -0.23789018 0.24928017 0.3483201 -0.43959588 -0.3771566 -0.17640376
-0.6831716 -0.45846638 0.1754888 0.1040848 -0.08549248 -0.21039724 -0.013652396 0.17106102
0.1285785 -0.5265766 0.0627755 -0.08187017 0.08001065 -0.10223586 -0.04369361 0.23714359
-0.5201254 0.004015018 -0.51800495 -0.45367277 -0.25837642 -0.14658783 -0.25126716 -0.31211257
-0.35160285 -0.7389993 -0.011493099 -0.036565144 -0.023209775 0.14429535 -0.37793106 0.076417126
-0.68160516 -0.4405299 -0.7828434 -0.23968707 -0.48251963 -0.1955563 -0.32576922 -0.03361555
00000000: cc4a 783e 93a2 e6be ab2d 6e3e 0998 c5be
00000010: 6538 39bf a14e 50bf 4b95 3ebf 7271 bfbd
00000020: c57c ffbe 4aab b6bc c1e7 d53d 1be8 4abe
00000030: cc34 8ebe e693 23bf 92a8 f73e 782d c4be
00000040: 1674 c4bd 71bc df3d 7c99 73be 4d43 7f3e
00000050: 0357 b23e b612 e1be ab1a c1be 30a3 34be
00000060: 55e4 2ebf 1bbc eabe 56b3 333e 692a d53d
00000070: ae16 afbd 6072 57be 4dae 5fbc 9f2a 2f3e
00000080: 15aa 033e b9cd 06bf 7190 803d 8cab a7bd
00000090: a0dc a33d 0961 d1bd 12f8 32bd c5d5 723e
000000a0: f026 05bf 6a90 833b f99b 04bf cc47 e8be
000000b0: ea49 84be 1f1b 16be 17a6 80be 38cd 9fbe
000000c0: 4a05 b4be 0f2f 3dbf 8d4d 3cbc 55c5 15bd
000000d0: 6d22 bebc 29c2 133e 2e80 c1be 9580 9c3d
000000e0: ad7d 2ebf 238d e1be 6d68 48bf 8770 75be
000000f0: d00c f7be e93f 48be 39cb a6be 75b0 09bd
