models/BPI17/hoeg/exp_v3/lr=0.01_hidden_dim=64/GraphModule_20230828_11h11m/state_dict_epoch9.pt (torch, 219743 bytes, 33 tensors)

convs.0.event__follows__event.lin_rel.weight f4 [64, 27]
00000000: 7c8e 733e d1ea e73d 6fe5 57be 8b40 67be
00000010: 9be9 2ebe 4ec4 b2be 57a1 1fbd 15e7 df3d
00000020: ef0b 2cbe 38ff 25be b959 32bd 87f8 45be
00000030: 7ec0 86bc 57db acbe 3f39 f4bd 4514 47be
00000040: 78d3 48be 34c2 533d d6f5 48be a882 8ebe
00000050: 4e80 27be 0092 de3d 8ad9 19be e306 fabd
00000060: e663 42be 5663 32bd c880 2d3e 22d7 053d
00000070: 00af abbe 2856 e7bd b789 c2be a17e e5be
00000080: f914 9fbe 8242 2c3d 415d a23e 943d 11be
00000090: 0f47 253c 945c aabd d97a db3d 5e42 a8be
000000a0: cf91 de3c 5ce6 a53b 75e9 d33d d4fc 5abd
000000b0: f486 16be e1a8 88be 8e67 793d 9fb7 0fbe
000000c0: 95fe 01bf c4a2 f5be 4c95 10be ff52 e0bc
000000d0: 2904 96be b42d 8fbe b1b3 53be 8263 81be
000000e0: 8adb 6abe 99e1 d3bd 87ef f23c eb74 74be
000000f0: 1b62 5abe ba3d ff3d 855e 2bbe b2a1 383e
00000100: e3dc d8be 669d 00bf c6e7 fcbe 2757 46be
00000110: d67e 92be daa3 2d3d 89f2 a8be 54cf 0cbe
00000120: 0579 5abe e44a a6bd ed47 53be 05f8 6abe
00000130: 078a 1dbe c978 76be d037 8cbe 71f7 38be
00000140: bb86 d93e 3b97 acbd 4a31 5a3e fad5 9abe
00000150: 7d49 b63d 70e7 3fbc 2e31 843d 9701 22be
00000160: 3480 f4be e1bf a6be 1e9b 0ebd 24a1 bebe
00000170: 01c1 3ebe 496a 51be 744e a2be ee3f 85bd
00000180: e563 d63c f6a0 9fbe 1e57 023c 0994 8f3d
00000190: 2b76 30bd aae1 39be 6f57 debe 12e6 9fbd
000001a0: c965 36be 4cd2 7cbc 60aa 403e 5dbb dcbd
000001b0: 6cae fbbe d80f 5c3e f57a 093d f85c 4b3f
000001c0: 58b6 563e 4762 03be aab4 bc3b f2ec 0ebf
000001d0: ad8b dabe 7881 b2be 2256 97be 317b d5be
000001e0: b8d2 82be 6979 cabe 3c4a 8bbd 3ce5 95be
000001f0: 5271 f2be b69e 06be a3df 8dbe 9b91 90be
00000200: bab1 383e cbf6 e2be ff62 d9be 5595 eebe
00000210: 8ce0 d1bc 2fa7 d43e 2d86 6ebe da87 54bf
00000220: 3ca4 6cbf 819e 2cbf cf4d e1bf 3ed3 e7bf
00000230: 55af f7be d466 a0bf f672 75bf 64f6 77bf
00000240: 17bf 7fbf fab7 a53f beec 8d3f 7682 fbbe
00000250: a440 1f3e c17a dcbd 6639 43be 2854 24bf
00000260: e14b b9be 29c3 1fbf b2ee b5bd 5b31 08bf
00000270: 1d2c 1abf d1ce c6be cbb3 d9be 2e67 9cbe
00000280: 3e50 54bf f145 8abf 462e 503f 0c28 eebd
00000290: ab29 00bf 3d49 593f 3caf 5fbf 7f14 c0be
000002a0: e4b3 83be 362a 81bf 6b1f 8bbe 4139 93bf
000002b0: 1d8c 6cbe 66f3 47bf 997d 82bf ba4f 07bf
000002c0: 888c e2be 822c 4bbe 160b 19bf 63bd 94be
000002d0: fdf5 5dbe 4a61 6ebe 09b0 d9bd 9412 a3bf
000002e0: 143e 11bf f82b 23bf ac3c ad3e f341 08bf
000002f0: 4928 d1bd 4229 8cbf 9868 67bf 7e21 2ebf
00000300: aa79 1dc0 f736 86bf 84f9 533c 290f 95bf
00000310: 3c23 583e 0497 8fbe a147 57be eb7a 073f
00000320: 9689 d93e b21d 303f 65cc 9c3f d23d 4b3f
00000330: 4a53 883f d90b e13d 7e90 05be 7df2 783e
00000340: 059b 70be 0c62 09bd c181 fd3d 2178 44bc
00000350: c2f9 123f 6b10 7f3f 7243 f8bd 90be 50bf
00000360: 6d97 bfbe e219 13be eafa 1abe f4a6 1f3c
00000370: ab5f 76be 4500 c1be 5bd8 39be 0c92 b9be
00000380: 1647 f2bd 975d 9bbe 0741 15be af28 70be
00000390: cf6b 67be 6175 5ebe 8cdd b9be 47a9 a6be
000003a0: 40d0 13bf 209f a1be 45b6 ccbd c466 73be
000003b0: 32ca c1be 2118 20be 6f79 aebe 273c 2abf
000003c0: dde9 97be d9cd 06be fc69 143d 2ad8 82be
000003d0: 9516 6dbe a5c7 34bd d121 8bbe ff2c 95be
000003e0: b716 93bd b657 e9bc dec9 b9be cdf3 09be
000003f0: 5119 9ebe 7f3d e8be 32d8 03bf 75d9 f6bc
0.23784822 0.113240846 -0.21083616 -0.22583215 -0.17081301 -0.34915394 -0.038972225 0.10932747
-0.16801427 -0.1621064 -0.043542597 -0.19333087 -0.01644921 -0.33761093 -0.11924981 -0.19441326
-0.19611919 0.05169888 -0.19625029 -0.27834058 -0.16357538 0.10867691 -0.15024391 -0.12208345
-0.1898342 -0.043551765 0.16943657 0.03267587 -0.33531952 -0.1129573 -0.37995693 -0.44823173
-0.31070688 0.042055614 0.31711772 -0.14183646 0.0100877425 -0.08318439 0.10716791 -0.32863134
0.027169136 0.0050628614 0.10347263 -0.053463772 -0.14699918 -0.26691344 0.060889773 -0.1403489
-0.50779086 -0.47975743 -0.14119452 -0.027383326 -0.2930005 -0.27964556 -0.20674016 -0.2527123
-0.2293531 -0.10345764 0.029655231 -0.23872726 -0.21326487 0.12462945 -0.16735275 0.18030432
-0.42356023 -0.5024017 -0.4939558 -0.19369183 -0.28612393 0.04239259 -0.3299754 -0.13750964
-0.21335228 -0.08119753 -0.20632906 -0.22946174 -0.15384685 -0.24069513 -0.27386332 -0.18063141
0.42485604 -0.084272824 0.21307865 -0.30241376 0.089007355 -0.011712894 0.06454693 -0.15820919
-0.4775406 -0.32568267 -0.0348159 -0.37232316 -0.18628313 -0.20450701 -0.3170048 -0.06506334
0.02617068 -0.3117749 0.007955341 0.07010657 -0.043081444 -0.1815249 -0.43426082 -0.07807554
-0.17812265 -0.015430998 0.18814993 -0.10777924 -0.4915651 0.21490419 0.033564527 0.79438734
0.20967996 -0.12830459 0.0057588415 -0.558303 -0.4268469 -0.34864402 -0.29557902 -0.4169555
-0.2555139 -0.39545754 -0.068012685 -0.29276454 -0.47352082 -0.13146481 -0.27709684 -0.28236088
0.18036547 -0.44328913 -0.4245834 -0.46598306 -0.025619768 0.415338 -0.23293371 -0.83019793
-0.924381 -0.6742936 -1.760187 -1.8111341 -0.48375955 -1.2531381 -0.9587854 -0.9686034
-0.99900955 1.294677 1.1087873 -0.4912297 0.15552002 -0.10765601 -0.19064865 -0.6419091
-0.36190704 -0.62407166 -0.08883418 -0.5320031 -0.6022356 -0.38829663 -0.42519984 -0.3054747
-0.8293494 -1.0802594 0.8132061 -0.11628732 -0.5006358 0.8487738 -0.8737676 -0.37515637
-0.25723183 -1.0091007 -0.27172408 -1.1501848 -0.23100324 -0.7810577 -1.0194579 -0.5285603
-0.44247842 -0.19841197 -0.5978254 -0.2905074 -0.21675868 -0.232793 -0.10629279 -1.2740045
-0.5673535 -0.63738966 0.3383535 -0.5322563 -0.10212762 -1.0950091 -0.9039397 -0.68019855
-2.4605508 -1.0485524 0.012937907 -1.1645252 0.21107191 -0.28044903 -0.21023418 0.5292193
0.42487782 0.6879531 1.2249876 0.79391205 1.0650418 0.10988588 -0.130434 0.24311252
-0.23496635 -0.03354077 0.12378264 -0.011991532 0.5741235 0.99634427 -0.12122239 -0.81540775
-0.37420216 -0.14365342 -0.15134779 0.009744395 -0.24059932 -0.37695518 -0.1814894 -0.36244237
-0.11829965 -0.3034484 -0.14575587 -0.2345302 -0.2259972 -0.21724464 -0.3630184 -0.32551023
-0.5773964 -0.31566715 -0.09995703 -0.2376967 -0.37849575 -0.15634204 -0.3407702 -0.66498035
-0.2967061 -0.13164462 0.036233887 -0.25555545 -0.23153146 -0.04413571 -0.27174237 -0.29135892
-0.07182067 -0.028484207 -0.36286825 -0.13471909 -0.3087869 -0.45359418 -0.5150176 -0.030132988

convs.0.event__follows__event.lin_rel.bias f4 [64]
00000000: 6906 7a3d 32ea 233c 8705 d6bd 30f8 69bb
00000010: 0e5a bebe f071 a8be 89d2 6bbe a012 833d
00000020: c546 783d 2fb8 30be cab7 10be 14c6 6dbd
00000030: 9153 3c3d 123b cabe 1836 d5bd a2b6 89be
00000040: f36e 533e bccf a6be e8f1 f63b 82d8 723c
00000050: 97fd cebe d3b5 843d 4bf4 2bbe 1185 c53c
00000060: c193 0bbe d99d fa3d 7e4d b63c 5542 1fbd
00000070: 5528 3e3d 17de 8f3e 6006 3f3d b82b f53d
00000080: aadf 8c3a 9927 13be 18d2 8cbd adf5 cf3d
00000090: 7326 4f3d 1b78 a9bd 1a82 4cbe 90ef 383d
000000a0: 571f 2dbe 581d 7fbe a597 6bbe 176e 11be
000000b0: aa5d d2bd ad4a 9cbd c64b 7ebd 24c4 b2bc
000000c0: 8a36 3e3e 7ca8 dbbe b3f1 83be c951 49be
000000d0: 7776 30bc c4c0 44be 590c 313d 511c 86be
000000e0: 53df dd3d e927 3b3e 68ae 423e 7f9a 11be
000000f0: 240c 14be 20f0 8dbd 7731 1dbd c0c3 7abe
0.06104127 0.010004567 -0.10450273 -0.003570091 -0.3717808 -0.32899427 -0.23029532 0.06400037
0.060614366 -0.1725776 -0.1413261 -0.05805023 0.045978133 -0.39498192 -0.10410708 -0.2689715
0.20647793 -0.32580364 0.0075361617 0.014822127 -0.4042785 0.06479993 -0.16792409 0.024111303
-0.13630582 0.12237138 0.022253748 -0.03888162 0.046425182 0.2809913 0.04663694 0.11971229
0.001074781 -0.14370574 -0.0687601 0.10154281 0.050573777 -0.082748614 -0.19971505 0.04515034
-0.16906486 -0.24913538 -0.23007067 -0.14202152 -0.10271771 -0.07631431 -0.062083982 -0.021822043
0.18575493 -0.4290198 -0.2577034 -0.19660105 -0.010770432 -0.19214159 0.043224666 -0.2619348
0.10833611 0.18276943 0.19011843 -0.14219092 -0.14457756 -0.06930566 -0.03837725 -0.24488735

convs.0.event__follows__event.lin_root.weight f4 [64, 27]
00000000: d650 973d 3f3a ca3e 0a6f 5f3e 8575 893e
00000010: 7d46 72be 8220 14bc 8791 41be a783 3cbd
00000020: c7fc f2bc e827 8e3d 9fb1 41bd 6ef5 33bb
00000030: 1205 52be 0c2f e2be fda4 f03d b11c 5ebd
00000040: 234d 633d d1e1 a6bd b241 17bd 5510 e9bd
00000050: 7c08 2cbe b218 9a3e bf7d 92bd f067 a23d
00000060: 22b6 c33d f70c ec3d c564 12bd 57e3 af3d
00000070: 2c85 3c3d ddad a33e 58b4 1e3d 675c b2bc
00000080: f668 6abc 7cbf c4bd fce1 503e 318f e0bd
00000090: c825 65be 32fa ad3e b7b8 883e 325b 04be
000000a0: de8e 933b 9a59 60bd 0d87 233e 5bd8 80bd
000000b0: ca2e cc3d 5ca2 37be 85f0 af3e b89f 0d3e
000000c0: 12ac 0cbe ca5b 27be 4ea9 4fbe 93e2 97bc
000000d0: 3763 6cbd be77 9abe 2774 53be b5be 91be
000000e0: 2401 92be e4ae e4be e434 833e 941e 86bd
000000f0: 007b f4be 7c9b 1a3f 2df9 083e 7f31 363e
00000100: 8e96 41bd 61a9 71be 880c 99be 3413 4cbe
00000110: 2218 8a3c 1328 9bbd 9702 6a3d d46c 1abe
00000120: caa2 39bd bec3 69bc 1680 073d 3f58 613e
00000130: ce0c e7bd 1b76 59be e661 a0be b231 55bf
00000140: 0a10 603f ce57 363e 0129 33be e082 bf3d
00000150: 49a9 e33d 1365 dbbc 5fcc 093e 61f9 2f3e
00000160: d13f 24be 8974 c9bd 53cc 09be beab 863c
00000170: 11db 77be f5b8 6abe 1d70 72be 36be 8cbd
00000180: 91e3 8dbd 4db0 a9be 840c f7bd 2d71 f93e
00000190: 6181 02be 8a02 81bc 449d b8be 3112 84bd
000001a0: 7f26 fc3d 7e3e ac3d 1ca4 083e 4d30 97bd
000001b0: c695 15be b465 533d 3401 adbe 9b8f b63e
000001c0: 788a 0f3f d56e c6be 09f3 32bc d237 29bf
000001d0: 6908 12bf a2a7 65be dbb2 0abe 4ad6 7cbe
000001e0: 4919 80bd 05f6 3bbf 6cba 383d 87b6 81be
000001f0: d584 f5be d145 abbe 5ea1 8bbe 7b1e 67be
00000200: be98 ca3e 7e3c 3fbf 31b4 82be 4726 1fbe
00000210: 753d c7be 67da a63e 0729 e6be cc15 e9be
00000220: 7c4a f0be 2252 bcbe 7501 87bf 87bd cbbf
00000230: d5fa 3cbe 6519 23bf 979f dfbe eaeb a2be
00000240: 8eaa b4be 0bb2 223f 2246 0040 741e a5bf
00000250: 3a8a 4b3f 401e 763e 37af f33e cdc7 dbbe
00000260: 1b8e d9bd a511 9e3d c224 c33e 6392 5ebe
00000270: 9a7e 0fbf 2c86 f6be 349f 013e 19c7 a63f
00000280: f252 b8be d25e 24bf 2c22 87bf 066f d13e
00000290: 086a 11bd 3d0e f93f afef dabe 65be 76be
000002a0: 8cc4 f2be 48b4 8cbf cbd2 5abe 0a58 c8be
000002b0: 67ce 103e cb53 73be 439a 3ebf 01c6 5abf
000002c0: 84ef 21bf 6e0f 9fbe 257e 3ebf c527 9ebe
000002d0: 6bc3 3ebd a118 4abd 5efd e33d d139 80bf
000002e0: cd6c 97be 134f f03e 3f73 d93e 4b88 243f
000002f0: d6e7 a1be 9790 96bf 145b 78bf 917d c9be
00000300: ff93 99bf 308e 5ebf 65d3 98be c7d7 9cbf
00000310: 5cc6 f03c ce20 ed3e d89e a2be 3ea9 4fbf
00000320: f076 ca3f ce5e 5b3f f23d 753f 6beb 603f
00000330: 1ad6 923f 766a cabd 8be3 113e 3258 8c3d
00000340: b69c e1bd f33d 41be 8ddb 6f3d 6c90 723e
00000350: fb5a 073f 266c 9b3f 3592 1dbe 3bbe 11bf
00000360: e7d1 b6be 8b6c 8fbd b15b a73e 5a67 2fbe
00000370: 3553 01be 0bd6 10be e32c ee3d b130 92be
00000380: 3cfb bcbe 2469 693e db0a 803b 69a6 45be
00000390: 1ba0 b23d 5a42 3cbe 173d 88bd cfbd 66be
000003a0: a533 20be 14fb 0dbe 0692 223d c758 2bbe
000003b0: c0a9 51bc bde5 e2bd 04f8 24bd 7b82 0abf
000003c0: e817 19bf 4b04 77be 3183 983e cb19 8dbd
000003d0: 29c5 6a3e d71a f53d c6b2 0dbe 1751 33bd
000003e0: 2240 8d3b 3001 96bc 41bc b6be ab92 ddbd
000003f0: fe63 99bb a935 d0be 264a 4fbe 76f6 01bb
0.07388465 0.39497563 0.21819702 0.26847473 -0.23659702 -0.009040954 -0.1890317 -0.04602399
-0.02966155 0.06941205 -0.047288533 -0.002745952 -0.20509747 -0.4417652 0.11750219 -0.05422658
0.055493485 -0.0814854 -0.036927886 -0.11380068 -0.16800112 0.30096966 -0.071528904 0.07929981
0.095562235 0.1152591 -0.035740633 0.085882835 0.04602544 0.31968585 0.038746208 -0.021772576
-0.014307251 -0.09606835 0.20398706 -0.109648116 -0.22377694 0.33979946 0.26703426 -0.12925413
0.004503115 -0.05477295 0.15969487 -0.062912665 0.09969862 -0.17933029 0.3436319 0.13830459
-0.13737515 -0.16343608 -0.20279428 -0.018540656 -0.057711806 -0.3016948 -0.20649777 -0.2846581
-0.28516495 -0.4466468 0.2562629 -0.06548801 -0.47750092 0.603935 0.13376303 0.17792319
-0.04726272 -0.23599769 -0.29892373 -0.199292 0.01685721 -0.07576003 0.057131376 -0.15080577
-0.045321263 -0.01426786 0.033081137 0.2200632 -0.11281739 -0.2123646 -0.3132469 -0.83278954
0.87524474 0.17806932 -0.1749611 0.09351134 0.11116273 -0.026781594 0.13456868 0.17184974
-0.16039969 -0.098366804 -0.1345685 0.016439315 -0.24204661 -0.22922118 -0.2367558 -0.06872217
-0.069281705 -0.3314232 -0.12062934 0.4871916 -0.12744667 -0.015748281 -0.36057484 -0.06448782
0.1231203 0.08410357 0.13343853 -0.073822595 -0.14607915 0.051610664 -0.3378998 0.35656437
0.5607066 -0.38756433 -0.010922202 -0.661008 -0.5704408 -0.22427228 -0.1354479 -0.2469112
-0.06254823 -0.7342227 0.04509966 -0.2533457 -0.47952905 -0.33451703 -0.2727155 -0.22570221
0.39569658 -0.7470168 -0.255281 -0.15541945 -0.38914075 0.32588503 -0.44953176 -0.45524442
-0.46931827 -0.36781412 -1.054732 -1.5917214 -0.1845506 -0.63710624 -0.43676445 -0.31820613
-0.35286373 0.6355292 2.0042806 -1.2899919 0.7950779 0.24034977 0.47594616 -0.42925873
-0.106228076 0.07718209 0.3811398 -0.2173553 -0.56052554 -0.4814924 0.12658387 1.302951
-0.36000782 -0.64207184 -1.0557303 0.40905017 -0.03550151 1.945747 -0.4276099 -0.24096067
-0.47415578 -1.0992517 -0.21369474 -0.39129668 0.14141236 -0.23762433 -0.74454135 -0.8545838
-0.63256097 -0.3106646 -0.7441123 -0.30889717 -0.046573084 -0.049339894 0.1113231 -1.0017644
-0.29575196 0.4693533 0.42470738 0.64270467 -0.3162219 -1.1762875 -0.97013974 -0.39353612
-1.199829 -0.8693571 -0.2984878 -1.225335 0.02939146 0.4631409 -0.31761813 -0.8111762
1.5817547 0.85691535 0.95797646 0.8785922 1.1471589 -0.09883587 0.14246957 0.068527594
-0.11016218 -0.18871288 0.05855899 0.23687905 0.528732 1.2142379 -0.15387805 -0.56930894
-0.35707018 -0.07003125 0.32687142 -0.17129269 -0.12629397 -0.14144151 0.11629655 -0.28552774
-0.36910427 0.22794014 0.003907544 -0.19301762 0.08721944 -0.18384686 -0.06652277 -0.22533344
-0.15644701 -0.1386531 0.03969004 -0.16733085 -0.012796819 -0.11078975 -0.04027559 -0.5410535
-0.59802103 -0.24122731 0.2978759 -0.06889685 0.22926773 0.1196801 -0.13837728 -0.043778505
0.0043106237 -0.018311113 -0.356905 -0.1081899 -0.0046811095 -0.4066594 -0.20243129 -0.001983074

convs.0.application__interacts__event.lin_rel.weight f4 [64, 3]
00000000: 2e15 ddbe 66a6 05be 82ca 77bd 857a 1cbf
00000010: cd9e cdbe f63b e53d 287d c9be 831f 3a3e
00000020: 42b2 12bd d6e1 19bf f1bd 56be 0861 963e
00000030: 0550 cbbe 033f c0bd 70f1 483e 6686 e63e
00000040: 33cc 51be cbac 98bd 618c c63f 74be a23f
00000050: 3734 c2bd 3f6f e93e e0b8 f23d 5eb3 203e
00000060: ad7c cb3e 154e 8abe 7804 79bd b746 843f
00000070: fb87 b43e b359 a5bb dbe2 db3e 27c3 1ebd
00000080: 9f13 9d3e c531 e53c 1fe5 803e ec4e a6bd
00000090: 3920 0c3e c2b0 dbbe 292a 323e 8a4d 843f
000000a0: 2394 81be be11 47bd e03c 9f3e 9742 91be
000000b0: 2fab d63d b7e6 9c3f 706b 683e ae9c ad3e
000000c0: 06ef 94be 861a 3d3d 8cc0 18bd 717c e0bf
000000d0: db25 c1be b23d b13e c79c 44bf 1afb 9ebe
000000e0: 0912 3dbe 9993 41be d7de 1cbd a1ce 3abd
000000f0: 8d09 9bbe ab76 373e d52d f3bd 0339 d9be
00000100: db23 183e e063 67be 5226 4abe 0bcb 09bf
00000110: a75b 0cbf bcd4 9c3e ee0f 0fbe 8ac4 85be
00000120: ad64 a1bf 6630 303e 70a0 7ebe 265d 6dbe
00000130: 47ff 943e 1274 373d 80ff d8be 8094 29bc
00000140: 3ef3 963d d513 20be 3a17 113f 34dd 923e
00000150: 0b6c 92be 137a 70be c507 8bbe 334e 1cbf
00000160: 9e98 0dbf 7a41 1fbf 920b f43d edc8 89bf
00000170: 3a1d 37bf 45fc 76be 65e7 24be 6ac9 99bc
00000180: f10e 20be 8f14 3cbe e2a9 a83d 159a d8be
00000190: e689 32be da6c 1ebe ce06 7ebe fb7e 87bc
000001a0: 7dd4 4dbd b652 18bf a2a4 e7bb 6d23 26bd
000001b0: babb dabe 088c 4fbe 3a77 e4be a32a 1c3e
000001c0: bbd8 db3d 7d69 373e fdc7 25bf 78d3 c03d
000001d0: 1f05 5dbd b6ae 013f 87b1 3a3d 9d7f 91be
000001e0: 6556 7ebf c97b be3e c8f3 68bd 3054 82bf
000001f0: 03fc 0f3e 8af4 89be 9f6f 093e e17f c5be
00000200: 6dc9 30be baf8 f23e d935 92be 38cf 45be
00000210: 51e5 5abd 89c8 6b3e e90c 933d c652 2fbf
00000220: eb98 91be 68e3 c7be f740 e33d fe94 b83b
00000230: 3537 40be f3cc 3a3f 9a4c 893e fcde 9b3c
00000240: f1fa 6640 b66e 2140 7408 f9be caa8 b6bf
00000250: e694 fbbd 8106 ddbe f732 c0be 661f 593e
00000260: d550 50be c5f1 d53e c033 15bf 5250 a0bc
00000270: 17e2 efbd 7c04 ff3e 6df8 4e3e a853 0fbf
00000280: 2751 c4be 4e8a 81be 7827 003e a93a f03e
00000290: 2ef6 e63d f0ce 8fbf f869 723e ed15 af3d
000002a0: 99b4 343e 85f4 6c3e f0a6 3b3e cf35 fabe
000002b0: 039b e23e 0087 043f 2131 4dbe f879 90be
000002c0: 5ad2 bdbe 3c76 efbe 5804 173d e181 e63d
000002d0: c6be 393f bcb5 1ebf 6ce5 c53c 905c 9bbe
000002e0: a1f9 c6bd 8234 2bbd 2d29 82be ed2a 173f
000002f0: 80a6 9abc 374a a63d 6db4 5e3d ba40 06be
-0.4318022 -0.13051757 -0.06049586 -0.6112445 -0.40160218 0.11193077 -0.393533 0.18176083
-0.03581453 -0.60110223 -0.20970894 0.29370904 -0.39709488 -0.093870185 0.19623351 0.45024413
-0.20488052 -0.07454833 1.551159 1.2714372 -0.094826154 0.45592687 0.11851668 0.15693423
0.39743558 -0.27012697 -0.060795277 1.033408 0.35259995 -0.0050460934 0.42946514 -0.03876033
0.30679032 0.027977834 0.25174806 -0.08120522 0.13684167 -0.42908293 0.17398895 1.0336163
-0.25308332 -0.048600905 0.3110113 -0.28371117 0.104818694 1.2257909 0.22697234 0.339086
-0.2908861 0.046167873 -0.037293002 -1.7537977 -0.37724194 0.34617382 -0.76801723 -0.3105095
-0.18463911 -0.1890396 -0.038298454 -0.045607213 -0.30280724 0.17916362 -0.11873976 -0.4242631
0.14857428 -0.22596693 -0.1974118 -0.53825444 -0.5482735 0.30631053 -0.1397092 -0.2612651
-1.2608849 0.17205963 -0.2486589 -0.23180065 0.2910101 0.044788428 -0.4238243 -0.010350347
0.073706135 -0.15632565 0.56676066 0.2868439 -0.28598055 -0.23484068 -0.27154365 -0.6105682
-0.55311 -0.62209284 0.11916269 -1.0764443 -0.7152897 -0.2411967 -0.16103895 -0.0187728
-0.156307 -0.18367217 0.082355276 -0.42305055 -0.17435417 -0.15471211 -0.24807283 -0.016540041
-0.050251473 -0.59501207 -0.0070691863 -0.04056113 -0.4272135 -0.20268261 -0.44622213 0.1525064
0.107346974 0.17911334 -0.6475828 0.094153345 -0.053959962 0.5065721 0.04557946 -0.28417674
-0.9935058 0.37203816 -0.056873113 -1.0181942 0.14060979 -0.2694438 0.13421486 -0.38574126
-0.17264338 0.47455388 -0.28556708 -0.19317329 -0.05344135 0.23025717 0.07180197 -0.6848568
-0.2843698 -0.39040685 0.110963754 0.0056329956 -0.1877106 0.7296898 0.26816255 0.019027226
3.6090662 2.5223823 -0.48639262 -1.427026 -0.122842595 -0.43169025 -0.37538883 0.21203384
-0.20343335 0.41786018 -0.5828209 -0.01956955 -0.11713045 0.4980811 0.20211954 -0.55987024
-0.38343164 -0.2530083 0.12515056 0.46919754 0.11277424 -1.1235027 0.23673236 0.08549104
0.17647018 0.23140152 0.183254 -0.48869178 0.4425889 0.51768494 -0.20038272 -0.28218055
-0.37074548 -0.46769893 0.036869377 0.11255241 0.7255672 -0.61996055 0.024157248 -0.30344057
-0.09715582 -0.041798122 -0.2542204 0.59049875 -0.018878222 0.08119624 0.054371286 -0.13110629

convs.0.application__interacts__event.lin_rel.bias f4 [64]
00000000: 29e7 28be b702 06bf 6d2d ab3d 1285 c5be
00000010: 6db5 8a3e 80ff 0fbf e973 12be 765d 73be
00000020: ce3d 7c3e 37ce ad3e 0ba1 213e 1213 df3e
00000030: 24f4 efbd d34c ffbe c719 0bbe bcb6 b0be
00000040: a21c c2be 0953 383e 8719 b83e a167 943e
00000050: db0a 953e ac0d 223e dc83 0dbf 038e 2dbd
00000060: 19db 79be 1682 8dbe 4553 103e 8c2c b9bd
00000070: 6b08 27be a593 34be 21c7 eb3e a77e 483e
00000080: 54c4 0cbf 6ff7 773e 4e64 88be 5e18 9abd
00000090: d9d6 04bf c6c5 9abd cd9e ab3e 1c73 a1bd
000000a0: 8e8b 843e d8af afbe 3f0c c63e 68c8 04bf
000000b0: 757e dfbe b3b5 0abe a73c c4be eff0 e23d
000000c0: 2725 2cbe 43ba 91be b648 8c3e 8487 36bf
000000d0: 2b42 9cbe 305a 843d 795e 6f3e be94 693e
000000e0: 554c 16bf c8d5 42be 7818 dbbe 6be2 aabe
000000f0: 9f1e 0c3e f7a4 81bd d754 fcbe 8f03 81be
-0.1649443 -0.5234789 0.08358274 -0.38578087 0.27091542 -0.5624924 -0.14302029 -0.23766121
0.24632952 0.33946392 0.1578409 0.43569237 -0.11716488 -0.498633 -0.13584052 -0.34514415
-0.3791247 0.18000425 0.35956976 0.28985313 0.29109845 0.15825528 -0.55279326 -0.04237176
-0.24399985 -0.2763831 0.14094265 -0.090417 -0.16311805 -0.17634447 0.4605036 0.19579564
-0.5498707 0.24215482 -0.26639026 -0.07524179 -0.5189033 -0.075572535 0.33519593 -0.078832835
0.25887722 -0.34313846 0.38681218 -0.51868296 -0.43651167 -0.13545875 -0.38327524 0.11081111
-0.16811047 -0.2846242 0.27399224 -0.7130053 -0.30519232 0.064625144 0.23375882 0.22810647
-0.58710223 -0.19026864 -0.42792106 -0.33375868 0.13683556 -0.06330293 -0.49283478 -0.25198027

convs.0.application__interacts__event.lin_root.weight f4 [64, 27]
00000000: 05e9 a43d e7d3 453e 8a7f f53c 54cd 0a3e
00000010: 27b8 78be b58f 61bd 5fe3 1abe 150e b2be
00000020: ff88 b0bc 4b62 393d 8b2c 8bbe da5e 213d
00000030: 7f5a 44be 7e34 01be 4c2a df3c 9eff fc3c
00000040: dd79 56be 32ce 24be 7af4 be3c b237 b53d
00000050: c7e7 bcbd 0c7b ab3e a94b 233d 9960 ec3d
00000060: 4913 b33e 698c 033e 261c 9a3d c1f9 8bbc
00000070: 5a44 64be 8d06 8c3d 3efe 183e 5ecb f9bd
00000080: 50de b43c e29c 5dbe 7dc9 ca3e 6c06 10be
00000090: cb30 d6bd 3ed9 973e 137a 5a3e 9535 92be
000000a0: 07fa 05bc 6eb7 8e3b f2d9 0e3e 3ffb b33d
000000b0: 18dc e2bb 5152 e0bc 845e ae3e 8f1c 3dbd
000000c0: 8fcf 3dbe 66ba eebc b5be 9cbd b475 52bc
000000d0: cb09 a1bc 1d39 f43c 6ce9 373d a2de 5fbe
000000e0: 7dad 25be 3f9b dcbe 372a 6c3e 1b5c 92bd
000000f0: bef5 00bf ab16 413f f433 afbd d7ba 913d
00000100: 1d52 60bd 95a3 c6be c0e1 85be 79be 29be
00000110: df30 0bbd 3f31 03be 852c 91bd 432a 56bd
00000120: 50af 09bd 7278 0abe 3b48 043e 629e 2a3e
00000130: 6d9a 16bc 0a0a 80be e35b a5bd f34f 39bf
00000140: 36a5 7f3f 0dde c8bd 68bf 96be d0bb f93d
00000150: 9687 2c3d d6af 363d dd1d 02be 40f6 1a3e
00000160: 75f4 8fbe b9f0 61be cc81 b03d d864 54be
00000170: 5e63 a4bd 2d46 11be 2808 98be 75c5 3e3d
00000180: 1f70 88bd b0c2 80be 3920 7bbe 0660 a73e
00000190: 5ec9 e7bd 931c 1bbe dd26 cbbe e5a0 dcbd
000001a0: 0cbe 8c3d 347f d43c 7982 8d3d ca5a 26bd
000001b0: b795 9dbd 827b 8ebe 0a94 b3be 446f c33e
000001c0: a538 1b3f efe9 07bd 2dc3 52be af3f 07bf
000001d0: 20fd efbe e197 153d 55e3 e0be 2ed5 00bf
000001e0: 5a7a ebbc 442d 4dbf f0b1 47bd bd6d f8be
000001f0: faef eabe 5028 b1be 0036 1dbe abe4 f3bd
00000200: 1436 343e 9d1b 51bf c583 85be efc2 b23d
00000210: c55b 94be 4476 163f 3df6 9dbe bcd9 1ebf
00000220: 9e17 cebe 6135 67bd 85c2 8cbf ea2d bfbf
00000230: 9700 c6bd 8765 55bf 54ca 33bf 98b4 c0be
00000240: 5ce1 bbbc 8167 043f 34b7 f63f 83f7 a5bf
00000250: d3d9 293f c3cd d93e 6f19 f93e f022 60be
00000260: 065b b9bd 8046 1abe 6d74 4d3e 3f29 b1be
00000270: c9fe f8be 29ac a1be 0a65 b63e 1644 933f
00000280: d07b b6be 225a ffbe 7fac adbf 7a69 0c3f
00000290: 7681 9c3d 1485 0a40 75d8 2ebf 7a86 e4be
000002a0: c122 08bf a9b6 86bf a85c bcbe a769 1abf
000002b0: d13b cf3d 8cf8 0fbf 2a59 2abf d097 5ebf
000002c0: 462d 17bf 8c02 17bf f78b e8be 2fed 23be
000002d0: dc9c c5bd 6ac9 debd d422 f13d e359 76bf
000002e0: 97e6 09bf 3a50 893e b5c3 b03e 8717 643f
000002f0: 758f 98be e225 7dbf 4c09 84bf bfe2 0cbf
00000300: 2c7a b1bf 937e 38bf 6cc6 94be 9ef1 9ebf
00000310: 5692 7bbe 20c4 1e3f d41c c4bd f3ba 0dbf
00000320: c0d0 af3f 3359 523f 077b 453f 2f64 613f
00000330: 001c 703f b5fd e4bd 7924 fe3e 4616 143e
00000340: 423c cabe 7603 b4bd ae70 353e 3dd9 8d3e
00000350: 7322 cb3e aa75 973f 2571 a1be c45d 27bf
00000360: 0944 b8be 5822 b03d 44cc b13d 9c77 db3d
00000370: 2f23 ecbd b751 afbc 866f f43d a4d2 96be
00000380: 2b01 75be b1d4 2b3e c11d b23c 7552 a6be
00000390: 9d90 1a3d 87ba 2bbe 5175 81bd 5380 56be
000003a0: 0d42 26bd 63a2 e9be 32b8 ba3d cc2a 5e3c
000003b0: b483 0abe 4c58 c9be b3bb b93c 97c2 f3be
000003c0: da2c 29bf 6d4a 6bbe de29 823e bb9a 3ebe
000003d0: 0000 893d 790a da3c c922 a4bc 4da8 3d3e
000003e0: b52f c0bd cb2c 483e 4304 51be 0b37 b8bc
000003f0: f920 71bd cd9a d6be 2317 a7bd add9 bebc
0.080522574 0.19319116 0.029968042 0.13554889 -0.24288999 -0.05506869 -0.15125798 -0.3477637
-0.0215497 0.045259755 -0.2718242 0.039397098 -0.19175147 -0.1261768 0.027241848 0.030883607
-0.20944925 -0.16094282 0.023309935 0.08848514 -0.092238955 0.33492315 0.039867077 0.11541862
0.3497565 0.12846531 0.075249 -0.017086865 -0.22291699 0.06837187 0.14940736 -0.12196992
0.022078663 -0.21641877 0.39606848 -0.1406495 -0.10458525 0.2965793 0.2133563 -0.28556505
-0.008177287 0.0043553626 0.13950327 0.08788156 -0.00692321 -0.027383002 0.34056485 -0.046169814
-0.18536209 -0.029141616 -0.07653562 -0.012845445 -0.01965799 0.02981239 0.044900343 -0.21862271
-0.16179462 -0.43087193 0.23062979 -0.07146474 -0.5037497 0.75425214 -0.08554831 0.07115715
-0.05476581 -0.38796678 -0.26148796 -0.16576566 -0.033982154 -0.12811755 -0.070885696 -0.052286398
-0.033614457 -0.13522509 0.12918179 0.16661981 -0.009192091 -0.2500766 -0.080741666 -0.7238762
0.99861467 -0.09807978 -0.29442906 0.121940255 0.042121492 0.044601284 -0.12706704 0.15133
-0.28116193 -0.22064485 0.08618507 -0.20741594 -0.08026765 -0.14186926 -0.29693723 0.04657503
-0.066620104 -0.25148535 -0.2452401 0.32690448 -0.113177046 -0.15147619 -0.39678088 -0.10772876
0.06872186 0.025939561 0.06909651 -0.040613927 -0.076945715 -0.27828604 -0.35073882 0.38170826
0.6063331 -0.03318208 -0.20582266 -0.5283155 -0.46872807 0.036521796 -0.4392344 -0.50325286
-0.028744865 -0.80147195 -0.04875368 -0.48521224 -0.45886213 -0.34601068 -0.1535263 -0.11908849
0.17598754 -0.8168276 -0.26077095 0.08728587 -0.28976265 0.5877421 -0.30851927 -0.62050986
-0.40252393 -0.05644739 -1.0996863 -1.4935887 -0.09668081 -0.83358043 -0.70230603 -0.37637782
-0.022934608 0.51720434 1.9274659 -1.296616 0.66348 0.42539796 0.48652217 -0.21888328
-0.090505645 -0.15065956 0.20063944 -0.3460178 -0.48631886 -0.3157666 0.35623962 1.1505153
-0.35641336 -0.49873453 -1.3568267 0.54848444 0.0764188 2.1643724 -0.6829904 -0.44633847
-0.5317803 -1.0524493 -0.3678944 -0.6031746 0.10118831 -0.5623863 -0.66542304 -0.869504
-0.59053457 -0.5898826 -0.45419285 -0.16008447 -0.09649059 -0.108782604 0.11774221 -0.96230906
-0.5386748 0.2681902 0.34524313 0.890984 -0.2979695 -0.9888593 -1.0315337 -0.5503349
-1.3865409 -0.72068137 -0.29057634 -1.2417486 -0.24567541 0.62018013 -0.09575811 -0.55363387
1.373558 0.8216736 0.7714085 0.88043493 0.93792725 -0.11181203 0.496372 0.14461622
-0.39499098 -0.087897226 0.17718765 0.27704802 0.3967472 1.1832783 -0.31531635 -0.6537745
-0.35989407 0.086003006 0.08681539 0.10716173 -0.11530148 -0.02140127 0.11935334 -0.2945758
-0.23926227 0.16780354 0.021742703 -0.32484785 0.03773557 -0.16770373 -0.063212045 -0.2094739
-0.040590335 -0.45631704 0.09117164 0.013560008 -0.13526803 -0.39325178 0.02267251 -0.47609398
-0.66084063 -0.2297761 0.25422567 -0.18613712 0.06689453 0.026616322 -0.020036118 0.18521233
-0.093840994 0.19548337 -0.20411782 -0.022487184 -0.058869336 -0.4191498 -0.0815871 -0.023297155

convs.0.offer__interacts__event.lin_rel.weight f4 [64, 7]
00000000: 7200 953e c41b 28bf 11c7 9bbe 984d 50be
00000010: 97f4 9c3e 8a45 c1bd 08a7 d1bc 4d92 803f
00000020: 36af 993e 435f 9a3e f58c 3abe 8b59 3d3f
00000030: de02 343e 40b9 6dbe 7d62 393f 3879 ac3e
00000040: 01f6 2a3f 3085 96bc b368 75bf ad1c 253e
00000050: 2bed 913d 1f1b 533e 4d84 a5be 4639 02bf
00000060: 4dbe 0fbd 4a4a bb3e ef8f b2be b7bf c9be
00000070: 269d 6abe 2ee7 04bf 3d2f 00bf 54c0 0b3e
00000080: 2f91 49c0 26c2 5e3e 7469 c13c 7e74 86be
00000090: a327 dd3e 5f73 083e 4e68 1f3f c843 b23f
000000a0: 331d 873e 4de3 643f c891 45bf c423 5f3f
000000b0: d8a2 603f e292 ab3e 3ad9 c940 118c 423e
000000c0: 7407 d1be d7ec 95bf e64b 47bf a146 86bf
000000d0: c4a2 943c 78d8 f03f d4a4 24bd ff76 b2be
000000e0: 6602 ed3e 0b90 8fbe 5438 acbe 7cc3 323e
000000f0: 7f2a 2d3f 05df 2c3e c8f0 b43d 69b5 ce3e
00000100: cdd2 8f3e aaf4 0abd 80d9 1cbe 8e9b 9d3f
00000110: fb69 733e 116f 8dbe b87b 2a3e f036 03bf
00000120: c104 0dbe 1ea2 e7bd cff3 863f 7ed7 983c
00000130: 2f24 e23b 59bd 20be 6408 9dbd 93de 7f3e
00000140: fde7 9e3d 54f3 913f c08e 463e 83a5 e0bd
00000150: 8dfd fabe b4fe 46be 0d14 96be bd7b bebd
00000160: cd18 ed3e d87d 563f fb52 983e fedb 19bc
00000170: 4e5a c03c 595f aa3e 79a2 e6be a4bb c3be
00000180: 7949 02bf 7232 5cbf 2a3f 183f dd69 023e
00000190: ed7a 083e 0841 f739 c2e4 0fbf 00d8 f4bd
000001a0: 2b4c 6bbf c35c a6bd 02fc 2fbf efdc 16bf
000001b0: 6059 56be d598 b03e f7da cf3d 18ad 98be
000001c0: fb70 7b3e dac2 5abe 24ef a6bd 1cd2 cfbd
000001d0: 0690 983e c8cb 81ba ce09 8f3e 6824 9f3f
000001e0: c8dd f23e eaea 15bd 0885 983e 8406 4ac1
000001f0: d892 3e3e e381 7d3f a125 1a3f 1002 9fbe
00000200: 396a bebe aef1 c7bd fbe3 453e 8aaf 58be
00000210: b8d0 81bc 323f 2dbf c4d8 f6bd f3d3 db3c
00000220: 946b 2a3e 0adf f83e 3929 e4be 13aa 2cbe
00000230: 4196 2c3d 2adf e6bd f6e4 2cbf 990d 54be
00000240: f0eb 083f 970c b63b c698 f9bd 7e1d b8bc
00000250: 34ab 9abe bebd 17bf 4294 17bf 5f0f 1a3f
00000260: f2fd 543c 6108 4bbf dc9d dd3e 3a6f cc3e
00000270: 039f 733f 468b 303f 9f0e b43f 1933 423f
00000280: f61f 773f 94e1 843f 2c9b 03bd 688b 1dbe
00000290: 385a b1be c878 03be 822d 163d b1b1 f3be
000002a0: 0238 26bd 18ef 8dbe 978d 04bf 5a44 01bf
000002b0: 4d29 f13f d3e4 1fbe 6dad 84be 9043 f43e
000002c0: ae45 2fbf 7be5 89be a4ad 30be e8c4 783f
000002d0: 930a e23e 191c 06be 19c2 5bbe cb68 02bf
000002e0: 8a85 e1be 8c9d a0be c237 933f 532f 73be
000002f0: 4fd5 7b3e 6779 033f 3a46 2a3c 6752 67be
00000300: d003 81be f1ef b33e 4d2d 9fbe 680f cfbe
00000310: 88c1 313f 9174 ba3c cbd2 f7bd fc3a 1cbe
00000320: 6aad edbe bef1 a0be 0e54 90bd ed11 9f3f
00000330: 26a8 18be 0650 ddbd a1e7 97be bda9 7a3f
00000340: 570c 40be 55d7 a6bf 397c 223f df9e 2bbf
00000350: d0b7 17bf 6d34 12bf 1834 2c3f b32b ab3d
00000360: 1d60 013f b2f3 183f 6c70 5f3e d8f8 413d
00000370: 14ec 3c3c a9ed bf3e 5d24 6f3e c704 a7be
00000380: 303b 6b3e c2ce 95be c74f dabd 119e 803e
00000390: 4bae db3f 01d6 5abe 5813 cbbe 8858 823e
000003a0: 6b3f 953d 8b87 c83d 8f3f 8b3c 62cd 8d3f
000003b0: faa4 79be 6d6a d83e cfd4 d53e b163 b7be
000003c0: 6aec 19bf d945 143d d2a4 e0bd 1e58 cabd
000003d0: 591c 99be 317c 20bf 3dca 97be 7254 5dbe
000003e0: 0cf0 1abe 3db4 bf3e d056 31be 24d5 e8bd
000003f0: ae29 623f c737 6b3e 00fb 2f3e d20d c8bc
0.29101902 -0.65667367 -0.30425313 -0.203421 0.30655357 -0.09437092 -0.025592342 1.0044647
0.30016488 0.30150804 -0.18217833 0.73964757 0.17579219 -0.23215199 0.72415906 0.33686233
0.6678162 -0.018374056 -0.95862883 0.1612422 0.07125314 0.20615815 -0.323275 -0.5086864
-0.035093594 0.36580116 -0.34875438 -0.3940408 -0.2291151 -0.5191525 -0.5007208 0.13647586
-3.1494863 0.21753749 0.023609854 -0.2626075 0.43194303 0.1332526 0.6226853 1.3926935
0.26389465 0.89409333 -0.7717557 0.8716395 0.8774848 0.335105 6.307767 0.18998744
-0.40826 -1.1712903 -0.77850187 -1.0490304 0.018144019 1.8816061 -0.040196255 -0.34856412
0.46290892 -0.28039584 -0.33636725 0.17457384 0.6764297 0.1688195 0.08834988 0.4037278
0.28090516 -0.033924736 -0.15317345 1.2313097 0.23770897 -0.276238 0.16648757 -0.512557
-0.13771345 -0.11310218 1.0543154 0.018657442 0.006901286 -0.1569723 -0.07667616 0.24987249
0.07759092 1.1402383 0.19390392 -0.10969069 -0.4902157 -0.19433099 -0.29312173 -0.09300945
0.46307984 0.8378577 0.2975081 -0.009390829 0.02348056 0.3327587 -0.45045832 -0.38229096
-0.5089336 -0.86014473 0.5947138 0.12735696 0.13328142 0.00047159963 -0.5620843 -0.11955261
-0.919131 -0.08123162 -0.6874391 -0.5893087 -0.20932531 0.34491602 0.10149186 -0.2981956
0.24554817 -0.21363392 -0.08151081 -0.10147497 0.2979738 -0.000990265 0.27937168 1.2432985
0.4743483 -0.036600985 0.29788995 -12.626591 0.18610704 0.99026316 0.6021367 -0.3105626
-0.37190416 -0.097628936 0.19325249 -0.21160713 -0.015846595 -0.67674553 -0.120530635 0.026834464
0.166426 0.48607665 -0.445627 -0.16861753 0.04213548 -0.11273034 -0.67536867 -0.20708312
0.5348501 0.0055557 -0.12187342 -0.022475 -0.30208743 -0.592739 -0.592106 0.60179704
0.012999998 -0.7930966 0.432845 0.3992861 0.9516451 0.68962514 1.4066962 0.7585922
0.96533144 1.0381341 -0.032130405 -0.1538521 -0.34639144 -0.12839043 0.036664493 -0.47596505
-0.040580757 -0.27721477 -0.5177855 -0.5049492 1.8840729 -0.15614633 -0.25913563 0.47707796
-0.684657 -0.26932892 -0.17253739 0.97175455 0.44148692 -0.13096656 -0.21460761 -0.5094115
-0.44047195 -0.313702 1.1501391 -0.23748522 0.2459309 0.5135712 0.01039272 -0.22590028
-0.2519822 0.35143998 -0.3108925 -0.40441442 0.6943593 0.022760661 -0.121007524 -0.15256876
-0.46421367 -0.31434435 -0.07047282 1.2427346 -0.14907894 -0.10806279 -0.29668906 0.9791525
-0.18754707 -1.3034464 0.634708 -0.67039293 -0.5926485 -0.57111245 0.6726699 0.08357944
0.5053728 0.5974685 0.2182023 0.047356457 0.011530895 0.37486008 0.23353715 -0.32620832
0.22971797 -0.29259306 -0.106597476 0.25120595 1.7162565 -0.21370699 -0.39663196 0.2545817
0.07287487 0.09791478 0.01699808 1.1078303 -0.2437934 0.42268696 0.41763923 -0.35818246
-0.60126364 0.036199424 -0.10968937 -0.09880088 -0.2990444 -0.626895 -0.29646483 -0.21614245
-0.15130633 0.37442198 -0.17318273 -0.11368778 0.8834485 0.22970496 0.17185593 -0.024420653

convs.0.offer__interacts__event.lin_rel.bias f4 [64]
00000000: a5fb 8d3e 8aba 823e ec7f 92be fe92 6c3e
00000010: 2f94 163e 3b06 1e3e 3a6e 813e 7550 8abd
00000020: 57d6 893d 7990 debe 52e3 243e d178 a8be
00000030: f32b bbbd 4bd7 4dbe a36b 8ebd 808f e43d
00000040: 325e 93be 20e9 6abe aaf1 5dbe 45b1 b4be
00000050: 7052 0cbf 497b fcbd 1f6a c33d 0757 49be
00000060: 9e59 63bd fdf8 e3bd e832 9fbc b875 b6be
00000070: 94d3 8cbe f28d 0f3e a679 073e 808e 79be
00000080: 7dd2 053e 7874 3fbe 3b01 973e 0a94 c2be
00000090: 55f0 4fbe dd88 1ebe 4e58 39be 1b2a c8be
000000a0: c6df 8ebd a728 94be 92c8 1abe 6d06 8a3e
000000b0: 0196 f2be 8923 97be aa5d 0cbe f412 40bd
000000c0: 9f25 99be ad25 983d 2f99 573d 5c86 f73c
000000d0: 40f1 8abe 580e b0be faa8 253e 319f 203e
000000e0: 8d8f 4ebe baa5 31bd 651c 983e 7b07 c8bd
000000f0: d4a7 993d 0646 67bd 42f1 323e 6087 1a3e
0.27731052 0.25532943 -0.28613222 0.23102948 0.14704965 0.15432064 0.2527941 -0.06753627
0.06730335 -0.434696 0.16102341 -0.32904676 -0.09139242 -0.20101659 -0.06954124 0.11160183
-0.28782803 -0.22940493 -0.21674219 -0.35291496 -0.5481329 -0.12328202 0.09541725 -0.19662105
-0.055505387 -0.11131475 -0.019433454 -0.35636687 -0.2750517 0.14018992 0.13229999 -0.24370766
0.13068576 -0.18696773 0.29493126 -0.3800357 -0.20306523 -0.15481897 -0.18100092 -0.39094624
-0.06976275 -0.28937265 -0.15115574 0.26958027 -0.4738007 -0.295193 -0.13707605 -0.046893075
-0.29911515 0.07429061 0.05263632 0.030215435 -0.27137184 -0.34385943 0.1617774 0.15685727
-0.20171948 -0.04337094 0.29709163 -0.09767052 0.07502714 -0.056463264 0.17474845 0.15090704

convs.0.offer__interacts__event.lin_root.weight f4 [64, 27]
00000000: 3f1b d23d 1dc8 ae3e cf54 103e 8709 2e3e
00000010: 37e7 843d f380 bbbc eb5b e63d b121 06be
00000020: f893 a2bc 8bcb 08be 71a3 c2bd 38f0 123b
00000030: 66b6 e1bd 9c1b a8be 9c40 8fbd e1d6 efbc
00000040: 937d ef3c 1a71 103e 854d 2dbd ed09 45be
00000050: 45f6 59bd a1ee 653e 8c2f 7bbe 0c9b 3dbe
00000060: 0ab8 a13b 64f0 34ba 5cce 56be cd06 42be
00000070: 81b8 a63d 7040 993e d246 043e ac99 d53c
00000080: 13a3 89bd 1ebb afbc dec4 8c3e de31 cabe
00000090: fdb3 18be a9e8 673e bd92 c23e 1395 d1bd
000000a0: 1e5a 023d f95a 9c3d 884b 573d bcff 503c
000000b0: e707 16be 01ed ec3d 63dd ff3e 956b 233e
000000c0: 618d 78be 916f 50be 38db fb3d b66a 543d
000000d0: e343 ec3d 4feb c4bd 6776 c23d 9927 5cbe
000000e0: 5128 8f3d 5173 b7be fbfd ae3e c3c5 b5be
000000f0: bf66 99be 0638 3a3f 0658 c3bd c2e4 a63e
00000100: b60f 7a3c 56a1 9ebe b99e 44be 1bc3 17be
00000110: 8e25 13be da10 183d 4c60 b8bd 176b e63c
00000120: 6bf1 173e e885 3abd 9cd1 353e 7054 62bd
00000130: b51f 23be d846 95bd 9dea 0dbd 3eb5 46bf
00000140: 27b8 713f 2e28 95bd 4e14 55be 12ff c33d
00000150: 56fb b1bc 5eb5 263e fa24 88bc 82c2 aebd
00000160: 4fd4 83be ebe6 26bd e296 573d 12a2 3fbe
00000170: 31d0 3ebd 6253 c73a 83a8 1bbd 4231 563c
00000180: 4ef2 4abe eec9 b1be 5565 afbd c5b3 1f3f
00000190: ef72 fa3d 4f33 ccbc 4901 f1be 3891 c0bd
000001a0: cedd 3a3e a10f 5a3c 74b6 b63e 4e17 603d
000001b0: 5151 953c c15f a4be f09f d63c 09ca a53d
000001c0: 3fb8 1e3f e0df 98bd 34cb d5bd a9f1 2abf
000001d0: e535 f9be b7c2 d7bc 4188 b2bd c70c 10bf
000001e0: 3d6e c0be 3fb1 61bf 9bb4 9bbe b79a 6ebe
000001f0: 5bb3 36bf 0a94 99be f06d 70be 55b8 7dbc
00000200: 5000 323d c284 48bf a5b2 8bbe fad6 98bd
00000210: 0dad edbe e041 243f 8bce aabe ef80 12bf
00000220: 9c4c 7fbe 9473 b8be 6537 97bf 8587 cfbf
00000230: c1c0 2bbe a25f 3fbf d5f7 34bf c34c 1bbf
00000240: e24b f8bd 29c4 153f 8836 0540 af6d a3bf
00000250: a726 733f fb72 833e 30c5 373e 98de a9be
00000260: cac4 183e 828d d43c 32e0 203e 3ba2 babe
00000270: 0c14 febe c932 c6be 8832 893e 13ea a73f
00000280: 724a 0bbe f733 9bbe b981 83bf ccda 123f
00000290: deb8 3c3e ce84 f83f ce72 b7be 8290 cebe
000002a0: 9d34 4dbe 1511 97bf c888 b3be 0d94 19bf
000002b0: 4d6b 473e 0a88 16bf 1561 5cbf 76ce 7bbf
000002c0: 5a7f 09bf 6894 81be e170 00bf b316 89be
000002d0: 8375 4dbd 49cf 17be 26e6 703e 689a 83bf
000002e0: 5130 3fbe 4604 003f 9dfe b33e 7b0c 603f
000002f0: 4d75 f6be 8b31 83bf 1a07 45bf d500 bbbe
00000300: 8544 c3bf bc54 89bf d0b9 98bd e91e 99bf
00000310: 076b 27be c168 383f 5873 2bbe 8c28 0fbf
00000320: a6d9 a63f ecfd 3a3f d2ac 703f dc03 7a3f
00000330: 471d 8b3f afc8 4c3e 25c7 d43e ddef dd3d
00000340: bcce 26be 9c2a 9bbe a2ba 433e 858c 6d3e
00000350: ac85 d83e 3bc7 a13f 02bd b4be ef09 2abf
00000360: 8f04 d0bd 048a 70be c9d0 983e 33ac 23bd
00000370: ddde 39be 5b38 e3bc 9810 27bd faaa 93be
00000380: 3edd 8bbe 5b0b eb3d ac8f d5bc 5e45 71be
00000390: ca20 583d 2af7 31be 5f04 c4bb c7cd f4be
000003a0: 3d45 0abe 99e8 e1bd b3cc 4f3e d64c fd3c
000003b0: fa84 28bd 2db1 d2be 30de 8fbd 9bf7 b0be
000003c0: d3cf c6be 408c 78be 1cdf c83d 3c6f 2bbd
000003d0: f1a2 8d3d aba7 b93e b1d1 79be b1e1 f43b
000003e0: a918 08bd 15b4 c23c e7fc 3abe e15d 90be
000003f0: a600 9fbe a1b6 f2be 3112 85be 2036 19bd
0.10259103 0.3413705 0.14094852 0.16995822 0.06489413 -0.022888636 0.11248001 -0.1309879
-0.019845948 -0.13358895 -0.0950383 0.0022421014 -0.11021118 -0.32833564 -0.06994745 -0.029277267
0.029234683 0.14105645 -0.042310257 -0.19242068 -0.053213377 0.22454311 -0.24529856 -0.18516177
0.0049352692 -0.0006902276 -0.20977157 -0.18947907 0.0814066 0.29931974 0.12917641 0.026074253
-0.06720557 -0.02145153 0.27493948 -0.3949117 -0.1491241 0.22647347 0.38002577 -0.10233512
0.031824224 0.07634539 0.052562267 0.012756284 -0.14651452 0.115686424 0.49973592 0.15959008
-0.24272682 -0.20355059 0.12297672 0.05185958 0.11536386 -0.09615194 0.0949524 -0.2149948
0.069901116 -0.35830167 0.34178147 -0.35502443 -0.29961202 0.72741735 -0.095382735 0.32596403
0.015262535 -0.30982465 -0.19201173 -0.1482052 -0.14369795 0.037125446 -0.09002742 0.028127236
0.14838187 -0.04553786 0.17755741 -0.055256307 -0.15930064 -0.07288903 -0.034647573 -0.77620304
0.9442162 -0.07283054 -0.20808527 0.09570135 -0.021726292 0.16280124 -0.016619194 -0.08533193
-0.25747916 -0.040747564 0.052634127 -0.18714169 -0.046585266 0.0015207345 -0.038002502 0.013073267
-0.19818994 -0.34724373 -0.085642494 0.6238368 0.12228953 -0.02492681 -0.47071293 -0.09402698
0.18248674 0.01330939 0.35686076 0.054709725 0.018227251 -0.32104304 0.026199311 0.08095176
0.6199989 -0.07464576 -0.104391485 -0.66774994 -0.4867393 -0.026337964 -0.087173946 -0.56269497
-0.37584105 -0.8816108 -0.3041123 -0.23301207 -0.71367425 -0.29995757 -0.23479438 -0.015485843
0.04345733 -0.7832757 -0.27284732 -0.074628785 -0.4642109 0.6416302 -0.33360705 -0.5722799
-0.24931568 -0.3602568 -1.181378 -1.6213232 -0.16772749 -0.747553 -0.7069066 -0.60664004
-0.121238485 0.5850244 2.0814533 -1.2767848 0.94980854 0.2567366 0.17946315 -0.33177638
0.14918819 0.025946382 0.15710524 -0.36451897 -0.4962467 -0.3871062 0.26796365 1.3118309
-0.13602617 -0.30313084 -1.0273963 0.5736511 0.18429896 1.9415529 -0.35829777 -0.40344626
-0.20039602 -1.1802088 -0.35065293 -0.5999153 0.19474526 -0.5880133 -0.86085635 -0.9836191
-0.5370995 -0.25308537 -0.5017224 -0.2677513 -0.050160896 -0.14825167 0.23525295 -1.0281496
-0.18670775 0.5000652 0.35155192 0.87519044 -0.48136368 -1.0249494 -0.7696396 -0.36524072
-1.5255286 -1.0728984 -0.07457316 -1.1962558 -0.16349421 0.7203484 -0.16743219 -0.55921245
1.3035171 0.73043704 0.940137 0.9766214 1.086831 0.1999843 0.41558185 0.10836766
-0.162898 -0.30305946 0.19114164 0.23198135 0.42289484 1.2638925 -0.35300452 -0.6642141
-0.101571195 -0.23490149 0.2984679 -0.039959144 -0.18151422 -0.027736833 -0.04078731 -0.28841382
-0.27317232 0.11476775 -0.026069485 -0.23561618 0.052765645 -0.17379442 -0.0059819664 -0.47813246
-0.13502975 -0.110306926 0.2029293 0.030920427 -0.04114244 -0.411508 -0.07024801 -0.34563908
-0.38830432 -0.24272251 0.0980818 -0.04185413 0.06915844 0.36260733 -0.24396397 0.0074731936
-0.033226643 0.02376751 -0.18260537 -0.28196624 -0.31055182 -0.4740496 -0.2599044 -0.037405133

convs.0.application__updates__application.lin_rel.weight f4 [64, 3]
00000000: 7dbe dabd a56e 8bbe 62f5 abbe fd4a 023f
00000010: ceb9 e53d 8b19 c83e 899f 05bf 1bdb 8fbd
00000020: a1a7 1abe ce49 cfbe c5cc 933d 7684 6a3e
00000030: 94e5 51bf ef94 623e 53bd 3e3e e934 073f
00000040: 6992 013c a9cd e73e 08f8 ad3d c9e1 713e
00000050: 877a d23e e16d 8fbe 1f4d 813d c953 45bd
00000060: 7d56 e33e 6db3 b33e 6e3b 143e e4b7 d23e
00000070: 5ab1 f4be d8b2 863e 796a 08bf 9a80 41bf
00000080: 6d7b 8cbe ca65 45bf 1f60 e53c 0373 5dbd
00000090: 4e5c 693e 87d8 fd3c 7bb0 4fbe cda8 e23e
000000a0: ea27 153e 09b5 683e 94e5 c53e 5ff6 793f
000000b0: 8a34 073f e47a 45be 91f6 2a3b 28d2 323e
000000c0: 490e 483d e35a 93be fb69 65bd 3a3d a8be
000000d0: 1398 73bd 0765 17bf 67d6 333f 5ac6 bf3d
000000e0: 3daa da3d 9251 96be a3fa 99be 6fbd 21be
000000f0: b88b 1fbf 9fd4 43bf e934 b83c 1d07 73be
00000100: a030 213e d993 7fbd 1fea ea3e 1d34 e4be
00000110: b575 f6bd 558f 06bf 1239 01be f495 b7be
00000120: 4f73 02be 2a9a cf3e a348 733d 0e3a ed3d
00000130: a9cf 093f 68ba c53e f955 823e 0cc1 41bf
00000140: cd7c 37bf c3a5 3cbe eab4 f23d 6bbe 3dbe
00000150: 68cc 003f 3b5a 1abf f65f 49be 82c3 a63e
00000160: 0753 0d3e 0ca2 5ebf 1a27 1fbe a9b4 cabd
00000170: 95d9 e9bd 1a6c e7be 5cab 9ebe d554 eebe
00000180: ee17 bbbe 2ba9 12be cd5c 18bf e927 d1be
00000190: b314 37be c072 7dbe 8bbc b1bd 7a0c 2fbf
000001a0: 970c b2be bea8 9fbe 295b 01be 67ad f93d
000001b0: e516 3e40 5e15 c93f 8ca9 3ebf b1bc 21be
000001c0: c667 bfbe cf83 84be 25a7 8e3e 986d e4be
000001d0: 2e28 943d fd75 fcbc 1150 a6be fb6d e83c
000001e0: 7d0b 4ebf 7258 18be dc4d 9b3e 9b9e f6be
000001f0: 4c81 9d3e 9406 8e3e a44b 18bf 3bbe 633d
00000200: a464 8a3c ecb0 e23d 5075 033e c5e0 5cbd
00000210: 977c 00bf cc00 95be 2e54 eebe b640 d53e
00000220: f18d afbc 47cf e9be 4d96 25bf 3978 243e
00000230: 86e7 983d 4199 db3e 6e1e 4bbe d7c9 a2be
00000240: 14e7 cbbe 9a46 8e3e f99a cd3e dc06 f93e
00000250: 87e0 023f 54aa 89be 6acb 393e 7e0e 2fbe
00000260: 0060 03bf ac28 b8be 7b14 9cbe dac1 58bf
00000270: 7728 9abe 73e6 17bb 2ab7 1abe 8ed1 c9be
00000280: 0083 503e 4aea 59be e1e6 3abe 63b0 2abd
00000290: 314d 133e 41be 1abf 2ec3 24bf 7044 51be
000002a0: bc74 a73d 0c97 513e 551a 933e 5917 0a3f
000002b0: 7f18 9abc 1187 9d3e ea2e c1bd 2871 b3be
000002c0: c7c5 383f cb7e f5be 04fa 49be e4e6 d3ba
000002d0: f16d 6dbd 6574 d73e 6f14 af3e 0923 8abe
000002e0: 6a3a bebe c850 ff3c ccd5 9fbe 2396 0ebf
000002f0: e9b5 61be 92de c8bc 5e4e 703d 8803 5fbe
-0.10680864 -0.27232853 -0.3358565 0.50895673 0.1121708 0.39081988 -0.52196556 -0.07024213
-0.15103008 -0.40485996 0.07216791 0.22902092 -0.81990933 0.22127126 0.18626909 0.5281511
0.007908442 0.45274094 0.08494574 0.23621286 0.41109106 -0.28013518 0.06313538 -0.048175607
0.44401923 0.35097829 0.14475796 0.41155922 -0.47791559 0.26308322 -0.53287464 -0.75586855
-0.27437916 -0.7710844 0.027999936 -0.05406476 0.22789118 0.030987037 -0.20282166 0.4426941
0.14566007 0.2272531 0.38651717 0.9764156 0.52814543 -0.1928516 0.0026086906 0.17462981
0.04884175 -0.2878028 -0.056009274 -0.32859212 -0.0594712 -0.5913853 0.70249027 0.093640044
0.106770016 -0.29359108 -0.30074033 -0.1579492 -0.6232257 -0.7649631 0.022486167 -0.23733182
0.15741205 -0.062396858 0.45881745 -0.4457101 -0.120341696 -0.5256246 -0.12619427 -0.35856593
-0.12739299 0.40547305 0.059395444 0.11583339 0.5383249 0.3861878 0.25456217 -0.7568519
-0.71674806 -0.18422608 0.11850913 -0.1852967 0.503119 -0.6029393 -0.19665512 0.32571036
0.13801204 -0.86966014 -0.1554226 -0.098977394 -0.114184536 -0.45199662 -0.30990112 -0.46549097
-0.36541694 -0.14322345 -0.595166 -0.40850762 -0.1787899 -0.24750805 -0.0867854 -0.6837841
-0.3477523 -0.31183428 -0.12632431 0.12191277 2.9701474 1.5709646 -0.7447746 -0.15794636
-0.3738386 -0.25881812 0.27861896 -0.44614863 0.07234226 -0.03081798 -0.3248296 0.028372755
-0.8048628 -0.14877489 0.3033284 -0.4816788 0.30762708 0.27739394 -0.5949042 0.05560134
0.016893692 0.110689014 0.1283772 -0.053925294 -0.5019011 -0.2910217 -0.465486 0.41650933
-0.021429988 -0.45665953 -0.64682466 0.16061486 0.074660346 0.4289036 -0.19835827 -0.31794617
-0.39824736 0.2778824 0.40157297 0.48638046 0.5112385 -0.26887763 0.18144003 -0.17095372
-0.5131836 -0.3596853 -0.30484375 -0.84670794 -0.30108997 -0.002317813 -0.15108934 -0.3941769
0.20362473 -0.2128078 -0.18252136 -0.04167212 0.14384915 -0.60446554 -0.6436032 -0.20436263
0.08176562 0.20467776 0.28731027 0.53941876 -0.018810509 0.3076711 -0.09432776 -0.3504727
0.72176784 -0.47948298 -0.1972428 -0.0016166833 -0.057966176 0.4208099 0.34195277 -0.26979855
-0.3715394 0.03116645 -0.31217802 -0.5569784 -0.2204205 -0.024520192 0.058668487 -0.21778691

convs.0.application__updates__application.lin_rel.bias f4 [64]
00000000: a570 7a3e 754b f6be 121c 823e b2bf fbbe
00000010: 7d2b 3bbf 6aff d2be 538b 0dbf 6590 03be
00000020: 0d8e d0be e011 53be d471 08bd 7416 4bbe
00000030: 5dff c3be 5692 0fbf ad71 e23e a201 b7be
00000040: b1e6 013d 0583 4cbd 91cf 7cbe 49b6 553e
00000050: 4061 953e 6f4c c4be 61a7 9cbe 3829 073e
00000060: 8337 3dbf 37b5 0fbf be2e eb3d c72e 6d3e
00000070: 0fa3 843e 3dc0 2cbd 5770 0f3c 38ba b03d
00000080: 1f3e 153e c01f e7be ff31 173c 27dc 08be
00000090: d8b5 4c3d 4f5a 25be c2f9 a4bc a9bf 983e
000000a0: 67a4 b2be 8ebd be3d 2371 b9be 3b64 efbe
000000b0: b72b bcbe acd6 6d3d 135e 68be 359c d4be
000000c0: 786e c5be 2d6b 0ebf 2796 813e c3a6 d5bd
000000d0: 6d84 b9bd 7f7b 4f3e 8f57 26be 6ba2 803e
000000e0: 17c8 cdbe 06ac b6be 486a 18bf aa36 78be
000000f0: df93 d6be 04c5 23be 6285 babe a3b5 963d
0.24457033 -0.48104444 0.2541204 -0.4916969 -0.7311323 -0.4121049 -0.55290717 -0.12848051
-0.40733376 -0.20612288 -0.03331168 -0.19832784 -0.38280764 -0.56082666 0.44227353 -0.35743433
0.031714145 -0.049929637 -0.24688555 0.20870318 0.29175758 -0.38339564 -0.3059645 0.13199317
-0.7391283 -0.56135887 0.11483525 0.23162375 0.25905654 -0.04217552 0.008754811 0.086292684
0.14574479 -0.4514141 0.009228229 -0.13365231 0.049978107 -0.16147731 -0.020138625 0.29833725
-0.34891054 0.093134984 -0.3621913 -0.46756157 -0.36752102 0.058066055 -0.22692136 -0.41525427
-0.38560843 -0.5563229 0.2530987 -0.10432198 -0.09058461 0.20261954 -0.16244338 0.25123915
-0.4019172 -0.35678118 -0.5953717 -0.24239603 -0.41909692 -0.15993124 -0.36429888 0.07358863
