models/CS/hoeg/exp_v3/lr=0.001_hidden_dim=64/GraphModule_20230830_13h56m/state_dict_epoch3.pt (torch, 322319 bytes, 46 tensors)

convs.0.event__follows__event.lin_rel.weight f4 [64, 15]
0.16600993 0.108980484 -0.029460713 0.1797781 0.053291846 -0.05396046 0.05636781 -0.51696354
-0.1818901 -0.027812196 0.21050942 0.17051832 0.18598771 -0.0061835316 -0.29067644 -0.10716356
-0.16284442 0.20758359 -0.061380588 0.22771293 0.019252025 -0.13767244 0.3583062 0.0054634158
-0.10951093 -0.20651004 -0.22374888 -0.061622694 -0.09715355 0.26665327 0.072374664 -0.022937514
-0.008491759 -0.26142225 -0.051421087 0.23367883 0.10979682 -0.40096045 0.031094953 -0.22575438
-0.15389147 -0.109831 0.1881576 -0.093628876 0.22287959 0.1094305 0.041012045 0.019210827
-0.054779325 0.09710587 -0.18200092 0.0069035185 -0.057787858 -0.048270825 0.06612206 -0.1747281
0.14846154 -0.17130858 0.14783224 -0.15352143 0.1025503 0.18931846 -0.12075044 -0.14586692
-0.10810975 -0.09326685 0.21365504 -0.34666207 -0.13401154 -0.09997436 0.19929247 -0.1294409
-0.031636577 0.1680383 -0.13819341 -0.06147497 -0.124245234 -0.1741997 -0.13156703 0.17192352
-0.21737647 0.010837954 -0.30181482 0.086725704 0.20374149 -0.026521066 0.03205023 -0.1462482
-0.1831719 -0.051162172 0.15224983 -0.20751369 -0.0021874325 -0.22166348 -0.043694653 -0.14201467
-0.025990121 0.3793296 0.11015997 -0.1535309 0.036324285 -0.064439125 0.095800504 -0.011781124
-0.26117864 -0.04871374 0.16484773 0.25736177 0.11448159 0.23052348 -0.21153107 -0.17138001
-0.30880982 -0.111941636 -0.31385958 0.22944081 -0.22041191 -0.10263454 -0.03225443 -0.027487041
0.14153342 0.14581688 -0.20676742 -0.18511052 0.107029386 0.24345385 -0.021405267 -0.07423699
0.20516934 -0.022810556 -0.014484587 -0.0448669 0.22771083 -0.15593715 -0.2769784 0.0031262129
-0.22994465 -0.25339657 -0.20520926 -0.01816836 -0.22065508 -0.21958141 -0.09918412 0.09394211
-0.18589768 -0.24532993 -0.13475983 0.107539676 -0.23894049 -0.12217399 -0.10161895 -0.09831369
-0.1596974 0.26953325 0.15518546 -0.07712875 -0.22296187 0.27812892 -0.2449662 -0.017798023
0.21327645 0.16586074 0.043211404 0.17077346 0.21068658 -0.008020002 0.23844421 0.29534858
0.100578755 0.008426863 0.30270535 0.25957862 -0.37924072 0.21016894 0.25300348 -0.0034690807
0.26597285 0.080999926 0.25367868 -0.02221505 -0.103777185 -0.1969087 -0.18935987 0.17139852
-0.049540125 -0.19358358 0.13763082 0.046519805 -0.027922478 0.069663234 -0.2293629 0.07599347
0.065700985 0.014051122 0.046548992 -0.14980072 -0.1727738 0.016661843 0.269011 -0.22620273
-0.19719157 0.15512542 0.45456973 -0.18373276 0.17767957 0.029284835 -0.17915215 0.20189697
0.21858616 0.20403771 0.17798805 0.13430858 0.12014116 -0.030138692 0.27851063 -0.1766699
-0.01952899 0.0028888024 0.13121635 -0.03629353 -0.20679456 -0.22867909 -0.06114642 0.25129825
-0.19690572 0.10525409 -0.028602947 -0.12770118 0.08346823 0.07864979 0.12207451 -0.28753078
0.09947696 -0.05052226 -0.010097849 -0.23939894 -0.18833007 -0.15612216 -0.12236212 0.16854526
0.12781826 0.2531704 0.16134998 0.11978753 -0.1577797 0.0016723707 -0.2260204 -0.27697536
0.036094934 -0.23813926 0.23249646 -0.2424072 0.15495758 -0.11315713 0.074374564 0.03968663
00000000: 82fe 293e 2931 df3d 9857 f1bc c017 383e
00000010: 8d48 5a3d a505 5dbd efe1 663d b957 04bf
00000020: 6641 3abe 67d6 e3bc c88f 573e 5b9c 2e3e
00000030: 9073 3e3e 399f cabb 8bd3 94be 9278 dbbd
00000040: b0c0 26be cb90 543e 366a 7bbd 942d 693e
00000050: 6cb6 9d3c 01fa 0cbe e973 b73e 7406 b33b
00000060: 4447 e0bd 5e77 53be 6d1e 65be 1468 7cbd
00000070: 71f8 c6bd c786 883e 2b39 943d 74e7 bbbc
00000080: 0521 0bbc 23d9 85be eb9e 52bd 8149 6f3e
00000090: 28dd e03d b04a cdbe d8ba fe3c 282c 67be
000000a0: ba95 1dbe 13ef e0bd 63ac 403e 7fc0 bfbd
000000b0: 8c3a 643e 191d e03d 3ffc 273d 0660 9d3c
000000c0: 4960 60bd 71df c63d 735e 3abe e936 e23b
000000d0: f6b2 6cbd a1b7 45bd 016b 873d eceb 32be
000000e0: 4d06 183e 846b 2fbe 5661 173e b934 1dbe
000000f0: e405 d23d b3dc 413e 024c f7bd 235e 15be
00000100: a568 ddbd b102 bfbd 63c8 5a3e b17d b1be
00000110: 523a 09be 5bbf ccbd 5313 4c3e 288c 04be
00000120: 5b95 01bd 3b12 2c3e 9382 0dbe 2ecd 7bbd
00000130: 4974 febd 6861 32be 82b9 06be b80c 303e
00000140: f097 5ebe ac91 313c 7987 9abe 3f9d b13d
00000150: 9ca1 503e b542 d9bc 1a47 033d 17c2 15be
00000160: 6a91 3bbe 6d8f 51bd 61e7 1b3e 787e 54be
00000170: 075b 0fbb c0fb 62be 2af9 32bd 4b6c 11be
00000180: 3ce9 d4bc 7d37 c23e 8d9b e13d 3437 1dbe
00000190: c6c8 143d a9f8 83bd 0e33 c43d 9e05 41bc
000001a0: 35b9 85be 0f88 47bd d8cd 283e ecc4 833e
000001b0: 5375 ea3d 590e 6c3e 9a9b 58be 3e7e 2fbe
000001c0: 521c 9ebe a841 e5bd 34b2 a0be 88f2 6a3e
000001d0: a9b3 61be 0f32 d2bd 391d 04bd 812c e1bc
000001e0: 23ee 103e 0551 153e d7ba 53be 9d8d 3dbe
000001f0: 3932 db3d f74b 793e 195a afbc 9009 98bd
00000200: e917 523e 34dd babc c350 6dbc 5bc6 37bd
00000210: 072d 693e fdad 1fbe 1dd0 8dbe 26e1 4c3b
00000220: 9c76 6bbe 32bd 81be 6022 52be d0d5 94bc
00000230: 68f3 61be f3d9 60be 0b21 cbbd b964 c03d
00000240: f65b 3ebe c537 7bbe 7bfe 09be c33d dc3d
00000250: d1ac 74be 5b36 fabd 991d d0bd b058 c9bd
00000260: b787 23be 4300 8a3e f0e8 1e3e aef5 9dbd
00000270: 1e50 64be ea66 8e3e 6bd8 7abe 29cd 91bc
00000280: 2465 5a3e 66d7 293e 71fe 303d 3ddf 2e3e
00000290: 39be 573e 5466 03bc b82a 743e ee37 973e
000002a0: 3cfc cd3d d310 0a3c 32fc 9a3e 7de7 843e
000002b0: d72b c2be 8736 573e ac89 813e 8459 63bb
000002c0: 982d 883e 4ae3 a53d 2ce2 813e 56fc b5bc
000002d0: 2289 d4bd 6fa2 49be 8ee7 41be 1883 2f3e
000002e0: 96ea 4abd c63a 46be 18ef 0c3e 8d8b 3e3d
000002f0: aebd e4bc 99ab 8e3d 1cde 6abe 77a2 9b3d
00000300: 3d8e 863d ad36 663c 28aa 3e3d 5c65 19be
00000310: 9deb 30be 6b7e 883c cfbb 893e b0a1 67be
00000320: 96ec 49be 33d9 1e3e 5dbd e83e 7124 3cbe
00000330: a2f1 353e c0e6 ef3c a973 37be 14be 4e3e
00000340: 0dd5 5f3e 43ef 503e 8042 363e 3088 093e
00000350: 920c f63d 6be5 f6bc f298 8e3e f4e8 34be
00000360: 43fb 9fbc 1052 3d3b 945d 063e 86a8 14bd
00000370: f4c1 53be da2a 6abe ab74 7abd 2aaa 803e
00000380: a7a1 49be 758f d73d ba50 eabc 19c4 02be
00000390: 64f1 aa3d 2413 a13d 3302 fa3d 3c37 93be
000003a0: 94ba cb3d 6ef0 4ebd 7371 25bc ff24 75be
000003b0: 99d9 40be 7dde 1fbe fe98 fabd 2197 2c3e
000003c0: cae2 023e 8d9f 813e ee38 253e 2a53 f53d
000003d0: 0091 21be 7333 db3a e471 67be b7cf 8dbe
000003e0: 48d8 133d c7da 73be 8d13 6e3e 9839 78be
000003f0: 33ad 1e3e edbe e7bd b151 983d 738e 223d

convs.0.event__follows__event.lin_rel.bias f4 [64]
0.102647886 -0.20244242 -0.12726244 0.056812067 -0.045527447 0.093952276 -0.00992989 0.22388966
0.015704669 0.11556576 -0.083247386 -0.17451695 0.022740072 0.08234912 -0.1830282 -0.09845867
-0.19557296 -0.045517243 -0.039163217 -0.23943435 -0.15131655 0.07152901 -0.061055884 0.01476614
0.21163823 0.14524098 0.08951573 -0.20117149 -0.12233367 -0.22087108 -0.0189528 -0.060847867
-0.037091818 -0.2535303 0.24732822 0.08313234 -0.17950928 0.14123058 -0.1458955 -0.22819817
0.039559025 0.06854212 0.10299576 0.0357828 0.022873566 -0.10830943 -0.25011864 0.019649923
0.027144317 0.0637412 -0.120823 0.21456973 -0.10121777 0.117593065 0.066587694 -0.19904855
0.16316764 -0.25955632 0.02679838 0.20513418 -0.0526545 0.025925396 -0.15986624 0.0497692
00000000: 0e39 d23d 114d 4fbe 1651 02be c5b3 683d
00000010: fd7a 3abd 0d6a c03d fab0 22bc 5543 653e
00000020: 14a7 803c bead ec3d 9b7d aabd 92b4 32be
00000030: 6349 ba3c a8a6 a83d bf6b 3bbe b3a4 c9bd
00000040: 4744 48be 4a70 3abd 9c69 20bd 472e 75be
00000050: baf2 1abe cd7d 923d bc15 7abd aeed 713c
00000060: b1b7 583e 0dba 143e 0654 b73d e6ff 4dbe
00000070: 138a fabd 072c 62be e742 9bbc 9d3b 79bd
00000080: 97ed 17bd b9ce 81be 9c43 7d3e 4a41 aa3d
00000090: 48d1 37be c09e 103e a165 15be c8ac 69be
000000a0: a508 223d d05f 8c3d 71ef d23d fc90 123d
000000b0: 5861 bb3c 56d1 ddbd 8d0f 80be e0f8 a03c
000000c0: c25d de3c bf8a 823d 0d72 f7bd 2bb8 5b3e
000000d0: 434b cfbd a2d4 f03d 215f 883d 62d3 4bbe
000000e0: 6b15 273e 91e4 84be 4788 db3c b20e 523e
000000f0: 3fac 57bd 7f61 d43c fab3 23be cada 4b3d

convs.0.event__follows__event.lin_root.weight f4 [64, 15]
0.082581 0.056677423 -0.21944758 0.10996687 -0.11276666 0.21814464 -0.1754544 -0.4549236
0.08805174 0.092508525 0.1363975 0.18872055 0.11966636 0.1270796 0.110033855 -0.09770242
0.19454055 0.10717135 0.0075321216 -0.023183418 0.19717894 -0.2537579 0.3957348 -0.068226054
0.16802877 0.15946756 0.0015466098 0.19217871 -0.05968437 0.04474463 -0.14142042 -0.08586498
0.16483855 0.2504191 0.118629485 0.22704971 -0.111606665 -0.038214643 -0.08173225 -0.24068232
-0.11478403 0.15138353 0.02814137 -0.13783155 -0.14621937 -0.019250974 -0.11129674 -0.12507139
-0.19684969 -0.12772276 -0.09929033 0.27675772 -0.16255517 0.19992614 0.19120537 -0.14226738
-0.07442149 0.108375505 0.23930663 0.26282787 0.2637593 0.22442158 0.28111932 -0.07836332
0.11835908 0.28188968 0.2424523 -0.12874328 -0.05302852 0.017336793 0.12070433 0.1963968
-0.19592208 -0.033889517 0.18491744 0.099866405 0.2472426 -0.030245885 -0.19534416 -0.19934507
0.001546282 -0.10700673 -0.34540844 -0.015415535 0.0023279162 -0.016899789 0.0972685 0.24838123
-0.22673392 -0.046259504 -0.21335195 0.19870314 -0.046494674 0.2043687 -0.06025003 -0.26235148
-0.07339974 0.014677487 -0.16037193 0.11539077 -0.14551848 0.19148114 -0.19933091 -0.13602367
0.04739278 -0.21274072 -0.14334726 0.12127672 0.2049641 -0.14229974 0.28061396 0.044468187
-0.36585593 0.19851168 -0.2840388 0.097805776 0.21918905 -0.21575774 0.044825986 -0.12508307
-0.07168987 -0.04104907 0.05540935 -0.08177819 0.17251226 -0.14653143 -0.20678617 -0.13893597
0.039633106 -0.09511923 -0.04298689 -0.24230556 -0.14015701 -0.2105442 -0.24770208 0.25352627
-0.20615181 0.108138114 -0.090327784 -0.20109344 0.091114245 0.21697804 -0.17554604 -0.17944424
-0.14300677 -0.01031899 0.3433809 0.18907656 0.18300839 0.06018503 -0.2620772 -0.07874598
-0.076393954 0.1993163 0.020617822 -0.10482573 -0.016653951 -0.019702109 -0.102516435 0.020100212
-0.24194832 0.19009815 0.029973673 0.17196465 -0.19017781 0.041562002 0.17843606 -0.03228815
-0.20356879 -0.13159356 0.11802024 -0.22861804 -0.2732244 0.17233938 0.0012322718 -0.21926995
-0.030170487 -0.20854397 0.21655354 0.17206356 -0.20155434 0.12066558 0.13588673 -0.07565265
-0.09015716 -0.22746223 0.061468937 0.16129854 -0.016224468 0.1074379 -0.24483499 -0.19939254
-0.086571075 -0.076417856 -0.17571999 -0.04918118 0.19876133 0.05419721 -0.049187753 0.19509293
-0.21982199 -0.15119466 0.24704604 -0.2696293 0.26637143 -0.19829117 -0.2650769 0.19526944
-0.16749139 0.1291383 0.15045692 0.16876182 -0.013685704 0.24359609 0.039341 -0.12718308
0.0072080605 0.24956545 0.025140505 -0.11127154 -0.10145022 0.107850365 -0.061641853 0.011069505
-0.22834148 0.20544653 0.015879283 0.17087983 -0.15530775 -0.19056006 0.129224 0.190416
-0.003934609 0.056698464 -0.23051023 0.10151343 -0.08981299 -0.007428235 0.091838844 -0.067289114
-0.016740413 0.060699303 -0.18825457 0.12558211 0.18788256 0.2955949 -0.12479799 -0.31561646
-0.095691495 0.009698821 0.089305244 -0.071513504 -0.08131744 -0.04900465 0.11978326 0.060014445
00000000: 3a20 a93d 9626 683d deb6 60be 4f36 e13d
00000010: 35f2 e6bd 4f61 5f3e 51aa 33be bfeb e8be
00000020: 7854 b43d 1c75 bd3d c9ab 0b3e f63f 413e
00000030: a313 f53d 2821 023e 6e59 e13d 3518 c8bd
00000040: a335 473e a77c db3d 04d0 f63b 27eb bdbc
00000050: 47e9 493e 8eec 81be c09d ca3e 1aba 8bbd
00000060: bc0f 2c3e 774b 233e 9db7 ca3a 7fca 443e
00000070: 9977 74bd 2546 373d 84d0 10be fbd9 afbd
00000080: 70cb 283e ef36 803e 04f4 f23d b87f 683e
00000090: 0992 e4bd f586 1cbd 3d63 a7bd 6d75 76be
000000a0: e413 ebbd 4904 1b3e bb88 e63c b723 0dbe
000000b0: 88ba 15be 38b4 9dbc 8cef e3bd b712 00be
000000c0: f792 49be c1c9 02be bb58 cbbd 30b3 8d3e
000000d0: dd74 26be 70b9 4c3e 57cb 433e 8aae 11be
000000e0: 4b6a 98bd faf3 dd3d cc0c 753e 6091 863e
000000f0: 750b 873e c5ce 653e dfee 8f3e f37c a0bd
00000100: 3f66 f23d d853 903e 6a45 783e 47d5 03be
00000110: 6f34 59bd e405 8e3c d533 f73d 3e1c 493e
00000120: cc9f 48be bccf 0abd ff5a 3d3e c286 cc3d
00000130: 2a2d 7d3e 38c6 f7bc 4d08 48be 1d21 4cbe
00000140: 9dac ca3a 5826 dbbd 60d9 b0be 7191 7cbc
00000150: f48f 183b 6d71 8abc b534 c73d a657 7e3e
00000160: f02c 68be 9b7a 3dbd ef78 5abe d678 4b3e
00000170: 3371 3ebd 0746 513e bcc8 76bd ef52 86be
00000180: 9a52 96bd d879 703c 8a38 24be ff51 ec3d
00000190: cc02 15be a213 443e 671d 4cbe ca49 0bbe
000001a0: ef1e 423d b4d8 59be a0c9 12be ee5f f83d
000001b0: 1ce2 513e 06b7 11be a2ac 8f3e 4624 363d
000001c0: 7851 bbbe a546 4b3e 896d 91be 654e c83d
000001d0: 1873 603e 99ef 5cbe 749b 373d c715 00be
000001e0: 23d2 92bd 1223 28bd eaf4 623d 537b a7bd
000001f0: 0ea7 303e 560c 16be c1bf 53be 3b45 0ebe
00000200: 5356 223d dfcd c2bd 0513 30bd f31e 78be
00000210: 5285 0fbe e698 57be 9da5 7dbe 32ce 813e
00000220: 7619 53be 8477 dd3d c6fd b8bd 70eb 4dbe
00000230: 1b9a ba3d 7e2f 5e3e 57c2 33be 3bc0 37be
00000240: 5e70 12be fb10 29bc 9fcf af3e 499d 413e
00000250: 8d66 3b3e 9484 763d fc2e 86be 9345 a1bd
00000260: 6f74 9cbd 9219 4c3e b5e6 a83c dfae d6bd
00000270: de6d 88bc 5166 a1bc 23f4 d1bd 33a9 a43c
00000280: 4dc1 77be 17a9 423e 598b f53c 8017 303e
00000290: f9bd 42be eb3c 2a3d f1b7 363e 9440 04bd
000002a0: 5674 50be 76c0 06be 98b4 f13d d91a 6abe
000002b0: 12e4 8bbe bc79 303e 2e84 a13a 4d88 60be
000002c0: 1928 f7bc 8d8c 55be 36c0 5d3e 6e31 303e
000002d0: 4364 4ebe 841f f73d e425 0b3e c7ef 9abd
000002e0: 51a4 b8bd dceb 68be dac6 7b3d 722b 253e
000002f0: 2de9 84bc 6708 dc3d 06b6 7abe 8f2d 4cbe
00000300: 2d4c b1bd f780 9cbd f1ef 33be 3472 49bd
00000310: 1788 4b3e e5fd 5d3d 1979 49bd 71c6 473e
00000320: 0419 61be c6d2 1abe a3f9 7c3e da0c 8abe
00000330: d661 883e d70c 4bbe 29b8 87be b6f4 473e
00000340: dd82 2bbe d53c 043e 6111 1a3e e6cf 2c3e
00000350: 013a 60bc 4171 793e 0724 213d 483c 02be
00000360: 9831 ec3b 168e 7f3e 76f3 cd3c 55e2 e3bd
00000370: 22c5 cfbd a7e0 dc3d 2b7c 7cbd de5c 353c
00000380: 59d2 69be 9360 523e 4515 823c 1ffb 2e3e
00000390: ff08 1fbe 2d22 43be 4c53 043e 69fc 423e
000003a0: e4ed 80bb a63c 683d e00a 6cbe 46e6 cf3d
000003b0: dfef b7bd 8d68 f3bb 0116 bc3d e0ce 89bd
000003c0: 3123 89bc d59f 783d cec5 40be 9998 003e
000003d0: 4964 403e 3758 973e 1796 ffbd 7b98 a1be
000003e0: e7f9 c3bd cee7 1e3c abe5 b63d ac75 92bd
000003f0: c289 a6bd 1ab9 48bd ed50 f53d b5d1 753d

convs.0.krs__interacts__event.lin_rel.weight f4 [64, 20]
0.18608904 0.19889618 -0.1363085 0.037701517 -0.115963764 0.07041749 -0.1755188 0.38884887
0.16345844 -0.18930256 -0.13005605 0.088514835 0.11036282 -0.06956365 0.096010044 0.017527254
-0.023073744 0.20047548 -0.028258663 -0.017731635 -0.009675305 0.1119257 -0.030017301 0.17925107
0.065959394 0.20049055 0.09324632 -0.04342483 -0.22353445 -0.05913887 0.012413792 0.08869398
-0.17604117 -0.05735818 -0.20486459 -0.0781116 0.07550464 0.024122879 -0.07073721 -0.15154815
-0.039521933 -0.31068602 -0.28852835 -0.1043115 -0.108164385 0.082491286 -0.12760511 0.12549388
-0.006853293 -0.21347034 -0.13648236 -0.21091424 -0.091854826 -0.120629765 0.030150708 -0.20484191
0.0040004896 0.05669166 -0.11622575 -0.31262028 -0.10422083 -0.21546043 -0.013138004 0.10814176
0.07059273 -0.124929495 -0.07196296 0.027203295 -0.1470761 -0.17757268 0.12066206 -0.13826507
-0.11394265 0.10547395 0.23399009 0.029044569 -0.022135127 -0.12849212 0.15882647 -0.050418112
0.08913051 0.054046813 -0.17641151 0.05072822 -0.049084626 0.10888286 0.04090566 0.07847089
0.23786728 -0.07507643 0.008701901 -0.14009044 0.088000655 -0.16930455 -0.027189452 0.035079528
0.007085752 0.0096239755 0.1795944 0.26945904 0.032543797 0.0602805 0.035834283 -0.02962826
0.09714895 -0.09703591 0.12987816 0.07081439 0.07540924 -0.06861929 -0.20135409 0.08218545
0.027791956 0.020607075 -0.07906461 0.18769279 0.0660055 0.38555604 0.2658593 -0.08015511
-0.06735445 -0.20700018 0.20717807 -0.033258613 -0.17976005 -0.21139869 -0.21084478 0.038089477
-0.16876571 -0.09543803 0.21312323 0.1253107 0.19911803 0.21219887 -0.065269016 -0.09927007
0.10613417 0.03502101 -0.08799793 -0.0044243587 -0.19734891 0.009620208 -0.110315524 -0.058047067
-0.060345795 0.09963187 0.049096093 -0.20508407 0.1387109 0.1172575 -0.20493203 -0.17657635
0.0069926125 0.05877393 -0.2673585 -0.29940924 -0.102499485 0.026541514 0.12958163 -0.24267837
0.24113509 0.10375731 -0.21415472 -0.11789116 0.15901783 -0.20049392 -0.027291868 0.065649
0.18509102 -0.07099956 -0.14715749 -0.21042943 0.09114067 -0.03987088 -0.0872631 -0.18526395
-0.019804163 -0.11546515 0.03848832 0.055286646 -0.29770416 0.18441655 0.03203082 0.04835158
-0.18320134 -0.01474036 -0.07225311 0.064211644 0.08844057 0.23550892 0.3679707 0.09830632
-0.030532287 0.09404357 0.22259499 -0.19514929 -0.1416303 -0.10243846 -0.15912233 0.06952463
-0.23399962 -0.16457593 0.20471253 0.0963274 -0.008817046 -0.11226514 0.0715329 0.031123267
-0.069147244 0.0033101414 0.10747864 0.073642 -0.0884156 0.07135469 -0.1316858 -0.046740636
0.29383278 0.13234916 -0.16495791 -0.19917443 0.03545754 -0.002419401 0.07584692 0.1662469
0.1484224 -0.11059216 0.18514931 0.4047769 0.1344346 -0.031509206 -0.032900944 -0.0857079
0.18427324 0.11035993 -0.1585985 -0.19493252 0.04257035 0.27568704 0.0151990345 -0.105140895
0.0867501 -0.038766515 0.21664192 -0.28032213 -0.06995144 0.13598059 0.048870433 -0.004736853
-0.3081985 -0.06704736 0.09646494 -0.0048252693 0.060714684 -0.21646872 0.109822154 -0.18352556
00000000: 208e 3e3e 71ab 4b3e 7594 0bbe e86c 1a3d
00000010: 697e edbd 0c37 903d 33bb 33be 3317 c73e
00000020: a661 273e 88d8 41be 6a2d 05be 4447 b53d
00000030: e705 e23d 6377 8ebd eaa0 c43d 5195 8f3c
00000040: 2605 bdbc 7249 4d3e b67e e7bc ef41 91bc
00000050: 2c85 1ebc 4d39 e53d d8e6 f5bc 988d 373e
00000060: b815 873d 654d 4d3e edf7 be3d 3cde 31bd
00000070: 37e6 64be 9a3b 72bd 3863 4b3c 30a5 b53d
00000080: 2344 34be 69f0 6abd 06c8 51be f9f8 9fbd
00000090: 2da2 9a3d 589d c53c acde 90bd 702f 1bbe
000000a0: c0e1 21bd 3d12 9fbe fdb9 93be 45a1 d5bd
000000b0: 4a85 ddbd 31f1 a83d eaaa 02be 7881 003e
000000c0: 9791 e0bb f897 5abe 08c2 0bbe e7f9 57be
000000d0: 621e bcbd bd0c f7bd 9efe f63c 14c2 51be
000000e0: 8a16 833b 8435 683d c407 eebd c40f a0be
000000f0: bb71 d5bd a9a1 5cbe c840 57bc 6d79 dd3d
00000100: ec92 903d 09db ffbd 5161 93bd 72d9 de3c
00000110: 1e9b 16be 9dd5 35be ac1d f73d 5c95 0dbe
00000120: c45a e9bd ba02 d83d 199b 6f3e e0ee ed3c
00000130: ba54 b5bc 7093 03be 68a3 223e 3983 4ebd
00000140: 0f8a b63d 3160 5d3d 38a5 34be 65c8 4f3d
00000150: f60c 49bd fafd de3d b18c 273d 59b5 a03d
00000160: 7b93 733e acc1 99bd 6b92 0e3c de73 0fbe
00000170: b039 b43d 2c5e 2dbe 6abc debc 8daf 0f3d
00000180: 992f e83b e1ad 1d3c 98e7 373e 89f6 893e
00000190: a54c 053d b0e8 763d f8c6 123d f7b6 f2bc
000001a0: 07f6 c63d c3ba c6bd c8fe 043e 2307 913d
000001b0: 2970 9a3d 4588 8cbd c42f 4ebe d850 a83d
000001c0: f5ab e33c 2bd0 a83c a0ec a1bd 8a32 403e
000001d0: e42d 873d 9a67 c53e b61e 883e 5d28 a4bd
000001e0: 21f1 89bd dbf7 53be 7d26 543e 2f3a 08bd
000001f0: 0513 38be e678 58be b2e7 57be b603 1c3d
00000200: ebd0 2cbe 0475 c3bd fa3c 5a3e 7351 003e
00000210: 99e5 4b3e a94a 593e c3ab 85bd 1b4e cbbd
00000220: df5c d93d 3172 0f3d 4238 b4bd 36fa 90bb
00000230: d515 4abe 149e 1d3c 1bed e1bd c3c2 6dbd
00000240: 272d 77bd cb0b cc3d fc18 493d 8f01 52be
00000250: 3b0a 0e3e b324 f03d b4d9 51be 6ed0 34be
00000260: 4922 e53b efbc 703d 37e3 88be 2b4c 99be
00000270: 40eb d1bd 976d d93c 0cb1 043e ae80 78be
00000280: 1eec 763e b67e d43d 604b 5bbe ec70 f1bd
00000290: 92d5 223e 474e 4dbe 3293 dfbc fc72 863d
000002a0: 8088 3d3e 3868 91bd 74b0 16be d07a 57be
000002b0: f6a7 ba3d a64f 23bd ffb6 b2bd d5b5 3dbe
000002c0: 573c a2bc fe78 ecbd eea5 1d3d 4074 623d
000002d0: ae6c 98be b1d7 3c3e c032 033d 4e0c 463d
000002e0: 2299 3bbe 8d81 71bc 70f9 93bd 6581 833d
000002f0: 5420 b53d 4029 713e a866 bc3e d354 c93d
00000300: d91e fabc ea99 c03d f1ef 633e 37d5 47be
00000310: 8907 11be 41cb d1bd f7f0 22be ee62 8e3d
00000320: 999d 6fbe 9886 28be 29a0 513e 4d47 c53d
00000330: 5f75 10bc 44eb e5bd d77f 923d 39f6 fe3c
00000340: 129d 8dbd f5ee 583b c31d dc3d 9ed1 963d
00000350: 3d13 b5bd 6822 923d a4d8 06be 1c73 3fbd
00000360: 4071 963e 8a86 073e baea 28be 62f4 4bbe
00000370: ed3b 113d d08e 1ebb a155 9b3d a13c 2a3e
00000380: 0bfc 173e 247e e2bd c897 3d3e eb3e cf3e
00000390: 39a9 093e cc0f 01bd 24c3 06bd a087 afbd
000003a0: 20b2 3c3e 6304 e23d a567 22be 649c 47be
000003b0: 3f5e 2e3d da26 8d3e 5f05 793c 1c54 d7bd
000003c0: 09aa b13d a3c9 1ebd 61d7 5d3e 6286 8fbe
000003d0: b342 8fbd 7f3e 0b3e 5d2c 483d 9a37 9bbb
000003e0: 32cc 9dbe 2050 89bd 698f c53d 4b1d 9ebb
000003f0: f6af 783d faa9 5dbe 70ea e03d 20ee 3bbe

convs.0.krs__interacts__event.lin_rel.bias f4 [64]
-0.18180709 -0.14548953 -0.041714456 -0.11141973 -0.18886591 0.21641767 0.16638373 -0.08211875
0.16986254 -0.16296041 0.20067374 -0.070988044 -0.026569964 0.012326374 -0.0932066 0.15846364
-0.02879774 -0.049299363 -0.16076693 0.15057217 -0.003413545 0.18620935 -0.07633629 0.20040485
-0.049782317 0.08307132 -0.12977144 0.109200664 -0.15085696 0.078749225 0.070818976 0.10174149
-0.1979646 0.023267884 -0.05018077 -0.14929228 -0.09429607 0.12782182 0.15581912 0.115686856
0.16637638 0.17516012 -0.12038357 0.007022121 0.18954101 0.14510773 0.030249007 0.016082285
0.14793448 -0.21019983 0.18631779 -0.19350138 0.20322907 -0.038181856 -0.14888336 -0.064114235
-0.11899008 0.057993893 -0.22530748 -0.12936148 0.07429354 0.12647898 0.18984962 -0.1640607
00000000: a32b 3abe 35fb 14be c7dc 2abd 0730 e4bd
00000010: 1166 41be 989c 5d3e 7f60 2a3e e02d a8bd
00000020: 72f0 2d3e 18df 26be 6b7d 4d3e 2e62 91bd
00000030: 41a9 d9bc 8ff4 493c 1ae3 bebd 4b44 223e
00000040: 3de9 ebbc 21ee 49bd 16a0 24be 972f 1a3e
00000050: c8b5 5fbb aaad 3e3e 3356 9cbd ee36 4d3e
00000060: 8be8 4bbd 4c21 aa3d cee2 04be 99a4 df3d
00000070: 3f7a 1abe 4647 a13d 8a09 913d d85d d03d
00000080: 3bb7 4abe 4a9c be3c 5a8a 4dbd 13e0 18be
00000090: 4c1e c1bd b9e3 023e 0c8f 1f3e 3bed ec3d
000000a0: 925e 2a3e 2d5d 333e a98b f6bd d219 e63b
000000b0: 0a17 423e 1f97 143e c4cc f73c ffbe 833c
000000c0: 237c 173e a03e 57be 17ca 3e3e 3a25 46be
000000d0: 481b 503e 9464 1cbd e174 18be 534e 83bd
000000e0: 12b1 f3bd 018b 6d3d 01b7 66be 5677 04be
000000f0: 3627 983d b583 013e f067 423e 87ff 27be

convs.0.krs__interacts__event.lin_root.weight f4 [64, 15]
0.20339699 0.010565956 -0.061578546 -0.15195541 0.027592964 -0.14086178 -0.20998478 -0.19682556
-0.00675004 0.12706608 -0.039451484 -0.14283851 0.10496502 -0.24612685 -0.10511517 -0.032157104
-0.20867416 -0.21695139 0.027110305 0.19533728 -0.11495888 -0.1887441 -0.020191327 -0.2523824
-0.23171067 -0.11357495 0.015457278 -0.1539771 0.15580359 -0.23647147 0.0928885 0.08894837
-0.006529558 -0.13801427 0.1119884 -0.005140181 0.059140854 -0.028931916 0.20202313 0.015581221
0.17265896 0.14110512 0.12209221 -0.2606765 -0.032021064 -0.03771865 0.06809747 0.1301797
0.17733854 -0.19934393 -0.15639748 0.23351991 -0.18873332 0.023821838 0.120045125 0.0365337
0.04795652 -0.0028587978 -0.245382 -0.054667328 0.1844394 -0.1808184 0.13014151 0.07603827
-0.089538716 -0.008773804 0.22943678 -0.08793681 -0.17889276 0.21023673 0.2118607 0.15920624
0.20321369 0.040555675 0.1946377 -0.12352654 0.09391591 -0.17086117 0.24451578 0.10739516
0.068531536 0.07189765 -0.29320443 0.20380342 -0.1451421 -0.18359347 -0.005375662 -0.1173544
-0.10656854 -0.12142643 0.16567981 0.1125286 -0.17796558 0.19086577 0.16561964 -0.07448844
0.19180387 0.16856323 -0.22724494 -0.10313076 -0.102266684 -0.08677169 -0.2222927 -0.025130495
-0.17532575 -0.20045052 -0.035148174 -0.120823905 -0.22601727 0.17716676 0.12638901 -0.083317384
-0.022509668 -0.02246725 -0.26442605 -0.17981924 0.20171544 -0.21391843 0.0077399528 -0.07388586
0.1777476 0.14736158 -0.15728365 0.06737633 0.13633813 0.19551978 -0.18285713 -0.19798326
-0.20042899 0.091864176 -0.24389549 0.023958687 0.16399606 0.12534165 -0.21207955 -0.21015377
0.19965053 0.17377478 0.0024366088 0.23451073 -0.14783973 -0.075537406 -0.22818002 0.17602564
-0.23135917 0.2160717 -0.105509005 0.11145147 -0.12770541 0.25658995 -0.20304278 0.1599229
0.0434289 0.09374074 -0.03312912 -0.2681626 -0.17916244 0.31944948 0.07345771 0.032123227
-0.16679578 0.0817284 0.117186055 -0.20852897 -0.014901621 0.061274502 -0.19907379 0.20951489
-0.158267 -0.15197425 0.15240882 -0.054461837 -0.27328816 0.011443359 -0.037547003 -0.21711278
0.18455344 -0.009249868 0.14335723 -0.11000393 0.1469003 -0.15834619 -0.1077815 -0.18971583
-0.19068258 0.20322011 0.03244363 0.2776007 0.02504676 -0.06920552 -0.020548701 -0.0950533
0.15755558 0.040912762 0.036078013 -0.20830251 -0.15530446 -0.0017926017 0.20641828 -0.16008762
-0.15678017 0.24230887 0.4432442 0.09148014 0.13116571 0.049714938 -0.2962253 0.35513785
-0.2423785 -0.1554405 0.106515005 -0.07559343 -0.17462465 0.037674706 0.1994819 -0.13408884
0.022301229 -0.18202727 -0.06248015 -0.17532612 -0.10421693 -0.19906668 0.17993577 0.22707638
-0.21369469 0.10855662 -0.2349418 -0.15365879 -0.2514039 0.21424697 0.16994944 -0.27918285
0.2664568 -0.20007268 -0.064288385 0.009210361 -0.05249504 -0.24479803 -0.049263816 -0.21352573
-0.04787561 0.123504624 0.2366315 0.21942168 0.077900365 -0.10615038 -2.4977191e-05 -0.35525492
0.00064586004 0.11079134 -0.14133325 -0.016475726 0.10970089 -0.20503062 0.040437695 0.060022358
00000000: 4d47 503e d51c 2d3c c939 7cbd 339a 1bbe
00000010: a40a e23c 123e 10be 4006 57be a48c 49be
00000020: 712f ddbb 9c1d 023e e197 21bd 4244 12be
00000030: e7f7 d63d ad08 7cbe 9f46 d7bd 2bb7 03bd
00000040: aeae 55be 8128 5ebe 6e16 de3c 7f06 483e
00000050: 906f ebbd 2246 41be 4868 a5bc 4438 81be
00000060: 9045 6dbe fc99 e8bd 8640 7d3c 2cac 1dbe
00000070: fa8a 1f3e 9425 72be 533c be3d 902a b63d
00000080: e7f5 d5bb 9d53 0dbe 2d5a e53d f76e a8bb
00000090: ae3d 723d a002 edbc 27df 4e3e 6148 7f3c
000000a0: 83cd 303e dc7d 103e 7b0b fa3d 6477 85be
000000b0: 8528 03bd df7e 1abd b076 8b3d d44d 053e
000000c0: 3c98 353e d120 4cbe a926 20be d81f 6f3e
000000d0: 4f43 41be 0426 c33c 38da f53d 5ca4 153d
000000e0: 0e6e 443d ab5a 3bbb 6b45 7bbe d9ea 5fbd
000000f0: afdd 3c3e 7528 39be d143 053e f4b9 9b3d
00000100: 1360 b7bd 00c0 0fbc 7af1 6a3e 3718 b4bd
00000110: aa2f 37be 4c48 573e 03f2 583e f606 233e
00000120: 4017 503e b51d 263d 1b4f 473e 7cfb fcbd
00000130: fc56 c03d 3bf6 2ebe 5862 7a3e fef1 db3d
00000140: 435a 8c3d 133f 933d e41e 96be d8b1 503e
00000150: 21a0 14be edff 3bbe 5226 b0bb 8157 f0bd
00000160: 9b40 dabd 6cae f8bd f8a7 293e 6575 e63d
00000170: 9c3c 36be 5172 433e 3298 293e 658d 98bd
00000180: 3c68 443e d79b 2c3e e6b2 68be 3836 d3bd
00000190: 3271 d1bd 5bb5 b1bd b3a0 63be 78de cdbc
000001a0: 9888 33be e742 4dbe 88f7 0fbd 8672 f7bd
000001b0: 1271 67be 346b 353e 1f6c 013e 4ea2 aabd
000001c0: 3266 b8bc 3d0d b8bc da62 87be 8922 38be
000001d0: 7e8e 4e3e 6f0d 5bbe 6e9f fd3b 7851 97bd
000001e0: 7803 363e f4e5 163e f70e 21be 9afc 893d
000001f0: 399c 0b3e 5636 483e e63e 3bbe 20bc 4abe
00000200: 423d 4dbe 4923 bc3d bdbf 79be 0245 c43c
00000210: 95ee 273e 9059 003e 622b 59be 8d32 57be
00000220: 3071 4c3e 04f2 313e 83af 1f3b 9523 703e
00000230: 4c63 17be 5bb3 9abd 06a8 69be 1140 343e
00000240: 6be9 6cbe e641 5d3e 1b15 d8bd ab40 e43d
00000250: 35c5 02be c25f 833e 72ea 4fbe d4c2 233e
00000260: 81e2 313d 25fb bf3d 66b2 07bd 9c4c 89be
00000270: 5c76 37be e28e a33e ff70 963d a593 033d
00000280: 83cc 2abe 3861 a73d 3eff ef3d 9e88 55be
00000290: ee25 74bc f9fa 7a3d 00da 4bbe 128b 563e
000002a0: bf10 22be 239f 1bbe 0f11 1c3e 6013 5fbd
000002b0: 6dec 8bbe ed7c 3b3c e3ca 19bd d052 5ebe
000002c0: 94fb 3c3e c28c 17bc 3dcc 123e be49 e1bd
000002d0: 086d 163e 8125 22be 8cbc dcbd de44 42be
000002e0: 4b42 43be ef18 503e 9de3 043d ae21 8e3e
000002f0: dd2e cd3c a0bb 8dbd c055 a8bc 4eab c2bd
00000300: 4056 213e 2494 273d 8ac6 133d 414d 55be
00000310: 2208 1fbe bbf5 eaba 505f 533e 02ee 23be
00000320: fb8a 20be d11f 783e e7f0 e23e f159 bb3d
00000330: 4e50 063e e4a1 4b3d d8aa 97be a1d4 b53e
00000340: 1232 78be cb2b 1fbe 8a24 da3d bad0 9abd
00000350: ced0 32be cb50 1a3d fc44 4c3e 964e 09be
00000360: 11b1 b63c 5b65 3abe 30eb 7fbd b188 33be
00000370: b06f d5bd 23d8 4bbe 1541 383e b686 683e
00000380: c8d2 5abe ef52 de3d 9594 70be bb58 1dbe
00000390: 03b8 80be 8f63 5b3e 3a07 2e3e 0ef1 8ebe
000003a0: 076d 883e dadf 4cbe a1a9 83bd 0ee7 163c
000003b0: 0a05 57bd 56ac 7abe dbc8 49bd 7da6 5abe
000003c0: 3719 44bd feef fc3d 874f 723e 14b0 603e
000003d0: 3a8a 9f3d 5f65 d9bd 1c86 d1b7 f9e3 b5be
000003e0: ef4e 293a 92e6 e23d aab9 10be 1af8 86bc
000003f0: dcaa e03d 8cf3 51be ffa1 253d 01da 753d

convs.0.krv__interacts__event.lin_rel.weight f4 [64, 20]
0.014649523 0.074791364 -0.2815868 0.06285306 -0.22452705 0.19782495 -0.16358283 -0.1409048
-0.2540045 -0.3521424 -0.11230246 -0.10587126 0.037455622 -0.0910761 0.08857777 -0.08880881
-0.08191756 0.24379678 -0.33956325 -0.09777696 0.09529412 -0.01579556 0.24841765 -0.05929657
0.1276014 -0.23781307 0.18452135 -0.1452514 -0.08526298 -0.030664023 -0.06323336 0.1708101
-0.048321754 -0.09968396 0.020423302 0.10755291 -0.084195115 -0.22334932 0.038550563 0.040760953
0.17677404 -0.033604085 -0.25671768 0.18449861 0.12564814 0.13248846 0.0070103775 0.11869202
-0.18283373 -0.20760807 0.017862912 0.091557845 0.17361729 -0.038716324 -0.14888293 -0.02340459
-0.077526346 0.064910576 -0.25809956 0.088588625 0.2227893 0.010834552 0.17722116 -0.044351287
0.02833063 -0.12781173 0.2493208 0.21496652 0.20796078 0.022509154 -0.07845958 0.009969728
0.08850156 0.086870074 0.024760708 0.042781554 -0.055952936 -0.098356254 -0.13700496 -0.019823331
0.058923524 -0.0963163 0.12604958 0.1371423 -0.32555547 0.23860416 0.056509178 0.078205764
-0.23384123 -0.25877404 -0.06673569 0.05660492 -0.18758719 -0.105981715 0.019386714 0.19602904
0.008340056 -0.020406151 -0.08732098 -0.10470313 -0.047563042 0.044688854 -0.15119472 0.11382711
-0.38931754 0.037218228 -0.015044511 0.005549242 -0.194646 -0.17981839 -0.004035288 0.13747276
-0.19651467 -0.07208329 0.09407056 0.07400366 -0.31097463 -0.019410284 -0.31337798 -0.1182599
-0.2675263 -0.060597625 0.042682976 -0.007160716 -0.013482701 0.11834997 -0.03298108 0.013161345
0.057639915 0.038513217 0.1700265 0.16407204 0.11458097 -0.07500755 -0.03098933 0.17934877
0.2345051 -0.09119909 -0.11905062 -0.25989825 0.049488302 0.117086366 0.18895037 0.29990354
-0.09550034 0.097789496 -0.21511076 -0.11129468 -0.14815229 0.113921836 -0.20919737 -0.22626375
-0.17551394 0.25786424 0.1404382 -0.1341181 -0.03152992 0.2722964 -0.1839066 -0.031862278
-0.1596011 -0.076908454 -0.0037956394 0.20899537 0.12646766 0.055676725 0.15039721 -0.21323891
-0.15288065 0.055060804 0.23678176 0.16199055 -0.17532109 0.14329484 0.012096177 -0.11846615
-0.15905027 -0.039682653 0.01488374 0.15838769 0.19294211 -0.0003246451 -0.088422015 0.18019259
-0.23549855 -0.21816926 0.02131425 0.030857997 -0.22793634 -0.23684587 0.12622955 -0.16351381
-0.016086742 0.14865594 -0.07347211 -0.012990963 -0.018015884 0.20611851 0.04482732 -0.12714033
-0.22967914 0.13684303 0.06790292 -0.082844645 -0.06885134 -0.07058542 0.08509767 -0.048587102
-0.10479571 -0.10124868 0.09863561 -0.0013108677 0.16219725 -0.2174725 0.16564858 -0.07034839
0.24207278 -0.24312812 0.046555538 0.04820239 0.028121086 0.12578517 -0.12980868 0.3703063
-0.34071052 -0.013793217 0.027905721 -0.022635063 -0.04593566 0.028223222 -0.13432202 0.028679337
-0.06952647 -0.09511087 0.19930284 0.04610438 0.13204938 -0.012630791 -0.055142518 0.3135993
-0.2181966 -0.039311413 0.26718852 0.011547744 -0.09623722 -0.015796278 0.014274027 -0.0067787343
0.0045140423 -0.1748985 0.19197959 0.18168648 -0.14833643 -0.22176093 -0.1600032 -0.15069474
00000000: 8e04 703c 372c 993d 252c 90be 1bb9 803d
00000010: 6bea 65be a092 4a3e 4282 27be 5949 10be
00000020: e10c 82be 024c b4be d5fe e5bd 08d3 d8bd
00000030: 116b 193d 1b86 babd 4368 b53d 65e1 b5bd
00000040: 65c4 a7bd dda5 793e 3cdb adbe 493f c8bd
00000050: 9029 c33d b165 81bc 3261 7e3e f6e0 72bd
00000060: f1a9 023e 4585 73be 2af3 3c3e c8bc 14be
00000070: 5b9e aebd 1e33 fbbc 7e80 81bd d8e8 2e3e
00000080: 08ed 45bd 1b27 ccbd c54e a73c b344 dc3d
00000090: 7d6e acbd afb5 64be 32e7 1d3d f5f4 263d
000000a0: 4104 353e 70a4 09bd 8070 83be 34ed 3c3e
000000b0: e8a9 003e 0eab 073e 4fb7 e53b cd14 f33d
000000c0: c438 3bbe 3697 54be 3e55 923c ae82 bb3d
000000d0: bbc8 313e 0295 1ebd c474 18be fcba bfbc
000000e0: 22c6 9ebd d6ef 843d a025 84be f46d b53d
000000f0: e122 643e 6883 313c 7779 353e b2a9 35bd
00000100: a315 e83c 14e1 02be f44d 7f3e 2f20 5c3e
00000110: acf3 543e 1e65 b83c 6baf a0bd 1258 233c
00000120: 4e40 b53d f0e8 b13d f8d6 ca3c b63b 2f3d
00000130: e82e 65bd 016f c9bd 074b 0cbe 8a64 a2bc
00000140: cb59 713d 7b41 c5bd 2413 013e 086f 0c3e
00000150: 35af a6be a654 743e 2b76 673d 582a a03d
00000160: 1374 6fbe 087e 84be b9ac 88bd 90da 673d
00000170: db16 40be f10c d9bd e3d0 9e3c d6bb 483e
00000180: bba4 083c cd2a a7bc 58d5 b2bd 986e d6bd
00000190: 77d1 42bd a90b 373d cad2 1abe 301e e93d
000001a0: a154 c7be 2472 183d 417d 76bc 6ad6 b53b
000001b0: 4851 47be 5022 38be 733a 84bb a9c5 0c3e
000001c0: 243b 49be 67a0 93bd 11a8 c03d 3b8f 973d
000001d0: 1138 9fbe 5102 9fbc 1473 a0be 3f32 f2bd
000001e0: 35f9 88be 3735 78bd 58d4 2e3d 71a4 eabb
000001f0: 8ce6 5cbc 7861 f23d 2b17 07bd afa2 573c
00000200: d517 6c3d 09c0 1d3d 6d1b 2e3e 8002 283e
00000210: 6da9 ea3d 8f9d 99bd 56dd fdbc 34a7 373e
00000220: 1b22 703e 97c6 babd d0d0 f3bd 6211 85be
00000230: 3fb4 4a3d faca ef3d 357c 413e f58c 993e
00000240: af95 c3bd dc45 c83d ff45 5cbe 77ee e3bd
00000250: 3cb5 17be da4f e93d d637 56be afb1 67be
00000260: edb9 33be c806 843e 08cf 0f3e 4156 09be
00000270: 8425 01bd 6f6a 8b3e 0352 3cbe 0582 02bd
00000280: 796e 23be 2e82 9dbd 43c0 78bb e202 563e
00000290: bd80 013e 470d 643d ba01 1a3e 4d5b 5abe
000002a0: bf8c 1cbe 7087 613d eb76 723e dae0 253e
000002b0: 5f87 33be e2bb 123e 0b2f 463c 619e f2bd
000002c0: 13de 22be 478a 22bd eeda 733c 6230 223e
000002d0: 9e92 453e 2135 aab9 9a16 b5bd 6884 383e
000002e0: 8826 71be c367 5fbe 399b ae3c e9c9 fc3c
000002f0: 2568 69be b987 72be 5242 013e 2a70 27be
00000300: 58c8 83bc 4339 183e 8c78 96bd 0cd8 54bc
00000310: 0c96 93bc bb10 533e da9c 373d 1331 02be
00000320: 0231 6bbe 9420 0c3e b010 8b3d 74aa a9bd
00000330: ee01 8dbd 178f 90bd b047 ae3d 4503 47bd
00000340: 229f d6bd 785b cfbd 7701 ca3d 6cd1 abba
00000350: 0917 263e 1cb1 5ebe c89f 293e d112 90bd
00000360: ede1 773e 94f6 78be 05b1 3e3d df6f 453d
00000370: 315e e63c d4cd 003e 91ec 04be ca98 bd3e
00000380: 9c71 aebe f2fc 61bc 8a9a e43c 2b6d b9bc
00000390: 0827 3cbd 6334 e73c b68b 09be eef0 ea3c
000003a0: e563 8ebd 7dc9 c2bd 0b16 4c3e f2d7 3c3d
000003b0: f437 073e 61f1 4ebc 1fdd 61bd 1690 a03e
000003c0: ee6e 5fbe 0105 21bd efcc 883e c032 3d3c
000003d0: 0518 c5bd 3267 81bc 9cdd 693c 2520 debb
000003e0: 88ea 933b 9818 33be 4c96 443e 050c 3a3e
000003f0: 81e5 17be 4c15 63be e1d7 23be b94f 1abe

convs.0.krv__interacts__event.lin_rel.bias f4 [64]
-0.04560287 0.12393031 0.025962042 -0.061185457 0.022726102 -0.14069974 0.058998674 0.18730764
-0.13487352 0.06260065 -0.078602746 -0.15876077 0.10562458 -0.06286958 -0.04673478 -0.18093522
0.078391746 0.16481204 -0.0004457197 -0.07544356 0.023180693 0.07320835 -0.16688994 0.19110952
-0.14090893 0.11930324 -0.03023486 -0.028822063 0.1905921 0.13502106 -0.0051960703 -0.1004611
0.049879838 0.10512167 0.0012147237 -0.052581742 0.22503045 -0.14331536 0.12633824 0.11569474
0.19956985 0.08944044 0.042428993 0.05634223 0.116534375 0.16185184 0.039385393 0.022650871
0.12198561 0.10522155 -0.11910757 0.16431274 0.14893755 0.107048154 0.085074686 -0.1129235
-0.05954662 -0.06695167 0.04566003 0.00096615823 0.105483316 0.14473103 -0.19082232 0.16968285
00000000: 13ca 3abd 2dcf fd3d 59ae d43c 9a9d 7abd
00000010: 172c ba3c 9813 10be 98a8 713d 93cd 3f3e
00000020: 491c 0abe c534 803d 7afa a0bd 2f92 22be
00000030: b351 d83d c4c1 80bd f86c 3fbd 1547 39be
00000040: da8b a03d 7dc4 283e 7caf e9b9 2782 9abd
00000050: 70e5 bd3c 42ee 953d 32e5 2abe 37b2 433e
00000060: 6e4a 10be 4255 f43d 19af f7bc 3f1c ecbc
00000070: 932a 433e f642 0a3e cc43 aabb 8dbe cdbd
00000080: cd4e 4c3d 084a d73d 5d37 9f3a f45f 57bd
00000090: 626e 663e 43c1 12be d05e 013e 5df1 ec3d
000000a0: 0a5c 4c3e 8d2c b73d 06ca 2d3d 1cc7 663d
000000b0: 93a9 ee3d 7dbc 253e 9452 213d 528e b93c
000000c0: 97d3 f93d 657e d73d abee f3bd 9941 283e
000000d0: 1683 183e 103c db3d a33b ae3d 7044 e7bd
000000e0: 28e7 73bd f51d 89bd 0306 3b3d c845 7d3a
000000f0: a307 d83d 5f34 143e ed66 43be 57c1 2d3e

convs.0.krv__interacts__event.lin_root.weight f4 [64, 15]
-0.16406125 -0.049737666 0.09936232 0.14211372 0.031690147 -0.050277527 -0.07320128 -0.3718448
0.095491566 0.08720678 -0.26312357 0.13210578 -0.24819869 -0.10735962 -0.056406926 -0.24850906
-0.17315693 -0.016660862 0.24092624 -0.005159711 -0.16409114 0.11466847 0.28467193 -0.22346933
-0.09852906 0.08165785 -0.20188302 -0.16125374 0.20636863 0.17299211 -0.0040533356 -0.1556569
-0.104696766 -0.084558405 -0.22747663 -0.12190407 0.23707305 -0.039278273 0.02769322 -0.000636524
0.123478204 0.13242213 -0.12680441 0.033963487 0.1306626 -0.16428529 -0.12748401 0.056256775
0.086790726 0.059351318 0.012044529 0.08275497 0.16261105 0.268011 0.11843356 0.11722871
0.0843286 0.032346267 0.23806098 -0.18247555 -0.11818148 -0.031888068 0.22464353 0.17626433
-0.18929821 0.021642258 0.13152096 -0.0657343 0.29636407 -0.04969947 0.20681582 -0.18203825
-0.111811794 0.0057723476 -0.16923146 -0.09639876 -0.23726621 0.016254386 -0.021014305 0.07592684
0.26739284 -0.14341946 -0.5316573 -0.047740422 -0.13321202 0.22762498 -0.2160393 0.15638356
-0.020721044 0.1771855 -0.079448685 -0.3022126 -0.105371736 -0.27323246 -0.06929965 0.046420224
0.096204996 0.3939606 0.17071211 0.09592962 0.006902512 0.018033769 -0.27425504 0.026915291
-0.00031366438 -0.051843356 -0.21312699 -0.24477696 0.095176965 -0.039712645 0.27413535 0.05344862
-0.09192874 -0.017538616 -0.24805857 -0.0031014017 -0.21643685 -0.22488609 -0.07972069 0.07250073
0.083956085 -0.20080644 0.0104597965 0.048634205 -0.09188043 0.027850492 -0.04247473 -0.15545052
0.18109086 -0.21509124 -0.17569654 -0.2720374 0.16704053 0.09310264 -0.06420904 -0.08090933
0.21629736 0.29059038 0.028695058 0.22455943 0.27148035 0.03148051 0.09945856 -0.0589713
0.038104642 0.21489055 0.104868956 -0.034176752 -0.16202421 0.24711213 -0.14937358 -0.20469703
0.15149587 0.047499616 0.22552492 0.057840545 -0.07684722 0.26246136 -0.078716464 0.1324041
-0.09497564 0.02349432 0.04525946 0.192012 -0.20952679 -0.08896837 0.21599576 0.16015702
-0.18510881 0.19585893 0.18196712 0.24429135 -0.47139874 -0.10247503 0.033210374 0.22276805
-0.054620553 -0.19421755 0.042353276 -0.06132027 -0.14801289 -0.05110007 -0.2916541 -0.0888353
-0.27582967 0.22651087 -0.22189046 -0.05932867 0.17305717 0.081413314 -0.075220294 -0.031382054
0.23877971 0.055960044 -0.021637551 0.1627956 -0.12916987 -0.10290592 -0.08525755 0.12807406
0.21709314 -0.045174044 -0.0039882706 0.19260167 -0.1655275 -0.069740646 0.07171682 0.15273723
-0.05224293 -0.19002338 -0.12220788 0.20626353 -0.18510395 0.08469267 0.11510497 0.14379412
0.06464571 -0.14752032 0.2813011 0.11906745 -0.14306769 -0.12126598 0.13382487 -0.2037056
-0.15987997 0.048503827 0.10263244 0.060707796 0.16415961 -0.22120689 0.17842788 -0.16950138
0.08306571 0.10945205 0.13297847 -0.28005567 0.0988498 -0.19885042 -0.028469747 -0.11810285
-0.058118932 -0.23255393 0.11628819 0.20254205 -0.022318292 -0.09906926 0.108453915 -0.2048724
0.18419863 0.10890091 0.22045769 0.24805874 -0.13052261 -0.06571318 -0.14341077 0.010824384
00000000: acff 27be b9b9 4bbd 797e cb3d 4286 113e
00000010: 87cd 013d cfef 4dbd 8dea 95bd 7162 bebe
00000020: 1591 c33d 7899 b23d 22b8 86be bd46 073e
00000030: cc27 7ebe 5cdf dbbd f30a 67bd 2979 7ebe
00000040: 0d50 31be 5c7c 88bc 5eb5 763e cb12 a9bb
00000050: 8207 28be 4ed7 ea3d 85c0 913e 25d5 64be
00000060: 9bc9 c9bd 3b3c a73d 6cba 4ebe b31f 25be
00000070: 4c52 533e d824 313e d8d1 84bb 8664 1fbe
00000080: 426b d6bd f52c adbd a2ef 68be d7a8 f9bd
00000090: 47c3 723e 41e2 20bd e4dc e23c 67dc 26ba
000000a0: 24e2 fc3d ab99 073e 04d9 01be 4c1d 0b3d
000000b0: 6bcc 053e 673a 28be 2b8b 02be 816d 663d
000000c0: 56bf b13d 5e1a 733d 6b56 453c 707b a93d
000000d0: 8383 263e bd38 893e 4b8d f23d 9b15 f03d
000000e0: 79b4 ac3d 857d 043d 42c6 733e dfda 3abe
000000f0: 2209 f2bd 109d 02bd f408 663e a37e 343e
00000100: 64d7 41be 1b4b b13c 6ead 063e b49f 86bd
00000110: 08bd 973e ac91 4bbd 87c7 533e 3c68 3abe
00000120: 95fd e4bd f625 bd3b 034b 2dbe b76c c5bd
00000130: eaf5 72be eb27 853c 3126 acbc 887f 9b3d
00000140: b7e7 883e 8ddc 12be b11a 08bf 768b 43bd
00000150: bb68 08be 8616 693e 6839 5dbe 0323 203e
00000160: 2ebf a9bc 1e70 353e feb5 a2bd 9cbb 9abe
00000170: 23cd d7bd 20e5 8bbe faec 8dbd 2223 3e3d
00000180: 2007 c53d 34b5 c93e 28cf 2e3e c076 c43d
00000190: 782e e23b 8ebb 933c 286b 8cbe 757d dc3c
000001a0: 5273 a4b9 b359 54bd f63d 5abe d0a6 7abe
000001b0: 24ec c23d baa9 22bd 785b 8c3e f1ec 5a3d
000001c0: 2345 bcbd 25ad 8fbc 1103 7ebe e340 4bbb
000001d0: 9fa1 5dbe 8a48 66be 9a44 a3bd 437b 943d
000001e0: 2bf1 ab3d 34a0 4dbe 915f 2b3c a934 473d
000001f0: cf2b bcbd b726 e43c fcf9 2dbd 6c2e 1fbe
00000200: e26f 393e e140 5cbe cbe9 33be 7c48 8bbe
00000210: ac0c 2b3e 99ac be3d 0780 83bd cab3 a5bd
00000220: 0e7d 5d3e 43c8 943e e611 eb3c e8f2 653e
00000230: 79ff 8a3e b5f1 003d eeb0 cb3d e48b 71bd
00000240: 9d13 1c3d 450c 5c3e 89c5 d63d ecfc 0bbd
00000250: ade9 25be f60a 7d3e 63f5 18be 199c 51be
00000260: bc21 1b3e f58e 423d 01f0 663e 35ea 6c3d
00000270: 1362 9dbd 5661 863e 1936 a1bd f194 073e
00000280: 9782 c2bd 2977 c03c fc61 393d cb9e 443e
00000290: 318e 56be 0c35 b6bd fe2d 5d3e 3400 243e
000002a0: 2a8d 3dbe 3e8f 483e 9755 3a3e 8327 7a3e
000002b0: 2d5b f1be 6ede d1bd 9a07 083d 4f1d 643e
000002c0: cdb9 5fbd f7e0 46be a17a 2d3d f72a 7bbd
000002d0: b190 17be 4f4e 51bd b053 95be 48ef b5bd
000002e0: 8c39 8dbe 77f2 673e 4137 63be 9f02 73bd
000002f0: e635 313e 06bc a63d 190d 9abd 788a 00bd
00000300: ab82 743e 5c36 653d 3c41 b1bc e4b3 263e
00000310: 1b45 04be 57c0 d2bd 839b aebd d925 033e
00000320: aa4d 5e3e 6b08 39bd 0ab0 82bb 5f39 453e
00000330: 0a80 29be 2fd4 8ebd 45e0 923d 2667 1c3e
00000340: affc 55bd 7d95 42be 2048 fabd bf36 533e
00000350: e48b 3dbe 5a73 ad3d 28bc eb3d c43e 133e
00000360: f864 843d 910f 17be b306 903e a3d9 f33d
00000370: 5680 12be 4c5a f8bd 6309 093e 3398 50be
00000380: 93b7 23be f3ab 463d f530 d23d bda8 783d
00000390: 7519 283e 0f84 62be ccb5 363e c591 2dbe
000003a0: 5b1e aa3d 6528 e03d 822b 083e 7563 8fbe
000003b0: c471 ca3d 729f 4bbe 6339 e9bc e8df f1bd
000003c0: 1e0e 6ebd 9e22 6ebe 8128 ee3d 2f67 4f3e
000003d0: dad4 b6bc d3e4 cabd 161d de3d 12ca 51be
000003e0: 919e 3c3e 7107 df3d a9bf 613e 1c03 7e3e
000003f0: b8a7 05be a294 86bd 46da 12be c258 313c

convs.0.cv__interacts__event.lin_rel.weight f4 [64, 20]
-0.13047911 0.06287548 -0.049056295 0.13212623 0.12817569 0.080267556 -0.14342676 -0.28290063
-0.16401209 -0.1415518 -0.0554073 -0.1391208 -0.13868287 -0.29377285 0.03253105 0.06833773
-0.07247905 0.08421495 -0.21467969 -0.18818548 0.06456043 0.032077964 0.14210571 -0.07148627
0.02210985 0.06263454 -0.0455494 0.1255259 0.17934453 0.21179877 0.038590334 -0.17404261
-0.032803968 -0.035072867 -0.06394028 0.018725969 0.008187962 0.004259552 0.17556778 -0.043700613
0.12635866 0.1649155 -0.053365923 -0.01692835 0.009350765 -0.12075683 0.13135882 -0.04048739
-0.10495273 -0.07397296 0.09016355 0.010828692 -0.12991796 0.23240775 0.14859955 0.14858423
0.19880088 -0.04591085 0.12710601 0.18972468 0.06128481 0.08462851 -0.13948993 -0.07317618
0.013161042 -0.119902335 0.25924617 -0.13098653 0.015858235 -0.16155769 0.1983503 0.13327046
-0.11254651 0.14365865 -0.083978854 0.06749044 0.07063567 0.1710373 -0.16479982 0.08062043
0.14863841 -0.3010889 -0.31251624 0.0630508 -0.18815157 -0.26581392 -0.048542593 0.13789068
-0.24776489 -0.18248834 -0.11135408 -0.03582032 -0.20261864 0.066551976 -0.18127018 -0.1759415
-0.22418076 -0.10019419 -0.27683645 -0.13811511 0.06787164 -0.0833582 0.017369078 0.14745305
-0.088509224 0.059910353 0.14408612 0.07460291 -0.21118315 0.04261812 -0.23925388 0.027009686
0.19822283 0.16425174 0.20165521 -0.008874309 0.03997951 -0.23339431 0.09969178 0.183784
0.040389113 0.15033513 -0.19268711 0.18692045 0.10062184 0.14736836 -0.1242099 0.035272777
-0.06260654 0.094528385 -0.077140406 -0.022292007 0.1236089 -0.14378636 -0.009463238 -0.15411583
0.039363544 -0.14038436 -0.08354527 0.22054285 0.014616877 -0.292085 -0.035713505 0.0016860423
0.026604692 -0.12842327 -0.2994344 0.044341248 -0.10348074 -0.060346916 -0.047344092 -0.04962542
-0.075930566 -0.13486832 -0.2268284 0.004754354 -0.1328927 -0.008898327 -0.08426835 -0.26876506
-0.08179894 -0.21203756 -0.22904916 0.12552217 0.18936822 -0.028735723 0.15268545 -0.076159164
-0.21600239 0.007024292 0.07037504 -0.08495728 0.04674348 -0.016787032 0.14383414 -0.22319204
-0.15311977 -0.21129474 0.1692655 -0.2540283 0.18466195 -0.15268318 -0.0027005454 0.025969721
0.15190302 -0.06383957 0.14289789 0.11559849 -0.12487267 0.07512808 -0.18952388 -0.14657606
0.029919006 0.17037232 -0.16913632 -0.021479817 -0.1673868 0.18687944 0.09631775 -0.11802684
0.07303972 -0.14513066 0.11581212 0.10833516 0.135089 0.14573704 0.15414858 -0.12298812
0.12227373 -0.04520576 -0.07302614 0.06310576 0.1080112 0.23666538 -0.051953208 0.0605783
-0.10986643 0.20237857 -0.07705405 -0.18163319 -0.23139891 -0.3003235 -0.22405781 -0.28298676
-0.24251895 0.0046343673 -0.2293623 -0.17139249 0.005783813 -0.17011476 -0.0178839 -0.24868518
0.16145022 -0.0919216 -0.0068493923 0.16802484 0.06933976 -0.28015092 -0.22638497 -0.16015966
0.09772488 0.059197567 0.19644496 0.16272281 -0.063711464 -0.10692858 -0.08569239 0.06757121
0.07747874 -0.16047595 -0.028472697 -0.038715463 0.2510993 0.033298586 -0.1827229 0.26426378
00000000: 519c 05be dcc4 803d 41ef 48bd 194c 073e
00000010: 7d40 033e 5163 a43d 77de 12be 5ad8 90be
00000020: c9f2 27be f4f2 10be c4f2 62bd af75 0ebe
00000030: e202 0ebe 6569 96be 473f 053d a7f4 8b3d
00000040: e56f 94bd e378 ac3d fed4 5bbe b2b3 40be
00000050: 4238 843d 2f64 033d 2984 113e 6567 92bd
00000060: b71f b53c 8a46 803d 0292 3abd dd89 003e
00000070: 18a6 373e c7e1 583e e610 1e3d 3a38 32be
00000080: 745d 06bd 91a8 0fbd 1ff3 82bd 3467 993c
00000090: cd26 063c b693 8b3b 0ac8 333e 6aff 32bd
000000a0: 2a64 013e 9cdf 283e 3a96 5abd 53ad 8abc
000000b0: f333 193c 5b4f f7bd ed82 063e 1bd6 25bd
000000c0: 75f1 d6bd 237f 97bd aba7 b83d d36a 313c
000000d0: 3709 05be 4cfc 6d3e 7b2a 183e 7726 183e
000000e0: 7592 4b3e 040d 3cbd 1428 023e 3047 423e
000000f0: c805 7b3d b651 ad3d 73d6 0ebe 65dd 95bd
00000100: 69a1 573c 5b8f f5bd eabb 843e 5521 06be
00000110: 21e9 813c 616f 25be 571c 4b3e 0d78 083e
00000120: c97e e6bd 411b 133e 1bfd abbd 6e38 8a3d
00000130: 6fa9 903d 6724 2f3e 49c1 28be 531c a53d
00000140: ab34 183e 5328 9abe 2102 a0be c720 813d
00000150: ceaa 40be c318 88be 99d4 46bd 3733 0d3e
00000160: 14b6 7dbe 39de 3abe 9c0d e4bd 54b8 12bd
00000170: 437b 4fbe 674c 883d e49e 39be 022a 34be
00000180: a48f 65be 9d32 cdbd 82bd 8dbe 0c6e 0dbe
00000190: 4900 8b3d b4b7 aabd 9949 8e3c effd 163e
000001a0: 5344 b5bd 8f64 753d 508b 133e 69c9 983d
000001b0: 6540 58be 5690 2e3d f8fe 74be 6b43 dd3c
000001c0: edfa 4a3e 9c31 283e b47e 4e3e 8d65 11bc
000001d0: 8ec1 233d ebfe 6ebe 342b cc3d df31 3c3e
000001e0: 0e6f 253d 74f1 193e c54f 45be 1368 3f3e
000001f0: d312 ce3d bbe7 163e c361 febd 307a 103d
00000200: dc37 80bd 1998 c13d cafb 9dbd ba9d b6bc
00000210: aa26 fd3d bb3c 13be b20b 1bbc 8ad0 1dbe
00000220: ab3b 213d ebc0 0fbe c819 abbd fcd5 613e
00000230: a07b 6f3c 2a8c 95be 5348 12bd 31fe dc3a
00000240: 15f2 d93c 6481 03be 774f 99be 2b9f 353d
00000250: b6ed d3bd 542e 77bd e1eb 41bd 0644 4bbd
00000260: 7c81 9bbd ec1a 0abe b445 68be 69ca 9b3b
00000270: 0615 08be 4aca 11bc e294 acbd 939b 89be
00000280: 3486 a7bd 6020 59be dd8b 6abe e288 003e
00000290: bee9 413e 2e67 ebbc 9359 1c3e 56f9 9bbd
000002a0: bb2f 5dbe 082c e63b ca20 903d 15fe adbd
000002b0: 1776 3f3d f584 89bc 4249 133e 748c 64be
000002c0: 6ecb 1cbe a65d 58be ef53 2d3e ff0f 82be
000002d0: 0618 3d3e fb58 1cbe a2fb 30bb 74be d43c
000002e0: 778c 1b3e 52be 82bd d353 123e e7be ec3d
000002f0: 3ebd ffbd c0dc 993d 8c12 42be 0918 16be
00000300: b418 f53c 1576 2e3e 1232 2dbe 71f6 afbc
00000310: 7267 2bbe 535d 3f3e 3e42 c53d 0eb8 f1bd
00000320: d995 953d 229d 14be e82e ed3d d3de dd3d
00000330: c554 0a3e 173c 153e 20d9 1d3e 32e1 fbbd
00000340: a66a fa3d ad29 39bd bb8e 95bd 983d 813d
00000350: fa34 dd3d 6958 723e e3cc 54bd f420 783d
00000360: a701 e1bd 543c 4f3e 84ce 9dbd 0dfe 39be
00000370: d6f3 6cbe 00c4 99be 696f 65be a4e3 90be
00000380: e356 78be e4db 973b f3dd 6abe 8381 2fbe
00000390: 2486 bd3b 9032 2ebe 4281 92bc 54a7 7ebe
000003a0: 3553 253e 6441 bcbd de70 e0bb b40e 2c3e
000003b0: 0102 8e3d f16f 8fbe 76d1 67be e500 24be
000003c0: fb23 c83d 2679 723d de28 493e cfa0 263e
000003d0: 287b 82bd 5ffd dabd 7e7f afbd c662 8a3d
000003e0: 2cad 9e3d cf53 24be 933f e9bc 1b94 1ebd
000003f0: 1690 803e 1964 083d b61b 3bbe 954d 873e

convs.0.cv__interacts__event.lin_rel.bias f4 [64]
0.108896576 0.19228983 -0.019122485 -0.21840377 -0.07907218 -0.04198057 -0.20071475 -0.15777704
-0.039894383 -0.007477608 -0.103296846 0.15731145 0.17121504 -0.14345878 0.11148366 0.1818276
-0.12559853 0.072783396 0.010669639 0.004942658 0.11362995 -4.0743358e-05 0.014715885 -0.14128084
0.1792007 -0.07960346 -0.116125226 0.17752099 -0.05282487 -0.20177591 0.17854661 -0.016375389
0.18426408 -0.15909484 -0.19556548 -0.052237198 0.12750453 -0.15101758 0.09683076 0.09076845
0.110997446 -0.120496176 0.09205477 0.078693196 -0.17269516 -0.22680399 -0.17803966 -0.15999822
0.17174834 -0.047677103 0.049899917 -0.20373386 -0.015560141 -0.03650895 0.047076616 -0.17696913
0.15757623 -0.14241883 -0.13472793 -0.07136275 -0.19868399 0.08008264 0.21092527 0.11110267
00000000: 2b05 df3d a0e7 443e c2a6 9cbc 3da5 5fbe
00000010: 98f0 a1bd d1f3 2bbd 2b88 4dbe 4e90 21be
00000020: 4b68 23bd b906 f5bb 4c8d d3bd 4116 213e
00000030: ff52 2f3e dce6 12be 8c51 e43d 0431 3a3e
00000040: e79c 00be 760f 953d b6cf 2e3c 05f6 a13b
00000050: d2b6 e83d d9e3 2ab8 e51a 713c edab 10be
00000060: 6380 373e 2407 a3bd 10d3 edbd 10c8 353e
00000070: e45e 58bd 589e 4ebe ecd4 363e ae25 86bc
00000080: b9af 3c3e c2e9 22be 5142 48be acf6 55bd
00000090: 8c90 023e 5aa4 1abe 354f c63d cfe4 b93d
000000a0: a152 e33d b3c6 f6bd 3687 bc3d e629 a13d
000000b0: 00d7 30be 4e3f 68be 0750 36be 93d6 23be
000000c0: ccde 2f3e 1149 43bd db63 4c3d 9c9f 50be
000000d0: f6ef 7ebc 698a 15bd 69d3 403d 6537 35be
000000e0: aa5b 213e 3ed6 11be 1ef6 09be a226 92bd
000000f0: d173 4bbe 5e02 a43d cbfc 573e cc89 e33d
