models/BPI17/hoeg/exp_v3/lr=0.001_hidden_dim=8/GraphModule_20230828_11h35m/state_dict_epoch0.pt (torch, 23903 bytes, 33 tensors)

convs.0.event__follows__event.lin_rel.weight f4 [8, 27]
000000 15 c8 1f be 8d f2 bb 3b 88 0f 9e bd 9b 82 84 3d
       -0.15603669 0.0057357014 -0.07717806 0.064702235
000010 e7 e6 5d be 97 71 ac 3d 10 9a 22 be c9 b3 8f bd
       -0.21670114 0.08420103 -0.15879083 -0.07016713
000020 68 59 4d 3d 58 db 14 3c 2a 3b 18 be ca 14 4e bc
       0.050134093 0.009085499 -0.1486632 -0.012578199
000030 ee a7 87 be 93 43 54 be 75 36 4d be 00 cc d9 bd
       -0.26495308 -0.20728903 -0.20040305 -0.10634613
000040 e1 1d 2e be 50 67 51 be 44 8b 4f be a5 d8 db 3b
       -0.17003585 -0.20449567 -0.2026797 0.0067091757
000050 74 df 26 be a1 74 bb bd 25 30 02 be 0a 2c 9e be
       -0.16296178 -0.091531046 -0.12713678 -0.30892974
000060 e3 13 9c bd c3 9b fc 3c ef 44 f2 3d f6 0b fc bc
       -0.076209806 0.030835992 0.11829554 -0.030767422
000070 fa 21 a0 be ef 3b 54 bd 26 f1 71 be 60 4e 17 be
       -0.31275922 -0.05181497 -0.23627147 -0.14775991
000080 e8 a5 58 bc 6c 44 a9 3d 9e 80 9d 3d e9 21 19 3c
       -0.013223149 0.082650036 0.076905474 0.009346464
000090 5b 45 29 bd 1c 93 ff 3d 08 f9 91 3e df c6 28 bd
       -0.04132591 0.12479231 0.28510308 -0.041205283
0000a0 9f 13 d5 3d df b6 fd bc bf 77 8b 3e e8 6e 20 3e
       0.10404133 -0.030970989 0.27239797 0.15667307
0000b0 f3 00 55 bd ef 22 19 bd 3b f4 0e 3d 66 53 bd bd
       -0.05200286 -0.03738683 0.034900885 -0.092444226
0000c0 e7 bd 85 3e c6 a8 41 3e 59 38 11 3e 8c ba 09 3e
       0.26121446 0.18912038 0.14181651 0.13450068
0000d0 62 28 b2 3d 19 e7 9d 3d ad af 96 3d 20 12 a8 ba
       0.08699109 0.07710094 0.07357726 -0.0012822784
0000e0 f9 84 23 3e 9e 79 ab 3e b9 7c 50 3e fe 1e 0e be
       0.15968694 0.33491224 0.20360078 -0.1387901
0000f0 03 7b 0f 3d 8b f5 92 be 30 52 72 3d 22 b7 8d bd
       0.035029422 -0.2870296 0.05916041 -0.069196954
000100 79 08 66 be 71 28 b1 be 1c 14 ac be 72 0b 5f be
       -0.2246417 -0.34601167 -0.33609092 -0.2178171
000110 c5 bc 9e be 80 0c 2d be 87 d9 9c bd f8 04 03 be
       -0.31003395 -0.168993 -0.076586775 -0.12794864
000120 f1 9c 29 be 06 33 84 3c 82 c2 4b be 4c 65 86 be
       -0.16563775 0.016137611 -0.19898418 -0.26249158
000130 92 55 46 be b5 85 cb be 3c 1d 3f bc 7b 96 b3 bd
       -0.1936858 -0.39750448 -0.011664685 -0.08768936
000140 fc 43 4e 3e e5 53 29 3c 1b bb ff ba 14 35 56 bc
       0.20143121 0.010334943 -0.0019510718 -0.013074178
000150 c0 3c 4f 3e 95 87 5f 3d ce b9 c3 bd e8 cb 33 bd
       0.20238018 0.05457266 -0.09556924 -0.043895632
000160 11 6f 73 be a5 69 18 bc a7 2e 0e be 44 77 69 be
       -0.23772837 -0.009302531 -0.13884984 -0.22799402
000170 35 84 91 bd 94 09 36 bd 6f 8a 0c be 72 14 31 be
       -0.071052946 -0.04444273 -0.13724683 -0.17292956
000180 48 55 f5 bd d1 62 0e 3d ec a6 a8 3d 2c 05 80 bd
       -0.11979157 0.034762207 0.08234963 -0.062509865
000190 90 e4 40 be e4 91 ae 3d 39 53 cf 3d eb 33 d8 3c
       -0.1883719 0.0852392 0.10123295 0.026391944
0001a0 6b 27 c3 3d 3b 3b 1d 3e 50 3d b2 3c 07 b6 15 3e
       0.09529003 0.15354626 0.021757752 0.14620219
0001b0 5a 5b 06 be 65 a2 2a be 8a 23 39 be 0e d5 14 be
       -0.13120785 -0.16663511 -0.18079963 -0.14534399
0001c0 fe e8 a9 bd a1 fe 56 3e ad 35 cf 3d 6c 69 cd 3c
       -0.08296393 0.2099557 0.1011766 0.025074683
0001d0 ff 3b d9 3d db 80 47 bc 28 e6 22 3e 3d 98 43 3d
       0.106071465 -0.012176718 0.1590811 0.047752608
0001e0 b2 46 f1 3d 3e 6c 31 3e 15 6a 67 3e d1 6b ed 3d
       0.11781062 0.17326447 0.22599061 0.1159283
0001f0 a9 0d f6 3c 56 2c b2 3d 12 41 f0 bd 08 6b 19 be
       0.03003581 0.08699863 -0.11731161 -0.14982235
000200 66 df 2b bd c3 4e 46 3e b0 ee ea 3c e3 0f 82 bb
       -0.041961096 0.19365983 0.028678268 -0.003969179
000210 59 45 c0 bd fe 14 d9 bd 6e c6 32 be 16 e5 96 bd
       -0.09388227 -0.10599707 -0.17458507 -0.073679134
000220 c6 26 1f 3d d3 39 53 3d 12 66 a6 3e 0d dd 96 3e
       0.038855337 0.051568817 0.32499748 0.29465523
000230 50 4a 9f bd a2 2a 87 3e a8 86 7f be 4f 80 0f 3d
       -0.07777846 0.26399714 -0.24953711 0.035034474
000240 07 19 12 3e 7b 8b fe bd 2a 05 60 bd 57 22 51 3d
       0.1426736 -0.124289475 -0.054692425 0.05105814
000250 71 cd b2 3d 41 f1 c4 bd 22 f0 cc bc 0b 40 a1 bc
       0.08730591 -0.09616328 -0.025016848 -0.019683858
000260 c8 16 19 3e eb 01 cd 3d bf 6f a1 3d be aa 6e 3d
       0.14950097 0.100101314 0.07882642 0.0582683
000270 7e 43 27 be 7d f1 0c 3e 46 0f 16 3c cc c2 a6 bd
       -0.1633434 0.13763995 0.009158915 -0.08142623
000280 95 f7 79 3e 10 47 42 be 88 fd 54 bd 97 96 48 3d
       0.24410851 -0.1897242 -0.0519996 0.04897174
000290 8e 06 13 be d8 5c 54 3e ef 6d ba be 65 9b b1 3d
       -0.14357969 0.20738542 -0.36411998 0.08672217
0002a0 60 18 96 be 73 f5 37 be 9f 80 93 bd 66 e0 be bb
       -0.29315472 -0.17964725 -0.07202267 -0.00582509
0002b0 7a 2a 2e be 29 3b 7f be ae 9a 2c be f1 7b 69 bb
       -0.17008391 -0.24924912 -0.1685588 -0.0035626853
0002c0 24 6b 54 be 45 e8 5c be de 9a 2b bd df a0 66 be
       -0.20743996 -0.21572979 -0.04189574 -0.22522305
0002d0 75 46 9f be 79 f3 a8 be 39 b9 69 ba 00 39 9b 3e
       -0.31108442 -0.32998255 -0.0008915845 0.30316925
0002e0 85 25 a4 be 2f 0b cc 3d 87 0a 64 3c 77 66 43 be
       -0.32059875 0.099630706 0.013918526 -0.19082056
0002f0 d8 a4 2d bc b4 d3 5d be f7 8c 8a be 61 b4 67 3d
       -0.010598384 -0.2166279 -0.27060673 0.056568507
000300 6f 8c d9 be 8f 9e b0 be 27 f5 b1 bd 20 3e 2e be
       -0.42489955 -0.3449597 -0.08689337 -0.17015886
000310 2c 81 b6 3e d6 09 34 3d 08 4b 2a 3e d7 9b 5b 3e
       0.35645425 0.043954693 0.16630185 0.21446167
000320 62 c5 2d 3e 4b 2b ba 3c 19 20 98 bd 3a da 75 3e
       0.16969827 0.022725722 -0.07427997 0.24009028
000330 1a 77 8e 3e 18 f1 87 bd a6 38 d3 3c d9 f7 0c 3e
       0.27825242 -0.06637782 0.025783848 0.13766421
000340 94 57 2f 3e e6 d7 1c be 2d 0a 13 bd 70 f8 13 3e
       0.17123252 -0.15316734 -0.035898376 0.1445024
000350 c5 ae 9d 3d fb b1 54 bc 8e cf 29 be d5 bd aa 3d
       0.0769935 -0.012981887 -0.16583082 0.08336989

convs.0.event__follows__event.lin_rel.bias f4 [8]
000000 2c d8 f9 bd 07 97 ee bc 4b fb 4c 3e ec c7 9a 3d
       -0.12199435 -0.02912475 0.20017736 0.07557663
000010 08 2b 3e be 4c 3b f6 3d 5d 12 c6 bd 79 99 a1 3c
       -0.18571103 0.12023029 -0.09671471 0.019726502

convs.0.event__follows__event.lin_root.weight f4 [8, 27]
000000 9b be 28 bd ee 2f 53 bd ab 25 c5 bd c3 10 56 3d
       -0.0411974 -0.05155938 -0.09626325 0.05226208
000010 3f 6e 77 bc 34 56 19 3d 69 c8 c5 bd 0d 54 81 be
       -0.015101968 0.037435725 -0.09657366 -0.25259438
000020 00 fb 72 3c 80 b5 0d be ed 50 83 be d6 6d 96 3d
       0.014830351 -0.13838768 -0.2564768 0.07345168
000030 71 e7 b2 bd 57 6a 16 3e 0f 0f 5e 3d 00 5c 04 bc
       -0.0873555 0.14689003 0.05421358 -0.008078575
000040 9d 09 90 3d fc c7 0e bb 9c ce 79 bd f6 d4 11 3d
       0.070330836 -0.002178668 -0.060988054 0.035603486
000050 61 26 91 3d fd 81 c0 bd 12 91 d9 3d bc cf c0 bd
       0.07087398 -0.09399793 0.10623373 -0.09414622
000060 39 f3 05 3e 8c 33 f7 bb 0a 01 6a 3e 8d d8 9c be
       0.13081063 -0.0075439867 0.22851959 -0.30633965
000070 87 e9 77 bd c6 6b a2 bc aa 56 ad be 84 ff 8f be
       -0.060525443 -0.019826781 -0.33855182 -0.2812463
000080 f2 c1 8f 3d 59 6b 02 be 81 a9 8e 3e dc d5 f5 bd
       0.07019414 -0.12736262 0.27863696 -0.12003681
000090 50 96 42 be d1 04 f0 3d 94 5c 8b 3d ac 88 13 3d
       -0.19002652 0.11719669 0.06804767 0.036019012
0000a0 ca c7 59 3d 26 ab 1b 3d 26 6f 9d bb bc d1 45 3e
       0.05316905 0.038005017 -0.0048045097 0.19318289
0000b0 25 36 c2 3c a9 f6 80 3d f4 05 9c bd 06 08 ac 3d
       0.023707459 0.06297047 -0.07618323 0.08399968
0000c0 0c 73 ce 3c 69 73 30 bd 3a 54 f3 bc a5 35 1b be
       0.025201343 -0.043078814 -0.029703248 -0.15157183
0000d0 a2 37 99 be f9 f4 25 be 9a 33 7b 3d d6 3f 08 3e
       -0.29925257 -0.16206731 0.061328508 0.13305601
0000e0 7c 6c 52 3e 12 59 d3 3d ef 2f ac 3e 75 81 19 bd
       0.20549196 0.10319723 0.3363032 -0.037476975
0000f0 58 66 0d 3e df a8 1c be 79 90 a2 bd 1f de 2d 3e
       0.13808572 -0.15298794 -0.07937712 0.16979264
000100 bc 13 95 be 1f c2 a1 be 80 25 50 bd 76 16 48 be
       -0.2911662 -0.31593415 -0.050817013 -0.19539818
000110 c4 65 3f bd 58 91 c6 bd 89 56 a1 3c c5 88 4f be
       -0.04672791 -0.09695691 0.019694583 -0.20267017
000120 6d a2 92 3d 7b b5 73 bb a5 07 06 3d 54 26 f8 bd
       0.071598865 -0.0037187028 0.032722134 -0.121166855
000130 f2 9a 3c 3d 60 54 1d be e3 81 f4 3d 83 d3 1e bd
       0.046046205 -0.15364218 0.119388364 -0.038775932
000140 0c bc ae 3e 93 44 ad 3b 17 e0 28 3e ac de f1 bd
       0.34127843 0.0052877157 0.16491733 -0.118100494
000150 ad 7c ce 3d 81 30 91 3c 63 80 4d be ef b8 61 3e
       0.10082374 0.017723324 -0.20068507 0.22043203
000160 1c 1b 21 be d6 11 56 3e 86 56 54 3c 9b 44 81 be
       -0.15732998 0.20905241 0.012960082 -0.25247654
000170 86 fd 30 be 31 5c 88 be 65 a9 4a be 98 3d 8a be
       -0.17284212 -0.26632836 -0.19791181 -0.27000117
000180 33 7d 2f be ad 27 67 be f8 9a e5 3a c0 5f 22 be
       -0.17137603 -0.22573729 0.0017517498 -0.15856838
000190 bd 60 20 bd e0 62 b8 bd 61 08 44 be 34 8c 40 3e
       -0.039154757 -0.09003234 -0.19143821 0.18803483
0001a0 ef 9a 39 be db 84 26 bd c3 19 d9 3d 6b d8 b5 bc
       -0.18125509 -0.040654045 0.10600617 -0.022197923
0001b0 3f 9b b6 3c 5e d8 82 be b1 f9 e2 3d 18 92 b7 be
       0.022290824 -0.255557 0.11082781 -0.35853648
0001c0 f2 b6 b1 be 55 26 f6 3c 77 df a0 be 3e bf c7 3e
       -0.3470989 0.030047575 -0.3142049 0.39013094
0001d0 b8 7b eb 3d 0d 1c 8a be 02 a8 3a bd 7d 0e f7 3c
       0.11498207 -0.26974526 -0.04557038 0.030158276
0001e0 8b 7c a1 3d fd 5b f2 3d 05 45 bc 3c 63 bc 05 3d
       0.07885083 0.118339516 0.02298213 0.032650363
0001f0 65 d2 1c 3e 42 2a 35 3e 8a 7a 99 3d 8d 24 c6 3d
       0.15314634 0.17691901 0.074940756 0.0967494
000200 63 bd 04 be 44 ab aa 3e be a6 d8 3d 3c 4d df 3b
       -0.1296287 0.3333379 0.105786785 0.006814627
000210 de 30 8c 3d 36 f4 6f bd e5 f8 61 bd 2a 1d bb bd
       0.06845258 -0.058582507 -0.055169005 -0.09136422
000220 db a8 a3 bd 25 95 98 bb 8e 48 8b 3c 03 e4 cb 3e
       -0.07991191 -0.0046564513 0.01700237 0.39822397
000230 0a 7a 8d 3d d2 4a a9 bc bf 00 69 bd dd f9 d7 3d
       0.06908043 -0.02066556 -0.056885477 0.105457045
000240 2b a4 b7 3b c0 fc b0 3d 6a fc 2c be ea 16 25 3d
       0.005604287 0.08641958 -0.16893163 0.040305056
000250 8d e3 21 bd 96 68 51 3d ea 2a 84 be cd 9e d0 bd
       -0.03952365 0.05112513 -0.2581399 -0.10186539
000260 a4 21 18 be d4 ad 33 3e 1b 72 46 3e 3d 06 09 be
       -0.14856583 0.17546779 0.19379465 -0.13381286
000270 f4 40 43 bd ea dd 25 3e fb b5 10 3e 30 21 64 be
       -0.047669366 0.16197935 0.1413192 -0.22278285
000280 f4 7e e0 3d ad 6e 60 be ac 6d 9e be e2 92 e2 3d
       0.109617144 -0.2191722 -0.30943048 0.11063172
000290 f0 8f 54 be 00 c2 0b 3e 78 49 7e bd 09 f7 d6 bd
       -0.20758033 0.13648224 -0.062081784 -0.10496337
0002a0 35 8d c2 bd 0a 52 5a be 01 df 3c 3c 72 e5 b7 be
       -0.09499589 -0.21320358 0.011527778 -0.3591724
0002b0 4d 79 8f be 32 c0 17 be 30 2b aa be 7b 56 bf 3e
       -0.28022233 -0.1481941 -0.33236074 0.37370667
0002c0 a2 13 f1 bd a9 0f ee bd cb ae 9c bd fc ed 28 be
       -0.11771323 -0.11624081 -0.076505266 -0.16497034
0002d0 7d 58 ab bc 80 91 a7 be 35 59 7c be 7a 84 59 3e
       -0.020916218 -0.32728195 -0.24643405 0.21241942
0002e0 d8 5f a6 be e2 92 9e 3a f3 52 16 3e 6c b6 af 3b
       -0.32494998 0.0012098218 0.1468008 0.0053623226
0002f0 3e e4 81 be 25 28 58 3d 69 ee 08 bd 3c a8 01 3e
       -0.25369447 0.05277266 -0.03343049 0.12661833
000300 cb d0 ac be 90 b6 43 be 90 3a 95 bd 92 7f 88 3c
       -0.33753046 -0.19112611 -0.072865605 0.016662393
000310 16 df bf 3e 2b 36 2f be f3 13 57 be ab 32 34 3e
       0.3747489 -0.17110507 -0.21003704 0.17597453
000320 9b d2 0e bd a2 d9 27 3d f6 a5 a6 3e 41 5a 6b 3e
       -0.034868818 0.040979035 0.32548493 0.22983648
000330 28 3f 37 3e b9 d5 d6 3d 0e 2d d1 3c f5 a6 2b bb
       0.17895186 0.10489983 0.025534179 -0.0026192043
000340 1a fd 63 bd 20 6f d9 bd 7b 00 6e 3e 02 d1 b2 bd
       -0.0556613 -0.106168985 0.23242371 -0.08731271
000350 6a 5c 33 3e 26 4b 98 bd a6 39 0c 3d d5 f4 17 3e
       0.17515722 -0.074362084 0.034234665 0.1483949

convs.0.application__interacts__event.lin_rel.weight f4 [8, 3]
000000 1a c8 1e be f8 48 02 bf 2f a7 3f 3e ce 03 45 be
       -0.1550602 -0.5089259 0.18716119 -0.19239733
000010 21 38 d4 be 5d 0a f5 3e 27 d8 94 be ea ed 0a 3e
       -0.41449073 0.4785947 -0.2907116 0.1356732
000020 41 6c a7 bc 6b 4b 8a be f5 73 44 be 5a 43 f6 bc
       -0.020437362 -0.27010664 -0.19184859 -0.030061413
000030 6a 89 49 bd b5 e3 e5 3d 86 ad 0a 3e fe 05 29 be
       -0.049203314 0.11225072 0.13542756 -0.16506192
000040 b3 8f ee be 0e 24 4a 3e db 99 de 3e a9 57 b0 3d
       -0.4659401 0.19740316 0.43476757 0.0861047
000050 48 cd 73 3e 96 ab 8d 3e 85 ca 6b 3e 96 1b 48 3e
       0.23808777 0.27669972 0.23026474 0.19541773

convs.0.application__interacts__event.lin_rel.bias f4 [8]
000000 1b 88 96 3e f7 3f 87 be 4c dc 7b be d6 6b 17 bf
       0.29400715 -0.2641599 -0.24595755 -0.5914892
000010 c7 80 2f 3e fd 69 a1 be 2b 6d e7 3e 9b f9 78 3e
       0.17138968 -0.31526175 0.45200476 0.24313967

convs.0.application__interacts__event.lin_root.weight f4 [8, 27]
000000 f3 3f 8e 3e e4 f3 a1 3d 95 c6 17 3e f5 33 a2 3d
       0.27783164 0.079078466 0.14821847 0.07920066
000010 44 ed 7c 3e a8 dd fa bd 5d 6a 1e 3e c1 cf 48 3c
       0.24699885 -0.12249309 0.15470262 0.012256564
000020 e6 a2 91 3d 2b f4 f6 bd 66 7c 3f bd 36 78 2a be
       0.071111485 -0.1205829 -0.046749495 -0.1664742
000030 aa f3 4e bd f6 7b e1 bd 80 61 81 be d3 b7 58 bd
       -0.050525345 -0.11009972 -0.252697 -0.052909683
000040 da 2a 3e be 3c 99 ce bc d7 c2 77 bc ae 5b 15 3e
       -0.18571034 -0.025219552 -0.015122137 0.14585754
000050 91 11 07 bd 78 af 91 be 29 80 0c bd c5 04 4f be
       -0.032975737 -0.28454185 -0.03430191 -0.20216663
000060 dd 51 5b bd 7b ad 2a 3d f5 a0 84 3e 44 e9 45 be
       -0.053544868 0.04166935 0.2590405 -0.19327265
000070 cd 44 7f be 00 81 87 be b8 da 12 be 16 fa af bc
       -0.24928589 -0.26465607 -0.14341247 -0.021481555
000080 ed 5b ff 3d 0f fd 28 3d bc d3 96 3d 9d 25 b8 bd
       0.12468705 0.04125696 0.07364604 -0.08991549
000090 52 c1 94 3d 7f 5a 33 3e 81 18 a2 3d 03 4c 2c 3e
       0.072634354 0.1751499 0.0791483 0.16825871
0000a0 92 4e 81 3e 37 ba 39 3e ef b1 f3 3d 46 0b 27 bd
       0.25255257 0.18137442 0.118991725 -0.040782236
0000b0 94 b0 60 3e 57 83 5d be bf b3 cb bd f7 4b 15 bd
       0.21942359 -0.21632133 -0.09946393 -0.0364494
0000c0 ac c6 3b 3d e8 16 9a 3d bf 88 46 3d a7 2c 6a 3d
       0.045843765 0.075239 0.048470255 0.05717149
0000d0 d9 79 2f be 34 6f b6 3d bb 0a 9d 3d c7 d5 8f 3e
       -0.17136325 0.08907929 0.07668062 0.28092787
0000e0 05 fc 5a 3e 0a 42 18 3e 8b 2d 88 3e 66 4b 98 3d
       0.213852 0.14868942 0.26597247 0.07436256
0000f0 e6 9c cf 3d 5a d4 88 be b0 21 24 3e de cc cf 3d
       0.10137348 -0.2672451 0.16028476 0.10146497
000100 11 d9 15 bc b6 db 0d 3d cf e5 61 3d be 75 b6 3d
       -0.009145991 0.03463336 0.055150803 0.08909176
000110 0e 0f 36 be 4e 0a b7 3d 81 95 b3 bd 17 3c 12 be
       -0.1777918 0.08937512 -0.0876875 -0.14280735
000120 09 0b b3 3c f4 fb 0f 3e e8 21 d4 3d d5 60 93 be
       0.021855848 0.14060956 0.103580296 -0.28784814
000130 f6 09 66 3e 59 5e 8b be 86 45 07 bd b9 b4 d1 3d
       0.22464737 -0.2722042 -0.033025287 0.10239548
000140 3e 4b b4 3d 25 e9 59 3e 77 54 11 3e fe 54 0b be
       0.08803414 0.21280344 0.14192377 -0.1360664
000150 96 c1 50 3e 7e 19 9b 3e 1d e0 6e bd f4 3a c4 bd
       0.20386347 0.30292886 -0.0583192 -0.09581557
000160 82 6d c8 be ff 9a fb bd 88 3e 12 3e 39 ca 3a be
       -0.39146048 -0.122854225 0.14281666 -0.18241204
000170 f5 80 57 bc ad 76 1c 3d 42 89 9a be 0d 6e 53 be
       -0.013153304 0.038199116 -0.30182844 -0.2064745
000180 09 13 f1 bd ed c4 88 bd 74 94 b2 bd 01 d6 1e bd
       -0.11771209 -0.066781856 -0.087197214 -0.03877831
000190 bd 1e d7 3c 38 18 df bd e9 7d 97 be 43 cb bf 3d
       0.026259774 -0.10893291 -0.2958825 0.09364941
0001a0 c4 40 4a be f5 0c 8d 3d b5 11 7d 3d 1d 9a 20 3e
       -0.19751269 0.06887237 0.061784465 0.1568379
0001b0 67 33 5e 3c 98 5c 44 be 2d 1c 6c be aa 6c a4 bd
       0.01356206 -0.19175947 -0.23057623 -0.080285385
0001c0 59 57 2e be af 5c db bd b1 be 20 bd f6 62 3d 3e
       -0.17025508 -0.10711037 -0.039244357 0.18494782
0001d0 9d 24 31 bd 53 3d 2b bd ed fd 94 3d ac 3d 84 3e
       -0.043247808 -0.04180653 0.07274995 0.25828302
0001e0 57 31 e5 3b d0 84 46 3d 6e f0 26 bd a1 9f 57 3e
       0.006994407 0.048466504 -0.040756635 0.21056987
0001f0 cf c2 3c 3e 06 3c ad bc ed a3 15 3d 40 93 67 3d
       0.18433689 -0.021146785 0.036533285 0.056536913
000200 84 ba 10 be 61 d0 d7 3e 31 69 e1 bd 7f 19 2c be
       -0.1413365 0.42151168 -0.11006392 -0.16806601
000210 63 8a 06 3e 77 03 0e be fd 6c f8 bc 6e b4 ac bc
       0.13138728 -0.13868509 -0.030325407 -0.02108213
000220 02 0a e1 bc 9d 29 13 3c 90 25 6f 3e 2f 15 bf 3e
       -0.027470592 0.008982089 0.23354173 0.3732085
000230 5a 2b e3 bd ea 13 58 3e 2b e4 4f be f9 24 57 3e
       -0.11092253 0.21101347 -0.20301883 0.21010198
000240 36 99 93 3d 43 57 98 3a b8 1e e7 3d 1a 7d 1e 3e
       0.07206957 0.0011622686 0.11285156 0.1547741
000250 45 e9 08 be 04 11 fb 3c d4 02 30 be c1 97 62 be
       -0.13370235 0.030647762 -0.17188579 -0.22128202
000260 3d 8f d4 3d 02 d0 f6 bd cc ea 0a 3c 00 49 97 3d
       0.10378883 -0.12051393 0.0084788315 0.073869705
000270 1d 33 6d bd ae bd 7c bd 57 7d 60 3e 80 1d 3e be
       -0.057910074 -0.06170433 0.21922813 -0.18565941
000280 5d 16 ac 3d 3b 90 8c 3d e6 2d 8b be 93 31 bd 3d
       0.08402703 0.06863447 -0.27183455 0.09237971
000290 da 53 91 3c d1 c6 c1 3d 05 45 bb be 6d 0f 1b 3e
       0.017740179 0.09461749 -0.36576095 0.15142603
0002a0 66 11 1f be 83 67 59 be 62 c1 e7 3d 86 0d e1 be
       -0.1553398 -0.21230893 0.11316182 -0.4395563
0002b0 3f e7 ed 3c 5e 55 85 be 2d 82 a3 be 0a 53 9e 3e
       0.02904093 -0.26041692 -0.31935254 0.3092273
0002c0 41 03 d8 be 4f e2 15 be 2f 4d 64 bd 99 d9 3c bc
       -0.42189983 -0.14637111 -0.05573767 -0.011526489
0002d0 3d 4a 84 3d 42 ea 32 be 94 3b 2a be c3 ce d1 3e
       0.06459472 -0.17472175 -0.1662429 0.4097806
0002e0 aa 68 70 be e0 28 a2 3d 45 4b 86 3e 1b e1 af 3d
       -0.23477426 0.079179525 0.262293 0.08587857
0002f0 8e 38 8e be 80 7f 2d 3d 11 eb 55 be 5e 95 1a 3b
       -0.27777523 0.04235792 -0.20890452 0.0023587565
000300 ba 7f 7d be 00 fb b2 be db 17 c0 3d df cd db 3c
       -0.24755755 -0.34957123 0.0937955 0.026831565
000310 c6 f1 af 3e 21 ab 4d 3b 81 5c 63 3c e5 3a 46 bd
       0.34364146 0.0031382518 0.013877035 -0.04839601
000320 09 a5 7e 3d a2 8f 17 3e cf 10 a9 3e cb fb 8d 3e
       0.06216911 0.14800885 0.33020636 0.27731165
000330 cc 08 ba 3d 37 bd 89 bd a2 9b cc bd cb ea e4 3d
       0.09083709 -0.06725543 -0.09990622 0.11177596
000340 8a eb 00 3e 18 f7 23 bd 05 0b b0 3e dc e7 0b bd
       0.12589851 -0.04003057 0.34383407 -0.034156665
000350 be f1 25 bd 68 5d 89 3b ae 06 f7 bd 0a c3 e2 bc
       -0.040513746 0.004192043 -0.12061821 -0.027680892

convs.0.offer__interacts__event.lin_rel.weight f4 [8, 7]
000000 35 98 5b 3e bd 98 74 be be 0c 40 be da 51 9e bd
       0.21444781 -0.2388639 -0.18754861 -0.07730456
000010 20 c7 90 be cc 2d 92 3e b6 dc 38 3d 30 29 2e be
       -0.2827692 0.28550565 0.04513236 -0.170079
000020 da 11 b7 3c f7 d2 81 3e 61 1b 1d 3e 93 73 87 3e
       0.02234738 0.25356266 0.15342475 0.26455364
000030 4f f4 b4 bd 17 fb 2a 3d aa e1 1c be dd ea 59 3e
       -0.08835661 0.041743364 -0.15320459 0.21281
000040 46 c3 ca 3c 5f e8 a4 be 7c 6d 17 bf 47 95 81 be
       0.024751317 -0.32208535 -0.59151435 -0.25309202
000050 2b 4b 43 be af 46 46 be e6 ed aa 3e 4c 70 86 3e
       -0.19071643 -0.19362901 0.33384627 0.2625755
000060 65 0c c8 3e 5d 44 27 bf 34 b7 5f be c9 0e b6 bd
       0.39071956 -0.6533869 -0.2184723 -0.08889539
000070 dc 32 cf be 97 00 2d be 67 f2 66 3d 47 38 b9 bd
       -0.4046849 -0.16894756 0.056383517 -0.09043937
000080 8a b8 8a 3e 8c 99 4a 3d d6 a1 78 3e 7f c7 53 3e
       0.27093917 0.04946284 0.24280486 0.2068157
000090 3e ed ba be df 9e 97 3e 86 6e 29 bc 4f 0a 2f be
       -0.36509126 0.29613397 -0.010341292 -0.17093776
0000a0 99 48 a8 3e 39 74 44 3e f0 50 8a be 5f 81 6d be
       0.32867888 0.1918496 -0.27014875 -0.23193882
0000b0 cb 66 40 3d 30 49 53 bd 41 1b df be 2f 99 5c be
       0.04697303 -0.05158347 -0.4357548 -0.2154281
0000c0 98 43 22 3e 70 89 d9 be 32 b8 4d 3e b1 f4 07 3e
       0.15846097 -0.4248767 0.20089796 0.13276936
0000d0 3e 09 3b 3e 1c 15 f7 3e 50 21 39 3d 15 30 c1 be
       0.18265244 0.48258293 0.045197785 -0.37731996

convs.0.offer__interacts__event.lin_rel.bias f4 [8]
000000 0d 14 bb 3e 9e 33 6a 3e cb bc 8c 3e ba 97 b8 be
       0.36538735 0.22871253 0.27487788 -0.36053258
000010 49 fb b9 3e 54 96 d1 3d 5f d4 03 3e e2 ff 84 be
       0.36324528 0.10233751 0.12873982 -0.25976473

convs.0.offer__interacts__event.lin_root.weight f4 [8, 27]
000000 da 8f 49 3c ef 6f 5e 3e 13 f0 96 3d 2c e7 7a 3d
       0.012302363 0.21722387 0.07370009 0.06125562
000010 d9 3f 28 3e 9f 06 19 3e 8e 18 fe 3d e5 99 2d be
       0.16430606 0.14943932 0.12407027 -0.16953237
000020 e1 5f 28 3e 99 7d de bd fa 95 b4 bb fc d2 d5 3d
       0.16442825 -0.108637996 -0.0055110427 0.10440633
000030 c4 6c 17 be e1 19 0d be 71 5c 44 3b f0 87 7a bd
       -0.14787585 -0.13779403 0.0029962326 -0.061164796
000040 32 24 80 3d a2 77 49 bd 9a 69 bc 3c f0 eb 00 3e
       0.06256904 -0.049186356 0.022999573 0.12590003
000050 9e f4 54 3e 02 3a 5c bc e6 46 68 3e 28 5d 6e be
       0.20796439 -0.0134415645 0.22683296 -0.23277724
000060 00 82 3f 3d 6a d1 1d bd 90 6e 97 3e a4 91 1f bc
       0.046754837 -0.03852979 0.2957654 -0.009739313
000070 8f 71 0b be 65 86 64 be 42 34 d5 be e3 70 a6 be
       -0.13617538 -0.22316892 -0.41641432 -0.32508
000080 fb bd 26 be 7f 04 d4 bd 3d db fe 3d af 79 a9 bd
       -0.1628341 -0.1035242 0.1244416 -0.082751624
000090 27 dc 51 be 30 da 8e 3e 52 30 8a 3e 55 31 b2 3c
       -0.20494138 0.2790084 0.2698999 0.021752039
0000a0 fd 44 60 bd 0c e9 4e bd 8e 55 28 bd 93 af d7 bd
       -0.054753292 -0.05051522 -0.041097216 -0.10531535
0000b0 a0 69 c3 bd ff 60 c0 bc ed 7d 8f 3c cc c6 39 be
       -0.09541631 -0.023483751 0.0175161 -0.18142241
0000c0 05 50 ac 3d bc b2 3d be 5f 72 ed bd ae df 27 be
       0.084137 -0.18525213 -0.1159408 -0.16393921
0000d0 f9 eb 4c be c5 38 3f bd d2 21 64 3e 9c b4 5b 3d
       -0.20011891 -0.046685 0.22278526 0.05363904
0000e0 ea a6 1f 3e dd f1 b4 3e 78 21 58 3d 94 5e 4c 3e
       0.15591016 0.35340777 0.052766293 0.19957954
0000f0 f4 be 57 3e 24 3d ab be 11 41 d2 3c 33 aa 40 3e
       0.21068937 -0.33445084 0.025665792 0.18814926
000100 33 05 ab be 9a bd 3f be d0 40 58 3c e2 f4 dd bc
       -0.33402404 -0.18724671 0.013199046 -0.027094308
000110 6b a4 60 be 06 c8 86 be be 71 55 be 4f 5f ac bc
       -0.2193772 -0.2632448 -0.2084417 -0.02104154
000120 73 be 38 3d f4 fa ab 3d a1 f2 ec bd fb c5 b9 be
       0.0451035 0.08397475 -0.11569715 -0.3628386
000130 f4 f1 d3 3d cf dc ac be 49 49 d7 3c f8 42 1e be
       0.10348883 -0.33762214 0.026280062 -0.15455234
000140 dc 19 e9 3d be 51 88 3e 0e 42 5a 3e 0d bb 6a 3d
       0.113818854 0.26624864 0.2131426 0.05730729
000150 ca 52 b4 3e 32 f8 99 3e f8 9d 44 be 14 f9 65 bd
       0.35219413 0.3007217 -0.19200885 -0.056145743
000160 f1 ed 7b be ec 43 c6 3d bb 24 8a bd 20 1a fc bd
       -0.24602486 0.09680924 -0.06745287 -0.123096704
000170 64 61 20 be d7 fe 3c be 8c 39 69 3d ff b5 62 bc
       -0.15662152 -0.18456589 0.056939647 -0.013837337
000180 e4 7a 1a be 91 08 8f bd 48 ad 81 bd 77 f7 f3 bd
       -0.15085942 -0.06984056 -0.06331879 -0.119124345
000190 1b 73 33 be 0c 0e 3e 3e 83 c0 cf bd 4e 08 24 be
       -0.17524378 0.18560046 -0.101441406 -0.16018793
0001a0 87 82 92 3d 5d 83 51 bd 85 69 65 3d 87 bc f6 bd
       0.07153802 -0.05115067 0.056008834 -0.120476775
0001b0 22 c7 69 be a1 b1 42 be 99 00 b3 bc 6a bb 30 be
       -0.2282987 -0.19013073 -0.02185087 -0.17258993
0001c0 4c f3 42 be 42 b9 11 3d 8c c9 6b bc e1 3f bb 3e
       -0.19038123 0.035577066 -0.014391314 0.36572173
0001d0 b5 1d 42 be 74 83 e2 3b 2b 37 c2 3c 3b ea 80 3e
       -0.18956645 0.006912643 0.023707947 0.25178704
0001e0 14 bd 22 3d 5d 8d a9 3e d0 4d 66 3e 08 45 df 3d
       0.0397311 0.33115664 0.2249062 0.109018385
0001f0 36 8d c0 bd 91 57 a1 bd b1 7c c2 bd 35 69 65 be
       -0.09401934 -0.0787803 -0.09496439 -0.22403415
000200 31 78 c4 bc 94 58 02 3e b8 c1 be bd e9 ab f5 3b
       -0.023983093 0.12729102 -0.09314293 0.0074973
000210 30 ba 42 3e cc 92 9c bd eb bf 92 3d 6f 05 0d 3e
       0.19016337 -0.07645187 0.07165512 0.13771604
000220 8f d1 c1 3d 59 88 18 3d b6 8f e2 3c 89 bf 20 3e
       0.09463798 0.037239406 0.027656417 0.15698065
000230 09 16 ea bc 88 92 88 3e 61 82 9a be 9d 29 93 3d
       -0.02857496 0.26674294 -0.30177596 0.071856715
000240 8d 5b 89 3e 67 40 a9 bd 29 c6 1b be 41 2b c8 3c
       0.2682766 -0.08264237 -0.15212311 0.024434688
000250 a1 12 53 3d 3c 73 88 3d f1 f5 6d 3d 98 86 86 3d
       0.051531438 0.06662604 0.058095876 0.065686405
000260 82 7b cb 3d f5 07 2c 3e 87 80 f9 3d 0f c2 14 3e
       0.099356666 0.1679991 0.12182718 0.14527152
000270 3a d0 c1 bd 4c 53 65 bd e0 3e 5f bd ad 91 88 be
       -0.09463544 -0.05598764 -0.05450332 -0.26673642
000280 0f ef 46 3e ea 72 3c 3c b5 93 8e be cd a9 d9 3d
       0.19427131 0.011502007 -0.27847067 0.1062809
000290 a3 9b 74 be d6 78 34 3e 9a 57 47 bd e1 72 e8 3d
       -0.23887496 0.1762422 -0.048667528 0.113500364
0002a0 8c 60 db bd 96 99 26 be a6 81 9f 3d 13 0b f9 be
       -0.10711774 -0.16269526 0.077884 -0.4864126
0002b0 fd 72 3d 3d 07 22 4a be 1c ed e7 be 26 d6 da 3e
       0.04625224 -0.19739543 -0.45298088 0.42741507
0002c0 43 9f a0 be 25 d3 42 bd 89 c8 62 bd 03 e8 80 bd
       -0.31371507 -0.047564644 -0.055367026 -0.06294253
0002d0 64 eb 5c be 8c 24 97 be 54 90 a3 be b4 c2 86 3e
       -0.2157417 -0.2952007 -0.3194605 0.26320422
0002e0 ea 9c a7 be 48 b0 9b bc c3 8a 8a 3e cb b0 52 3e
       -0.32736903 -0.019004956 0.27058992 0.20575254
0002f0 4c 3b af be 0c 6a 30 be 81 6e 65 bd 3e 91 f0 bd
       -0.34224927 -0.17227954 -0.056013588 -0.11746453
000300 69 79 bd be 6c 3e cd bd ea fa e0 bd 21 9b ca bd
       -0.3700669 -0.10021672 -0.10985358 -0.0989287
000310 a9 06 86 3e e7 99 d9 bd 51 41 76 be 15 04 92 3c
       0.26176956 -0.10625058 -0.24048354 0.017824212
000320 1e 98 d0 3d 66 8d 1f 3e 13 f0 ba 3c e5 c4 1f bd
       0.10185264 0.15581283 0.022819554 -0.039006133
000330 1f af 2a 3e 68 73 84 bd 4b 9f cd 3d fc 4b 9e 3c
       0.16668366 -0.064673245 0.10040148 0.019323342
000340 9e de 4e bd f8 39 89 bd e7 6e dd 3d 79 65 31 bd
       -0.050505273 -0.0670051 0.108121686 -0.043309662
000350 0e 8f 07 be 7f bf 99 bc 8d 72 8f be 7c 33 79 bd
       -0.13238165 -0.01876807 -0.28017083 -0.060840115

convs.0.application__updates__application.lin_rel.weight f4 [8, 3]
000000 b2 8f 9f bd 1d 39 22 bd 8d 23 04 3f 14 43 40 3e
       -0.077910796 -0.03960525 0.51616746 0.18775588
000010 06 60 a4 3e 8b 00 8b be e0 81 0c bf bd 4c 32 be
       0.3210451 -0.27148852 -0.54885674 -0.17412086
000020 4b 92 8b be 55 f3 00 3f 0c 20 93 be ed b1 ef 3e
       -0.2726005 0.50371295 -0.28735387 0.46815434
000030 99 98 92 be 9b a9 b0 3e df 8e a1 be f6 a6 c7 be
       -0.28632048 0.345044 -0.31554314 -0.3899457
000040 44 16 3b be 4f cb 60 be 7b 79 b9 3e 7f a1 0a bf
       -0.18270212 -0.21952556 0.36225495 -0.54152673
000050 4c 75 29 be b0 c1 e7 bb 60 1a 91 3e 79 61 7f 3e
       -0.16548651 -0.00707265 0.28340435 0.24939527

convs.0.application__updates__application.lin_rel.bias f4 [8]
000000 97 85 e8 3d 2c e1 34 be cf 14 7a 3e fe 5b 1d 3d
       0.11353605 -0.17664021 0.24422 0.03841781
000010 a8 18 89 be 2c 1d 74 3e 9a db 0a bf af b5 8e 3a
       -0.26776624 0.23839253 -0.54241335 0.0010887886

convs.0.application__updates__application.lin_root.weight f4 [8, 3]
000000 b1 ef 04 3f 6f be 8d bd 1d 91 b3 be 0a 70 c2 be
       0.5192824 -0.06921088 -0.3507165 -0.37976104
000010 5c 46 d4 3b ee c4 c5 3e 3d b6 15 bf dd 0c 16 3f
       0.006478114 0.38626808 -0.584812 0.5861338
000020 cf e5 f2 3e c6 e4 59 3e cf f4 c0 3e 4c 58 cb bd
       0.47440955 0.21278676 0.37686774 -0.09928951
000030 d6 97 2f 3d 77 82 e7 3c 89 34 64 3d c8 8d 1a 3e
       0.04286941 0.028260453 0.055714164 0.15093148
000040 44 ec 19 3e 89 11 bb 3e 67 89 e9 be 9b 9a c2 3e
       0.15031534 0.36536816 -0.45612642 0.3800858
000050 78 68 d8 3d 48 11 09 bf 91 b1 03 3f 4f e8 8a 3e
       0.10566801 -0.53541994 0.5144282 0.27130362

convs.0.offer__updates__offer.lin_rel.weight f4 [8, 7]
000000 8c 90 91 3e f4 8c fb 3d 3e 55 d4 be 0d cd 8e 3e
       0.28430593 0.12282744 -0.41471285 0.27890816
000010 cb d6 98 be af 96 f7 3d 31 44 1d 3e d6 6e a6 bd
       -0.29851374 0.120892875 0.15358044 -0.08126609
000020 c8 32 c0 3d d4 ce d9 3d 9e 58 c3 be 16 a2 45 bd
       0.09384686 0.106351525 -0.38153547 -0.04825028
000030 04 f0 2f be 98 78 ad be 68 42 60 be 9a e8 9e 3d
       -0.17181402 -0.33881068 -0.21900332 0.07759209
000040 20 2f 63 3e f6 06 f6 bd 09 cf ac bd e2 00 5f be
       0.22185946 -0.120130464 -0.08437926 -0.2177768
000050 b8 3b 26 3e 90 99 9e 3e ee 8e bf be b4 36 f2 3d
       0.16233718 0.30976534 -0.37413734 0.1182684
000060 49 bf 44 be d9 09 fb 3e ab 7f 11 be d8 b4 d8 bd
       -0.19213594 0.4903095 -0.14208858 -0.10581368
000070 e8 33 4b bd f4 6b dc bd 15 6a cd 3d 4a c4 5f 3e
       -0.04961005 -0.10762778 0.10029999 0.21852222
000080 fd 18 f1 be 38 ed 8f ba b5 f4 46 be 90 0c 3f be
       -0.47089377 -0.0010980731 -0.19429286 -0.18657136
000090 31 05 3b be 2e e7 8b 3e fb 69 d0 be b3 28 dd 3d
       -0.18263699 0.27324814 -0.40705857 0.107987784
0000a0 65 7e af 3e 06 64 b6 be 11 88 92 be 6f f5 0b 3e
       0.3427612 -0.35623187 -0.28619435 0.13667844
0000b0 41 3b 2d be 22 eb ea be 33 8c 18 3f 08 85 33 bc
       -0.16917135 -0.45882517 0.5958893 -0.01095701
0000c0 bf 10 0c bd a4 01 fa 3e 6d 6a c2 bb 62 91 73 3e
       -0.034195658 0.48829377 -0.005933097 0.23785928
0000d0 3e d5 14 bd c0 54 ee be 45 08 0d 3e 26 fe 2f be
       -0.036336176 -0.46549034 0.13772686 -0.17186794

convs.0.offer__updates__offer.lin_rel.bias f4 [8]
000000 fb 19 88 be dd cf 70 3e 92 ee 87 be a1 41 86 be
       -0.26582322 0.23516794 -0.26549202 -0.26221946
000010 e4 11 9d be 3f fa 78 3e 03 76 b7 be 63 1b af bd
       -0.30677712 0.24314211 -0.35832223 -0.085501455

convs.0.offer__updates__offer.lin_root.weight f4 [8, 7]
000000 93 7c e7 3d 93 27 11 be 11 02 4c ba 61 18 c2 3e
       0.113030575 -0.14175253 -0.00077822903 0.37909225
000010 78 7d eb bd 5a 9f b1 3e e9 f2 be 3d d3 44 10 3e
       -0.11498541 0.34691888 0.09323675 0.14088754
000020 e6 fb 3b be 87 5c b2 be 77 d2 77 be 7a 20 b3 bd
       -0.1835781 -0.34836218 -0.2420138 -0.08746429
000030 bd 88 1f be dc 80 38 3e 9a 9a be be ea ef b3 3e
       -0.15579505 0.18017906 -0.37227327 0.35143977
000040 76 e1 54 be 08 21 de bb 52 cc 93 be f1 eb 3b 3d
       -0.20789132 -0.00677884 -0.28866822 0.045879308
000050 58 d7 a3 3d 4a 87 0b 3e a6 40 8e 3e 2e 11 43 3d
       0.08000058 0.13625827 0.27783698 0.047623806
000060 6e 88 20 be 23 83 e6 3e ba 43 b6 bd 95 90 bf 3b
       -0.15677044 0.45021924 -0.088996366 0.005846093
000070 78 8b c2 bd 36 bf 88 3e 55 58 82 be c8 2e a9 3e
       -0.09499258 0.26708382 -0.25458017 0.33043504
000080 91 8a 56 3d 3e 86 4e be 8c 0a a4 be ec 5f 2f be
       0.05237824 -0.20168397 -0.32039297 -0.17126435
000090 74 03 72 3e e4 f7 27 be 73 64 43 3e b9 41 2b be
       0.2363413 -0.16403157 0.19081287 -0.1672429
0000a0 ff 64 26 3e 6a 7e e7 bd a6 0b 8b be b5 fd 26 3c
       0.16249464 -0.113034084 -0.27157325 0.010192324
0000b0 40 c5 39 be ce 2b 1a 3e bf c3 06 3f 8f 4f 8d 3e
       -0.18141651 0.15055773 0.52642435 0.2759976
0000c0 ba 51 11 3e 69 ca 0f be 3f f6 e6 3d be 22 54 3e
       0.14191332 -0.14042057 0.112774365 0.20716378
0000d0 0d 18 d0 3e 9d ed 32 bf 1e d9 01 3e 6c 93 90 be
       0.4064335 -0.6989382 0.1268048 -0.28237474

convs.1.event__follows__event.lin_rel.weight f4 [8, 8]
000000 ae ed 3e be 68 2b a4 3e 0b 1b db be 14 7f 89 be
       -0.18645355 0.32064366 -0.4279407 -0.26854765
000010 12 bf 82 3e c3 cb ca 3c 85 1d 94 be 0e ce c7 bd
       0.255364 0.024755364 -0.28928772 -0.09756099
000020 b2 2a 5d bd 32 b3 b4 3d a8 d8 ed be c3 2e b1 be
       -0.053995796 0.08823241 -0.46454358 -0.3460599
000030 64 4b 8b bc ce 70 d7 be bb 07 65 be 91 32 76 3e
       -0.017003722 -0.4207825 -0.2236623 0.24042727
000040 bc ff 38 be 53 57 b1 be d4 45 08 3f c4 fc 9e be
       -0.18066305 -0.34636936 0.5323155 -0.3105222
000050 8b a7 60 3e 9b ae b4 3c b0 a8 98 bd a0 bd a0 3d
       0.21938913 0.022055915 -0.074540496 0.07848668
000060 eb f4 b5 3d 31 e9 86 bd fb 99 5f bd 45 93 b3 3e
       0.08884605 -0.065874465 -0.054590207 0.35073295
000070 4a 26 0f 3e a1 73 05 bb 2f 4c 91 be 02 5b cc 3d
       0.1397945 -0.002036311 -0.28378436 0.09978296
000080 7e 05 90 3e 5a 4c 6f be ac 3b 0c 3f 7e 64 94 3e
       0.2812919 -0.2336897 0.5477855 0.2898292
000090 c6 f6 b3 be 99 ce f0 bd 72 f9 93 3e 97 b2 da bd
       -0.3514921 -0.117581554 0.2890125 -0.106785946
0000a0 be 3b 9a 3d bb 4d a4 3e 63 20 db 3e b6 36 c5 3e
       0.07530926 0.32090554 0.42798147 0.38518304
0000b0 59 be 45 be d0 eb b2 bd 2f 77 9c 3e b6 af fe 3d
       -0.19310893 -0.08736384 0.3055968 0.12435858
0000c0 e7 da a1 bd 0e 12 7b 3d 5b b6 06 bf 16 63 a6 be
       -0.079030804 0.061296515 -0.52622 -0.32497472
0000d0 19 73 c8 bd e6 2c f6 3d 01 d9 2d bd 76 32 9d 3e
       -0.09787578 0.120202824 -0.04244328 0.3070256
0000e0 54 7b 64 be 9d 93 3c be 10 30 1f 3e 33 22 25 3d
       -0.22312671 -0.18415685 0.15545678 0.040315818
0000f0 74 4e 56 be 6d 2a 79 bc 9d de 9a 3d b0 34 8b 3e
       -0.20928365 -0.015207869 0.07561991 0.27188635

convs.1.event__follows__event.lin_rel.bias f4 [8]
000000 1c 61 de bc 1c 08 26 3e 72 c2 7f bc d0 dc 6c 3d
       -0.027145915 0.16214031 -0.015610324 0.05782777
000010 7d 5f 28 3e a5 d7 f9 3d 84 6f 08 3e d7 17 70 3d
       0.16442676 0.12199334 0.1332379 0.058616485

convs.1.event__follows__event.lin_root.weight f4 [8, 8]
000000 9d e7 0b 3d 5d 1c 6e be f7 33 68 3d c8 13 3b be
       0.03415643 -0.23253007 0.056690183 -0.18269265
000010 43 83 bd 3d 1b d0 94 3d 7d 9f 6b be 87 b4 96 bd
       0.09253552 0.072662555 -0.23010059 -0.073586516
000020 0d db bf 3e 40 a9 a3 3d dd 94 2d be a4 ce 6a be
       0.3747181 0.07991266 -0.16951318 -0.2293039
000030 ec 5e 5a be 7d 93 90 be 88 31 d6 3d c5 ea 38 3e
       -0.21325272 -0.28237525 0.10458666 0.18058307
000040 4b 02 4f 3e 03 55 8e 3e 9f 2f 04 3f 58 7f 3e bd
       0.20215718 0.27799234 0.51635164 -0.046508163
000050 36 dd 9a 3e e5 63 f5 3e b3 cb 90 be 2d 4a 39 3e
       0.30246896 0.47927776 -0.2828041 0.18094702
000060 21 1f 9a be 87 b3 97 be c6 11 c2 3e 15 57 46 be
       -0.30101874 -0.29629156 0.37904185 -0.19369157
000070 50 a2 4c 3c af 4f 27 3e 3c 14 17 bd 60 06 74 be
       0.01248987 0.1633899 -0.03688453 -0.23830557
000080 7f 9b 3a 3e 56 58 6d 3e 6c dd 46 3d b2 c6 48 3d
       0.1822338 0.23178229 0.048551008 0.049017616
000090 68 b5 b2 be 58 7b a8 bd 0e 43 00 bc ab d8 33 bd
       -0.34904027 -0.08226651 -0.007828487 -0.043907803
0000a0 c7 a0 eb bd ab c3 85 3d 2b 89 6b 3e 9d 25 b5 bd
       -0.11505275 0.06531461 0.23001544 -0.08845065
0000b0 fc d4 0c 3e 3d 63 b9 3d 96 bc 01 be d9 e3 44 bd
       0.13753122 0.09052131 -0.12669596 -0.048068855
0000c0 6c 83 fd 3d 29 c6 a4 bd 2d 09 e9 be cb 80 45 be
       0.12378582 -0.080456086 -0.45514813 -0.19287412
0000d0 c0 e5 72 3e 01 d3 b4 be a7 f5 03 3e fe 1b 3b 3d
       0.23720455 -0.35317233 0.12886678 0.045680992
0000e0 d7 f2 94 bd f3 13 22 3e 46 b3 88 be 86 0e 92 be
       -0.072728805 0.15827923 -0.26699275 -0.28526706
0000f0 de 86 93 3e af d8 79 be 1a 19 48 3e 22 c3 82 bd
       0.28813833 -0.24399064 0.19540825 -0.06384875

convs.1.application__interacts__event.lin_rel.weight f4 [8, 8]
000000 f4 11 9d be 0f 7d 6e be ef 90 e9 bc e2 b2 13 be
       -0.3067776 -0.23289894 -0.028511493 -0.14423707
000010 e2 bb 38 3d c2 68 40 be 74 24 63 be 4e f6 de 3d
       0.045101054 -0.18789962 -0.22181875 0.10886823
000020 72 b8 ab 3d c3 f4 a8 3e c9 c2 e4 bb 4b 0a 52 be
       0.083847895 0.32999238 -0.006981228 -0.20511739
000030 63 7b b1 3e 78 9f cf bd 7e 34 37 3d 7c ec 9c bd
       0.3466445 -0.10137838 0.044727795 -0.07662293
000040 d4 15 b6 3e b9 9c b3 3d 01 5e 0f 3e 96 91 74 3e
       0.3556353 0.08770127 0.14000703 0.23883662
000050 b1 b9 14 3e 4a b5 a7 3d e7 ef 94 be ac 29 30 3d
       0.1452396 0.08188875 -0.2908928 0.04300849
000060 fc e6 e8 bc 3e dd 22 bd e8 b1 70 3e 57 da da bd
       -0.028430454 -0.039761774 0.23505366 -0.10686176
000070 9d 74 04 be 5d 0e 0a be 0e 54 fe bc c5 ad e1 3d
       -0.1293511 -0.13482042 -0.03104594 0.11019472
000080 12 cf f4 bd 14 e0 19 bd eb d8 d3 3d 49 49 be 3e
       -0.11953558 -0.037567213 0.10344108 0.37165287
000090 92 73 72 3d 0c be ce 3e 7a f4 8f 3e 2c 9c 08 3e
       0.059192248 0.4037937 0.28116208 0.13340825
0000a0 90 07 be 3e 9a 50 51 3e 87 26 84 bd f5 3f 6d 3e
       0.37115145 0.20440903 -0.06452661 0.23168929
0000b0 51 bd 5c 3d 0a d4 1d be 67 d8 ed 3d f3 a3 c2 bd
       0.053891484 -0.15412918 0.11613541 -0.09503927
0000c0 a3 30 69 3e 73 4a 35 3e 0a c5 84 3e 15 5e 96 be
       0.2277246 0.17704181 0.2593158 -0.29368654
0000d0 6c 95 b9 3d 14 93 27 3e 7c 42 b4 be a1 f5 f4 3c
       0.09061703 0.163647 -0.35206974 0.029902281
0000e0 1f 6c d3 bd 8a 50 b6 3e ca e7 82 bd 52 f0 52 be
       -0.10323357 0.3560832 -0.063918665 -0.20599487
0000f0 b7 ff 4a 3d d8 cf 37 be 40 35 59 be 8a 94 a2 3e
       0.049560275 -0.1795038 -0.2121172 0.3175395

convs.1.application__interacts__event.lin_rel.bias f4 [8]
000000 7c 66 92 bd 83 a9 64 3e 11 9b 85 be 86 f0 a4 be
       -0.071484536 0.22330289 -0.2609487 -0.32214755
000010 81 ad 74 bd a4 f8 66 bc 68 49 87 be de 80 0e 3d
       -0.05973578 -0.0140973665 -0.26423192 0.034790866

convs.1.application__interacts__event.lin_root.weight f4 [8, 8]
000000 e3 1f 8e 3e 10 27 b2 3e e1 57 28 3e 4e 55 91 3e
       0.27758703 0.34795427 0.16439773 0.28385395
000010 39 09 ae 3e 40 b6 a3 bd 3a 2d 71 3e 25 5d 0b 3e
       0.3399141 -0.07993746 0.23552409 0.1360975
000020 a8 d3 90 3e 30 af 58 bd 99 c1 07 bf f4 bc 39 bc
       0.2828648 -0.052901447 -0.5302978 -0.011336554
000030 92 35 17 3e ab 5f e3 be cb ea 99 bd df 7b e9 3e
       0.14766529 -0.44408926 -0.07515486 0.4560232
000040 58 a8 0e 3e a2 02 f5 bd c5 12 c0 3e 55 1f f0 3d
       0.13931406 -0.11963393 0.3751432 0.11724726
000050 6d 27 9a be 4f ff 73 3e a8 f2 76 be 21 62 e2 be
       -0.30108204 0.23827861 -0.24116004 -0.4421549
000060 99 8d 8a 3e 9a 16 2b 3e 09 86 e4 3e b8 c8 bd 3d
       0.27061155 0.1670784 0.4463351 0.092668
000070 89 58 6c be 71 36 89 3e c2 28 a5 bd 1c dd 9d be
       -0.23080648 0.26799348 -0.080644146 -0.30832756
000080 8a 3c 28 3e 51 bd 9d 3e 68 fd db 3e 8c 36 41 3d
       0.16429344 0.308085 0.4296677 0.04717116
000090 61 ef 74 be 96 01 4c 3e 6b 52 82 be 27 cb 02 be
       -0.23919441 0.1992248 -0.25453505 -0.12772809
0000a0 27 f6 59 3e a4 1a a0 be 02 5c 93 3e 90 a0 a1 be
       0.21285306 -0.31270325 0.28781134 -0.31567812
0000b0 2b 93 f0 bd 0b e0 46 3d 00 53 b3 be 84 87 05 be
       -0.1174682 0.048553508 -0.3502426 -0.13039976
0000c0 27 b8 b0 3d da bd 81 3e 7b 90 c3 be ae 71 c6 be
       0.08628874 0.25340158 -0.38196167 -0.38758606
0000d0 b1 1b 8d 3e 1a 19 1d 3e d3 80 32 bd e4 0f 5d 3d
       0.2756019 0.15341607 -0.043579888 0.053970233
0000e0 45 ef 99 3e 1e 94 b7 3e d3 7b d3 be db d0 ce be
       0.3006536 0.35855192 -0.41305408 -0.4039372
0000f0 f5 38 25 3e bd f4 e6 3d a7 df 1d be 44 2d a4 3e
       0.16135009 0.11277149 -0.15417348 0.32065785

convs.1.offer__interacts__event.lin_rel.weight f4 [8, 8]
000000 ac 38 8c be ba e9 bc 3e 34 14 1f bd fa b2 7e be
       -0.27386987 0.3689707 -0.038837627 -0.24872962
000010 51 ba c5 3d db 29 5e 3e c8 56 df bc aa df 0c be
       0.09654678 0.21695654 -0.02726306 -0.13757196
000020 34 33 3b be 8a f2 bb 3e 5a a5 9b be 55 9a f1 3d
       -0.18281251 0.3670848 -0.3039959 0.117970146
000030 06 ef 53 be 02 9d ce 3d bb 3d ca 3d b4 52 d8 3c
       -0.20696649 0.100885406 0.098750554 0.026406623
000040 33 8b be 3e 46 26 f8 3d 85 c1 11 be 67 da a9 bb
       0.37215576 0.12116675 -0.14233978 -0.0051835063
000050 40 79 ae 3e 6c d2 af be 11 89 db be 42 74 82 3e
       0.3407688 -0.34340227 -0.4287801 0.25479323
000060 63 11 ac 3e b4 28 9c 3e 47 a0 b1 3d f4 9b 9b be
       0.33607015 0.30499804 0.086731486 -0.3039242
000070 5f fd 08 be b5 c7 1f be 33 e9 9f be fa 5e c4 3e
       -0.13377903 -0.15603526 -0.31232604 0.3835371
000080 0f cb ae 3e 66 9e 6e be 1e 78 4b be 5f cd e2 3c
       0.34139296 -0.23302612 -0.1987004 0.02768582
000090 90 86 a5 3b 8c df 41 3e 96 f5 bc be fb 33 a9 3e
       0.0050514415 0.18932933 -0.36906117 0.3304747
0000a0 c0 7a 8d 3c f7 b6 6c 3e 16 b1 42 bd f3 eb b7 be
       0.017270446 0.2311667 -0.047532164 -0.35922202
0000b0 b5 7f 85 3e 7c 16 dd bd ed a9 16 be d1 d1 d8 3e
       0.26073995 -0.10795304 -0.14713259 0.42347577
0000c0 68 2f 81 3d 33 58 cc bd 0e dd 2b be bb 69 80 3d
       0.0630787 -0.0997776 -0.16783544 0.062701665
0000d0 5b a5 76 be 03 69 25 3e 9b 46 bf 3e ad 4b d7 bd
       -0.24086516 0.1615334 0.37358555 -0.10512481
0000e0 bd e6 79 3e 9d 69 78 3d 4c 1f 5b 3c 9e 2e 49 be
       0.24404426 0.060647596 0.013374161 -0.1964669
0000f0 c1 7b ae be 5a 1d a0 3d 96 bd 18 3e d6 ef b2 3b
       -0.34078792 0.07818098 0.14916071 0.0054607196

convs.1.offer__interacts__event.lin_rel.bias f4 [8]
000000 f3 42 31 bd fc 57 10 be 58 ec 94 be ca 72 98 be
       -0.04327674 -0.14096063 -0.29086566 -0.29775077
000010 79 75 90 3e 17 b4 dd bd 5e d4 80 be ae 93 c4 bd
       0.28214625 -0.10825365 -0.25162023 -0.0959848

convs.1.offer__interacts__event.lin_root.weight f4 [8, 8]
000000 0f d3 bc 3d f4 b4 01 be 0a 64 54 3d 10 02 7a be
       0.09219944 -0.12666684 0.051853217 -0.2441485
000010 08 23 c3 3e f7 25 e9 be 20 d7 84 3e 1a 0d 90 3d
       0.38112664 -0.45536777 0.25945377 0.07033749
000020 73 30 2a 3b 31 38 89 3e f4 95 97 bd 78 0f 53 3e
       0.002596882 0.26800683 -0.07401648 0.2061137
000030 28 c6 12 3e d2 fc 01 be 45 c7 e5 bd e6 a0 d1 3e
       0.14333403 -0.126941 -0.11219648 0.40943068
000040 c1 42 5f 3e 8c 26 e3 3d 10 af f3 3d 37 b3 ba bd
       0.21802808 0.110913366 0.11898625 -0.09116214
000050 17 87 1e be 8f 35 b2 3e e6 c1 81 be 25 f6 06 3e
       -0.1548122 0.34806487 -0.25343245 0.13179834
000060 f4 d1 60 3e ab 78 bd bc 28 af ae bd ec 1d 93 be
       0.21955091 -0.023128828 -0.08529502 -0.28733766
000070 56 1b 2b be 42 ac 91 3e b4 b7 f9 bc fb a9 8d be
       -0.16709647 0.28451735 -0.030483104 -0.27668747
000080 22 0f 29 be d5 da 89 3c 4e 02 1f 3f 2a 0b a4 be
       -0.16509679 0.01682798 0.6211289 -0.32039768
000090 e4 ab 88 be 80 b4 f7 3d 45 91 92 be 6f 6e d7 be
       -0.26693642 0.120949745 -0.28626457 -0.42076442
0000a0 37 cd 9f 3e 89 0b 83 be 1b 6f 9d bd 1c cc ae be
       0.31211254 -0.25594738 -0.07687207 -0.34140098
0000b0 48 30 8b be e3 19 9a bd cc f7 c1 3c 42 c5 b9 be
       -0.27185273 -0.07524469 0.02367773 -0.36283308
0000c0 f5 7a 77 bc 75 db 03 3e 6a da 8d be d6 69 02 be
       -0.015104999 0.12876685 -0.277057 -0.12735686
0000d0 b9 eb f8 bd be df 91 3d 13 6a d4 bd e8 f7 19 be
       -0.121543355 0.071227536 -0.103717946 -0.15035975
0000e0 2c c9 47 be c4 42 9a be 41 a8 6a be d6 6a e1 bd
       -0.19510335 -0.30129063 -0.22915746 -0.110067055
0000f0 37 eb 39 3e 5e 23 0a be fb 18 bd 3e f7 70 9e 3d
       0.18156134 -0.13490054 0.3693312 0.0773639

convs.1.application__updates__application.lin_rel.weight f4 [8, 8]
000000 79 21 29 bc e2 38 f7 39 55 d7 e6 bd fc 78 6f 3e
       -0.010322922 0.00047153892 -0.1127154 0.23385996
000010 25 8f 35 3e 76 66 2f be 7e 12 3c 3e e0 ce 4c be
       0.17730387 -0.1712893 0.18366429 -0.20000792
000020 f6 93 83 bc 1a 28 8d be 7e cd b5 bd ae d2 8a 3e
       -0.016061764 -0.27569658 -0.08877085 0.2711386
000030 e3 d0 0a bc 72 9f e9 3d 33 b1 eb 3d b2 eb 14 3e
       -0.008472654 0.11407365 0.115084074 0.14543036
000040 20 c4 06 3e fa 6d 0c be 03 70 03 be fa 90 ab 3e
       0.13160753 -0.13713828 -0.12835698 0.33509046
000050 dd 41 7d be b2 f0 8c be a5 ff 60 be ff 8a 92 3e
       -0.24732156 -0.27527386 -0.2197252 0.2862167
000060 11 c7 9d be 5b 08 8a be 57 ec 1e be e2 65 87 3e
       -0.30815938 -0.269595 -0.15519844 0.26444918
000070 9d e6 ae be a2 ed 4a bd e2 da 24 3e 7b 9b 34 be
       -0.3416032 -0.04954303 0.16099122 -0.17637436
000080 69 00 ad 3e 64 e1 7b be 64 2a 3c 3e 04 00 ed 3d
       0.33789375 -0.24597698 0.18375546 0.115722686
000090 7f 2c 8c be 3c 00 a5 3e bd 76 8d be e1 b1 e4 3c
       -0.27377698 0.3222674 -0.27629653 0.02791685
0000a0 18 42 b9 3d 9d b7 01 bd 5c 6d a4 bc 32 95 a1 be
       0.090458095 -0.031669248 -0.020071678 -0.3155914
0000b0 9c 09 85 bd 4c f9 ee bd e2 d0 ad 3d 98 30 30 3e
       -0.064959735 -0.11668643 0.08487107 0.17206037
0000c0 06 0e a8 3e 66 68 96 be e7 84 90 3e d6 f5 de 3d
       0.328232 -0.29376525 0.28226396 0.10886733
0000d0 ed 81 93 3e 31 7d 9e be 81 6d 6c be df fc 9a be
       0.28810063 -0.30954888 -0.23088647 -0.3027105
0000e0 95 7b 54 3e c3 b6 29 3b d6 b8 ed bd 40 ed 04 bc
       0.20750268 0.0025896288 -0.1160752 -0.008113205
0000f0 7b 44 91 bd c0 30 7c bd ef 8c b1 be 57 64 a6 be
       -0.0709314 -0.06156993 -0.34677836 -0.32498428

convs.1.application__updates__application.lin_rel.bias f4 [8]
000000 f8 bf 82 3e 83 37 73 bd 08 98 9a 3e 74 7d 66 3d
       0.25537086 -0.059379112 0.30194116 0.056271985
000010 a2 4b 5c 3e 32 37 40 be 80 88 4b be 0e 72 54 bd
       0.21513227 -0.18771055 -0.1987629 -0.051866584

convs.1.application__updates__application.lin_root.weight f4 [8, 8]
000000 fb 00 b3 3d 97 21 67 3d b5 7e e7 3c 4c f9 77 be
       0.087404214 0.05642852 0.02825866 -0.24216193
000010 ad 4b 21 3c 78 3e 5f 3e c4 cb 55 3e 01 e3 34 be
       0.009844703 0.21801174 0.20878512 -0.1766472
000020 1d a8 8e 3e 6e ca 60 be 66 4f 92 be 23 5e 9b 3d
       0.27862635 -0.21952221 -0.285762 0.075863145
000030 ef fd 25 bd 33 44 24 be c5 8e a1 3e 93 46 40 be
       -0.040525373 -0.16041641 0.31554237 -0.18776922
000040 bf dd 6b 3d fe f3 93 3e 64 66 04 be d2 5f 91 3e
       0.05758452 0.2889709 -0.12929684 0.28393418
000050 a3 76 65 be c9 62 4e 3e d4 cc 0d be e4 67 61 3e
       -0.22408538 0.20154871 -0.13847667 0.22012287
000060 0e d3 86 be c7 59 4e be 63 f1 a1 3e e8 1d c2 bd
       -0.26332897 -0.20151435 0.31629476 -0.094783604
000070 dd 07 ec bb f0 30 99 be fa 39 44 be a4 80 32 3d
       -0.007203086 -0.2992015 -0.19162741 0.043579713
000080 b5 31 6e bc b9 af 60 be 6e 19 8d 3e 47 65 4d 3e
       -0.014538218 -0.21942033 0.27558464 0.20058165
000090 e6 99 58 3e 60 42 98 bb ac 81 17 be 8b a9 c7 3d
       0.21152458 -0.0046465844 -0.1479556 0.09749135
0000a0 46 23 53 3e 9e 46 6f be 8b 8d 29 be d4 69 a7 3e
       0.20618924 -0.23366782 -0.165579 0.32697928
0000b0 f7 28 9d 3e 36 ec 1d 3d 04 8e 15 be c8 b8 80 3e
       0.30695316 0.038555346 -0.14604956 0.25140977
0000c0 65 a1 0b 3d e8 49 99 bc 32 05 c3 bd 2a 58 1a 3e
       0.034089465 -0.018711999 -0.09522475 0.15072694
0000d0 e6 d9 7f 3e 4c 51 ab be 13 e6 90 be aa f3 a6 3e
       0.24985465 -0.33460462 -0.28300533 0.32607776
0000e0 1b bf 3e be 6a 9b a3 3e 69 60 2a 3e c7 63 31 3e
       -0.18627588 0.3195451 0.1663834 0.17323218
0000f0 1d 8b 15 3e 4d 3e 82 3e 26 77 f8 bd 0f 0a 56 bd
       0.14603849 0.25438157 -0.12132101 -0.052255686

convs.1.offer__updates__offer.lin_rel.weight f4 [8, 8]
000000 16 74 dd bd 7a e9 1a 3e ee 3c 86 be 54 fa 93 be
       -0.10813157 0.15128127 -0.2621836 -0.28901923
000010 df a0 aa be 2b 01 be 3d f6 4c 3c 3e 36 28 e0 bd
       -0.3332586 0.092775665 0.18388733 -0.1094517
000020 4f e6 50 3c e8 9a 71 be 8e e3 74 3d 34 14 16 be
       0.012750222 -0.23594248 0.059787326 -0.14656144
000030 7a 44 29 bc bc 21 da bd 04 67 57 3d 86 fe d9 3d
       -0.0103312675 -0.106509656 0.052588478 0.106442496
000040 04 a9 a1 3e 2e 07 87 3c 6f 85 39 3e c1 b7 6f 3e
       0.3157426 0.016482916 0.18117307 0.2340994
000050 95 e7 79 be ad 47 d4 3d f8 c4 90 bc fb 95 85 3e
       -0.24404748 0.103652336 -0.017672047 0.2609099
000060 21 fe 80 3e e3 bd b6 bd 29 19 29 be fd d8 a1 be
       0.25193885 -0.08922937 -0.16513504 -0.3161086
000070 30 74 28 3e 57 7d 3c be eb aa d3 3c 7c ef a8 be
       0.16450572 -0.18407188 0.025838336 -0.32995212
000080 a2 73 ad bd 1e 83 b3 be 84 25 35 be c8 c9 cc 3c
       -0.08469321 -0.35060972 -0.17690092 0.02499856
000090 da 42 95 be e9 cf 7d 3e ce de 9c 3e 6f a1 99 3e
       -0.29152566 0.24786343 0.30638736 0.30005977
0000a0 eb e7 87 3e da f6 2f be ae 2a cc bd f1 0e 1c be
       0.26544127 -0.1718401 -0.09969078 -0.15240075
0000b0 7b 62 23 3e d9 f0 a0 3e 5d d2 4a 3e 84 6e fb bd
       0.15955536 0.31433752 0.1980681 -0.122769386
0000c0 2f cb 87 be a8 47 e0 bc 68 f8 80 3c 74 c2 84 3e
       -0.26522204 -0.027377918 0.01574345 0.25929606
0000d0 90 46 36 be 8e 80 9f 3e 5c e2 3a 3d a7 1e 8b be
       -0.17800355 0.31152767 0.04562603 -0.27171823
0000e0 d8 e1 2a bd a7 06 19 3e 3e ff 74 3e 23 6f 1e bd
       -0.041719288 0.14943944 0.23925492 -0.038680207
0000f0 6e 02 11 be d1 27 f9 bd 8c 17 7c 3e ef 6e 66 3e
       -0.14161083 -0.121657975 0.24618357 0.22503255

convs.1.offer__updates__offer.lin_rel.bias f4 [8]
000000 8f 8d 90 3e 2f fb ac be 3a 44 30 be c1 88 73 3e
       0.28233 -0.33785388 -0.17213526 0.23782636
000010 37 37 79 3e 87 b1 df 3d 6a 5c 87 3e 06 9e c4 3d
       0.24337469 0.109225325 0.26437694 0.09600453

convs.1.offer__updates__offer.lin_root.weight f4 [8, 8]
000000 d3 b1 a9 bd fb 06 14 be c4 0f 9d 3e e0 9b 6d be
       -0.082858704 -0.14455788 0.3067609 -0.23203993
000010 8f 99 9c be fa 98 ca 3d 57 b3 39 3e 8a 7d 64 3e
       -0.30585906 0.09892459 0.18134819 0.22313514
000020 8c e6 60 be 5f 0e 04 be 9b 20 e5 3d ea 34 a8 3e
       -0.21962947 -0.12896107 0.111878596 0.3285287
000030 58 a7 e3 bd ae cc e4 3d 70 52 fe 3d cf 5c 8f bd
       -0.11115903 0.11171852 0.124180675 -0.07000124
000040 15 25 85 be dc 24 a3 3e 23 40 80 bd 8f fb 74 be
       -0.26004854 0.3186406 -0.06262233 -0.23924087
000050 73 02 86 3e 35 91 b0 be 57 f0 d4 bd dc f5 3c be
       0.26173744 -0.34485784 -0.10397404 -0.18453163
000060 7f 2d fd bd 93 14 97 be 3f e1 a2 3d 71 7d 98 3d
       -0.12362193 -0.29507884 0.079531185 0.07445801
000070 b5 10 39 bd 44 fb 22 3e 31 35 b2 3e 06 2f 28 3b
       -0.04518195 0.15916163 0.34806207 0.0025662794
000080 5f 0a 4f be e3 b1 64 be a9 d8 95 be 5c 01 b2 be
       -0.202188 -0.22333483 -0.2926686 -0.34766662
000090 82 7b c0 3d 0b 81 a0 be 8c 1e 99 be 47 de 6f 3e
       0.09398557 -0.31348452 -0.29906118 0.23424636
0000a0 0e cb 9f bd 3b 98 7c 3e ed 2d 77 bc c2 a2 1b 3e
       -0.078024015 0.24667446 -0.015086633 0.15198806
0000b0 5e 23 8b 3e 51 79 82 bd af d2 9a 3e e5 59 b4 3d
       0.2717542 -0.063707955 0.30238864 0.088062085
0000c0 ae cb 0d 3d fd 6d b1 be b0 ad e2 bc 38 ca 5b 3e
       0.034618072 -0.34654227 -0.027670711 0.21463859
0000d0 db 64 2c be 86 b7 cd bd ff d4 ad 3e 3a 56 41 be
       -0.16835348 -0.1004477 0.33951566 -0.18880549
0000e0 40 b1 a1 be 43 e5 87 3e 7a 20 27 be 53 da 34 3e
       -0.31580544 0.265421 -0.16320983 0.17661409
0000f0 ee cb 2e be c0 55 d8 3c e6 74 47 3e c0 e1 b3 3e
       -0.1706998 0.026408076 0.19478187 0.3513317

post_layers.0.event.weight f4 [1, 8]
000000 87 a8 6f be ec 2c d6 be 0e e8 d0 3e 6a 17 3f 3e
       -0.23404132 -0.41831148 0.40802044 0.18661276
000010 1c f3 c3 3e 9a fc d5 3e df 32 99 be 9b c7 1e be
       0.38271415 0.41794282 -0.29921624 -0.15505831

post_layers.0.application.weight f4 [1, 8]
000000 7c 18 93 bd b1 54 0e 3e c6 ea 07 be a7 83 74 be
       -0.071824044 0.13899495 -0.13273153 -0.23878346
000010 49 9a 80 be 25 86 b0 be 04 1f a5 be 1f dc 96 be
       -0.2511771 -0.34477344 -0.32250226 -0.29464814
