models/OTC/efg/exp_v2/no_subgraph_sampling/lr=0.01_hidden_dim=24/HigherOrderGNN_20230830_00h34m/state_dict_epoch11.pt (torch, 12491 bytes, 7 tensors)

convs.0.lin_rel.weight f4 [24, 20]
00000000: 6420 93bd 5fc4 1dbf 72ce 05bf 1e49 603e
00000010: 729a 783e 86db 433e 1311 d6be 3381 ccbe
00000020: ac7e adbe 2708 0ebf 0ccb 923f b8e3 7a3d
00000030: ea14 f43e e0f2 8cbd 02e7 4dbe 1e88 ec3e
00000040: c0a9 763e 4b9b 9ebe 2626 22be e4e6 103f
00000050: 638b 853c e4da 7439 68e2 a93d eb22 f23e
00000060: bd34 cdbe ecf4 1b3e e7e4 1e3f 7cc0 58bf
00000070: 0b34 843e 42f6 72bf 74d6 5e3e 544f 2d3f
00000080: 35b5 57be 20f0 1dbf 9928 2d3d 53ee debe
00000090: 7b9c 4c3e e7e7 c0bf 8ae7 bc3d 0bc1 40be
000000a0: 1b22 21bd 2d82 19be a064 eb3e 37ae b83e
000000b0: 0353 5ebe 3e38 253a 43a8 803e 8da4 c33e
000000c0: 375c e0be 0a98 ee3e c0cf b6be 5ab2 c23e
000000d0: c0ca 80bc 6161 62bf 5062 d93e 4d43 21bf
000000e0: 8b29 fe3e 6a84 8cbd e195 a1be 5dd0 d4be
000000f0: 6b9c 69bf 4601 9ebd aa89 173e 750a 0bbc
00000100: 216d 9abf 17b9 103f 486b 2e3e 0af8 163e
00000110: 262d c63e 15f7 463d 6305 d4be 4c9b 92bd
00000120: 6bea c73e 7cbf 453d 5bd2 9abd 5ddd efbd
00000130: a539 da3e f7ee 2bbd cd26 b0bd fcb5 a9be
00000140: 503a 333e 9f27 533f 248f 44bf 7d55 81be
00000150: bde4 053f 3733 3f3e 7ae0 ea3e 32fa 0c3e
00000160: 5dd9 453e 4b6e 763f 2d54 71bf 6197 423e
00000170: 15b1 40be 28ed 753d 1a80 83be b83a 5c3e
00000180: afc0 e4be ab6b adbd 6bbe fdbd 640f 5bbe
00000190: e406 63bc 635a 033e a8a0 fc3e 1801 ff3d
000001a0: a429 1e3f 0bac bd3c 5fa9 5b3e a981 94be
000001b0: 3cb4 803e 699e 0d3f c18f bd3e 879b 073d
000001c0: e25a 85be 4212 253f 67b1 1abf ab12 51be
000001d0: 715b 72bf 3421 8f3e 9765 dd3d 1996 833c
000001e0: 5624 de3e 00fd a73e 36ca 2c3f 81ff e73d
000001f0: 6d64 ac3e ca0a 013f b6f7 013f 7db5 fb3e
00000200: 04f7 193f 6250 aa3e d4d1 9a3f 0404 f5be
00000210: 3294 cbbe ac6f 2d3f 9b5d dcbe 9b18 1b3c
00000220: ea53 c63d 8d44 b7be c14c b03b bf18 c83e
00000230: 06cf 54bf 0469 903e 0571 f23c 72ec b4bb
00000240: a7c2 f7be 879c 1fbe 4b8d 3c3e e494 09bf
00000250: ca2d 1ebc 73a9 2a3e f445 82be 318b 083f
00000260: 030d a4bf bd7c 6abd 0cd4 f93e 0186 e0be
00000270: 7219 b1bf ab28 cc3e f164 48be 945b 2b3e
00000280: 3770 24bd 4d3e 79bf 885c 833e ce06 8cbb
00000290: 1064 1b3f a7ec 6a3f c8e3 093f b3d0 133e
000002a0: e27e c33e 4e2f c13e b58b 60be e4ee 61be
000002b0: d7a0 b6be d13e 25bf b191 953e bc52 113f
000002c0: 6564 dabe ccf9 083e 3224 07bf f912 cb3e
000002d0: aa65 80be 70d2 853f e954 62be dcac 9bbe
000002e0: 9ed8 003f 4a9c 803e fd11 2c3e 3bc0 223e
000002f0: 7d4d 583e 1222 07bd fcd2 973d 3d3e 113f
00000300: 35aa 1d3e 865f b0bd 6213 e1be 1d85 523f
00000310: b15d 94bf 2899 ed3d c555 39be 9910 ed3e
00000320: c421 863e 468b 5d3d 6503 443d 686e 60bd
00000330: dc3d c3bc b5a9 443d 906f a6bc 3516 17be
00000340: 0908 02be 7bec adbe 39de 6b3e 706f e43e
00000350: 33b4 a83e 699a cfbd 8b33 fabe bdf9 f9bd
00000360: bebe ab3d 0fef ed3d 1d20 de3e 8444 bcbd
00000370: 4d60 403d ffe8 e7bd 845e f2be 8182 8e3e
00000380: 2e1d 413d 7e40 7bbe 2ceb 0b3c 370f c6bd
00000390: 726b e73d 4cb1 22bf 6396 cabc 7f2d 8cbe
000003a0: af51 36bd ae1b f93e e23c 85bf 9803 923f
000003b0: 6e0c fc3e 5d6d db3c bd76 91be 4849 55be
000003c0: c047 243e 9708 02bf 072f c83e ed3d 48be
000003d0: ddab 00bc b12a f5be dbaa c1be e144 9ebe
000003e0: b85a 07bf 264d 17be 734e a43e cf8d 503f
000003f0: 673b 49be bef6 f9bf a6af 5f3f 9d76 623f
-0.071839124 -0.61627764 -0.52268136 0.21902892 0.24277666 0.1912671 -0.41809902 -0.3994232
-0.33885705 -0.5548119 1.1468215 0.061252326 0.47672206 -0.06882262 -0.20107654 0.461976
0.24088192 -0.30977854 -0.15834865 0.5660231 0.016301816 0.00023351196 0.08295137 0.47292265
-0.400793 0.15230149 0.6206803 -0.8466871 0.25820956 -0.9490701 0.21761495 0.6769917
-0.21065219 -0.61694527 0.042275045 -0.43541202 0.19981568 -1.5070771 0.0922385 -0.1882364
-0.039339166 -0.14991064 0.45975208 0.36070415 -0.21711354 0.0006302631 0.25128374 0.3821148
-0.43820354 0.46600372 -0.35705376 0.38026696 -0.015721679 -0.8842984 0.4245782 -0.6299332
0.4964107 -0.068611935 -0.3155966 -0.4156522 -0.912543 -0.07715087 0.14798608 -0.00848638
-1.2064553 0.56532425 0.17033112 0.14743057 0.3870632 0.04857548 -0.4141036 -0.07158527
0.39046034 0.048278317 -0.07559653 -0.117121436 0.42622104 -0.04197594 -0.08601151 -0.33146656
0.17502713 0.8248233 -0.76780915 -0.25260535 0.5230215 0.1867188 0.45874387 0.13767317
0.19321199 0.96262044 -0.9426907 0.19003059 -0.18817551 0.060040623 -0.2568367 0.21506774
-0.44678256 -0.08467802 -0.12389835 -0.2139259 -0.013856623 0.12827449 0.4934132 0.124513805
0.6178229 0.023153326 0.21451329 -0.29005173 0.25137508 0.5531984 0.37023738 0.033107307
-0.260459 0.64480984 -0.60426944 -0.20417278 -0.9467078 0.2795502 0.10810392 0.016062783
0.43387097 0.3281021 0.6749605 0.113280304 0.3367037 0.5040709 0.507686 0.49161902
0.6014254 0.33264452 1.2095284 -0.47854626 -0.39761502 0.6774852 -0.43040165 0.009466316
0.09683974 -0.35794488 0.0053802435 0.3908138 -0.8312839 0.2820512 0.029594908 -0.0055213505
-0.48390695 -0.15587054 0.18413274 -0.53742814 -0.009654472 0.16666202 -0.25443995 0.5333739
-1.2816471 -0.057247866 0.4879459 -0.43852237 -1.383589 0.39874777 -0.19569756 0.16734153
-0.04014608 -0.9736069 0.25656533 -0.004273272 0.6069956 0.9176735 0.5386319 0.14435081
0.3818274 0.37731403 -0.21928294 -0.22063786 -0.35669586 -0.64548975 0.29212716 0.5676687
-0.4265472 0.1337654 -0.52789605 0.39662912 -0.25077564 1.0454845 -0.22102703 -0.3040532
0.5033053 0.2511924 0.16803737 0.15893643 0.2112331 -0.032991476 0.07413289 0.56735593
0.1539696 -0.0861197 -0.439601 0.82234365 -1.1591092 0.11601478 -0.18099125 0.46301726
0.26197636 0.0540879 0.0478548 -0.05479279 -0.023833208 0.048013408 -0.020316869 -0.14754565
-0.12698378 -0.33969483 0.2303399 0.4461627 0.3294998 -0.10136873 -0.4886745 -0.12205837
0.083859906 0.116178624 0.43383875 -0.09192756 0.04696684 -0.11323737 -0.47337735 0.27833942
0.04714697 -0.2453632 0.008539956 -0.09670871 0.112997904 -0.63551784 -0.024729913 -0.2737846
-0.044511493 0.4865393 -1.0409205 1.1407347 0.49228233 0.026785547 -0.28410903 -0.20828736
0.16042995 -0.5079436 0.3909838 -0.19554873 -0.007853475 -0.47884133 -0.37825665 -0.30911925
-0.528728 -0.14775524 0.32091102 0.8146638 -0.19651566 -1.9528425 0.87377393 0.8846224

convs.0.lin_rel.bias f4 [24]
00000000: 19fa d5bf 2256 79bf ff1c b7bf 9323 20bf
00000010: dac6 93bd 2c6e 2abf c245 f9bf 2a97 8bbf
00000020: 9876 89bf 309a 82bf d834 64bc 74dd 9fbe
00000030: 9280 71bf 7727 b9bf af77 e1be 2c25 82bf
00000040: c9d3 cebe e7a5 96bf fdf0 d7be ceed b4bf
00000050: e3e1 d2bf 00ca 6cbf 79a1 23bf 9237 b9be
-1.6716949 -0.97397053 -1.4305724 -0.6255428 -0.07215662 -0.6657436 -1.9474413 -1.0905507
-1.0739317 -1.0203304 -0.013928615 -0.31223643 -0.9433681 -1.4465169 -0.44036624 -1.0167594
-0.40395954 -1.1769379 -0.42176047 -1.4135072 -1.6475185 -0.9249573 -0.6391826 -0.3617521

convs.0.lin_root.weight f4 [24, 20]
00000000: f2a5 ccbe d4f8 bebf 2db5 00bf cf5c b7be
00000010: fc28 89be 178a 96be a9df 003f d194 6ebf
00000020: 2fe9 19bf 294c edbe 265c 80bf 87ce 0e3f
00000030: 1984 e4bd 0a5a 8fbf 76c5 cebe 64db 7d3f
00000040: 0d5a 383f 87d5 ecbe a914 7abf 38c0 993e
00000050: 47ee bd3d 99fd 68bf cd61 223d 7d6e cfbe
00000060: e05f 9cbf e673 1b3e d57a 5dbf 9c8b 25bf
00000070: 6f8b 86bf 0bfd c33e b98d 30be 88ad 293f
00000080: 219a c6bc c3a6 133f 5cb8 f6be e990 4bbf
00000090: 17c8 883e 3bdf d1bc fddd 8d3e 06d1 76bc
000000a0: 04a2 413e 4d2e c53e 8b8b 8c3e 9eb7 54bf
000000b0: 579b 8ebf 18c9 3e3e 2d90 043f 9117 193d
000000c0: 8c5b 70be 1544 cebe 07bd 1dbe 0a49 573f
000000d0: 2194 f7be 5a5c 5cbf ce0b 863e 2c6e 80bf
000000e0: 1b81 9f3e 930b e4be 4d6f dfbe 996e f0bf
000000f0: 0ea3 8cbf 7e08 6ebf cae3 b9bd 7d2f 4ebf
00000100: 5eb3 edbd 5494 d53d 1965 72bf 964f 683e
00000110: 4cf4 5c3e fa19 5d3e 7967 c7bd b080 033f
00000120: 30a2 4dbf eae8 6b3c 47fb 34bf b452 513e
00000130: 8b0c 2e3f d5bb bbbe 9976 bf3d 09fc ed3d
00000140: e1d4 193d da8e c4bc 197f 20be 0952 5dbe
00000150: bd45 a63e 2c06 c53e 27ed 57bd e5c4 32be
00000160: c73c 343f 2b3c 963e ffba 1bbf 5ffe 523f
00000170: 343d 83bd d831 8fbf b9c8 6fbf 6c61 833f
00000180: b128 12be 40c1 36be 579a a43e 0cee 243e
00000190: fe8e e63e f762 1ebd fb56 5bbe 9c39 f3bd
000001a0: d497 393e ed94 d0bd 81fe f5be 6d8e 06bd
000001b0: ec5a 833e 5dd0 9f3b c132 543d edf1 98bf
000001c0: 3c02 e1be 1553 dd3f 3e69 6ebf 9f8e 9ebe
000001d0: 70d2 3e3e 8116 5e3e a32c 823f 455a ae3e
000001e0: 7a2e 343f 651a a63d b6dc 4c3f 8fc3 a9bd
000001f0: 6d79 26bf e8c5 48be d7ed 123e 19f7 423f
00000200: 13e6 23bd f37e f2bd a43d 93bf 8c12 1c3d
00000210: f52f 6cbf 4cf6 853f 120f 01bf 3cec dd3d
00000220: 14c3 b43e 1195 9fbe fc22 8bbf e761 ef3e
00000230: a407 903e a88b 183f df5d dabe 5e80 19be
00000240: 0ce2 c13e 4c45 2dbe 5dc7 1bbf f834 adbe
00000250: 3ef9 66be 5780 f8be 5953 c1bf 0942 b33f
00000260: 0213 363c b635 47bf 6c69 b7bd 2d31 a83e
00000270: a30c acbe c7f8 053f a01d 053f 581f d3be
00000280: 5d9f 603f 2390 5f3e f923 11bf 6448 fb3e
00000290: aa2c 6dbf bdd1 39bf afb4 d73e 1b34 38be
000002a0: 64a6 323f f09d dd3e 88f8 d13e e633 d7bf
000002b0: 56f2 8bbb 8936 733f 2038 7bbe c629 1e3f
000002c0: b936 94be a669 46bf 374f 273f dba1 6cbe
000002d0: fdb0 8b3f b2af 983e b81c a4be 504d a4bf
000002e0: 2cd1 c13e bf4d 0ebe c771 60be 6b8f 1f3f
000002f0: 6e41 063f aac8 a03e e10d 0dbe 8c35 80bd
00000300: 0a8f 89bf 34ff 1ebf 1b32 1ebf 5c66 553f
00000310: 0e22 ccbf ec03 4a3f 92b6 ae3e b819 41be
00000320: 47bf 6bbf 7ea3 d7be 7d4e b6be c36e 893e
00000330: 6982 d7bd be98 49be aead ee3e fbbb 9dbe
00000340: 0646 59be f558 803e 5429 bfbe ac74 803f
00000350: cee1 b9be 3da6 f6be 11db a2be d192 373f
00000360: 9ae9 79bd d48f 363e 3e7e b53f 7dc0 65bf
00000370: 7b25 523d 95d2 28be 0949 f5bc 7126 073f
00000380: c5a8 8dbd c312 443f 79a0 403d 8429 dfbe
00000390: 6bfa 81be 0059 1dbf ff3b f5bc e587 8dbf
000003a0: 969c 973e 8c03 8e3f 0abd 4bbf 2670 813f
000003b0: 0658 eebd 4419 c0bd 254c dbbe f8bb 1abe
000003c0: fb5c 323e f322 093e e2d7 2c3e 5b98 4d3e
000003d0: 94a5 52bb 5f59 d2be d72f debe 8fab 513e
000003e0: 1972 5e3c 8776 8dbe 5fb4 913e dcff 93be
000003f0: 35ef af3e 7b95 f2bf dbc3 b53f 6416 e73d
-0.39970356 -1.4919686 -0.5027645 -0.35812995 -0.2678908 -0.2940223 0.5034128 -0.93195826
-0.60121435 -0.46347168 -1.0028121 0.55783886 -0.11158008 -1.1199353 -0.40385026 0.9916289
0.72012407 -0.46256658 -0.97687775 0.30029464 0.092739634 -0.9101196 0.03964405 -0.40513983
-1.2216759 0.1518093 -0.8651555 -0.6466615 -1.0511302 0.38278994 -0.17241563 0.6628041
-0.024243416 0.57676333 -0.4818753 -0.7951799 0.26715156 -0.02561914 0.27708426 -0.0150644835
0.1890946 0.38511887 0.27450213 -0.8309268 -1.1141156 0.18631399 0.51782495 0.03737599
-0.23472422 -0.40286317 -0.1540414 0.84095824 -0.483552 -0.8607842 0.2618088 -1.0033622
0.31153187 -0.4454008 -0.43639603 -1.8783752 -1.098726 -0.9298171 -0.090766504 -0.8054121
-0.11606477 0.10428682 -0.9468551 0.2268661 0.21577567 0.2159194 -0.09736533 0.51368237
-0.80325603 0.014398793 -0.7069592 0.20441705 0.6798789 -0.36666742 0.093487926 0.116203375
0.037556533 -0.023993898 -0.15673484 -0.21613325 0.3247508 0.3848127 -0.0527164 -0.17457922
0.7040524 0.2934278 -0.6083221 0.8241939 -0.06408158 -1.1187086 -0.93665653 1.0264106
-0.14273335 -0.17847157 0.32149002 0.16106433 0.4503097 -0.0386686 -0.21419899 -0.118762225
0.18124324 -0.10184655 -0.48045734 -0.03285067 0.25655305 0.0048771338 0.051806215 -1.194883
-0.43947017 1.729098 -0.93129337 -0.30968186 0.18634963 0.21688272 1.0169872 0.34053245
0.7038342 0.08110503 0.8002428 -0.08289253 -0.6502903 -0.19606745 0.14348541 0.7615829
-0.040014338 -0.1184062 -1.1503186 0.038103625 -0.92260677 1.0465789 -0.5041362 0.10836074
0.35305083 -0.31168416 -1.0870051 0.4675438 0.2813083 0.595881 -0.42649743 -0.14990374
0.37867773 -0.16920966 -0.6085108 -0.33829474 -0.22556016 -0.48535416 -1.5103561 1.4004527
0.01111293 -0.7781633 -0.089556545 0.32850018 -0.3360339 0.5233273 0.5199833 -0.4123485
0.8774317 0.21832328 -0.56695515 0.49078667 -0.92646277 -0.7258566 0.42130038 -0.17988627
0.6978514 0.4328456 0.41009927 -1.6812713 -0.004270832 0.9500509 -0.24533129 0.6178249
-0.28948 -0.77504957 0.6535525 -0.23108618 1.0913388 0.29821545 -0.3205316 -1.2836094
0.37854898 -0.13896845 -0.21918403 0.62328213 0.5244359 0.31403095 -0.13774826 -0.06260213
-1.0746777 -0.6210816 -0.61795205 0.83359313 -1.5947893 0.78912234 0.34123665 -0.18857467
-0.9208874 -0.42116922 -0.35606757 0.26842317 -0.10522921 -0.19687173 0.46616882 -0.3080748
-0.21218118 0.2506787 -0.37336218 1.0035605 -0.36305088 -0.48173705 -0.3180776 0.717084
-0.061013795 0.17828304 1.4179151 -0.8974684 0.051305275 -0.1648658 -0.029942052 0.5279303
-0.06916956 0.7659113 0.04702804 -0.4358636 -0.25386366 -0.6146393 -0.029935835 -1.1057097
0.29611653 1.1094832 -0.79585326 1.011235 -0.11637883 -0.09379819 -0.4283153 -0.15110767
0.17418282 0.13392238 0.16879228 0.2007765 -0.003214215 -0.4108381 -0.43395874 0.204756
0.013577008 -0.27629492 0.28457925 -0.28906143 0.34362188 -1.8951868 1.4200395 0.112835675

convs.1.lin_rel.weight f4 [24, 24]
00000000: f54f 433e 85ce e4be 4a33 02be 37db 593e
00000010: dccf 2abd ab19 7b3e 767d 20bf 97cf 753e
00000020: da05 393e df68 e5bd 0344 49be 54f6 973d
00000030: c571 be3e 04f3 e8be 1f7b bbbe 4a84 8b3e
00000040: 504e 8dbb 0d18 04bd d13a c33e 386e afbd
00000050: 7174 68be aaa7 adbe c19b bfbe 083a 08bd
00000060: e7a4 58be 5bff ac3e 40ca f2be 3d0e 43bc
00000070: a78e 1f3f 6a10 f4be 73df 6b3e 8357 f33c
00000080: eddb 143f a191 f8be 8e7f 133d 2823 8fbe
00000090: 085f 273d 2ed3 df3d 5958 82be fa81 95be
000000a0: 687f 52bd f760 003e c966 4ebe 1590 e43d
000000b0: 0101 41be 19a3 473e 7927 b53e 94aa f7bd
000000c0: d121 203f 05fb 8cbe 7c28 fdbe 2bc6 8fbe
000000d0: eb81 f6be 5f2a ebbc da6b a4bd 650b 37bf
000000e0: 8b74 75be 608f 61bf a089 69bf 61c9 283c
000000f0: 9631 e33e 2941 03bf 6649 1e3e af1f a0be
00000100: ce3a 78be e009 2a3f ac46 bc3b 19a2 e93e
00000110: b716 16bf 2236 1dbf 6fc5 e9be c5eb 1ebf
00000120: 3e32 f23e 47d0 66be 45a5 953e 8cc6 69be
00000130: cdf2 a53d 582b bb3e 46dc d8be cbba 9cbf
00000140: 9959 1f3f c98b 4a3f 16bf 1f3e 2ffa e5be
00000150: 06f2 b0be 00df ebbc 6b59 c8bf 1ee8 07bf
00000160: 8ac3 7bbf 1d1a b6bb ed7c fcbe f16b 803e
00000170: cd07 413e a0b0 823e 65d8 ad3e 4535 4bbf
00000180: f873 303f df54 30bf 3810 cb3d f25a 81bf
00000190: 402a 313d 2c47 0cbf 5f51 aebf 7cd9 c5bd
000001a0: 32e6 7a3e 5822 43bf 9edf 64bf bc02 bcbd
000001b0: 33a1 163f 8c8f 1dbf 0e4b 46be e87f 1bbe
000001c0: 81e1 073e 39a4 16bf 36a8 4a3d 02f8 6dbf
000001d0: be35 443f 8e61 98be 262f e83e 848b 18c0
000001e0: fc35 9f3e da96 d1bd 24d0 6dbf 3f89 b8be
000001f0: 7930 17bf 69a4 973e 4c6e cfbe fb3a 6fbf
00000200: e0c2 26bf 788f 873e 4b2b 9bbd 92c6 1b3e
00000210: ae25 bfbf 7edf a73e a4d3 3cbf cb0e 013e
00000220: 23bc dbbd a33a 243e a447 c9be 3124 b1be
00000230: 7a02 423f da89 13bc e727 503e fde8 14bf
00000240: 0aaf 24bf cd24 dfbe a688 cf3e dd18 d93e
00000250: 7779 b33e 717f 73bf 3b99 fb3c 0bc2 f6be
00000260: 1f63 77be 08be cc3d 0f81 a5bf 9339 e0bf
00000270: c9fa e73e 7d35 8dbd 930c a0be 31df d73d
00000280: 7b43 55bf 7a96 9f3e 0eda 223e aba1 9a3c
00000290: 4dac 4ebf a5ae c53d c37f 2abe 2d17 cd3e
000002a0: ba42 ac3e 5e66 4dbf cb4a 6cbf 4c7e 02be
000002b0: d64b debe 5cef 1f3f fb98 36bf 91fa d3be
000002c0: da60 f4bd fbad 683c 1942 35bf 57dc 1b3e
000002d0: 6735 693f 4e7d d9bd 7752 dbbe 77ae 943d
000002e0: 8c44 e0be e264 f0bd 0ca8 34be fc25 06bf
000002f0: 78c9 bfbd 28ce 31be a311 4c3e e404 b7be
00000300: f933 053f 6510 0b3e bc4b 0abf a4b0 12bd
00000310: cc2c 0bbe 3d2f ecbe e488 043e 48a5 2ebe
00000320: 4c27 c3be d204 1cbd 7e8b 123f 7ac9 88be
00000330: 94d4 5dbe a5d0 f6be 2336 c73d b5fa 5ebd
00000340: 50ea cabc ae83 cabf f3b1 edbf ad28 33be
00000350: c371 47be 94a6 99bf 2d66 a93e dda0 853d
00000360: 34df 16bf a557 a1be a132 9bbf a832 4c3e
00000370: b50b f2be de36 0d3e 5340 503e 0cc5 3bbf
00000380: af3e 6e3e 32e3 293e 7623 7fbf e26a dcbd
00000390: d3e7 19bf 5701 023e 9c26 0fbf 3480 2f3f
000003a0: 9dab 13bf 3066 11bf 789a 0ebf c805 cabe
000003b0: f222 ff3d 5791 0e3e 6d94 36be 103f 14be
000003c0: 59e2 c5be be9c 01bf 243b 10be 474e 63bf
000003d0: f4e6 dfbd 9f5b bcbe daf0 b1be e723 35bf
000003e0: fb3d 633f cc6d 933e 019e 6ebe 159d 5fbf
000003f0: 639a b23d e6b0 9e3e 2c36 51bf 3eef 1c3f
0.1907347 -0.44688812 -0.12714878 0.2127503 -0.041702136 0.2452151 -0.6269144 0.2400497
0.18068638 -0.11201643 -0.1965485 0.0742003 0.37196174 -0.45497906 -0.3661737 0.27249366
-0.004312314 -0.0322495 0.3813081 -0.085659444 -0.22700669 -0.3391698 -0.37423518 -0.033258468
-0.21156655 0.3378857 -0.4741993 -0.01190525 0.62327045 -0.47668773 0.23034458 0.029704815
0.5814808 -0.48548606 0.036010318 -0.2795651 0.040862113 0.10928951 -0.2545803 -0.29200727
-0.051391035 0.12536989 -0.20156397 0.11160294 -0.18848039 0.1949581 0.35381678 -0.12093082
0.625516 -0.27535263 -0.4944495 -0.28080878 -0.48145995 -0.028706728 -0.080283836 -0.7150176
-0.23970239 -0.881094 -0.91225624 0.010301919 0.4437377 -0.512713 0.15457687 -0.31274173
-0.24241182 0.6642132 0.0057457294 0.45631483 -0.5862841 -0.61410725 -0.45658442 -0.62078506
0.47303957 -0.22540389 0.29227653 -0.22829646 0.08102951 0.36556506 -0.42355555 -1.2244505
0.6224609 0.79119545 0.15600237 -0.44917437 -0.3455965 -0.028792858 -1.5652288 -0.5308856
-0.98345244 -0.005557312 -0.4931406 0.25082353 0.18850632 0.2552538 0.33954158 -0.7937816
0.68926954 -0.68879503 0.09915203 -1.0105879 0.043253183 -0.547961 -1.3618582 -0.096606225
0.24501875 -0.7622428 -0.8940371 -0.09180209 0.5883972 -0.6154716 -0.19364569 -0.15185511
0.13269617 -0.58844334 0.049476825 -0.92956555 0.76644504 -0.29761928 0.4534847 -2.3835154
0.31095874 -0.10233851 -0.9289572 -0.3604221 -0.5905834 0.29617622 -0.40513837 -0.9344937
-0.65141106 0.26476645 -0.07576617 0.15212467 -1.4933374 0.32787699 -0.7376044 0.126033
-0.107292436 0.16037993 -0.3931247 -0.34597924 0.7578503 -0.009005034 0.20327722 -0.5816801
-0.6432959 -0.43582764 0.40533942 0.42401782 0.35053608 -0.95116335 0.030712714 -0.48194918
-0.24158905 0.09997183 -1.293001 -1.751757 0.4530852 -0.06894968 -0.31259593 0.10540617
-0.8330609 0.31169492 0.15903494 0.018875917 -0.8073166 0.096524514 -0.166503 0.40056744
0.33644658 -0.80234325 -0.92301625 -0.12743491 -0.43417233 0.6247461 -0.7132718 -0.41402104
-0.119325355 0.014201636 -0.7080398 0.15220772 0.9109711 -0.10619603 -0.42836353 0.07259839
-0.43802297 -0.11737992 -0.1764223 -0.5240171 -0.09364599 -0.17363799 0.19928603 -0.3574592
0.5203243 0.13580473 -0.5402181 -0.03581299 -0.13591307 -0.4612979 0.12942845 -0.17055237
-0.3811592 -0.038090535 0.572441 -0.26716214 -0.21663123 -0.48206058 0.09727123 -0.05443831
-0.024769932 -1.5821435 -1.8569931 -0.17495985 -0.1947699 -1.2003961 0.33085766 0.06524823
-0.5893433 -0.3151218 -1.2124826 0.19941199 -0.47274557 0.13790461 0.20337038 -0.73347545
0.232661 0.16590574 -0.99663484 -0.10762574 -0.6011936 0.12695824 -0.5591829 0.68555
-0.57683736 -0.5679655 -0.5570445 -0.39457536 0.12457837 0.1392263 -0.17830057 -0.14477181
-0.38649252 -0.50629795 -0.1408506 -0.88791317 -0.10932723 -0.3678865 -0.34754068 -0.7075791
0.8876645 0.28794706 -0.23302461 -0.87349063 0.08720853 0.30994338 -0.81723285 0.61302555

convs.1.lin_rel.bias f4 [24]
00000000: 428e 863f 74c4 e43f b152 2ebf 831c 0b3f
00000010: bcf4 7a3f 2d28 223f 81db 623e 1269 2c3f
00000020: 92e5 ab3f 1dd7 6f3f 9841 843e 0e8c b53f
00000030: 8b25 2bbe d166 983f b11c c8ba 8a46 c83e
00000040: 54c2 913f 323f 8c39 9f38 073f bd2c be3f
00000050: e97f 50be 6075 1d3f b11e e13f f9b1 9a3e
1.0512164 1.7872453 -0.6809493 0.5434038 0.98029685 0.63342553 0.22154047 0.67347825
1.3429434 0.9368761 0.25831294 1.4183366 -0.1671354 1.1906377 -0.001526734 0.39116317
1.1387429 0.00026749965 0.5282077 1.4857403 -0.20361294 0.61507225 1.7587491 0.30213907

convs.1.lin_root.weight f4 [24, 24]
00000000: 68ef e03e e14d 24bf 173f 9abc 8379 df3e
00000010: f1fe 9d3e 3fb7 e73e 29d1 3cbe 69a9 163f
00000020: a1e7 8dbe c75b 4dbe c195 1c3f 9943 81bc
00000030: 239f 243f 007b 3abf c551 70bf 07dc 0b3e
00000040: f92e 263e ea3c ec3e e274 9bbe 0072 a6bd
00000050: 82ba c7bd 796d 31bf 99a7 5cbf db0b 0d3f
00000060: 4c21 22bf 0e8d 413e db6c 1fbf 48e0 3abe
00000070: a6c4 113f 6137 41bf 61fc 03be 9d71 ae3e
00000080: 30bc f03e ffe9 9dbe c4d3 5d3d e463 2bbc
00000090: 8758 3bbf 9403 373d cb2c 35bc b16a 86be
000000a0: 0fec dd3e 86bb c5be 96b0 17bf 234e b7be
000000b0: d67e c6be ccf7 b0bd 6c87 c73e 8451 abbd
000000c0: 47ea 08bf 11b0 87bf 0758 103e 3f8b d3bf
000000d0: 6b50 41bf 5a41 233f 0beb dabe 9267 8dbe
000000e0: cb53 5c3d 5412 b4bf 6281 93bf 8667 613f
000000f0: f65b 403f 603d 9fbe fc49 183f d10e 1abe
00000100: 879e 8cbf 72d9 adbe f7ee 0e3f 21e3 033f
00000110: 5575 62bf 2f65 88bf 9970 14bf a468 99be
00000120: aca5 cd3d 8712 36bf d516 e93e c480 d9bf
00000130: 33ee 7dbf 749f efbe 0a22 89bf 57bb b8be
00000140: 9599 e6bd e028 ae3e a522 f23d e1de ab3e
00000150: 32f0 99be aab9 3e3f 1f6e 8cbf 9a77 a8be
00000160: ec73 943d beae 933e 7255 adbe c883 3f3f
00000170: f156 903f 196d af3d b0c0 dfbe 4990 623d
00000180: 256a 833e c78f 0abf 136a 9c3e 181a f63e
00000190: c1f3 fdbe 1b65 71be 3ae6 96bf 246d d03e
000001a0: 2606 1d3f b10e 26bf 24c3 373e f5be 49bf
000001b0: 1d83 263e 729b 3dbf 51da bbbe 3dde d23e
000001c0: 8b45 a93e 94fe 87bd ab70 7ebf be89 c4bf
000001d0: 9065 773e 2bcd 723e 7620 f03e f61e 383e
000001e0: a1e7 e2bd 17ba 91be db52 e9bd f941 37bf
000001f0: bfd2 95be b485 9abe 7596 4cbe fc94 69be
00000200: 701c 8ebf 5e39 84be 07c9 f1be 4f73 cb3e
00000210: 1b9c ddbf 6ffd 723f 031a eebe 5244 533e
00000220: f10f 12be a1e3 4fbe c4b6 e8bf 5d55 9ebe
00000230: 86ab e93e eb81 ef3d ba9d 0dbd e019 6dbe
00000240: c34a 01bf b4df 713d ad19 1e3f d237 903e
00000250: eeda 913e 59d2 5dbf 38cf 80be b8b9 5ebe
00000260: cc96 2c3e b146 f63d 3eb7 69bf 753e 46bf
00000270: 36ed 113d 97a3 363f 53d8 1e3f 7c4d 0c3f
00000280: d006 dbbe e39e 4d3d 8752 c1bf cdaf 93bf
00000290: d019 38bf 48c8 903e cf1c 8fbd 9802 963d
000002a0: a0ec 90be 3c06 8fbf 0deb cd3e c54e 4abf
000002b0: 64ed 293f 34ee d53e 77c5 ec3d 62ff bd3d
000002c0: 18a8 40c0 8e88 783f efe6 41bf 521d f03d
000002d0: e9eb 14bf bfc1 293f 7ced 37be 3b5b 133f
000002e0: 8b8d b83d 7ebc e73d 6335 18c0 732d 7dbf
000002f0: 2a63 42bf 8156 95bf 5c7e 2ebe 942f 83be
00000300: f83a 9fbf d088 a73e b788 40bf b4f6 573e
00000310: ecd0 683c 029a 62bf e9c9 9f3b cdaf ffbd
00000320: 1052 223d 25bb 84be 7fd7 4c3e cb43 43be
00000330: 5af5 01bf b34c aabe 6c6c 073e e416 01bf
00000340: f2fb 35bf 33d3 80bf 7024 3b3f 0f8c ca3e
00000350: 3504 af3e 721b e5be f872 e83e 2894 983e
00000360: ccd4 19bf bd49 6cbf a493 2fbf 06d8 da3e
00000370: 69d9 573f 1cfe f43e 1742 9d3e 340d 443c
00000380: 4d2b 06be 9373 5cbf c305 96bf 1bf3 593e
00000390: b6cf 8d3f 7ecc 8a3c ff40 653f ba22 4a3f
000003a0: 21aa 5bbf 1476 e7be 173d 2c3d 4b54 71be
000003b0: d290 fcbe e6e6 1a3d 73f8 8dbe 7a44 c4bf
000003c0: ec88 c6bd f6c4 8c3e c7d7 23be 6d1c 443e
000003d0: ba18 8c3d 4c1f 77bc 32f0 16bf 94a0 cbbe
000003e0: 10c8 c3bf 07d1 e7be 4a6d 22bf 7b9a de3d
000003f0: 46ac a93f 39fb 3bbf e14c 643d fe0c 8c3e
0.43932652 -0.64181334 -0.018828912 0.43647394 0.30858567 0.45256993 -0.18439163 0.5885225
-0.2771578 -0.20054542 0.61166006 -0.015779303 0.64305323 -0.72843933 -0.9387477 0.13658153
0.16228856 0.46140224 -0.30362612 -0.081272125 -0.097523704 -0.69307667 -0.86193234 0.55096215
-0.63332057 0.18901464 -0.62275475 -0.18249619 0.56940687 -0.75475127 -0.12889244 0.34071055
0.47018576 -0.30842587 0.054157034 -0.0104608275 -0.73181957 0.044681147 -0.011058043 -0.26253274
0.4334416 -0.38619632 -0.59253824 -0.358018 -0.38768643 -0.086410135 0.38970506 -0.08365157
-0.5348248 -1.0600606 0.1409608 -1.652687 -0.75513333 0.63771594 -0.4275745 -0.2761808
0.05379085 -1.4068093 -1.152386 0.8804859 0.7514032 -0.31101513 0.5948789 -0.15044715
-1.0985879 -0.3395496 0.5583338 0.51518446 -0.88460284 -1.0655879 -0.5798431 -0.29962647
0.10041365 -0.7112202 0.45525232 -1.6992421 -0.9919159 -0.4680134 -1.0713513 -0.3608043
-0.11259762 0.3401556 0.11823014 0.3356848 -0.30066067 0.7450205 -1.0971106 -0.3290375
0.07248673 0.28844255 -0.33854252 0.7481046 1.1276532 0.085657306 -0.43701696 0.055313382
0.2566692 -0.54125637 0.30549678 0.48066783 -0.49600032 -0.23573725 -1.178901 0.40708268
0.61337507 -0.6486617 0.17945534 -0.78807 0.16260953 -0.74065316 -0.3669 0.4118518
0.3306087 -0.06640354 -0.9939067 -1.5354536 0.24159837 0.23711078 0.46899766 0.1798056
-0.11079336 -0.28462288 -0.113927566 -0.7158504 -0.2926235 -0.30180132 -0.1997927 -0.2281074
-1.1102428 -0.25825018 -0.47223684 0.3973641 -1.7313265 0.9491796 -0.4650422 0.20631531
-0.14263894 -0.20301677 -1.8180776 -0.30924502 0.45638674 0.11694702 -0.034574248 -0.23154402
-0.505047 0.05905123 0.6175793 0.28167588 0.28487343 -0.8664909 -0.25158095 -0.21750534
0.168544 0.12025202 -0.9129523 -0.7743905 0.035626613 0.7134337 0.62048835 0.5480573
-0.42778635 0.050200354 -1.510331 -1.1538025 -0.71914387 0.28277802 -0.06987917 0.073247135
-0.2830553 -1.1173778 0.40218392 -0.7902644 0.66377854 0.41783297 0.11561101 0.09277226
-3.0102596 0.97083366 -0.75743 0.117243424 -0.5817247 0.6631126 -0.17961687 0.5756108
0.09011372 0.11315249 -2.3782585 -0.98897475 -0.7593256 -1.1667024 -0.1704039 -0.25622237
-1.2439871 0.32721567 -0.7520861 0.21090204 0.014209967 -0.8851625 0.0048763645 -0.12484703
0.039629042 -0.2592403 0.2000408 -0.1906883 -0.50765 -0.33261642 0.13224953 -0.50425553
-0.71087563 -1.0064453 0.73102474 0.3955998 0.34182897 -0.44747502 0.45400214 0.29800534
-0.6009033 -0.92300016 -0.68584657 0.42742938 0.84316117 0.4785012 0.30714485 0.0119660385
-0.13102455 -0.8611385 -1.1720508 0.21284144 1.1079013 0.016943213 0.895523 0.7895924
-0.8580647 -0.45207274 0.042050447 -0.23567311 -0.4932924 0.03781786 -0.27728614 -1.5333397
-0.096940845 0.2749402 -0.16000281 0.19151469 0.06840654 -0.015083145 -0.5896026 -0.3977095
-1.5295429 -0.45276663 -0.6344801 0.108693086 1.3255699 -0.7343021 0.05573738 0.27353662

post_layers.0.weight f4 [1, 24]
00000000: bf40 8ebd 72ae 5abd decb 51be 3096 d13d
00000010: 87d0 453e ca3d f1bd 8e4b abbd 590c fb3d
00000020: 9d68 a1bd d249 0f3e 5679 2abe 46c9 243e
00000030: b525 033e c6a2 85bd e031 d8bd 0d9d a1bd
00000040: 64fb b63d feb9 373e 4b47 d23d ad45 b7bd
00000050: 414d 0f3e fc9c 21be 892f bbbd 538b e4bd
-0.06945943 -0.05338902 -0.20487925 0.10233724 0.19317828 -0.117793635 -0.0836402 0.122582145
-0.078812815 0.13993004 -0.16647848 0.16092405 0.12807353 -0.06525187 -0.10556388 -0.07891283
0.08934668 0.17942044 0.10267504 -0.089488365 0.13994314 -0.15782541 -0.09139926 -0.111593865
