models/BPI17/hoeg/exp_v3/lr=0.01_hidden_dim=16/GraphModule_20230828_10h33m/state_dict_epoch1.pt (torch, 37151 bytes, 33 tensors)

convs.0.event__follows__event.lin_rel.weight f4 [16, 27]
000000 8a 82 9f 3c b1 f6 14 be 55 67 df bd e0 ce 89 be
       0.019471426 -0.1454723 -0.10908381 -0.26915646
000010 44 75 60 bc e4 47 fc 3c d9 d3 13 bc 4d ed a0 3e
       -0.013699833 0.030795999 -0.009022676 0.31431046
000020 c2 cc da 3c 30 bf 8b 3c f7 95 96 bc ed 37 3e 3c
       0.026708964 0.017058939 -0.018382056 0.011610013
000030 83 66 2a 3e ad b3 b4 3d a2 76 31 be c1 c3 7c be
       0.16640668 0.08823333 -0.17330411 -0.24684049
000040 d7 38 f6 bd 8f 1f 42 3d 2d 30 98 3c 29 04 26 be
       -0.1202256 0.047393378 0.01857766 -0.16212524
000050 37 5d df bb e5 2b 7e 3d 71 cd e0 3c 00 d8 4a bd
       -0.006816532 0.06205358 0.027441712 -0.0495224
000060 11 1b a4 be 5a 53 bc 3d 10 b0 50 be 84 9c 88 be
       -0.320519 0.091955855 -0.20379663 -0.26681912
000070 64 2a 1c be e1 45 0c be 51 ea 44 be 4c 46 66 3c
       -0.15250546 -0.13698532 -0.1923001 0.014054846
000080 35 4a 31 bd 38 ce eb bc 8d 1b 8c 3b 54 10 9c 3c
       -0.04328366 -0.028784856 0.0042757452 0.019050755
000090 b7 79 1f be 2d 65 4d bd 69 29 fd bd 35 a7 bc 3d
       -0.15573774 -0.050145317 -0.12361414 0.0921158
0000a0 e2 ed 15 3e 89 fd 57 bd 52 d9 25 be 24 05 22 be
       0.14641526 -0.052732024 -0.16196182 -0.15822273
0000b0 e5 6b 57 3e 7b d6 ba 3d 1c a4 15 be e8 a3 31 be
       0.21037252 0.0912294 -0.14613384 -0.17347682
0000c0 8f 9a 9f bd b3 25 15 be a0 82 7c bb ea 73 70 bd
       -0.077931516 -0.14565162 -0.0038530007 -0.058704294
0000d0 d6 df 0e be ad 5f ac 3d 7a 98 b4 be d4 ad a9 be
       -0.13952574 0.08416686 -0.3527258 -0.33140433
0000e0 cd 3d b4 be 76 f8 dd be 0d 9c d1 be b1 f0 47 be
       -0.352034 -0.43353623 -0.4093937 -0.1952541
0000f0 88 b6 1c be 46 5b 8a 3e 54 29 ef 3c 5a 16 2c 3d
       -0.15304005 0.2702276 0.029194511 0.042013504
000100 0f 1a 64 3e 0e 8e 62 3e 37 b1 e7 3d fe cd 9d 3e
       0.22275566 0.22124502 0.11313098 0.30821222
000110 19 70 e8 3d e7 0e 8d 3e dd 0d e4 3d 87 18 40 3e
       0.11349506 0.27550432 0.11135457 0.18759356
000120 79 cf 11 be 41 5a 46 be 5b 42 1f 3e 7c 53 0b 3e
       -0.14239301 -0.19370367 0.15552656 0.13606066
000130 a4 06 32 bd 42 9c 2c be df 93 45 be ee 8a 82 be
       -0.043463364 -0.16856483 -0.1929469 -0.2549662
000140 ee 1b cf bd 01 ea 1c 3d 44 0d 73 be 86 a3 a4 3d
       -0.10112749 0.0383091 -0.23735529 0.08039002
000150 63 43 8c bd 62 dc 4d be 92 19 35 3e 25 2f 22 bd
       -0.068487905 -0.201036 0.17685536 -0.03959574
000160 4e c5 e3 3c fa 05 8c bd 4d f3 6e 3e d0 ea 9c 3e
       0.027804043 -0.068370774 0.23335 0.30647898
000170 90 12 8d 3e 9c 6e 8f 3e c2 4c 18 3c 6c 16 02 3d
       0.27553225 0.28014076 0.009295644 0.031759664
000180 ba a4 1a be 2a 2b 6e 3e d1 5c 61 3e a9 11 07 3d
       -0.151019 0.23258653 0.22008063 0.032975826
000190 fb c6 fb 3d 56 91 07 3e 9b 66 77 3e 66 d7 1a ba
       0.12293812 0.13239035 0.24160235 -0.00059067307
0001a0 9f d8 07 bd 41 a4 cb bc e7 74 62 3d 73 90 69 3c
       -0.03316557 -0.024858596 0.055287268 0.014255631
0001b0 29 f0 35 3e 59 99 00 be 34 35 16 be 29 21 13 3e
       0.17767395 -0.12558497 -0.14668733 0.14368118
0001c0 e2 f8 b5 3e 38 1e 85 be e3 73 dc 3d 61 3f 2f be
       0.35541445 -0.25999618 0.10764291 -0.17114021
0001d0 c7 8e 9f 3d 09 f4 36 be 60 fa 8f be 53 87 7c be
       0.077909045 -0.1786653 -0.28120708 -0.24660997
0001e0 66 d6 d0 3a 79 0b fb bd 83 1c 47 be 22 34 aa bd
       0.0015933036 -0.122580476 -0.1944447 -0.08310725
0001f0 87 c4 22 bd bb 7d 3c 3d 8d b0 40 be 29 53 05 3e
       -0.039738204 0.046018343 -0.18817349 0.13020004
000200 bf 19 1c be 60 c6 e1 bd 45 0b fd 3d 44 60 13 3d
       -0.15244196 -0.11024165 0.12355665 0.035980478
000210 dd 19 d3 bd d7 43 d8 bd 7f 00 67 3c 6c bb d0 be
       -0.103076674 -0.105598144 0.014099239 -0.40767992
000220 aa 77 9d 3e 34 87 95 3e 17 17 ca 3d 03 65 c5 3d
       0.3075536 0.29204714 0.09867685 0.09638407
000230 af 79 0d be bf 52 2c 3d 0a 5e a7 be 67 85 ac be
       -0.1381595 0.0420711 -0.32688934 -0.33695528
000240 b3 a4 56 be 7d a8 18 bf 20 d6 0d bf 1b 1e 02 bf
       -0.20961265 -0.5963209 -0.55404854 -0.5082719
000250 39 48 89 be e9 d0 f4 bd c6 d4 9f be 30 f8 48 be
       -0.26812914 -0.11953909 -0.3121702 -0.19625926
000260 f3 c9 9b bd 95 9d 7e be 7c 60 77 be 4a e6 95 be
       -0.07606878 -0.248648 -0.241579 -0.2927726
000270 42 c0 4c be b7 ae dd be 1e e4 ba be 64 86 84 be
       -0.19995216 -0.4329736 -0.36502165 -0.25883782
000280 c4 57 a4 bd 72 6e f2 3e b6 79 01 3f 2f a2 77 be
       -0.080245525 0.47349888 0.5057634 -0.24182962
000290 f1 85 5f be 80 eb 6a be 9c 57 97 3e 8d 32 d1 bd
       -0.21828438 -0.22941399 0.29559028 -0.1021472
0002a0 75 c6 a2 3e 90 d4 28 3e 4d f2 d8 bd 50 97 9c 3e
       0.31792036 0.16487336 -0.1059309 0.30584192
0002b0 b6 8c 01 3e a2 d2 0b 3e 0d 62 ae be 96 98 50 be
       0.12651333 0.13654569 -0.34059182 -0.20370707
0002c0 df e7 32 be 71 82 c1 be 80 51 03 bc 5b 96 85 3e
       -0.17471264 -0.3779483 -0.008015037 0.26091275
0002d0 bf 1d e9 bb db 7f ff bd af a0 08 be c8 b9 45 3e
       -0.0071141417 -0.12475558 -0.13342546 0.19309151
0002e0 c9 1e a1 be 08 2e 16 3d 8d 73 df be af a9 1f 3f
       -0.314688 0.036664993 -0.43642846 0.6236829
0002f0 4a f3 7b be b6 6d 83 3d fe 0b 2d 3e ac 9d b5 3e
       -0.24604526 0.0641741 0.16899106 0.35471857
000300 5c a7 c3 3e 78 39 37 3e 9a 0e 32 be 8c e2 7f be
       0.38213623 0.17893016 -0.17388383 -0.24988765
000310 39 81 06 bf 9b 21 b0 be 82 83 77 be 89 37 e2 be
       -0.5254093 -0.3440064 -0.2417126 -0.44182995
000320 e5 3a 26 bf dd e4 42 be c1 80 bb be 52 01 fa be
       -0.64933616 -0.19032617 -0.3662167 -0.48829132
000330 82 ca b7 be 21 0d f8 be 3c 09 82 be 3c cd 07 be
       -0.3589669 -0.48447517 -0.2539767 -0.13261884
000340 a5 c0 40 3d 2f bf 87 be 89 c7 bd be 3d 77 b7 be
       0.04705872 -0.2651305 -0.37066296 -0.3583316
000350 5b 9a e8 be a7 28 0a bf 40 05 4c 3e 9a e0 a3 3e
       -0.45430264 -0.5396828 0.19923878 0.32007295
000360 1b 54 bf be 21 60 32 bf 0b d3 95 be 9a 59 46 bf
       -0.37368855 -0.6967793 -0.29262576 -0.7748047
000370 04 fa 3f be d4 14 72 3e 75 fc e0 be 0a f9 86 3d
       -0.18747717 0.23640758 -0.4394261 0.06590469
000380 9c b9 db 3d 04 a4 0a bd a7 86 1c bd bf 88 cf bb
       0.107287616 -0.033847824 -0.038214352 -0.00633344
000390 81 a6 72 3e 36 c8 57 3e 81 ee 53 3e c5 b4 d0 3e
       0.23696329 0.21072468 0.20696451 0.40762916
0003a0 f0 9a 7c 3e b4 08 37 3d 3b 6e 81 bd db 19 99 be
       0.24668479 0.044686034 -0.06319853 -0.2990254
0003b0 c2 69 75 be a5 f7 53 be b6 d9 8c bd bf 55 2e 3d
       -0.23966125 -0.20699938 -0.068774626 0.042562243
0003c0 9c 10 81 3e ea 3e 08 be f0 ea 8e be 6c 16 69 be
       0.25207984 -0.1330525 -0.27913618 -0.2276246
0003d0 a0 18 84 bd cc 46 8c bd ce 5e 08 bf e9 b1 c6 be
       -0.06450009 -0.06849441 -0.5326966 -0.3880761
0003e0 e8 5a dd 3e 78 fd 7a be f8 1a 85 3e 7e 4b a7 3d
       0.43233418 -0.24510753 0.25997138 0.08168696
0003f0 89 0b ac 3f c6 fb 3b 3e 04 d4 d1 3e bc 78 7a 3e
       1.344102 0.18357763 0.40982068 0.24460119

convs.0.event__follows__event.lin_rel.bias f4 [16]
000000 a1 5a 2a be 26 49 f0 3d 07 0e 94 be 9f 00 6c bd
       -0.16636135 0.11732702 -0.28916952 -0.05761778
000010 34 97 c6 bc fe 49 5b be 3b 9b 6b bd 3a 56 82 3d
       -0.024242021 -0.21414945 -0.057521086 0.06364103
000020 31 ab 6c bd ad 2e 0f 3e 67 5b 10 be 64 0d 48 3d
       -0.05778045 0.13982649 -0.14097367 0.048840895
000030 0e ff 0f be ec 11 c2 3d 7e 0a 75 bd c8 aa 60 be
       -0.1406214 0.094760746 -0.05982446 -0.21940148

convs.0.event__follows__event.lin_root.weight f4 [16, 27]
000000 18 f1 23 be 51 99 73 be e7 28 e6 bb b6 6d ba be
       -0.16009939 -0.23788954 -0.007023919 -0.36411828
000010 5e 29 08 be c2 75 42 bd 9c 62 ac be 63 13 ed bd
       -0.1329703 -0.047475584 -0.33668983 -0.11575963
000020 d2 66 df bc 73 45 13 3e 98 b5 c7 3b e9 ad f4 3d
       -0.027270708 0.14381962 0.0060946457 0.11947233
000030 4e 4a 6b be 1f 4c c0 be 83 aa 8a bd 30 5c aa bd
       -0.22977564 -0.37558076 -0.06770804 -0.083183646
000040 68 07 36 be 0e ee 99 be 91 69 7d be 79 f9 57 be
       -0.17776263 -0.30064434 -0.24747302 -0.2109126
000050 83 75 58 be 18 18 66 be 48 64 60 be e2 56 c8 3c
       -0.21138577 -0.22470129 -0.21913254 0.024455491
000060 9b 01 23 be b8 5b e1 be 19 d6 16 be f7 d0 a3 3b
       -0.15918581 -0.44015288 -0.1473011 0.004999276
000070 1b 4f 45 bb 2b c2 c5 bc c2 50 eb bd 28 10 08 3e
       -0.0030106965 -0.024140438 -0.11490013 0.13287413
000080 28 29 75 bd 48 e7 4c be 39 38 7a 3e 71 19 9b 3d
       -0.059853703 -0.20010102 0.2443551 0.07573212
000090 4b df b2 bd 16 e8 34 be 69 be 88 3e a7 04 4c be
       -0.08733996 -0.17666659 0.2670777 -0.1992365
0000a0 ae 0e 3a 3e b3 47 3c 3e 9d 22 6b 3e 0a 3b 0a 3e
       0.18169662 0.18386726 0.22962423 0.13499084
0000b0 3d 3b 35 bc 4f a4 25 3e 65 83 29 be 5e c2 3a 3e
       -0.011061487 0.1617596 -0.1655403 0.18238208
0000c0 71 47 85 3e e6 cd 1c 3e 2f 06 90 bd fc dd 17 3e
       0.26031068 0.15312919 -0.070324294 0.14830774
0000d0 e8 aa ee 3d 26 c6 ae 3d 3b c5 6c be 40 02 64 be
       0.116536915 0.085338876 -0.23122112 -0.22266483
0000e0 cb 3c 88 be 69 75 05 bf 07 4d 14 bf a3 4d ac bb
       -0.2660888 -0.5213228 -0.57930034 -0.0052582785
0000f0 1e 42 14 bf 06 90 fe 3c fd ef 6a be cf e6 dc be
       -0.57913387 0.031074535 -0.22943111 -0.43144843
000100 9f 78 ca bc 8e ec 4b 3e 3b d6 03 3c a5 c2 03 3f
       -0.02471572 0.19914457 0.008046682 0.5146888
000110 0a b5 17 3e 39 49 86 3e 89 24 91 3d 80 68 3e 3e
       0.14815155 0.2622774 0.07087047 0.18594551
000120 88 ec b4 3d 1c f1 ea bc 0d 60 20 be f0 44 96 3e
       0.08834177 -0.028679423 -0.1566164 0.2934947
000130 7d 83 60 be a7 8d 57 be 85 64 41 3e 03 2b 29 bf
       -0.21925159 -0.2105013 0.18886001 -0.66081256
000140 6d 0f 1b be dd 1b a5 3d 82 fe 7c 3d 25 ee b2 3d
       -0.15142603 0.08061955 0.061766155 0.08736829
000150 3b 50 04 be df cc 16 be 9b 88 69 3c 74 3e 3a bd
       -0.1292123 -0.1472659 0.014253761 -0.045469716
000160 b8 dd a4 3e 94 54 78 bd cb 10 2d be f5 b5 cb 3d
       0.32200408 -0.060627535 -0.16900937 0.09946815
000170 26 38 8e 3d 30 78 33 3e 89 df 4d 3e 06 67 c7 3d
       0.06944303 0.17526317 0.20104803 0.09736447
000180 dd 23 a2 bd 7d 39 c0 3d 09 03 13 3d e5 02 02 3e
       -0.07916997 0.09385965 0.035891566 0.12696417
000190 1b 27 2b be 9c 15 4c 3e 21 f1 0a 3e c4 2c ef 3d
       -0.16714136 0.19930118 0.13568546 0.1167846
0001a0 c7 97 96 3d f3 cf 8d bb 7c cc d9 3d 35 d1 f5 3d
       0.07353168 -0.004327768 0.106347054 0.12002794
0001b0 db e9 8f bd 33 d7 30 be e2 92 91 3d 37 72 53 bd
       -0.07027026 -0.17269592 0.07108094 -0.051622596
0001c0 4d 3c c6 3d ad 73 29 3d e1 38 4c 3e bf 66 b5 be
       0.0967947 0.041370083 0.19943573 -0.35429952
0001d0 60 9b 10 3e 91 22 58 bd 6c 81 cd bd 42 33 08 bb
       0.14121771 -0.05276734 -0.10034451 -0.0020782505
0001e0 dc 25 c2 bd 5a b5 09 3d 41 ea a8 be 02 b6 c4 3b
       -0.09479877 0.033620216 -0.32991222 0.0060031423
0001f0 98 56 45 be 04 0c 51 be 24 06 a1 bc 95 0f ca 3d
       -0.19271314 -0.2041474 -0.019656248 0.09866253
000200 dd cc 62 be 29 c6 56 be 7c 48 fa bd 00 62 90 3d
       -0.22148462 -0.2097403 -0.122208565 0.07049942
000210 9c 13 33 be e9 15 05 3e 30 51 ce 3c b3 e2 69 3d
       -0.17487949 0.1299664 0.025185198 0.057100963
000220 02 a9 50 3d 52 68 b6 3d f5 14 58 3e 9d ba 5a 3e
       0.05094243 0.08906616 0.21101744 0.2136025
000230 90 71 90 be 19 7f 07 3e 17 54 39 3d 7c fd a2 bd
       -0.2821164 0.13232078 0.04524621 -0.079585046
000240 0c 2e 96 3d 43 48 e4 be 95 1e da be c6 7e 21 be
       0.073330015 -0.4458638 -0.42601457 -0.15771016
000250 71 88 60 be 4e 58 5f be 65 ea 99 be 73 d1 5a be
       -0.21927048 -0.2181103 -0.3006164 -0.21368961
000260 6f 06 53 3e 7f 9d 37 3d 2e eb 14 3e 5b 51 8b be
       0.20607923 0.044827934 0.14542839 -0.27210507
000270 4a 5a 86 bd c9 33 c9 bc c4 e5 10 be a9 e9 e1 bd
       -0.0656019 -0.024560826 -0.14150149 -0.11030895
000280 45 94 84 be 40 37 39 3f 2e 4d 87 bd c0 d8 a7 bd
       -0.2589437 0.7234993 -0.06606518 -0.08195639
000290 f3 71 d9 bd 98 f2 31 3e 11 08 40 3d 9f 98 a1 be
       -0.10617437 0.17377698 0.046882693 -0.31561753
0002a0 d7 c7 97 3d 07 bc 25 3f 7c 58 eb bd b3 51 22 3e
       0.07411163 0.6474003 -0.114914864 0.15851478
0002b0 4f b6 46 bf 90 0b 4d 3f f5 3d 7a bf fa 22 3c bf
       -0.7762193 0.8009577 -0.9775079 -0.7349087
0002c0 9f 15 8f be 27 46 bf be 90 d9 98 be b5 80 90 3e
       -0.27946183 -0.3735821 -0.29853487 0.28223196
0002d0 3b 3c 80 be 96 9c 4d 3c 3b bc e3 bd f2 a7 02 bf
       -0.25045952 0.01254954 -0.111198865 -0.51037514
0002e0 56 09 1d bf 92 60 70 3f f7 5a 20 bf d9 4f 99 3f
       -0.6134237 0.93897355 -0.626388 1.1977493
0002f0 db 40 6d bf f2 b7 f7 3d c6 ce 6f 3e 08 57 bd 3e
       -0.92677087 0.12095632 0.23418722 0.36980462
000300 1f b1 6b 3e 28 69 fb 3e 90 af 79 3c 8a 25 b2 3d
       0.23016785 0.49103665 0.015239611 0.08698566
000310 18 fc f5 be f6 9b 94 3d e2 85 a6 3e f5 c2 10 be
       -0.48043895 0.0725631 0.3252402 -0.1413687
000320 f9 ec 8d be 62 47 a8 be a4 b7 97 be 6e 49 ee be
       -0.27719858 -0.3286696 -0.29632294 -0.46540397
000330 84 d1 a4 be 33 7a 1c be 2b 41 67 be 2c e2 0a be
       -0.32191098 -0.1528099 -0.22583453 -0.1356284
000340 50 75 bc bd c0 a4 54 be aa c6 f9 be 97 63 31 3d
       -0.09202063 -0.20765972 -0.4878438 0.043307867
000350 d2 25 c5 be a1 a8 2a bf 1a d7 24 bd ca bd 23 3f
       -0.38505417 -0.6666356 -0.0402442 0.6396147
000360 40 fc fc be 03 3e e8 be fc 5d 94 be 59 48 1e bf
       -0.494112 -0.4535981 -0.28977954 -0.61829144
000370 45 5e 0d bf de da 48 3e c1 76 a0 be c3 a2 f6 3d
       -0.5522197 0.19614741 -0.31340602 0.12042763
000380 57 d5 40 3e e2 30 9d be 0b bc e9 be 4e 0f 17 3d
       0.18831383 -0.30701357 -0.45651278 0.03687983
000390 df 90 da 3d 9c 8a 8b 3e a0 8d de 3e 8b 9c 22 3f
       0.10672163 0.27254188 0.43467426 0.63520116
0003a0 3b 24 61 bd 43 9f 98 3e fe e9 8c bd ac 24 a0 bd
       -0.054966193 0.29809007 -0.06880568 -0.078194946
0003b0 7b bb b7 bd 2e a1 05 be 73 18 d9 3c d4 26 66 3d
       -0.08971306 -0.13049766 0.026500916 0.056189373
0003c0 a7 31 0b 3f 3e 89 ef be 08 a9 5b be 97 a8 90 be
       0.5437264 -0.46784395 -0.21451199 -0.28253624
0003d0 0e 4e 95 bd 4b 02 78 be 62 11 6e be e8 b2 fe bf
       -0.072902784 -0.24219625 -0.23248819 -1.9898348
0003e0 e5 e1 2a 3f ae db 57 bf f0 9e 9d 3f 8d bc e3 3e
       0.6675094 -0.8431958 1.2314129 0.4447979
0003f0 fb 19 a0 3f bc 10 25 3e e4 19 a6 3d a6 16 0b be
       1.2507929 0.16119665 0.08110407 -0.13582858

convs.0.application__interacts__event.lin_rel.weight f4 [16, 3]
000000 cf c1 b0 3e b2 b1 c8 3e 31 29 b7 be 35 c5 ac 3c
       0.34522864 0.3919807 -0.35773614 0.02109013
000010 8d 34 50 3e 6c 82 89 be 21 ce 82 3e 44 85 eb be
       0.20332547 -0.26857316 0.2554789 -0.4600011
000020 04 cc 9b 3e a9 c9 32 3e 23 05 1d 3d 55 37 87 bd
       0.3042909 0.1745974 0.038334977 -0.066023506
000030 79 8d f2 3e b9 94 fa 3d 98 39 d8 be a4 fa e6 be
       0.4737356 0.12235398 -0.4223144 -0.451131
000040 fb aa d0 bd be 8a 8b 3e 16 e2 26 3f e1 e0 38 3f
       -0.10188862 0.2725429 0.6518873 0.7221814
000050 29 82 ae 3e 54 eb 0c 3d 09 49 21 3e b3 61 33 3e
       0.3408368 0.034404114 0.15750517 0.17517738
000060 aa 3e b3 3c 7b c8 6e 3e 28 d5 a7 3e 08 ba 97 3d
       0.021880466 0.23318665 0.32779813 0.074085295
000070 76 16 22 bf b2 f3 1a bf c2 87 ea 3e 1c c0 ab be
       -0.6331552 -0.605281 0.458067 -0.33545005
000080 b3 8d b5 be f7 64 4e 3c 8a cd c2 be db 5a 91 be
       -0.3545967 0.012597314 -0.3804744 -0.2838963
000090 34 4e df be be 27 b1 be 22 99 69 be df 0d 01 be
       -0.43614352 -0.34600633 -0.22812322 -0.12602948
0000a0 ce 42 98 be 81 8b 3e bd d1 60 76 3f 70 c7 3f 3f
       -0.29738468 -0.04651976 0.9624148 0.7491369
0000b0 5f eb 92 3d b0 62 16 3c 3e c2 02 3d 13 3d cd 3d
       0.071738 0.009178802 0.031923525 0.100214146

convs.0.application__interacts__event.lin_rel.bias f4 [16]
000000 70 67 d8 3c 99 a7 fd be 2f 67 03 3e 4d b3 d8 be
       0.02641651 -0.4954193 0.1283233 -0.42324296
000010 2a 00 17 bf 20 2c 09 3e 1e 1d 4a be 80 e3 2d 3e
       -0.58984625 0.13395739 -0.1973767 0.16981316
000020 80 35 a9 3e 58 0d da be e0 ec e9 3e 13 b1 56 be
       0.3304863 -0.42588305 0.45688534 -0.20965986
000030 f4 eb e4 3d d9 ee b5 be 93 54 a7 be 95 27 a5 3e
       0.11177817 -0.3553379 -0.32681713 0.3225676

convs.0.application__interacts__event.lin_root.weight f4 [16, 27]
000000 b0 47 97 be 20 5a d3 be d7 68 37 be d2 d9 84 be
       -0.2954688 -0.41279697 -0.17911087 -0.25947434
000010 aa 2c bd be ce 2a ee bd 4b 1c 6d bd 70 6a 8b 3d
       -0.36948138 -0.11629258 -0.05788831 0.06807411
000020 5d ec ac be 7b 10 51 bd a8 fd 32 3e 09 6a 10 3c
       -0.3377408 -0.051041108 0.17479575 0.008814343
000030 8b 3c 22 be 51 a0 cc be 36 06 ad be a2 54 9c be
       -0.15843408 -0.39966062 -0.337938 -0.3053332
000040 5a 4b 10 bd 5a 63 86 bd 04 cf 72 be 96 f9 1b bd
       -0.03522811 -0.065619186 -0.23711783 -0.03807982
000050 2c 33 7c be 16 b4 e7 bd be 38 b9 be 41 0d eb 3d
       -0.24628896 -0.113136455 -0.36176103 0.11477137
000060 15 fe 91 be 03 25 db be 8a 0b 66 be 24 de 84 3d
       -0.28514162 -0.42801675 -0.2246534 0.064876825
000070 ed a4 9c be 9a ce 74 bd e7 2f 82 bd c9 04 29 bd
       -0.30594578 -0.059767343 -0.06356793 -0.04126433
000080 f4 72 06 3e e7 6e 98 bd a3 60 b6 3d 38 0a 38 be
       0.13129789 -0.07443028 0.08905151 -0.17972648
000090 b7 1d 38 bc 5c 75 15 3d dd 46 be 3d ae 0a 27 be
       -0.011237553 0.036488876 0.0929086 -0.16312668
0000a0 2e 0a b7 3e 17 5f 2d 3e 2e ca 96 3e 97 88 6a 3e
       0.35749954 0.16930805 0.29451126 0.22903667
0000b0 4d 8e e7 bc 48 ab 3e 3e 08 9b 3e bd c4 3c 87 3d
       -0.028266096 0.18620026 -0.046534568 0.06603387
0000c0 5b b4 b1 3e 15 d1 c9 bd 60 56 0c be d1 7f c6 bd
       0.34707913 -0.09854332 -0.13704824 -0.09692348
0000d0 dc 0d 01 3d f5 8b ca bd 59 dc 58 be 8b eb 07 bf
       0.031507358 -0.09889976 -0.21177806 -0.53093785
0000e0 a1 54 98 be 7e ed f3 be dd 47 e2 be 94 1f 26 bd
       -0.29752067 -0.4764213 -0.44195452 -0.04055746
0000f0 c1 32 ee be e0 9d 50 3c c2 b0 ae bd ec 5e ae be
       -0.46523097 0.012732953 -0.085298076 -0.34056795
000100 25 47 11 3e c7 ac 9d 3e 2c 1a aa bd a8 a2 9b 3e
       0.14187296 0.3079588 -0.08305773 0.30397534
000110 0d cb c2 bb 74 ec 8c bd a4 d3 0b 3e c0 63 48 3d
       -0.0059446157 -0.06881037 0.13654953 0.048923254
000120 40 fa 38 3d 36 64 94 be 2a 5a 96 be 61 21 fa 3e
       0.045160532 -0.28982705 -0.29365665 0.4885359
000130 ed 55 5f 3d cf c4 c0 be 92 4f c1 3d 98 54 f0 be
       0.054525305 -0.37650153 0.09439005 -0.4693954
000140 22 6b b2 be 68 36 2a be d5 7c 65 bd 33 0b 13 be
       -0.3484736 -0.16622317 -0.056027252 -0.14359741
000150 43 07 bb bc c7 33 52 be 25 de 18 be 45 ac ba 3d
       -0.022830611 -0.20527564 -0.14928491 0.09114889
000160 cf 8e 4f 3e 6d c7 d2 bc bf 05 aa 3d af 20 99 3b
       0.20269321 -0.02572986 0.08301877 0.0046730856
000170 96 03 b6 3e eb 16 fe ba 10 0c 9c 3e 49 8d c9 3d
       0.3554961 -0.0019385492 0.30477953 0.09841401
000180 c8 ad b8 3d 9a 0b 47 3e 77 3b 04 3e e3 35 2a bd
       0.09017521 0.1943802 0.12913309 -0.041555297
000190 65 37 2b 3d 2e cb 39 3d f8 59 0e 3e 81 fe 48 3e
       0.041800875 0.045359783 0.13901508 0.19628336
0001a0 a0 98 b6 3d 3f d2 d7 3d e7 d5 b4 3c 37 0d d1 bd
       0.0891583 0.10538148 0.022074653 -0.10207599
0001b0 d4 6d 84 3e d8 93 12 3e 22 35 a2 bc 12 8b 50 bd
       0.25865042 0.1431421 -0.019800726 -0.050913878
0001c0 91 ff ca 3d a7 b9 8d bd 27 c6 da 3d 75 66 6f be
       0.09912027 -0.06920176 0.10682326 -0.23378928
0001d0 b0 2f 6d bd 65 aa 16 bd 6c b4 96 bd 3b e0 ed bd
       -0.057906806 -0.036783595 -0.073586315 -0.11615034
0001e0 50 b1 9b bd f3 ce 34 be 1d 83 b6 be 9c e2 47 be
       -0.07602179 -0.1765707 -0.35646906 -0.19520038
0001f0 94 04 b5 3c 01 34 c5 3c fd 02 7c 3d c5 bc 32 3e
       0.02209691 0.024072649 0.061526287 0.17454822
000200 ff 39 10 be 3c 18 c3 be e4 52 6d 3c e3 1b 2f 3d
       -0.14084624 -0.38104427 0.014485095 0.042751204
000210 18 63 0d be 93 d4 64 bc b2 b2 95 3d 6b 1b 83 3d
       -0.13807333 -0.013966697 0.07309474 0.06401714
000220 a9 f4 05 3e 2e 5d 23 3e e5 b9 82 3d 0c 4f 85 3e
       0.13081612 0.15953514 0.06383113 0.2603687
000230 de 94 d5 bd 6f 82 2f be 85 6a 56 3e e3 c7 42 be
       -0.10428785 -0.171396 0.20939071 -0.19021563
000240 ee 45 95 be e5 35 e2 be 72 23 17 bf cb fd bb bd
       -0.29154915 -0.44181743 -0.5903846 -0.091792665
000250 4c 5e 46 be 84 eb b3 bc 98 1e 89 be 15 86 df be
       -0.19371909 -0.021962889 -0.26781154 -0.43656984
000260 03 a0 1d 3e 86 74 eb bd 29 33 46 bd ca 60 42 3d
       0.15393071 -0.114968345 -0.048388634 0.047455586
000270 eb 2d dc 3d 61 4a b1 bd ae 36 72 bd b2 52 15 3c
       0.10750946 -0.08656765 -0.059134178 0.009113954
000280 6f 85 94 be c3 58 0a 3f 08 36 ea 3d 2f 7d f2 bc
       -0.29008052 0.5404169 0.11436087 -0.029600708
000290 93 34 db ba a8 28 0d 3e 9c ea 14 3e d5 a1 c5 be
       -0.0016724042 0.1378504 0.14542621 -0.3860003
0002a0 c0 b2 46 3e b7 3f e7 3e f7 e8 8c 3d 6f fb 8d 3e
       0.19404125 0.45165798 0.06880372 0.2773089
0002b0 a5 b0 49 bf 63 91 3f 3f 60 4a 62 bf eb bf 12 bf
       -0.78785163 0.7483122 -0.8839474 -0.57324094
0002c0 03 cd 87 be 9f 09 c4 be bb d9 21 be 11 34 81 3e
       -0.265236 -0.3828859 -0.15805714 0.25235036
0002d0 35 ba 5c be 2a 27 1d 3c d2 85 1f be 00 f1 8e be
       -0.21555407 0.009591857 -0.15578392 -0.27918243
0002e0 e4 37 2e bf cf 54 75 3f da 1b 0e bf d0 f0 92 3f
       -0.6805403 0.9583253 -0.5551125 1.147974
0002f0 8f 7b 97 bf 68 82 d0 3e a0 86 c9 3e 7b 8d d5 3e
       -1.1834582 0.40724492 0.39360523 0.41709504
000300 a6 72 14 bd a0 0c f2 3e d0 3c 4b be 35 bb 3f 3e
       -0.03624215 0.47275257 -0.19847417 0.18723758
000310 ee 62 c4 be 3d 57 5b be d2 15 11 3e 36 b2 5a be
       -0.38356727 -0.21419998 0.1416848 -0.21357045
000320 9f f1 80 be 43 1a ea 3c 07 eb ef be 1a b7 b4 be
       -0.25184342 0.028576976 -0.46859 -0.35295945
000330 0d 10 4e be cf b1 7b be d0 1b bd be 2d df 68 bd
       -0.2012331 -0.24579547 -0.36935282 -0.056853462
000340 91 ae 62 bd 72 26 a8 3d ed 05 0c bf ef d1 19 be
       -0.05534226 0.08210458 -0.5469654 -0.1502149
000350 54 91 f4 be e7 3d 01 bf 79 b8 36 bd 1e bf 25 3f
       -0.47767127 -0.5048508 -0.04460952 0.64744747
000360 9a 64 fe be 3e 08 1a bf 7c 87 9f be 24 06 47 bf
       -0.49686128 -0.60168827 -0.31158054 -0.77743745
000370 fe 9b 13 bf 52 c2 ea 3d a4 a7 87 be a1 77 06 3e
       -0.576599 0.11462845 -0.26495087 0.13131572
000380 09 59 35 3d 64 61 ae be 0a d4 f8 be 44 c0 b9 3e
       0.044274364 -0.34058678 -0.48599273 0.362795
000390 96 48 e1 3e 35 33 a2 3e 07 ed a6 3e ae 37 0c 3f
       0.4400069 0.31679693 0.32602713 0.5477246
0003a0 99 76 ab 3d 48 59 ba 3e 16 9a 27 3d 69 d6 45 be
       0.0837223 0.3639624 0.040918432 -0.19320072
0003b0 b4 c1 46 bd 51 78 b4 3d 0a 21 f6 3d 6d 9c cf bd
       -0.048524573 0.08812011 0.120180205 -0.10137258
0003c0 92 95 ac 3e 29 28 10 bf c4 38 07 be c5 2a d7 be
       0.33707863 -0.5631128 -0.13205248 -0.42024818
0003d0 56 4b e3 3d 17 78 54 bd 74 89 9c be 3e 89 d0 bf
       0.110983536 -0.05187234 -0.30573618 -1.6291883
0003e0 be 05 2b 3f ae 93 77 bf 98 06 88 3f f4 e4 23 3f
       0.66805637 -0.96709716 1.0627012 0.6402123
0003f0 7a 2a c5 3f d2 60 a8 3e 96 6e 1c be f2 00 4f 3e
       1.5403588 0.32886368 -0.1527656 0.20215204

convs.0.offer__interacts__event.lin_rel.weight f4 [16, 7]
000000 ea 33 d2 bd f0 26 1d 3f 38 e3 09 3e 89 8d a9 3d
       -0.10263808 0.6138754 0.13465583 0.08278949
000010 0f a5 3b 3f 11 7d 0e be 4b 81 06 bf fe c8 3d 3e
       0.73298734 -0.13914897 -0.52541035 0.18533704
000020 e6 db 12 bf 1f 84 25 be 3a e0 84 bd 15 00 db 3e
       -0.5736679 -0.16163681 -0.0648808 0.427735
000030 1e 87 b1 3d 3f b3 3a 3f 15 6d 8e be 2e c3 02 3e
       0.0866835 0.7292976 -0.27817598 0.12769768
000040 dc 13 04 3f 36 a0 a0 3d eb f6 0e 3f 75 e3 a6 3d
       0.51592803 0.07843058 0.55845517 0.08148853
000050 90 0c ad 3e f2 9f ce be c4 1c 67 3e 4a ae af be
       0.33798647 -0.40356404 0.22569567 -0.3431266
000060 02 64 58 be 50 d3 89 3f f5 e4 8f 3e 46 58 03 be
       -0.211319 1.0767612 0.28104368 -0.12826642
000070 11 b6 a0 3e de a1 02 bf 3d 96 09 be 87 19 04 bc
       0.31388906 -0.5102824 -0.13436218 -0.008062727
000080 f0 67 4a bf a8 a8 a9 be 6f fe c6 3e 0f a2 44 3f
       -0.79064846 -0.33136487 0.38865992 0.7680978
000090 f4 e0 3b be c4 19 12 bf a4 fb b3 3e a7 b4 86 c0
       -0.18347532 -0.57070565 0.35152924 -4.2095523
0000a0 f5 cc b0 3e 1e 26 03 3f a4 ee 17 3f a7 d7 3b bf
       0.3453137 0.5123004 0.5934851 -0.73375934
0000b0 4c 07 bd be 1b 3b ce 3e 09 b9 06 40 74 07 bb 3e
       -0.3691963 0.4027947 2.1050436 0.36529124
0000c0 3c 2f 92 3e 3c c9 ba 3e 8b 6e 3f 3e 4d 8f 0c 3f
       0.28551662 0.36481655 0.18694513 0.5490616
0000d0 14 19 c2 be 7b f3 24 c0 07 ef 74 be f7 6a ee 3e
       -0.37909758 -2.5773609 -0.23919307 0.46565983
0000e0 ee b1 1d bf 8a 77 8f 3e 4d cd 46 3e b6 86 e4 3d
       -0.61599624 0.2802089 0.19414254 0.111585066
0000f0 5c af 9d 3f da 8f fd 3d 2f 75 30 be 11 f8 63 3e
       1.231914 0.12380953 -0.17232202 0.22262599
000100 61 a2 23 3f f4 29 90 3e 25 45 ca 3e 4f 85 b4 be
       0.63919646 0.28157008 0.39505878 -0.35257956
000110 6b c3 ea 3e db 36 5e 3f a8 1e e8 be ce f7 f5 be
       0.45852217 0.8680245 -0.4533589 -0.48040622
000120 c0 48 b0 bd f0 92 6e bd 31 8f 47 3f 75 84 a7 bd
       -0.08607626 -0.0582456 0.7795287 -0.08179561
000130 5e 96 94 be 3a 78 d7 be f4 cc 7c 3d f5 0e 29 bf
       -0.2902097 -0.42083913 0.061718896 -0.6603845
000140 71 99 77 be cd 45 d5 3d fd cc 5f be 05 f4 1d 3e
       -0.24179627 0.10413704 -0.2185554 0.15425117
000150 2c dd 83 3f 48 dc 19 3f 13 7d dd 3e 3b 8c 7e 3e
       1.0301871 0.6010175 0.43259487 0.24858181
000160 46 dd 06 c0 43 25 3d 3e ef 88 68 3e 25 fa 02 3e
       -2.1072555 0.18471245 0.22708486 0.12790735
000170 d8 9e bd 3c 8c 1b b5 3c 53 b4 70 bc 77 f2 42 3f
       0.023147032 0.022107862 -0.01469143 0.7615122
000180 1a e5 01 bc 13 17 f6 3e 46 64 31 bf ed c5 ec 3c
       -0.007928157 0.4806448 -0.6929363 0.028902972
000190 58 c4 16 3e 59 74 4a 3e 1a 62 6a 40 2e 60 8b 3e
       0.14723337 0.19770946 3.6622376 0.27221817
0001a0 0f 58 20 bd f4 46 44 be 3d 95 f4 be 75 cf 01 be
       -0.03914648 -0.19167691 -0.4777011 -0.12676795
0001b0 93 52 06 be 9a 15 2a bf 4f de 1b be 90 a4 82 3e
       -0.13117437 -0.6643921 -0.15221523 0.25516176

convs.0.offer__interacts__event.lin_rel.bias f4 [16]
000000 55 23 9e 3d 21 34 69 3b 94 36 03 be d6 e0 2f be
       0.07721583 0.003558405 -0.12813789 -0.17175612
000010 99 11 b7 be ee a0 56 3e 46 a5 9e be 96 49 51 3e
       -0.35755613 0.20959827 -0.3098547 0.20438227
000020 c8 8e 19 3d 4a 61 1f 3d 6c fb 3b 3e df c3 6c be
       0.037489682 0.03891114 0.18357629 -0.23121594
000030 1d a0 7e 3e be 7a 2f 3e c2 4f b1 bd ba a1 5c be
       0.24865766 0.17136666 -0.08657791 -0.21546069

convs.0.offer__interacts__event.lin_root.weight f4 [16, 27]
000000 de f0 7d be 83 28 ca be fa 2d 5e be 84 05 13 bf
       -0.24798915 -0.39484033 -0.21697226 -0.5743029
000010 f8 35 c7 be 2d b7 91 be c8 de 30 be 5d 88 d5 bb
       -0.38908362 -0.28460065 -0.17272484 -0.0065165
000020 e0 34 8f 3c de 1e 85 bc b9 aa ff 3b da 62 32 bd
       0.017481267 -0.01625007 0.007802334 -0.043551303
000030 f1 37 48 be 92 b1 b3 bd a7 62 60 be a1 a0 27 be
       -0.1955259 -0.08774103 -0.21912633 -0.16369869
000040 f5 f5 7d be be 8d 58 be 33 ef be bd f9 a4 2c be
       -0.24800856 -0.2114782 -0.093229674 -0.16859807
000050 f6 f0 85 be fa 69 05 be 0f 43 ab be 4b 93 1f 3e
       -0.261604 -0.13028708 -0.334496 0.15583532
000060 e4 c3 01 be b1 fa 9f be 11 70 53 be 88 46 81 be
       -0.12672383 -0.3124595 -0.20648219 -0.25249124
000070 4b d2 67 be b8 86 a6 bd 08 24 2e 3d 3f 63 bc bd
       -0.22638814 -0.08131164 0.04251483 -0.09198617
000080 1c cf 2e be 9c a7 f6 bd de 74 99 3e d7 1d 77 bd
       -0.17071193 -0.12043688 0.29971975 -0.060331192
000090 c2 6d 01 3e 73 34 0a be 1d e6 bb bb 90 fe 92 be
       0.12639526 -0.1349657 -0.0057342188 -0.2870984
0000a0 b9 f1 74 3e 05 53 ca 3c 23 f2 12 3e 72 4b 64 3e
       0.23920335 0.02469779 0.1435018 0.22294405
0000b0 2f dc 7e 3e 30 c7 f4 bd 17 43 da 3d 13 d8 01 3c
       0.24888681 -0.119520545 0.106573276 0.007925051
0000c0 59 80 48 3e ad d6 d0 bd fe e7 db bc 83 02 96 bd
       0.19580211 -0.10197196 -0.026844021 -0.07324698
0000d0 24 36 26 3d ff 17 1f 3e 0f ba c8 be 15 3a b0 be
       0.040578976 0.15536498 -0.3920445 -0.34419313
0000e0 7c 77 8b be ff cb 80 be 12 1b 0e bf ce 3a aa 3d
       -0.27239597 -0.25155637 -0.55510056 0.08311997
0000f0 de 18 fa be 87 06 b7 3a c4 53 41 be d8 85 8f bd
       -0.48847097 0.0013963737 -0.1887961 -0.070079505
000100 aa be 10 bd 1f a9 31 3e 66 e6 db bd 4c 1d 08 3f
       -0.03533808 0.17349671 -0.107373044 0.53169703
000110 0d 19 e9 3d 04 7c 04 3e 38 16 9e 3c 14 bf a6 bd
       0.11381731 0.12937933 0.019297704 -0.08141914
000120 5c fe 90 3d 9b 42 20 bd 5c 1d 91 be f3 86 f6 3e
       0.07079765 -0.03912602 -0.28342712 0.48149833
000130 71 81 32 bd da ab 91 be ac ed 99 bd 1d 6e 3d bf
       -0.043580476 -0.28451425 -0.075160354 -0.73996145
000140 96 64 a8 be ab be 85 3c 3e bd 8c 3d 88 5d 4c be
       -0.3288924 0.01632627 0.068720326 -0.19957554
000150 51 5c 95 bd 9b 25 bc bd ae 47 a0 3c 14 d1 1a be
       -0.072929986 -0.0918686 0.01956543 -0.1511882
000160 70 a2 e9 3d 23 34 9f bc e9 a1 5c 3c ec ac 0b 3e
       0.114079356 -0.01943404 0.013466337 0.13640183
000170 ac 35 b2 3e 04 a6 8b 3e 9a 01 4a 3e 19 67 78 bd
       0.34806573 0.27275097 0.19727173 -0.060645197
000180 7a c8 6c bd 26 bf 31 3e 1c 5c 9b 3b 8b d0 9e bd
       -0.057808377 0.17358074 0.004741205 -0.0775462
000190 85 ea b2 3d 70 73 88 3d 9e aa c9 3e 19 c6 86 3c
       0.08736137 0.06662643 0.39387983 0.016451882
0001a0 5f 9a 29 be 6d 57 25 3d d5 88 23 be 15 a1 9c bd
       -0.16562794 0.04036658 -0.15970166 -0.076479115
0001b0 72 89 86 3e d2 dc 50 bd dd ce d3 3d b7 72 74 3d
       0.26276737 -0.05099184 0.103421904 0.059679713
0001c0 0d 15 c5 3e 69 0b f5 bd 10 50 75 3d 98 de 13 be
       0.38492623 -0.11965067 0.059890807 -0.14440382
0001d0 7f e0 53 3e 0d 2c 16 3e 07 a4 94 be 96 aa 59 be
       0.20691107 0.14665242 -0.29031393 -0.2125648
0001e0 e8 89 88 be 5c 02 c4 bd 3b 36 6f be 46 8d 86 be
       -0.26667714 -0.095707625 -0.23360531 -0.26279658
0001f0 f3 d6 a4 3d df a5 92 bd 9d 38 1d be 8d cf 1a be
       0.08048811 -0.07160544 -0.15353628 -0.15118237
000200 ff 15 3a bd 66 9d b7 be 82 2b 38 be 4b 0f d5 3b
       -0.045431133 -0.35862273 -0.17985347 0.006502067
000210 68 e0 78 3d 51 55 f6 bd 6a 66 18 3e ae f3 e2 3d
       0.060760885 -0.120279916 0.14882818 0.110816345
000220 24 76 2c 3e 72 b3 3b 3e 2a 10 9e 3d 7b d4 c4 3e
       0.16841942 0.18330172 0.07717927 0.3844336
000230 96 ac 31 bd 9d 54 e9 3d 80 e8 52 3e 31 b8 14 be
       -0.04337748 0.11393092 0.20596504 -0.14523388
000240 02 54 2e be e1 0d e1 be 7f 39 cb be cb 93 0d be
       -0.17024234 -0.439559 -0.39692304 -0.1382591
000250 1b c3 c0 be e3 83 8e be 29 bd 1f bc fd db 7c be
       -0.37648854 -0.27834997 -0.009749689 -0.24693294
000260 c1 db cf 3e 26 e4 9b 3d e3 0f 49 bd bd b4 ff 3c
       0.40597346 0.07611875 -0.049087416 0.031214112
000270 c1 f1 8d bd ea 25 3a be 3d 69 6a be 01 66 81 bd
       -0.069308765 -0.18178526 -0.22891708 -0.06318284
000280 2f df b7 bb 94 4b 32 3f 78 f0 72 bd 5b d2 7a 3e
       -0.0056113224 0.69646573 -0.05931136 0.24494307
000290 73 46 dc bd b1 67 e2 3d 3f 22 9a 3e 33 7d a2 be
       -0.107556246 0.11054934 0.30104253 -0.31736144
0002a0 c3 a8 d0 3c d4 9f 35 3f 60 df 66 bd 1d 9c e1 3d
       0.025471097 0.70947003 -0.05636537 0.11016104
0002b0 a0 29 17 bf 41 51 61 3f 65 b8 6d bf 51 c4 3b bf
       -0.5904789 0.8801461 -0.9285949 -0.7334643
0002c0 6a f6 88 be f9 0c 91 be 0c 97 c1 be 7a a3 2e 3e
       -0.267505 -0.2833021 -0.37810552 0.17054549
0002d0 bd a2 cd bd e1 fa 77 be e8 d9 4b be ce 4f cb be
       -0.100408055 -0.24216796 -0.19907343 -0.39709324
0002e0 da 86 64 bf ff a0 76 3f e2 98 12 bf 69 cc 85 3f
       -0.8926827 0.9633941 -0.5726453 1.0453006
0002f0 e4 dd 80 bf 46 10 ba 3e 2c ac 1a 3e e4 d9 10 3f
       -1.0067716 0.3634054 0.15104741 0.56582475
000300 c9 a1 c5 3d 09 cd f8 3e f7 fc 01 be 28 c6 93 3e
       0.09649999 0.4859393 -0.12694155 0.2886212
000310 cd cd db be 05 1d 2e be be 14 69 3e 5c 69 ab be
       -0.4293045 -0.17003258 0.22761819 -0.3347882
000320 24 76 f6 be 4b c3 64 be 09 5d d0 be 55 d9 c8 be
       -0.4813701 -0.22340123 -0.4069598 -0.3922831
000330 c4 8a c3 be 91 cf cb bd 9c 07 8e be af aa 78 bd
       -0.38191807 -0.099516995 -0.2774018 -0.06070965
000340 a4 b6 ed 3d 74 0c 8f 3d 01 a2 41 bf 93 67 2e bd
       0.116071016 0.06984797 -0.75637823 -0.042579245
000350 ef 5a d8 be f7 68 1f bf 39 9a 71 3e e8 1e 5f 3f
       -0.42256877 -0.6226954 0.23593988 0.87156534
000360 91 52 2e bf 50 53 c6 be cc 66 e1 be e1 d0 12 bf
       -0.68094736 -0.38735437 -0.4402374 -0.57349974
000370 fe 53 13 bf 44 59 6f 3d 35 05 09 bf ea 25 a0 bd
       -0.57550037 0.05843474 -0.5352357 -0.078197315
000380 12 1d 42 3e 10 b4 a5 be db 3a 39 bf 45 5c 61 3e
       0.18956402 -0.3236394 -0.7235543 0.22007854
000390 19 c1 d1 3e 50 78 14 3e 1a 51 1a 3f e7 34 db 3e
       0.40967634 0.1449902 0.6028 0.428138
0003a0 49 7b 07 3e 11 ab 92 3e 62 9c 62 3b 5f df bd be
       0.13230623 0.28646138 0.0034578075 -0.3708448
0003b0 b8 15 c5 bb f6 71 06 be 65 8c 1c be 4d 93 2f 3c
       -0.006014552 -0.1312941 -0.15287931 0.010716272
0003c0 9a 92 81 3e 8a 91 0b bf be fc 99 be 2a da d9 be
       0.2530716 -0.5451895 -0.3007564 -0.42549258
0003d0 74 51 3a be f8 4f 0d bd 7b 34 91 3d b4 41 e5 bf
       -0.18195134 -0.034500092 0.07090088 -1.7910676
0003e0 8b cb e2 3e a6 ca 63 bf 6f 3c 80 3f da ba 0b 3f
       0.44295916 -0.8898109 1.0018443 0.5458199
0003f0 03 5a be 3f 6c 04 53 3d 44 18 97 3d 73 99 da bd
       1.4871219 0.05151789 0.07377675 -0.10673799

convs.0.application__updates__application.lin_rel.weight f4 [16, 3]
000000 43 05 92 be 1c db cb be 2d ab 33 3c e4 61 71 3e
       -0.2851964 -0.39815605 0.010966104 0.23572499
000010 82 40 13 3f c2 eb f1 be 7f 67 ff 3d 62 ae 85 be
       0.57520306 -0.4725018 0.12470912 -0.26109606
000020 2c 2c 35 bf 42 14 fa 3e ce 95 ad 3e 8d 49 0b 3e
       -0.70770526 0.4884358 0.33903354 0.13602276
000030 75 f5 45 3f f8 b8 12 3f a6 f5 20 bf c6 32 21 bf
       0.7732766 0.5731349 -0.6287483 -0.629681
000040 f4 af 0c bf ca 68 4e be e6 a5 da 3e 28 07 13 bf
       -0.54955983 -0.20157161 0.42704695 -0.57432795
000050 3d a5 93 bd 98 a3 a5 be 5f fb b0 be 59 fb bf bc
       -0.07209251 -0.32351375 -0.3456678 -0.023435282
000060 74 df 95 3e 6d e0 be 3e f9 55 1a bf 49 20 1c 3d
       0.29272044 0.37280598 -0.60287434 0.038116727
000070 d9 f1 c3 3c e0 c5 c0 be d9 f3 75 be 06 5c 68 bd
       0.023919033 -0.37650967 -0.24018802 -0.056728385
000080 52 39 cc 3e d6 51 05 bf 72 1d 99 be 2d d5 55 be
       0.39887482 -0.52077997 -0.29905277 -0.20882101
000090 59 fc 76 bd 8c 02 26 bd 65 2b 26 bf b3 66 3f 3d
       -0.06029925 -0.040529773 -0.64909965 0.0467288
0000a0 69 85 3b be c6 6b 82 be 5d 39 44 3f 21 41 9f 3e
       -0.1831261 -0.2547285 0.7665003 0.31104377
0000b0 26 eb 9d bc e5 e5 14 3f c8 ba 29 3f a3 4e 33 bf
       -0.019277167 0.5816329 0.6630063 -0.70041865

convs.0.application__updates__application.lin_rel.bias f4 [16]
000000 16 36 47 bd f7 24 1e be 31 b2 5a 3e 99 4c 67 bd
       -0.048635565 -0.15443788 0.21357037 -0.056469534
000010 cc 12 6c 3e 81 8d 69 3e fb 11 03 be 54 67 9c be
       0.23054045 0.22807886 -0.12799828 -0.30547583
000020 68 05 d1 3b 9b 4d 41 3d 99 50 75 3e 71 d9 13 bd
       0.0063788183 0.04719315 0.23956527 -0.03609604
000030 f5 76 b4 3e 99 81 6d be 99 bf 8c 3e 31 39 83 3e
       0.35247007 -0.23193969 0.27489927 0.2562957

convs.0.application__updates__application.lin_root.weight f4 [16, 3]
000000 b9 a2 52 3f ef d5 56 3e 19 6a 5c be 38 9e 6c 3f
       0.82279545 0.20980047 -0.21524848 0.9242892
000010 d2 b9 d0 bd c7 17 7e bd 7d 91 71 3f 8e f5 0f 3f
       -0.101916924 -0.062034395 0.9436262 0.5623406
000020 8a 81 01 3e d5 69 0a 3f 25 01 13 be 24 fb 8e be
       0.12647071 0.54067737 -0.14355905 -0.2792598
000030 a1 a5 5e 3f df fc 22 3f 81 0b 9e bd 00 dd 3e 3d
       0.8697148 0.636671 -0.07717038 0.04659748
000040 50 a1 9b 3e a0 34 5d be d3 6d 94 3e 57 26 2b be
       0.3039651 -0.21602106 0.2899004 -0.16713844
000050 80 39 d5 be ac ce 90 3e 37 00 f8 3e ca 5c 8e 3e
       -0.41645432 0.28282678 0.48437664 0.27805167
000060 53 d2 a6 be 93 13 fe be de bd de 3d ef b3 06 bf
       -0.3258234 -0.4962431 0.10876058 -0.52618307
000070 34 27 0b be e2 c6 07 3d e9 4c 4a 3e 1a 2c 7f be
       -0.13589174 0.033148654 0.19755901 -0.24919167
000080 64 9d 5a 3d 1b b2 5a bf 48 2b 8e 3e 35 ce fc be
       0.053372756 -0.8542802 0.27767396 -0.49376073
000090 26 00 1e bd 79 40 2a bf 26 cd 80 3d 5f 6d 9b 3e
       -0.03857436 -0.6650463 0.06289129 0.3035688
0000a0 92 01 00 bf 10 ec bf 3e 16 7f b9 3e ae 6f 9f be
       -0.50002396 0.3748479 0.3622977 -0.31139892
0000b0 01 ab 36 bf 94 cb b2 3f 13 24 18 3f 64 55 1e bd
       -0.7135468 1.3968377 0.59430045 -0.038655654

convs.0.offer__updates__offer.lin_rel.weight f4 [16, 7]
000000 27 58 f9 3f ea 70 2c bf 92 f4 6f bf 0d 29 ea 3e
       1.9480027 -0.67359793 -0.9373256 0.45734444
000010 e4 8d ec bf fb 6f 11 c0 cb bc 0f 3f 8c ba b9 bd
       -1.8480802 -2.2724597 0.5614745 -0.09068784
000020 36 54 76 be 9a ac ce bd 2a ae de 3d 4e 2c 3f 3f
       -0.24055561 -0.10091515 0.10873063 0.7467698
000030 e2 4e a3 be cb 78 f4 3d 08 a9 63 3d e2 61 ef 3d
       -0.3189612 0.11937102 0.055581123 0.116885915
000040 ca 23 81 be 48 e5 56 be e2 ad 71 bf 41 3b 9f 3c
       -0.25222617 -0.20985901 -0.9440595 0.019437434
000050 93 0d 5a 3e 62 2e 83 3e 26 82 b9 bd 48 27 03 be
       0.2129424 0.25621325 -0.09058027 -0.12807953
000060 18 d1 28 be e3 6e 8a bf 71 58 34 be 16 82 a0 bd
       -0.16486013 -1.081509 -0.17611863 -0.07837312
000070 d8 ee 33 bd f9 30 f6 3e 12 4f dd bc 81 21 0d 3e
       -0.04392895 0.48084238 -0.027015243 0.13782312
000080 81 e5 5e bf 38 49 fb be 08 5c a1 3e 51 6c 3d 3e
       -0.87068945 -0.490793 0.31515527 0.1849835
000090 14 9b ac 3e ca e1 04 3e 1b 21 8e 3e c3 61 82 3e
       0.33712065 0.12976757 0.27759632 0.2546521
0000a0 aa 76 a5 3d 8b c6 0d 3e 7e fd 3d bd 35 b3 e7 3e
       0.08079274 0.1384527 -0.046384327 0.45253912
0000b0 58 8a ba bc 3e 77 ee be d1 43 ae c0 27 4c 25 3f
       -0.022771046 -0.4657535 -5.4457784 0.64569324
0000c0 f7 c9 a6 3e 0e cc ab 3f 00 60 c5 be 58 37 b3 bf
       0.32575962 1.3421648 -0.38549805 -1.4001265
0000d0 74 79 f8 bb 73 d3 a2 c0 09 93 6a 3d f8 ff 86 3f
       -0.0075828377 -5.0883117 0.05726913 1.0546865
0000e0 bd b6 90 bc 4f 76 32 3f f5 ad 49 3f bf 24 0d be
       -0.017665261 0.69711775 0.7878106 -0.13783549
0000f0 46 94 06 3e d0 fd a6 be b4 73 0d 3e 46 84 d9 bf
       0.131425 -0.3261552 0.13813668 -1.6993492
000100 a6 54 c1 bd 53 4a 0d 3f c9 26 12 be 91 e6 c0 40
       -0.094399735 0.55191535 -0.14272608 6.0281453
000110 7b 3c 84 be d8 81 46 bf 0a 2e 49 3d ac 8a c2 bc
       -0.25827393 -0.77541876 0.049116172 -0.023747765
000120 2f 2a 1e 3e d6 e2 65 be 3a e0 36 3f a0 25 5b bf
       0.1544578 -0.22449812 0.7143589 -0.85604286
000130 84 00 43 3d da 7d 14 3f b2 6b 35 be 74 4e e4 bd
       0.047607914 0.58004534 -0.17716864 -0.11147776
000140 72 00 1f 3e fd ea 6c be c1 b2 a3 be f5 05 9d be
       0.15527514 -0.23136516 -0.31972316 -0.30668607
000150 1a 05 ab bf 4e 15 84 3c 48 75 08 be f8 0d 20 3e
       -1.3360932 0.01612344 -0.13325989 0.15630329
000160 b0 64 9b 40 a9 04 ae bd 59 18 5f bf fa 14 8b 3e
       4.856041 -0.084969826 -0.87146527 0.2716444
000170 6e e1 00 bf cf a1 a1 be 41 5c a5 bd 67 38 cd bf
       -0.5034398 -0.31568763 -0.08074237 -1.6032838
000180 f8 d4 0e 3e 1c 71 ad be 26 36 b5 bd 7f 82 11 3f
       0.13948429 -0.33875358 -0.088482186 0.56839746
000190 47 d5 0b 3f 6c 38 b3 be 59 19 8e c0 51 d1 29 3f
       0.5462231 -0.35003984 -4.440594 0.66335016
0001a0 c6 ef e5 3e 59 33 b2 3b 36 95 e1 3e 90 55 ad 3e
       0.44909495 0.00543825 0.4405915 0.33854342
0001b0 4a 79 03 be 8c 34 83 c0 0b e4 a5 3e 24 48 34 3f
       -0.12839237 -4.1001644 0.32400545 0.7042258

convs.0.offer__updates__offer.lin_rel.bias f4 [16]
000000 ab e5 4e be eb 82 ee 3c 2b dd d3 be 5e 07 f3 bd
       -0.20204799 0.02911516 -0.41379675 -0.118666396
000010 14 2c f0 be 4c 98 c5 be 81 69 f9 3d c9 48 e9 3d
       -0.4690863 -0.38592756 0.121783264 0.11390836
000020 5c f3 4c be 30 1d fc bb 35 f6 19 bf 36 92 99 be
       -0.20014709 -0.007693909 -0.6014131 -0.29994363
000030 a5 33 5c 3e 80 80 11 bd 62 15 38 3e c3 a8 0c 3e
       0.21504076 -0.035522938 0.17976907 0.13736252

convs.0.offer__updates__offer.lin_root.weight f4 [16, 7]
000000 14 d1 0f 40 47 83 9d be c0 7a 23 bf 77 2c e1 3e
       2.247136 -0.3076422 -0.63859177 0.43979236
000010 f3 20 a2 bf 15 8f 0b c0 f0 e5 0e 3f cb bb d0 be
       -1.2666305 -2.180608 0.55819607 -0.40768275
000020 91 6d fe 3d 71 96 a7 be 94 cb b1 be 25 cb 20 3e
       0.12423242 -0.32731965 -0.3472563 0.15702493
000030 48 66 45 3e 21 41 bb be 9e 05 af bd c5 94 e0 3e
       0.19277298 -0.36573127 -0.08545993 0.43863502
000040 41 49 9a 3d 05 f7 0b 3e 62 a5 07 bf 16 a9 45 be
       0.07533503 0.13668449 -0.5298673 -0.19302782
000050 dd 3d 08 be 35 62 b3 3d e9 fd 5e be b8 c9 c4 3e
       -0.13304849 0.08758966 -0.21776547 0.3843515
000060 69 05 88 3d 56 2e 75 bf e4 c4 9b be 8d 70 23 3e
       0.06641657 -0.9577383 -0.30423653 0.15960903
000070 87 cf 98 3e 0e 4b c7 3e bc 56 b9 3e 7c 3b b9 bd
       0.2984583 0.3892445 0.36198986 -0.09044549
000080 f6 ee 90 bf e8 ee 20 bf cd a7 68 3e be 20 5f 3d
       -1.1322925 -0.6286454 0.22720261 0.054474585
000090 bd da 81 3e f4 ee ec bd b1 cb d1 3c 5e 32 10 3e
       0.25362197 -0.11569014 0.025609823 0.14081714
0000a0 70 29 ea 3c 4c a8 f9 3d a9 ed 4d 3d 9a f1 c9 3e
       0.028584212 0.12190303 0.05027548 0.3944214
0000b0 fe 9a a0 3e 78 9d 08 3d 12 52 9c c0 40 f5 71 3e
       0.3136825 0.0333533 -4.8850183 0.23628712
0000c0 de c3 03 3e 06 9d c3 3f 1c a9 c4 be c6 12 96 bf
       0.12867686 1.5282295 -0.3841027 -1.1724479
0000d0 a3 15 16 3e 19 0c 9f c0 65 44 d1 3e 5b 37 96 3f
       0.14656691 -4.970227 0.40872493 1.1735643
0000e0 b2 75 2a 3e f0 b2 81 3f 50 e9 02 3f 32 13 30 3b
       0.1664646 1.0132732 0.51137257 0.002686691
0000f0 a7 4a a5 3e 3d 76 43 bd 8f b3 2d 3e 94 6e db bf
       0.32283518 -0.047720183 0.16963027 -1.7143121
000100 32 01 bc bb 63 6b d0 3e 2d 1e 03 3e 63 c9 c4 40
       -0.005737447 0.4070693 0.1280448 6.1495833
000110 f0 46 a3 3e 40 e4 86 bf 68 c4 b5 3d 09 2a 43 3e
       0.3189006 -1.0538406 0.08875352 0.19059004
000120 3d 1f 7b bd d0 39 ef bc ea 83 24 3f 03 eb 1c bf
       -0.061309088 -0.029202372 0.64263785 -0.612961
000130 2b 35 f5 3e ab e7 99 3d 50 4e c6 3d 54 65 cb 3d
       0.47892126 0.0751489 0.09682906 0.09931436
000140 f8 66 ed 3d 4a 17 4a bf e5 1b 0b bd c7 ec f3 bd
       0.11591905 -0.78941786 -0.03396215 -0.11910396
000150 e3 55 ca bf 89 04 f4 be 10 32 88 be 98 68 74 be
       -1.580746 -0.4765971 -0.26600695 -0.23868024
000160 5e 7d a0 40 01 44 cc 3d 3e 39 71 bf 75 7a d8 be
       5.0153036 0.09973908 -0.9422797 -0.42280927
000170 56 54 39 be 83 75 0a bf 51 13 5f be d0 a0 a8 bf
       -0.18098578 -0.5408556 -0.21784712 -1.3174076
000180 aa 5b 1c 3e 58 13 84 be e2 f8 e2 be 76 9b 5c 3e
       0.15269342 -0.25796008 -0.44330508 0.21543679
000190 39 44 02 3f bf 6e d0 be ae 91 9f c0 a4 4e 1f 3f
       0.5088535 -0.40709493 -4.986533 0.6222937
0001a0 53 2b 60 3e 16 3b ad be d2 67 a5 bd 6d d5 77 3e
       0.21891527 -0.33834141 -0.08076443 0.24202509
0001b0 49 11 9e be 1a 7a 81 c0 7a 9e dc 3e 8d 48 08 3f
       -0.30872563 -4.046155 0.43089658 0.53235704

convs.1.event__follows__event.lin_rel.weight f4 [16, 16]
000000 d7 c8 2f 3d d4 75 6f 3e cf d5 72 3d 19 90 4f be
       0.042916145 0.23384792 0.059285935 -0.20269813
000010 6b bf a8 3c 27 aa 01 bf 84 fc f4 3d b7 46 04 be
       0.020599088 -0.50650257 0.11962226 -0.129176
000020 2b 96 e3 3d 7d 80 c0 bb 9b 38 c1 3c c8 58 cb 3d
       0.11112627 -0.005874692 0.023586562 0.09929043
000030 8a 52 4d bd 03 b3 de 3d 21 18 82 3e be 5f 64 be
       -0.050127544 0.108739875 0.25409034 -0.22302148
000040 8d e8 2b 3e 96 10 23 bd bd 31 c6 3e 42 49 31 3e
       0.1678793 -0.03981074 0.38709822 0.17313102
000050 21 47 b3 3d 42 c4 73 bf 4d 66 88 3e 14 08 3b bd
       0.08753801 -0.9522134 0.2664055 -0.045662
000060 7b e5 0c 3e 89 6e 91 bf 2c af 76 3e 4a c1 11 bd
       0.13759415 -1.1361858 0.2409026 -0.035584725
000070 21 76 a5 be 51 cc d6 bd d2 18 43 3e f0 e9 ab 3e
       -0.32316688 -0.10488189 0.19052437 0.33576918
000080 9f 5b c5 bd b8 91 6b 3d 44 e7 98 bd 7c 7a bd bd
       -0.09636616 0.057512015 -0.074659854 -0.09251878
000090 56 1b 56 bd 35 24 b9 3a 01 72 06 be 92 1a de 3c
       -0.052272163 0.001412517 -0.13129427 0.02711228
0000a0 1d 8d cc bc 93 11 30 bf af 60 aa be 0a 6d 95 bd
       -0.024969632 -0.68776816 -0.3327689 -0.07296188
0000b0 a1 34 71 bd 88 97 de bd 6e 7b ae be 0c 14 ed be
       -0.05888808 -0.10868746 -0.34078544 -0.46304357
0000c0 55 1c 12 be 01 d6 24 be 21 ab 4e 3c 5e 44 5e 3d
       -0.1426862 -0.16097261 0.0126140425 0.05426442
0000d0 92 2d 31 bd 27 22 2d 3d 96 d3 e7 3d 58 2c c1 3c
       -0.04325635 0.0422689 0.11319654 0.023580715
0000e0 c3 48 06 3e 9c f3 4d 3c 27 68 00 3e a2 28 8e 3d
       0.13113694 0.012570288 0.12539731 0.06941344
0000f0 5f 8a 18 3e f9 52 68 be 97 63 d9 bd 74 de 86 be
       0.14896534 -0.22687902 -0.106146984 -0.26341593
000100 5a 85 87 3d 53 62 b0 3c cc 5a 3d 3e 3f 58 5e 3e
       0.06617232 0.02153126 0.18491668 0.2171335
000110 89 3e 67 3e ce 12 78 3c cd 8e 0c be 95 e2 98 3d
       0.22582449 0.015141202 -0.13726349 0.07465092
000120 7e 48 00 bd 3d 99 2e bd 34 0f 01 3d c8 fb 23 3e
       -0.031319134 -0.04262661 0.03150864 0.16014016
000130 f3 57 0b 3d ed ed ec bc c3 90 87 be 23 71 7d be
       0.03401942 -0.028922046 -0.26477632 -0.2475019
000140 cb 36 99 bd 62 d8 35 3e b5 5d 79 bd 0c 41 6c bd
       -0.07481154 0.17758325 -0.06088038 -0.05767922
000150 0f 61 b4 3e d3 68 ba 3e bc ab 3b bf 3b 7f 21 3e
       0.352303 0.364081 -0.7330892 0.15771191
000160 74 c7 e8 bd 3c b2 e2 be 9d a4 5c ba 8e 84 16 3c
       -0.11366168 -0.44276607 -0.0008416863 0.009186877
000170 94 48 e7 bd de 47 85 bd e7 b9 3f bf 4a 2c 8f bf
       -0.1129314 -0.06507848 -0.7489304 -1.1185391
000180 77 1a 1a 3e ed 87 72 bd f6 31 38 bd 83 04 73 be
       0.15049158 -0.05921166 -0.04496952 -0.2373219
000190 50 91 47 3e ae 0d f4 be ef 39 ee 3d a8 a8 74 be
       0.19489026 -0.47666687 0.11632144 -0.23892462
0001a0 22 a4 f6 bd 84 04 3d be 89 ef 4b 3e af 0b 1d 3e
       -0.120430246 -0.18458754 0.19915594 0.15336488
0001b0 eb 45 59 bd b7 5d c3 bd 2a e9 36 3e b2 79 1f be
       -0.053045195 -0.09539359 0.17862383 -0.15573767
0001c0 ae 08 1c 3d 3d 87 6c 3b 5d 93 23 be f6 a1 01 bd
       0.038094215 0.003609135 -0.15974183 -0.0316486
0001d0 20 c7 aa bc 89 e6 eb bd e7 a5 8d 3c 65 c4 bd bd
       -0.020846903 -0.115185805 0.017291022 -0.09265975
0001e0 21 da dd 3b 8d 53 48 3d ff b4 c4 3d a2 67 45 3e
       0.0067703878 0.048907805 0.09604835 0.19277814
0001f0 1b 7b 9a 3d 3a 42 11 3d f5 0b 94 3e 5a 6a 43 3e
       0.07543012 0.03546355 0.28915372 0.19083539
000200 47 50 15 be 7f 23 ca 3c c9 ba 2c bc 97 f3 d8 bc
       -0.14581405 0.024675129 -0.01054258 -0.02648334
000210 b8 b6 1d be a1 41 9d be bf 42 36 be 15 79 93 3e
       -0.15401733 -0.30714133 -0.17798899 0.28803316
000220 d3 49 3d be 3e bd 82 3c 6a a8 99 3d 2b 69 e9 bd
       -0.18485193 0.015959378 0.075028256 -0.11397012
000230 f0 0e 03 3d de f9 8d 3e fc 1c b1 bc 57 ad 3b 3e
       0.031996667 0.27729696 -0.021620266 0.18327843
000240 ba 47 d0 bd 72 d7 12 3d 70 d6 96 bd 0e 3f 8c 3d
       -0.10169931 0.035849996 -0.073651195 0.06847964
000250 b6 ea 71 3e 39 21 28 bc b7 f4 5e bf 75 b3 31 be
       0.23624691 -0.010261827 -0.87092155 -0.17353614
000260 33 4c 98 bc 36 16 6c be ac b4 68 bd cb 5d 86 3e
       -0.018591022 -0.23055348 -0.056812927 0.26243433
000270 4f 2a c8 3d 76 48 62 3e 4c e3 52 bf 9f 60 a8 be
       0.09773695 0.22097954 -0.8237808 -0.32886216
000280 62 6a cb bd 1c d3 e7 3d 75 d7 ad 3d 6a 4e 09 3e
       -0.099324 0.11319563 0.08488361 0.13408819
000290 64 dc 64 3e d8 60 a4 3e 21 65 11 bf 9f 4c 98 3c
       0.22349697 0.32105136 -0.56794935 0.018591223
0002a0 dd a0 86 be 9a 86 f1 be 3e b0 cf 3c 53 9c b1 bd
       -0.26294604 -0.47173005 0.025352594 -0.086723946
0002b0 66 65 27 be 53 03 f4 3e 27 b3 9a bf bc 5a 0c bf
       -0.16347274 0.47658786 -1.2085923 -0.5482595
0002c0 9d fd 81 bd 10 50 0d bb 9b 2d 3d be ad 5f 32 3d
       -0.06347201 -0.0021562614 -0.18474428 0.043548275
0002d0 16 f1 6a 3e 87 ea 70 3d 60 88 ed be 92 63 21 3e
       0.2294353 0.058817413 -0.46393108 0.1576064
0002e0 74 9b 7f be 0c 5c 63 3d 40 ba b3 bc 8b 5f 7b bd
       -0.24961644 0.055507705 -0.021939397 -0.061370414
0002f0 9a 46 a5 bd 0a b0 22 3e c7 62 ed be 1c e5 c5 3d
       -0.08070107 0.15887466 -0.46364424 0.0966284
000300 bd 5b fa bd bf a2 4e 3e 61 ea 2d 3e b9 12 80 3e
       -0.12224529 0.2017927 0.1698394 0.25014284
000310 66 01 da bd 37 4d 82 3e c4 9e 65 be 94 4f 46 be
       -0.10644798 0.25449535 -0.22423846 -0.19366294
000320 21 d2 12 be f6 94 07 be 18 c5 9f 3d 7d 54 f5 3e
       -0.1433797 -0.13240418 0.078012645 0.47916022
000330 d7 be 25 be 50 5b 10 3f 9d 41 e0 bc fe 3a 0f bd
       -0.16186081 0.5638933 -0.027375037 -0.03496837
000340 5a 1b b7 3d f6 ea 56 3e 98 81 8f be 02 0b 49 be
       0.08940764 0.20988068 -0.2802856 -0.19633105
000350 cd b5 30 be ff 53 bc 3e 35 f9 28 bd 57 dd ec 3d
       -0.17256851 0.36782834 -0.041253287 0.11565655
000360 35 f0 28 be 7c 07 54 bf e9 f5 47 3c 09 14 c8 3d
       -0.16497882 -0.8282392 0.012204626 0.097694464
000370 83 c6 f3 3d c2 d8 45 3e ef 81 c4 be af 66 26 bf
       0.119030975 0.19320968 -0.3838038 -0.6500043
000380 ae b1 59 3d da dd 1f be fb 51 98 3e 24 6c 8d bd
       0.053147964 -0.15611973 0.29750046 -0.06905392
000390 3f cc 87 3e 69 bd 14 3c 41 09 87 be 70 69 bd bc
       0.26523015 0.009078362 -0.26374248 -0.023121566
0003a0 d6 1b 20 3e 83 29 b7 bc 6d c7 dd 3d ea da 82 bd
       0.15635619 -0.022358662 0.10829053 -0.06389411
0003b0 56 ec 1c be 65 65 8a bb 3d 4f ad be ae 03 3c bd
       -0.1532453 -0.004223513 -0.33849517 -0.045901947
0003c0 4d 92 d4 bd 9b bd 9e bc a3 c3 8d 3c b7 e7 85 be
       -0.10379467 -0.01937752 0.0173052 -0.26153347
0003d0 4d 3f 24 3e d5 41 10 3e 93 b1 35 bd 2a 3e 55 be
       0.16039772 0.14087613 -0.0443588 -0.20824495
0003e0 23 dd 09 3d c2 6d 94 bf cb f7 0e be 35 d8 37 3e
       0.033658158 -1.1595995 -0.13961713 0.1795357
0003f0 34 40 27 3e ad 2d 0a be 49 50 6f bf 3e d3 67 bf
       0.16333085 -0.13493986 -0.9348188 -0.90556705
