models/OTC/efg/exp_v2/no_subgraph_sampling/lr=0.01_hidden_dim=48/HigherOrderGNN_20230830_00h36m/state_dict_epoch6.pt (torch, 30527 bytes, 7 tensors)

convs.0.lin_rel.weight f4 [48, 20]
00000000: 7954 a0be d16f 32be 4bee 8bbe 8674 5f3e
00000010: 90af 1c3e f6bd 82bf be7a c2be 6290 d3be
00000020: 6704 bfbd 2797 273f db99 9f3e 1e30 76be
00000030: e478 63bf 6600 143e be4b bbbb bc39 163e
00000040: 2d2a ab3b 883d e13e bf4f 023e ddd4 2dbe
00000050: c645 20be 37a8 eebd fe3c 8ebd f727 88be
00000060: 57e6 bdbd 342b 5e3e 623a 913e 5d68 1ebe
00000070: efc6 ccbc f00f efbe a6ec 3c3f 1c1e e33e
00000080: 5364 c0be 35fe e3bd 5b60 0bbe 50e7 433f
00000090: b3d9 15be 9002 303e 378c fbbe f380 ef3e
000000a0: 1250 0fbf 70d2 dbbb 01b2 fabd 3691 c93a
000000b0: ce1c beba 5935 06bf 92fd 61bd 6cc6 37bd
000000c0: f84c babe 3963 ef3d 0aeb 383f 9a5b 023c
000000d0: 50a1 05bf 824d 6d3e f5aa b1be 2174 a2bd
000000e0: 08dd 44be eb76 f2bc 9953 933d 7bb2 823c
000000f0: 6bdb d8be a918 e6be b642 0c3f 9825 cdbe
00000100: c9bf 1a3d f748 283c be0e 1dbe 932b 9cbe
00000110: 406c 3c3c 30fb fa3d 74d9 fcbd e41c 8e3d
00000120: 9e65 09bf 4265 283f 1f81 96be ef81 26bd
00000130: 6c5c 5abe a646 653e 413a 19be 6462 52be
00000140: 0881 19bd 838b 14bf 88a1 253e 9890 723f
00000150: c7ed 393f b351 a6be 2f90 ed3c f513 90be
00000160: 3a18 0fbe d0c6 d73e 7b39 d2bd 71f9 d83e
00000170: c3f7 353f fb42 83be 58ff 57be e1a7 a73e
00000180: a07b a63d 7383 2bbd 9ef5 e3be 7e71 84be
00000190: f508 90be 7f16 7f3e e89b 82bd 4c7a 81bf
000001a0: 8d43 7fbe cf62 233e c6e4 843e cfb9 11bd
000001b0: 761d 5e3d 9603 8b3d da06 3bbe a68c 0e3f
000001c0: 1dd2 0bbf f5b8 a23c 0914 b2be cfa8 55be
000001d0: e0a7 923c a04b 98bf 694d bd3e dfce 2d3e
000001e0: eee5 54be e718 8ebf 9c9e 973e b944 b3bd
000001f0: 92e3 61bf 095f 0d3e 19b5 a3bd 2808 b0be
00000200: 59a6 2ebe a062 d8be 5c86 583e e623 56be
00000210: 5f88 3e3f a9ce d1be 27c6 a33e 31ac 1abe
00000220: bd18 273e dbc8 e33e 3f78 8b3c 0436 2abe
00000230: 7996 98be d1f5 e13e 4f4a 3cbe 9ffa 8ebe
00000240: 8dfe 6cbf a5eb b73b b658 42bf e3c7 41bf
00000250: d312 843e 99fc a03e 2f12 b73e 2de6 073e
00000260: 38b4 40be 6e8f 483c 9d35 99bd 108d e33e
00000270: 0765 8fbd eccb d4bd 4a59 8fbd 3326 0abe
00000280: 5929 e6be 3ac5 67be 1a02 1fbf 9953 933e
00000290: 8e57 02bf 1a50 223e 5f20 853e 6c4b 083e
000002a0: d953 f03d 177a 913e f969 20bf 4248 34be
000002b0: c88f 223e 9847 9cbe c4a3 a53e 1915 11bf
000002c0: 17b9 83be 981c 9abd dba8 24bd c4d5 26bd
000002d0: 5877 c8be 9af7 41be c588 9fbd 8217 c3be
000002e0: 2cb4 63bd f967 f33c 6e90 f9bd 79e2 c4be
000002f0: 7de3 0d3e da52 7cbb 64ee 943e f9f3 0ebd
00000300: 51e1 a83e a9a3 a43e eb3a 18bf 8af4 f13e
00000310: 5c3c 3c3d 66c4 d73d 538e 42be 8902 23be
00000320: 9e70 44be dd3b 8c3e 2ab9 043e 9380 67be
00000330: e42d 05be c762 ddbd 17d5 4cbe e225 3b3d
00000340: d626 0d3f 61a6 3ebd ca58 8f3e d45b 093e
00000350: 5eb9 d6be a113 76be 723f 44be 6144 9ebd
00000360: 85d8 43bf 105b a93f 358a 363e e75c 14bf
00000370: 4108 fdbd bd89 593f 5d2d 65bf 70c5 21be
00000380: a397 13bf 6a62 95be e62f 633d 354c 033f
00000390: 2be3 c93e 0c4a 533e 7102 3bbf 1605 d5bd
000003a0: 4430 2fbd 66a6 913d 009d 3f3e d59c d83e
000003b0: ba84 98bf e02c 063f d6c5 453e 0b16 16bf
000003c0: c3d7 653f 338b 33bf 3391 de3e 5dbf edbe
000003d0: d227 07bd aba9 363f 34bc 6b3f e2ae 8a3d
000003e0: 66c9 383e 81de cabd 8029 3e3e 2793 d5bd
000003f0: c3c0 fc3e bb2c 343e 0db2 483f 52ff 9dbe
-0.31314448 -0.17425467 -0.2733024 0.21821794 0.15301347 -1.0214221 -0.3798427 -0.41321093
-0.093270116 0.65465015 0.3117207 -0.24041793 -0.8885634 0.14453277 -0.0057158163 0.14670461
0.0052235336 0.43992257 0.12725733 -0.16975732 -0.15651616 -0.11653178 -0.06945227 -0.2659299
-0.092724495 0.21696168 0.28364855 -0.15469499 -0.024997203 -0.46691847 0.73798597 0.4435891
-0.3757654 -0.111324705 -0.13610975 0.7652483 -0.14633827 0.17188478 -0.49130413 0.46778068
-0.5598155 -0.0067084357 -0.12240983 0.0015378359 -0.0014504434 -0.5242515 -0.055173464 -0.044866964
-0.36386847 0.11688847 0.7223364 0.00795641 -0.5219927 0.23174098 -0.34700742 -0.07932306
-0.19224942 -0.02959772 0.07193679 0.015954247 -0.42354903 -0.4494069 0.5478929 -0.40067744
0.037780557 0.010271302 -0.15337655 -0.30501994 0.011500418 0.122549415 -0.123461634 0.06939104
-0.5367068 0.6577951 -0.29395387 -0.040651258 -0.21324319 0.22390231 -0.14963628 -0.20545346
-0.03747657 -0.5802538 0.161749 0.9475188 0.72628444 -0.32484207 0.028999416 -0.28140226
-0.13974085 0.4214387 -0.1026487 0.4237781 0.7108118 -0.2563704 -0.210935 0.3274527
0.08129048 -0.041873407 -0.4452333 -0.25867838 -0.28131834 0.24910925 -0.06377393 -1.0115447
-0.24928112 0.15955661 0.2595579 -0.03557759 0.054227315 0.06787793 -0.18264332 0.5568336
-0.5461748 0.019863585 -0.3478091 -0.20865177 0.017902315 -1.1898079 0.36973122 0.16973446
-0.20790836 -1.110135 0.29613197 -0.08753342 -0.8823787 0.13805784 -0.07993526 -0.34381223
-0.17055644 -0.42262745 0.21145004 -0.20912132 0.74426836 -0.40977982 0.31987116 -0.15104748
0.1631803 0.44489178 0.017025111 -0.16622168 -0.29802302 0.44132856 -0.18387721 -0.27925584
-0.92575914 0.005612808 -0.7591661 -0.7569563 0.25795612 0.31442717 0.3575606 0.13271399
-0.18818748 0.012241228 -0.07480929 0.4444356 -0.07001691 -0.103904575 -0.069994524 -0.13491134
-0.4495342 -0.2263383 -0.6211258 0.28774717 -0.5091485 0.15850869 0.2600126 0.13310021
0.11734743 0.2841346 -0.626617 -0.17605689 0.1587516 -0.30523372 0.32351506 -0.5667282
-0.2572715 -0.07524985 -0.040200096 -0.040731207 -0.39153552 -0.18942109 -0.077897586 -0.38103873
-0.055591747 0.029712664 -0.12185751 -0.38454035 0.13856311 -0.0038501532 0.29088128 -0.03490064
0.32984403 0.32156113 -0.594649 0.4725688 0.045956 0.10535507 -0.18999605 -0.15918936
-0.19183585 0.27389422 0.1296126 -0.22607641 -0.13005787 -0.10809856 -0.20003162 0.045690425
0.55137384 -0.04654539 0.27997428 0.13413936 -0.419383 -0.24030925 -0.19164827 -0.07727886
-0.7650226 1.3230915 0.1782616 -0.5795426 -0.1235509 0.84975797 -0.89522344 -0.15797973
-0.57653254 -0.29176646 0.0554656 0.5128816 0.39431128 0.20633715 -0.730506 -0.10401361
-0.04277064 0.07111816 0.18712234 0.42307153 -1.1915505 0.52412224 0.1931375 -0.58627385
0.8978235 -0.70134276 0.43470153 -0.4643506 -0.03299696 0.7135264 0.9208405 0.067716375
0.18045577 -0.099057205 0.18570518 -0.10428458 0.49365816 0.17595188 0.78396684 -0.30858856

convs.0.lin_rel.bias f4 [48]
00000000: 615c 17bf 19e2 2cbf 0a9a efbe e4dc 58be
00000010: 08be e3bd b64c a8bf ad16 42bf 6c80 15bf
00000020: 2c10 a9be cf40 2c3e 5464 7ebf a4e4 d4be
00000030: 7df3 06bf 2481 a9bf 7701 44bf d338 1cbf
00000040: 3643 54bf b568 4abf 8e07 4e3b 16de 86bf
00000050: e2fb 69bf 8638 56bf ad6a a8be fb54 93be
00000060: a869 29bf 3c77 7bbf b48a 2bbf 2ff5 fabe
00000070: 82b8 13bf 2b30 51bf 1c62 d0bf 1f8b 7bbf
00000080: 817a 30bf 710c aebf d64b 16bf af28 32bf
00000090: ae8d 82be 30c0 76bf b94b 9fbf 43b8 71bf
000000a0: 1b64 87bf fa8b c7be 9a05 eebe d49f 15bf
000000b0: 0ee4 1bbf 194f 65bf 23b9 07bf 0aa0 87bf
-0.59125334 -0.675325 -0.4679721 -0.21178013 -0.1112023 -1.314841 -0.7581585 -0.5839908
-0.3302015 0.16821598 -0.9937184 -0.4158069 -0.52715284 -1.3242536 -0.76564735 -0.61024207
-0.82915056 -0.7906602 0.0031437608 -1.0536525 -0.9139997 -0.8368 -0.32893887 -0.28775772
-0.66176844 -0.9822881 -0.6700852 -0.49015185 -0.5770341 -0.81714123 -1.6279941 -0.98259157
-0.68936926 -1.3597547 -0.58709466 -0.6959333 -0.25498718 -0.96387005 -1.2444984 -0.94421786
-1.0577425 -0.3897398 -0.4648865 -0.58447003 -0.6089486 -0.8957382 -0.5301687 -1.0595715

convs.0.lin_root.weight f4 [48, 20]
00000000: 988d a4bf cc30 a33e c730 443d 0a3e 01bf
00000010: 9bd3 06bf a4ab 73be 34bc b2bd 2fd4 f6bd
00000020: 5e36 edbd a994 863e 026d 20bd 22de 1d3f
00000030: 2bcc 98bf 215b 63be a62e 9abe f05d 243f
00000040: 8618 ad3d 9657 22be aee9 063f 5fbf f03e
00000050: 83f4 f83d b084 0bbe 246a 143e 56ac 83bd
00000060: 3165 b3bd 0742 0b3d abea 5bbe cf43 71bf
00000070: 8c74 84be 11f4 4dbe 1301 f93e c3ad 673f
00000080: dbd2 9cbd de93 6dbe 4e13 b63e ed46 1c3f
00000090: 9d9d 873d 5dcb d8bc 0528 e8be 0b1b a73f
000000a0: 3eba 94bf 74fe 313f 30b8 b4be 9ccd 40bf
000000b0: 0300 803e dd9f 44bf 3388 8ebe 98a4 edbe
000000c0: 6a8c 8ebe 54cc f6be ab74 ec3e 4336 403f
000000d0: 3233 f03e 6034 d53e 0776 f0be f434 073f
000000e0: 046e ffbc d3d3 92bb 49a4 0ebf c9c0 1e3c
000000f0: c686 bcbf 9901 7ebf 5773 183d 430a 443e
00000100: b529 8bbc 2e39 433f e34d 46be efab 0dbf
00000110: 2139 003f 0aa6 5a3e 9c61 93bf 22ae 303e
00000120: b772 debe a567 a53e 9f79 65be 473f 38be
00000130: 52d6 4abf e9f8 a43d 3159 bfbe 0e4e fb3b
00000140: 3385 963e f316 0bbf d1a1 debe 151c 40be
00000150: edbe a2bf 3dd8 d5be b57a 01bf 6faf 12bf
00000160: 80fd 85bd 7a05 cbbc ca78 0cbe 21c7 be3d
00000170: e703 d2be 47a0 863e f2bc 46be fb75 673d
00000180: 6da5 81bd 139f 4fbe 4cb9 e53e dd97 29bf
00000190: 479a a7be 6685 d7bf cbf0 e1be 928e bbbe
000001a0: 9e89 81be 69e4 45bf 013b be3f 9db9 b9be
000001b0: d8af dd3e 45a8 c23e 8214 353d 43f8 a03e
000001c0: 96cd e3be f14d 923f ff4e 843e f24c 10bf
000001d0: fa5a dc3d f73d 623d 5c04 a63d f26f 063f
000001e0: 303c 64bf e40a a2bf 7c05 4cbf 8734 f3be
000001f0: 8559 85be f067 d6be cfd4 3abd 29e6 053f
00000200: d3c1 2bbf acb4 6d3f 33e4 fa3d 1734 d73d
00000210: c057 47bf a489 eabe 1971 ea3e 426f 41bd
00000220: 0c29 ce3e 93d4 0ebf 1e52 d6be 5b91 963e
00000230: 3198 37bf bb3c 35bf a0b9 943f 75e2 3d3e
00000240: 73d3 233f ede6 c7bc 9ff4 9ebf 85b7 9dbc
00000250: 8c15 85be df2e 16bf e6b1 de3e 0521 72bd
00000260: 847c 92be 0b49 c93c b630 3f3e 740c 263e
00000270: 554d 203e 0c49 c23e 42bb e43d ca51 b0be
00000280: 178f 1d3d 313b 3c3f 12da f23e 612b 09bf
00000290: d833 44bd e892 98be a49f c9be 6583 133f
000002a0: 8601 22bf 21cd 2ebe 38b2 2abe 1cb1 a13e
000002b0: a489 cbbd 8f84 773d cd54 903f 7250 d1be
000002c0: d08c 9e3d eda9 8ebe 985a 86be 6007 5cbe
000002d0: d4d8 bebe 0315 b5be 862f fc3e 414a 183b
000002e0: 7caa efbd 0535 12bd 3bea 3fbe 3234 4dbe
000002f0: bb42 b9bd 574c 1fbd ec6d a7bf d8e5 1a3f
00000300: a455 573f 345c 823e 4eba 32bf 2c91 2b3f
00000310: bfb7 303f 70cf 113d f4ea 68bf 9cf0 50bf
00000320: d4f9 a1be d065 503f 6763 04bf 9961 c0be
00000330: 9395 733f b2f1 82be b064 5abd 0ded ae3d
00000340: 6c01 89be 3354 26be 2909 4ebf 62ca d03e
00000350: 6ba1 73be e0be 24be b2ec c7be 07d6 183e
00000360: ecc4 bdbe a66f 0a3f 868c 2a3f 25e1 b83c
00000370: eaea aabd 519c bfbe b09f ff3d 5792 25bf
00000380: 6a67 863d 4327 c73d 8c74 2ebe 0d91 28bf
00000390: 8155 f2be 19c1 cabe a2ae 21bd 6f0d f63e
000003a0: db83 d4bd c959 92be 218d 38bd 40fb 513d
000003b0: 1263 76bf e8a0 e53e 703a b63e d323 aebe
000003c0: 215a af3e d8dd b93e e093 86bf ccd4 64bf
000003d0: 205d ea3e 575e 63bf 1603 603f 17f8 98bf
000003e0: 3fe2 7b3e 520a 5e3f 1d69 99bf 2b32 583f
000003f0: e1ac b03e 797f d8be 8f50 8c3e 6bf7 5ebe
-1.2855711 0.31873167 0.04789808 -0.5048529 -0.52666634 -0.23795944 -0.08727303 -0.120521896
-0.11582635 0.26285294 -0.039166458 0.6166707 -1.1937307 -0.22202732 -0.30113715 0.6420584
0.08451943 -0.15853724 0.52700317 0.47021005 0.12156012 -0.13624835 0.14493614 -0.06429355
-0.08759535 0.033998515 -0.21476237 -0.9424409 -0.25870168 -0.20112635 0.48633632 0.90499514
-0.07657405 -0.23200938 0.35561603 0.61045724 0.06621859 -0.026464159 -0.45343032 1.3055128
-1.1619337 0.6952889 -0.35296774 -0.75313735 0.2500001 -0.7680643 -0.27838287 -0.46414638
-0.27841502 -0.48202765 0.4618276 0.75082797 0.4691406 0.4164152 -0.46965048 0.52815175
-0.03118039 -0.004480818 -0.5571943 0.009689518 -1.472863 -0.9922119 0.03721937 0.1914454
-0.01698766 0.76259124 -0.19365649 -0.55340475 0.5008717 0.21352401 -1.1514163 0.17253926
-0.43446895 0.32305637 -0.22409676 -0.17992888 -0.79233277 0.08055288 -0.37372735 0.007669217
0.29398498 -0.5433189 -0.4348283 -0.18760712 -1.2714516 -0.4176654 -0.5057786 -0.5729894
-0.06542492 -0.024782885 -0.13717952 0.093153246 -0.41018602 0.26294157 -0.19408014 0.056509
-0.063303806 -0.20275526 0.44867933 -0.6624735 -0.32734892 -1.6837585 -0.44129023 -0.3663221
-0.25300306 -0.7730165 1.4861757 -0.36274424 0.4329822 0.38019004 0.04420901 0.3143941
-0.44492787 1.1430036 0.2584152 -0.5636741 0.1075954 0.055234876 0.081063 0.52514565
-0.8915434 -1.2659574 -0.7969587 -0.47501013 -0.2604486 -0.41876173 -0.045613106 0.5230432
-0.6709263 0.9285381 0.12250557 0.10507982 -0.7786827 -0.45808136 0.45789412 -0.047225244
0.4026569 -0.5579311 -0.41859525 0.29407772 -0.717166 -0.7079579 1.1619148 0.18543418
0.6399452 -0.024402106 -1.2418402 -0.019252548 -0.25993 -0.5866527 0.434951 -0.05911352
-0.28610623 0.024570962 0.18670925 0.16215688 0.156545 0.37946355 0.11168529 -0.344374
0.03846654 0.7352782 0.47432 -0.53581816 -0.047901005 -0.2979958 -0.3937961 0.5762237
-0.63283575 -0.17070438 -0.16669548 0.31580436 -0.09938362 0.060429152 1.1275879 -0.40881687
0.077417016 -0.27864018 -0.26240993 -0.21487188 -0.37274802 -0.35367593 0.49255008 0.0023237618
-0.11702439 -0.035695095 -0.18741696 -0.20039442 -0.09045931 -0.038891163 -1.308042 0.60506964
0.8411505 0.2546097 -0.6981553 0.6701839 0.69030374 0.03559822 -0.9098351 -0.8161714
-0.31635916 0.81405354 -0.51714176 -0.3757446 0.9515011 -0.25575024 -0.05331868 0.085413076
-0.26758897 -0.16243057 -0.8048273 0.40779406 -0.23792045 -0.16088438 -0.39047772 0.14925395
-0.37064302 0.5407661 0.6662067 0.022568295 -0.083455876 -0.37423947 0.1248163 -0.6467642
0.065626934 0.097242855 -0.17036647 -0.6584633 -0.4733086 -0.39600447 -0.039473183 0.48057124
-0.10376712 -0.28584126 -0.045056466 0.051265 -0.9624492 0.44849324 0.3559146 -0.34011707
0.3424845 0.36302066 -1.0513878 -0.893872 0.45774174 -0.88815826 0.8750471 -1.1950711
0.24598025 0.867345 -1.1985203 0.8445155 0.34506896 -0.42284754 0.2740521 -0.2177407

convs.1.lin_rel.weight f4 [48, 48]
00000000: 7996 ddb8 c13c d63e fc66 57be 3dd3 6abf
00000010: 013a a6be 4f1d 2d3e 86e0 43be 7f95 13bf
00000020: 0095 22bf af0d 3d3e cb47 253f 8caf 703e
00000030: 84cb 34bf 88f7 4a3e 5bff 36be 0525 ba3d
00000040: 5961 873e ad3f 273f 1166 ae3e 6cad d63d
00000050: 02e2 0b3e fce0 783e bd74 52bd ae3c c53d
00000060: 209e e3be e52d 19be c492 63bf 69d0 41bf
00000070: ec18 8a3d d40a e7bd 074c cb3d 72cb 74bd
00000080: a56f 84be b1e6 f7bd ead3 1dbf f02d edbd
00000090: df5c 96bf d47a a63e d001 c33e cb03 503e
000000a0: 9901 e23e d888 94bd 4aaf 343e 7f0a 21bf
000000b0: ae51 a7be 8418 6bbe f380 39bf 6a09 5e3e
000000c0: 1ada 823b d3cc 79bd b7f3 b2bd 0bc5 f43d
000000d0: 71e2 393d 53bd 8f3b 2c5a b3bd 785d bdbd
000000e0: 3c9e e63d 720a 46be c73c 953d 08b2 41bb
000000f0: b21e 6cbd 5f01 c3bc d2ea 01be f4cd 95bd
00000100: 3802 873d b2f3 19bc 64cd 933c a9ed babd
00000110: c24a 9bbd 1cb6 a0bd fbb3 e2bd 0382 7e3d
00000120: 7516 a03d 5412 f8bc ea86 4bbd 8d57 4abb
00000130: 4a02 ecbd bb32 0e3e a111 c9bd 95cc c03d
00000140: 3852 36be 902f b4bd 47ec c8bb 04dd 9f3c
00000150: a639 8cbb 757f 74bd ce2a ebbc 9841 ca3d
00000160: 2376 843b 80b0 563d 0310 a03c 2790 06be
00000170: 39ee 16bd 65b5 aebd 995a 26be a335 7abd
00000180: b954 67be 3f02 163e 5dbb 523c b584 19bd
00000190: 7308 b93d bec5 0abd 1c36 f2bd cf00 8b3e
000001a0: 863a 01be e302 c03d e3dd 8d3d b0a5 7abd
000001b0: 6664 40bd 1ec7 293e 8294 8cbd 5d8e b3bd
000001c0: 26fd debc ca60 1e3e dc1f 4fbe b23b 77be
000001d0: 97d8 553e fafe 0bbe ec28 71bd 362c 253e
000001e0: b69f 63be cdcc 9ebc f3f2 c6bb e394 a0be
000001f0: 3663 10bc b522 8ebe 8fe9 91be 7cb9 423b
00000200: c1b8 70be 3968 85be f1af 2cbe b513 55bd
00000210: e242 0fbd 78d5 08be f0d8 e43c ddeb 513d
00000220: 5861 5c3d 501d c3bd 86f4 bbbe 44f2 923d
00000230: 2cfc ee3d 7a79 20be 0828 e33c e5a6 debd
00000240: 5c72 f6bd a206 69bc 958c d8bd fcd7 bcbd
00000250: f673 133e fd91 edbd 8d02 e6bd c520 033e
00000260: 0ae5 42be 03e0 7fbd daa6 0abd 6cff 86bd
00000270: f26b 81bb c279 f5bd e7db 25bd 4b8d dcbd
00000280: 8a55 253d 93b5 bebd fa2f 3abe 1b38 a9be
00000290: da14 afbe bfd3 b6bd ebb7 91bc 4280 adbd
000002a0: 760e 05bd 9278 afbd 8aed f73c 37e9 c0bc
000002b0: b4f8 2d3e f0f7 24be bcd6 bcbd a61d 44bd
000002c0: 6c51 3bbe 7b61 08bc d33f 113c f637 67be
000002d0: 0e32 1cbe c538 e5bd c16e f13d ae45 cb3c
000002e0: ecc1 dd3d e8e3 72be 7741 68be fa16 0b3e
000002f0: 19c3 20bb 25bd 423e 7fda 68be 87ab 893d
00000300: 3de3 89be 61d7 323c 3c2f 8fbe b64f 16bd
00000310: 9a7c 57be 4276 0ebe f4a8 a6bc a0d6 a2bd
00000320: 2f93 8dbe 22f3 84be 6375 39bc 794d a1be
00000330: 26ec 1abe d135 1abf 2c78 aebd f366 42bd
00000340: f386 d3bd a0c6 92be 6376 c3be 0dc9 9cbe
00000350: 6a31 98be 5100 f7be fba9 c53c 5eee dfbd
00000360: 3f9f e0bd acaf 923d 8f5b 40be 7484 83be
00000370: 8140 88bd 3c9b 513e e755 8c3e 2d30 b7be
00000380: e2c1 5fbe 57f7 253e 6ab8 71be beeb c2bd
00000390: e4a2 0fbe ecf0 1ebd 66b2 4fbe 4704 1dbf
000003a0: b517 81be 0dff f1bd 21d7 00be f6bb 043d
000003b0: c9b9 62be 122c cebd 49b8 a3bd a992 acbe
000003c0: 65f8 08be e241 6bbe fd0f 1dbe 0c69 44be
000003d0: 3cbc abbd 0564 82be 724d 10be 8657 4fbd
000003e0: 8b18 763c 64ca 05be 2769 89bd 3029 3bbe
000003f0: 7f77 01bd 934e b3be fd53 693e 0e17 183e
-0.00010566129 0.41843227 -0.21035379 -0.91728574 -0.32466128 0.16905712 -0.19128618 -0.5764999
-0.63508606 0.18462251 0.6456267 0.23504466 -0.7062304 0.19820988 -0.17870848 0.09089092
0.26441458 0.65331537 0.34062245 0.10482296 0.13660434 0.24304575 -0.05138086 0.09630714
-0.44456577 -0.14958914 -0.8889582 -0.75708634 0.06743035 -0.11281362 0.099266104 -0.059764333
-0.25866428 -0.12104548 -0.6165148 -0.115810275 -1.1747092 0.32515585 0.3808732 0.20313947
0.44141844 -0.072526634 0.17644992 -0.6290664 -0.32679504 -0.2295857 -0.72462386 0.21683279
0.003993285 -0.06098635 -0.08737891 0.119516455 0.045381967 0.004386583 -0.08757433 -0.092463434
0.112606496 -0.19339922 0.07286983 -0.0029555578 -0.05764646 -0.023804365 -0.12687233 -0.07314673
0.0659222 -0.00939648 0.018042274 -0.09127361 -0.07582618 -0.078472346 -0.11069485 0.062135708
0.07816783 -0.030282177 -0.04968921 -0.0030874938 -0.11523874 0.1388654 -0.098178156 0.09414021
-0.17804801 -0.08798134 -0.006131682 0.019514568 -0.004279333 -0.059691865 -0.028706934 0.09875792
0.0040424033 0.052414417 0.019538885 -0.13140927 -0.03684828 -0.08530692 -0.16245498 -0.06108631
-0.22590913 0.14649294 0.012862054 -0.037480075 0.09034815 -0.033879988 -0.11826727 0.27149054
-0.12619981 0.093755506 0.06927087 -0.06119317 -0.046970747 0.16579863 -0.06864263 -0.08767388
-0.02722032 0.1546661 -0.20226997 -0.24143866 0.20883404 -0.13671485 -0.058876917 0.16130146
-0.22228894 -0.019384766 -0.0060714423 -0.31363592 -0.008812716 -0.27760854 -0.28498504 0.0029712608
-0.23507978 -0.26056078 -0.16863991 -0.052020747 -0.034975894 -0.13362682 0.027935475 0.051250327
0.05380377 -0.09527075 -0.36709994 0.07175115 0.11669192 -0.1567134 0.02772905 -0.10871676
-0.12033531 -0.014222773 -0.10573689 -0.09220883 0.14399704 -0.11600111 -0.11230955 0.1280547
-0.19032684 -0.062469494 -0.03385053 -0.065916866 -0.0039496357 -0.11986114 -0.04049292 -0.10769137
0.04036478 -0.09311976 -0.18182364 -0.33050618 -0.34195596 -0.08927106 -0.017787894 -0.08471729
-0.032484494 -0.08567919 0.030264635 -0.023548706 0.16989404 -0.16110206 -0.09220645 -0.047879837
-0.18292779 -0.008324022 0.008865315 -0.22579941 -0.1525347 -0.111924686 0.11788703 0.0248135
0.10828003 -0.23719752 -0.22681223 0.13582984 -0.002453035 0.19017465 -0.227396 0.06722169
-0.26931182 0.010915608 -0.27965724 -0.036697112 -0.21043625 -0.139123 -0.020344235 -0.07951093
-0.27651355 -0.25966746 -0.011319491 -0.3150442 -0.15129146 -0.6023837 -0.08519015 -0.04746146
-0.10328474 -0.28667164 -0.3817626 -0.3062214 -0.297252 -0.4824243 0.024128905 -0.10934137
-0.10967874 0.07162413 -0.18784927 -0.2568699 -0.06652928 0.20469373 0.27409288 -0.35778943
-0.21851304 0.16207634 -0.23605505 -0.095176205 -0.14026982 -0.03880398 -0.20282897 -0.6133465
-0.252134 -0.11816225 -0.12582065 0.032405816 -0.22141184 -0.100669995 -0.07994134 -0.33705643
-0.13376005 -0.22974351 -0.1533813 -0.19180697 -0.08385512 -0.25466934 -0.14092043 -0.05062058
0.0150205 -0.13065487 -0.06709509 -0.1827743 -0.0316081 -0.35020885 0.22785945 0.14852545

convs.1.lin_rel.bias f4 [48]
00000000: db27 893d 32e8 5cbe 92f6 1cbd 0b3e 4fbe
00000010: df34 52be d07b 88be f49f 6a3d c651 163d
00000020: 1202 05be 5e52 713d cd4f 6e3f c9f9 9cbe
00000030: fdb2 213f ed00 2abe 406b 84be f184 c6bd
00000040: b10c 6f3f 590f 25be 6d94 eb3e e243 3d3d
00000050: adc0 b13c 27a8 cfbd a208 97be f329 5ebe
00000060: 4edf 233f fbf0 81bd 0933 a7be 331a 29be
00000070: 0e18 61be 017d c93c eed1 bebc 3ef6 9f3e
00000080: 65e9 9cbe 411f 50be 6b78 90bc 0be0 f83e
00000090: 9413 bfbb d3d3 003f a7ea 153d 0789 71be
000000a0: 67f8 b3be eac6 34be cfb4 d6bd c254 3d3e
000000b0: ffc4 00be 07d1 88be bcf6 1cbe 43e0 c83d
0.06697055 -0.2157295 -0.038321085 -0.20238511 -0.20527981 -0.2665696 0.05728145 0.03669908
-0.12989071 0.058916442 0.93090516 -0.3065932 0.6316374 -0.16601916 -0.25863075 -0.09693325
0.9337874 -0.16119136 0.46011677 0.046207316 0.02169832 -0.101394944 -0.29498774 -0.2169569
0.6401261 -0.063447915 -0.32656124 -0.165139 -0.21981832 0.02459574 -0.023293462 0.31242555
-0.30646816 -0.20324422 -0.017635545 0.4860843 -0.0058311913 0.5032322 0.036600735 -0.23587428
-0.35150453 -0.17654005 -0.10483705 0.18489364 -0.12575148 -0.26721975 -0.15328497 0.098083995

convs.1.lin_root.weight f4 [48, 48]
00000000: a71c f6bd c250 593f 6799 bebd 911a 7fbf
00000010: f36b a9bc a272 133e f52e e7be ef5b 12bf
00000020: 881f 98be 08f9 56bf e4d7 493f 481d 513e
00000030: b0a0 25bf 441f 593b c03c 66be 0c04 d93e
00000040: 642c 65bd a7bc 2c3f a942 463e 09a4 a23e
00000050: 7213 163d 269c de3d 7651 d3be d7cd 3cbd
00000060: dae2 7dbf 2846 07bf 2e63 abbe 98f8 a6be
00000070: b8eb 05bc 0c05 8bbe 9bf4 16be 4976 983e
00000080: 87a2 44bd 0b4a 86bd 7170 fb3c a915 043f
00000090: 00f7 c4be e84c 343d 47b1 533e 7191 203f
000000a0: 0090 0f3f 3771 1c3f a3ba 9cbe ec9e 4fbe
000000b0: 6263 2fbf 6103 4dbd 648e 66bf b1f9 72be
000000c0: 75c0 33be f526 3dbe d74e 7d3d 5424 e13c
000000d0: 97df b7bc fa8e a4bd 3c0b 993c fb97 473e
000000e0: 6863 f3bc a6f3 3dbe 927a 4abe 83c5 1ebe
000000f0: 8321 2cbc e307 18be f678 fdbd 7350 64bc
00000100: b7ff e3bd ab87 dabc d2f7 5f3d 9a1c 613d
00000110: a7f1 edbc dac6 1cbd e8bf 2cbe bf96 f63d
00000120: d3a4 48be 4527 193e a0c6 343e bf7e a8bd
00000130: b11a 2f3d 75c9 b23d bd1e 80bd b922 643d
00000140: 176f 52bc 35dd 12be 1108 3dbe 3042 2dbd
00000150: acf1 ff3c 0b51 03bd 8a0d 043e 8825 213d
00000160: 4dd2 c23c a933 bc3d c111 a5bd 0f2f babd
00000170: 111d 14bd 8729 493d dbe6 553c 45c5 083c
00000180: e001 95be 0518 bdbd fa22 0d3a f84e 38be
00000190: 36c5 cb3d 4437 ca3d 633a 5fbe ed38 88be
000001a0: 3114 373e e04f 673d fd92 513e d6f2 5dbe
000001b0: 47ad 4a3d 9c1a e4be f1b7 aebd 88b2 223d
000001c0: 259c b0bd 1f14 89bc 4483 5bbe 5d2b b6be
000001d0: 754b 1d3e 8251 1bbe e35d 38be ee89 703d
000001e0: 6650 71be bb67 d7bd b4e4 08bc 4ff4 813c
000001f0: 5f54 72be 84e7 6fbe dcee bebe c0bd 4abe
00000200: 9f5f 72bd a00e 25be 9b46 ed3c 589e 61be
00000210: b66e afbe fd9c ed3d 9074 7bbe 178d cd3d
00000220: b6db 0fbe fe81 69bd 4c9a 50be 6d00 91bd
00000230: e52d 88bd 318b 20be d901 42be 02d4 d0bd
00000240: 5c73 88bd 8eb5 97bc 991b 853c 2080 0abd
00000250: 4a35 203d 912c e8bd 4fc5 05be eb6e cb3d
00000260: beb5 00be 5129 13be 37dc 92bd 558e 3cbd
00000270: 1d3c 50be 69ad ffbe eceb 053d 28c6 5bbe
00000280: a194 82be 47ec 2a3d d784 33be ca76 bebe
00000290: 0754 363e dd84 d5be bbe0 52bc f7b2 993d
000002a0: d65d 26be b0b8 78be 8565 83bd 8692 293e
000002b0: b58d f03a 72cc 24be 304b b1bd d9d8 89bd
000002c0: 23f5 f2bd 299e cd3c f752 85bd 61e0 94be
000002d0: fb9f ffbd 5c71 04be ffdd b5bd 3e77 43bd
000002e0: 01b4 59be 645a 01be 0dbe 97bd 9bc0 593d
000002f0: 8b67 3d3c 2c89 ee3d 4e7e b5be 3724 5b3c
00000300: c237 9e3e bafa fd3d ac00 643e 30d9 0b3e
00000310: 1334 e1be c671 52bf be8a 0abe b999 50bd
00000320: 691b e43e 97c2 633d e8b7 76be e3f2 95bb
00000330: 1d7b 443d 21d4 37bf 48aa 3bbe a873 7e3c
00000340: d1b7 a1be f8f4 a7be 6278 c13c 92dd c3be
00000350: c292 58bf a1da d5be b099 6abe c551 e6bc
00000360: 0eb8 5fbe db2a 84be 3c77 803e 7bf7 db3e
00000370: 9183 523e ac26 1b3f bf9b 6bbe fcfb b8be
00000380: ac88 6abe 7ea7 3d3e 78cc 2fbe 68b0 b1bc
00000390: 1fbd 413e dd59 48be cc30 753e bf9e d9be
000003a0: 8cd1 183e baa2 1dbe b4ad eebe 9803 663e
000003b0: 97f7 8abe a26c c73c c929 a2be 5564 6bbe
000003c0: 5fb2 0e3e f274 4d3e 79e1 4ebe 5c70 74bd
000003d0: 87b8 c7be ff5a 84bd 277b 783e a792 6e3c
000003e0: 0740 9dbe e6a1 80bd 1b26 6ebe 93d8 4abe
000003f0: 480e 923d b0b0 bdbd 1bde 7c3d 5b75 c7bd
-0.12017184 0.8488885 -0.09306603 -0.9964991 -0.020681357 0.14399198 -0.45153013 -0.5717153
-0.29711556 -0.8397374 0.7884505 0.20421326 -0.64698315 0.0033130208 -0.22484112 0.423859
-0.055950537 0.6747536 0.19361366 0.31765774 0.03663964 0.10869627 -0.41273087 -0.04609474
-0.99174273 -0.52841425 -0.33474106 -0.32611537 -0.0081738755 -0.27152288 -0.14741747 0.29777744
-0.04800656 -0.06557091 0.030693265 0.5159555 -0.38469696 0.044018656 0.20673095 0.62721926
0.560791 0.6111025 -0.30611143 -0.20275468 -0.6851102 -0.05005205 -0.9006102 -0.23728062
-0.17553885 -0.18471892 0.061842766 0.027483143 -0.022445483 -0.08035083 0.018682115 0.1949157
-0.029710487 -0.18549976 -0.1977332 -0.15505032 -0.010506037 -0.14846759 -0.12376587 -0.013935196
-0.11132758 -0.02667602 0.0546797 0.054958917 -0.029045893 -0.038275577 -0.16870081 0.12040471
-0.19594125 0.14956386 0.17653894 -0.082273 0.042750064 0.08729831 -0.06255863 0.055697177
-0.012843869 -0.14342196 -0.18460108 -0.04229945 0.031243168 -0.03205971 0.1289579 0.039342433
0.02378192 0.09189541 -0.08060027 -0.09091007 -0.036160532 0.04911187 0.0130555285 0.008347814
-0.29102993 -0.09233097 0.0005383935 -0.17998874 0.099497244 0.09873822 -0.21799617 -0.2660593
0.17878796 0.05647266 0.20466228 -0.21674666 0.049481656 -0.4455155 -0.08531178 0.039721042
-0.08623532 -0.016733227 -0.21436793 -0.3557996 0.15360816 -0.15167812 -0.18004565 0.05872529
-0.23565826 -0.10517832 -0.008355308 0.015863566 -0.23664998 -0.2342816 -0.3729161 -0.19798946
-0.059173223 -0.1611886 0.028964331 -0.2203306 -0.34264153 0.11602209 -0.24556184 0.100366764
-0.14048657 -0.057008736 -0.2037136 -0.07080159 -0.06649379 -0.15678097 -0.18946017 -0.10196687
-0.06662628 -0.01851919 0.016248511 -0.033813596 0.03911332 -0.11336625 -0.13063549 0.09933265
-0.12569329 -0.1437123 -0.07170909 -0.046034176 -0.20335431 -0.4993699 0.032695696 -0.2146231
-0.2550402 0.041729238 -0.17531143 -0.37200004 0.17805491 -0.4170293 -0.012870963 0.07504838
-0.16246733 -0.24289203 -0.06415848 0.165598 0.0018352779 -0.16093615 -0.08656919 -0.067308135
-0.11863162 0.02509983 -0.06509965 -0.29077438 -0.12481686 -0.12933868 -0.08880233 -0.04772114
-0.21260072 -0.12632138 -0.07409296 0.0531622 0.011560331 0.11647257 -0.35447925 0.0133753335
0.30901915 0.12401338 0.22265881 0.13657069 -0.43985042 -0.82204854 -0.13529488 -0.05092785
0.44552162 0.055605497 -0.24093592 -0.0045760735 0.047968972 -0.7180806 -0.18326676 0.015530504
-0.31585553 -0.32804084 0.023616973 -0.38254982 -0.84598935 -0.41768363 -0.2291019 -0.028115163
-0.21847555 -0.25813946 0.2509097 0.4296225 0.20558001 0.60605884 -0.23008631 -0.3612975
-0.22903699 0.18520924 -0.17167842 -0.021690562 0.189198 -0.1956553 0.23944396 -0.42503926
0.14923686 -0.15394107 -0.466169 0.22462308 -0.2714202 0.024343792 -0.31672505 -0.22987492
0.1393523 0.20064142 -0.20203198 -0.059677467 -0.3900797 -0.06462669 0.24265729 0.014561332
-0.3071291 -0.0628088 -0.23256724 -0.19809179 0.0713163 -0.09262216 0.061735254 -0.09739181

post_layers.0.weight f4 [1, 48]
00000000: 83e7 ea3d 95af f33c 9ce1 9f3c c9db 373d
00000010: c78b 8d3c 2955 1c3d 9575 bcbd 508e 3abe
00000020: bca1 f1bc a957 92bd 3751 b3bd e3d0 13be
00000030: 3264 f4bd ef7e 52bc 49c8 9f3d 7841 863c
00000040: be5a b1bd aabf 16be b233 3b3e 0e09 b4bd
00000050: 8d48 03bc be59 c93d de56 6a3e ea9f dabc
00000060: 7a52 9abd d50d 4c3d 953a 96bd 793d 763c
00000070: 66b1 9d3b 15e5 bd3d 5da7 6ebc 9819 1a3e
00000080: 0906 1cbd 80c2 433b 5ce4 49bd 32d5 943d
00000090: 141d 1b3e b2c7 a73d bf01 803d e414 113d
000000a0: 0f86 d9bd dd88 6e3d d045 863c a1e2 7bbb
000000b0: 92e6 6abc bbd0 86bd 81bb 94bd f338 513c
0.114699386 0.02974681 0.019516759 0.044887338 0.017278565 0.038167153 -0.092021145 -0.1821835
-0.029496066 -0.07145626 -0.08755725 -0.14435153 -0.11933173 -0.012847646 0.07801873 0.01638864
-0.08659886 -0.14721552 0.18281439 -0.087907895 -0.008012903 0.0983157 0.228847 -0.026687581
-0.075352624 0.04981788 -0.073353924 0.015029305 0.0048124073 0.092722096 -0.01456627 0.15048826
-0.038091693 0.002987057 -0.049290046 0.07267226 0.15147811 0.08192386 0.06250333 0.035420313
-0.10621273 0.05823599 0.016390711 -0.0038434642 -0.014337199 -0.06582781 -0.07262326 0.012769925
