models/BPI17/efg/exp_v2/no_subgraph_sampling/lr=0.001_hidden_dim=128/HigherOrderGNN_20230830_01h18m/state_dict_epoch5.pt (torch, 164095 bytes, 7 tensors)

convs.0.lin_rel.weight f4 [128, 27]
0	0x3dd22a43	0.10261967
1	0xbd53c129	-0.051697884
2	0xbc82b12b	-0.01595362
3	0x3d0665ba	0.032811858
4	0x3db8d782	0.0902548
5	0x3d5221e1	0.05130184
6	0x3d89a55b	0.06720992
7	0x3da3c105	0.079958
8	0x3dcd4cbe	0.10024403
9	0x3d99e45c	0.07514259
10	0x3b2fedbf	0.0026844589
11	0xbc61e3e8	-0.013787247
12	0xbced5a0d	-0.028973604
13	0x3e3c3199	0.18378295
14	0x3d552250	0.052034676
15	0x3e29324a	0.1652309
16	0x3dc737cc	0.09727439
17	0x3d0cb873	0.034355592
18	0xbdc7a4a4	-0.097481996
19	0x3e409313	0.18806104
20	0x3c993e9e	0.018706616
21	0x3e404d42	0.18779472
22	0xbcf38b05	-0.029729376
23	0x3d98d761	0.07462955
24	0xbd6b5b44	-0.057460085
25	0xbd526cbf	-0.05137324
26	0xbd885b08	-0.06657988
27	0x3e2a00a9	0.16601814
28	0xbc09fb19	-0.008421683
29	0xbd8783d6	-0.066169426
30	0x3dcdcde8	0.10049039
31	0xbd8e3c8f	-0.069451444
32	0x3c3817c3	0.011236134
33	0xbd272e7e	-0.040815823
34	0x3dfcba37	0.12340205
35	0x3d5f91a7	0.054582264
36	0xbda4d95b	-0.0804927
37	0x3db49798	0.08817977
38	0xbd6a3e41	-0.057188276
39	0xbe2d0323	-0.16895728
40	0x3d4a64c5	0.049412508
41	0x3dd773ff	0.105201714
42	0xbc59df06	-0.013297802
43	0x3e4d7e81	0.20067789
44	0x3e77d08c	0.24200648
45	0x3e18cc3f	0.14921664
46	0x3e0e0768	0.13870013
47	0x3dcce2f9	0.10004229
48	0x3cfa94b0	0.030588478
49	0xbe1e8505	-0.1548043
50	0x3df76917	0.12080591
51	0xbe7421d5	-0.23841031
52	0xbc95b855	-0.018276373
53	0x3db0c9b8	0.08632225
54	0xbda8a60a	-0.082347944
55	0xbc7c4c96	-0.015399119
56	0xbd0175a4	-0.03160633
57	0x3d9c2216	0.07623689
58	0x3d2cb4b5	0.042164523
59	0xbdcf3eda	-0.1011941
60	0xbca676a0	-0.020320237
61	0x3da507fd	0.08058164
62	0x3d564442	0.05231119
63	0xbce28d65	-0.027655313
64	0x3e1c581e	0.15267989
65	0x3e05a04d	0.13049431
66	0xbe025ea4	-0.12731415
67	0xbd4cb5d7	-0.049978103
68	0x3d13634f	0.03598338
69	0x3e93f265	0.2889587
70	0xbda1209e	-0.07867549
71	0x3c81812a	0.01580866
72	0xbc67810d	-0.014129889
73	0xbb32e7ec	-0.002729888
74	0xbc94bc97	-0.018156333
75	0xbd43f32e	-0.047839336
76	0x3c6fb8a1	0.014631421
77	0xbddccdae	-0.10781418
78	0x3d45616d	0.048188616
79	0xbdb4a78e	-0.08821021
80	0xbdbd55d0	-0.09244883
81	0xbd810190	-0.06299126
82	0x3dde1fbd	0.10845897
83	0xbc09184d	-0.00836761
84	0xbd98496a	-0.074358776
85	0x3d042f34	0.03227158
86	0x3d5e17ea	0.054222025
87	0x3c9b1272	0.018929694
88	0x3e197b94	0.14988548
89	0x3e079eab	0.13244121
90	0x3e210712	0.15725353
91	0xbd5657c3	-0.05232979
92	0x3d8396f8	0.064252794
93	0x3db6d2b1	0.08926905
94	0x3e9105de	0.2832479
95	0x3e49e7fd	0.19717403
96	0x3d38ba6c	0.04509966
97	0x3bf10170	0.0073549077
98	0x3e3b9e37	0.18322073
99	0x3d6f6dcf	0.05845433
100	0xbdaee907	-0.0854054
101	0x3d1d0f8f	0.038344916
102	0xbbe53ba6	-0.006995636
103	0xbc62b83f	-0.013837873
104	0xbd87a623	-0.06623485
105	0xbc0d070e	-0.008607639
106	0xbd1dc202	-0.0385151
107	0x3e1806dd	0.14846368
108	0x3de556cb	0.11198195
109	0xbd5f8af4	-0.054575875
110	0x3d08f180	0.033433437
111	0x3cbf089c	0.023319535
112	0xbd490c38	-0.04908392
113	0xbe449bfd	-0.1920013
114	0x3d3b6515	0.045750696
115	0x3dd6ad22	0.10482241
116	0xbbb3496f	-0.0054714005
117	0xbe011d42	-0.12608817
118	0xbd1ec2f5	-0.038760144
119	0xbdb9dae7	-0.090749554
120	0x3e35377c	0.17696947
121	0xbe172f08	-0.14764035
122	0xbdac03ee	-0.08399187
123	0x3dd65a71	0.10466469
124	0xbd82b14f	-0.06381475
125	0xbce9403f	-0.028473018
126	0x3d5616cc	0.052267835
127	0xbe55e3a2	-0.20887616
128	0xbd31dc3f	-0.043422934
129	0x3e066ce7	0.1312748
130	0x3db7527c	0.089512795
131	0x3db8cef9	0.09023852
132	0xbe426a32	-0.18985823
133	0x3db982d2	0.09058155
134	0x3e5fb10f	0.21844886
135	0x3e22c37d	0.15894885
136	0xbd446dcb	-0.04795627
137	0xbdd456eb	-0.10368141
138	0xbc8ac83e	-0.016941186
139	0xbe20b6ae	-0.15694687
140	0xbd98bc65	-0.074578084
141	0xbe02f965	-0.12790449
142	0x3cf39868	0.029735759
143	0xbca59043	-0.02021039
144	0xbde3d0b3	-0.111237906
145	0x3d682e35	0.05668469
146	0x3e44a950	0.19205213
147	0x3e192926	0.14957103
148	0xbd05510f	-0.032548007
149	0xbe3e51f6	-0.18585953
150	0x3bb44d2c	0.0055023637
151	0x3dc44f0c	0.095853895
152	0x3d415ab5	0.047205646
153	0xbdc013e6	-0.09378795
154	0x3e1cab43	0.15299706
155	0xbcc33fcd	-0.023834134
156	0x3da18e1b	0.078884326
157	0x3deed4da	0.11661692
158	0xbd8acb5b	-0.06777068
159	0xbdca38de	-0.09874128
160	0x3e33e695	0.17568429
161	0xbe186bcd	-0.14884873
162	0xbde1c7a7	-0.11024409
163	0x3dd24002	0.10266115
164	0x3dc47810	0.095932126
165	0xbd659471	-0.056049768
166	0x3c114aa4	0.008867893
167	0x3dc3bddc	0.09557697
168	0x3cbf2028	0.023330763
169	0xbd4f0830	-0.050544918
170	0x3db9a261	0.090641744
171	0x3d875008	0.066070616
172	0x3d8584a6	0.06519441
173	0xbcbd7e1f	-0.023131428
174	0x3d32f566	0.04369106
175	0xbe3ae285	-0.18250473
176	0x3d86d7ea	0.06584151
177	0xbc2ebe2f	-0.0106654605
178	0xbdfbb78d	-0.12290869
179	0x3e187ed0	0.14892125
180	0x3d4a1321	0.04933465
181	0x3e161db7	0.14659773
182	0x3c6cad29	0.0144455815
183	0x3dedc363	0.11609533
184	0xbdfb6043	-0.1227422
185	0x3e49af3f	0.19695757
186	0x3d901ded	0.07036958
187	0xbde1e24d	-0.110294916
188	0xbe37304b	-0.17889516
189	0xbda8cc70	-0.08242118
190	0xbda21e09	-0.07915885
191	0x3e09baf0	0.13450217
192	0xbddfcbe7	-0.10927563
193	0x3e1a2289	0.15052237
194	0xbda7eda5	-0.08199624
195	0x3de9a544	0.11408475
196	0xbde88547	-0.11353546
197	0x3cc1c350	0.023652703
198	0x3d8ce37f	0.06879329
199	0x3d3a7e93	0.045530867
200	0xbdde65f0	-0.10859287
201	0xbca8d5e0	-0.020609796
202	0xbd78bdbb	-0.060727816
203	0x3d74693d	0.059670676
204	0x3e885514	0.2662741
205	0x3e08543b	0.13313381
206	0xbdc14ad6	-0.09438102
207	0x3e02b1ee	0.12763187
208	0xbe158fd3	-0.14605646
209	0xbda18855	-0.078873314
210	0x3e3c29b5	0.18375285
211	0x3c45ee63	0.012080762
212	0xbc4560c8	-0.012047
213	0x3d1aa477	0.037754502
214	0xbdb5cb0e	-0.0887662
215	0x3e10184f	0.14071773
216	0xbdfd6719	-0.1237318
217	0xbe39710c	-0.1810953
218	0x3d2831bf	0.041063067
219	0xbe0f0c5e	-0.13969561
220	0xbda26d3b	-0.0793099
221	0x3cd24fc2	0.025672797
222	0xbd9d7124	-0.076875955
223	0x3e256ddd	0.16155191
224	0xbc1509dc	-0.009096589
225	0x3e0da1b0	0.1383121
226	0x3e1a5f34	0.1507538
227	0x3deac4af	0.11463296
228	0xbdc72bb5	-0.09725133
229	0x3d008a07	0.031381633
230	0xbd059f90	-0.032622874
231	0xbd4cf9d2	-0.050042935
232	0x3e619dae	0.22032806
233	0x3cc37def	0.02386376
234	0x3ddd55c2	0.10807373
235	0x3e350829	0.17678894
236	0x3d764aba	0.06012986
237	0xbe2147fa	-0.15750113
238	0x3daa7e4d	0.08324871
239	0x3d9fd691	0.07804597
240	0x3e41bae4	0.1891895
241	0xbd10215f	-0.035188075
242	0xbdfb9c33	-0.12285652
243	0xbd06fb49	-0.032954488
244	0x3c01a61f	0.0079131415
245	0xbd223445	-0.03960063
246	0xbdf8f717	-0.12156504
247	0xbe245d59	-0.16051234
248	0x3d2a1d10	0.041531622
249	0xbd9c378b	-0.076277815
250	0x3d593c7c	0.053036198
251	0x3d76c1f6	0.06024357
252	0x3da96c45	0.08272604
253	0x3e2711ae	0.16315338
254	0x3e75e3af	0.24012636
255	0xbde91410	-0.1138078

convs.0.lin_rel.bias f4 [128]
0	0xbd5524f5	-0.052037198
1	0xbdb3f030	-0.087860465
2	0xbd89ec3b	-0.067345105
3	0x3bce2301	0.006290794
4	0xbd7de1a7	-0.061982777
5	0xbe256936	-0.16153416
6	0x3db4d23e	0.08829163
7	0xbda076cf	-0.07835161
8	0x3d5d287a	0.05399368
9	0x39d079d1	0.00039763612
10	0xbdb62558	-0.088938415
11	0x3cac85c5	0.02105988
12	0xbde3cca8	-0.111230195
13	0x3d9e95ba	0.07743402
14	0xbdb5b178	-0.0887174
15	0xbcd5c3f3	-0.026094412
16	0xbe4c739f	-0.19965981
17	0xbda022a4	-0.07819107
18	0xbdd1fb25	-0.1025298
19	0x3df0317a	0.11728187
20	0xbe0a530e	-0.13508245
21	0xbe279df2	-0.16368845
22	0xbe065c18	-0.13121068
23	0xba0672de	-0.0005128811
24	0x3e153a0a	0.14572921
25	0xbe41886c	-0.18899697
26	0xbe02c9ec	-0.1277234
27	0xbdbb1151	-0.09134162
28	0xbe7be04b	-0.2459728
29	0x3d413513	0.047169756
30	0xbd9bc7bf	-0.07606458
31	0xbe213a22	-0.15744832
32	0x3e00ae12	0.12566403
33	0xbb7fd2bf	-0.0039035527
34	0x3e4c1e2d	0.19933386
35	0xbe3a3d1d	-0.18187375
36	0x3c0810dd	0.008304802
37	0xbe1bfebb	-0.1523389
38	0xbe9b782b	-0.30365118
39	0x3e2635c0	0.16231441
40	0xbd5e394d	-0.054253865
41	0xbdb9d853	-0.09074464
42	0xbe604d37	-0.21904455
43	0xbd0f6f2c	-0.03501813
44	0xbcaf9d32	-0.021437261
45	0xbe3750d6	-0.1790193
46	0xbe748f1f	-0.23882721
47	0xbd64faa4	-0.055903092
48	0xbe743d4d	-0.2385151
49	0xbe2b775c	-0.1674475
50	0xbe016319	-0.12635459
51	0xbe063385	-0.1310559
52	0xbe3373b5	-0.17524607
53	0x3d623f2c	0.055236027
54	0xbd93c166	-0.07214622
55	0x3e1caffd	0.15301509
56	0x3da470b3	0.08029308
57	0x3dbb5385	0.091467895
58	0xbd857a13	-0.065174244
59	0xbd4bf9d0	-0.049798787
60	0x3d1761e5	0.036958594
61	0xbe05f239	-0.13080682
62	0xbea0a68e	-0.3137707
63	0xbd55d4de	-0.05220496
64	0xbe520654	-0.20510226
65	0xbe1e0fb4	-0.15435678
66	0xbe43d2cf	-0.19123386
67	0xbe50f56a	-0.20406118
68	0xbe5d453e	-0.21608445
69	0xbde89803	-0.11357119
70	0xbb7e127f	-0.0038768349
71	0x3d09716e	0.03355544
72	0xbe8160ec	-0.25269258
73	0xbe80d187	-0.25159857
74	0x3d71bdc1	0.059018854
75	0xbe8047e6	-0.25054854
76	0xbd70ec4d	-0.058819104
77	0x3df3ac63	0.118981145
78	0xbe282a65	-0.16422422
79	0xbe458136	-0.19287571
80	0xbdb4b59c	-0.08823702
81	0xbde828a2	-0.11335875
82	0xbd166e90	-0.036726534
83	0x3df74608	0.12073904
84	0xbe2de0c3	-0.16980271
85	0xbdf1043b	-0.11768385
86	0x3d49c9b3	0.04926462
87	0x3d803aa8	0.06261188
88	0xbd2a0e5b	-0.041517597
89	0xbdd0e689	-0.10200221
90	0x3c4ea094	0.012611527
91	0xbe773522	-0.24141362
92	0xbdb952c9	-0.09048993
93	0xbda62d40	-0.081140995
94	0xbe330d35	-0.17485507
95	0xbc7b7184	-0.015346888
96	0x3de6acb3	0.112634085
97	0xbddfbff5	-0.10925285
98	0xbd276485	-0.040867347
99	0xbcb1168d	-0.021617198
100	0xbe794436	-0.24342427
101	0xbd9d34ec	-0.0767611
102	0x3df1a257	0.11798542
103	0xbe0a4a8e	-0.13505003
104	0xbd09ab1d	-0.033610452
105	0xbdc63a96	-0.09679143
106	0xbe0269e7	-0.12735711
107	0x3dc09cdb	0.09404918
108	0xbddb01b1	-0.10693682
109	0xbdcd90e6	-0.10037403
110	0xbdfc309c	-0.12313959
111	0xbe9807ad	-0.29693356
112	0xbd2557cc	-0.040366933
113	0x3ccbf95a	0.024899174
114	0x3ddfb2eb	0.10922798
115	0xbc95c401	-0.018281939
116	0x3de2f45e	0.110817656
117	0xbe0bb3f7	-0.1364287
118	0x3e10d354	0.14143115
119	0x3def69a5	0.11690072
120	0xbe255c10	-0.161484
121	0xbd042fd7	-0.032272186
122	0xbe09c05f	-0.1345229
123	0xbe43a832	-0.1910713
124	0x3dd6976f	0.104781024
125	0xbc41fb13	-0.011839646
126	0xbe0088c6	-0.12552175
127	0xbe27c878	-0.16385067

convs.0.lin_root.weight f4 [128, 27]
0	0x3e28fcab	0.16502635
1	0xbd933a14	-0.07188812
2	0x3dd3abfe	0.10335539
3	0x3e399f88	0.18127263
4	0xbd8c67f3	-0.06855764
5	0xbe081ab0	-0.1329143
6	0x3e13cbdc	0.14433235
7	0xbe2e4c17	-0.17021213
8	0xbe45f7f1	-0.19332863
9	0xbda877af	-0.08225953
10	0xbe248f68	-0.1607033
11	0xbd5594c2	-0.05214382
12	0xbcf4a205	-0.029862413
13	0xbe374342	-0.1789675
14	0x3cd85b19	0.026410626
15	0x3e1ee62b	0.1551749
16	0xbc759f74	-0.01499163
17	0x3d8c8943	0.06862118
18	0xbe1328c3	-0.14371018
19	0x3e484bba	0.19560137
20	0x3dcef713	0.101057194
21	0xbe1cc1dc	-0.15308326
22	0x3d772059	0.060333584
23	0x3c318cf2	0.010836827
24	0xbe628743	-0.22121911
25	0xbce47404	-0.027887352
26	0x3e15ca7e	0.14628026
27	0xbe29561f	-0.16536759
28	0xbc5d8de1	-0.013522596
29	0x3e82373f	0.25432774
30	0xbd4a50aa	-0.049393333
31	0x3de85015	0.113433994
32	0x3d402a96	0.046915613
33	0xbd126748	-0.035743028
34	0x3d832360	0.064032316
35	0x3e3c1d97	0.18370663
36	0xbda47c89	-0.08031566
37	0xbdb722a0	-0.08942151
38	0xbd177245	-0.03697421
39	0x3cc7811a	0.024353553
40	0xbdf3d92b	-0.11906656
41	0xbdc4398b	-0.09581288
42	0xbdd01078	-0.10159391
43	0xbd04f935	-0.032464225
44	0x3b1c81b3	0.0023881018
45	0xbd2b09fe	-0.041757576
46	0x3ba8dba5	0.005153137
47	0x3e1fd52a	0.1560866
48	0x3d249af5	0.04018684
49	0xbdabdb17	-0.083913974
50	0xbdd9642e	-0.10614811
51	0x3e48e774	0.19619542
52	0xbe4e3e0f	-0.20140861
53	0xbe4519ae	-0.19248077
54	0x3e36372d	0.17794485
55	0x3d190918	0.037362188
56	0xbcd5e550	-0.026110321
57	0x3d0fd58e	0.03511577
58	0xbe195d65	-0.14977033
59	0x3d87d511	0.06632436
60	0xbc15c619	-0.009141468
61	0xbcf682bc	-0.030091636
62	0xbd9cc6ef	-0.07655131
63	0xbd978718	-0.07398814
64	0xbdb74830	-0.089493155
65	0xbe2ac796	-0.16677698
66	0x3dfbd0c5	0.12295679
67	0x3e538e82	0.20659831
68	0x3dce233b	0.100653134
69	0xbe18a1bc	-0.14905447
70	0x3e59ad01	0.21257402
71	0x3ded2d99	0.11580963
72	0x3d0f214f	0.034943875
73	0x3dea8a09	0.11452109
74	0x3da55bdd	0.08074162
75	0x3e4e3b40	0.2013979
76	0x3bb49296	0.0055106385
77	0x3dfaff4f	0.122557275
78	0xbe942c9a	-0.28940278
79	0x3c21a4de	0.009865968
80	0xbdd28003	-0.102783225
81	0xbaa6bd86	-0.0012721277
82	0xbd8e02d3	-0.069341324
83	0xbd5640cf	-0.0523079
84	0x3df448ef	0.119279735
85	0x3e15b279	0.14618863
86	0x3d989c41	0.07451678
87	0x3dc7fb30	0.09764707
88	0xbdfd0417	-0.12354296
89	0x3d9e6b50	0.07735312
90	0x3def7b42	0.116934314
91	0x3d2941a1	0.041322354
92	0x3df0dc4f	0.117607705
93	0x3dcffe2d	0.10155902
94	0xbd81824a	-0.06323679
95	0x3d7cc80f	0.06171423
96	0xbc1da09f	-0.009620815
97	0x3e0d877d	0.13821216
98	0x3d6649b5	0.056222636
99	0xb92db402	-0.00016565624
100	0x3e1d14dc	0.15339988
101	0xbd98d207	-0.074619345
102	0x3d955355	0.07291285
103	0x3dbc37a8	0.09190303
104	0xbdc52615	-0.09626404
105	0xbe9fb5b5	-0.3119332
106	0xbe4cc146	-0.19995603
107	0x3e0cbc82	0.13743785
108	0xbc89c3e6	-0.016817044
109	0xbe23f528	-0.16011488
110	0xbdceb93f	-0.10093927
111	0x3df50108	0.11963087
112	0xbe4d607a	-0.20056334
113	0x3dc45257	0.095860176
114	0xbe394d59	-0.18095912
115	0x3de0fd3d	0.10985801
116	0xbda599d1	-0.08085979
117	0xbdca1f87	-0.098692946
118	0xbdaa48ed	-0.08314691
119	0x3d85b07b	0.065278016
120	0xbd79c9de	-0.06098353
121	0x3c2c6253	0.010521489
122	0x3a89eea7	0.0010523394
123	0xbe0d4306	-0.13795099
124	0x3e483fa5	0.19555528
125	0xbe147ad9	-0.14499988
126	0xbdfe13e3	-0.12406137
127	0xbcb2847b	-0.021791687
128	0x3d5c4183	0.053773414
129	0xbd820cdf	-0.06350111
130	0xbdadd173	-0.08487215
131	0x3e358d56	0.17729697
132	0xbe1ec83b	-0.1550607
133	0xbe704812	-0.23464993
134	0xbe5c5167	-0.21515428
135	0xbd9e396b	-0.07725795
136	0xbd02536a	-0.03181783
137	0xbdd41bab	-0.1035684
138	0x394d4cad	0.00019578887
139	0x3d8addde	0.06780599
140	0xbe0c3c8d	-0.13694973
141	0xbce043fc	-0.027376167
142	0xbdd48c5a	-0.103783324
143	0x3d8bbc00	0.068229675
144	0x3d4699fe	0.048486702
145	0xbcd963dc	-0.026536874
146	0x3dbc3a3e	0.09190796
147	0x3d17dd22	0.037076123
148	0xbd35518c	-0.044267222
149	0x3dac616f	0.084170215
150	0xbdb560df	-0.08856367
151	0xbde6152c	-0.11234507
152	0x3dbceba9	0.09224636
153	0xbd8ef059	-0.069794364
154	0x3dafa79d	0.085768916
155	0xbe2e8234	-0.17041856
156	0x3d929831	0.071579345
157	0x3c956111	0.018234761
158	0x3df5b1f7	0.11996835
159	0x3ca060da	0.019577432
160	0xbe8ef809	-0.2792361
161	0x3ba3b2f9	0.0049957004
162	0xbc9f680f	-0.019458799
163	0xbdde4cf1	-0.10854519
164	0xbdc9e616	-0.098583385
165	0xbe3ae34e	-0.18250772
166	0xbe527d21	-0.20555545
167	0x3db92bd2	0.09041561
168	0xbe351912	-0.17685345
169	0xbca803e2	-0.020509664
170	0xbdd9a0b9	-0.106263585
171	0x3df9093b	0.12159964
172	0x3e5d91df	0.21637677
173	0xbdd9e202	-0.10638811
174	0x3ce7dd2d	0.028303707
175	0xbdec5135	-0.115389265
176	0x3c0a8fd7	0.008457146
177	0xbe40f0a1	-0.18841793
178	0xbdbd2616	-0.0923578
179	0x3d67aca7	0.05656114
180	0xbd9cb076	-0.07650845
181	0xbe0b1236	-0.13581166
182	0x3def2168	0.116762936
183	0xbc758f04	-0.014987711
184	0x3de24929	0.110491104
185	0xbeac6299	-0.33668974
186	0x3e3f795f	0.18698643
187	0x3d8a65b8	0.067576826
188	0x3c725e07	0.014792926
189	0xbca26cfd	-0.01982736
190	0xbd5e834f	-0.054324444
191	0x3d8e42f3	0.06946363
192	0xbd8db803	-0.06919863
193	0x3e295b60	0.16538763
194	0x3d991f85	0.07476715
195	0x3a4edbfa	0.00078910554
196	0xbe359858	-0.17733896
197	0xbe07e0dc	-0.13269371
198	0x3e0bc6ff	0.1365013
199	0xbe240857	-0.16018806
200	0xbd79c4c1	-0.060978655
201	0xbdc09267	-0.09402924
202	0xbe24b951	-0.16086318
203	0x3d14b463	0.036304843
204	0x3e4a1b9f	0.19737099
205	0x3db82535	0.08991472
206	0x3dd4c188	0.10388476
207	0xbe11a2c3	-0.14222245
208	0x3ded0651	0.115734704
209	0x3d838952	0.06422676
210	0xbdfffba6	-0.1249917
211	0xbe5b66b6	-0.214259
212	0x3d99b629	0.075054474
213	0xbe3b9f31	-0.18322445
214	0x3e681d8a	0.22667518
215	0x3db3e182	0.087832466
216	0xbde86859	-0.11348028
217	0xbbc453b0	-0.0059914216
218	0x3cf02f6b	0.029319486
219	0xbdd2f903	-0.103014015
220	0xbe08833d	-0.13331313
221	0x3dc0c0ad	0.0941175
222	0x3de20ed6	0.11037986
223	0x3be10eee	0.006868235
224	0xbde4a841	-0.111649044
225	0xbd06973f	-0.032859083
226	0xbe1331bd	-0.14374442
227	0xbdfc10d6	-0.12307899
228	0x3e1bed4e	0.15227243
229	0x3d1932f0	0.037402093
230	0xbda09f3d	-0.07842872
231	0x3ded6cd1	0.11593021
232	0x3e197559	0.14986171
233	0x3e2e1467	0.1699997
234	0xbcaec3b8	-0.02133356
235	0xbd540174	-0.0517592
236	0xbd629577	-0.055318322
237	0xbe163477	-0.14668451
238	0x3d094fe0	0.03352344
239	0xbeb483c5	-0.35256782
240	0x3d33425b	0.043764453
241	0x3dc30539	0.095224805
242	0x3dfd8143	0.1237817
243	0x3e1fe0c4	0.15613085
244	0x3debcc50	0.11513579
245	0xbe1166c6	-0.14199361
246	0xbe18cae7	-0.14921151
247	0x3d448654	0.047979668
248	0xbd398289	-0.045290504
249	0xbdbd01f3	-0.092288874
250	0xbcaa9cd8	-0.020826742
251	0x3d3dc8ca	0.046334065
252	0x3e29a0cd	0.16565247
253	0xbd15f90a	-0.036614455
254	0x3e4b14f5	0.19832213
255	0xbe3da58a	-0.1852018

convs.1.lin_rel.weight f4 [128, 128]
0	0xbb99d4fc	-0.004694579
1	0x3d9fcb0c	0.078024
2	0xbc8273f3	-0.01592443
3	0x3c7e6818	0.015527748
4	0xbd30fc1e	-0.043209188
5	0xbdb80b8d	-0.08986578
6	0x3d4e53ab	0.05037276
7	0x3d0e0ed2	0.034682103
8	0x3d1d7e4a	0.038450517
9	0x3c17a06f	0.009254559
10	0xbd49127a	-0.049089886
11	0x3d00c754	0.031440094
12	0x3d8c76f7	0.06858628
13	0xbc85ce24	-0.016333647
14	0x3c501fb6	0.012702873
15	0xbd0d8233	-0.034547996
16	0xbcb6f61a	-0.022334147
17	0xbd944d2f	-0.07241284
18	0x3c7638b6	0.015028169
19	0x3d43e0ff	0.047821995
20	0x3c26fc55	0.010191997
21	0xbdb6a352	-0.0891787
22	0x3daeeeb2	0.08541621
23	0xbd7fc7e2	-0.062446482
24	0x3d6a2322	0.05716241
25	0xbd944464	-0.07239607
26	0xbd34115c	-0.043961868
27	0x3d2657b9	0.040611003
28	0xbd0a28fb	-0.03373049
29	0x3d05c12e	0.032654934
30	0xbc6f57ca	-0.014608333
31	0x3d503943	0.05083586
32	0xbd09bcc0	-0.03362727
33	0xbde0e488	-0.10981089
34	0xbdd21535	-0.10257951
35	0xbd9751fc	-0.07388684
36	0xbd0420f2	-0.03225798
37	0x3bd16f62	0.0063914517
38	0xbd1544a3	-0.03644241
39	0xbdb342e6	-0.08752994
40	0xbc46a523	-0.012124333
41	0x3d8a62ca	0.06757124
42	0xbddec510	-0.108774304
43	0xbd852e36	-0.06502955
44	0xbd5ca635	-0.053869445
45	0xbd73815a	-0.05944953
46	0xbd3d2f80	-0.046187878
47	0x3d112727	0.03543773
48	0xbd616e85	-0.05503704
49	0x3d63d41b	0.0556222
50	0x3d850257	0.06494587
51	0xbd5d252d	-0.05399053
52	0xbdebda4b	-0.115162455
53	0xbd78b21d	-0.060716737
54	0x3d0a57aa	0.03377501
55	0xbde2a023	-0.110657
56	0xbd48a0fb	-0.048981648
57	0x3cd3930f	0.025826959
58	0xbdb5c4c2	-0.08875419
59	0x3d03271e	0.032019727
60	0xbcc132f3	-0.023583865
61	0xbdbf3fd4	-0.09338346
62	0x3d2adac4	0.041712537
63	0x3d7f31c1	0.06230331
64	0xbdb28c53	-0.08718171
65	0xbdbc9aa7	-0.09209185
66	0xbc2329e8	-0.009958722
67	0xbd194b19	-0.037425134
68	0x3dd7cfbd	0.1053767
69	0x3d57a539	0.052647803
70	0xbdd7de2e	-0.10540424
71	0xbdf0f367	-0.11765175
72	0xbce07be8	-0.027402833
73	0xbd33902c	-0.043838665
74	0xbc2df0dd	-0.010616508
75	0x3dac4400	0.084114075
76	0xbd0460a7	-0.032318737
77	0xbd717154	-0.05894597
78	0xbce67abc	-0.028134696
79	0x3d9085ad	0.07056747
80	0xbd987960	-0.074450254
81	0xbd57f315	-0.052722055
82	0x3cb74fb3	0.02237687
83	0x3ce8e1c9	0.028427975
84	0xbd20ce44	-0.03925921
85	0x3c9dcc3b	0.019262424
86	0xbd12c8f1	-0.035836164
87	0xbdc8eeb2	-0.098111525
88	0xba7546b8	-0.0009356546
89	0xbd9ec876	-0.07753079
90	0xbdd36f4e	-0.10323964
91	0xbd9b08bf	-0.075700276
92	0x3c22add9	0.009929144
93	0x3dabaf9e	0.08383106
94	0xbb8b28dd	-0.0042468146
95	0xbd13df19	-0.036101434
96	0x3d8d2325	0.06891469
97	0x3d3495cf	0.04408818
98	0x3d683df0	0.056699693
99	0xbdb7125a	-0.08939047
100	0xbd609e7f	-0.054838654
101	0x3c097e08	0.008391865
102	0x3d24feb7	0.040281978
103	0x3cdd45c1	0.0270108
104	0xbd9795a7	-0.07401591
105	0xbd90f8c1	-0.07078696
106	0x3d0db1f8	0.034593552
107	0xbbcccb21	-0.006249801
108	0x3d5d962d	0.054098297
109	0xbda5b160	-0.08090472
110	0x3c2400d2	0.010009961
111	0x3ccc4669	0.024935918
112	0x3d0ed36e	0.034869604
113	0xbe14da0a	-0.145363
114	0x3dd39d6e	0.10332762
115	0x3d3cd33d	0.04609989
116	0xbdf9c293	-0.12195315
117	0xbdae1011	-0.08499158
118	0xbde4b9a6	-0.11168222
119	0x3d1c58a7	0.038170483
120	0xbd7cb616	-0.06169709
121	0xbd2dcfa8	-0.042434365
122	0xbd888312	-0.06665625
123	0xbd0e904a	-0.034805574
124	0x3d2abebc	0.041685805
125	0x3c8731fc	0.016503327
126	0xbd17f955	-0.037103016
127	0xbd13b5b0	-0.036061943
128	0xbdb7dc04	-0.089775115
129	0x3d8fd362	0.0702274
130	0xbd9c2e9d	-0.07626078
131	0x3988e505	0.00026110574
132	0xbd245b9e	-0.040126435
133	0xbd59d0b2	-0.053177543
134	0xbccf650a	-0.025316734
135	0xbd86bbd7	-0.06578796
136	0xbd092dd2	-0.033490963
137	0x3d9b5391	0.075842984
138	0x3d0f20e8	0.03494349
139	0x3d62a2c9	0.055331025
140	0xbc4859f8	-0.0122284815
141	0xbd9c5be9	-0.07634718
142	0xbc68a6ce	-0.014199926
143	0xbdc30d05	-0.09523968
144	0xbcb27962	-0.021786395
145	0xbd84add0	-0.064784646
146	0x3cf73966	0.030178737
147	0xbc52bd85	-0.012862568
148	0xbc416861	-0.011804671
149	0x3cf293bc	0.02961146
150	0x3c16c71f	0.009202748
151	0x3ca4db95	0.020124236
152	0x3d4fb2bf	0.050707575
153	0xbd235457	-0.039875355
154	0x3a1c0280	0.00059513
155	0xbcc2fbc9	-0.023801701
156	0xbdedc89b	-0.11610528
157	0x3d7bed31	0.0615055
158	0x3d2ea09a	0.04263363
159	0xbe012459	-0.12611522
160	0xbdb994b8	-0.09061569
161	0xbd878ad9	-0.0661828
162	0x3cde78ae	0.027157154
163	0xbddf322a	-0.1089824
164	0xbd9b0421	-0.07569147
165	0xbd928d73	-0.071558855
166	0xbd7a224a	-0.061067857
167	0xbd788e3e	-0.060682528
168	0xbd2224d6	-0.03958591
169	0x3d81e5fa	0.06342693
170	0x3d58a41e	0.05289089
171	0xbd0ba38c	-0.034091517
172	0xbd331462	-0.04372061
173	0xbd8e3bb7	-0.069449835
174	0x3da3bfd8	0.07995576
175	0xbdf5c091	-0.1199962
176	0xbdfb4e42	-0.12270786
177	0x3d5df4f3	0.05418868
178	0xbc72a567	-0.014809943
179	0x3db5619f	0.0885651
180	0x3d6ac5f4	0.05731769
181	0xbc4e1a3b	-0.012579496
182	0x3caa2a70	0.020772189
183	0x3d16a4f7	0.036778416
184	0xbbaaadfd	-0.0052087293
185	0xbdd191b5	-0.102328695
186	0xbcff65bb	-0.031176439
187	0x3cb6c7dc	0.022312097
188	0x3d77810f	0.060425814
189	0xbc7877da	-0.015165294
190	0xbdb9c276	-0.090702936
191	0x3cd63142	0.026146535
192	0x3d02e1b9	0.031953547
193	0xbc170136	-0.009216597
194	0xbc841f20	-0.016128123
195	0x3d3482aa	0.044069923
196	0xbba0ab4d	-0.004903233
197	0xbd34aeb4	-0.044111922
198	0xb935c52f	-0.00017334962
199	0xbd45a765	-0.048255343
200	0x3d4ebd9a	0.050473787
201	0x3d3c52e9	0.045977507
202	0xbc6fb4e1	-0.014630527
203	0xbd49c4ba	-0.04925988
204	0xbd3aa7d1	-0.0455702
205	0xbd955b6a	-0.072928265
206	0xbd6dab7b	-0.058024865
207	0xbde6c176	-0.112673685
208	0xbce11c35	-0.02747927
209	0x3cf2706b	0.02959462
210	0xbd813404	-0.06308749
211	0xbda4df65	-0.080504216
212	0xbd4c8044	-0.04992701
213	0xbcac9754	-0.021068253
214	0xbd532cb2	-0.051556297
215	0xbdabb6e4	-0.08384493
216	0xbdd7bbb9	-0.10533852
217	0xbcfda30b	-0.030961534
218	0x3d28464a	0.041082658
219	0xbc79f2a0	-0.0152556
220	0xbcc57346	-0.024102818
221	0xbca4db5a	-0.020124126
222	0xbd2c3cb7	-0.04205009
223	0x3d2394b8	0.03993675
224	0xbc270792	-0.010194676
225	0x3c0173b6	0.007901123
226	0xbd85d2ff	-0.06534385
227	0xbd1dc70d	-0.038519908
228	0xbd2be83f	-0.041969534
229	0x3b803eed	0.0039137513
230	0xbc751ce5	-0.014960502
231	0xbda043b5	-0.07825414
232	0x3c957ad2	0.018247042
233	0x3d4f38fc	0.050591454
234	0xbd8d1e26	-0.06890516
235	0xbc2c55b4	-0.01051848
236	0xbc690de0	-0.014224499
237	0x3d4ac15d	0.04950081
238	0x3cca24e5	0.024675796
239	0xbc65f7fd	-0.014036176
240	0xbd114f6f	-0.035476144
241	0x3d6d43e6	0.05792608
242	0x3d50265f	0.050817844
243	0xbc4720ec	-0.012153845
244	0xbcc364eb	-0.023851832
245	0x3c2e8cf8	0.010653727
246	0xbb25648a	-0.0025236928
247	0xbe047a87	-0.12937365
248	0x391aea0c	0.00014773774
249	0x3d5db37d	0.05412625
250	0xbd87f6c9	-0.066388674
251	0xbd77abd9	-0.06046662
252	0xbd8bb0b7	-0.06820815
253	0xbd1bfe4f	-0.038084324
254	0x3d9dc9f8	0.07704538
255	0x3d6b82ba	0.057497717

convs.1.lin_rel.bias f4 [128]
0	0xbb8c8ea5	-0.0042894655
1	0xbd681928	-0.056664616
2	0xbd892f02	-0.06698419
3	0xbdb75033	-0.08950844
4	0xbd443e13	-0.04791076
5	0x3daedbf3	0.08538046
6	0xbcb491d5	-0.022042194
7	0xbcf06531	-0.029345127
8	0xbcb2d949	-0.021832125
9	0x3e1e14d4	0.15437633
10	0x3d0ce845	0.034401197
11	0xbca6b27d	-0.020348782
12	0xbd18b965	-0.03728618
13	0x3d1996fe	0.037497513
14	0x3c908b66	0.017644595
15	0xbdc1024d	-0.09424267
16	0x3d051234	0.032488063
17	0xbdd8c482	-0.10584356
18	0xbd889ea4	-0.06670883
19	0xbd617c00	-0.055049896
20	0x3c220ec7	0.0098912185
21	0xbd2a870b	-0.041632693
22	0x3c18d71f	0.009328633
23	0xbd98d4bb	-0.0746245
24	0x3e095641	0.1341181
25	0x3d6eb894	0.058281496
26	0x3d844254	0.064579636
27	0xbe0295d1	-0.12752463
28	0x3d36c75d	0.04462372
29	0xbd7b8157	-0.061402645
30	0x3d833e02	0.064083114
31	0x3d40dfe5	0.047088522
32	0x3db473a6	0.08811121
33	0x3c0c54d2	0.008565145
34	0x3d917ebd	0.071042515
35	0x3df27ceb	0.118402325
36	0x3cdd7b92	0.027036462
37	0x3d8682cc	0.06567916
38	0xbd25378b	-0.040336173
39	0x3e2e736d	0.17036219
40	0xbde58ea7	-0.112088494
41	0x3d8e4db0	0.069484115
42	0xbd880314	-0.06641212
43	0x3d1db5e0	0.038503528
44	0x3d9ce5f4	0.076610476
45	0x3dcd226c	0.10016331
46	0xbc85c26e	-0.016328063
47	0xba6d833a	-0.0009060387
48	0x3d5f885a	0.054573394
49	0x3d50d262	0.050981887
50	0xbd84a2bf	-0.06476354
51	0x3d39ce8e	0.045363
52	0xbdccdc50	-0.10002959
53	0xbd9cfd34	-0.07665482
54	0x3dc69c26	0.09697752
55	0x3d45fa23	0.048334252
56	0x3d605b9b	0.05477486
57	0xbdb48b93	-0.08815684
58	0x3bc09c2d	0.0058779926
59	0xbde0ac9e	-0.10970424
60	0x3da437bb	0.08018442
61	0xbd99b0d1	-0.07504428
62	0xbddd6f84	-0.108122855
63	0x3ce1f5fc	0.027583115
64	0x3d68939f	0.056781407
65	0xbcee1495	-0.029062549
66	0x3d3eadff	0.046552654
67	0xbb9046dc	-0.0044029783
68	0xbd041a32	-0.032251544
69	0x3cafba32	0.02145109
70	0x3ae3e58e	0.0017387138
71	0x3d3df15b	0.046372753
72	0x3d9b7e24	0.07592419
73	0x3db95c0a	0.09050758
74	0xbe163e46	-0.14672193
75	0x3d80ef11	0.06295598
76	0x3c3f26ec	0.011666995
77	0x3d4350bd	0.04768442
78	0x3d2c3574	0.042043164
79	0xbc306914	-0.01076724
80	0xbd16ebef	-0.036846098
81	0xbca228b1	-0.019794794
82	0xbdb28078	-0.0871591
83	0x3ddcea1a	0.10786839
84	0xbdcab0fe	-0.0989704
85	0x3bd86d76	0.0066048456
86	0x3e0bef89	0.13665594
87	0xbb3e322e	-0.0029021609
88	0x3dc25f7b	0.09490868
89	0x3d7ad265	0.061235804
90	0xbda95b17	-0.08269327
91	0xbd14a4f8	-0.03629014
92	0x3d25ef0f	0.040511187
93	0x3b82bf45	0.0039900863
94	0xbd809cac	-0.06279883
95	0x3decb5da	0.11558123
96	0xbb536d77	-0.003226129
97	0xbd6fa83d	-0.058510054
98	0x3d4a3d61	0.04937494
99	0x3c8d4029	0.017242508
100	0x3e1369bb	0.14395802
101	0x3d79e101	0.061005596
102	0xbd4e73eb	-0.050403517
103	0xbd02526f	-0.031816896
104	0x3d9c71c4	0.076388866
105	0x3d2ae992	0.041726656
106	0x3c0a5ab5	0.008444478
107	0x3da06e17	0.07833498
108	0x3d56efe8	0.052474886
109	0xbd720d15	-0.059094507
110	0x3db3f262	0.08786465
111	0xbda5be03	-0.080928825
112	0xbd2e4576	-0.04254671
113	0x3d9c0dec	0.07619843
114	0xbc930713	-0.01794771
115	0x3b48f613	0.003066425
116	0xbca82291	-0.020524295
117	0x3b2e27e6	0.0026574074
118	0xbc96279d	-0.018329436
119	0xbdd8ce37	-0.10586207
120	0x3d04ebf4	0.032451585
121	0xbcadd8d0	-0.021221548
122	0xbd601559	-0.05470786
123	0x3d3fb1b7	0.04680034
124	0x3d912dc0	0.07088804
125	0x3c83eaf6	0.016103249
126	0xbda975bc	-0.08274409
127	0xbdc818fb	-0.0977039

convs.1.lin_root.weight f4 [128, 128]
0	0xbe0ff742	-0.14059165
1	0x3b7cbe52	0.0038565588
2	0x3d121212	0.035661764
3	0x3d2afc13	0.041744303
4	0x3bf22833	0.007390046
5	0xb9bd6e06	-0.00036130863
6	0xbd9f24aa	-0.07770665
7	0x3d1ac4d8	0.03778538
8	0x3d8b1474	0.067910105
9	0xbe53445b	-0.20631544
10	0xbdab09f5	-0.083515085
11	0x3dcea339	0.10089726
12	0x3c971ab2	0.018445347
13	0xbd5a4b4d	-0.05329447
14	0x3c74d6e5	0.014943813
15	0xbaaaec14	-0.0013040327
16	0xbc384eab	-0.011249225
17	0x3d4ea41c	0.050449476
18	0x3cab81fc	0.020936005
19	0x3cc7368d	0.024318004
20	0x3d26b54c	0.040700242
21	0x3d24ef14	0.040267065
22	0x3dcb5750	0.09928763
23	0xbe0a7439	-0.13520898
24	0xbd6e6389	-0.058200393
25	0x3d7c50b4	0.061600402
26	0xbd15f56b	-0.036611002
27	0xbc2e6966	-0.010645246
28	0xbb90078c	-0.004395431
29	0xbd2cd40a	-0.042194404
30	0x3cd653e0	0.026163042
31	0xbd3c8271	-0.046022836
32	0xbd85ab75	-0.065268435
33	0xbda45826	-0.080246255
34	0xbca92630	-0.020648092
35	0x3dc3f55d	0.09568284
36	0x3d75e75b	0.06003509
37	0xbe2657dd	-0.16244455
38	0x3dafc730	0.08582914
39	0x3c3e2a7a	0.011606807
40	0xbce29619	-0.027659463
41	0x3bc9f26d	0.0061629326
42	0xbd4ca3fc	-0.049961075
43	0x3d2d6f05	0.042342205
44	0x3d5159f1	0.051111165
45	0x3e1c0306	0.15235528
46	0x3d365052	0.044510193
47	0xbd52244b	-0.051304143
48	0x3c4edb55	0.012625535
49	0xbdbf2106	-0.093324706
50	0xbd07d478	-0.03316161
51	0xbc9ef587	-0.019404186
52	0x3d2f9d29	0.04287449
53	0xbddf6c97	-0.10909384
54	0xbd89d020	-0.0672915
55	0xbd69b64c	-0.057058617
56	0xbd6bb77f	-0.057548042
57	0xbd29489b	-0.041329008
58	0x3bcacba6	0.0061888276
59	0xbc3791ce	-0.011204196
60	0x3d3f18f7	0.046654668
61	0x3d9db052	0.07699646
62	0x3da2b7e4	0.079452306
63	0xbd750542	-0.059819467
64	0xbdf84b71	-0.12123764
65	0xbe0cb2d0	-0.13740087
66	0x3d38ae65	0.04508819
67	0x3de0460e	0.10950862
68	0x3d785fc5	0.060638208
69	0xbdbe8f61	-0.09304691
70	0xbd5449ba	-0.051828124
71	0xbd98660e	-0.074413404
72	0xbd8424ff	-0.06452369
73	0x3cad588b	0.021160385
74	0x3bb575a5	0.005537706
75	0x3d07082c	0.032966778
76	0x3d34a6aa	0.044104256
77	0xbd7ae4e6	-0.06125345
78	0x3cd35d93	0.025801456
79	0xbc40318e	-0.011730565
80	0xbd587fed	-0.052856375
81	0x3da382e9	0.079839535
82	0x3d824765	0.06361274
83	0x3b8711ae	0.0041219806
84	0xbd76e2fc	-0.060275063
85	0x3b4cca36	0.0031248457
86	0xbcb1ea38	-0.02171813
87	0x3d875f79	0.06610007
88	0x3cf6b49c	0.030115418
89	0xbe2ce3ac	-0.16883725
90	0xbe1f3914	-0.15549117
91	0xbd10d097	-0.035355177
92	0xbe12be7c	-0.14330477
93	0xbd5f31d3	-0.054490875
94	0x3d95bba0	0.07311177
95	0x3d0e6e99	0.034773443
96	0xbc7eaf42	-0.015544714
97	0xbcd85c3b	-0.026411166
98	0x3c2e014a	0.0106204245
99	0x3db0fdf8	0.08642191
100	0xbdc411a6	-0.09573679
101	0xbd95a35d	-0.0730655
102	0xbcb0372a	-0.02151068
103	0xbcb84e53	-0.022498285
104	0x3d3332a0	0.04374945
105	0xbe1ff4d2	-0.15620735
106	0xbd18c5ab	-0.037297886
107	0x3d90c3e2	0.07068612
108	0xbd9240ee	-0.071412906
109	0x3da726fe	0.08161734
110	0xbcf2a86a	-0.029621322
111	0xbcae585b	-0.021282366
112	0x3d84f81e	0.06492637
113	0x3d073be0	0.033016086
114	0xbda1e80b	-0.07905587
115	0x3ce67084	0.028129824
116	0xbe135e19	-0.14391364
117	0x3d0ebf8a	0.034850635
118	0xbdde6662	-0.10859372
119	0x3da40816	0.08009355
120	0xbc3220ce	-0.010872079
121	0x3cf9689f	0.030445395
122	0xbca3aa8a	-0.01997878
123	0x3bd23805	0.0064153695
124	0x3da61597	0.08109587
125	0x3dee6dda	0.11642046
126	0xbd862fa7	-0.06552058
127	0xbdb8aeaa	-0.090176895
128	0x3cd77beb	0.026304206
129	0x3a6c178a	0.0009006193
130	0x3c442f92	0.011974232
131	0x3dab0256	0.08350055
132	0x3d1319a9	0.035913143
133	0xbd892b3b	-0.06697699
134	0xbd42d989	-0.04757074
135	0x3cdd8788	0.027042165
136	0x3d3763bb	0.044772845
137	0x3d3bd138	0.045853823
138	0xbd1cb88b	-0.03826193
139	0xbca4021c	-0.020020537
140	0xbdcf326a	-0.101170376
141	0xbda603db	-0.08106204
142	0xbd011a40	-0.031519175
143	0xbc97bac2	-0.01852167
144	0x3c617eb4	0.013763119
145	0xbd0149f9	-0.031564686
146	0xbd0a5473	-0.033771943
147	0xbdb0c60c	-0.086315244
148	0xbbb48dad	-0.005510053
149	0xbdd56fe5	-0.10421733
150	0xbca23a72	-0.01980326
151	0xbcaeb8ca	-0.021328349
152	0x3c4db911	0.01255633
153	0xbcbf7fde	-0.023376402
154	0xbdb3050d	-0.08741198
155	0xbe0a9772	-0.13534334
156	0xbd81caa4	-0.06337479
157	0xbcd04e97	-0.0254281
158	0x3c807966	0.015682887
159	0xbc4ce166	-0.012504911
160	0x3d7da8c2	0.061928518
161	0xbda49fde	-0.08038305
162	0x3babfed7	0.005248885
163	0xbcfea6e3	-0.031085437
164	0x3b78e8ba	0.0037980513
165	0x3d52f6c8	0.05150488
166	0x3dbf0e75	0.09328929
167	0x3d89d864	0.06730726
168	0x3d61b8c9	0.055107865
169	0x3d9eabc6	0.07747607
170	0xbc4bcbaa	-0.012438694
171	0xbdf627bb	-0.12019297
172	0x3d354bf1	0.044261876
173	0xbade498c	-0.0016959175
174	0xbd4fe603	-0.050756466
175	0xbb08cb23	-0.0020873032
176	0x3d4d55f7	0.05013081
177	0x3cdf0095	0.027221957
178	0x3d021651	0.031759564
179	0xbb56823a	-0.003273143
180	0xbd6d0a7b	-0.057871323
181	0xbd49b2be	-0.049242727
182	0xbc0e9a0b	-0.008703719
183	0xbd9d5eb3	-0.07684078
184	0x3c03a3b6	0.008034637
185	0xbdd6db62	-0.10491063
186	0xbd456790	-0.048194468
187	0x3c2818a4	0.010259781
188	0xbdb4feaf	-0.088376395
189	0x3d9450c3	0.072419666
190	0xbd2f4219	-0.042787645
191	0xbc187ba9	-0.009306827
192	0xbdaeebc8	-0.085410655
193	0xbd0c660e	-0.034277014
194	0xbab748a0	-0.0013983436
195	0x3d972e72	0.073819056
196	0x3d1dc516	0.038518034
197	0x3d17fd3e	0.037106745
198	0xbd934523	-0.07190921
199	0xbcefa507	-0.029253496
200	0xbd9af4a3	-0.07566192
201	0xbc95a93f	-0.01826918
202	0x3d4bee46	0.049787782
203	0x3cec64f4	0.028856732
204	0xbdb3c06d	-0.08776937
205	0x3d856c5f	0.06514811
206	0xbd1ef259	-0.03880534
207	0x3d32fc33	0.043697547
208	0x3d4b0d76	0.049573384
209	0xbddd3063	-0.10800245
210	0xbdc64f63	-0.096831106
211	0x3d3c7130	0.04600638
212	0x3c6b0648	0.014344759
213	0xbb92e574	-0.0044829194
214	0x3ce597d9	0.028026508
215	0xbc54fc03	-0.012999537
216	0x3b0507e9	0.0020298904
217	0xbd3ca26a	-0.046053328
218	0xbc88bf84	-0.016692884
219	0x3b30c090	0.0026970245
220	0xbd1ae9eb	-0.037820738
221	0x3d2bd9f3	0.0419559
222	0xbd284df5	-0.04108997
223	0xbcf30f6d	-0.029670442
224	0xbd12a6d5	-0.035803635
225	0xbdbf63e0	-0.093452215
226	0xbdadf6c1	-0.0849433
227	0xbd8b334e	-0.06796895
228	0x3dbf23b8	0.09332985
229	0xbdb04461	-0.08606792
230	0x3db95c4c	0.09050807
231	0x3d8d63b2	0.06903781
232	0xbd3052d9	-0.04304776
233	0xbcb7d590	-0.022440702
234	0xbc9e48db	-0.01932185
235	0xbd4cce80	-0.05000162
236	0xbd8c90d4	-0.06863561
237	0xbd89e080	-0.06732273
238	0xbce78d04	-0.028265484
239	0x3c10a8b8	0.008829288
240	0xbd7e54cc	-0.062092587
241	0x3d4a6462	0.04941214
242	0x3d9fb964	0.07799032
243	0x3d651b75	0.05593439
244	0x3d1fc16a	0.039002813
245	0xbcc39c45	-0.023878226
246	0x3c32127e	0.010868667
247	0xbdc227ac	-0.09480223
248	0xbd43dca4	-0.04781784
249	0xbdb2824d	-0.08716259
250	0xbd1371c7	-0.03599718
251	0x3ce7dfcc	0.028304957
252	0xbd8d798b	-0.06907948
253	0x3c15d03a	0.009143883
254	0xbd84aba4	-0.0647805
255	0x3d27e2c6	0.040987752

post_layers.0.weight f4 [1, 128]
0	0xbc2f5198	-0.010700606
1	0xbb626914	-0.0034547495
2	0xbb477bbc	-0.0030438742
3	0x3b64b94e	0.003490049
4	0xbc68b0fb	-0.014202352
5	0xbd007755	-0.031363804
6	0x3de7d844	0.11320546
7	0xb9a0f663	-0.0003070115
8	0xbd846b93	-0.06465831
9	0xbd20a3f6	-0.039218865
10	0xbc71e3c9	-0.014763781
11	0x3bd3e61f	0.0064666416
12	0xbc307f88	-0.010772593
13	0x3d8c5ba6	0.06853418
14	0x3b0d5745	0.002156691
15	0x3ce5d040	0.028053403
16	0x3d8f7e0e	0.07006465
17	0x373a1b7a	1.1092861e-05
18	0xbb6c8ebd	-0.003609582
19	0x3a9f9b2f	0.0012176986
20	0xb8465caa	-4.729318e-05
21	0x3d9c1052	0.076203
22	0x39dac299	0.00041725187
23	0x3ad4b333	0.0016227722
24	0xbd029541	-0.03188062
25	0x3d992b77	0.074789934
26	0xbd46c53c	-0.04852794
27	0x3d3a0c1c	0.045421705
28	0x3ad9f201	0.0016627909
29	0x3c4ef24d	0.012631011
30	0xba88a4aa	-0.001042505
31	0x3cf7ba2d	0.030240143
32	0xbc0b35a3	-0.008496675
33	0xb9fa4721	-0.0004773671
34	0x3cba5bd6	0.022748869
35	0xbce5a470	-0.028032511
36	0x3dab1a35	0.08354608
37	0xbc0b93ca	-0.008519122
38	0x3d8bec85	0.06832222
39	0xbd5c3078	-0.05375716
40	0xba8c5339	-0.0010705955
41	0xbc90ab40	-0.017659783
42	0xba072352	-0.00051551044
43	0xbcb20a43	-0.021733409
44	0x3db331af	0.08749711
45	0xbd588bec	-0.052867815
46	0x3cef2be8	0.02919574
47	0xbbd62e33	-0.006536269
48	0xbd001ad1	-0.031275574
49	0x3c20ec9f	0.00982204
50	0xbb2ac964	-0.002605998
51	0xba376395	-0.0006995735
52	0x3aa81c0a	0.0012825739
53	0x3d5ed94e	0.054406457
54	0xbbbb5583	-0.005716981
55	0xbc2966e1	-0.01033947
56	0xbb9f5405	-0.004862311
57	0x3d84882e	0.06471287
58	0x3b8dac92	0.0043235505
59	0x3ba8a5fc	0.00514674
60	0xbb793e31	-0.0038031454
61	0x3ce3ab41	0.027791621
62	0x3a319b40	0.0006775148
63	0x3dd18025	0.1022952
64	0x3d4b777f	0.049674507
65	0x3c27e1eb	0.010246734
66	0x3d5ca590	0.05386883
67	0xba3af46e	-0.000713176
68	0xbb526db6	-0.003210885
69	0x3d1c40f3	0.038147878
70	0xbdc5b29b	-0.09653207
71	0xbbe7b74b	-0.007071411
72	0x3d15daa2	0.036585458
73	0xbd73f222	-0.059557088
74	0x3ccd94a1	0.025095286
75	0xba85130b	-0.001015277
76	0xbbeb4d74	-0.007180864
77	0x3cec245c	0.028825931
78	0x3bff9af2	0.0078004533
79	0xba51f1ed	-0.0008008767
80	0xba9dbf78	-0.0012035212
81	0xbbd1a807	-0.0063982042
82	0x3c8d995c	0.017285042
83	0xbc110518	-0.008851312
84	0xba0f8529	-0.00054748595
85	0xbd5d7207	-0.054063823
86	0xbbec73fa	-0.007215974
87	0xb9adbdb8	-0.00033138483
88	0xbb98abd7	-0.004659157
89	0xbb01c963	-0.0019803874
90	0x3c4c9ea1	0.012488992
91	0x3c7aeeba	0.015315706
92	0x3a6b94b4	0.0008986697
93	0xbdce0196	-0.10058896
94	0xbb0ed9fc	-0.002179741
95	0xbd1edd63	-0.03878535
96	0xba33bf87	-0.0006856848
97	0x3d704ab9	0.05866501
98	0xbcc59a5b	-0.024121454
99	0xbc8508e8	-0.016239598
100	0xbd0ed976	-0.034875356
101	0x3c9c856c	0.01910659
102	0x3b80e0ff	0.0039330716
103	0x3c303b64	0.010756347
104	0xbc955959	-0.01823108
105	0xbab48796	-0.0013773318
106	0xbc6c1e30	-0.014411494
107	0xbd118b30	-0.03553313
108	0xb9958b7e	-0.00028523424
109	0x3b66b83a	0.0035205022
110	0xbd029024	-0.031875744
111	0x3d2aa472	0.041660734
112	0x3c603dcc	0.0136866085
113	0xbd311e61	-0.043241862
114	0xbce0d6c4	-0.027446158
115	0xbb3380a1	-0.0027389901
116	0x3cd8e265	0.02647514
117	0x3b886fe7	0.0041637304
118	0xbc9498b9	-0.01813923
119	0xbae1a016	-0.0017213847
120	0x3a9e59d7	0.0012081218
121	0x3d326ae1	0.04355896
122	0x3c3cbd9e	0.011519818
123	0x3d8ba75c	0.06819031
124	0xbd6994d9	-0.057026718
125	0xbd0cf6ac	-0.034414932
126	0x3a8f1ece	0.0010919215
127	0x39aa0138	0.00032425835
