models/BPI17/efg/exp_v2/no_subgraph_sampling/lr=0.001_hidden_dim=128/HigherOrderGNN_20230830_01h18m/state_dict_epoch4.pt (torch, 164095 bytes, 7 tensors)

convs.0.lin_rel.weight f4 [128, 27]
000000 2a 84 d4 3d 35 98 2b bd f5 82 e8 bc 4a 5f 30 3d
       0.10376771 -0.041893203 -0.028382758 0.043059625
000010 6f 19 a3 3d 2d aa 71 3d 48 e5 96 3d c5 42 6f 3d
       0.079638354 0.059000183 0.07367951 0.058413286
000020 2f c4 d5 3d 49 ea 96 3d 23 87 01 bb 4a a6 27 bc
       0.1043781 0.07368905 -0.0019764386 -0.0102325175
000030 98 96 de bc 22 61 52 3e c0 3f 4a 3d bd 9c 1a 3e
       -0.027171418 0.20544866 0.049377203 0.15098853
000040 6f 9d b8 3d a1 1d ce 3c 42 9b db bd 5c ad 51 3e
       0.09014403 0.025160613 -0.107229725 0.20476288
000050 4d a2 a4 3c e4 e8 38 3e a5 80 67 bd 0d e2 89 3d
       0.020096922 0.1805759 -0.05651917 0.06732569
000060 d9 22 6c bd 80 9a 35 bd ca 64 67 bd 42 8c 28 3e
       -0.05765042 -0.044336796 -0.056492604 0.16459754
000070 43 d5 08 bb be 74 85 bd a6 b2 c7 3d 1f 38 99 bd
       -0.0020879067 -0.065164074 0.09750871 -0.074814074
000080 ff 6c 9f 3c 34 e6 1d bd ad cc f5 3d 26 08 55 3d
       0.019461153 -0.038549617 0.120019294 0.052009724
000090 c5 26 a6 bd 9c 61 c0 3d d5 cc 86 bd 1c fa 22 be
       -0.081128635 0.093936175 -0.06582037 -0.15915722
0000a0 9d a0 2d 3d 30 f3 ba 3d ea df 73 bc 53 bc 50 3e
       0.0423895 0.091284156 -0.014884928 0.2038434
0000b0 7a da 5d 3e 6d a6 1c 3e 5e 09 18 3e 36 f9 e4 3d
       0.21665373 0.15297861 0.14847323 0.11180346
0000c0 a9 6f 1d 3d c5 93 0f be 4a ed c3 3d 9f bf 62 be
       0.038436566 -0.14021213 0.09566744 -0.2214341
0000d0 19 ab dd bc e9 70 d9 3d ec 23 b7 bd de c3 29 bd
       -0.027059125 0.10617239 -0.089423984 -0.04144656
0000e0 00 bc 11 bd dc f1 62 3d 9c 0f 89 3d 17 b3 d2 bd
       -0.03557968 0.055406436 0.066924304 -0.10288065
0000f0 05 d9 d7 bc f6 9f 93 3d f7 7e ac 3d 6d ac 84 bc
       -0.0263486 0.072082445 0.08422654 -0.0161955
000100 8e 92 1d 3e c7 3a 11 3e 14 8e 04 be ec 65 81 bd
       0.15387937 0.14182578 -0.12944824 -0.06318268
000110 21 aa 7f 3c f6 58 8a 3e 8c 91 91 bd 8a e0 86 3c
       0.015604527 0.27020997 -0.07107839 0.01646449
000120 5a 15 54 3c d8 8c 5f 3c 16 a3 5e bc d1 66 05 bd
       0.012944544 0.01364442 -0.013588687 -0.032568756
000130 b9 fb fb 3c af cd db bd 05 ef ef 3c 24 83 b7 bd
       0.03075968 -0.107325904 0.029288778 -0.0896056
000140 27 5a cf bd 5e 2a 9c bd 78 6f f7 3d b5 53 42 bc
       -0.10124617 -0.076252684 0.12081808 -0.011860778
000150 cf 1d 8e bd 42 45 ea 3c 9a ec 21 3d b1 e6 e1 3c
       -0.06939279 0.028597478 0.03953228 0.027575823
000160 a5 21 1d 3e 47 53 1f 3e a7 6f 28 3e a6 ba 91 bd
       0.15344866 0.15559112 0.16448842 -0.071156785
000170 1f e2 8b 3d 08 78 c5 3d 7c 94 97 3e 0b a8 3c 3e
       0.068302386 0.09642035 0.29605472 0.18423478
000180 d5 5a d9 3c be ad b8 bb 16 b4 1a 3e 05 98 2e 3d
       0.02653257 -0.005635946 0.1510776 0.042625446
000190 dc b4 9f bd e8 64 62 3d 1b ba 83 bb 44 e4 9c ba
       -0.07798168 0.055272013 -0.0040199882 -0.0011969884
0001a0 de 3a 8b bd dd 87 ba 39 c9 30 e7 bc e0 57 1b 3e
       -0.067983374 0.0003557791 -0.028221505 0.1517024
0001b0 6d 0f cd 3d 7a db 90 bd 36 2b 64 3d b4 98 0c 3c
       0.10012708 -0.07073112 0.05570527 0.008581329
0001c0 d9 da 20 bd 89 1c 58 be e0 f3 6f 3d b3 21 cd 3d
       -0.03927121 -0.21104635 0.058582187 0.10016193
0001d0 2c be 1d bd 3e 9f 10 be 19 cd 19 bd 4b e3 be bd
       -0.03851144 -0.14123246 -0.037549112 -0.093206964
0001e0 bb 80 33 3e 94 2f 08 be 6f 44 c6 bd 22 e2 f4 3d
       0.17529576 -0.132994 -0.096810214 0.11957194
0001f0 33 9b a6 bd ff f0 1e bd cb aa 63 3d 3c 86 44 be
       -0.08135071 -0.03880405 0.055582803 -0.19191831
000200 10 7e 37 bd 42 7f fb 3d f7 d3 ae 3d 44 e9 b5 3d
       -0.044797957 0.12280132 0.08536523 0.088823825
000210 2b ef 36 be 3a 9a c2 3d 7a 9a 54 3e 41 23 25 3e
       -0.17864673 0.09502073 0.20762053 0.1612673
000220 07 1e 1d bd a5 44 d9 bd 17 88 8e bc 88 b9 1a be
       -0.038358714 -0.10608796 -0.017398877 -0.15109837
000230 f0 9b 76 bd 82 1f 15 be b8 e9 df 3c 41 79 8e bb
       -0.060207307 -0.145628 0.027333125 -0.0043479507
000240 6f a9 f2 bd fb 8f 63 3d 9e 14 40 3e 5b 90 18 3e
       -0.11848723 0.055557232 0.18757865 0.14898817
000250 13 c1 22 bd 6c b0 41 be 9f ae d3 3b cd 45 b3 3d
       -0.03973491 -0.18914956 0.0064600254 0.08753548
000260 9c d5 55 3d 4f 11 f2 bd 0e a0 10 3e c2 ef e4 bc
       0.052205667 -0.118197076 0.14123556 -0.027946357
000270 77 ca 95 3d 2d bb c7 3d da 63 7a bd 48 f0 c3 bd
       0.07314008 0.09752498 -0.061130382 -0.095673144
000280 ca 8b 32 3e ac 04 1f be de 46 d6 bd e5 c3 c6 3d
       0.17436138 -0.15529126 -0.104627356 0.09705333
000290 62 64 d1 3d b4 89 3d bd ee 0f bb 39 93 28 a9 3d
       0.102242246 -0.046273902 0.00035679288 0.08259692
0002a0 16 07 cc 3c b5 18 1d bd 11 df cd 3d f9 d3 87 3d
       0.024905723 -0.03835364 0.10052312 0.066322275
0002b0 e9 47 74 3d e5 ba 2e bd a5 4e cb 3c 72 d0 37 be
       0.05963889 -0.042658705 0.024817774 -0.1795061
0002c0 b0 f8 80 3d ea 33 5f 3b 25 bb 02 be 2c b5 07 3e
       0.062974334 0.0034058043 -0.12766702 0.13252705
0002d0 4e 57 1c 3d ee 4b 35 3e 20 a4 c2 3c 99 8c d5 3d
       0.038169198 0.17704746 0.023759902 0.104272075
0002e0 11 17 01 be ed 1e 33 3e 15 11 81 3d 60 23 e2 bd
       -0.12606455 0.17492266 0.06302086 -0.110419035
0002f0 72 db 2b be 0d cf 9b bd 77 23 8f bd 95 eb 0f 3e
       -0.1678293 -0.07607851 -0.06989186 0.14054711
000300 46 24 fe bd f4 5c 0e 3e 89 48 94 bd a5 75 f1 3d
       -0.12409262 0.13902646 -0.072403975 0.11790017
000310 bc 68 b7 bd 52 35 e9 3b 4e 8a 93 3d a6 55 4d 3d
       -0.08955523 0.007116952 0.07204114 0.05013051
000320 8e 34 d2 bd fb c9 b7 bc 07 c1 87 bd 4b e0 5d 3d
       -0.1026393 -0.022435179 -0.06628614 0.05416898
000330 fb 7d 80 3e d2 78 0c 3e 55 45 8f bd 11 cd 02 3e
       0.25096115 0.13717964 -0.06995646 0.12773539
000340 88 67 02 be d1 e7 a0 bd c1 72 2c 3e 85 c2 24 3c
       -0.12734807 -0.078567155 0.1684065 0.010056143
000350 9d 75 0d bc 37 5b 04 3d 4e 6f bd bd 86 c6 11 3e
       -0.008633998 0.03231355 -0.09249745 0.14235887
000360 10 f5 01 be e0 98 2d be 42 21 46 3d 12 f1 ee bd
       -0.1269114 -0.16952848 0.04837156 -0.11667074
000370 40 59 9c bd 53 55 21 3d e7 e1 a8 bd da 21 1b 3e
       -0.076342106 0.039388012 -0.082462125 0.15149632
000380 95 21 ab bc 37 6c 03 3e 58 3d 0f 3e c8 36 09 3e
       -0.020890037 0.1283425 0.13988245 0.13399804
000390 06 dd be bd 43 51 ae 3c d1 2a 27 bd 31 18 59 bd
       -0.093195006 0.021278983 -0.040812317 -0.053001586
0003a0 ee aa 52 3e d7 0a ed 3b 63 07 c8 3d b5 68 34 3e
       0.20573017 0.007233958 0.09767034 0.17618068
0003b0 34 ee bc 3d e4 15 1d be ce eb 9b 3d a3 ee 8e 3d
       0.09225121 -0.15340382 0.076133355 0.0697911
0003c0 5b 0b 54 3e f7 a4 96 bc e7 e1 04 be 2e eb a0 bc
       0.20707457 -0.018389208 -0.129768 -0.019643392
0003d0 d1 82 85 3c 1c ce 2b bd 43 ac f3 bd 3b d5 26 be
       0.01629773 -0.041944608 -0.11898091 -0.16292278
0003e0 14 13 7d 3d 24 83 8e bd e8 53 70 3d 66 e1 9a 3d
       0.061785772 -0.06958607 0.05867377 0.075625226
0003f0 fd 72 9b 3d f7 b2 19 3e 3e 64 73 3e d2 b1 01 be
       0.07590292 0.15009676 0.23768708 -0.1266549

convs.0.lin_rel.bias f4 [128]
000000 56 67 38 bd 5a 0e 94 bd 6c 07 34 bd b1 e6 04 3d
       -0.045020424 -0.072293 -0.04395239 0.032446567
000010 04 72 78 bd ca 64 23 be c7 db c1 3d 8e e1 8d bd
       -0.06065561 -0.15956417 0.09465747 -0.06927787
000020 bc 40 83 3d 26 02 72 3c 4c 39 a5 bd 0a 4e c3 3c
       0.064088315 0.01477102 -0.08067569 0.023840923
000030 bb e8 e2 bd 22 22 9b 3d 9e d9 a0 bd 3f 1b 86 bc
       -0.11079546 0.0757487 -0.07854007 -0.016370414
000040 e1 cb 41 be 81 53 a2 bd 99 c6 b1 bd 06 24 f3 3d
       -0.1892543 -0.07926083 -0.086804576 0.11872105
000050 1c 66 db bd e4 cf 1c be 76 10 0b be 01 7d 30 3b
       -0.10712835 -0.15313679 -0.13580498 0.0026929977
000060 3d 4d 14 3e 5f f7 35 be cb 0c d2 bd f9 84 81 bd
       0.14482589 -0.17770146 -0.10256346 -0.06324191
000070 15 1e 64 be e6 56 91 3d c2 09 52 bd a6 bf 10 be
       -0.222771 0.07096653 -0.051278837 -0.14135608
000080 da cb 04 3e 84 c3 30 3c d6 26 4c 3e d2 24 31 be
       0.12968388 0.010788802 0.1993669 -0.17299202
000090 eb f0 83 3c b6 57 0c be d5 96 90 be bf 79 29 3e
       0.01610609 -0.13705334 -0.28240076 0.16550349
0000a0 e2 0f 4f bd 88 d6 8f bd b1 63 57 be 54 7c 6a bc
       -0.050552256 -0.070233405 -0.21034123 -0.014311869
0000b0 e7 7c 9a bc af 3d 33 be 16 8a 69 be e1 97 3a bd
       -0.018858386 -0.17503999 -0.22806582 -0.045555
0000c0 5f 87 6a be 6f d8 20 be 74 fe f8 bd e6 63 02 be
       -0.22903202 -0.15707563 -0.12157908 -0.1273342
0000d0 74 f5 1d be a9 23 81 3d 01 03 54 bd 8a 03 1f 3e
       -0.15425664 0.0630563 -0.051760677 0.15528694
0000e0 51 9f af 3d bc 29 bf 3d 19 12 5a bd 70 06 e0 bc
       0.08575309 0.09334132 -0.053239916 -0.02734682
0000f0 e6 e1 2f 3d b9 f4 e6 bd dc 57 99 be b8 10 13 bd
       0.042940043 -0.11277146 -0.29949844 -0.035904616
000100 b0 13 46 be 3b 44 08 be 09 4c 40 be 59 20 28 be
       -0.19343448 -0.13307278 -0.18779005 -0.1641859
000110 f3 8a 4e be 60 23 c2 bd c7 ff a5 ba ff d4 45 3d
       -0.20170192 -0.094794035 -0.0012664729 0.048298832
000120 6b f7 6c be 89 71 63 be 9f 82 81 3d 1c a7 81 be
       -0.23141257 -0.22211279 0.06323742 -0.25322807
000130 e6 49 6b bd e2 07 ff 3d 2d 86 1d be 05 d6 41 be
       -0.057443522 0.124526754 -0.15383215 -0.18929298
000140 b7 6f 9b bd eb 79 d9 bd a8 dc c4 bc a9 16 00 3e
       -0.07589667 -0.10618957 -0.024030998 0.12508644
000150 39 7f 2c be 35 8d c6 bd f7 10 82 3d 8d fd a3 3d
       -0.16845407 -0.09694902 0.06350892 0.08007345
000160 7e ee 34 bd 61 13 cb bd b9 e0 ac 3c ff f7 72 be
       -0.044172756 -0.099158056 0.02110325 -0.23727416
000170 89 2b ab bd 3b ec 5d bd 75 51 32 be 11 77 f0 bb
       -0.08357913 -0.054180365 -0.17413886 -0.0073384126
000180 4c e5 e8 3d f2 77 b2 bd 42 4c a1 bc 7b 85 40 3a
       0.1137186 -0.08714284 -0.019689683 0.0007344109
000190 0f e5 66 be 86 a5 97 bd f9 29 f2 3d 09 a9 04 be
       -0.22548316 -0.07404618 0.11824412 -0.12955107
0001a0 a7 a4 1e bd e7 2c 9e bd 42 08 09 be 5e 65 b9 3d
       -0.038731243 -0.07723408 -0.13382056 0.090525374
0001b0 28 07 e2 bd 01 4d c6 bd e8 48 ed bd d8 8a 8e be
       -0.11036521 -0.09682656 -0.115861714 -0.27840304
0001c0 c4 00 18 bd 44 e5 0b 3d a4 c8 ec 3d 7e 6d 8b bc
       -0.037110105 0.03415419 0.11561707 -0.017019983
0001d0 26 74 f6 3d c4 54 02 be 9a a6 16 3e 49 8c f9 3d
       0.12033872 -0.12727648 0.14711991 0.121849604
0001e0 b0 2a 15 be 39 6d e8 bc 84 ba eb bd 36 20 31 be
       -0.14567065 -0.028372394 -0.115101844 -0.17297444
0001f0 c5 93 d1 3d 80 34 ec 3b 46 bb e8 bd 41 51 0d be
       0.10233263 0.007208407 -0.113638446 -0.13800527

convs.0.lin_root.weight f4 [128, 27]
000000 08 76 29 3e aa 3f 9d bd 27 5d f8 3d ad 70 32 3e
       0.16548932 -0.076781586 0.121271424 0.17425795
000010 76 ae 8b bd 05 12 05 be 2d 61 09 3e 01 f4 25 be
       -0.06820385 -0.12995155 0.13415976 -0.16206361
000020 3a 22 3f be 90 9d a3 bd 2d ec 18 be 63 59 3f bd
       -0.186654 -0.07989037 -0.14933844 -0.046716105
000030 e1 ff cf bc 15 ec 36 be c2 2b f3 3c 98 16 25 3e
       -0.025390567 -0.17863496 0.029683951 0.161219
000040 6f 65 9a bc 52 68 84 3d cc 45 13 be ab 40 3f 3e
       -0.018847195 0.0646521 -0.14382094 0.18677013
000050 11 2d e5 3d 61 45 19 be ee 6c 62 3d 74 f8 97 3b
       0.11190236 -0.14967872 0.055279665 0.004637772
000060 03 bc 53 be 1b 53 bc bc bd b0 17 3e 4a 09 1b be
       -0.2067719 -0.022988847 0.14813514 -0.15140262
000070 2d ea 95 b9 c9 c4 81 3e 77 09 83 bd 44 da bf 3d
       -0.0002859397 0.25345448 -0.0639829 0.09367803
000080 6e 39 3f 3d 42 c6 e9 bc b1 f0 83 3d ad f3 51 3e
       0.04668563 -0.02853692 0.064423926 0.20503111
000090 76 cd 9e bd 5c 48 c1 bd 5e cb 07 bd 34 15 ad 3c
       -0.07754032 -0.094376296 -0.03315293 0.021128275
0000a0 eb 45 e2 bd 56 cb c5 bd 91 80 ed bd 25 53 f7 bc
       -0.11048492 -0.09657924 -0.11596788 -0.030191014
0000b0 02 d8 26 3c e2 96 5b bd 58 93 73 3c 98 7f 2e 3e
       0.010183336 -0.05361069 0.014866672 0.1704086
0000c0 97 79 29 3d f7 9d a7 bd a4 a4 fc bd 78 77 3c 3e
       0.041375723 -0.08184426 -0.1233609 0.18404949
0000d0 95 13 49 be 46 73 36 be dc e6 31 3e 88 3d 28 3d
       -0.19636376 -0.17817411 0.17373222 0.041074306
0000e0 4e 81 39 bd 51 ab 02 3d dd ae 13 be 2b 57 86 3d
       -0.04528933 0.03190166 -0.14422174 0.06559595
0000f0 e4 95 de bc 18 5b b0 bc 66 ae a6 bd 0d 3d c4 bd
       -0.027171083 -0.021527812 -0.081387326 -0.09581957
000100 38 26 ce bd 5d b6 2b be 4c fe f9 3d f7 0c 54 3e
       -0.100658834 -0.16768785 0.122067064 0.2070807
000110 d3 6c b9 3d a1 02 27 be af 72 61 3e 8f 67 05 3e
       0.0905396 -0.16309597 0.22016405 0.13027786
000120 51 db 66 3d 3d 67 fc 3d b3 ef bd 3d 51 15 37 3e
       0.0563615 0.12324379 0.092742346 0.17879225
000130 a6 ba 79 3c 7d 2d e1 3d 98 54 92 be 78 37 5c 3c
       0.015242254 0.10995004 -0.28580165 0.013440959
000140 f5 13 e4 bd 59 e8 e5 bb b6 8a a3 bd a0 94 78 bd
       -0.11136619 -0.0070162234 -0.079854414 -0.060688615
000150 29 b4 d2 3d 5b bb 19 3e 99 c7 82 3d a9 2b a4 3d
       0.10288269 0.15012877 0.063857265 0.0801614
000160 17 bc fa bd f3 7b d6 3d 0f ea d6 3d af d9 38 3d
       -0.122429065 0.1047286 0.10493862 0.045129474
000170 1d 8a e2 3d 4a 69 c9 3d 69 77 60 bd 6e 12 6e 3d
       0.11061499 0.098345354 -0.05480138 0.058123045
000180 47 b8 83 bc fc 5a 0a 3e 93 7f 39 3d 69 72 29 bc
       -0.016079081 0.1351127 0.04528768 -0.010342219
000190 a5 c6 15 3e e9 ac cb bd 61 d8 8a 3d 46 40 d0 3d
       0.14626558 -0.09945089 0.06779552 0.10168509
0001a0 44 63 d3 bd 7a ae 98 be 22 c0 45 be 75 3f 11 3e
       -0.10321668 -0.29820615 -0.19311574 0.14184363
0001b0 16 4d d1 bb ad 95 36 be c1 9e a7 bd ae 8a 03 3e
       -0.006387363 -0.17830534 -0.08184577 0.12845871
0001c0 2b 39 52 be 51 b6 ce 3d 21 bf 2d be 8f a1 c9 3d
       -0.2052962 0.10093368 -0.16967441 0.09845268
0001d0 fe ff 32 bd 79 50 b6 bd 97 ab 84 bd 7c 05 91 3d
       -0.043701164 -0.08902068 -0.06478041 0.07081124
0001e0 65 7c 6e bd 60 ff a0 3a e7 80 f3 ba 22 fe 14 be
       -0.0582241 0.0012283139 -0.0018577845 -0.14550069
0001f0 3d c5 43 3e c7 01 23 be ec 79 0c be 13 13 a9 bc
       0.19118209 -0.15918647 -0.13718385 -0.020638978
000200 90 2d 4c 3d ee c0 5a bd e0 af b7 bd aa 08 2d 3e
       0.04984814 -0.05340665 -0.08969092 0.16897836
000210 61 21 20 be 55 d3 76 be 3c 68 57 be 0d 57 ab bd
       -0.15637733 -0.24104054 -0.21035856 -0.08366213
000220 8c 5e ad bc f9 94 e5 bd df b9 27 bc 1f a5 81 3d
       -0.021163248 -0.11210055 -0.010237186 0.063303225
000230 6a 91 07 be 85 37 a2 bc 9f d1 ea bd ce d5 83 3d
       -0.13239065 -0.019801864 -0.11465763 0.064372644
000240 4a 2c 5c 3d 18 fc 88 bc c7 52 d6 3d d4 86 4a 3d
       0.053753175 -0.01672177 0.10465007 0.04944499
000250 4e 51 0f bd 53 38 ac 3d 23 21 ba bd 57 00 ea bd
       -0.034989648 0.084091805 -0.090883516 -0.11425846
000260 ef ec ac 3d 30 21 99 bd 76 bf 8d 3d 90 f7 2f be
       0.08443629 -0.07477033 0.06921284 -0.17184281
000270 6f b9 87 3d 2d 4d 57 3c 20 92 fd 3d d2 76 df 39
       0.066271655 0.013140959 0.12381387 0.00042622403
000280 be da 83 be 6d f0 a8 ba 66 24 25 bc 50 2f da bd
       -0.25752825 -0.0012889035 -0.010079479 -0.106535554
000290 24 6e d0 bd 4a 1a 55 be e2 7e 45 be 1d 7e 9b 3d
       -0.10177258 -0.2081081 -0.19286683 0.075924136
0002a0 f6 eb 23 be e0 21 b9 bc 34 07 e5 bd d0 a5 bf 3d
       -0.1600798 -0.02259916 -0.111830145 0.09357798
0002b0 b4 d4 63 3e 50 a9 d4 bd b4 e2 a9 3c 83 70 f4 bd
       0.22249109 -0.10383856 0.020737983 -0.119355224
0002c0 2f e5 be bb 2d 48 4a be 37 5e e3 bd 8d 8c 3f 3d
       -0.0058256607 -0.19754095 -0.111019544 0.0467649
0002d0 27 00 b7 bd 26 e0 d7 bd 80 22 eb 3d 40 90 f5 bc
       -0.08935576 -0.105408 0.1148119 -0.02997601
0002e0 bb d9 f3 3d 81 b2 a4 be 10 f2 4a 3e 8b d2 8c 3d
       0.11906763 -0.32167438 0.19818902 0.068760954
0002f0 ef 40 5a 3c a3 de b2 bc 56 70 43 bd fb c5 c9 3d
       0.013321145 -0.021834677 -0.047714554 0.09852215
000300 5a b7 94 bd 6e 0c 2b 3e ce 3b 9d 3d 06 40 03 bb
       -0.07261534 0.1670396 0.076774225 -0.0020027175
000310 62 c8 32 be e9 25 1c be 94 4f fc 3d 53 89 23 be
       -0.17459252 -0.15248837 0.12319866 -0.15970354
000320 42 45 81 bd 7f 1f bf bd 65 af 2a be a9 39 09 3d
       -0.06312038 -0.09332179 -0.1666847 0.033502255
000330 dd 98 45 3e b7 43 ab 3d f4 6d df 3d 59 85 12 be
       0.19296594 0.08362525 0.10909644 -0.1430868
000340 96 66 ed 3d 44 db 7d 3d 4b fb e2 bd ec 39 63 be
       0.11591832 0.061976686 -0.110830866 -0.22190064
000350 f6 cd a4 3d b0 5d 28 be bd ca 65 3e 72 fc 90 3d
       0.080470964 -0.16441989 0.2244062 0.070794
000360 6f 5a f5 bd 81 bb 65 bb 07 66 ff 3c 6b 30 eb bd
       -0.119801395 -0.0035054388 0.03117658 -0.11483844
000370 9d 9f ef bd e6 f0 9a 3d 78 28 ef 3d 74 ba 5f bb
       -0.11700366 0.07565479 0.11677641 -0.0034138234
000380 cf ea de bd 25 af b0 bc 1a 3f 10 be a0 1a 06 be
       -0.1088463 -0.02156789 -0.14086571 -0.13096094
000390 12 06 10 3e d6 77 1b 3d 92 b6 aa bd a6 b9 e4 3d
       0.14064816 0.03795608 -0.08335604 0.11168222
0003a0 82 f8 14 3e ff 86 20 3e e5 55 0a bd af 4e 95 bd
       0.14547923 0.15676497 -0.03377332 -0.07290398
0003b0 db 6a 51 bd 6a dd 28 be 4f 6d 03 3d 25 08 ae be
       -0.051127296 -0.16490713 0.032086667 -0.3399059
0003c0 0c f1 48 3d 40 91 b6 3d 0e 47 09 3e fa 56 1d 3e
       0.049058005 0.08914423 0.13406011 0.1536521
0003d0 c5 a6 06 3e f8 00 1a be d7 5a 0f be b1 1b 66 3d
       0.13149555 -0.15039432 -0.13999496 0.056178752
0003e0 a1 96 13 bd 0d e5 d2 bd b0 88 ce bc ce 54 2b 3d
       -0.036032323 -0.10297594 -0.025211662 0.041828923
0003f0 57 cc 19 3e 87 35 48 bd f2 ef 41 3e 1c 2e 3f be
       0.15019356 -0.048879173 0.18939188 -0.18669933

convs.1.lin_rel.weight f4 [128, 128]
000000 6d 90 8d bc 25 72 a5 3d 5d 29 68 bc 59 69 71 3c
       -0.017280782 0.08078412 -0.014170018 0.0147345895
000010 7f e0 0e bd c2 be a8 bd ca fe 37 3d b7 53 22 3d
       -0.034882065 -0.08239509 0.04492072 0.039630618
000020 f7 96 09 3d 45 86 83 3c 10 4a 3f bd 39 bb 05 3d
       0.033591237 0.016055236 -0.04670149 0.032649253
000030 6c 25 84 3d 41 29 86 bc e7 2e 99 3b eb cc 9f bc
       0.0645245 -0.016377093 0.0046747806 -0.019506892
000040 f0 63 6c bc 18 ee 80 bd 96 d6 8e 3c 5c 4a b3 3c
       -0.014428124 -0.06295413 0.017436307 0.021886043
000050 f9 c0 8a 3c 1a 90 b8 bd bb 2f a5 3d f7 98 65 bd
       0.01693772 -0.0901186 0.080657445 -0.05605408
000060 45 44 6a 3d 27 9d a1 bd 41 41 20 bd 07 b3 3f 3d
       0.057194013 -0.078913026 -0.03912473 0.046801593
000070 b3 e6 39 bd 98 80 04 3d 71 1f 0e bc 64 c1 4c 3d
       -0.045386028 0.0323492 -0.008674488 0.04998912
000080 2f a6 0c bd fc f7 de bd 90 e7 d0 bd 44 d0 97 bd
       -0.034338173 -0.10887143 -0.10200417 -0.074127704
000090 4b 88 0e bd 11 87 59 3c 1b be 0d bd 92 9e ab bd
       -0.034797948 0.013276831 -0.034605127 -0.08379854
0000a0 df ce 6a bb cc 6d 96 3d ba 59 d5 bd cb dc 62 bd
       -0.0035828871 0.07345161 -0.104175046 -0.055386346
0000b0 16 0d 8b bd 31 34 6a bd 92 22 5b bd cf b4 0f 3d
       -0.06789605 -0.05717868 -0.053499766 0.035084542
0000c0 25 b6 71 bd 88 03 1b 3d e1 6a 9d 3d 48 c2 7a bd
       -0.059011597 0.037845165 0.07686401 -0.061220437
0000d0 75 54 ee bd 04 41 87 bd c6 4b ee 3c 1e 25 d7 bd
       -0.11637203 -0.066041976 0.029088866 -0.105051264
0000e0 5b 5d 4b bd 54 e0 db 3c e4 2c ae bd 8f b8 f9 3c
       -0.049649578 0.026840366 -0.08504656 0.030483512
0000f0 61 ec b8 bc f2 18 b4 bd 14 f9 27 3d 36 05 7d 3d
       -0.022573652 -0.087938204 0.041009024 0.061772548
000100 f3 bd 9d bd 70 af af bd 5d 27 e8 bb 28 8d fd bc
       -0.077022456 -0.08578384 -0.0070847706 -0.030951098
000110 c7 5c bb 3d 03 18 35 3d 40 a3 d7 bd 33 69 d9 bd
       0.09148555 0.044212352 -0.10529184 -0.10615768
000120 e3 62 15 bd 16 73 14 bd e1 da 81 3c 8c a9 a5 3d
       -0.03647126 -0.036242567 0.01585144 0.08088979
000130 e0 93 27 bd c7 dc 78 bd 07 cb 13 bd 03 ed 91 3d
       -0.04091251 -0.060757425 -0.036082294 0.071252845
000140 ef cd 6d bd 98 3f 61 bd 34 64 98 3c 71 88 22 3d
       -0.05805772 -0.05499229 0.018602468 0.039680902
000150 8e 2d 59 bd 30 aa ce 3c a5 dc 17 bd 73 d7 d6 bd
       -0.05302196 0.025227636 -0.037075657 -0.104903124
000160 58 23 b0 bb 67 ab 7b bd 55 31 d1 bd 89 89 59 bd
       -0.005375307 -0.06144276 -0.102144875 -0.05310968
000170 aa 56 45 3c c4 c4 b2 3d 21 c4 1e bc cd f7 07 bd
       0.012044588 0.08728936 -0.009690315 -0.033195306
000180 24 be 94 3d b2 1d 27 3d 8c c9 5d 3d f4 96 c8 bd
       0.07262829 0.040799804 0.05414729 -0.09794417
000190 a4 02 40 bd 51 5a b3 3b 76 e1 2b 3d 9c d3 39 3c
       -0.04687752 0.005473413 0.041963063 0.0113419555
0001a0 18 f9 a1 bd bb 88 81 bd e4 35 2b 3d ed fa 41 bb
       -0.07908839 -0.063249074 0.04179944 -0.0029599026
0001b0 d6 dd 1f 3d 72 74 97 bd d5 6a c9 3b cf 7d dc 3c
       0.03902992 -0.07395257 0.0061467686 0.026915459
0001c0 ff 7b 15 3d b2 53 07 be 60 fc c2 3d 0d 87 49 3d
       0.036495205 -0.13215521 0.09520793 0.04920106
0001d0 f8 08 e5 bd de 46 a4 bd 7d 9e e6 bd b5 b7 22 3d
       -0.11183351 -0.08021329 -0.11260698 0.039725978
0001e0 a6 c7 86 bd 45 2b 2a bd a2 f3 80 bd e1 3b 14 bd
       -0.06581049 -0.04154517 -0.06296469 -0.036189917
0001f0 1e 83 18 3d 63 a8 08 3c b9 17 ba bc 19 3d f5 bc
       0.037234418 0.008340928 -0.02271639 -0.02993636
000200 31 7d c3 bd 88 bb 92 3d c7 3f 96 bd c2 a8 52 bb
       -0.09545363 0.07164675 -0.07336383 -0.0032144045
000210 e3 bf 19 bd 88 83 3c bd 12 ee c2 bc a1 f6 70 bd
       -0.037536513 -0.046023875 -0.023795161 -0.058828954
000220 2c ea e6 bc 60 ae bd 3d 87 63 24 3d 64 1f 82 3d
       -0.028187834 0.09261775 0.04013398 0.063536435
000230 ca dd 4d bc a1 a2 91 bd ef 08 c4 bb e4 60 af bd
       -0.012565086 -0.07111097 -0.0059825103 -0.08563402
000240 f4 dc 7a bc ec eb 5e bd 1b 12 15 3d 7f 9a 30 bc
       -0.015311468 -0.05442421 0.03639422 -0.010779022
000250 6b ed 50 bc b4 33 f6 3c 69 57 eb 3b d5 8a a4 3c
       -0.012751917 0.03005395 0.007182051 0.020085732
000260 32 40 6c 3d a0 c6 11 bd c9 8b 47 3c a0 4f ed bc
       0.05767841 -0.035589814 0.0121793235 -0.028968632
000270 05 7f e3 bd ef eb 83 3d ae 16 34 3d d9 d8 fd bd
       -0.111082114 0.06441485 0.04396694 -0.12394876
000280 22 74 b4 bd b1 ca 79 bd 14 df 0f 3d 83 66 d2 bd
       -0.08811213 -0.060984317 0.035124853 -0.10273459
000290 00 f5 9a bd db 0f 8a bd 22 52 86 bd 7c d6 53 bd
       -0.07566261 -0.067413054 -0.06558634 -0.05171822
0002a0 9a 43 2c bd 9f 91 8d 3d 79 00 4e 3d bc 72 e2 bc
       -0.042056657 0.06912541 0.05029342 -0.0276426
0002b0 b2 08 38 bd 05 ab 91 bd 87 55 99 3d 2a 8d ed bd
       -0.044930167 -0.071126975 0.07487016 -0.115991905
0002c0 03 12 f5 bd 0e ab 62 3d 8a 6d 49 bc 69 b7 9b 3d
       -0.11966326 0.05533891 -0.012294183 0.07603342
0002d0 53 06 97 3d c4 e2 49 bb e9 01 bb 3c de f1 43 3d
       0.07374253 -0.003080533 0.02282806 0.047838084
0002e0 b2 83 fb 3a 98 ce b3 bd 44 e9 c0 bc 6c 03 b1 3c
       0.0019189029 -0.08779639 -0.02354873 0.021608077
0002f0 2d ac 89 3d 65 d7 03 3a 77 08 c3 bd 09 7d de 3c
       0.06722293 0.00050293497 -0.09523099 0.02715923
000300 9b 6f 26 3d 50 5d 82 bb 73 c6 3a bc da 22 34 3d
       0.04063378 -0.003978409 -0.011399853 0.04397855
000310 42 1d 46 bc ce 84 23 bd 2c ed 0f 3c 8d 38 23 bd
       -0.012091937 -0.039921574 0.0087845735 -0.039848853
000320 29 a0 39 3d 94 48 69 3d 9e ab f3 bb 5e aa 40 bd
       0.045318756 0.05695398 -0.00743623 -0.047037475
000330 c5 f2 44 bd 8b d5 90 bd e6 8e 6d bd 72 86 e2 bd
       -0.048083086 -0.0707198 -0.057997607 -0.110608
000340 88 ee e1 bc 92 1b 0b 3d c6 a0 62 bd 67 4a 95 bd
       -0.02757956 0.03396184 -0.055329107 -0.07289582
000350 3c 28 66 bd 8b 1b 8e bc ef fb 40 bd c5 e2 a0 bd
       -0.056190714 -0.017347118 -0.047115263 -0.07855753
000360 ea 45 e0 bd f3 b2 8e bc 7f b4 44 3d 15 25 b4 bb
       -0.10950835 -0.017419314 0.048023697 -0.0054975846
000370 27 03 ef bc 71 f1 c3 bc 0c fb 24 bd 97 6d 12 3d
       -0.029176308 -0.02391884 -0.04027848 0.035749044
000380 c6 e9 1c bc ea 3b 2e 3c 28 1c 6c bd 83 63 17 bd
       -0.00957722 0.010634402 -0.05764404 -0.036960136
000390 40 e1 2b bd e3 3c 0a 3c 51 71 04 bc b8 dd b5 bd
       -0.041962862 0.008437368 -0.008083657 -0.0888018
0003a0 b5 d7 be 3c 01 53 46 3d 8d e6 83 bd 9c d8 0f bc
       0.023296217 0.048419002 -0.064404584 -0.008779671
0003b0 11 99 71 bc 98 15 51 3d 5c 38 1e 3d a1 4d 92 bc
       -0.0147459665 0.051045984 0.038627967 -0.017859282
0003c0 83 65 e2 bc d0 c8 8f 3d 6c 75 6f 3d 7e 36 94 ba
       -0.027636295 0.07020724 0.05846159 -0.0011307744
0003d0 04 37 c4 bb ac 79 a5 3c b7 31 c9 3b 20 21 05 be
       -0.0059880037 0.02019962 0.0061399597 -0.13000917
0003e0 bd 95 a7 ba 11 a5 7f 3d 66 46 8e bd 15 27 69 bd
       -0.0012785714 0.06241328 -0.06947021 -0.056922037
0003f0 47 9e 80 bd d9 18 11 bd 89 1f ba 3d 90 df 7e 3d
       -0.06280189 -0.035424087 0.09088046 0.062224925

convs.1.lin_rel.bias f4 [128]
000000 b9 d5 03 bc 92 3a 36 bd c5 a9 88 bd f9 e9 b2 bd
       -0.008046561 -0.04448945 -0.06673006 -0.08736033
000010 89 8b 56 bd bf 65 9d 3d c4 03 09 bd 00 1d e1 bc
       -0.052379165 0.07685422 -0.033450857 -0.027479649
000020 8b da 85 bc d0 42 19 3e d2 d3 da 3c f9 99 80 bc
       -0.016339561 0.14966893 0.026712332 -0.01569842
000030 08 54 18 bd df 28 d3 3c 86 7d d5 3c 32 86 b5 bd
       -0.037189513 0.025776325 0.02606083 -0.08863486
000040 cc 2d b2 3c e9 ee ce bd c5 ae 59 bd f3 71 67 bd
       0.021750353 -0.10104162 -0.05314519 -0.056505155
000050 bb 69 51 3c ae 38 47 bd 06 a3 44 3d 4b bc 90 bd
       0.012781556 -0.04863804 0.048007034 -0.07067164
000060 d7 3e f0 3d 2d 3c 3f 3d 0c 4f 8c 3d 5b 14 f8 bd
       0.11730736 0.046688247 0.068510145 -0.121132575
000070 b1 cf 36 3d 35 bc 6e bd 6c 4d 85 3d 06 0a 2e 3d
       0.044631664 -0.058284957 0.06508908 0.042490028
000080 15 63 b8 3d 5c 37 33 3c d2 0d 87 3d 06 73 e2 3d
       0.090032734 0.010938492 0.06594433 0.11057095
000090 29 80 c1 3c 6a 67 85 3d 82 50 45 bd 0d 2f 21 3e
       0.023620682 0.06513865 -0.04817248 0.15740605
0000a0 a3 11 e6 bd a7 8c 81 3d 26 51 92 bd 5c 3a f5 3c
       -0.11233833 0.063256554 -0.07144384 0.029935054
0000b0 b4 bd 93 3d 7f 72 a9 3d 7f fa b3 bc d4 a5 0c 3c
       0.072139174 0.082737915 -0.021970032 0.008584458
0000c0 ac d0 71 3d 10 b2 66 3d 04 d6 70 bd 12 71 1c 3d
       0.059036896 0.056322157 -0.05879785 0.03819377
0000d0 ab 8f d0 bd 18 1b b3 bd 0a 5e bd 3d 94 72 56 3d
       -0.101836525 -0.08745402 0.09246452 0.052355364
0000e0 ae a6 6c 3d 07 28 cf bd c5 7f 2e 3c d1 cd e0 bd
       0.057776146 -0.101150565 0.01065058 -0.10976756
0000f0 07 ca a5 3d 75 8e ad bd e7 f2 d0 bd ec 1a b4 3c
       0.08095174 -0.08474437 -0.1020258 0.021985494
000100 52 51 48 3d 62 4b af bc dd 16 28 3d 62 43 95 bb
       0.048905678 -0.02139825 0.04103743 -0.004555152
000110 79 de 8c bc 16 b7 2c 3c ab ae 3d 3c 8d 13 40 3d
       -0.017195927 0.010541698 0.011577289 0.046893645
000120 a6 64 8a 3d d4 e1 a3 3d 35 ab 10 be b3 84 85 3d
       0.067574784 0.08002058 -0.1412781 0.06519451
000130 cd 72 58 3c 3b 14 2f 3d c1 44 39 3d 9e 5b a6 bc
       0.013210964 0.042743903 0.045231584 -0.020307358
000140 7e 6f 01 bd ca c3 fd bb e7 21 ac bd c7 e1 dd 3d
       -0.031600468 -0.007744287 -0.08404904 0.10834079
000150 12 66 db bd b4 92 4c 3b ef 47 09 3e 6c 6c 0b bc
       -0.10712828 0.0031215372 0.13406347 -0.0085097365
000160 82 f4 c5 3d 51 11 88 3d ae 92 97 bd 1f 97 29 bd
       0.09665777 0.06643928 -0.07401024 -0.041403886
000170 99 d3 36 3d 46 1d ea 3a 76 13 62 bd 7e 8f f0 3d
       0.04463539 0.0017861507 -0.05519434 0.11746119
000180 22 54 93 bc 4a 6d 6b bd c5 24 3b 3d 70 02 5e 3c
       -0.017984454 -0.057477273 0.045689363 0.013550386
000190 79 3b 0c 3e 37 27 81 3d e6 b5 36 bd c9 d7 da bc
       0.13694562 0.06306308 -0.044607066 -0.026714223
0001a0 2a 30 97 3d 66 aa 3d 3d 8f 0e ce 3c 56 8c 8e 3d
       0.073822334 0.046305083 0.025153426 0.06960361
0001b0 f2 e5 62 3d e8 56 70 bd 77 eb 92 3d 5f bd 91 bd
       0.055395074 -0.05867663 0.071738176 -0.07116198
0001c0 2b fe 4d bd 31 d9 8b 3d 93 e8 9f bc 4c c5 6a 3c
       -0.05029122 0.06828535 -0.01952008 0.014329266
0001d0 d4 0f c0 bc 8e da e1 3b f0 27 c3 bc 57 ac c0 bd
       -0.023445047 0.006892509 -0.023822755 -0.09407871
0001e0 7e e8 eb 3c 9b 32 f5 bc 9b 45 53 bd b3 39 1c 3d
       0.028797384 -0.029931357 -0.051580053 0.038140964
0001f0 2f 07 8a 3d 8f 1a 13 3c e9 d5 ad bd be 25 c8 bd
       0.067396514 0.0089785 -0.08488066 -0.09772824

convs.1.lin_root.weight f4 [128, 128]
000000 42 b9 10 be 6c 06 87 3c c1 f7 e8 3c e7 16 16 3d
       -0.1413317 0.016482554 0.02843845 0.036642935
000010 67 a8 f8 bb 10 2f 92 bb e0 fe 91 bd 95 2b 3f 3d
       -0.0075884345 -0.0044611767 -0.07128692 0.046672422
000020 c7 97 8d 3d 0f 33 3a be a0 85 7f bd d9 e3 9d 3d
       0.06913715 -0.1818354 -0.062383294 0.07709474
000030 09 02 c4 3c 66 2c 72 bd 1c 06 a5 3c 40 85 77 bb
       0.023926752 -0.059124373 0.020144515 -0.0037768632
000040 74 d1 b1 bc aa 0d 54 3d 73 0f a8 3c ba 67 a9 3c
       -0.02170632 0.051770844 0.02051518 0.020679343
000050 32 3a 02 3d 0d 43 3c 3d 07 79 c2 3d 1a 09 08 be
       0.03179378 0.045962382 0.094957404 -0.13284722
000060 b5 73 58 bd 5f ec 7f 3d 34 7a 43 bd fe f2 6a bc
       -0.05284472 0.06248128 -0.047723964 -0.01434016
000070 05 cf 92 3b 76 ef 2c bd 06 ef 94 3c a8 51 15 bd
       0.004480245 -0.042220555 0.018180382 -0.036454827
000080 f7 c0 6b bd bb 56 9f bd bf 9b ba bc 76 1d d8 3d
       -0.057557072 -0.077802144 -0.022779344 0.10552494
000090 0a ae 5d 3d 57 9c 30 be 01 d5 99 3d dd c2 d5 3b
       0.054121055 -0.17247139 0.075113304 0.0065234737
0000a0 4a e8 ad bc 40 6f eb 3b 17 f2 57 bd fe b4 08 3d
       -0.021228928 0.007184893 -0.05272111 0.033375733
0000b0 3b 2d 42 3d e7 d8 28 3e de 2f 52 3d 26 73 2f bd
       0.047406416 0.16488992 0.05131518 -0.042834423
0000c0 6a b0 2a 3c 57 50 9a bd 10 12 31 bd ec 19 b5 bc
       0.010418037 -0.07534855 -0.043230116 -0.022107087
0000d0 83 7f 44 3d 60 ee e1 bd 1d e7 a9 bd fc 77 73 bd
       0.047973167 -0.110317945 -0.082960345 -0.059440598
0000e0 a2 b8 5d bd c7 c8 52 bd af dc ce 3b 09 1a 55 bb
       -0.054131158 -0.051461007 0.0063129286 -0.003251674
0000f0 88 ad 36 3d 29 4f 84 3d 35 6d 6a 3d f4 c2 93 bd
       0.044599086 0.06460411 0.057233054 -0.07214919
000100 d6 b9 f4 bd f9 27 0a be fd e0 21 3d 32 f6 e2 3d
       -0.11949508 -0.13491811 0.039521206 0.11082114
000110 27 5c 7c 3d 13 71 ab bd d6 74 66 bd 12 81 b2 bd
       0.06161132 -0.083711766 -0.056263767 -0.087160245
000120 0b 20 95 bd f7 29 21 3d 36 d6 36 3c 05 b9 32 3d
       -0.07281502 0.03934666 0.01115947 0.04363348
000130 36 52 22 3d bc 42 86 bd 5a 53 e7 3c 7a 88 1e bc
       0.039629184 -0.06555697 0.028237987 -0.009676093
000140 c3 4a 70 bd 6c ba 9d 3d fb e1 8d 3d 30 37 f1 3b
       -0.05866505 0.07701573 0.06927868 0.007361315
000150 39 7a 56 bd 38 66 a7 3a f1 b5 fe bc 90 d0 81 3d
       -0.052362654 0.0012771552 -0.031092616 0.06338608
000160 3b 3a 08 3d a6 b7 31 be ba cf 1e be 6f 74 0f bd
       0.033258658 -0.17355213 -0.15508929 -0.03502315
000170 32 22 09 be 8e c8 59 bd 90 72 a7 3d 58 30 2c 3d
       -0.1339195 -0.05316978 0.08176148 0.04203829
000180 02 a0 98 bc 02 88 26 bd 9f cf 4e 3c f5 09 b2 3d
       -0.018630985 -0.04065705 0.012622743 0.086933054
000190 47 2e e1 bd e7 6a 90 bd a9 b7 d8 bc 7c 58 a4 bc
       -0.10995155 -0.0705164 -0.026454763 -0.020061724
0001a0 1f 7b 42 3d e5 20 27 be 9b 1b 45 bd 50 6e 8e 3d
       0.0474807 -0.16321142 -0.04812203 0.06954634
0001b0 01 68 9d bd e4 60 80 3d ad dd d6 bc 24 70 4b bb
       -0.07685853 0.062684804 -0.02622875 -0.0031042183
0001c0 9f a2 72 3d da 23 13 3d 79 d1 a5 bd ff 99 0f 3d
       0.05923712 0.035922863 -0.08096594 0.03505897
0001d0 fb 68 11 be 5d 56 fb 3c 57 57 da bd 61 50 a3 3d
       -0.14200203 0.03068083 -0.1066119 0.079743154
0001e0 e9 b9 70 bc 55 a1 c0 3c 57 96 e2 bc 57 3e d3 3b
       -0.014692762 0.02351443 -0.027659578 0.0064466405
0001f0 61 6b 9f 3d ee ed d0 3d 56 66 87 bd 98 b8 bd bd
       0.07784153 0.102016315 -0.06611316 -0.09263724
000200 8a 6e cb 3c 90 84 ae 3b 15 95 7e 3c d9 91 b2 3d
       0.024832983 0.0053258613 0.015538474 0.087192245
000210 94 33 13 3d 24 a8 73 bd 04 1b 14 bd ef e4 0b 3d
       0.03593786 -0.059486523 -0.036158577 0.034153875
000220 e6 e9 41 3d 93 c9 63 3d 74 3c 01 bd fd ba d4 bc
       0.047342204 0.055612158 -0.031551793 -0.02596807
000230 30 cd e1 bd e6 7f 9d bd 55 77 a7 bc cd 9b 6f bc
       -0.110254645 -0.0769041 -0.020442644 -0.014624548
000240 40 01 b9 3c 85 bf 0f bd 00 2a a8 bc 95 85 a0 bd
       0.022583604 -0.035094757 -0.02052784 -0.07837979
000250 82 15 26 bb 42 da dc bd b5 58 96 bc 9b 02 b8 bc
       -0.002534241 -0.10783817 -0.018352846 -0.02246218
000260 6f 80 d6 3c 11 f9 ab bc 04 6c b4 bd 75 a8 0c be
       0.026184289 -0.020992788 -0.08809665 -0.13736136
000270 fc a4 5d bd 19 d7 ba bc 78 8f 9a 3c df 95 26 bc
       -0.05411242 -0.022807645 0.01886724 -0.010167568
000280 db e9 90 3d b9 0c 9c bd da 88 25 3c 7c 51 f4 bc
       0.070758544 -0.07619614 0.010103429 -0.029824011
000290 3e ee 1a 3c 4b 7b 64 3d fb 57 b6 3d c5 b1 9e 3d
       0.009456215 0.055781644 0.089035 0.077487506
0002a0 35 3c 63 3d bf 07 af 3d 63 a9 a0 bb c1 70 f7 bd
       0.05547734 0.08546399 -0.004903005 -0.12082053
0002b0 ce 89 4f 3d 92 0d 83 3b 07 84 55 bd ca fb 10 3c
       0.05066853 0.0039994204 -0.052127864 0.008849094
0002c0 59 d8 72 3d 48 ca f9 3c fb ef 1a 3d 51 f6 c8 bb
       0.059288356 0.030491963 0.03782652 -0.006132879
0002d0 9f ca 55 bd 3b 09 2c bd a1 b1 82 bc 23 99 8e bd
       -0.052195188 -0.04200099 -0.01595384 -0.06962802
0002e0 2c ae 4b 3c d1 ea c4 bd e3 b5 2a bd cb 44 f4 3b
       0.0124316625 -0.096151 -0.041677367 0.00745449
0002f0 93 6b af bd ba 46 8d 3d 38 e1 36 bd 6f 20 1e bb
       -0.0856544 0.06898256 -0.04464838 -0.0024128219
000300 11 07 96 bd 7d 02 0d bd 3d 87 29 3b d3 93 9f 3d
       -0.073255666 -0.0344262 0.0025867962 0.07791867
000310 2c 9e 0b 3d 5d 29 fe 3c 38 79 8a bd 5c 89 b2 bc
       0.03408639 0.031025583 -0.06761402 -0.021794014
000320 47 be a2 bd 07 fb 9e bc 41 65 63 3d ff 1f fb 3c
       -0.07946449 -0.019406809 0.055516485 0.030654905
000330 14 6e b5 bd 5f 4b 9e 3d 40 7e 10 bd 8f 65 34 3d
       -0.08858886 0.0772922 -0.03527665 0.044042166
000340 af 59 77 3d ca 75 dd bd d9 bb c3 bd 59 a1 4b 3d
       0.060388263 -0.10813482 -0.095573135 0.04971442
000350 50 81 85 3c 27 a4 eb 3b 16 20 d7 3c bb 63 27 bc
       0.016297013 0.0071911993 0.026260417 -0.010216649
000360 0d e8 38 3c c2 51 1b bd b2 c9 10 bc 68 59 19 3c
       0.011285794 -0.037919767 -0.00883715 0.009359695
000370 cd 9b 04 bd 30 fa 34 3d 5f 64 20 bd d3 e5 66 bc
       -0.032375146 0.04418391 -0.03915822 -0.01409288
000380 fc 19 a4 bc c5 e4 cd bd 60 37 b2 bd 32 0f 8e bd
       -0.020031922 -0.100534 -0.08701968 -0.06936492
000390 ee d9 d0 3d 08 bb ad bd a8 f1 bf 3d a5 82 8c 3d
       0.10197817 -0.08482939 0.09372264 0.06860856
0003a0 e8 fc 1b bd 77 cc bf bc 70 99 2a bc 9c 3a 32 bd
       -0.038082987 -0.023412926 -0.010412559 -0.043512926
0003b0 e0 e5 71 bd 46 ad 85 bd c4 68 8d bc 8f 0b 45 3c
       -0.059057117 -0.0652719 -0.01726187 0.012026682
0003c0 1e f2 6c bd 81 e0 76 3d 77 49 a8 3d 24 30 88 3d
       -0.05784809 0.060272697 0.08217137 0.06649807
0003d0 27 d2 4d 3d ec 40 9f bc f4 4b 95 3c b9 83 b5 bd
       0.050249245 -0.019440137 0.018224694 -0.08863015
0003e0 9b 5d 60 bd 15 94 a3 bd b0 04 e0 bc 6e 70 07 3d
       -0.05477677 -0.07987229 -0.027345985 0.033066206
0003f0 02 06 83 bd 64 64 86 3c 2e 8d 5b bd 92 c5 4e 3d
       -0.0639763 0.016405292 -0.053601436 0.050481386

post_layers.0.weight f4 [1, 128]
000000 a3 23 6e bc 4b 26 e1 ba b6 1d 0b ba dd a8 f2 3a
       -0.014534864 -0.001717755 -0.00053068565 0.001851346
000010 51 44 b4 bb fd 5c 0a bd 21 9d d8 3d fa f9 04 3b
       -0.005501308 -0.033780087 0.10576845 0.00202906
000020 a7 9e 83 bd 40 2f 32 bd 3e 12 79 bc f5 b6 37 3c
       -0.06426745 -0.043502092 -0.015202103 0.011213054
000030 7d cd 38 bc 62 12 85 3d ff d1 90 39 40 94 d2 3c
       -0.011279461 0.06497647 0.0002762228 0.025705457
000040 dc 77 8b 3d 14 02 45 3b 10 19 8e ba 6a e2 cc 39
       0.06809971 0.0030061053 -0.001084121 0.00039078604
000050 d0 8f 93 b9 9e fd 97 3d 01 88 2f bc 5c 1a 8e 3b
       -0.00028145174 0.074214205 -0.010713578 0.0043366384
000060 2a f0 fd bc 25 e4 9c 3d cd 85 2c bd 14 06 1f 3d
       -0.030998308 0.076607026 -0.04211979 0.038824156
000070 b7 27 61 b9 df d2 0c 3c 97 ad 66 bb 3c 15 fc 3c
       -0.00021472467 0.008595197 -0.0035198682 0.030771844
000080 4d f5 3d bc 34 98 3b 39 de c9 b9 3c bf c9 ea bc
       -0.011594129 0.0001789041 0.022679266 -0.028660653
000090 f1 3b a7 3d 31 51 a0 bb 80 f0 86 3d 88 63 61 bd
       0.0816573 -0.0048924913 0.065888405 -0.05502656
0000a0 43 25 eb 3a 13 6e ac bc 02 d4 17 ba 31 0f a8 bc
       0.0017940182 -0.021048581 -0.00057917845 -0.020515056
0000b0 39 c3 a7 3d 73 17 53 bd 79 74 e1 3c 31 c5 9f bb
       0.08191533 -0.051536035 0.027521359 -0.004875802
0000c0 bf a9 06 bd fb 2c 55 3c 98 a4 17 ba 9c a7 12 3a
       -0.032876726 0.013011212 -0.0005784719 0.0005594434
0000d0 88 4a fb ba 79 62 55 3d 1d 9b 28 bc 16 c2 68 bc
       -0.0019171992 0.052095864 -0.010290888 -0.01420643
0000e0 fa 05 f0 bb b3 89 88 3d 3d 2a 20 3b dc 94 be 3a
       -0.007324931 0.06666889 0.0024439238 0.0014540213
0000f0 9b a9 d8 bb 60 61 dd 3c f5 2e b7 bb 8a 48 b9 3d
       -0.0066120154 0.027023971 -0.0055903145 0.09047039
000100 8c 15 43 3d 26 28 28 3c a0 91 47 3d 95 f7 07 3b
       0.04762797 0.010263478 0.048722863 0.0020746936
000110 e4 f6 70 bb 12 7c 09 3d 6c a0 ac bd 32 42 a7 bb
       -0.0036768252 0.03356559 -0.084290355 -0.0051043266
000120 ec cd fa 3c 85 94 74 bd 48 80 b2 3c 48 bc 37 bb
       0.03061577 -0.05971195 0.021789685 -0.0028035808
000130 8b f1 4b bb d1 7e 0f 3d 56 2a 28 3c 9b 81 17 3a
       -0.0031119313 0.03503305 0.010264 0.00057795056
000140 e9 00 3d bb 1d 76 2c bb 74 0c 9b 3c 7b c5 2f bc
       -0.0028839654 -0.0026315518 0.018926837 -0.010728235
000150 a7 cd 30 bb a9 ab 03 bd 37 f1 01 bc 0b 1a 84 39
       -0.0026978047 -0.03214613 -0.007931045 0.00025196405
000160 6f d7 0d bc 2e 90 94 bb 8c ce 0d 3c 42 f0 66 3c
       -0.00865732 -0.004533789 0.008655202 0.014095368
000170 86 ea 51 3b 64 67 bf bd 25 18 c1 bb ed 6d 5b bd
       0.0032030656 -0.09345892 -0.005892771 -0.05357163
000180 9d ad 09 3b 82 b8 7a 3d 2e fc d0 bc ee 0f 6d bc
       0.0021008023 0.061211117 -0.025510874 -0.01446913
000190 76 16 23 bd 11 7e bb 3c cd 9f 10 3c ed d3 17 3c
       -0.039816342 0.022887262 0.008827162 0.009266836
0001a0 f2 38 b5 bc 4c f1 20 3b 73 38 71 bb 4f 68 1a bd
       -0.02212188 0.0024557887 -0.0036807328 -0.037697133
0001b0 c7 b5 1f ba a5 90 62 3a ce 0b 05 bd 43 14 1c 3d
       -0.00060924556 0.00086427695 -0.03248196 0.03810526
0001c0 00 9e a4 3c b0 f2 38 bd e1 14 a4 bc 87 97 41 bb
       0.020094872 -0.04515332 -0.020029487 -0.002953978
0001d0 cb 74 f4 3c 57 8e 0c 3b 28 b5 97 bc 80 15 00 3b
       0.029840847 0.0021447146 -0.018519 0.0019544065
0001e0 6a 51 1f 3b 44 65 27 3d 6d 15 83 3c 21 78 81 3d
       0.0024310001 0.04086806 0.016001428 0.06321741
0001f0 7b fe 6c bd 7e 2f 11 bd 7d 75 71 3a 19 15 72 3a
       -0.05785988 -0.035445683 0.00092109275 0.0009234711
