models/CS/efg/exp_v3/no_subgraph_sampling/lr=0.001_hidden_dim=8/HigherOrderGNN_20230830_09h43m/state_dict_epoch7.pt (torch, 5247 bytes, 7 tensors)

convs.0.lin_rel.weight f4 [8, 15]
0	0x3d899e36	0.067196295
1	0xbddaa21c	-0.10675451
2	0x3d832d25	0.06405095
3	0xbd47cf4f	-0.04878169
4	0x3e862c73	0.26205787
5	0x3cf278f5	0.029598692
6	0xb99d3960	-0.0002998812
7	0x3d43a74d	0.047766972
8	0xbdd3a54a	-0.10334261
9	0xbd934c2a	-0.071922615
10	0x3c34aef2	0.011028038
11	0x3e189ea0	0.1490426
12	0xbb842900	-0.004033208
13	0xbe1445da	-0.14479771
14	0xbdda35bf	-0.106547825
15	0x3dbaadde	0.09115194
16	0x3cd1a698	0.025592133
17	0x3cd1666d	0.025561536
18	0xbe5108ae	-0.20413467
19	0x3ce1c576	0.027559977
20	0x3e0df697	0.13863598
21	0x3c8f5bb6	0.017499786
22	0xbcfb2155	-0.030655542
23	0x3dc509fd	0.09621046
24	0x3deae1a2	0.11468817
25	0xbe2b28aa	-0.16714731
26	0xbe2fe0b0	-0.17175555
27	0x3e0f26a2	0.13979581
28	0x3deccc07	0.11562353
29	0x3dca9a08	0.098926604
30	0xbe0729a0	-0.13199472
31	0xbdbecec8	-0.09316784
32	0xbd84b832	-0.06480445
33	0xbe28e833	-0.16494827
34	0xbdb2b1b9	-0.08725304
35	0xbc74d831	-0.014944122
36	0xbbc43d2d	-0.005988738
37	0x3dfca793	0.1233665
38	0xbd91964a	-0.071087435
39	0x3d81c763	0.06336858
40	0x3e2a09c6	0.16605291
41	0x3d79f414	0.061023787
42	0x3eaa92de	0.33315176
43	0xba59d67e	-0.0008309855
44	0x3ca4b28a	0.020104665
45	0x3c821ab2	0.01588187
46	0xbd16ab1a	-0.03678427
47	0x3dae5397	0.08512037
48	0x3e024049	0.12719835
49	0x3e272a41	0.16324712
50	0x3bf12f46	0.0073603718
51	0x3e6c46e4	0.23073918
52	0x3e3842c7	0.17994224
53	0x3db8d1d3	0.09024396
54	0xbe227152	-0.15863541
55	0x3d070fcd	0.032974053
56	0xbe017947	-0.1264392
57	0xbe5da186	-0.21643648
58	0xbe30e5eb	-0.17275207
59	0x3eded429	0.4352124
60	0x3db0a99b	0.086261
61	0x3d8d0145	0.06885008
62	0xbdc4b532	-0.09604873
63	0x3d870340	0.06592417
64	0x3d8cd101	0.06875802
65	0xbe084381	-0.13307
66	0x3d084b03	0.03327466
67	0x3dd1c8d3	0.10243382
68	0x3c8cd120	0.017189562
69	0xbe5e6504	-0.21718222
70	0xbe454324	-0.19263893
71	0xbd0c39e9	-0.034234915
72	0xbe1fe508	-0.15614712
73	0x3e22aa04	0.15885168
74	0x3e7b6185	0.2454892
75	0x3ddfba75	0.10924236
76	0x3df1fbf0	0.118156314
77	0xbcfed6e3	-0.031108325
78	0x3e625f9c	0.22106785
79	0x3dc4a7c3	0.096023105
80	0x3cd7cd3a	0.026342977
81	0x3e11efa2	0.14251569
82	0x3de92b82	0.113852516
83	0x3e1daecd	0.15398712
84	0x3e17ccc8	0.14824212
85	0xbe9bd4e6	-0.30435866
86	0x3e8f47b5	0.27984396
87	0xbe80ea9f	-0.25179002
88	0xbdbc42ae	-0.09192406
89	0xbd0351d8	-0.032060474
90	0xbd32cac1	-0.043650392
91	0x3d8058b3	0.06266918
92	0xbe33778e	-0.17526075
93	0xbd9f33a7	-0.07773524
94	0xbe704813	-0.23464994
95	0x3d609726	0.054831646
96	0xbe406079	-0.18786801
97	0xbc8cfc50	-0.017210156
98	0xbe80cd2f	-0.25156543
99	0x3ce58b7c	0.028020613
100	0x3d8c6bc4	0.06856492
101	0xbe48dc80	-0.19615364
102	0xbd266d5f	-0.04063165
103	0xbdba4c19	-0.09096546
104	0x3e47de17	0.19518314
105	0x3e9bafa4	0.3040744
106	0x3dcb9b2d	0.09941707
107	0xbe0e2f03	-0.13885121
108	0x3e124135	0.14282687
109	0xbce0be55	-0.027434507
110	0xbca23be0	-0.019803941
111	0xbe7d4cce	-0.2473633
112	0x3e2897b9	0.16464128
113	0xbe0bc7bd	-0.13650413
114	0x3d6af11e	0.057358854
115	0xbd923d15	-0.07140557
116	0x3e919c44	0.28439534
117	0x3db73718	0.08946055
118	0x3d79cfdd	0.06098925
119	0x3e4689e8	0.19388545

convs.0.lin_rel.bias f4 [8]
0	0xbeb3c66e	-0.35112327
1	0xbea167b6	-0.31524438
2	0xbe167ce0	-0.14696074
3	0x3e04ddb2	0.12975195
4	0x3e1f3608	0.15547955
5	0xbe4d5b0b	-0.20054261
6	0x3e285f2a	0.16442552
7	0x3c496710	0.012292638

convs.0.lin_root.weight f4 [8, 15]
0	0x3d6fbece	0.058531575
1	0xbad3643f	-0.0016127898
2	0xbd31d006	-0.043411277
3	0xbd8e1483	-0.06937506
4	0xbd40923a	-0.047014453
5	0xbe2fa4a2	-0.17152646
6	0x3e40e0c2	0.18835738
7	0xbf0ceb23	-0.5504629
8	0x3e632ed2	0.2218583
9	0xbe697280	-0.22797585
10	0x3eb0692a	0.34455234
11	0x3d2108bd	0.039314974
12	0x3e122158	0.14270532
13	0x3da8c188	0.08240038
14	0x3cd5c447	0.026094569
15	0x3e237544	0.15962702
16	0xbd85f0bf	-0.06540059
17	0xbe85e6fa	-0.26152784
18	0x3e184609	0.14870466
19	0xbe360568	-0.177755
20	0x3db223e0	0.08698249
21	0xbe4b2702	-0.19839099
22	0x3e93eece	0.2889313
23	0x3e2a1878	0.16610897
24	0xbde3ea8c	-0.11128721
25	0x3e83621c	0.2566079
26	0xbcb29753	-0.021800673
27	0x3e6effb2	0.23339728
28	0xbc2a2d09	-0.010386714
29	0xbd824ae3	-0.0636194
30	0xbd70294b	-0.05863313
31	0xbcf99d98	-0.030470654
32	0x3cf8b776	0.030360918
33	0xbde540a2	-0.11193968
34	0x3d0fb860	0.035087943
35	0xbbdbecff	-0.0067116017
36	0xbe337a89	-0.17527212
37	0x3efd8ac2	0.49519926
38	0xbdaa7782	-0.083235756
39	0x3d933f89	0.07189853
40	0x3e92daa6	0.2868244
41	0xbe4a35d1	-0.19747092
42	0x3df88f44	0.12136701
43	0x3d7c67eb	0.06162254
44	0xbcfc8c4b	-0.030828616
45	0x3e58ade2	0.21160081
46	0xbeaeebbe	-0.34164232
47	0x3e504acd	0.20341034
48	0xbe1f0121	-0.15527774
49	0xbd360072	-0.04443402
50	0xbd7f1c8b	-0.06228308
51	0xbd8d4974	-0.06898776
52	0x3ee2aba6	0.44271582
53	0xbd527dec	-0.05138962
54	0x3e6414d9	0.22273578
55	0x3e2c8814	0.16848785
56	0xbd15b167	-0.036546137
57	0xbed19773	-0.4093586
58	0x3d4a5f85	0.0494075
59	0xbc918fc1	-0.017768743
60	0x3d0dc600	0.034612656
61	0x3e353718	0.17696798
62	0xbd340340	-0.043948412
63	0x3d508f50	0.050917923
64	0x39ce74d2	0.0003937842
65	0x3df7080e	0.12062083
66	0xbc53b6be	-0.012921987
67	0x3f0d717f	0.55251306
68	0x3dcc721e	0.099827036
69	0xbd5d7579	-0.05406711
70	0xbe3e7350	-0.18598676
71	0x3e903dac	0.28172052
72	0xbe0f3137	-0.13983618
73	0x3e32b738	0.17452705
74	0x3e6ea83c	0.23306364
75	0xbe33e9a7	-0.175696
76	0x3c84036b	0.016114911
77	0xbd262e48	-0.04057148
78	0x3e7faac2	0.24967483
79	0xbd265865	-0.040611643
80	0x3e2d2aaa	0.16910806
81	0xbe2f82fd	-0.17139812
82	0xbe6c301a	-0.23065224
83	0x3df151ad	0.117831565
84	0x3db84076	0.0899667
85	0xbe0b49c7	-0.13602363
86	0x3d5d3231	0.054002944
87	0xbdeeafa7	-0.11654597
88	0xbe74532d	-0.23859854
89	0xbde07d47	-0.10961395
90	0x3da45d48	0.080256045
91	0x3d188c70	0.037243307
92	0xbd903e4f	-0.070431344
93	0x3d97f204	0.07419208
94	0xbd532f07	-0.05155852
95	0xbdcb68f7	-0.0993213
96	0xbe9ede41	-0.3102894
97	0x3d734f85	0.059402008
98	0xbdcf6f1d	-0.10128615
99	0xbd8d67c6	-0.06904559
100	0xbcfe3cf5	-0.031034926
101	0xbb02667e	-0.0019897516
102	0x3db6fea5	0.08935288
103	0xbe7673da	-0.24067631
104	0x3dcb0f4d	0.09915028
105	0xbcbaf208	-0.022820488
106	0x3ea045de	0.31303304
107	0x3d942a55	0.07234637
108	0xbe904ffe	-0.2818603
109	0x3e4750ac	0.19464368
110	0xbb40e238	-0.0029431712
111	0xbd4f4de9	-0.05061141
112	0x3efde691	0.4958997
113	0x3d06c0b3	0.032898616
114	0xbe0cbafe	-0.13743207
115	0xbc5a22bd	-0.013313946
116	0x3e9ffcc2	0.31247526
117	0x3e02205c	0.12707657
118	0xbe2020c1	-0.15637495
119	0xbdbe4db5	-0.09292165

convs.1.lin_rel.weight f4 [8, 8]
0	0xbe1686e3	-0.14699893
1	0x3ea1c0fa	0.31592542
2	0xbe6d6753	-0.23183946
3	0x3e193429	0.14961304
4	0x3d0f95e8	0.03505507
5	0x3d9bcf90	0.07607949
6	0x3dea62ec	0.11444649
7	0xbe25cb5e	-0.1619086
8	0x3e218691	0.1577399
9	0x3e33c676	0.17556176
10	0x3afe74c3	0.001941346
11	0x3e824873	0.254459
12	0x3dc86d5f	0.09786486
13	0xbdb39adb	-0.08769771
14	0xbcb89611	-0.022532495
15	0x3e713798	0.23556364
16	0xbebb0bb0	-0.36532354
17	0x3e559b5b	0.20860045
18	0x3dcbb63f	0.0994687
19	0x3cb9bdd4	0.022673525
20	0x3e126c10	0.14299035
21	0x3ebf3716	0.37346715
22	0x3d9f9b19	0.077932544
23	0x3ea163af	0.31521365
24	0xbe1fc860	-0.15603781
25	0x3d948235	0.072513975
26	0xbe225b57	-0.15855156
27	0xbe913549	-0.28360966
28	0x3e167f96	0.14697108
29	0x3d21434f	0.03937083
30	0xbd452e8a	-0.048140086
31	0xbd019b41	-0.031642202
32	0xbdc0d7b5	-0.09416143
33	0x3e13f17f	0.14447592
34	0x3d97473b	0.07386633
35	0x3e12fe31	0.14354779
36	0x3d8f79a8	0.07005626
37	0x3e0bae5d	0.13640733
38	0x3cd45a97	0.025922103
39	0x3e1e3dcc	0.15453261
40	0x3ea8b514	0.32950652
41	0x3d6ac74a	0.057318963
42	0xbe65d4f6	-0.2244452
43	0xbea7909c	-0.32727516
44	0xbe3d047e	-0.18458745
45	0xbec29a06	-0.38008136
46	0xbd850892	-0.06495775
47	0xbee2ab44	-0.4427129
48	0x3de21983	0.11040022
49	0x3e36f5ae	0.17867157
50	0xbed1bbb0	-0.40963507
51	0x3c3da9da	0.01157614
52	0x3e5a64b4	0.21327478
53	0xbee39100	-0.44446564
54	0xbdc61b0f	-0.0967313
55	0xbe1c2595	-0.15248711
56	0x3e309d01	0.17247392
57	0xbe2d3b3b	-0.16917126
58	0xbe6d90a6	-0.2319971
59	0xbcb7d31a	-0.022439528
60	0xbe852ecb	-0.26012263
61	0x3e2c5a31	0.1683128
62	0x3db4b86e	0.0882424
63	0x3caa0655	0.020754972

convs.1.lin_rel.bias f4 [8]
0	0xbcaef476	-0.021356802
1	0x3e498b9c	0.19682163
2	0x3d90c82d	0.070694305
3	0x3e30253c	0.17201704
4	0xbf27ae5c	-0.65500426
5	0x3ec402ed	0.38283482
6	0x3ba4d9e1	0.005030856
7	0xbec9d30a	-0.39418823

convs.1.lin_root.weight f4 [8, 8]
0	0xbe915ee7	-0.28392717
1	0xbd952e5e	-0.072842345
2	0x3e3bb17b	0.18329422
3	0xbe46572a	-0.19369188
4	0x3ddeb1cd	0.108737566
5	0xbe615ec1	-0.22008802
6	0x3eb46c99	0.35239103
7	0xbe15e1dd	-0.14636941
8	0xbe7ea158	-0.24866235
9	0xbcd27288	-0.025689378
10	0x3eb00eab	0.3438619
11	0x3d31fbbf	0.043452974
12	0xbdf80c5b	-0.121117316
13	0xbe874f66	-0.26427764
14	0xbd0d482e	-0.034492664
15	0xbe15ba53	-0.14621858
16	0xbe5dd760	-0.2166419
17	0xbe080242	-0.13282111
18	0xbd06e548	-0.032933503
19	0x3e392de8	0.18083918
20	0x3ec9cd7a	0.3941458
21	0x3bd4f515	0.0064989426
22	0xbce5dcd5	-0.028059402
23	0xbe175c93	-0.14781408
24	0x3d4aef3a	0.04954455
25	0xbe6324f9	-0.22182073
26	0xbe728a20	-0.23685503
27	0xbedc175a	-0.42986566
28	0xbf036d99	-0.5133911
29	0x3e9e028d	0.3086132
30	0x3aa2ffd8	0.0012435867
31	0xbed03df5	-0.4067227
32	0xbded8740	-0.115980625
33	0x3cc3cff8	0.023902878
34	0x3e3ffcba	0.18748751
35	0x3e18ff8f	0.14941238
36	0x3e6e053f	0.23244189
37	0xbd8f5c80	-0.07000065
38	0x3cc910fe	0.024544235
39	0x3b9f2d0a	0.004857664
40	0x3eb4ceed	0.35314122
41	0xbea77d1f	-0.32712647
42	0xbed0c05f	-0.40771767
43	0xbe8e47ae	-0.27789062
44	0xbe8490b0	-0.25891638
45	0xbd5d92fb	-0.05409525
46	0xbd58c884	-0.0529256
47	0xbecfbf91	-0.4057584
48	0x3d66210a	0.056183852
49	0xbedb713b	-0.42859825
50	0xbe7183d2	-0.23585442
51	0xbea8a459	-0.32937887
52	0x3d88dfd7	0.06683319
53	0xbec69eaf	-0.3879294
54	0xbd79683c	-0.06089042
55	0xbf0ab5ff	-0.54183954
56	0x3e9a8344	0.30178273
57	0xbd8b9c5d	-0.06816933
58	0x3c265294	0.010151524
59	0xbe813602	-0.25236517
60	0xbf201235	-0.6252778
61	0x3db46abc	0.088094205
62	0x3d939aa2	0.07207228
63	0x3e10ad0f	0.14128517

post_layers.0.weight f4 [1, 8]
0	0xbda5015f	-0.08056902
1	0xbdcea7d5	-0.10090605
2	0xbdc3085f	-0.09523081
3	0x3ef9918f	0.48743865
4	0x3eca9206	0.39564532
5	0x3ebb5287	0.365864
6	0x3e66b338	0.22529304
7	0x3ec57a41	0.38569835
