models/CS/hoeg/exp_v3/lr=0.001_hidden_dim=24/GraphModule_20230830_13h24m/state_dict_epoch0.pt (torch, 80783 bytes, 46 tensors)

convs.0.event__follows__event.lin_rel.weight f4 [24, 15]
0.17838329 -0.028273536 0.124973305 0.12128872 0.17443052 -0.1888143 0.19397196 0.21786138
-0.25939715 -0.19047059 0.18753204 0.068663605 0.13964239 -0.015504857 0.08191281 0.20248243
-0.20679168 0.27292782 -0.0622986 -0.1577651 -0.10908519 0.09396435 -0.27045113 0.2392151
-0.24330686 0.23024237 0.10772254 0.24466184 -0.09828008 0.148055 -0.22166221 0.004769323
-0.11505833 -0.11856595 -0.09462704 -0.11690019 0.1494201 0.1293704 -0.04972737 -0.18513173
0.13959166 0.17245999 0.04374646 0.045527548 0.04296322 -0.0007121132 0.12211874 -0.13580358
-0.005465979 0.08633531 -0.22966945 0.08625178 0.01356062 0.102548316 -0.013338236 -0.08107894
0.08855872 -0.07044857 -0.2347304 0.27867857 -0.012909133 0.094217956 -8.057951e-05 -0.24676001
-0.087666325 -0.2329071 -0.24431622 -0.15077668 0.2682806 -0.13266242 0.07375317 -0.15658817
-0.07168315 -0.039296977 -0.24870029 0.048165593 0.063809045 -0.16871104 0.07250086 0.22515398
-0.043387145 -0.18536353 0.35650137 -0.1325973 -0.10066889 0.16916628 0.0069657494 0.08242358
-0.09081596 0.10771387 -0.16640884 -0.118884206 -0.12253545 -0.13411975 0.0014933386 -0.044351153
0.13848601 0.32559782 0.117810406 -0.11324214 -0.16038157 -0.073956534 0.0011239556 -0.028402343
0.29745093 -0.18662493 0.033110272 0.1837094 0.018132925 0.21921688 0.15601793 0.21496955
-0.1601875 0.16097406 -0.22587328 0.119130746 -0.05894156 -0.12679039 -0.13483074 -0.19804543
0.17739196 -0.120853655 -0.09938967 -0.070134595 -0.24341416 0.08829934 0.10553069 0.18158072
-0.20973349 0.022317816 0.015493465 -0.02482019 0.13478442 0.042365596 0.26409537 -0.14215364
-0.1733484 0.21345024 -0.18351355 -0.017564066 0.18 0.18148512 0.2532136 0.104046784
0.20229802 -0.0858768 0.051162526 -0.14907984 0.13667145 -0.13139662 -0.11005978 0.06316108
0.24921456 0.19826593 0.18863726 0.17200916 0.04043751 -0.10827925 -0.1780773 0.23140557
-0.22475474 -0.17045651 -0.08941914 -0.09861182 0.19306338 0.089993164 0.18548143 -0.19991355
-0.00814139 0.048379056 -0.026503533 -0.1968533 0.31151655 0.17676337 -0.20578574 0.16414489
-0.15404107 -0.22210464 0.112925164 0.14483295 -0.117962584 0.0934083 0.04737955 0.035937533
-0.08375039 0.15534645 -0.15224397 -0.17157526 0.10778901 -0.1669924 0.22734004 0.041230112
-0.12985389 0.081594914 0.097214274 0.09791199 0.10975017 -0.023290737 0.0321179 -0.09178281
-0.060705826 -0.18644956 -0.3367043 0.24292089 0.0832523 0.051932685 0.14889733 -0.083134964
0.063457154 -0.24703558 0.15750863 -0.08884267 -0.034598738 -0.13899896 -0.19592449 -0.15291274
-0.22373782 -0.32019746 -0.19540864 -0.23818965 0.14862409 -0.20779046 -0.20437616 -0.2501361
0.18579997 -0.049024098 0.14541413 0.144469 -0.20209418 -0.12610497 -0.14854857 0.2584389
0.091302805 -0.21570735 -0.021881271 -0.013428314 -0.24007088 0.10924089 0.16601427 -0.0015702759
-0.19126862 -0.19048405 0.20256539 0.07531087 -0.0421856 0.05496994 -0.034046516 -0.3256827
-0.18589653 -0.1116801 0.1326581 -0.011050423 -0.09214206 -0.048797354 0.016495055 -0.112281345
00000000: 1caa 363e e79d e7bc 01f2 ff3d 3866 f83d
00000010: ea9d 323e 8958 41be 96a0 463e 0e17 5f3e
00000020: b4cf 84be b90a 43be 6608 403e 819f 8c3d
00000030: 6afe 0e3e 1508 7ebc e7c1 a73d 8e57 4f3e
00000040: 33c1 53be 32bd 8b3e d12c 7fbd 2d8d 21be
00000050: 0e68 dfbd 6270 c03d 9278 8abe cef4 743e
00000060: 6f25 79be a8c4 6b3e a39d dc3d a288 7a3e
00000070: 1147 c9bd bb9b 173e 6bfb 62be fb47 9c3b
00000080: b4a3 ebbd b4d2 f2bd d2cb c1bd 5e69 efbd
00000090: 9501 193e ad79 043e edae 4bbd 2c93 3dbe
000000a0: 1ef1 0e3e 5a99 303e 7d2f 333d 187b 3a3d
000000b0: 34fa 2f3d 1cad 3aba 6419 fa3d 1810 0bbe
000000c0: f51b b3bb 91d0 b03d 782e 6bbe c6a4 b03d
000000d0: 5d2d 5e3c da04 d23d 9e88 5abc b70c a6bd
000000e0: 465e b53d 5747 90bd 2a5d 70be f5ae 8e3e
000000f0: d480 53bc 58f5 c03d ccfc a8b8 a8ae 7cbe
00000100: 678a b3bd 337f 6ebe 082e 7abe 3465 1abe
00000110: 135c 893e a8d8 07be e70b 973d a658 20be
00000120: 9ece 92bd def5 20bd 4aab 7ebe 4949 453d
00000130: 51ae 823d 96c2 2cbe 557b 943d c48e 663e
00000140: b8b6 31bd f0cf 3dbe 5987 b63e 96c7 07be
00000150: 7e2b cebd ed39 2d3e f140 e43b b2cd a83d
00000160: b8fd b9bd 1799 dc3d 1467 2abe 9079 f3bd
00000170: def3 fabd b056 09be 21bc c33a 8ea9 35bd
00000180: 47cf 0d3e c2b4 a63e 9546 f13d 7feb e7bd
00000190: 113b 24be 8676 97bd b151 933a 08ac e8bc
000001a0: 7d4b 983e 9b1a 3fbe a39e 073d 511e 3c3e
000001b0: 808b 943c 647a 603e 2ac3 1f3e fa20 5c3e
000001c0: 3108 24be 62d6 243e 534b 67be d2fa f33d
000001d0: b56c 71bd 57d5 01be 1211 0abe 6ccc 4abe
000001e0: 3da6 353e 1f82 f7bd d08c cbbd baa2 8fbd
000001f0: 9041 79be 49d6 b43d 7920 d83d 4cf0 393e
00000200: 60c4 56be dad3 b63c 4dd8 7d3c b653 cbbc
00000210: ed04 0a3e 8c87 2d3d 8237 873e b990 11be
00000220: 3e82 31be b392 5a3e faea 3bbe 84e2 8fbc
00000230: ec51 383e 3cd7 393e 37a5 813e 7b16 d53d
00000240: 3627 4f3e 2de0 afbd cc8f 513d 63a8 18be
00000250: 9af3 0b3e d68c 06be 0667 e1bd 995a 813d
00000260: 1a32 7f3e 3906 4b3e 202a 413e 2b23 303e
00000270: cda1 253d 83c1 ddbd e559 36be 95f5 6c3e
00000280: 1b26 66be 278c 2ebe 6221 b7bd fef4 c9bd
00000290: 68b2 453e 564e b83d d8ee 3d3e 23b6 4cbe
000002a0: 7763 05bc 1e29 463d f01d d9bc e993 49be
000002b0: 197f 9f3e 7501 353e 7fb9 52be 9915 283e
000002c0: f1bc 1dbe 666f 63be 4f45 e73d 174f 143e
000002d0: 5e96 f1bd da4c bf3d 0f11 423d 3c33 133d
000002e0: 5385 abbd 2413 1f3e d8e5 1bbe 6db1 2fbe
000002f0: 7cc0 dc3d 0e00 2bbe d4cb 683e e8e0 283d
00000300: 6bf8 04be 3c1b a73d 4718 c73d 1586 c83d
00000310: b2c4 e03d 37cc bebc 0f8e 033d a0f8 bbbd
00000320: aca6 78bd a2ec 3ebe 8264 acbe 41c0 783e
00000330: 2f80 aa3d 5eb7 543d 8b78 183e aa42 aabd
00000340: d3f5 813d e5f6 7cbe f149 213e 25f3 b5bd
00000350: 68b7 0dbd be55 0ebe 6ea0 48be 2895 1cbe
00000360: 871b 65be ecf0 a3be 3419 48be fde7 73be
00000370: ea30 183e 06c7 54be fc47 51be d711 80be
00000380: 5942 3e3e 7ecd 48bd 71e7 143e aeef 133e
00000390: c7f1 4ebe a921 01be 1e1d 18be 1a52 843e
000003a0: f7fc ba3d 63e2 5cbe 5a40 b3bc 6e02 5cbc
000003b0: 24d5 75be b0b9 df3d a5ff 293e b7d1 cdba
000003c0: ecdb 43be 400e 43be 4d6d 4f3e 963c 9a3d
000003d0: cfca 2cbd 2928 613d 5c74 0bbd e2bf a6be
000003e0: a95b 3ebe 89b8 e4bd 86d7 073e d50c 35bc
000003f0: fab4 bcbd bcdf 47bd a320 873c c3f3 e5bd

convs.0.event__follows__event.lin_rel.bias f4 [24]
0.0040530255 -0.13968515 -0.21406393 0.25240007 -0.09754241 0.07693741 0.062137745 -0.12960419
0.020811211 -0.030696535 0.081055105 0.21827514 -0.2533208 -0.02179607 -0.019449942 0.047755215
-0.12259393 0.009892781 -0.03890914 -0.01621506 -0.11913375 0.012953599 -0.18331888 -0.14744078
00000000: 3ecf 843b a009 0fbe 9333 5bbe 953a 813e
00000010: 51c4 c7bd 5c91 9d3d 2684 7e3d f6b6 04be
00000020: 467c aa3c 4d77 fbbc 3800 a63d 8583 5f3e
00000030: 44b3 81be ac8d b2bc 7c55 9fbc f99a 433d
00000040: 8712 fbbd 5515 223c 315f 1fbd 72d5 84bc
00000050: 65fc f3bd 553b 543c f2b7 3bbe b7fa 16be

convs.0.event__follows__event.lin_root.weight f4 [24, 15]
-0.13602118 -0.19657339 0.051153652 0.09510269 -0.250058 -0.18500845 -0.047240634 -0.10598376
-0.011890255 -0.16201888 -0.20003928 -0.15758155 -0.26108122 0.045754217 0.08855571 0.12918842
0.10849727 0.10136293 -0.0016792513 0.25651857 -0.19217388 0.03596007 -0.057495303 0.2623103
-0.13644403 -0.061907947 -0.15606162 -0.14315742 0.15345016 0.14488527 -0.19569346 -0.20286717
-0.23044312 -0.03518117 0.25660148 -0.19002289 0.15254222 -0.30124503 0.04335129 0.14404395
-0.09386344 -0.08261185 0.05133924 0.035407647 -0.14381406 -0.085152015 -0.083364144 -0.117877275
0.18277691 0.22284128 -0.16011941 -0.25233656 0.118927635 -0.061189186 0.144239 -0.20711543
0.17297414 0.14487784 -0.06848784 0.09670833 0.21887484 -0.07064325 0.018296752 -0.021305902
-0.14158991 -0.14335006 0.29023802 -0.11060797 0.11287786 0.19333519 -0.17538838 0.056056168
-0.16800652 0.076419346 0.21157286 0.08330985 0.20185229 -0.23516355 0.07372306 0.015812188
-0.022086196 0.25402033 0.31695148 -0.03046841 -0.095829606 0.15595408 0.16566315 0.1845888
0.051110465 -0.12250474 0.028932074 -0.20292316 -0.104255095 -0.089854136 -0.20228574 -0.023313789
-0.10464493 0.26070946 0.029975593 -0.16656272 0.24392815 0.14080267 0.10480198 -0.0010509328
0.009538883 -0.16950072 0.11043197 0.2170065 -0.010408003 0.1681028 -0.2528071 -0.1590377
0.12758607 -0.0060382513 0.2580039 -0.10034935 0.03178096 -0.22428478 0.06495677 -0.018260607
-0.042676378 0.20696114 -0.12396773 0.10471448 -0.13637547 -0.17311548 -0.17926645 0.16026092
0.075340666 -0.10784696 0.18012685 -0.1526431 -0.13609596 -0.121325694 -0.23351727 0.12239006
-0.25388125 -0.06943468 -0.15164539 -0.036627904 0.26602224 -0.07862237 0.12934579 0.25804302
-0.15329368 0.101970196 0.054260504 -0.0050283372 -0.2049856 -0.08826051 -0.1476691 -0.05206324
0.072473936 -0.18964002 0.17843711 0.22502089 0.07611587 -0.46302715 0.032509226 0.13506566
-0.13073462 0.1116451 0.04098852 -0.16621533 0.046559144 -0.16351992 0.00014039801 0.17276321
-0.015996465 0.17792468 0.186992 -0.07217932 0.21045144 -0.19122481 -0.18734263 -0.14299315
-0.02549954 0.07153844 -0.09345673 -0.0142327305 -0.22488537 -0.21170893 0.21809602 0.12927
-0.20247239 0.2216291 0.00078195956 0.13614404 -0.17333886 -0.21062833 -0.1047223 0.09633948
0.020100886 -0.12084281 -0.2285752 -0.06472657 0.17988189 0.06448129 -0.112608925 -0.028268486
-0.15539688 0.05806473 -0.12074263 0.13784379 -0.11652474 -0.10241679 0.08082046 -0.059873916
0.011003873 -0.15548682 0.063192025 -0.1184707 -0.20108035 0.063637175 0.088819474 0.22389661
0.25038108 0.05123392 0.19027336 0.076359585 0.13324516 -0.12622757 -0.23839855 -0.25311223
-0.0983531 0.08144834 -0.21498199 -0.18701792 -0.21982153 -0.059679274 0.10250159 0.020348499
0.21475628 -0.20952109 -0.14587826 -0.18467423 -0.17889333 0.13268007 -0.16934575 -0.14348485
-0.08985507 0.118720666 -0.03338379 -0.115240425 0.059058346 0.05776814 -0.14692989 -0.5009869
0.20504571 0.18822199 0.13955145 0.0006304214 0.18627346 -0.019296573 0.26650453 0.078749664
00000000: 2349 0bbe 894a 49be 7e86 513d 33c5 c23d
00000010: 9a07 80be db72 3dbe 657f 41bd 030e d9bd
00000020: 58cf 42bc 47e8 25be 19d7 4cbe 0f5d 21be
00000030: 70ac 85be c668 3b3d b25c b53d f849 043e
00000040: d133 de3d 5e97 cf3d 531a dcba 6756 833e
00000050: 3bc9 44be de4a 133d 3280 6bbd 894d 863e
00000060: fcb7 0bbe 3093 7dbd 9ece 1fbe dc97 12be
00000070: 0a22 1d3e ce5c 143e de63 48be 69bc 4fbe
00000080: 48f9 6bbe 211a 10bd 4561 833e 5c95 42be
00000090: 0734 1c3e ca3c 9abe 1f91 313d 4280 133e
000000a0: 7a3b c0bd 6730 a9bd 1849 523d 9c07 113d
000000b0: fe43 13be 2e64 aebd d2ba aabd a469 f1bd
000000c0: df29 3b3e 8130 643e 58f6 23be 4232 81be
000000d0: 5590 f33d 83a1 7abd 63b3 133e 1116 54be
000000e0: 2220 313e db5a 143e 5a43 8cbd 040f c63d
000000f0: ba20 603e 69ad 90bd 12e3 953c b789 aebc
00000100: f2fc 10be 5cca 12be 149a 943e 6e86 e2bd
00000110: 822c e73d a9f9 453e 0399 33be 279b 653d
00000120: e709 2cbe bf81 9c3d 8ea6 583e 5b9e aa3d
00000130: 5eb2 4e3e b7ce 70be 1efc 963d 9088 813c
00000140: 1cee b4bc f40e 823e 7747 a23e e398 f9bc
00000150: 5042 c4bd 6db2 1f3e 9aa3 293e d904 3d3e
00000160: 3559 513d c4e3 fabd f502 ed3c 17cb 4fbe
00000170: b283 d5bd 7205 b8bd fe23 4fbe 8ffc bebc
00000180: 1550 d6bd b67b 853e 608f f53c 6b8f 2abe
00000190: 4dc8 793e 932e 103e 6ca2 d63d 74bf 89ba
000001a0: fa48 1c3c 9991 2dbe 282a e23d f436 5e3e
000001b0: 5486 2abc 2423 2c3e ef6f 81be c7da 22be
000001c0: eca5 023e 86dc c5bb 1619 843e f683 cdbd
000001d0: c02c 023d e9aa 65be 0e08 853d 4597 95bc
000001e0: 6dcd 2ebd 9fed 533e cbe2 fdbd 8c74 d63d
000001f0: 03a6 0bbe 2f45 31be a091 37be 701b 243e
00000200: 354c 9a3d dede dcbd 2c73 383e 794e 1cbe
00000210: bd5c 0bbe 9b79 f8bd 271f 6fbe a4a7 fa3d
00000220: b9fc 81be c533 8ebd ee48 1bbe 2407 16bd
00000230: 1134 883e c404 a1bd 3973 043e 371e 843e
00000240: 05f9 1cbe c0d5 d03d 4340 5e3d c0c4 a4bb
00000250: bfe7 51be edc1 b4bd 9236 17be 4440 55bd
00000260: 376d 943d fe30 42be 38b8 363e e06b 663e
00000270: a3e2 9b3d e511 edbe 6528 053d a74e 0a3e
00000280: 4cdf 05be 30a6 e43d 94e3 273d 5a34 2abe
00000290: cdb4 3e3d c471 27be ce37 1339 d7e8 303e
000002a0: 050b 83bc e331 363e d57a 3f3e c0d2 93bd
000002b0: 9580 573e 70d0 43be bfd6 3fbe cc6c 12be
000002c0: 69e4 d0bc bf82 923d 3e66 bfbd 6630 69bc
000002d0: 5a48 66be 3aca 58be 9054 5f3e 5b5f 043e
000002e0: ec54 4fbe bdf2 623e 6bfc 4c3a 5869 0b3e
000002f0: be7f 31be f4ae 57be a578 d6bd a24d c53d
00000300: 9daa a43c 6f7c f7bd 9e0f 6abe 5d8f 84bd
00000310: f532 383e c40e 843d 829f e6bd 5093 e7bc
00000320: 5c20 1fbe 48d5 6d3d e947 f7bd ec26 0d3e
00000330: 86a4 eebd e5bf d1bd 3385 a53d 5a3e 75bd
00000340: 9749 343c f037 1fbe d26a 813d c4a0 f2bd
00000350: 02e8 4dbe 3554 823d fce6 b53d 2745 653e
00000360: f331 803e a9da 513d 05d7 423e 6a62 9c3d
00000370: 6b71 083e cd41 01be c01e 74be ed97 81be
00000380: 5a6d c9bd 63ce a63d 3d24 5cbe a081 3fbe
00000390: e518 61be 4172 74bd 5bec d13d e5b1 a63c
000003a0: 12e9 5b3e b28c 56be 1c61 15be 3e1b 3dbe
000003b0: d02f 37be 49dd 073e f968 2dbe b1ed 12be
000003c0: ef05 b8bd d223 f33d 71bd 08bd 2c03 ecbd
000003d0: 2ae7 713d 499e 6c3d ca74 16be ad40 00bf
000003e0: 81f7 513e 44bd 403e 93e6 0e3e dd42 253a
000003f0: 78be 3e3e d913 9ebc 4873 883e 8147 a13d

convs.0.krs__interacts__event.lin_rel.weight f4 [24, 20]
-0.20391816 -0.107179806 0.23660767 0.20139489 -0.11473438 0.14185563 -0.042740505 -0.22245337
-0.07996331 0.091549456 0.3018167 0.02999695 0.106976025 0.13308442 -0.07188872 0.11585943
0.132828 -0.20262939 0.2454144 -0.16211526 -0.11454308 0.18806978 0.10801601 0.24762788
-0.08423871 -0.05198133 0.07322605 0.0808092 0.16683938 0.13504907 0.0024251747 0.1178766
0.1427552 0.00448839 0.10476358 0.045794263 -0.17025942 -0.18697585 0.085944235 0.22313236
-0.022425761 -0.046234693 0.047305852 -0.15577056 -0.1982752 0.065218285 -0.108000025 -0.085950755
-0.12969592 0.1958856 -0.28594592 -0.10944729 0.029578606 0.11718677 -0.18660213 -0.19955166
-0.026170105 0.08967107 -0.10633929 -0.15711835 -0.22445314 -0.15146482 0.18735617 0.026496021
-0.101637006 -0.06413708 0.12097651 -0.18772985 0.1307457 -0.052660417 0.030287234 -0.15447691
0.097701624 -0.15928572 -0.050195232 -0.10574999 -0.1048338 -0.1986711 -0.063760035 0.10389188
0.071953475 -0.041682888 -0.08583013 -0.0083513865 0.19739082 0.15134808 -0.09288217 -0.11561019
-0.02628643 -0.032400873 -0.263344 0.035743136 0.15657419 0.043108474 0.11692582 -0.08277145
-0.18753323 -0.039341718 -0.07977612 0.04331062 0.16372633 0.018646777 0.26267323 -0.20405887
-0.18862963 0.054162305 0.13966529 -0.21262561 -0.15557054 -0.16128683 0.32341388 0.12049339
0.23592615 -0.08422471 0.07034063 -0.07480918 0.0009952347 -0.026565013 0.09660858 0.009834035
-0.049485132 0.1321431 0.11762871 -0.16999641 -0.08077633 -0.068566866 0.20394552 -0.17444812
-0.12042088 -0.013478848 0.1914884 -0.038123842 0.19910353 0.19816913 -0.09552292 -0.12774514
-0.07469038 0.22073074 -0.06811065 -0.04587944 0.18306214 0.19179262 0.1622359 -0.056531705
0.059284966 -0.089567795 0.054962337 -0.2314792 -0.10468615 0.12096157 -0.012799835 -0.04472595
-0.12384726 0.023823144 -0.19183627 -0.20450255 -0.09922058 -0.017503817 -0.12792994 0.094858356
0.031565066 0.0037241585 0.13739777 0.064124525 -0.17230238 0.19525333 0.21080495 0.18575439
0.04243222 -0.08398042 0.17920361 0.031529963 -0.12585984 -0.12841012 -0.049348358 0.20873533
0.13076465 -0.060998365 0.20677319 -0.075498566 -0.13749842 -0.060914762 -0.08173763 -0.05552606
-0.2230207 0.03672879 0.16868478 0.14104435 -0.16316395 0.14444354 0.14893422 0.039607957
0.1976481 -0.0017709855 -0.12903449 0.15306576 0.034910455 0.12188688 -0.078145616 0.18729097
0.23252626 -0.0011276788 0.13695408 0.22979994 -0.08727208 0.17649706 -0.050308008 -0.088446416
-0.13390891 -0.07657612 0.07044019 -0.11100992 0.124547064 0.16447932 -0.067517415 -0.060783956
0.11012778 0.15487777 -0.16495113 0.022776159 0.17283823 0.105246425 0.20346469 -0.040917702
0.0923161 0.007562849 0.11194346 -0.0565885 0.17868245 0.0789899 0.022445941 0.05442501
0.16396329 -0.1072066 0.15898189 -0.091358185 0.0013720002 -0.14744876 0.15019485 0.26425642
0.14546116 -0.16990867 0.21607645 -0.06471509 0.0725936 0.08891972 0.055185173 -0.053917762
-0.104408845 0.10218117 -0.09403289 -0.13942671 0.13656673 -0.2006125 -0.013350753 -0.108579725
00000000: eccf 50be 1681 dbbd 4849 723e 763a 4e3e
00000010: dcf9 eabd 9a42 113e ab10 2fbd d1ca 63be
00000020: cec3 a3bd 487e bb3d b887 9a3e 2abc f53c
00000030: 3f16 db3d 4847 083e 653a 93bd b547 ed3d
00000040: 1004 083e 147e 4fbe ea4d 7b3e 8b01 26be
00000050: 9095 eabd 5d95 403e 7f37 dd3d 2a92 7d3e
00000060: 5885 acbd 60ea 54bd 8af7 953d 4b7f a53d
00000070: f1d7 2a3e 4e4a 0a3e aeef 1e3b 4969 f13d
00000080: 6b2e 123e 5813 933b 4a8e d63d c492 3b3d
00000090: 7c58 2ebe 9976 3fbe 8803 b03d cf7c 643e
000000a0: 3bb6 b7bc 9760 3dbd c8c3 413d 5182 1fbe
000000b0: a708 4bbe 2a91 853d 1e2f ddbd f306 b0bd
000000c0: 02cf 04be 3c96 483e 8167 92be e725 e0bd
000000d0: d54e f23c 9eff ef3d a114 3fbe 4557 4cbe
000000e0: b062 d6bc 77a5 b73d 6ac8 d9bd a2e3 20be
000000f0: 0bd7 65be 9819 1bbe 4cda 3f3e 2f0e d93c
00000100: 1027 d0bd 4d5a 83bd 88c2 f73d 413c 40be
00000110: 33e2 053e 73b2 57bd ef1c f83c 322f 1ebe
00000120: ca17 c83d cc1b 23be 8499 4dbd 7393 d8bd
00000130: 1ab3 d6bd 7070 4bbe 9f94 82bd 44c5 d43d
00000140: 585c 933d adbb 2abd b5c7 afbd 41d4 08bc
00000150: d220 4a3e fefa 1a3e 0239 bebd 09c5 ecbd
00000160: a456 d7bc c7b6 04bd 06d5 86be 6567 123d
00000170: fc54 203e 8392 303d ce76 ef3d 1484 a9bd
00000180: b608 40be c824 21bd aa61 a3bd 7a66 313d
00000190: e0a7 273e 20c1 983c 1b7d 863e cff4 50be
000001a0: 2028 41be 4bd9 5d3d 6b04 0f3e 87ba 59be
000001b0: e24d 1fbe 6028 25be 8196 a53e 3dc5 f63d
000001c0: a096 713e 017e acbd c00e 903d 8e35 99bd
000001d0: 8972 823a df9e d9bc b8da c53d ef1e 213c
000001e0: ecb0 4abd 8550 073e 52e7 f03d 8a13 2ebe
000001f0: 0f6e a5bd c96c 8cbd 18d7 503e 87a2 32be
00000200: 399f f6bd 63d6 5cbc 8915 443e bf27 1cbd
00000210: cce1 4b3e d9ec 4a3e 85a1 c3bd 9fcf 02be
00000220: 45f7 98bd 3d07 623e 997d 8bbd 14ec 3bbd
00000230: a474 3b3e 4965 443e 2b21 263e ca8d 67bd
00000240: cbd4 723d 526f b7bd 3020 613d e208 6dbe
00000250: b165 d6bd b3ba f73d 66b6 51bc 8f32 37bd
00000260: a2a3 fdbd c128 c33c ba70 44be 1e69 51be
00000270: 2934 cbbd 2a64 8fbc 1100 03be 1945 c23d
00000280: 5f4a 013d 0311 743b 00b2 0c3e b853 833d
00000290: 0970 30be 7df0 473e 41dd 573e 6636 3e3e
000002a0: 68cd 2d3d edfd abbd 2781 373e 9025 013d
000002b0: 67e1 00be f17d 03be 8121 4abd b7be 553e
000002c0: 2be7 053e 6cd9 79bd 5abc 533e fe9e 9abd
000002d0: 63cc 0cbe c281 79bd 0f66 a7bd 4b6f 63bd
000002e0: 8a5f 64be ed70 163d b4bb 2c3e ee6d 103e
000002f0: 7314 27be 02e9 133e 3682 183e f43b 223d
00000300: 4364 4a3e 6a20 e8ba 9e21 04be 45bd 1c3e
00000310: 44fe 0e3d d49f f93d cf0a a0bd 34c9 3f3e
00000320: 5d1b 6e3e 9fce 93ba b13d 0c3e ad50 6b3e
00000330: b4bb b2bd a5bb 343e c50f 4ebd 6523 b5bd
00000340: 6b1f 09be f1d3 9cbd f242 903d 2b59 e3bd
00000350: 8812 ff3d 446d 283e 9246 8abd 99f8 78bd
00000360: ac8a e13d 4798 1e3e f3e8 28be 1195 ba3c
00000370: 81fc 303e 708b d73d 0c59 503e 5299 27bd
00000380: 3910 bd3d c7d1 f73b 9d42 e53d 58c9 67bd
00000390: 88f8 363e 75c5 a13d 8de0 b73c c2ec 5e3d
000003a0: fee5 273e 228f dbbd 26cc 223e 001a bbbd
000003b0: b0d4 b33a cffc 16be aecc 193e 9e4c 873e
000003c0: c5f3 143e 8afc 2dbe 2543 5d3e 5889 84bd
000003d0: f4ab 943d 8b1b b63d d909 623d dfd8 5cbd
000003e0: 4ed4 d5bd 5c44 d13d 5194 c0bd e0c5 0ebe
000003f0: 26d8 0b3e 5d6d 4dbe 1ebd 5abc 0c5f debd

convs.0.krs__interacts__event.lin_rel.bias f4 [24]
-0.008813053 -0.097444184 -0.18172997 -0.20478916 0.22623341 -0.16888963 -0.1486224 0.13146953
-0.14497362 0.09765029 0.070066445 -0.13674955 0.020980654 -0.09837982 0.12134283 -0.03858189
0.048833083 -0.1577633 0.03497378 -0.13653263 -0.079031266 -0.12536311 0.06434672 0.09281514
00000000: a064 10bc d190 c7bd 6c17 3abe 40b4 51be
00000010: bba9 673e 67f1 2cbe 7830 18be f39f 063e
00000020: f773 14be e0fc c73d ff7e 8f3d 1308 0cbe
00000030: 9fdf ab3c 5c7b c9bd 9782 f83d 0b08 1ebd
00000040: 3305 483d b48c 21be ab40 0f3d 36cf 0bbe
00000050: 25db a1bd 305f 00be 37c8 833d dd15 be3d

convs.0.krs__interacts__event.lin_root.weight f4 [24, 15]
0.026000349 0.0061011123 -0.1322968 0.09062265 -0.08298118 0.14269385 0.09629162 -0.23020534
0.072289355 -0.2252178 -0.12639514 -0.09018838 -0.02402822 0.22727136 0.14817858 -0.097879365
-0.13161562 -0.048036005 0.05935244 0.0541625 0.036199357 -0.21216996 0.0847131 0.17458384
-0.16758499 0.22939174 -0.014188479 0.064425744 0.13831113 -0.17824872 0.21995048 0.012351561
0.120818675 -0.03821497 -0.10318821 0.23144515 0.0864126 -0.28757647 -0.032159813 0.1318385
-0.016993875 0.157453 0.09174408 0.03167098 -0.23782866 -0.15571436 0.124954335 -0.15224749
-0.22815375 -0.075614855 -0.19024298 -0.113309644 0.080342434 0.097055435 0.060466018 -0.11866817
0.12432264 0.14744803 -0.06998584 0.0050687715 -0.18789072 -0.0028119439 -0.0064445827 0.172087
0.122964695 -0.12570345 -0.11115117 0.040298246 -0.001439617 -0.07801277 0.006262203 -0.10508667
0.16656929 -0.052986447 0.050520785 0.0033231091 0.12468534 0.13100483 -0.18993843 -0.0010785266
0.042101324 0.25337598 0.14367397 0.030751025 -0.23772769 0.21108632 -0.014194476 -0.11468786
0.18838786 0.044624496 0.034931768 0.1411198 0.22263604 -0.16869597 0.20369843 -0.18366168
-0.11998809 0.1282768 -0.02270976 0.13764931 0.088356555 0.24661735 0.08777108 0.0981833
0.027694624 -0.18379804 0.10569682 0.17490922 -0.105760045 0.081558466 0.008503347 0.041529637
0.20314127 0.19042343 0.11583088 -0.15824686 -0.054896183 -0.0003104191 -0.012347418 0.032242697
0.19490872 -0.10469817 -0.24842967 0.23641554 0.118204586 0.2153998 -0.17643082 0.23091735
-0.15464705 0.17117395 -0.07105882 -0.16676542 0.104780614 -0.20938134 0.13256907 0.03866975
-0.22420418 0.046188764 0.012337626 0.24798165 0.12643449 0.11058686 -0.22520411 -0.17451672
-0.09631708 0.17379865 0.25688457 -0.2653485 -0.08254961 -0.20006466 0.17565998 0.11640071
-0.014195984 -0.10058577 -0.075266555 0.006480877 0.14668809 -0.13991614 0.27260545 0.15602008
0.16244283 -0.07962265 0.10437749 0.16952886 0.027494246 0.18026905 -0.1566507 0.15985166
0.059766013 0.10148698 0.22369301 0.055515394 0.3117438 0.2173194 0.14058892 -0.19614214
-0.038798563 0.096761264 0.019524448 0.15800798 -0.0024271777 -0.076062486 -0.23690076 -0.21580727
-0.05416615 0.074994706 0.17889075 -0.051290218 -0.2640978 -0.074528635 0.049797747 0.2360423
-0.054802243 -0.023012783 -0.06397686 0.081284024 0.13036324 0.12787168 -0.13782866 0.08712582
-0.028757356 0.092903025 0.11492305 -0.22609533 -0.15333277 -0.17200595 -0.062019873 -0.08380701
0.046868954 0.22473185 0.12374297 -0.10550631 0.10813452 -0.09975079 0.14385061 0.08909674
-0.06475594 0.056184508 0.046327583 -0.2550691 -0.23621833 0.156472 -0.24289803 0.05734176
-0.25502503 -0.09828619 0.043915022 0.075352445 0.28050834 0.090143204 0.01744513 0.05195727
0.23123832 -0.06470605 0.21778235 -0.14343227 -0.25296953 0.013540102 -0.18939638 0.11003637
-0.08384991 0.20670277 -0.12035831 0.19692847 -0.09789091 0.08446534 0.07125091 -0.49186867
-0.13887973 -0.21716526 0.2046112 -0.032407645 0.09087564 -0.014407502 0.08606085 0.13511284
00000000: affe d43c d7eb c73b d078 07be 5e98 b93d
00000010: 09f2 a9bd 561e 123e 8a34 c53d f3ba 6bbe
00000020: 710c 943d 7f9f 66be ba6d 01be afb4 b8bd
00000030: d4d6 c4bc d3b9 683e 20bc 173e fa74 c8bd
00000040: 3fc6 06be 67c1 44bd 8b1b 733d 7fd9 5d3d
00000050: c745 143d 1543 59be 107e ad3d 1bc6 323e
00000060: 669b 2bbe abe5 6a3e cb76 68bc a5f1 833d
00000070: 6fa1 0d3e d586 36be b33a 613e 345e 4a3c
00000080: c86f f73d 4d87 1cbd 5754 d3bd f5ff 6c3e
00000090: 17f9 b03d 393d 93be 02ba 03bd ac00 073e
000000a0: bd36 8bbc 5c3b 213e 52e4 bb3d 6eb9 013d
000000b0: 5b89 73be 9673 1fbe 0fe8 ff3d c4e6 1bbe
000000c0: 23a1 69be f6db 9abd 0ecf 42be e30e e8bd
000000d0: 938a a43d 00c5 c63d 37ab 773d 4c08 f3bd
000000e0: de9c fe3d 9efc 163e bc54 8fbd f017 a63b
000000f0: 6d66 40be 9748 38bb 142d d3bb 9337 303e
00000100: ead4 fb3d 68b8 00be 3aa3 e3bd c60f 253d
00000110: 88b1 bcba 29c5 9fbd 2b33 cd3b ae37 d7bd
00000120: 2491 2a3e 5108 59bd e2ee 4e3d 85c8 593b
00000130: 075b ff3d 2126 063e 387f 42be 595d 8dba
00000140: 7072 2c3d 7fba 813e 451f 133e 93e9 fb3c
00000150: e36e 73be 0327 583e f38f 68bc 78e1 eabd
00000160: bfe8 403e 2dc8 363d 9d14 0f3d b581 103e
00000170: b4fa 633e a3be 2cbe 5296 503e cf11 3cbe
00000180: 51bc f5bd fe5a 033e d209 babc f1f3 0c3e
00000190: 48f4 b43d 4289 7c3e 53c1 b33d 5314 c93d
000001a0: d6df e23c 8e35 3cbe 9377 d83d 671b 333e
000001b0: b998 d8bd 2008 a73d 9f51 0b3c fb1a 2a3d
000001c0: 4404 503e 5cfe 423e be38 ed3d 770b 22be
000001d0: d2da 60bd bfbf a2b9 d34c 4abc eb10 043d
000001e0: 2796 473e ff6b d6bd 5964 7ebe ea16 723e
000001f0: 3f15 f23d c491 5c3e 48aa 34be 9975 6c3e
00000200: cc5b 1ebe 3948 2f3e 4987 91bd 8ec4 2abe
00000210: 3897 d63d 1068 56be 30c0 073e 2c64 1e3d
00000220: c895 65be 6e30 3d3d c123 4a3c e7ee 7d3e
00000230: 0b78 013e 5d7b e23d e89b 66be 83b4 32be
00000240: e441 c5bd 46f8 313e 6086 833e c2db 87be
00000250: c50f a9bd c0dd 4cbe 36e0 333e 7f63 ee3d
00000260: 4696 68bc eaff cdbd 5a25 9abd 895d d43b
00000270: 6735 163e 2d46 0fbe f192 8b3e bac3 1f3e
00000280: 6a57 263e 3311 a3bd dec3 d53d f998 2d3e
00000290: 9d3b e13c 7398 383e 0b69 20be 27b0 233e
000002a0: 35cd 743d 68d8 cf3d c80f 653e 1c64 633d
000002b0: e29c 9f3e fa88 5e3e 8bf6 0f3e 7cd9 48be
000002c0: 3eeb 1ebd c52a c63d bcf1 9f3c d8cc 213e
000002d0: 4911 1fbb a6c6 9bbd 1d96 72be 95fc 5cbe
000002e0: 53dd 5dbd d396 993d 232f 373e b115 52bd
000002f0: d437 87be 78a2 98bd b9f8 4b3d 13b5 713e
00000300: 5178 60bd 4e85 bcbc 4d06 83bd 3d78 a63d
00000310: f17d 053e cbf0 023e f522 0dbe 066f b23d
00000320: 8c94 ebbc f143 be3d c75c eb3d 8985 67be
00000330: 4403 1dbe 5422 30be 8d08 7ebd 02a3 abbd
00000340: a9f9 3f3d 1b20 663e f46c fd3d b113 d8bd
00000350: a275 dd3d 244a ccbd 934d 133e 5a78 b63d
00000360: c39e 84bd ba21 663d fec1 3d3d 6b98 82be
00000370: 38e3 71be 323a 203e 43ba 78be 31df 6a3d
00000380: a492 82be 454a c9bd 3de0 333d 6252 9a3d
00000390: ca9e 8f3e 009d b83d 17e9 8e3c 25d1 543d
000003a0: bdc9 6c3e 9b84 84bd 5602 5f3e e9df 12be
000003b0: 3985 81be 4ed7 5d3c 20f1 41be c05a e13d
000003c0: 80b9 abbd e4a9 533e 6b7e f6bd 9ea7 493e
000003d0: 087b c8bd 2afc ac3d ffeb 913d 36d6 fbbe
000003e0: 7d36 0ebe 9260 5ebe 9985 513e e1bd 04bd
000003f0: 021d ba3d 710d 6cbc ac40 b03d 055b 0a3e

convs.0.krv__interacts__event.lin_rel.weight f4 [24, 20]
-0.08845891 0.15285017 -0.23597051 -0.1804856 0.22855167 -0.2504321 -0.10019667 0.14558135
0.024981221 0.024085753 -0.153014 0.11202848 -0.13222247 -0.2159983 -0.032984678 -0.124807954
-0.0866663 0.08126975 -0.14540476 -0.088372335 0.2803785 0.2142684 -0.13085587 0.13950951
-0.055767458 0.23144192 0.14578244 0.21257558 -0.20999447 0.11520242 -0.10186555 -0.11775561
-0.011651846 0.15982601 0.14720838 0.0936778 -0.01302524 0.0826408 0.110603645 0.1141434
-0.10625174 -0.181902 0.10166356 -0.20274225 -0.10561392 0.19486704 0.15958074 0.16766202
-0.1782881 0.19533184 -0.2790696 0.15788285 0.042596646 0.08705245 0.05327212 0.09549986
-0.21371107 0.10421874 -0.24324661 -0.12971038 -0.06441806 -0.15979701 -0.058396228 -0.113630995
-0.062844045 0.15540297 -0.059218783 -0.005961956 -0.012994582 -0.15742739 -0.06207576 -0.04796545
0.1945658 -0.19591062 0.14737172 0.033275668 0.1561456 -0.16306192 0.005602704 0.18374796
-0.04875924 0.17808218 -0.116717465 0.032407157 -0.021771884 -0.05900662 0.14567399 -0.19567734
0.090149686 -0.12990807 0.010629617 -0.23988265 -0.18527158 -0.103523724 -0.2401963 -0.11050571
-0.008454061 -0.09209842 0.0373433 0.03550646 0.058702007 0.1929872 -0.13220601 -0.06757843
0.13644896 -0.013278191 0.104593724 -0.021272274 0.042957764 0.07776193 -0.0824832 0.06915859
0.037604365 -0.13365033 0.22877158 0.068159044 0.23778862 -0.13375466 0.23421697 -0.17240204
0.041366823 -0.1294993 -0.10043746 -0.1998337 0.018558139 -0.12165468 0.09932213 0.10713042
-0.05032744 0.09116836 -0.045270726 0.22371927 -0.14239591 0.18658718 0.031451773 -0.10037078
-0.07380977 -0.14219233 0.27804178 -0.002310396 -0.06719037 0.018666461 -0.13384327 -0.06408695
-0.026638882 0.08928448 -0.091405936 0.17660064 -0.0026560442 0.16277407 -0.17555735 0.027766619
0.0056333356 0.07968822 -0.036608305 0.21493018 -0.05914113 -0.14227033 0.039991025 -0.10192105
-0.16940242 -0.05749456 0.23709573 -0.11237353 0.1389612 0.084596455 0.012991961 -0.13686386
-0.15123223 -0.15609992 -0.028326374 -0.051440984 0.07015926 0.21354361 -0.056638937 0.0492445
-0.066321835 0.15542975 0.04592235 0.090859845 -0.00282794 -0.042465158 0.017379433 -0.18152875
0.26324046 0.03597765 0.13407324 0.23182787 0.0004303465 0.019175805 -0.012437633 -0.016084617
0.13842832 0.028332544 0.11552088 0.004844411 0.22925368 0.13902383 0.2827263 -0.15556799
-0.09584651 -0.083299085 -0.1464172 -0.012871583 -0.25871676 0.10137085 -0.114490286 -0.26959908
-0.22182138 -0.17722712 0.029519834 0.06571843 0.11531126 0.14085373 -0.010451982 -0.087793015
-0.11536238 0.019331248 0.0027220093 -0.16507056 -0.28518865 -0.09387804 0.17268856 -0.2240612
0.14993554 -0.033267897 0.09959093 -0.22170325 -0.030089427 -0.16831058 0.0844477 -0.15444103
-0.110625885 -0.14085346 -0.046982266 -0.1419412 -0.062959366 0.13340382 -0.095774844 -0.1314007
-0.078816324 -0.025829474 0.10205675 0.097834624 -0.08575334 -0.04791227 -0.1033841 -0.12174809
0.06758318 0.19478758 -0.08778523 0.11195298 -0.17361253 -0.05912081 0.0439599 0.04144801
00000000: f229 b5bd c184 1c3e 41a2 71be 38d1 38be
00000010: 7309 6a3e a338 80be e933 cdbd 4713 153e
00000020: 6ba5 cc3c 7c4f c53c b4af 1cbe 306f e53d
00000030: 5465 07be a92e 5dbe f11a 07bd 509b ffbd
00000040: 1a7e b1bd c170 a63d fce4 14be 8efc b4bd
00000050: c58d 8f3e 2d69 5b3e 15ff 05be 95db 0e3e
00000060: 6b6c 64bd 1cff 6c3e fe47 153e 6aad 593e
00000070: ca08 57be 3fef eb3d e39e d0bd da29 f1bd
00000080: 62e7 3ebc 6ea9 233e cbbd 163e 25da bf3d
00000090: d167 55bc 943f a93d 2a84 e23d 04c4 e93d
000000a0: 839a d9bd 8544 3abe fc34 d03d aa9b 4fbe
000000b0: 1c4c d8bd 3a8b 473e 2269 233e 98af 2b3e
000000c0: 2891 36be 1205 483e 36e2 8ebe 0bac 213e
000000d0: d279 2e3d 8e48 b23d de33 5a3d 6e95 c33d
000000e0: 13d7 5abe a270 d53d a415 79be ccd2 04be
000000f0: 9eed 83bd d4a1 23be e230 6fbd 5eb7 e8bd
00000100: 61b4 80bd f521 1f3e 658f 72bd 835c c3bb
00000110: 3ae7 54bc a534 21be 2743 7ebd 6b77 44bd
00000120: 423c 473e cb9c 48be 9de8 163e 114c 083d
00000130: a2e4 1f3e b4f9 26be e396 b73b 6d28 3c3e
00000140: c5b7 47bd 2d5b 363e 9109 efbd 5ebd 043d
00000150: f35a b2bc edb0 71bd 902b 153e a45f 48be
00000160: 66a0 b83d 9f06 05be d827 2e3c cca3 75be
00000170: d5b7 3dbe 3f04 d4bd 05f6 75be d150 e2bd
00000180: e782 0abc 199e bcbd 4af5 183d 396f 113d
00000190: 8471 703d 709e 453e 0361 07be 8f66 8abd
000001a0: 47b9 0b3e c58c 59bc 3c35 d63d 3143 aebc
000001b0: 7bf4 2f3d a641 9f3d f4ec a8bd 05a3 8d3d
000001c0: 0907 1a3d a2db 08be 1943 6a3e f896 8b3d
000001d0: dc7e 733e fbf6 08be 93d6 6f3e 298a 30be
000001e0: 4270 293d 779b 04be 28b2 cdbd 35a1 4cbe
000001f0: 3d07 983c 1726 f9bd 6769 cb3d 3267 db3d
00000200: 2524 4ebd 7ab6 ba3d cc6d 39bd aa16 653e
00000210: 3cd0 11be b610 3f3e 93d3 003d 328f cdbd
00000220: 9429 97bd de9a 11be 7e5b 8e3e 036a 17bb
00000230: 1b9b 89bd 68ea 983c 360e 09be 0540 83bd
00000240: c939 dabc c8da b63d 0933 bbbd ccd6 343e
00000250: 0711 2ebb 3fae 263e 4ec5 33be d276 e33c
00000260: d897 b83b 9433 a33d 97f2 15bd a816 5c3e
00000270: f83d 72bd 50af 11be a1cd 233d fcbb d0bd
00000280: d477 2dbe 6a7f 6bbd 39c9 723e 1824 e6bd
00000290: d84b 0e3e e840 ad3d 3cdc 543c 0a26 0cbe
000002a0: 9fdc 1abe a8d8 1fbe b60c e8bc c8b3 52bd
000002b0: a8af 8f3d 2dab 5a3e 3bfe 67bd 9ab4 493d
000002c0: bed3 87bd fa28 1f3e 1319 3c3d ba14 ba3d
000002d0: f654 39bb f2ef 2dbd 505f 8e3c ace2 39be
000002e0: 74c7 863e 4d5d 133d 7f4a 093e 4964 6d3e
000002f0: 21a0 e139 9416 9d3c 37c7 4bbc e3c3 83bc
00000300: 27c0 0d3e a719 e83c 3696 ec3d ddbd 9e3b
00000310: 7ac1 6a3e 435c 0e3e 80c1 903e 374d 1fbe
00000320: 2d4b c4bd b698 aabd 64ee 15be 55e3 52bc
00000330: 8676 84be 859b cf3d e279 eabd e408 8abe
00000340: 2525 63be 077b 35be 94d3 f13c 6297 863d
00000350: 4f28 ec3d f63b 103e ca3e 2bbc d3cc b3bd
00000360: 1d43 ecbd 915c 9e3c bd63 323b 4208 29be
00000370: 3f04 92be 2143 c0bd 45d5 303e 4d70 65be
00000380: b488 193e eb43 08bd 54f6 cb3d 2d06 63be
00000390: 1a7e f6bc 9c59 2cbe eaf2 ac3d ca25 1ebe
000003a0: d38f e2bd e43b 10be 7a70 40bd 0959 11be
000003b0: d7f0 80bd 039b 083e 9a25 c4bd e88d 06be
000003c0: 746a a1bd 5598 d3bc 2103 d13d 855d c83d
000003d0: 729f afbd a83f 44bd 0bbb d3bd 1057 f9bd
000003e0: 0d69 8a3d 6576 473e bec8 b3bd 9b47 e53d
000003f0: 7cc7 31be aa28 72bd 4c0f 343d 63c5 293d

convs.0.krv__interacts__event.lin_rel.bias f4 [24]
-0.097597346 -0.14492585 0.19795708 -0.088993914 0.020981183 0.14644466 0.17749998 -0.15059638
0.23126848 -0.10624417 -0.13328457 0.002076811 0.1472735 -0.19514646 -0.06808293 -0.1264983
-0.009185496 0.1311715 -0.028223163 -0.068272196 0.05714636 -0.10748917 0.19441205 0.16436085
00000000: 1ee1 c7bd 7167 14be 43b5 4a3e 7142 b6bd
00000010: bbe0 ab3c 97f5 153e 8ec2 353e f035 1abe
00000020: a5d1 6c3e 8b96 d9bd c07b 08be 1b1b 083b
00000030: ddce 163e 79d4 47be 106f 8bbd c588 01be
00000040: c37e 16bc d251 063e 4334 e7bc 4bd2 8bbd
00000050: 4d12 6a3d 4823 dcbd f413 473e 364e 283e

convs.0.krv__interacts__event.lin_root.weight f4 [24, 15]
0.21609041 0.17104292 -0.26655203 0.27422425 -0.08566139 0.12431168 -0.056925774 0.23872858
-0.28626478 0.029727507 -0.044186976 0.19810562 0.1465784 -0.234046 0.06875006 -0.18059719
-0.016059646 -0.114435166 0.17916304 0.024750847 0.05609667 -0.20167343 -0.3382177 -0.23039566
0.033905793 0.07665536 -0.24547835 -0.09462512 0.2094898 0.090539485 0.010574627 0.24565925
0.23003624 -0.08160387 0.007205358 -0.14511955 0.22488195 0.07420363 -0.03416248 -0.06628876
-0.19346334 0.15644439 -0.12796536 0.21266732 -0.17923911 -0.2666877 -0.21566339 -0.04573429
0.27621228 0.03540278 -0.22018266 -0.19543913 0.069541536 -0.24748115 0.2135464 0.17636043
0.063032344 -0.05658001 -0.07325267 -0.025134118 0.31175202 -0.18973774 0.08774959 0.045887753
-0.15780678 -0.04566896 -0.10182936 -0.050554127 0.006182359 -0.13461857 -0.17084144 0.049029037
-0.11784579 -0.11036331 0.047374923 -0.24405229 -0.12947372 0.23970284 0.084121354 0.049961466
-0.074463196 0.0064281677 -0.012633669 0.027503699 -0.19355279 -0.15198833 0.006290196 -0.12660424
0.12302344 -0.13066979 -0.116317965 0.03693292 0.06733884 -0.23683256 -0.041166663 -0.11481568
0.1884173 -0.014791936 -0.07472169 0.103151254 0.17337665 -0.06871956 0.17431895 0.2313434
0.15955526 -0.0014256922 0.12794465 0.011668551 0.07705946 0.03408871 -0.19059238 0.058225498
0.33931795 -0.071131 0.10405503 0.037395295 -0.1262895 0.059166037 0.0036154625 -0.23670302
-0.12138164 0.09701924 -0.09248042 0.26069874 0.12890112 0.13383861 -0.033463847 -0.116259865
-0.23564614 0.25315663 -0.13942541 -0.23971014 0.030592717 0.1624308 0.07576004 -0.09594185
-0.061479725 0.19722323 0.13857916 0.08297505 -0.030520694 0.04336612 -0.18396659 0.056090664
-0.035158705 -0.037361532 -0.11540858 0.1296025 -0.22181027 -0.15241149 0.25180158 0.006877793
-0.016813528 0.10374008 -0.09901773 -0.15248975 -0.014667159 -0.45669195 0.14583051 -0.15598272
0.04861921 -0.04067989 0.27280125 0.18324867 -0.20863678 -0.13460279 0.15829131 -0.2666254
0.230018 0.20108666 0.23024192 0.037495237 0.052947797 -0.23655137 0.26478955 -0.1360663
0.02375995 -0.036874786 -0.18174078 0.046235003 -0.0005730346 -0.073475525 -0.0037086033 -0.04683011
0.1480635 0.09104921 0.23412308 -0.029539848 0.017974826 0.15040156 -0.10132648 0.25083286
0.15687719 -0.045813672 0.09612551 0.031338215 0.09938975 -0.15362005 -0.23425066 -0.16955854
0.0031547612 -0.15967855 -0.033781607 0.23988178 -0.08574918 -0.13093925 -0.13836022 0.21441585
0.12587214 -0.22826207 -0.034983672 0.25307167 -0.1780461 -0.18637514 -0.18854731 0.22046658
-0.054511473 -0.2389947 -0.18720499 -0.104439236 0.19066222 0.14951086 -0.24141848 -0.15457398
0.14886147 0.050326332 -0.13195251 -0.12451389 0.1075097 -0.18971471 -0.23914777 0.12581182
0.039178506 0.018256892 0.08828179 0.13505402 0.10025228 0.10147103 0.035112042 0.05223064
-0.14775382 0.07790716 -0.19101444 0.15344429 0.28367284 -0.048708696 0.15068704 -0.3058284
-0.0809975 0.07916223 -0.039857544 0.2768207 -0.17369851 -0.14621489 -0.17398302 -0.080115415
00000000: ce46 5d3e e025 2f3e 8279 88be 1f67 8c3e
00000010: 3d6f afbd 1f97 fe3d 002b 69bd 4475 743e
00000020: 4c91 92be 1a87 f33c 67fd 34bd 33dc 4a3e
00000030: a618 163e c1a9 6fbe d5cc 8c3d 78ee 38be
00000040: 858f 83bc fc5c eabd 8476 373e 4ac2 ca3c
00000050: 9fc5 653d 7b83 4ebe df2a adbe d7ec 6bbe
00000060: cde0 0a3d 7cfd 9c3d ad5e 7bbe d1ca c1bd
00000070: 7e84 563e c46c b93d 3341 2d3c 198e 7b3e
00000080: 9f8e 6b3e ee1f a7bd ec1a ec3b 389a 14be
00000090: 7447 663e 13f8 973d f5ed 0bbd 67c2 87bd
000000a0: 411b 46be f532 203e 5a09 03be 76c5 593e
000000b0: 758a 37be 4a8b 88be ddd6 5cbe e153 3bbd
000000c0: b26b 8d3e 8102 113d 9077 61be 3221 48be
000000d0: cb6b 8e3d b36b 7dbe e8ab 5a3e d497 343e
000000e0: 1a17 813d 71c0 67bd 7f05 96bd 11e6 cdbc
000000f0: f69d 9f3e 9c4a 42be 0fb6 b33d ccf4 3b3d
00000100: 1a98 21be 600f 3bbd e98b d0bd d811 4fbd
00000110: 6395 ca3b 73d9 09be 0ff1 2ebe acd2 483d
00000120: 2259 f1bd 2906 e2bd 350c 423d d8e8 79be
00000130: c294 04be a974 753e d147 ac3d 65a4 4c3d
00000140: 2980 98bd 61a3 d23b 73fd 4ebc 704f e13c
00000150: b432 46be d4a2 1bbe fd1d ce3b 8ba4 01be
00000160: b7f3 fb3d 4dce 05be 1d38 eebd f946 173d
00000170: f2e8 893d 3c84 72be 609e 28bd 7c24 ebbd
00000180: 77f0 403e e059 72bc af07 99bd f740 d33d
00000190: a689 313e d7bc 8cbd ab80 323e 49e5 6c3e
000001a0: 7462 233e 4bde baba ec03 033e 732d 3f3c
000001b0: 5ad1 9d3d 9aa0 0b3d a62a 43be dc7d 6e3d
000001c0: 15bb ad3e 21ad 91bd ce1a d53d cf2b 193d
000001d0: 0952 01be 1658 723d 65f1 6c3b 4762 72be
000001e0: f096 f8bd 06b2 c63d 6066 bdbd 4e7a 853e
000001f0: a8fe 033e fd0c 093e 6311 09bd a719 eebd
00000200: 394d 71be bf9d 813e 89c5 0ebe 9376 75be
00000210: 949d fa3c 4254 263e 1428 9b3d 297d c4bd
00000220: 2ad2 7bbd e3f4 493e b2e7 0d3e d3ee a93d
00000230: 8906 fabc aca0 313d bd61 3cbe 53bf 653d
00000240: 9302 10bd 6808 19bd 555b ecbd 85b6 043e
00000250: 3b22 63be c211 1cbe 23ec 803e 1c5f e13b
00000260: 86bc 89bc ae75 d43d cfc9 cabd 4626 1cbe
00000270: 864e 70bc 87d3 e9be 9854 153e efb9 1fbe
00000280: f024 473d f59f 26bd 9bac 8b3e 8aa5 3b3e
00000290: e1a4 55be 50d5 09be 1e17 223e 2083 88be
000002a0: d789 6b3e a9e9 4d3e 8ac4 6b3e 9b94 193d
000002b0: cadf 583d 863a 72be 7f92 873e f754 0bbe
000002c0: 3aa4 c23c 040a 17bd 411a 3abe ea60 3d3d
000002d0: b337 16ba 567a 96bd 0a0c 73bb eed0 3fbd
000002e0: f59d 173e 0278 ba3d f6bd 6f3e 8dfd f1bc
000002f0: f13f 933c de02 1a3e 4284 cfbd 2a6d 803e
00000300: 6aa4 203e 1ea7 3bbd 74dd c43d 805c 003d
00000310: da8c cb3d 934e 1dbe 68df 6fbe c1a0 2dbe
00000320: 1cc0 4e3b c682 23be 955e 0abd 92a3 753e
00000330: 449d afbd f014 06be 4dae 0dbe d48f 5b3e
00000340: a0e4 003e 88bd 69be 0a4b 0fbd 9c92 813e
00000350: b851 36be 20d9 3ebe 8c12 41be fec1 613e
00000360: 6c47 5fbd 07bb 74be aab2 3fbe 3de4 d5bd
00000370: f53c 433e 6019 193e 6836 77be a448 1ebe
00000380: 246f 183e fc22 4e3d 8f1e 07be 2301 ffbd
00000390: 0c2e dc3d 9344 42be 27e3 74be d0d4 003e
000003a0: a479 203d 7a8f 953c 15cd b43d 9a4b 0a3e
000003b0: 1151 cd3d 0bd0 cf3d a5d1 0f3d ccef 553d
000003c0: c74c 17be ca8d 9f3d 4a99 43be 8020 1d3e
000003d0: 913d 913e c582 47bd b44d 1a3e 8a95 9cbe
000003e0: 04e2 a5bd cf1f a23d aa41 23bd 71bb 8d3e
000003f0: 06de 31be 5bb9 15be 9b28 32be 8d13 a4bd

convs.0.cv__interacts__event.lin_rel.weight f4 [24, 20]
-0.0996852 -0.029379217 0.35453495 0.25253543 -0.074301794 0.18587485 0.054385006 0.18533826
0.11252446 -0.022559684 0.3209097 -0.084243864 0.026851982 0.15164019 0.042685 0.11831224
0.2708888 0.25186458 -0.04495587 0.12920266 -0.25659135 -0.09888623 0.014071487 0.084183626
0.077713266 0.044574667 -0.14442857 0.09451466 0.21067475 -0.17089066 0.022313438 -0.009422518
-0.0064977235 0.11935041 -0.010956378 -0.08983461 -0.077376045 0.14404006 -0.061881687 0.029963173
-0.14879353 0.015019728 0.08464718 0.14160532 -0.11682168 0.0772162 -0.18074195 -0.13217291
-0.15234834 0.05782685 0.2958798 0.16190378 0.011658027 -0.051226083 0.05502157 -0.1528832
-0.1740521 -0.0455615 -0.11174176 -0.07924011 0.2452177 -0.2246734 0.049095828 -0.19477773
-0.16860348 0.094735235 -0.13603844 0.015796872 -0.23040052 -0.10375372 -0.04423556 0.13814336
-0.010976807 0.11146125 0.010031945 -0.067782626 -0.20846194 -0.2032321 -0.0767581 0.19414316
0.13346958 0.041730866 0.19253549 -0.08021739 -0.105704874 0.049534768 -0.19660066 0.0058058538
-0.19095883 -0.09144814 0.088150084 -0.09276718 -0.2134752 0.18468864 -0.026033781 -0.06463287
0.015603995 0.03633405 0.1896783 -0.1982835 0.16433175 0.13804303 -0.13987279 0.22981375
-0.089358985 -0.0034954923 -0.031483937 0.018190015 -0.17675394 0.18487754 -0.10745753 0.013079541
0.015115541 -0.10970682 0.21938543 0.20642366 -0.13247783 0.19201256 -0.003546473 0.07932636
-0.13391648 0.16906834 0.055368353 -0.11784546 0.14308627 0.13119031 -0.024419896 0.24688567
0.070454895 -0.1282679 -0.1790268 -0.009273583 -0.06302427 0.14161484 0.034700822 0.18729217
0.17946565 -0.07298723 0.011062228 -0.0501361 0.017677594 0.1737849 0.02451287 -0.00881309
0.17240661 0.15629512 0.14183883 0.030310791 0.10762603 0.011537351 -0.054290466 0.075461105
-0.07480259 0.20757797 0.12302039 0.12609963 0.1704636 0.23509617 -0.021355238 0.017019039
0.1922769 -0.10021411 0.14618121 0.017808655 0.10654042 -0.15739228 0.06360977 -0.12530974
0.23623973 -0.094645895 -0.05857782 -0.01615336 0.111884356 0.20551123 -0.051748745 -0.02086133
0.02453657 0.21578912 0.14914197 -0.15280585 -0.18998745 -0.021919578 -0.10034916 0.07147857
0.062022895 0.022371436 0.03292349 -0.1951848 -0.15559687 -0.15096352 -0.07698 0.06377154
-0.19085078 -0.02808035 -0.06790738 -0.016752621 -0.17391753 -0.1313194 0.15042603 0.1517107
0.053676587 0.06496844 0.16586173 -0.001979212 -0.270264 0.1258696 0.06324135 -0.16611896
-0.0487343 -0.1734499 -0.026522793 0.12011156 -0.07508111 -0.12175199 0.15871374 0.08761143
-0.20946991 -0.06141525 0.16309361 -0.1365884 0.1729854 0.11986147 -0.04513611 0.08770144
0.054990537 0.1592548 -0.026594758 -0.1476627 0.12858872 -0.13257274 0.092518315 0.05794662
0.088112295 0.05877649 0.07119784 -0.087842345 -0.07424754 -0.063126184 -0.13078523 -0.0878591
0.026996791 -0.101035096 -0.21008524 -0.1453912 0.1108159 0.107818194 -0.001178342 -0.21491534
0.11870182 -0.14587499 -0.03556304 0.2108565 -0.042901415 0.036263548 -0.086881354 -0.034897547
00000000: c127 ccbd afac f0bc 9b85 b53e 534c 813e
00000010: 8a2b 98bd fa55 3e3e d0c2 5e3d 50c9 3d3e
00000020: 3973 e63d 16cf b8bc 474e a43e 0c88 acbd
00000030: b0f8 db3c 9147 1b3e 77d6 2e3d b04d f23d
00000040: f0b1 8a3e 65f4 803e a523 38bd b44d 043e
00000050: f15f 83be dd84 cabd 188c 663c 7768 ac3d
00000060: 2228 9f3d ed93 363d 15e5 13be e790 c13d
00000070: 1fbb 573e f6fd 2ebe acca b63c e860 1abc
00000080: dbea d4bb fd6d f43d 6182 33bc 35fb b7bd
00000090: 5577 9ebd 3d7f 133e a777 7dbd 5475 f53c
000000a0: 555d 18be 4e15 763c 805b ad3d fc00 113e
000000b0: 3440 efbd 8723 9e3d 6b14 39be 5658 07be
000000c0: 3401 1cbe d9db 6c3d 8f7d 973e 1bca 253e
000000d0: 4f01 3f3c 71d2 51bd 4c5e 613d 6a8d 1cbe
000000e0: b73a 32be b29e 3abd ddd8 e4bd a448 a2bd
000000f0: 591a 7b3e c910 66be b518 493d d073 47be
00000100: 64a6 2cbe 8c04 c23d a94d 0bbe 7168 813c
00000110: 1dee 6bbe d57c d4bd 5930 35bd 7475 0d3e
00000120: 11d8 33bc cc45 e43d 075d 243c 9ed1 8abd
00000130: 0c77 55be 131c 50be 5a33 9dbd 77cd 463e
00000140: 40ac 083e fced 2a3d 0628 453e 0449 a4bd
00000150: cc7b d8bd f8e4 4a3d af51 49be 083f be3b
00000160: b68a 43be 2a49 bbbd 0888 b43d b8fc bdbd
00000170: 3e99 5abe 051f 3d3e cc44 d5bc 3d5e 84bd
00000180: e6a7 7f3c 03d3 143d 073b 423e d40a 4bbe
00000190: 9546 283e 275b 0d3e d03a 0fbe 4c54 6b3e
000001a0: d801 b7bd a114 65bb 4df5 00bd 3a03 953c
000001b0: fcfe 34be 8a50 3d3e b212 dcbd 924b 563c
000001c0: 2da7 773c f8ad e0bd 93a6 603e b960 533e
000001d0: 45a8 07be f19e 443e f26b 68bb dc75 a23d
000001e0: 6721 09be 4020 2d3e edc9 623d f658 f1bd
000001f0: 3585 123e c156 063e 3c0c c8bc 99cf 7c3e
00000200: a84a 903d a958 03be cd52 37be 3af0 17bc
00000210: de12 81bd 7b03 113e 7322 0e3d 85c9 3f3e
00000220: d8c5 373e 547a 95bd 593e 353c 835b 4dbd
00000230: 9ad0 903c abf4 313e 37cf c83c c764 10bc
00000240: 5c8b 303e d40b 203e 333e 113e 564e f83c
00000250: 096b dc3d 2807 3d3c ae5f 5ebd 5a8b 9a3d
00000260: 1a32 99bd 528f 543e 1df2 fb3d 4320 013e
00000270: 038e 2e3e 0dbd 703e 2ef1 aebc 836b 8b3c
00000280: 3ce4 443e 0e3d cdbd 87b0 153e 75e3 913c
00000290: dd31 da3d 712b 21be d745 823d 3251 00be
000002a0: d4e8 713e b5d5 c1bd 4cef 6fbd 0d54 84bc
000002b0: a023 e53d 8971 523e 7ef6 53bd 61e5 aabc
000002c0: eb00 c93c d3f7 5c3e acb8 183e 2379 1cbe
000002d0: 128c 42be b090 b3bc dc83 cdbd 5b63 923d
000002e0: b80b 7e3d 4d44 b73c c8da 063d 86de 47be
000002f0: c954 1fbe 2e96 1abe b1a7 9dbd a79a 823d
00000300: 636e 43be c308 e6bc 0613 8bbd cb3c 89bc
00000310: 7017 32be 9878 06be 4809 1a3e 0d5a 1b3e
00000320: fbdb 5b3d 2c0e 853d a8d7 293e abb5 01bb
00000330: 0b60 8abe f6e3 003e ae84 813d 171b 2abe
00000340: 9e9d 47bd da9c 31be 5446 d9bc 0dfd f53d
00000350: 20c4 99bd 1b59 f9bd db85 223e 9f6d b33d
00000360: 487f 56be 8f8e 7bbd 0302 273e d4dd 0bbe
00000370: 1623 313e ee79 f53d a4e0 38bd d09c b33d
00000380: c23d 613d b113 233e 40dd d9bc e434 17be
00000390: c3ac 033e 26c1 07be 3e7a bd3d 6f59 6d3d
000003a0: 3874 b43d 9ebf 703d 2cd0 913d b0e6 b3bd
000003b0: 180f 98bd 4d48 81bd 90ec 05be 79ef b3bd
000003c0: 6028 dd3c 7deb cebd 9620 57be 6ee1 14be
000003d0: 72f3 e23d c9cf dc3d 9972 9aba c412 5cbe
000003e0: f119 f33d 4160 15be 8daa 11bd c4ea 573e
000003f0: 65b9 2fbd 1689 143d daee b1bd bbf0 0ebd

convs.0.cv__interacts__event.lin_rel.bias f4 [24]
0.18776037 0.16216412 -0.10089286 0.08723925 0.0070181005 0.16028768 -0.035127666 0.117091686
-0.025079513 -0.06822535 -0.12069324 0.09750871 0.07431391 -0.06320819 0.1275706 0.092849985
0.21956037 -0.10869491 0.12977247 -0.023871077 0.20252518 0.19375283 -0.036116038 -0.015062117
00000000: 4144 403e 5a0e 263e eaa0 cebd 7eaa b23d
00000010: 18f8 e53b 7422 243e 07e2 0fbd c4cd ef3d
00000020: 8d73 cdbc bbb9 8bbd 042e f7bd a6b2 c73d
00000030: e431 983d 4c73 81bd dea1 023e 2228 be3d
00000040: 6fd4 603e 709b debd 13e3 043e 478d c3bc
00000050: c362 4f3e 2467 463e 69ee 13bd 19c7 76bc
