models/BPI17/hoeg/exp_information_leakage/lr=0.001_hidden_dim=48/GraphModule_20230821_14h22m/state_dict_epoch7.pt (torch, 146591 bytes, 33 tensors)

conv1.event__follows__event.lin_rel.weight f4 [48, 27]
0	0xbd254ff0	-0.040359437
1	0xbd71e2a0	-0.059054017
2	0x3e81b458	0.25332904
3	0x3e64f0c5	0.22357471
4	0x3d92687e	0.071488366
5	0x3d7ffb6c	0.062495634
6	0xbe0507f0	-0.12991309
7	0xbe24d96c	-0.16098565
8	0xbda84f32	-0.0821823
9	0xbe0af6b0	-0.13570666
10	0xbc85547e	-0.01627564
11	0x3e37c9c2	0.17948058
12	0x3d8b4b87	0.06801515
13	0x3dc2c2cc	0.09509811
14	0xbe076a46	-0.13224134
15	0xbdf84106	-0.12121777
16	0xbd73d7cc	-0.05953197
17	0xbd872f1b	-0.066007815
18	0xbde37d60	-0.11107898
19	0xbded5c08	-0.11589819
20	0x3e160e1b	0.14653818
21	0xbea1d97a	-0.31611234
22	0xbe42a64f	-0.19008754
23	0x3dd660b9	0.10467667
24	0x3e2d48f4	0.1692236
25	0x3d91e289	0.07123286
26	0xbe05bb6d	-0.13059779
27	0xbd5b2a59	-0.053507183
28	0xbe14ee84	-0.14544111
29	0xbddf8b1d	-0.10915206
30	0xbdf8b0b4	-0.121430784
31	0xbe63b613	-0.22237425
32	0xbd9fe7b2	-0.07807864
33	0xbe7fcd54	-0.2498067
34	0x3e007663	0.12545161
35	0xbe3c2639	-0.18373956
36	0xbe7f89af	-0.24954866
37	0xbe5e851c	-0.21730465
38	0xbe1eaa4f	-0.15494655
39	0x3c9aed1d	0.018911893
40	0xbe10b9b2	-0.14133337
41	0xbe8b7d8e	-0.27244228
42	0xbe218b4e	-0.15775797
43	0xbc875b91	-0.016523154
44	0xbe716018	-0.23571813
45	0xbd445fac	-0.047942802
46	0xbe64dc66	-0.223497
47	0x3dbf67ad	0.093459465
48	0xbecf8fe3	-0.40539464
49	0xbe78cba6	-0.24296436
50	0x3ccaafba	0.024741996
51	0xbdecbaaa	-0.11559041
52	0xbde06164	-0.10956076
53	0xbde8858d	-0.11353598
54	0xbe2454a2	-0.1604791
55	0x3db0f919	0.086412616
56	0x3d9a41b6	0.075320646
57	0xbae4deca	-0.0017461416
58	0xbe3a30f0	-0.1818273
59	0x3d5b6800	0.05356598
60	0xbdc62080	-0.09674168
61	0x3e3d782e	0.18502876
62	0x3e06775f	0.13131474
63	0xbe0341ef	-0.1281812
64	0xbe2d621a	-0.16931954
65	0xbc3d5ccf	-0.011557772
66	0xbe32a41e	-0.17445418
67	0xbe3e514f	-0.18585704
68	0xbe804f13	-0.2506033
69	0xbe151c10	-0.14561486
70	0xbe61aa64	-0.22037655
71	0xbe6861a1	-0.22693492
72	0xbd96dff1	-0.07366932
73	0xbd74af62	-0.05973757
74	0x3db9ca49	0.09071786
75	0xbf105a03	-0.56387347
76	0xbe4a4efb	-0.19756691
77	0xbda6b892	-0.08140673
78	0xbddd24a5	-0.10798005
79	0xbc90de3a	-0.01768409
80	0xbde55793	-0.11198344
81	0x3d62ea46	0.0553992
82	0x3d9920d2	0.07476963
83	0x3d1e95d6	0.038717113
84	0xbe0c8d49	-0.13725771
85	0x3e396c7b	0.18107788
86	0xbe0eca6d	-0.13944407
87	0x3d909bab	0.07060941
88	0x3da6f66b	0.08152469
89	0x3e207a14	0.15671569
90	0x3d84e3d8	0.0648877
91	0x3e0e8898	0.13919294
92	0x3db6ece7	0.08931904
93	0x3cd48292	0.025941167
94	0x3dbdc9c1	0.09266997
95	0x3d8a98d0	0.06767428
96	0x3e4b01a4	0.19824845
97	0xbd7f06a9	-0.06226221
98	0xbd80bafd	-0.06285665
99	0xbe11dbc1	-0.14243986
100	0xbd0f0abb	-0.034922343
101	0x3e419d08	0.18907559
102	0x3ed849cd	0.42243806
103	0xbc4b0e80	-0.012393594
104	0xbd376097	-0.04476985
105	0x3b742365	0.0037252542
106	0x3e011a27	0.12607633
107	0xbe247f23	-0.16064124
108	0xbe1780e1	-0.14795257
109	0xbda83230	-0.082126975
110	0xbe3566da	-0.17715016
111	0x3c841a7d	0.016125912
112	0xbdd41289	-0.10355098
113	0xbc2684f4	-0.010163534
114	0xbcb1dc36	-0.02171145
115	0xbe2b0ac7	-0.1670333
116	0x3e3b9c8a	0.18321434
117	0xbddfcbca	-0.109275416
118	0x3d891c24	0.066948205
119	0x3cb93422	0.022607867
120	0x3d70f8b5	0.058830936
121	0xbdf16486	-0.117867514
122	0xbe13e31e	-0.14442107
123	0x3d7d1a90	0.06179291
124	0xbdab25d4	-0.083568245
125	0x3d3d2c94	0.04618509
126	0xbdc31c60	-0.095268965
127	0xbc1cc101	-0.0095675
128	0x3dffb93b	0.12486502
129	0xbedb8d3d	-0.42881194
130	0xbdfbbe19	-0.122921176
131	0xbe54e6cb	-0.20791166
132	0x3c7b6b79	0.015345448
133	0x3ce95b5b	0.028485944
134	0x3d2a8412	0.04162986
135	0x3db83603	0.08994677
136	0x3dce6045	0.10076956
137	0xbe170537	-0.14748083
138	0xbca3b9cd	-0.019986058
139	0x3e410a02	0.18851474
140	0xbe5cf448	-0.21577561
141	0x3e2c73dd	0.16841073
142	0xbddb8849	-0.10719354
143	0xbdf92445	-0.12165121
144	0xbd92a44f	-0.071602456
145	0xbe345314	-0.17609817
146	0xbe13d4b7	-0.14436613
147	0xbd92bcd4	-0.07164922
148	0xbe43605a	-0.19079724
149	0xbe255c80	-0.16148567
150	0xbd07148b	-0.032978576
151	0xbd66f8ad	-0.0563895
152	0x3da34b9c	0.07973406
153	0xbdc1378c	-0.09434423
154	0x3cc4ade6	0.024008702
155	0xbdd89718	-0.10575694
156	0xbe779361	-0.24177314
157	0xbdd39834	-0.10331765
158	0x3da90bd5	0.0825421
159	0xbe22050a	-0.15822235
160	0xbd643f76	-0.055724584
161	0x3d1f5c42	0.038906343
162	0xbca98a0a	-0.020695705
163	0x3b8521b4	0.0040628556
164	0x3d2d0b7b	0.042247277
165	0xbc7c43f9	-0.015397065
166	0x3d2826ba	0.041052558
167	0x3e0a4c52	0.13505676
168	0x3e4e4b70	0.20145965
169	0x3e82594d	0.25458756
170	0xbd05b2c8	-0.032641202
171	0x3e115fc2	0.14196685
172	0x3e3dc4ae	0.18532059
173	0x3d0e49ee	0.034738474
174	0x3e73676f	0.23769926
175	0x3dcf7961	0.10130573
176	0xbdc67dc4	-0.09691957
177	0xbd2a3be6	-0.04156103
178	0x3e3c4a4d	0.18387718
179	0xbc42fd5f	-0.011901229
180	0xbda44bc9	-0.08022267
181	0xbb0481db	-0.0020219001
182	0x3e784dc1	0.24248411
183	0xbef72f7e	-0.4827842
184	0xbd4b3dd8	-0.049619526
185	0x3e07193c	0.1319322
186	0xbdf3a1e2	-0.11896111
187	0x3e944ad8	0.2896335
188	0x3d64a1f0	0.055818498
189	0xbd2b2df7	-0.041791882
190	0xbdd1cc18	-0.10244006
191	0xbe1a4d37	-0.15068518
192	0x3dcdb84f	0.1004492
193	0xbdd65035	-0.10464517
194	0x3e1306a2	0.14357999
195	0x3ddf0dbe	0.10891293
196	0x3ecbc538	0.39798903
197	0x3e03e0f9	0.12878789
198	0x3e59f751	0.2128575
199	0xbe105ade	-0.14097163
200	0xbe1b78a2	-0.15182737
201	0xbe13b85c	-0.14425796
202	0x3e223eee	0.15844318
203	0xbd246209	-0.040132556
204	0x3d8fa168	0.07013208
205	0xbdba14ed	-0.090860225
206	0xbe2137f0	-0.15743995
207	0xbd9f390b	-0.07774552
208	0x3e1d6e2c	0.15374058
209	0x3d899ebc	0.06719729
210	0xbe5a620c	-0.21326464
211	0x3e1703d0	0.14747548
212	0xbe5d6c5e	-0.2162337
213	0x3ba77b3a	0.0051111253
214	0xbd993b6b	-0.07482036
215	0x3ded4e50	0.115872025
216	0x3d9ab902	0.07554819
217	0x3c8ac309	0.016938703
218	0xbe1ddf8b	-0.15417306
219	0x3d25ce40	0.0404799
220	0x3e7f93b3	0.24958687
221	0x3d9c2fcb	0.07626303
222	0x3e3f8e96	0.18706736
223	0x3d487ec9	0.048949037
224	0xbd2547cc	-0.040351674
225	0x3d893a48	0.067005694
226	0x3db36e03	0.087612174
227	0xbaef5faf	-0.0018262769
228	0x3e078381	0.13233759
229	0x3e2cd83f	0.16879366
230	0x3d27f9a1	0.04100955
231	0x3e22ee5f	0.15911244
232	0xbd7712ff	-0.06032085
233	0xbe0775ae	-0.13228485
234	0x3e6a13cf	0.22859119
235	0xbd841e05	-0.06451038
236	0x3d3c28a3	0.04593719
237	0xbf1a0037	-0.6015658
238	0xbe04b796	-0.12960657
239	0xbd2189f7	-0.039438214
240	0x3d3503c9	0.044193063
241	0x3e4c167b	0.1993045
242	0xbda3835f	-0.079840414
243	0x3e0e4d90	0.13896775
244	0x3c907131	0.017632099
245	0x3d9d2109	0.076723166
246	0x3d9b8c28	0.07595092
247	0xbcc56758	-0.02409713
248	0x3e823221	0.2542887
249	0x3d4e8189	0.050416503
250	0xbe867983	-0.2626458
251	0x3dfe6a4b	0.124226175
252	0x3cacd4d3	0.021097576
253	0xbd5704f9	-0.052494977
254	0x3e54ddeb	0.2078778
255	0x3d8b07f1	0.06788624

conv1.event__follows__event.lin_rel.bias f4 [48]
0	0xbdbddd91	-0.09270776
1	0xbdb33571	-0.087504275
2	0xbe342710	-0.17593026
3	0x3c6363b1	0.013878749
4	0xbd4cc422	-0.049991734
5	0xbdb6ae07	-0.08919912
6	0xbe5652d9	-0.20930041
7	0xbcb01847	-0.021495951
8	0xbddd50b0	-0.108064055
9	0xbd2400e7	-0.040039923
10	0xbd851763	-0.06498601
11	0xbd747a06	-0.059686683
12	0x3d973efe	0.07385062
13	0xbd7d0f3d	-0.06178211
14	0x3e40b808	0.18820202
15	0x3e1f9ee1	0.15587951
16	0x3d103fa1	0.03521693
17	0x3d2c1132	0.042008586
18	0xbd66f4bd	-0.056385744
19	0x3d5a8696	0.053351007
20	0x3d527871	0.051384393
21	0xbdb70d7f	-0.08938121
22	0x3d999936	0.07499926
23	0xbd8d2ab2	-0.06892909
24	0x3d722dac	0.059125587
25	0x3c877f9a	0.016540337
26	0x3b7811aa	0.0037852325
27	0xbd97ab6c	-0.07405743
28	0x3dbf8b6f	0.09352767
29	0x3e128187	0.14307223
30	0xbd9c7503	-0.07639506
31	0xbae88686	-0.0017740286
32	0xbe386c73	-0.1801012
33	0xbda9058e	-0.082530126
34	0xbd3f7a5f	-0.04674756
35	0xbe03c0fb	-0.12866585
36	0xbcca4cbb	-0.024694791
37	0xbd34f8fe	-0.04418277
38	0x3bd6f1a2	0.0065595666
39	0x3b7222e2	0.0036947061
40	0x3c909e78	0.017653689
41	0x3e0bc996	0.13651118
42	0xbd9831de	-0.074313864
43	0xbde19cc1	-0.110162266
44	0xbd299de9	-0.04141036
45	0x3d00cd0d	0.03144555
46	0xbd9b39c1	-0.07579375
47	0xbd08ec76	-0.03342863

conv1.event__follows__event.lin_root.weight f4 [48, 27]
0	0x3e8e3f64	0.27782738
1	0x3b27a2c0	0.0025579184
2	0x3dd1b4e4	0.1023958
3	0x3da66968	0.081255734
4	0xbd94d48d	-0.07267103
5	0xbdc8bbd4	-0.0980145
6	0xbd19085d	-0.03736149
7	0xbe1b9474	-0.15193349
8	0x3e42aa3d	0.19010253
9	0x3dad7518	0.084695995
10	0x3dacf623	0.08445384
11	0x3e0d4180	0.13794518
12	0x3d947e57	0.0725066
13	0xbe12ea30	-0.14347148
14	0xbd111f0c	-0.03543
15	0x3d9542a9	0.07288105
16	0x3e168402	0.14698794
17	0x3dfb8688	0.12281519
18	0x3e6fcf56	0.23418936
19	0x3cfcec3a	0.03087436
20	0x3e5cc9b9	0.21561326
21	0xbf0b0fdb	-0.5432107
22	0x3e3b4304	0.18287283
23	0xbbb0c04f	-0.0053940187
24	0x3df55eb1	0.119809516
25	0x3e2c95c9	0.16854014
26	0xbe195096	-0.14972147
27	0xbd88465c	-0.06654045
28	0xbe171aab	-0.14756267
29	0xbe5113c0	-0.2041769
30	0xbd904347	-0.07044082
31	0x3df5dbdb	0.12004825
32	0xbc1885fd	-0.009309289
33	0xbe8bb460	-0.27286053
34	0xbbd0c175	-0.006370718
35	0xbe2b9bdf	-0.16758679
36	0xbe3b6c82	-0.18303111
37	0xbc02eeaa	-0.007991472
38	0x3d9156a2	0.07096602
39	0xbd23fe0e	-0.040037207
40	0xbe03b1ac	-0.12860745
41	0xbe98050f	-0.2969136
42	0x3d3e8692	0.046515055
43	0xbe602ef4	-0.21892911
44	0xbd9382f4	-0.07202712
45	0x3de12283	0.10992911
46	0xbe076afd	-0.13224407
47	0xbe448d8a	-0.19194618
48	0xbf036206	-0.51321447
49	0xbdc48244	-0.09595159
50	0xbe2944c2	-0.16530135
51	0xbd18038f	-0.03711277
52	0x3df7504a	0.12075861
53	0xbe707175	-0.2348078
54	0x3e17f05a	0.1483778
55	0x3d6a7aa6	0.057245873
56	0xbd03d44b	-0.03218488
57	0xbb18e4b0	-0.0023329668
58	0xbe40cca1	-0.1882806
59	0xbe2665c4	-0.16249758
60	0xbe16b56b	-0.14717643
61	0xbd8de3c9	-0.06928212
62	0xbdef4e60	-0.11684871
63	0x3cf2f959	0.029659914
64	0x3dc1eec5	0.0946937
65	0x3de57849	0.11204583
66	0xbd7b0b49	-0.06129006
67	0x3c923402	0.017847065
68	0xbd285850	-0.041099846
69	0x3d8ebd83	0.0696974
70	0xbe6ae7d1	-0.22939993
71	0xbd307787	-0.04308274
72	0xbdc11980	-0.09428692
73	0xbe2c0ccd	-0.16801758
74	0xbe338d42	-0.17534354
75	0xbf21c66e	-0.63193405
76	0xbcff519f	-0.03116685
77	0xbe44fce0	-0.19237089
78	0x3e566ecf	0.20940708
79	0xbce57027	-0.02800758
80	0x3dd0d215	0.1019632
81	0xbe0aff16	-0.1357387
82	0x3d7646c8	0.060126096
83	0xbe49ce93	-0.19707708
84	0xbe477708	-0.19479
85	0xbe814a3d	-0.25251952
86	0xbe3bf227	-0.18354093
87	0x3d55a0be	0.05215525
88	0xbe052ce5	-0.13005407
89	0x3d8cb044	0.068695575
90	0x3d8f1114	0.06985679
91	0x3df21386	0.1182013
92	0x3cfdea96	0.030995648
93	0xbe07c751	-0.13259627
94	0x3e5d1a23	0.21592002
95	0x3dfa04eb	0.12207969
96	0xbe0d394d	-0.1379139
97	0x3d2ff62a	0.04295937
98	0xbd096ece	-0.033552937
99	0x3d562163	0.052277934
100	0xbda9b0ac	-0.082856506
101	0x3e247f27	0.1606413
102	0x3ebddaf1	0.37081102
103	0x3e0edb2c	0.13950795
104	0x3d87677a	0.066115335
105	0xbdb968f9	-0.09053225
106	0x3dcd1ae0	0.100148916
107	0xbda5ea7a	-0.081013635
108	0x3e8e3c37	0.27780315
109	0x3e145a0a	0.14487472
110	0xbd5c6de1	-0.053815726
111	0x3e05a785	0.13052185
112	0x3e0ed8c6	0.1394988
113	0x3e37ea57	0.17960487
114	0x3e2913c9	0.16511454
115	0x3d025644	0.03182055
116	0xbdea7ee7	-0.11449986
117	0xbddc9437	-0.10770457
118	0xbd4531f3	-0.04814334
119	0x3d2fc782	0.042914875
120	0xbd3ece74	-0.046583608
121	0x3e1586d6	0.14602217
122	0xbdbbefe9	-0.091766186
123	0x3e2aa65d	0.16665025
124	0x3d2bf384	0.04198028
125	0x3e21e2f1	0.15809228
126	0x3d892e21	0.066982515
127	0x3d9377f8	0.072006166
128	0xbdbccffd	-0.09219358
129	0xbed9a310	-0.4250722
130	0x3ce62271	0.028092595
131	0xbd4e1df5	-0.050321538
132	0x3ea30776	0.3184163
133	0xbe79abeb	-0.24381988
134	0x3e59fdee	0.21288273
135	0xbe0e396a	-0.13889089
136	0x3dc12a72	0.09431924
137	0x3e17e715	0.14834245
138	0x3d52c9b0	0.051461875
139	0xbda19dc9	-0.07891423
140	0xbc8edba1	-0.017438712
141	0x3e405d55	0.18785603
142	0xbcd03102	-0.025413994
143	0xbe125f30	-0.14294124
144	0xbcb623a5	-0.022233794
145	0x3e11d0d0	0.14239812
146	0xbe58ab51	-0.21159102
147	0x3df76fe1	0.12081886
148	0xbe002bb5	-0.12516673
149	0xbd9747c3	-0.07386734
150	0xbdde4e87	-0.10854822
151	0xbe31dfab	-0.17370479
152	0xbdca7b6d	-0.09886823
153	0x3bdc2b7b	0.0067190505
154	0xbe199098	-0.14996564
155	0x3de401c2	0.11133148
156	0xbef75fde	-0.48315328
157	0xbc9377b7	-0.01800142
158	0xbe50b483	-0.2038136
159	0x3c69f109	0.014278659
160	0xbe02998f	-0.1275389
161	0xbe03eda5	-0.12883623
162	0xbe1673a8	-0.14692557
163	0xbcf30542	-0.029665593
164	0xbdcd631d	-0.1002867
165	0xbe223e63	-0.15844111
166	0xbe2ed6b2	-0.17074087
167	0x3d88601f	0.06658959
168	0xbd579991	-0.052636687
169	0xbd5fa80d	-0.054603625
170	0x3dee1a68	0.1162613
171	0x3e69037f	0.2275524
172	0x3e0c2925	0.1368757
173	0x3e8e995f	0.27851388
174	0x3dbb32f1	0.09140576
175	0xbea1b31f	-0.3158197
176	0x3b14e93f	0.0022722033
177	0xbe97ece3	-0.29672918
178	0xbe096457	-0.13417183
179	0xbdd8e64a	-0.10590799
180	0xbe3b1a6d	-0.182718
181	0x3ca2609c	0.019821458
182	0xbe1facbf	-0.15593241
183	0xbf167877	-0.58777565
184	0xbe1843b9	-0.14869584
185	0x3d619ff6	0.05508419
186	0xbd26ceae	-0.04072445
187	0xbe678d82	-0.22612575
188	0xbe0c5608	-0.13704693
189	0x3e117058	0.14203012
190	0x3e1fcff8	0.15606678
191	0x3da62e64	0.08114317
192	0x3e522dbe	0.20525262
193	0xbb7612f9	-0.003754793
194	0x3dde78fd	0.108629204
195	0x3d440fd5	0.04786666
196	0x3e5b6e08	0.21428692
197	0xbe034313	-0.12818556
198	0xbabfc4e4	-0.0014630822
199	0x3dc40904	0.09572032
200	0xbdcb8ce1	-0.0993898
201	0xbddb33bd	-0.10703228
202	0x3df5b1a8	0.11996776
203	0xbe0a80d0	-0.135257
204	0xbc8d84c1	-0.017275216
205	0xbdf41083	-0.11917212
206	0x3d9e124b	0.07718333
207	0xbbb5c479	-0.005547103
208	0xbda045c5	-0.078258075
209	0x3e6e0d1e	0.23247191
210	0xbeac9ba7	-0.33712503
211	0xbe175fa9	-0.14782585
212	0xbdf72315	-0.12067238
213	0x3e4a9fe6	0.19787559
214	0xbdfecaf7	-0.12441056
215	0xbd2d55a1	-0.04231799
216	0xbd5826ac	-0.052771255
217	0xbe015c35	-0.1263283
218	0x3e182dfe	0.14861295
219	0x3da6aa5c	0.08137962
220	0xbd77c22f	-0.060487922
221	0xbe28add2	-0.16472557
222	0x3e1319ff	0.14365385
223	0x3e694c09	0.22782911
224	0x3e318959	0.1733755
225	0xbb9c9e57	-0.004779618
226	0x3abc0b57	0.0014346641
227	0x3d6bc691	0.057562415
228	0x3d678fd8	0.056533664
229	0xbe554e58	-0.20830667
230	0x3cbd4759	0.02310531
231	0xbe01ef41	-0.12688924
232	0xbe1a1ef7	-0.15050875
233	0x3e0b9df1	0.13634469
234	0xbe154c5d	-0.14579912
235	0x3d8adff0	0.06780994
236	0x3e4a4516	0.19752917
237	0xbf25f2e4	-0.64823747
238	0xbe52bcfa	-0.20579901
239	0x3df7fc12	0.121086255
240	0xbda47f8e	-0.080321416
241	0x3df97ba0	0.12181783
242	0xbea3c786	-0.31988162
243	0x3d04e7ec	0.03244774
244	0xbd1ed242	-0.038774736
245	0xbd414536	-0.047185145
246	0x3dac7c4b	0.084221445
247	0xbe4a1891	-0.19735934
248	0x3dd1768a	0.10227688
249	0xbe57e97d	-0.21085162
250	0xbe469082	-0.19391063
251	0x3e212afb	0.15739052
252	0x3ddf61ac	0.10907301
253	0xbd098f26	-0.033583783
254	0x3e5fad5b	0.21843474
255	0xbd8bf810	-0.068344235

conv1.event__interacts__application.lin_rel.weight f4 [48, 27]
0	0xbdbb5a89	-0.091481276
1	0x3d8dbd1f	0.069208376
2	0xbe1f0873	-0.15530567
3	0xbd9de33b	-0.077093564
4	0x3d30663f	0.04306626
5	0xbe0931a5	-0.13397844
6	0x3c575c5d	0.01314458
7	0xbe04ec1f	-0.12980698
8	0xbdc36658	-0.09541005
9	0x3e31f728	0.17379439
10	0x3e231db4	0.159293
11	0x3e43c054	0.19116336
12	0x3e612641	0.21987249
13	0x3e2b12a3	0.16706328
14	0x3e66f4ae	0.22554275
15	0x3ddf3a52	0.108997956
16	0xbd01403b	-0.031555396
17	0x3dc809a6	0.09767465
18	0xbe32f46d	-0.17476054
19	0xbe235c85	-0.15953262
20	0x3d3b23d8	0.04568848
21	0xbeb056ec	-0.34441316
22	0xbdae8116	-0.08520715
23	0xbc30f782	-0.010801198
24	0x3cf173ee	0.029474225
25	0x3d427e43	0.047483694
26	0xbe1ba8c1	-0.15201093
27	0x3d77a9a7	0.060464527
28	0xbdee24e4	-0.1162813
29	0x3dea905b	0.11453315
30	0xbe2b2722	-0.16714147
31	0xbd244e97	-0.04011401
32	0x3d381d1a	0.04494963
33	0x3d70ebd5	0.058818657
34	0xbd0eb0eb	-0.03483669
35	0x3c31caa1	0.010851533
36	0xbd6a0f50	-0.05714351
37	0xbe398926	-0.18118724
38	0xbdb7c311	-0.08972753
39	0xbe233b0a	-0.1594049
40	0x3d5dab3b	0.054118376
41	0x3dc954a0	0.09830594
42	0x3db9285c	0.09040901
43	0xbbc6ca86	-0.006066623
44	0xbd998d44	-0.074976474
45	0x3dcdd853	0.10051026
46	0xbdb17ad6	-0.08666007
47	0x3e084cbf	0.13310526
48	0x3ed6a7e6	0.4192497
49	0x3db1a4cf	0.08674013
50	0xbe8a1a11	-0.26973012
51	0x3d8d4c18	0.06899279
52	0xbbda13eb	-0.0066552064
53	0xbdb78e69	-0.089627095
54	0x3e1d1396	0.15339503
55	0x3e362b96	0.17790064
56	0x3de0826b	0.10962375
57	0x3dde43bb	0.10852762
58	0xbe0fd159	-0.14044704
59	0xbca90e4b	-0.020636698
60	0xbe62aa93	-0.22135381
61	0x3d84f10e	0.0649129
62	0xbe19eeb6	-0.15032467
63	0x3e136010	0.14392114
64	0xbd97e432	-0.07416572
65	0x3e14246b	0.14467017
66	0xbc3a9831	-0.011388824
67	0x3dcd5c90	0.100274205
68	0x3cb595dc	0.022166185
69	0xbc2d206b	-0.010566811
70	0xbb11af67	-0.0022229792
71	0xbd833ba9	-0.06407864
72	0xbe00946e	-0.12556621
73	0xbdde8cdf	-0.10866713
74	0x3dca935f	0.0989139
75	0xbe9e5838	-0.3092668
76	0xbe74ae2f	-0.23894571
77	0x3e3a8948	0.18216431
78	0x3e409030	0.18805003
79	0xbdfdb009	-0.12387092
80	0x3de3e382	0.11127378
81	0x3da177c1	0.07884169
82	0x3d8e3fa0	0.06945729
83	0x3e025ffe	0.1273193
84	0xbcf63ccc	-0.030058287
85	0x3e41966d	0.18905039
86	0xbddb7a15	-0.10716645
87	0x3d2008bd	0.039070833
88	0xbe16664d	-0.14687462
89	0xbdb6c6a1	-0.08924604
90	0x3e388cb0	0.18022418
91	0x3e82d45d	0.25552645
92	0xbd97fb63	-0.07420995
93	0x3e650a4b	0.22367208
94	0x3d5cd73d	0.053916205
95	0xbd1fe7f0	-0.039039552
96	0x3e2956e4	0.16537052
97	0xbe034fe8	-0.1282345
98	0x3e2e7e5e	0.17040393
99	0xbe1bd183	-0.15216641
100	0xbd966401	-0.07343293
101	0x3e3868b5	0.18008693
102	0xbebec4e4	-0.3725959
103	0xbb71fff7	-0.0036926249
104	0xbe289f9a	-0.16467133
105	0x3c4c5693	0.012471813
106	0xbd957f9e	-0.07299732
107	0x3d0fa31d	0.035067666
108	0xbd66ae54	-0.056318596
109	0x3cc36044	0.023849614
110	0xbdf3949a	-0.11893578
111	0x3e50158a	0.20320717
112	0xbd5251d4	-0.05134757
113	0x3b083364	0.0020782584
114	0x3e28699e	0.1644654
115	0x3de31a16	0.1108896
116	0xbde22b53	-0.1104342
117	0x3df08773	0.11744585
118	0xbdb7c3e4	-0.0897291
119	0x3dd4ce99	0.10390968
120	0x3e3bb8ba	0.18332186
121	0xbdcea737	-0.100904875
122	0x3d95e07d	0.07318208
123	0x3e50f9df	0.20407818
124	0x3de5549d	0.11197779
125	0x3ba9d212	0.005182513
126	0x3db6e6d6	0.08930747
127	0xbd9c2bd1	-0.07625545
128	0xbcfefd63	-0.031126684
129	0xbef5a1d2	-0.47975022
130	0xbe64af78	-0.22332561
131	0xbde32a14	-0.1109201
132	0x3e7d4395	0.24732812
133	0xbe0727c1	-0.13198759
134	0xbe0701e2	-0.13184312
135	0x3e436de5	0.1908489
136	0xbe37569f	-0.17904137
137	0xbddc06cb	-0.10743483
138	0x3e48b6f4	0.19601041
139	0xbd8a3ace	-0.06749497
140	0xbbe2d4c2	-0.0069223354
141	0x3d42904e	0.0475009
142	0x3db40038	0.08789104
143	0x3d9b0cb3	0.075707816
144	0x3e221d3e	0.15831468
145	0xbde21086	-0.11038308
146	0x3d314e94	0.04328783
147	0x3e221efd	0.15832134
148	0xbb89bc94	-0.0042033885
149	0x3d8aa20b	0.067691885
150	0xbe1d4449	-0.1535808
151	0x3c17dfe3	0.009269687
152	0xbdf76992	-0.12080683
153	0x3d4b9611	0.04970366
154	0xbdd45ef8	-0.10369676
155	0x3e019bde	0.12657115
156	0x3f004e94	0.501199
157	0x3ea937cc	0.33050382
158	0xbdc4f03c	-0.096161336
159	0xba17c022	-0.0005788823
160	0x3dbe9f3c	0.09307715
161	0x3d0fb27c	0.035082325
162	0x3d35ce11	0.044385973
163	0xbd7e52b0	-0.062090576
164	0xbe37f0c4	-0.17962939
165	0x3d06570a	0.03279785
166	0xbdea10ae	-0.11428963
167	0x3d915344	0.0709596
168	0xbe348d6f	-0.17632078
169	0x3e5722c0	0.2100935
170	0xbcc824af	-0.024431555
171	0xbd83fb63	-0.064444326
172	0x3e808e3e	0.25108522
173	0x3e5f83af	0.21827577
174	0xb858e38c	-5.1710333e-05
175	0xbc07fabb	-0.008299525
176	0x3d7e6f59	0.06211791
177	0x3e5c71e3	0.2152782
178	0x3e5897fd	0.21151729
179	0xba205c36	-0.0006117256
180	0x3da4e2d8	0.080510795
181	0xbd76579c	-0.060142145
182	0x3bf28cb8	0.007402029
183	0xbed9f55b	-0.42570004
184	0xbcdf7634	-0.027278043
185	0x3e7276c9	0.23678125
186	0xbdca96ab	-0.09892019
187	0xbe165944	-0.1468249
188	0xbc1b8b6b	-0.009493689
189	0xbe3e9b82	-0.18614009
190	0x3e117b9b	0.14207308
191	0x3e04babc	0.12961859
192	0x3dea9018	0.11453265
193	0xbe1508f4	-0.14554197
194	0x3d19ff55	0.03759702
195	0xbd107547	-0.035268094
196	0x3dad4e7b	0.084622346
197	0xbddc578f	-0.10758888
198	0xbe0cde61	-0.13756706
199	0xbb7fba52	-0.0039020968
200	0xbe4464dc	-0.191791
201	0xbc1e7594	-0.0096715875
202	0x3c928d45	0.017889628
203	0xbe8cf7f7	-0.27532932
204	0xbdaba3cf	-0.083808534
205	0xbdc2ad01	-0.09505654
206	0xbd1ed841	-0.038780455
207	0xbdef9db5	-0.11700002
208	0xbde6e8a9	-0.11274845
209	0x3e531839	0.20614709
210	0x3ec4caf1	0.38436082
211	0x3dd0d132	0.10196151
212	0xbe40bfa3	-0.18823104
213	0xbe1ec925	-0.15506418
214	0xbc550b2b	-0.013003151
215	0x3e1d5d17	0.15367542
216	0x3d6de097	0.058075514
217	0x3b6211bd	0.0034495436
218	0x3cc82408	0.024431244
219	0xbdd95a1a	-0.10612889
220	0x3e404ed5	0.18780072
221	0xbe4c9d2b	-0.1998183
222	0x3e09fbe0	0.13474989
223	0xbde059db	-0.109546386
224	0xbcba797e	-0.02276301
225	0xbe011c44	-0.12608439
226	0xbe864e61	-0.26231673
227	0x3d9dc622	0.077038065
228	0xbe3166a6	-0.17324314
229	0xbd5f8c53	-0.054577183
230	0x3d850f8b	0.06497105
231	0xbe2bbd38	-0.167714
232	0xbc98224c	-0.018571042
233	0xbe6b1fc1	-0.22961332
234	0x3e2b4e1c	0.16729015
235	0x3d2f9fe3	0.04287709
236	0x3cec654b	0.028856894
237	0x3e8e8bbc	0.27840984
238	0x3dd9a9ee	0.10628115
239	0xbdf771a8	-0.12082225
240	0xb99d6345	-0.00030019335
241	0xbd6d21b0	-0.057893455
242	0x3e366a65	0.17814024
243	0x3d825569	0.06363947
244	0x3e0c07b1	0.13674809
245	0xbe248004	-0.16064459
246	0x3d3561b4	0.04428263
247	0x3d973270	0.07382667
248	0x3d9bb405	0.076026954
249	0xbe19b794	-0.15011436
250	0x3e3c1251	0.18366362
251	0xbc57efdc	-0.0131797455
252	0x3e3b6605	0.18300636
253	0xbdc85734	-0.09782258
254	0xbd6b3fc6	-0.057433866
255	0x3e79c0a4	0.24389893

conv1.event__interacts__application.lin_rel.bias f4 [48]
0	0x3e1fc91f	0.15604065
1	0x3cb877a0	0.02251798
2	0xbe007c8e	-0.12547514
3	0x3e25d91e	0.16196105
4	0xbd81bfec	-0.06335434
5	0x3e356ec6	0.17718038
6	0xbd506ed8	-0.05088696
7	0x3dcef867	0.10105973
8	0x3d6541cb	0.05597095
9	0xbe00a713	-0.12563734
10	0x3dd50afc	0.10402486
11	0xbd4d3d40	-0.05010724
12	0x3e1f7969	0.15573658
13	0x3d9f129e	0.07767223
14	0x3e0bec5b	0.13664381
15	0x3e63e706	0.22256097
16	0x3d4d3fdc	0.05010973
17	0xbe442097	-0.19153057
18	0x3dd52127	0.10406714
19	0xbd1674bd	-0.036732424
20	0x3dcf0d36	0.10109942
21	0x3daf358a	0.08555134
22	0xbdf85d19	-0.12127132
23	0x3e0471aa	0.12933984
24	0xbca6cc5a	-0.020361114
25	0x3e37b6b9	0.17940797
26	0xbe2f8495	-0.1714042
27	0xbc80c6ee	-0.015719857
28	0xbdd1ae08	-0.10238272
29	0xbe02ffd7	-0.12792908
30	0xbe0ac475	-0.13551505
31	0x3df64f12	0.120268
32	0xbd8d3b4a	-0.06896074
33	0xbba2bdce	-0.004966474
34	0x3b95661b	0.004559291
35	0x3db729b7	0.08943503
36	0x3dc8fda4	0.09814003
37	0xbe3b1ad6	-0.18271956
38	0x3d96d6e4	0.07365206
39	0x3e31a377	0.17347513
40	0xbdede6c5	-0.116162814
41	0xbe2a7d9e	-0.16649482
42	0xbd7f051f	-0.062260743
43	0x3e16d767	0.14730607
44	0x3dec998d	0.11552725
45	0x3e34d9c4	0.17661196
46	0x3e1789ac	0.14798611
47	0xbdbb2e42	-0.09139682

conv1.event__interacts__application.lin_root.weight f4 [48, 3]
0	0xbdc8a469	-0.09796984
1	0xbe2c2cc5	-0.16813953
2	0x3e17a050	0.14807248
3	0xbedfb2aa	-0.43690997
4	0xbe691f92	-0.2276595
5	0x3e7e603c	0.24841398
6	0x3e40df74	0.1883524
7	0x3e93c51a	0.28861314
8	0xbe8800bf	-0.2656307
9	0x3cd843b6	0.026399475
10	0xbdb92384	-0.09039977
11	0xbe4f2ab6	-0.20231137
12	0xbead3bda	-0.33834726
13	0x3e06224a	0.13099018
14	0x3efd840c	0.49514806
15	0xbe488b0c	-0.19584292
16	0x3e19ac97	0.15007244
17	0xbeee3bfc	-0.4653014
18	0x3d09b648	0.033621103
19	0x3dc5f120	0.096651316
20	0x3d214ad9	0.03937802
21	0xbd7ae320	-0.06125176
22	0x3ee4fd41	0.44724467
23	0xbe534190	-0.20630479
24	0x3e966b87	0.29378912
25	0x3def9e52	0.11700119
26	0x3dcaf2f9	0.099096246
27	0xbe882340	-0.26589394
28	0xbee6ebfc	-0.45101917
29	0xbeb46565	-0.35233608
30	0x3e840d58	0.2579143
31	0xbeb487d6	-0.35259885
32	0xbe0db331	-0.13837887
33	0x3e8257a1	0.2545748
34	0xbdebc647	-0.11512428
35	0x3f08af8c	0.53392863
36	0x3eb22de3	0.34800634
37	0x3db58e6d	0.08865056
38	0x3d6613c6	0.0561712
39	0xbe5272c0	-0.20551586
40	0x3e452604	0.19252783
41	0xbeae0168	-0.33985448
42	0xbdb1faa8	-0.08690387
43	0x3ee89154	0.45423377
44	0xbd85015e	-0.064944014
45	0x3eb9ba42	0.36274916
46	0xbee64fb3	-0.4498268
47	0x3e86c3aa	0.26321155
48	0x3ecd8856	0.4014308
49	0xbeeb352c	-0.45939004
50	0x3f014957	0.5050253
51	0xbeb39538	-0.35074782
52	0xbd0aa592	-0.033849306
53	0xbef9dc00	-0.4880066
54	0xbe449d71	-0.19200684
55	0xbd1f48ac	-0.038887665
56	0x3d342654	0.043981865
57	0xbebe154e	-0.3712563
58	0x3e70e753	0.23525743
59	0xbe22d723	-0.1590238
60	0x3e9d6a9b	0.30745396
61	0x3ebe813f	0.37207982
62	0xbea79a52	-0.32734925
63	0x3efed7d2	0.49774033
64	0xbf0e6d82	-0.55635846
65	0xbe94835d	-0.29006472
66	0x3e57e95c	0.21085113
67	0x3ec1a4ac	0.37820947
68	0x3d954c23	0.072899126
69	0x3ecfb50d	0.40567818
70	0x3dd58529	0.10425789
71	0xbdc52f07	-0.096281104
72	0x3eab4978	0.3345449
73	0xbebe7cde	-0.3720464
74	0xbea493ee	-0.3214411
75	0xbe85b842	-0.2611714
76	0xbd678350	-0.056521714
77	0xbed80bf5	-0.42196622
78	0x3e845df8	0.25852942
79	0xbeb4a64b	-0.3528312
80	0x3e76543a	0.24055567
81	0x3c83ba55	0.016080061
82	0x3dc3d4fa	0.095621064
83	0x3e82acb8	0.255224
84	0x3e9e26c7	0.3088896
85	0xbe1bdc64	-0.15220791
86	0xbeb13e53	-0.34617862
87	0x3d9464be	0.072457775
88	0x3e2e54dc	0.17024559
89	0xbd99b510	-0.07505238
90	0x3ea3c66c	0.3198732
91	0xbddb87a5	-0.107192315
92	0x3e427ca0	0.18992853
93	0xbec42c60	-0.38315105
94	0xbdac4b7d	-0.08412836
95	0xbe2a8dbb	-0.16655628
96	0x3edb4ac4	0.4283048
97	0xbec7386b	-0.3891023
98	0xbed62625	-0.41825977
99	0x3f0a8601	0.54110724
100	0x3de39dbb	0.11114069
101	0x3d6290ef	0.055314
102	0xbc3088a7	-0.010774768
103	0x3e93099e	0.28718275
104	0x3de93bf0	0.11388385
105	0xbd22dae4	-0.03975953
106	0x3efffdf7	0.49998447
107	0xbd13aa77	-0.03605124
108	0x3e9436db	0.289481
109	0x3db30ac1	0.087422855
110	0xbf059537	-0.5218081
111	0x3f19704a	0.59936965
112	0x3e9cbf28	0.3061459
113	0x3dc18d3d	0.09450767
114	0x3e35d7d5	0.17758115
115	0x3e1539f2	0.14572886
116	0xbebef2fe	-0.37294763
117	0x3ee3bcfc	0.4448012
118	0x3d1a16d5	0.03761943
119	0xbdd52538	-0.104074895
120	0x3d282339	0.041049216
121	0x3cd27c0b	0.025693914
122	0xbe0f9c9f	-0.1402459
123	0xbf0aec1b	-0.5426652
124	0x3e19ad87	0.15007602
125	0xbeb52eb9	-0.3538721
126	0xbef8df69	-0.48607948
127	0xbeb1a401	-0.34695438
128	0x3ee2bc47	0.4428427
129	0xbe855bbf	-0.2604656
130	0xbee833f9	-0.45352152
131	0x3d84b906	0.06480603
132	0xbe6384ac	-0.22218579
133	0xbd89a9c1	-0.06721831
134	0xbe8423d1	-0.25808576
135	0x3e21f382	0.15815547
136	0x3cdfd377	0.027322514
137	0x3ea1e142	0.3161717
138	0xbe27baa3	-0.1637979
139	0x3eac198c	0.3361324
140	0x3e151977	0.14560495
141	0x3e7baa95	0.2457679
142	0x3e15953d	0.14607711
143	0xbdc64138	-0.09680408

conv1.event__interacts__offer.lin_rel.weight f4 [48, 27]
0	0xbdd84d82	-0.105616584
1	0x3e2293c9	0.15876688
2	0xbd295718	-0.041342825
3	0x3e2cc9d4	0.16873866
4	0xbe46fac6	-0.194316
5	0xbe0cd306	-0.13752374
6	0x3e0e1fb1	0.13879277
7	0x3e0e0ce8	0.13872111
8	0x3e639f42	0.22228721
9	0x3dfd8ae5	0.12380008
10	0xbdfd0412	-0.12354292
11	0x3d99c91b	0.07509061
12	0x3d7d8c3d	0.06190132
13	0x3e690038	0.2275399
14	0x3d298aeb	0.041392248
15	0x3dcaedf3	0.099086665
16	0xbdafb7bb	-0.08579966
17	0xbbc40cf0	-0.0059829876
18	0xbd8f6255	-0.07001177
19	0xbcdf84c3	-0.027284985
20	0x3e0f5157	0.13995872
21	0xbf0bc163	-0.5459196
22	0xbd57b207	-0.052660014
23	0xbe2dcfc0	-0.16973782
24	0x3e0a8ffa	0.13531485
25	0x3d3f0931	0.046639625
26	0x3d6ac6b4	0.057318404
27	0x3d80aa1a	0.06282444
28	0x3d77d96d	0.060510088
29	0xbe48bb1a	-0.19602624
30	0x3dbd714e	0.09250127
31	0x3dad4d04	0.08461955
32	0xbd5a0903	-0.05323125
33	0x3e132fee	0.14373752
34	0x3a93fd9c	0.0011290791
35	0xbbe60b76	-0.007020409
36	0x3e39f3e8	0.18159449
37	0xbe117d8f	-0.14208053
38	0x3ddc411b	0.107546054
39	0xbd653ee8	-0.055968195
40	0xbe743b23	-0.23850684
41	0xbe1d5a77	-0.15366541
42	0x3d78dd88	0.060758144
43	0xbe085a76	-0.13315758
44	0x3ddb1e96	0.10699193
45	0xbe1e729f	-0.15473412
46	0xbe1e27ac	-0.15444821
47	0xbe08dce3	-0.13365512
48	0x3f08e65b	0.53476495
49	0x3e58e037	0.21179281
50	0x3e2983f7	0.16554247
51	0x3dcb5b38	0.09929508
52	0xbcd0b7a0	-0.025478184
53	0x3e0e7605	0.13912208
54	0x3e5d91c6	0.2163764
55	0x3e4503d8	0.19239748
56	0x3d909fb9	0.07061715
57	0x3d9327b2	0.07185306
58	0x3d6b7216	0.057481848
59	0xbe207ce6	-0.15672645
60	0x3e1919cc	0.14951247
61	0x3de8dcef	0.11370265
62	0xbe4b4216	-0.19849429
63	0x3db9ca38	0.09071773
64	0x3e48fb68	0.19627154
65	0x3d164e77	0.036695924
66	0xbdc9df12	-0.098570004
67	0x3e8207a9	0.2539647
68	0x3d31ce0e	0.0434094
69	0xbe0c1496	-0.13679728
70	0x3e86bf8f	0.26318023
71	0x3d1c040b	0.038089793
72	0xbdc801df	-0.09765982
73	0xbd8430c3	-0.06454613
74	0x3d94931e	0.07254623
75	0xbe03550e	-0.12825415
76	0xbe2a92c4	-0.16657549
77	0xbe12604f	-0.14294551
78	0xbdb21219	-0.08694858
79	0xbe3101bc	-0.17285818
80	0x3a875507	0.0010325023
81	0xbe0d6870	-0.13809371
82	0xbd7bbc1d	-0.061458696
83	0xbe026f3b	-0.12737744
84	0x3cb8bfc2	0.022552375
85	0x3ca403af	0.020021288
86	0xbc3c8e0b	-0.011508475
87	0xbd1b3f4b	-0.037902158
88	0xbdd250d4	-0.10269323
89	0x3c6a7b91	0.014311687
90	0x3d926e89	0.07149989
91	0xbdac0858	-0.08400029
92	0x3da824aa	0.08210118
93	0x3d45b8a5	0.048271794
94	0xbd335c09	-0.043788943
95	0xbe5ed392	-0.21760395
96	0xbdeac53e	-0.11463402
97	0xbdd96b30	-0.106161475
98	0x3dd24c2a	0.102684334
99	0xbd0bbbc9	-0.034114633
100	0x3daec605	0.08533863
101	0x3dba9a09	0.09111411
102	0x3f068414	0.52545285
103	0x3e286cab	0.16447704
104	0xbcc23440	-0.023706555
105	0xbe65f10a	-0.2245523
106	0xbe6f9bcd	-0.23399277
107	0x3d1d21cb	0.038362306
108	0x3b61c9af	0.0034452488
109	0xbdb7f6a7	-0.08982592
110	0xbe2c88ee	-0.1684911
111	0x3d942167	0.072329335
112	0x3de203b0	0.110358596
113	0x3bb98d08	0.005662564
114	0xbdd56b56	-0.10420863
115	0xbdcdfcd8	-0.10057992
116	0x3e02f87f	0.12790106
117	0x3e0fadf5	0.14031203
118	0xbe352a8a	-0.17692009
119	0xbdca860c	-0.09888849
120	0x3d839e62	0.064266935
121	0xbc5cb486	-0.0134707745
122	0xbe3f9563	-0.1870933
123	0x3e259e84	0.1617375
124	0xbe47c655	-0.19509251
125	0xbd894377	-0.06702321
126	0x3e2b32e1	0.16718628
127	0xbd1d202c	-0.03836076
128	0x3cffd560	0.031229675
129	0x3f255954	0.6458943
130	0x3e246282	0.16053203
131	0x3e254407	0.16139232
132	0xbe3fe310	-0.18738961
133	0x3e229162	0.15875772
134	0xbc33ceac	-0.010974567
135	0x3d813029	0.06308014
136	0x3d85e3bb	0.06537577
137	0xbe307d9a	-0.17235413
138	0x3decb626	0.115581796
139	0xbe6fbf94	-0.23412925
140	0x3b81051e	0.0039373776
141	0xbd82c20e	-0.06384669
142	0xbdf69c95	-0.120415844
143	0xbcff8c3e	-0.031194802
144	0x3e062120	0.13098574
145	0xbe33229f	-0.17493676
146	0x3dff4d4f	0.12465917
147	0x3c6a8d34	0.014315892
148	0xbe916d9b	-0.28403935
149	0x3d1a5b52	0.037684746
150	0xbd8a5cf7	-0.06756013
151	0xbe8a97aa	-0.27068835
152	0x3e107dbf	0.14110468
153	0xbdba3823	-0.090927385
154	0x3ced9c3d	0.029005164
155	0xbd2da8f5	-0.042397458
156	0x3eb77066	0.3582794
157	0x3caa23fa	0.020769108
158	0x3d445f76	0.0479426
159	0xbca15285	-0.019692669
160	0xbcffd6e3	-0.031230396
161	0xbe9bbfcf	-0.30419776
162	0x3dd8ae4e	0.10580121
163	0x3db60e5c	0.088894576
164	0xbd21a59e	-0.039464585
165	0x3d54a318	0.05191335
166	0xbe38dedf	-0.18053769
167	0xbe8968a8	-0.2683766
168	0xbdcee67f	-0.101025574
169	0x3e826d3e	0.2547397
170	0x3e0ad143	0.1355639
171	0x3db9e7f3	0.09077444
172	0xbdcb7891	-0.099351056
173	0x3d9ff638	0.078106344
174	0x3d65e1fc	0.05612372
175	0x3e63261b	0.22182505
176	0xbe1a4e81	-0.1506901
177	0x3e2e199d	0.17001958
178	0xbe0d83d7	-0.13819824
179	0xbc31bab3	-0.010847735
180	0x3ca26cf3	0.019827342
181	0x3e17900e	0.14801046
182	0x3c9c1507	0.019052995
183	0xbf148c59	-0.58026654
184	0xbdf4e188	-0.11957079
185	0xbe367027	-0.1781622
186	0xbd96a9ad	-0.07356582
187	0x3e240acc	0.16019744
188	0xbe0ceeda	-0.1376299
189	0xbdd01eeb	-0.10162147
190	0x3e4737fc	0.1945495
191	0x3dbc2a69	0.091877766
192	0xbd68c3c7	-0.056827333
193	0xbe228bb9	-0.15873612
194	0x3e158395	0.14600976
195	0xbd1baebe	-0.038008444
196	0x3e3403d1	0.17579581
197	0xbe112608	-0.14174664
198	0x3e03760e	0.12838003
199	0x3db25759	0.087080665
200	0x3d1992c5	0.037493486
201	0x3df56f66	0.11984138
202	0x3e563f00	0.2092247
203	0x3e65f1e9	0.22455563
204	0xbe03531e	-0.12824675
205	0x3d69b3df	0.057056304
206	0x3d9b889a	0.07594414
207	0xbdcf70bc	-0.10128924
208	0xbdf66f40	-0.12032938
209	0x3da8ae29	0.082363434
210	0xbeff8323	-0.49904737
211	0xbe802c9d	-0.25034037
212	0x3e1172b6	0.14203915
213	0x3e25cfb6	0.16192517
214	0xbc794cdb	-0.015216078
215	0xbe32e05d	-0.174684
216	0xbdcffd32	-0.10155715
217	0xbe78e1a2	-0.24304822
218	0xbe021c4c	-0.12706107
219	0x3d89d600	0.067302704
220	0xbdb6cd8c	-0.08925924
221	0xbe52c03c	-0.20581144
222	0xbda5beb8	-0.08093017
223	0x3d8f2b50	0.06990683
224	0xbe53d94e	-0.20688364
225	0xbe3cbd74	-0.18431646
226	0xbd7719d5	-0.06032737
227	0xbdb9234a	-0.09039934
228	0xbc4f255d	-0.012643185
229	0x3d88f529	0.066873856
230	0x3d65a29d	0.056063283
231	0x3d8dd985	0.06926254
232	0xbe01e652	-0.12685516
233	0xbe0a6674	-0.13515645
234	0x3d126f2f	0.035750564
235	0xbe609250	-0.21930814
236	0xbdb811d6	-0.08987777
237	0xbc59f63b	-0.013303335
238	0xbe0d411d	-0.1379437
239	0xbe2768b3	-0.16348533
240	0xbce686f4	-0.028140523
241	0x3d998576	0.07496159
242	0x3e6c0786	0.23049745
243	0xbcba6d51	-0.022757204
244	0xbd421503	-0.04738332
245	0x3d1ea7a4	0.038734093
246	0xbd9dea0d	-0.07710657
247	0x3ce65c02	0.028120045
248	0x3d9e7def	0.07738864
249	0x3e3c960e	0.18416616
250	0x3d0b8eb7	0.03407165
251	0x3d4e66d3	0.05039103
252	0x3e4907ff	0.19631957
253	0x3e125d3c	0.14293379
254	0x3cd3979d	0.02582913
255	0xbd32f0e6	-0.04368677

conv1.event__interacts__offer.lin_rel.bias f4 [48]
0	0xbdb125e9	-0.08649809
1	0xbdf7b796	-0.12095563
2	0xbd551359	-0.052020404
3	0x3cd9b716	0.02657656
4	0xbd9c0ea4	-0.0761998
5	0xbdca45bb	-0.09876581
6	0xbe274f3e	-0.16338822
7	0xbc14d34b	-0.009083579
8	0x3e050829	0.12991394
9	0xbe2e2d3a	-0.1700944
10	0x3e318fa8	0.17339957
11	0xbd576224	-0.05258383
12	0x3e1d96af	0.15389512
13	0x3da9701f	0.082733385
14	0xbdd6f6bb	-0.10496279
15	0x3e34f395	0.17671044
16	0xbddb0ff2	-0.10696401
17	0x3a2d021d	0.0006599741
18	0xbc125ce5	-0.008933281
19	0xbccb0a39	-0.024785148
20	0xbd185ab2	-0.03719587
21	0xbd5861f8	-0.052827805
22	0xbde42dce	-0.11141549
23	0x3e00c2da	0.1257433
24	0xbe301b7f	-0.17197989
25	0x3e3eb6da	0.1862444
26	0x3dfd2f10	0.12362492
27	0x3d7d58e6	0.06185236
28	0x3cbcf2f5	0.02306507
29	0x3e1f43d2	0.15553215
30	0x3e288b7f	0.16459464
31	0x3db903b0	0.090339065
32	0x3e17316d	0.14764948
33	0x3e25a025	0.16174372
34	0xbe272ec5	-0.16326435
35	0x3c4c16ad	0.012456578
36	0x3d9a474f	0.07533132
37	0x3d5e03a6	0.0542027
38	0x3dae7a53	0.08519425
39	0xbe153575	-0.14571173
40	0xbe026d59	-0.12737025
41	0xbe2cd5e2	-0.16878465
42	0xbced0cfe	-0.02893686
43	0x3dd4e342	0.103949085
44	0xbce03c5b	-0.02737253
45	0xbddfdde4	-0.10930994
46	0xbdd113a0	-0.10208821
47	0xbcfdcc57	-0.030981226

conv1.event__interacts__offer.lin_root.weight f4 [48, 7]
0	0x3e63f5e3	0.22261767
1	0x3e7c518c	0.24640483
2	0xbe9b2e3d	-0.30308715
3	0xbe613482	-0.21992686
4	0xbed63fa4	-0.4184543
5	0x3ea2869b	0.3174332
6	0x3e6667fb	0.22500603
7	0xbe0e7b7f	-0.13914298
8	0x3e0ce550	0.13759351
9	0x3cdcb47f	0.026941536
10	0xbea57008	-0.32312036
11	0xbe0ab6cb	-0.13546292
12	0xbe551e44	-0.20812327
13	0x3e1233e7	0.14277612
14	0x3e88cb9f	0.2671785
15	0x3e24e5e1	0.16103317
16	0x3edddad8	0.43331027
17	0xbcf0e484	-0.02940584
18	0x3e784357	0.24244438
19	0x3e9a44b2	0.30130535
20	0x3edcf11c	0.43152702
21	0xbe039587	-0.12850009
22	0x3e82b92e	0.25531906
23	0xbe043dc1	-0.12914182
24	0x3e925284	0.2857858
25	0x3ea3a5b9	0.31962374
26	0x3e94a093	0.29028758
27	0x3e0d8ee8	0.13824046
28	0x3c3b9981	0.011450172
29	0x3e506c60	0.20353842
30	0x3d81e21c	0.06341955
31	0x3e3dc73f	0.18533038
32	0x3eacf91a	0.337838
33	0xbe85e9ea	-0.26155025
34	0xbcb03b2c	-0.02151259
35	0x3e0ee0b4	0.13952905
36	0x3e90c4b3	0.2827507
37	0x3e9db627	0.30803034
38	0x3e7db54b	0.24776189
39	0x3ebe32a4	0.3714801
40	0x3e73d700	0.23812485
41	0xbdf97b5c	-0.12181732
42	0xbe14468d	-0.14480038
43	0xbebb2b4e	-0.36556476
44	0xbe56a65d	-0.209619
45	0xbd91662a	-0.070995644
46	0x3e8f923a	0.2804125
47	0x3e0e328f	0.13886474
48	0x3eb088a2	0.34479243
49	0xbd354c8b	-0.04426245
50	0x3c018876	0.00790607
51	0x3e6ba686	0.23012742
52	0x3e12f9be	0.14353082
53	0x3eb13e39	0.34617785
54	0xbdaeb5e2	-0.08530785
55	0x3e2d9108	0.16949856
56	0xbea03b8e	-0.31295437
57	0x3c802672	0.015643332
58	0x3e23927f	0.15973853
59	0x3e48ceed	0.19610186
60	0xbebfadcd	-0.37437287
61	0x3e27f4c0	0.16401958
62	0x3eea95c7	0.45817396
63	0xbedaca02	-0.42732245
64	0x3ef1250e	0.47098583
65	0x3eac2732	0.33623654
66	0x3e679baf	0.22617982
67	0xbdc47202	-0.09592058
68	0xbdccddc4	-0.10003236
69	0x3e856955	0.26056924
70	0xbe06d883	-0.1316853
71	0x3ed73010	0.42028856
72	0x3f0f170e	0.55894554
73	0x3eb8fcc4	0.36130345
74	0xbe856f96	-0.26061696
75	0xbe77ca34	-0.24198228
76	0xbde43c08	-0.111442626
77	0xbec7c34d	-0.3901619
78	0xbe080547	-0.13283263
79	0xbec7806c	-0.38965166
80	0xbe74546e	-0.23860332
81	0x3d16b827	0.036796715
82	0x3de55487	0.11197763
83	0xbecc5309	-0.399071
84	0xbd8b2511	-0.06794179
85	0x3e36810f	0.1782267
86	0x3d319034	0.043350413
87	0xbdd686b8	-0.10474914
88	0x3e60bbb2	0.219466
89	0xbe5cfc08	-0.21580517
90	0xbea40103	-0.32032022
91	0x3e267043	0.16253762
92	0xbea4e041	-0.32202342
93	0xbe17bdb8	-0.14818466
94	0x3d78db23	0.06075586
95	0x3e61a4b2	0.22035483
96	0xbe00ebad	-0.12589903
97	0x3cc3d3c6	0.023904692
98	0x3e774ac0	0.24149609
99	0x3d6706e2	0.05640305
100	0xbe1f5de9	-0.15563168
101	0x3e6ef78f	0.23336624
102	0xbe150536	-0.14552769
103	0x3e2548cc	0.16141051
104	0x3d9c8757	0.076430015
105	0xbdb8cdb7	-0.09023612
106	0xbf0176c8	-0.5057187
107	0xbcdab096	-0.02669553
108	0xbe815fa8	-0.25268292
109	0x3ee625f6	0.44950837
110	0xbe12e823	-0.14346366
111	0xbef6ffee	-0.48242134
112	0x3e51e201	0.2049637
113	0x3e4f77fa	0.20260611
114	0x3d7de6a8	0.06198755
115	0x3ced782c	0.028987966
116	0x3da2a96d	0.07942472
117	0x3c4b1f6e	0.01239763
118	0x3d7e41d0	0.062074482
119	0x3cf70588	0.030154005
120	0xbe1a0c75	-0.15043814
121	0x3c960e17	0.018317265
122	0x3d411707	0.0471411
123	0x3e5af3fa	0.21382132
124	0xbe4d8e5a	-0.20073834
125	0x3db513ac	0.08841643
126	0xbecb67df	-0.39727685
127	0xbe59e109	-0.2127725
128	0x3decd140	0.11563349
129	0xbe585946	-0.21127805
130	0xbe175c53	-0.14781313
131	0x3d9c7b70	0.07640731
132	0xbe156df0	-0.14592719
133	0x3e6c81c9	0.23096384
134	0x3ca5f794	0.020259656
135	0x3e2ccfc5	0.16876133
136	0xbdd14c67	-0.10219651
137	0xbea8b03f	-0.32946965
138	0x3d962e75	0.0733308
139	0x3e8b67ff	0.2722778
140	0x3d9257a1	0.0714562
141	0x3c31eaa6	0.010859167
142	0xbdb5defa	-0.0888042
143	0xbebf6a80	-0.3738594
144	0xbe72cbbc	-0.23710531
145	0x3e1b0a17	0.15140568
146	0x3e849ab7	0.25899288
147	0x3d0be7ea	0.034156717
148	0xbe9d6069	-0.30737618
149	0xbd48f165	-0.049058337
150	0x3e7faed1	0.24969031
151	0xbe9b123e	-0.30287355
152	0x3db2cbd7	0.087302856
153	0xbebd7284	-0.3700143
154	0x3afc10a0	0.0019231029
155	0xbe5e7fbe	-0.21728417
156	0xbdddaf60	-0.10824466
157	0x3e2afaa3	0.16697173
158	0x3db273b2	0.087134734
159	0x3e8f2533	0.27958068
160	0x3e34b0ed	0.17645617
161	0x3ed4bd64	0.41550744
162	0x3ea319e5	0.31855693
163	0xbd8bca15	-0.068256535
164	0xbdc0a197	-0.09405821
165	0xbeb50111	-0.35352376
166	0x3e8a2180	0.26978683
167	0x3e9a432e	0.3012938
168	0xbd4c39bf	-0.04985976
169	0x3da30e20	0.079616785
170	0x3eaddc5d	0.33957186
171	0x3e8cde9d	0.2751359
172	0x3e9f7400	0.31143188
173	0xbe2854a7	-0.16438542
174	0xbe7da07a	-0.24768248
175	0xbea8109b	-0.3282517
176	0x3e2f4792	0.17117146
177	0x3e854d25	0.2603542
178	0x3e4c2bef	0.19938634
179	0xbe83cef7	-0.2574384
180	0x3eb95bcc	0.36202848
181	0x3d03e76a	0.032203116
182	0x3e742ed9	0.23845996
183	0x3e081205	0.13288124
184	0xbe10bf83	-0.14135556
185	0x3c98d777	0.01865743
186	0xbe917292	-0.28407723
187	0x3e3f6377	0.18690287
188	0x3e9081ee	0.28224128
189	0x3e955b07	0.2917101
190	0xbe008ff8	-0.1255492
191	0x3e8f37d3	0.27972278
192	0x3e0c375a	0.1369299
193	0xbdebf5f4	-0.11521521
194	0x3eb88d3c	0.36045253
195	0xbdd60c15	-0.10451523
196	0x3cb2bc43	0.021818286
197	0xbcebae3a	-0.028769601
198	0x3d1e98b4	0.038719848
199	0x3e051d18	0.1299938
200	0x3e1b6923	0.15176825
201	0x3e74efe2	0.23919633
202	0xbe74017a	-0.23828688
203	0x3ec29e87	0.38011572
204	0xbe095a4d	-0.13413353
205	0x3e46c312	0.19410351
206	0x3e7ede8d	0.24889584
207	0xbee20969	-0.44147804
208	0x3d6b286f	0.057411607
209	0xbe713232	-0.23554304
210	0xbc8e9c0e	-0.017408397
211	0x3e19a7fc	0.15005487
212	0x3cb0fdfc	0.021605484
213	0xbe161d8e	-0.14659712
214	0xbd2753ca	-0.04085139
215	0xbe5989aa	-0.21243921
216	0x3e51e76a	0.20498434
217	0x3dc105b2	0.094249144
218	0xbe4c6d79	-0.19963636
219	0x3e8bcd4e	0.27305073
220	0xbe898275	-0.26857343
221	0xbe9fb430	-0.3119216
222	0xbb6f9c1e	-0.003656156
223	0x3d820893	0.06349292
224	0x3e6d51c3	0.23175721
225	0x3e90acbe	0.28256792
226	0xbebe8d15	-0.37217012
227	0xbdd34b9a	-0.10317154
228	0xbea73c4c	-0.3266319
229	0xbe3905ab	-0.18068568
230	0x3e47b357	0.19502006
231	0xbe93c480	-0.28860855
232	0x3e0b95e9	0.13631405
233	0xbec5c0ea	-0.38623744
234	0x3e65d4e1	0.22444488
235	0xbdd36eb2	-0.10323848
236	0x3e7334b6	0.23750576
237	0xbe4f574b	-0.20248143
238	0x3f30c7dd	0.6905497
239	0xbeb4bc17	-0.3529975
240	0xbe626e6e	-0.22112438
241	0xbe573c4b	-0.21019094
242	0x3efadddc	0.4899739
243	0xbe86a0b0	-0.2629447
244	0x3e64d59d	0.22347112
245	0x3e9202de	0.28517812
246	0x3e91cbbe	0.28475755
247	0x3c409489	0.011754164
248	0x3d25895c	0.0404142
249	0xbe95377d	-0.29143897
250	0xbe9fc221	-0.31202796
251	0x3ea8bdb1	0.32957223
252	0xbe1724c5	-0.1476012
253	0x3ea37745	0.31926933
254	0xbdc6b74a	-0.09702928
255	0xbe6fbab0	-0.2341106

conv1.application__rev_interacts__event.lin_rel.weight f4 [48, 3]
0	0xbe45b6c9	-0.19308008
1	0xbe70bd8a	-0.23509803
2	0xbe1c64f8	-0.15272892
3	0x3e570e5f	0.21001576
4	0x3ea31a0a	0.31855804
5	0x3f000993	0.5001461
6	0x3db2b866	0.087265775
7	0x3d2b5c60	0.041836143
8	0xbb29c22f	-0.0025903096
9	0x3eecc934	0.46247256
10	0x3e30cc79	0.172655
11	0x3e9bcb50	0.30428553
12	0xbeb30fb7	-0.34972927
13	0x3d30f9f9	0.043207143
14	0x3df4d9f8	0.11955637
15	0xbe5ab0a8	-0.21356452
16	0xbf0322d4	-0.5122502
17	0xbe1d6f73	-0.15374546
18	0xbe60137c	-0.21882433
19	0xbeb5d416	-0.3551337
20	0x3e3c6e62	0.18401483
21	0x3d9e6b4f	0.07735311
22	0xbed77ac5	-0.42085853
23	0xbeed4b44	-0.46346486
24	0xbe8c0407	-0.27346823
25	0x3ddc5b34	0.10759583
26	0xbe78018e	-0.24219343
27	0xbe22b91e	-0.15890929
28	0x3e414929	0.18875565
29	0xbea9f5ce	-0.33195347
30	0x3e7e0fc8	0.24810708
31	0xbe88f95e	-0.26752752
32	0x3eb13cfa	0.34616834
33	0xbf1ac312	-0.60453904
34	0xbeb69ccc	-0.35666502
35	0xbed17a32	-0.4091354
36	0x3e68bdfc	0.22728723
37	0x3e0857c1	0.13314725
38	0x3e70bed3	0.23510294
39	0xbed4b28e	-0.41542476
40	0x3e172753	0.14761095
41	0xbdfc7209	-0.12326438
42	0x3e68f8c0	0.2275114
43	0xbe1ee719	-0.15517844
44	0x3da21191	0.07913507
45	0x3e80e912	0.2517782
46	0x3e58cf70	0.21172881
47	0xbe0a5322	-0.13508275
48	0x3f300453	0.687566
49	0xbd0e52ec	-0.03474705
50	0x3e9dd5a3	0.30827054
51	0x3ecb46fb	0.3970259
52	0xbe0de036	-0.13855061
53	0xbeefdb63	-0.46847066
54	0x3ea9dbe8	0.33175588
55	0xbebaaf8f	-0.36462066
56	0xbefb2e5c	-0.49058807
57	0x3ee2499e	0.4419679
58	0xbed1616f	-0.40894648
59	0x3dafa17f	0.08575725
60	0xbee4a9ad	-0.44660702
61	0xbe896e68	-0.26842046
62	0xbeb25941	-0.3483372
63	0x3f000e9f	0.5002231
64	0xbeba7e92	-0.3642469
65	0x3edbed19	0.4295433
66	0xbd6c9248	-0.057756692
67	0x3dee0a2c	0.11623034
68	0xbee59f9c	-0.44848335
69	0xbef5082a	-0.4785779
70	0xbea72408	-0.32644677
71	0xbddc9b91	-0.107718594
72	0xbe9d8063	-0.30762014
73	0xbdded1ce	-0.10879861
74	0x3eff0072	0.49805027
75	0xbeec13d5	-0.4610888
76	0xbe6525a5	-0.22377641
77	0x3efd7b36	0.49508065
78	0xbec3f029	-0.38269165
79	0x3ec0da40	0.37666512
80	0x3ea92eb4	0.33043444
81	0x3e336ff1	0.17523171
82	0xbe8c099e	-0.27351087
83	0xbd695275	-0.056963403
84	0x3ebf372b	0.37346777
85	0xbe977473	-0.2958103
86	0x3f0bca4a	0.54605544
87	0xbce458d0	-0.02787438
88	0xbde8783f	-0.1135106
89	0xbc13149e	-0.0089770835
90	0x3eb23c4c	0.34811628
91	0xbe1d8406	-0.15382394
92	0xbed0bc10	-0.4076848
93	0x3e2f7045	0.17132671
94	0xbe809c05	-0.25119033
95	0xbedfa708	-0.43682122
96	0x3eb76a97	0.3582351
97	0xbea5a4d9	-0.3235233
98	0x3d86dcaf	0.06585061
99	0xbf0bf946	-0.54677236
100	0xbe28ae4e	-0.16472742
101	0xbe9c10bc	-0.30481517
102	0xbd0a86ac	-0.03381984
103	0xbdeea8e5	-0.11653308
104	0x3dfa88e8	0.12233144
105	0x3ddb6c12	0.10713972
106	0x3d47fbc0	0.048824072
107	0x3e238bb6	0.15971264
108	0x3ec23da5	0.37937656
109	0x3d4f9344	0.050677553
110	0xba0e07c0	-0.0005418025
111	0x3eacc866	0.33746642
112	0x3ee9f9e7	0.45698473
113	0xbe8da77f	-0.27666852
114	0x3e96da64	0.29463494
115	0xbcf497a9	-0.029857473
116	0xbd65d4cb	-0.05611114
117	0x3ef00951	0.46882108
118	0xbc8bea1d	-0.017079407
119	0x3e9b721e	0.30360502
120	0x3d5ced85	0.053937454
121	0x3e3b04b4	0.18263513
122	0x3dbeacdf	0.09310316
123	0x3e1f2c4d	0.15544243
124	0xbe015495	-0.12629922
125	0xbeb71524	-0.35758317
126	0x3cf9be75	0.030486325
127	0xbe2135cf	-0.15743183
128	0x3f081117	0.5315108
129	0x3e494322	0.19654515
130	0x3e65eb25	0.22452982
131	0x3e644664	0.22292477
132	0x3ea98816	0.33111638
133	0xbe01e27d	-0.12684055
134	0xbe607d97	-0.21922909
135	0xbeaf0749	-0.34185246
136	0x3e127013	0.14300565
137	0xbe1bf71e	-0.15230986
138	0x3eb2a988	0.34894967
139	0xbe8ed665	-0.27897945
140	0xbb91d170	-0.0044500157
141	0x3e60629d	0.21912618
142	0xbebbe7c6	-0.36700267
143	0xbe2cb3f2	-0.16865519

conv1.application__rev_interacts__event.lin_rel.bias f4 [48]
0	0x3d27a10d	0.040925074
1	0x3f000713	0.50010794
2	0x3ee864e3	0.4538947
3	0xbee974ac	-0.45596826
4	0x3d880eca	0.06643446
5	0x3c384dd9	0.011249029
6	0xbde54197	-0.11194151
7	0x3da07312	0.07834448
8	0x3d00b127	0.031418946
9	0xbeb40f1b	-0.35167775
10	0x3d801a38	0.06255001
11	0x3dcd21cf	0.10016214
12	0x3ec90db2	0.3926826
13	0x3eac07ce	0.33599705
14	0xbe79f91f	-0.24411438
15	0xbe25bc99	-0.16185226
16	0xbba1fa67	-0.0049431804
17	0xbe2e7c73	-0.17039661
18	0xbd861e62	-0.06548764
19	0x3e7ed1d4	0.2488473
20	0x3df36556	0.11884563
21	0x3e533430	0.20625377
22	0x3ebf0349	0.37307194
23	0xbea43866	-0.3207428
24	0xbe9fa545	-0.31180778
25	0x3e888b21	0.26668647
26	0x3e3ec4aa	0.18629709
27	0xbed640f3	-0.41846427
28	0xbf04f5c3	-0.519375
29	0x3e2ebd24	0.17064339
30	0xbe2f1f7b	-0.17101853
31	0x3e05908c	0.13043422
32	0x3ebd497c	0.36970127
33	0xbef0cbee	-0.47030586
34	0x3e14f976	0.14548287
35	0x3e669830	0.22518992
36	0xbec90eb4	-0.3926903
37	0x3eb340ca	0.35010368
38	0x3ca4f8a5	0.020138094
39	0xbee47917	-0.44623634
40	0xbeeba737	-0.46026012
41	0x3ddd65f2	0.1081046
42	0x3e595385	0.21223266
43	0x3e302df1	0.17205025
44	0x3e6e4d83	0.23271756
45	0x3ecd26cd	0.40068665
46	0xbe3bd1ea	-0.18341795
47	0x3ecfbc8d	0.4057354
