models/CS/efg/exp_v3/no_subgraph_sampling/lr=0.01_hidden_dim=64/HigherOrderGNN_20230830_09h35m/state_dict_epoch4.pt (torch, 45055 bytes, 7 tensors)

convs.0.lin_rel.weight f4 [64, 15]
0.11630075 0.1694254 0.27167103 0.053564824 0.11485078 0.12560399 0.18872125 0.097183004
-0.063877605 0.201271 0.15637553 0.048441216 -0.12164482 -0.07899403 -0.16325408 0.22813538
0.07940721 0.10093314 0.16295885 0.12786137 0.013733099 -0.061360843 0.2442514 -0.24891299
0.14800183 -0.23565671 0.109394625 0.24807282 0.08028273 0.053834226 0.22507426 0.085475065
0.20857713 -0.08653098 -0.16961707 0.10337962 0.11123873 0.01021144 -0.14768517 0.040715307
-0.021193385 -0.11571786 0.17046191 0.06839778 -0.092446834 5.513901e-05 0.10579098 -0.23222898
-0.14505774 -0.011556923 0.08688325 0.070433095 -0.023539416 -0.1556813 -0.022022119 -0.29409477
0.12591076 -0.23517215 -0.263218 0.24863683 0.27580756 0.048682623 0.09484253 -0.08949275
0.07019484 0.15817943 0.19051848 0.16658553 -0.24686602 0.07031927 -0.19723703 0.072133854
0.11797511 -0.13305876 -0.09324505 0.21628109 0.0052182954 -0.12294784 0.073354 0.18313363
0.12166926 0.053898882 -0.11358795 -0.16545598 0.14735812 0.10422794 -0.2731375 0.016307143
-0.26522103 -0.16313413 0.1675954 0.16740641 0.21009989 0.15590522 0.33267048 0.117883906
0.01758394 0.391499 -0.117354654 0.12794293 0.12857248 -0.16546713 -0.3384948 -0.21432294
0.055925187 0.42782766 0.06401155 0.12938632 -0.27278984 0.19954975 0.15298185 0.3564374
0.0668823 -0.072122335 0.03701548 0.34632677 -0.3181256 0.12629409 0.06987253 0.26117155
0.19667771 0.40886003 -0.42994818 -0.15146904 0.0065225163 0.15411411 -0.24207811 -0.4973432
-0.1490507 0.47966552 -0.089254856 0.04490406 -0.80800045 -0.7085114 0.46559218 0.27861577
0.28450978 0.26732242 0.11185451 0.21712942 0.026192533 0.007881252 0.11057223 -0.26120794
-0.05708114 0.054412052 -0.17234531 -0.011574847 -0.018973917 -0.36700293 -0.024839621 0.008521773
0.111128695 -0.012578894 0.035715114 0.11372742 -0.01926989 0.31872058 -0.18275361 0.16074714
-0.0085697975 0.09301825 0.08755214 0.020095041 -0.095753595 0.26317218 0.1595734 0.038062535
-0.040605016 0.14896119 0.22436912 0.24015594 -0.14183992 -0.1599102 0.01777342 0.13053355
-0.53295016 -0.21364449 -0.5061315 -0.079439014 0.09732677 0.10389466 0.34447864 0.030534651
0.04291547 0.12263706 0.07877891 0.08876224 -0.12102464 0.12182692 0.024425574 -0.21034972
-0.06259957 -0.09813328 -0.28218654 -0.32613868 0.36797827 0.12381792 -0.3202478 0.09307742
0.17019846 0.20163885 -0.033423565 0.0068125203 -0.23615463 0.2080146 -0.18348345 -0.28554097
0.16396457 0.051920228 0.087877266 0.08228882 0.26925468 0.035118178 0.041914612 0.06648391
0.09733949 -0.23114876 -0.14634608 0.03392934 0.124072246 0.14749373 -0.19984262 -0.1120997
-0.13268365 -0.19148736 -0.28776056 0.2212989 -0.17082956 0.010775339 -0.018548172 0.014635549
-1.1432997 -0.27197447 0.03271717 0.18526319 -0.071091525 0.0733165 0.011453626 0.19574182
-0.15254408 -0.2998416 -0.13759667 -0.048882976 -0.25824767 -0.054953706 0.023351178 0.4415084
-0.11550462 0.009880849 0.54160786 -0.21416984 -0.0085632345 0.19144213 -0.24810918 0.10238575
00000000: 162f ee3d da7d 2d3e 7718 8b3e ca66 5b3d
00000010: e336 eb3d 559e 003e 2540 413e e207 c73d
00000020: 43d2 82bd fc19 4e3e e820 203e 4c6a 463d
00000030: eb20 f9bd 9fc7 a1bd 142c 27be 529c 693e
00000040: 3fa0 a23d 09b6 ce3d afde 263e 17ee 023e
00000050: cb00 613c 8255 7bbd 0a1d 7a3e 0ce3 7ebe
00000060: cb8d 173e fe4f 71be 4a0a e03d cd06 7e3e
00000070: 466b a43d 4781 5c3d de79 663e 8d0d af3d
00000080: 3e95 553e 2837 b1bd 19b0 2dbe b2b8 d33d
00000090: 22d1 e33d e24d 273c c83a 17be 18c5 263d
000000a0: c09d adbc 7cfd ecbd 918d 2e3e 2314 8c3d
000000b0: c454 bdbd 1045 6738 f1a8 d83d 6fcd 6dbe
000000c0: 048a 14be 4059 3dbc d8ef b13d 3a3f 903d
000000d0: bcd5 c0bc eb6a 1fbe bb67 b4bc 9793 96be
000000e0: c0ee 003e f8d0 70be 82c4 86be a79a 7e3e
000000f0: a636 8d3e 6e67 473d cd3c c23d fa47 b7bd
00000100: 50c2 8f3d caf9 213e 4717 433e 6695 2a3e
00000110: 72ca 7cbe 8d03 903d 81f8 49be eaba 933d
00000120: ef9c f13d 8e40 08be 43f7 bebd ca78 5d3e
00000130: 3cfe aa3b 14cc fbbd 9f3a 963d 6287 3b3e
00000140: bc2d f93d 13c5 5c3d cda0 e8bd 4b6d 29be
00000150: 0ce5 163e 7575 d53d aed8 8bbe 8f96 853c
00000160: 0dcb 87be a20c 27be 219e 2b3e 966c 2b3e
00000170: 6d24 573e 9ea5 1f3e c953 aa3e 1e6d f13d
00000180: 320c 903c 8f72 c83e a357 f0bd 7903 033e
00000190: 81a8 033e 3770 29be 314f adbe 7977 5bbe
000001a0: cf11 653d 3a0c db3e 7d18 833d d97d 043e
000001b0: 1cab 8bbe c556 4c3e 46a7 1c3e f77e b63e
000001c0: 96f9 883d e0b4 93bd 8b9d 173d be51 b13e
000001d0: 5ce1 a2be 3d53 013e 5419 8f3d 47b8 853e
000001e0: e265 493e 1a56 d13e 2b22 dcbe b31a 1bbe
000001f0: d5ba d53b 17d0 1d3e 53e3 77be c5a3 febe
00000200: bfa0 18be b896 f53e 40cb b6bd 52ed 373d
00000210: 1ed9 4ebf 0161 35bf 1962 ee3e baa6 8e3e
00000220: 44ab 913e 7cde 883e fa13 e53d 2d57 5e3e
00000230: b991 d63c 5e20 013c b173 e23d 0cbd 85be
00000240: eacd 69bd 2cdf 5e3d 4a7b 30be 6da4 3dbc
00000250: 306f 9bbc cfe7 bbbe 767c cbbc e89e 0b3c
00000260: 7197 e33d b517 4ebc 034a 123d ece9 e83d
00000270: e3db 9dbc 582f a33e c323 3bbe e69a 243e
00000280: 5668 0cbc 5a80 be3d 894e b33d 5b9e a43c
00000290: 761a c4bd 81be 863e 3667 233e 76e7 1b3d
000002a0: 7251 26bd 4889 183e 05c1 653e 70eb 753e
000002b0: 7c3e 11be 80bf 23be 9099 913c 96aa 053e
000002c0: 6c6f 08bf 9fc5 5abe d591 01bf ecb0 a2bd
000002d0: 4253 c73d b9c6 d43d 815f b03e ce23 fa3c
000002e0: 22c8 2f3d 2429 fb3d d656 a13d fac8 b53d
000002f0: c4db f7bd 6480 f93d 2418 c83c eb65 57be
00000300: 3434 80bd 1afa c8bd c17a 90be a6fb a6be
00000310: a667 bc3e 4094 fd3d 85f7 a3be 609f be3d
00000320: 8148 2e3e 6a7a 4e3e 26e7 08bd 903b df3b
00000330: 85d2 71be c801 553e 16e3 3bbe 6d32 92be
00000340: 54e6 273e 4eaa 543d fff8 b33d 0a87 a83d
00000350: c0db 893e 14d8 0f3d a8ae 2b3d b728 883d
00000360: ed59 c73d 43b2 6cbe bfdb 15be 7ef9 0a3d
00000370: 9719 fe3d 9908 173e 8ba3 4cbe 8794 e5bd
00000380: 39de 07be 4315 44be 5a55 93be 2e9c 623e
00000390: f2ed 2ebe 0c8b 303c 56f2 97bc f1c9 6f3c
000003a0: a557 92bf 3d40 8bbe 7002 063d a2b5 3d3e
000003b0: 6f98 91bd f626 963d fda7 3b3c 8b70 483e
000003c0: 8434 1cbe d784 99be 24e6 0cbe 8439 48bd
000003d0: 0a39 84be 2317 61bd f84a bf3c 640d e23e
000003e0: b08d ecbd 49e3 213c d0a6 0a3f 574f 5bbe
000003f0: cf4c 0cbc 6809 443e 5510 7ebe 9faf d13d

convs.0.lin_rel.bias f4 [64]
-1.2013862 -1.4456681 -1.4401131 -1.3649145 -1.5825028 -1.5747913 -1.9567101 -1.8877188
-1.008324 -1.3525689 -1.2747418 -1.6278322 -1.8924594 -1.3819022 -1.1074151 -1.3522493
-1.4141989 -2.0596838 -2.6364362 -1.2865661 -1.4889439 -1.5385478 -1.5468313 -1.3098001
-0.26520592 -1.142489 -1.6950194 -1.7232418 -2.0832043 -1.8939488 -1.5898224 -1.5516754
-1.7895336 -1.0886613 -0.72914064 -1.2260141 -1.5872674 -2.6650016 -1.6400532 -1.7844316
-1.5222741 -2.017371 -1.9563303 -1.808351 -1.5222595 -0.8506948 -0.35914305 -1.8104929
-1.3003339 -1.5575311 -0.86442655 -1.9279517 -0.33895513 -1.8814654 -1.6555879 -1.2023596
-1.7547432 -1.5997534 -1.4676701 -1.5291508 -1.8927374 -1.2825696 -1.0410085 -2.1660662
00000000: 06c7 99bf a70b b9bf a055 b8bf 85b5 aebf
00000010: 748f cabf c392 c9bf 7a75 fabf c5a0 f1bf
00000020: c310 81bf fa20 adbf bd2a a3bf ce5c d0bf
00000030: 1c3c f2bf 2ce2 b0bf c7bf 8dbf 8116 adbf
00000040: 7804 b5bf dcd1 03c0 5fbb 28c0 33ae a4bf
00000050: b795 bebf 22ef c4bf 91fe c5bf 88a7 a7bf
00000060: 12c9 87be 143d 92bf 65f6 d8bf 3093 dcbf
00000070: 3853 05c0 ea6c f2bf 4d7f cbbf 4d9d c6bf
00000080: 700f e5bf 4159 8bbf f6a8 3abf 08ee 9cbf
00000090: 942b cbbf 638f 2ac0 43ed d1bf 4168 e4bf
000000a0: e1d9 c2bf 9b1c 01c0 0869 fabf 0c78 e7bf
000000b0: 66d9 c2bf 22c7 59bf 99e1 b7be 3bbe e7bf
000000c0: 5771 a6bf 2e5d c7bf 0f4b 5dbf 1fc7 f6bf
000000d0: 878b adbe dcd3 f0bf 4eea d3bf ebe6 99bf
000000e0: 6d9b e0bf b8c4 ccbf 9ddc bbbf 37bb c3bf
000000f0: 3845 f2bf 3e2b a4bf c43f 85bf d4a0 0ac0

convs.0.lin_root.weight f4 [64, 15]
-0.016054047 0.027343838 0.085882105 -0.028244844 0.01089333 -0.087679364 0.20685509 0.072810575
-0.083450235 -0.13087238 -0.12657736 -0.12480204 0.113514245 0.041170288 0.0798659 0.099997826
-0.0076463204 0.007476136 -0.25497013 0.33580178 0.09711348 -0.24088705 -0.2935647 -0.050035793
0.24957378 -0.23473865 -0.054450743 0.13846244 0.38374367 -0.12585084 0.13355066 0.2536081
0.33408538 -0.08483276 0.110852934 -0.195372 -0.078237355 0.11804381 -0.062846445 0.08429712
-0.3469815 -0.28472936 0.25030664 0.16516304 -0.17572026 0.047805633 -0.025712853 -0.076531194
0.020696398 0.039771914 0.49071273 0.18067463 -0.41480958 -0.017223636 0.05727448 -0.1026916
-0.05568645 -0.28523663 -0.026412645 0.16018154 0.12765692 0.11617259 -0.07229013 -0.07491957
-0.0154572865 0.001517065 0.43943462 -0.26393914 -0.11228837 -0.1060518 0.08823575 -0.1534722
-0.06533697 0.13015498 0.113010086 0.21398881 0.10512613 -0.1446079 0.16232519 0.05878376
0.14116761 0.21649134 -0.09581231 -0.19231223 -0.1329442 0.07031822 -0.10166612 0.077528074
-0.17737535 0.2081413 -0.095901854 -0.16431537 -0.09726424 -0.120532095 0.16341344 0.07291111
0.09963857 -0.029252682 -0.120066874 0.048647694 -0.06837206 -0.34292105 -0.17443044 0.034974623
0.30601355 0.0902655 0.021719199 0.1257889 0.10642477 0.15798314 0.10159083 -0.08354527
0.15813763 -0.23583798 0.17115028 0.25857586 -0.22930196 -0.03785798 0.06626773 0.04291939
0.43854845 0.36796615 -0.37202883 0.21637507 -0.2813744 -0.14083596 0.108487755 0.40403533
0.43719268 0.21638353 0.034725573 0.28994542 -0.73567027 0.6741107 -0.10129644 0.1523963
-0.0019377613 0.06068154 -0.17523311 -0.05560614 -0.03921422 0.2531092 -0.20886818 -0.5027426
0.13670121 -0.06613444 -0.21052606 0.08793823 0.13295828 -0.09545431 0.08865095 -0.03883886
0.16738959 -0.010710334 0.04490272 0.018569777 0.16183795 -0.1980534 -0.37718558 -0.11301544
-0.11293682 -0.082343504 0.071636304 -0.14680275 -0.04744136 -0.07323263 0.055542253 0.115133636
-0.22859381 -0.062092155 0.020725418 0.023055356 -0.14963289 -0.043084487 -0.022276824 -0.32283992
-0.27616504 0.034062557 -0.22208576 0.1286345 -0.12038612 0.07811121 -0.14359865 0.040417653
-0.015429153 -0.010808793 0.21043634 -0.005032848 -0.31696305 0.07198292 -0.14101319 -0.20842932
0.19309953 0.040167447 -0.30818057 -0.22178997 0.5757086 -0.08831705 0.016776497 0.022041375
0.1876551 0.053014744 0.20214583 0.20013124 0.08348 -0.11881529 -0.11041178 -0.4260342
0.27830425 -0.1913541 0.09816141 0.07149652 0.25502986 -0.061294254 0.0745826 0.039715126
0.09985799 0.12183569 -0.27688515 -0.06925851 -0.022506977 -0.1839146 0.19773296 -0.03124104
-0.18817684 0.04313655 0.163944 0.28427938 -0.09581393 0.07916963 -0.10365709 -0.021018226
0.94629276 -0.36199242 -0.048592422 -0.16041262 -0.2634573 0.06924211 -0.17827357 -0.01269051
0.30224064 0.006211255 0.13933632 0.016019573 0.09590701 0.08257761 0.20029548 -0.38748556
-0.1574548 0.03381922 -0.041664734 -0.64512074 -0.12610056 -0.022534559 0.24390277 0.2853295
00000000: c783 83bc 2f00 e03c f5e2 af3d bb61 e7bc
00000010: f079 323c 3d91 b3bd d2d1 533e b61d 953d
00000020: f5e7 aabd 6903 06be 7f9d 01be 3698 ffbd
00000030: 287a e83d 2da2 283d bc90 a33d a9cb cc3d
00000040: fc8d fabb 60fa f43b 728b 82be 36ee ab3e
00000050: 6fe3 c63d 18ab 76be 1d4e 96be 55f2 4cbd
00000060: 4590 7f3e 545f 70be be07 5fbd 19c9 0d3e
00000070: 0d7a c43e 0bdf 00be 81c1 083e ecd8 813e
00000080: 3d0d ab3e ccbc adbd dd06 e33d 990f 48be
00000090: e83a a0bd f4c0 f13d a3b5 80bd f8a3 ac3d
000000a0: 8fa7 b1be 0cc8 91be 3128 803e 8020 293e
000000b0: 03f0 33be d7cf 433d c3a3 d2bc 63bc 9cbd
000000c0: 7e8b a93c e0e7 223d b33e fb3e c502 393e
000000d0: ec61 d4be 9518 8dbc a598 6a3d f94f d2bd
000000e0: 7a17 64bd 890a 92be 555f d8bc a106 243e
000000f0: 7fb8 023e e5eb ed3d d90c 94bd 6e6f 99bd
00000100: 8f40 7dbc 41d8 c63a 93fd e03e 0823 87be
00000110: 72f7 e5bd b031 d9bd f2b4 b43d d127 1dbe
00000120: 64cf 85bd 5947 053e d571 e73d e21f 5b3e
00000130: 5e4c d73d 1814 14be 9338 263e 3dc7 703d
00000140: 3e8e 103e e8af 5d3e 3f39 c4bd 7fed 44be
00000150: 8622 08be 0003 903d 5436 d0bd 0ac7 9e3d
00000160: e2a1 35be fe22 553e 3168 c4bd 4a42 28be
00000170: 7932 c7bd 88d9 f6bd da55 273e 6c52 953d
00000180: 4e0f cc3d 52a3 efbc 9fe5 f5bd ce42 473d
00000190: a706 8cbd 5993 afbe e59d 32be 8d41 0f3d
000001a0: cfad 9c3e 1edd b83d 76ec b13c cece 003e
000001b0: 3bf5 d93d 55c6 213e da0e d03d c819 abbd
000001c0: d5ee 213e 837f 71be 0542 2f3e 0e64 843e
000001d0: 22ce 6abe f810 1bbd 60b7 873d 3ecc 2f3d
000001e0: 6c89 e03e 0f66 bc3e 907a bebe 6d91 5d3e
000001f0: 4e10 90be 4d37 10be d42e de3d b8dd ce3e
00000200: b8d7 df3e a593 5d3e 673c 0e3d ba73 943e
00000210: e354 3cbf 8592 2c3f 8274 cfbd c70d 1c3e
00000220: 7bfc fdba 358d 783d 4f70 33be 44c3 63bd
00000230: 179f 20bd 8797 813e 8ae1 55be bdb3 00bf
00000240: 67fb 0b3e 7e71 87bd 2594 57be f518 b43d
00000250: 3726 083e 8d7d c3bd a18e b53d 7f15 1fbd
00000260: 2d68 2b3e 667a 2fbc eaeb 373d a51f 983c
00000270: d9b8 253e 83ce 4abe 781e c1be a474 e7bd
00000280: 6b4b e7bd b6a3 a8bd 0eb6 923d 7653 16be
00000290: df51 42bd fdfa 95bd 4680 633d 2fcb eb3d
000002a0: 7f14 6abe 5854 7ebd 5ac8 a93c 96de bc3c
000002b0: 5d39 19be 5c79 30bd e37d b6bc 464b a5be
000002c0: 8165 8dbe 2e85 0b3d 736a 63be c3b8 033e
000002d0: 008d f6bd c5f8 9f3d 860b 13be fb8c 253d
000002e0: 8fca 7cbc 5d17 31bc a07c 573e 97ea a4bb
000002f0: fb48 a2be c86b 933d c365 10be 7f6e 55be
00000300: e2bb 453e 9f86 243d d8c9 9dbe e91c 63be
00000310: a461 133f 92df b4bd dd6e 893c 1d90 b43c
00000320: a928 403e fd25 593d 51ff 4e3e 34ef 4c3e
00000330: 90f7 aa3d 6e55 f3bd 921f e2bd 2821 dabe
00000340: e57d 8e3e 54f2 43be d908 c93d c46c 923d
00000350: 4693 823e af0f 7bbd c3be 983d 54ac 223d
00000360: 5982 cc3d fe84 f93d e4c3 8dbe 68d7 8dbd
00000370: 8d60 b8bc 1c54 3cbe 827a 4a3e 36ed ffbc
00000380: 6eb1 40be f3af 303d f0e0 273e 118d 913e
00000390: 183a c4bd b023 a23d 2b4a d4bd 6a2e acbc
000003a0: 3e40 723f 1257 b9be d908 47bd 3543 24be
000003b0: e0e3 86be cfce 8d3d 598d 36be dbeb 4fbc
000003c0: 49bf 9a3e c987 cb3b 2eae 0e3e 7b3b 833c
000003d0: e56a c43d 731e a93d 421a 4d3e 8264 c6be
000003e0: d53b 21be 0686 0a3d a4a8 2abd a226 25bf
000003f0: 8120 01be 659a b8bc a6c1 793e b516 923e

convs.1.lin_rel.weight f4 [64, 64]
0.34230155 -0.06893337 -0.0147328 0.30201405 0.19734016 0.1640967 0.06861097 -0.11325056
-0.14748964 0.13436103 -0.052493107 -0.14641768 0.08396072 -0.2665756 0.052440166 -0.20753911
-0.24277174 0.08854632 0.018295666 -0.16363055 -0.13942409 -0.19714807 -0.39456192 -0.08728954
-0.044263415 0.23057923 0.31830272 -0.28332692 0.026288219 -0.13253567 -0.4485861 -0.35543248
0.23110604 0.11804402 -0.5738829 -0.26148424 0.3619098 0.18772049 -0.14428589 -0.030506764
-0.13493884 0.35705596 0.35636267 -0.09261645 0.4066278 -0.34152195 -0.31695017 -0.17222394
0.0122368755 -0.1409347 -0.1656703 0.26971984 -0.060990628 -0.7431479 -0.012755045 0.34234148
-0.16600975 0.03601975 0.605282 0.2784243 -0.23480654 -0.09196359 0.1478761 0.09550972
-0.06347099 -0.27289873 -0.15135448 -0.03921215 0.017771589 -0.030951384 -0.2911558 -0.30004808
-0.41276556 0.024376007 -0.19731665 0.18009424 -0.33879757 -0.09312509 -0.47913346 0.043321405
-0.104127966 -0.11374567 -0.13104326 0.02082333 0.1296781 -0.10626634 -0.07748818 0.0018728125
-0.15121357 0.07544368 -0.10438879 0.11635917 0.016721359 0.24804696 -0.46284562 0.1755206
-0.03955214 0.19691958 -0.19734685 0.07707888 -0.04468684 0.06351773 0.05051046 -0.43370882
-0.05213355 -0.18182833 -0.086803526 0.08784212 -0.11961014 -0.056966044 -0.26253456 0.08428652
0.020631894 -0.07948607 -0.05477879 0.033868622 -0.2524228 -0.16704164 -0.14444089 -0.14600176
-0.13988172 -0.055559415 0.22696742 -0.093108125 0.029551545 -0.10420408 -0.10387667 0.35855773
0.18490224 -0.12549858 0.032339443 -0.015737297 0.25634918 0.37234047 0.12664856 0.33946553
-0.117925525 -0.30878 0.16952012 0.11352673 0.26881868 0.14242129 -0.12543465 -0.08717741
0.18440813 -0.22044359 0.36873773 -0.012534357 0.36173186 -0.03946296 0.000917852 0.09670921
-0.32820034 0.06382363 0.27944794 0.0036007764 0.09876641 -0.12839128 -0.049458254 0.27348283
0.41996998 -0.18457152 -0.15023147 0.032637596 0.15309413 0.3385079 -0.058991287 -0.20168184
0.03859852 0.18513873 0.14049464 -0.1244273 0.0610561 0.13172323 -0.22625682 0.05831628
0.040445056 0.15367573 -0.16434163 0.22633444 -0.35154518 -0.07408217 -0.027706767 0.3113406
-0.034150124 0.07706532 0.114047386 -0.11757735 -0.0930471 -0.1387504 -0.0535978 0.50849605
-0.0004813411 0.32279104 -0.02063081 -0.12587942 0.12127835 0.1194022 0.06127384 0.0054235742
-0.25028735 0.6440298 0.0669089 0.07126794 0.060218483 -0.15704985 -0.116288394 0.51005447
-0.235503 -0.022074634 0.15388015 -0.26765177 -0.07890253 -0.14634152 0.051817007 0.21708031
-0.46409333 0.1645987 0.069860674 0.1127518 -0.16375653 0.39421496 0.3606844 0.041273117
-0.036608953 -0.24671039 -0.11953684 -0.1942269 0.25573578 0.26493514 0.12375092 -0.19672532
-0.059278138 0.13073054 0.08449026 0.43499675 0.2686924 -0.26069802 -0.2269586 0.40563533
0.0680702 -0.14685485 -0.11455931 0.11135078 -0.15411423 0.4189187 0.034484405 0.004802968
-0.02917145 -0.14058243 -0.41056934 -0.124280855 0.13696255 0.11393265 -0.099254526 0.41884574
00000000: 2642 af3e f02c 8dbd d861 71bc 96a1 9a3e
00000010: 8a13 4a3e f708 283e e983 8c3d e9ef e7bd
00000020: 8607 17be f095 093e 0303 57bd 84ee 15be
00000030: 99f3 ab3d 997c 88be 80cb 563d 2285 54be
00000040: 2899 78be c657 b53d cbe0 953c c48e 27be
00000050: 30c5 0ebe 2fe1 49be 0504 cabe dcc4 b2bd
00000060: 8e4d 35bd f61c 6c3e 93f8 a23e 3a10 91be
00000070: 645a d73c 6eb7 07be 14ad e5be 3ffb b5be
00000080: 10a7 6c3e 10c1 f13d fde9 12bf 43e1 85be
00000090: 3e4c b93e cd39 403e aebf 13be 52e9 f9bc
000000a0: 682d 0abe 0ad0 b63e 2b75 b63e b1ad bdbd
000000b0: 8531 d03e f7db aebe 4b47 a2be 795b 30be
000000c0: 2d7d 483c 3051 10be 7aa5 29be b818 8a3e
000000d0: 4fd1 79bd f13e 3ebf 89fa 50bc 6247 af3e
000000e0: 76fe 29be 7289 133d c3f3 1a3f a18d 8e3e
000000f0: 2071 70be 6857 bcbd d56c 173e 9a9a c33d
00000100: 14fd 81bd 62b9 8bbe abfc 1abe eb9c 20bd
00000110: b995 913c c28d fdbc 5f12 95be e79f 99be
00000120: 0256 d3be 31b0 c73c 600d 4abe a06a 383e
00000130: e076 adbe 5eb8 bebd fb50 f5be c971 313d
00000140: 0b41 d5bd 7df3 e8bd 3430 06be b095 aa3c
00000150: 56ca 043e 2ba2 d9bd 1fb2 9ebd 2979 f53a
00000160: bbd7 1abe 3782 9a3d cac9 d5bd b74d ee3d
00000170: 3bfb 883c 0600 7e3e 1afa ecbe acbb 333e
00000180: 6d01 22bd 49a5 493e 4b15 4abe 88db 9d3d
00000190: 8c09 37bd 9515 823d 0ee4 4e3d 150f debe
000001a0: fd89 55bd 3531 3abe 0cc6 b1bd 92e6 b33d
000001b0: 29f6 f4bd 3a55 69bd ee6a 86be 699e ac3d
000001c0: 3804 a93c 98c9 a2bd b95f 60bd d3b9 0a3d
000001d0: 903d 81be f70c 2bbe 50e8 13be 7c81 15be
000001e0: 273d 0fbe 4592 63bd 266a 683e 79af bebd
000001f0: 1516 f23c f368 d5bd 4bbd d4bd e194 b73e
00000200: 0357 3d3e b382 00be 5d76 043d 81eb 80bc
00000210: 3340 833e 69a3 be3e 29b0 013e 6dce ad3e
00000220: f082 f1bd 6a18 9ebe af96 2d3e b480 e83d
00000230: 9aa2 893e e3d6 113e f171 00be 128a b2bd
00000240: 7cd5 3c3e f7bb 61be 31cb bc3e e75c 4dbc
00000250: eb34 b93e eaa3 21bd 019c 703a 7a0f c63d
00000260: e009 a8be f7b5 823d cd13 8f3e 01fb 6b3b
00000270: 0b46 ca3d 0179 03be bd94 4abd f105 8c3e
00000280: 4e06 d73e 5100 3dbe 47d6 19be 00af 053d
00000290: b5c4 1c3e e850 ad3e d9a0 71bd af85 4ebe
000002a0: 7b19 1e3d 0295 3d3e d4dd 0f3e bed3 febd
000002b0: f615 7a3d 74e2 063e deaf 67be 0ddd 6e3d
000002c0: b7a9 253d 2c5d 1d3e 2c49 28be 37c4 673e
000002d0: bbfd b3be 65b8 97bd 4df9 e2bc 0968 9f3e
000002e0: 00e1 0bbd 6cd4 9d3d ad91 e93d 65cc f0bd
000002f0: 7a8f bebd 9614 0ebe 5e89 5bbd cc2c 023f
00000300: 825c fcb9 de44 a53e f201 a9bc 89e6 00be
00000310: c960 f83d 2489 f43d 47fa 7a3d 3db8 b13b
00000320: aa25 80be 23df 243f 8907 893d edf4 913d
00000330: a8a7 763d add1 20be 9c28 eebd ee92 023f
00000340: b327 71be ddd5 b4bc c292 1d3e a709 89be
00000350: a697 a1bd 8dda 15be 123e 543d 4d4a 5e3e
00000360: a49d edbe 908c 283e 1d13 8f3d 6aea e63d
00000370: cbaf 27be 8bd6 c93e a0ab b83e 000e 293d
00000380: 45f3 15bd a6a1 7cbe bbcf f4bd 6be3 46be
00000390: cdef 823e 94a5 873e 1f71 fd3d 5d72 49be
000003a0: a2cd 72bd 3ade 053e 3b09 ad3d e5b7 de3e
000003b0: 0d92 893e 367a 85be d667 68be 6faf cf3e
000003c0: 6468 8b3d 1e61 16be 129e eabd e10b e43d
000003d0: 1fd0 1dbe 837c d63e 853f 0d3d 3762 9d3b
000003e0: f7f8 eebc d7f4 0fbe 2536 d2be f686 febd
000003f0: e93f 0c3e 8555 e93d f545 cbbd f372 d63e

convs.1.lin_rel.bias f4 [64]
-0.09961009 -0.6554479 -0.4846264 -0.38871232 1.6492242 -0.20909508 -0.5684081 -0.5262183
-0.81154066 -0.44842416 -0.42765036 -0.55578184 -0.72859013 -0.32997224 -0.6997849 -0.4776074
-0.35470155 0.22688212 -0.3049379 -0.00010373537 -0.8224722 -0.70824647 -0.16558887 -0.34373158
-0.54933333 -0.5989084 -0.43082893 -0.58766323 -0.3076167 -0.15092479 -0.30587295 -0.23762906
-0.4572835 -0.5174414 -0.28443816 -0.6177508 -0.10072632 -0.41128445 -0.59882855 -0.8769283
-0.67761695 -0.32068956 -0.5811529 -0.7028323 -0.579571 -0.4406049 -0.88959384 0.11051127
-0.7805951 -0.65581584 -0.49874288 -0.37528458 -0.4636118 -0.4268186 -0.6490265 -0.77301365
-0.47935534 -0.31122103 -0.66879475 -1.0073884 -0.3823417 -0.3175457 -0.38361585 -0.8256985
00000000: 6000 ccbd 6fcb 27bf f420 f8be 4d05 c7be
00000010: c719 d33f 051d 56be 3183 11bf 3eb6 06bf
00000020: 21c1 4fbf da97 e5be fdf4 dabe b847 0ebf
00000030: e284 3abf 1ff2 a8be 1a25 33bf f588 f4be
00000040: 719b b5be c953 683e d220 9cbe 818c d9b8
00000050: 8a8d 52bf a44f 35bf 2190 29be 96fd afbe
00000060: 1ca1 0cbf 1052 19bf 9c95 dcbe 1971 16bf
00000070: f07f 9dbe 078c 1abe 619b 9cbe 0855 73be
00000080: 1021 eabe 0a77 04bf e1a1 91be eb24 1ebf
00000090: 9a49 cebd e093 d2be d44c 19bf 607e 60bf
000000a0: 4e78 2dbf 6c31 a4be 70c6 14bf d1ec 33bf
000000b0: c45e 14bf f796 e1be 6cbc 63bf bc53 e23d
000000c0: 15d5 47bf 8ce3 27bf 3a5b ffbe 4d25 c0be
000000d0: 875e edbe f887 dabe 9a26 26bf 39e4 45bf
000000e0: 106e f5be 5d58 9fbe 2236 2bbf 1af2 80bf
000000f0: 4bc2 c3be 5a95 a2be 4c69 c4be fa60 53bf

convs.1.lin_root.weight f4 [64, 64]
0.315331 0.25760955 0.05595753 0.0959682 0.21530738 0.2224616 0.007743704 -0.17593148
-0.40360823 -0.007889206 0.1660389 -0.08222907 0.23547357 -0.26185536 0.056536674 -0.091820806
0.123854674 -0.10196942 0.21249647 -0.016299652 0.03282902 -0.19973 -0.25190437 0.18558177
-0.26244903 0.0870722 0.6087385 0.17552593 0.14160399 0.03907388 0.11576446 0.28589505
0.25493973 -0.019437585 -0.23480372 -0.03213777 0.18545638 0.041608665 -0.15953507 0.19111009
-0.18725765 0.35099536 0.0938828 0.023358088 0.38518673 -0.38109127 -0.36586457 0.07034236
-0.030564245 0.40373898 0.24395195 0.1564235 -0.18035412 -0.4750699 -0.05105561 0.23782542
-0.63676435 0.1771183 -0.25938448 0.030913053 -0.1387518 0.28397578 0.30719432 0.20254308
0.00788929 -0.38472244 -0.13766444 -0.14505853 -0.14269148 0.2184672 -0.2914905 -0.28913006
-0.48575303 0.11007807 -0.15509187 -0.033368517 -0.28705737 0.022897964 -0.2767724 0.050490957
-0.072475456 -0.023851514 -0.048533298 -0.12394262 0.08393822 -0.08134805 0.041528128 -0.03131634
0.083241165 0.07234959 0.1478098 -0.04747659 0.15775217 -0.04843323 -0.16325305 0.1684673
-0.010269786 0.17788188 -0.27547166 -0.027991857 -0.118652314 0.066903666 0.022020621 -0.15190263
-0.09454431 0.09968814 0.017447267 0.04558734 -0.22417842 -0.10748748 -0.1827268 0.087751254
-0.08520001 -0.2684891 -0.12895167 0.041634616 -0.16262686 0.14287582 -0.063368976 -0.00767527
0.10415724 -0.010850798 0.23077963 0.047878925 0.21029712 0.046976496 -0.06564188 0.28509402
0.21503069 -0.023001067 0.14259659 -0.10169532 0.103564575 0.16600135 0.056492716 0.42391798
-0.26055875 -0.0683907 0.014821092 -0.026879096 0.13044006 0.042667955 -0.12712917 -0.18343042
-0.010940326 -0.2030639 0.3052324 0.032202486 0.17138106 -0.06598852 0.04566586 0.0659558
-0.32175088 0.055762257 0.32106736 0.089713246 0.25750569 -0.11536362 0.06812192 -0.033323444
0.2971797 -0.25162172 -0.14958042 -0.04324636 0.07934716 0.06797242 0.24659774 0.00035037618
-0.0367472 0.46270716 0.045498922 -0.08879476 0.1454304 0.114602335 -0.2636081 -0.08780451
0.12547274 0.085604005 -0.22687888 0.17075393 -0.36787924 -0.20875582 -0.14817107 0.20841058
-0.088529356 0.16668712 0.06758701 -0.14078271 0.09513335 -0.05798283 0.08464118 0.3761075
0.07330348 0.27982467 0.17727448 -0.16418396 0.11425623 0.011762035 0.052043926 0.16265066
-0.41488266 0.60431254 0.03837092 0.18219665 0.24469934 -0.10507614 -0.1819875 -0.18961932
-0.19390656 0.24273622 0.16818677 0.03794516 0.15995163 -0.22756368 0.25301975 0.122259974
-0.5078768 0.07480777 -0.12771127 0.14499184 -0.00017589907 0.25348708 0.06994808 0.082247846
-0.35332152 -0.3713793 -0.18004432 -0.1307042 0.34380287 0.36106458 0.37245682 -0.375579
0.062457845 0.080526605 0.015403071 0.6009693 0.34078205 -0.31428277 -0.5862417 0.41419837
0.053384513 0.0395182 0.1261322 0.13612024 -0.33304068 0.2529695 -0.06244386 0.033181407
0.104347594 0.22001661 0.034551274 -0.04459854 -0.29289845 -0.20205724 0.154244 0.20493516
00000000: 1173 a13e 66e5 833e b933 653d fa8a c43d
00000010: 8a79 5c3e f9cc 633e e6be fd3b 6227 34be
00000020: bda5 cebe ba41 01bc 1a06 2a3e b767 a8bd
00000030: fc1f 713e e811 86be 0093 673d 8c0c bcbd
00000040: 85a7 fd3d 58d5 d0bd ad98 593e d986 85bc
00000050: b977 063d 0586 4cbe 9cf9 80be 2609 3e3e
00000060: b85f 86be e952 b23d 49d6 1b3f 12bd 333e
00000070: a300 113e ef0b 203d eb15 ed3d d660 923e
00000080: 7687 823e 923b 9fbc 6370 70be e5a2 03bd
00000090: 47e8 3d3e d96d 2a3d 295d 23be 5db2 433e
000000a0: 78c0 3fbe aab5 b33e a045 c03d 7659 bf3c
000000b0: 3237 c53e 651e c3be 9a52 bbbe a80f 903d
000000c0: de61 fabc e0b6 ce3e 8ace 793e 7b2d 203e
000000d0: c0ae 38be 5d3c f3be b01f 51bd 8288 733e
000000e0: fd02 23bf 805e 353e 0bce 84be 5f3d fd3c
000000f0: f414 0ebe 4665 913e 9348 9d3e 7467 4f3e
00000100: 1542 013c 57fa c4be e8f7 0cbe 398a 14be
00000110: b71d 12be deb5 5f3e 3e3e 95be db08 94be
00000120: 9fb4 f8be 9c70 e13d 67d0 1ebe 6dad 08bd
00000130: 2ff9 92be 8394 bb3c 1db5 8dbe 9bcf 4e3d
00000140: 036e 94bd 4064 c3bc daca 46bd a1d5 fdbd
00000150: cde7 ab3d ce99 a6bd 6619 2a3d 9045 00bd
00000160: 587a aa3d 062c 943d 745b 173e d076 42bd
00000170: c989 213e ec61 46bd cf2b 27be b182 2c3e
00000180: 9b42 28bc ab26 363e 9f0a 8dbe 2e4f e5bc
00000190: fcff f2bd ca04 893d 9764 b43c 5d8c 1bbe
000001a0: 72a0 c1bd 4c29 cc3d 92ed 8e3c cab9 3a3d
000001b0: 078f 65be 6522 dcbd bc1c 3bbe eeb6 b33d
000001c0: 587d aebd 6777 89be e80b 04be 0f89 2a3d
000001d0: a887 26be 0a4e 123e 98c7 81bd d580 fbbb
000001e0: 6450 d53d 8cc7 31bc 7f51 6c3e b11c 443d
000001f0: 2158 573e 6d6a 403d 406f 86bd d8f7 913e
00000200: 0131 5c3e bc6c bcbc d704 123e a345 d0bd
00000210: aa19 d43d 42fc 293e e864 673d c70b d93e
00000220: f567 85be 6c10 8cbd 2ad4 723c 8d31 dcbc
00000230: 1492 053e 98c4 2e3d 262e 02be 2fd5 3bbe
00000240: 0e3f 33bc fcef 4fbe 6c47 9c3e c1e6 033d
00000250: 847e 2f3e fd24 87bd 200c 3b3d d613 873d
00000260: 88bc a4be f766 643d f162 a43e 94bb b73d
00000270: c9d7 833e c343 ecbd 8183 8b3d 2a7e 08bd
00000280: f027 983e 90d4 80be 9c2b 19be 1823 31bd
00000290: c480 a23d 2035 8b3d 1e84 7c3e b2b2 b739
000002a0: 3b84 16bd f4e7 ec3e 145d 3a3d 07da b5bd
000002b0: b5eb 143e a1b4 ea3d a4f7 86be dad2 b3bd
000002c0: ed7b 003e 2751 af3d f052 68be 1eda 2e3e
000002d0: ab5a bcbe 16c4 55be 28ba 17be 9569 553e
000002e0: e14e b5bd 07b0 2a3e 0f6b 8a3d 5829 10be
000002f0: 46d5 c23d 677f 6dbd 5b58 ad3d 2a91 c03e
00000300: 2320 963d 2e45 8f3e 7187 353e d71f 28be
00000310: 2cff e93d 8db5 403c 032c 553d e58d 263e
00000320: 806b d4be 3ab4 1a3f d32a 1d3d c291 3a3e
00000330: 7792 7a3e 2932 d7bd ee5a 3abe 912b 42be
00000340: 718f 46be d88f 783e 2739 2c3e 626c 1b3d
00000350: 5cca 233e 7406 69be ce8b 813e 7063 fa3d
00000360: 3704 02bf d134 993d bec6 02be be78 143e
00000370: 8c71 38b9 0fc9 813e f040 8f3d 8f71 a83d
00000380: 8fe6 b4be 6d25 bebe 8a5d 38be 52d7 05be
00000390: ee06 b03e 75dd b83e a9b2 be3e e44b c0be
000003a0: ccd3 7f3d 22eb a43d 2a5d 7c3c 20d9 193f
000003b0: fc7a ae3e ace9 a0be f013 16bf cf11 d43e
000003c0: b8a9 5a3d d6dd 213d cd28 013e 1b63 0b3e
000003d0: 4f84 aabe 3885 813e 22c5 7fbd 3ae9 073d
000003e0: 31b4 d53d 094c 613e a385 0d3d f5ac 36bd
000003f0: c9f6 95be 18e8 4ebe 24f2 1d3e 86da 513e

post_layers.0.weight f4 [1, 64]
0.081011236 0.106658116 -0.016681736 0.022488235 -0.12379411 0.040253494 0.032212816 0.037854888
-0.07325712 -0.058452614 0.0055782353 -0.022248024 -0.030392846 -0.03285449 -0.05307511 -0.026608802
-0.0029962773 -0.055890065 0.011812962 0.016741196 0.047178324 -0.03283816 0.02618374 -0.1694278
0.011002728 -0.037087724 -0.001956933 0.07074362 -0.12992354 0.0051006097 0.0054759746 -0.031223947
0.014443096 0.00784545 0.026602158 -0.03347859 0.15573852 -0.018819164 -0.03282303 -0.04443436
-0.12483583 0.06234765 0.13516338 0.021553997 -0.030546403 -0.01788999 0.09390113 0.18123393
0.0073787835 0.022576297 0.031428825 0.0436487 0.01595136 0.028415581 0.0052997163 -0.2480481
0.022253659 -0.0046522673 0.11020087 0.18572089 -0.10131652 0.021938613 0.033190418 -0.06025835
00000000: 38e9 a53d 926f da3d 23a8 88bc 3f39 b83c
00000010: c487 fdbd d9e0 243d 96f1 033d ba0d 1b3d
00000020: d407 96bd 026c 6fbd a1c9 b63b 7d41 b6bc
00000030: 6bfa f8bc 6e92 06bd 4965 59bd b4fa d9bc
00000040: 315d 44bb fbec 64bd 278b 413c d524 893c
00000050: 0f3e 413d 4e81 06bd 487f d63c 7b7e 2dbe
00000060: c944 343c 4ce9 17bd e33f 00bb 08e2 903d
00000070: ad0a 05be 0423 a73b ce6f b33b 5dc9 ffbc
00000080: bca2 6c3c 348a 003c c5ec d93c d920 09bd
00000090: eb79 1f3e a62a 9abc 7171 06bd ce00 36bd
000000a0: eda9 ffbd 4060 7f3d 4568 0a3e 0292 b03c
000000b0: 733c fabc 078e 92bc 3c4f c03d 6395 393e
000000c0: b9c9 f13b edf1 b83c 83bb 003d fbc8 323d
000000d0: 6dac 823c cbc7 e83c 3ea9 ad3b 5200 7ebe
000000e0: 4e4d b63c 0c72 98bb feb0 e13d 9e2d 3e3e
000000f0: 097f cfbd 9bb8 b33c adf2 073d 76d1 76bd
