models/OTC/efg/exp_v2/no_subgraph_sampling/lr=0.01_hidden_dim=64/HigherOrderGNN_20230830_00h36m/state_dict_epoch5.pt (torch, 47615 bytes, 7 tensors)

convs.0.lin_rel.weight f4 [64, 20]
00000000: 7b89 20bf 2555 d7be 8a12 a1be 2191 28be
00000010: 38bf d6be 4d12 a1be c218 a4be 229a b83b
00000020: 99b9 78bc ac4f ccbe e53c 1abe 6aef 76be
00000030: 9ce0 fdbd a7be 01bf e85d 663e 69cb 073f
00000040: 34ed 04bf 4439 bebc 3e1c f2bc 3e04 aa3e
00000050: fb8b fbbe 16a1 303e 8e60 edbe 5474 89be
00000060: e21d 9b3e a013 65bf 5ff5 b7bd ed49 41be
00000070: de82 23bd a420 403f 3cea 123e fd5a d7bd
00000080: 5e1c 67bf 8460 b93d afb0 1f3e 1c24 05bd
00000090: 78ca 8abd adad 37bf 4cc1 53bd 21d4 ebbd
000000a0: d727 11bf 3f62 43be 8d04 f83e f178 98bc
000000b0: fa21 d1bd f031 eb3e 82cd 0abf db6f e9be
000000c0: 990d 003f 4366 e73e b5ce 783e 5083 85be
000000d0: 968b e03b 3298 10be 6f9e 1abe 13bd c93e
000000e0: b6a3 0dbf bd66 e13e 1bf3 4a3e 67e7 41bd
000000f0: acf5 2cbd a90d b83d 452b 63bf 7390 6a3e
00000100: 05df d63e ee87 a03e af00 7d3e f874 7abe
00000110: 5e4f 293d e6d6 88be 41f8 333e 0a61 30bf
00000120: 6010 2abe 389a dcbd fafc 8ebc 1d1d 5e3f
00000130: 4dbd e7be 2ae3 633e 57f5 e1bc 646a c7be
00000140: acbc 02bc 911f 24bc f544 21be 4024 a4be
00000150: fab2 b53e a614 8e3c af4c 893d 098e ea3d
00000160: aee7 a83e 35d3 0b3f 360d b0bd cd65 b5be
00000170: ced5 e63d 1235 8e3e 06c4 383e d4f9 063f
00000180: d4a5 49bf 1101 4a3f e13f c03d b73d 653e
00000190: ecae 12bf b926 3dbf a8a6 a5be 4f93 12bf
000001a0: 5305 c6be 2c87 8b3c f2e0 913e e8db bd3d
000001b0: eb30 aebe 7738 2b3f 93cf e93c e7c2 8ebe
000001c0: 3e3e 4bbe dde3 17be 3e55 35be 0623 4d3e
000001d0: 3b1a 87bd 7d1b 4bbe c12d cebd 485a 15bd
000001e0: 7bf2 a7be 9e01 b73e 9d42 1ebe 9c55 493e
000001f0: ae9a 633d 2d86 a23e a016 2c3e 6d02 efbd
00000200: a082 0ebb 5163 c33e 297e 183b 9adf 933e
00000210: 4ed2 c1be 421f 04bf f950 da3e 05a5 c3be
00000220: 8b15 ea3e 8980 4dbf 6a0a 0bbf 1d03 b1be
00000230: 74fd fcbe 98bc c73e 168d 33bf 1084 fe3e
00000240: 0166 1abf ab96 2e3e ca1f e73e 93e4 a1be
00000250: b277 9cbb 01bf 383f f69f 8abe 88a2 ac3e
00000260: 918a 12bf 667a eebe 288a ecbd 8047 12be
00000270: 3747 29bf 9589 243b 3b4c 7d3d 0671 8d3e
00000280: 9fc1 31be 965a 1b3f 81a9 febe f3b0 fabe
00000290: b7ad 3a3e edcd 503e a636 8d3d be48 88be
000002a0: 6ecd 663e 370a 87bd 55fb 46bf b2bd bcbd
000002b0: 0e5b 033f d3e6 67be 9df7 1bbe 8350 12bb
000002c0: 1071 6b3e 66a1 b0bc 3bed 34be 1738 a6be
000002d0: bfbe 3abd 8c50 8bbe c4b6 d1be 0756 c8be
000002e0: 5588 6fbe ea34 003d 51b0 64be 11a9 44bf
000002f0: 0f41 443e c50c 973e ede7 2f3f b6e3 83be
00000300: ac8f 9a3d 78fc 2abf 1ba8 c03e 675b 263f
00000310: a32a 063d 8bc0 053f 2317 f6bd fe8c 3fbe
00000320: 0f59 2f3e 7357 293e 6132 143f b3b9 a93e
00000330: 5ab8 433e e832 133e 679c 24bd 695f 713e
00000340: 7018 803e 17d4 343e eab8 1abe b136 ce3e
00000350: a397 07be 99d6 41bf ed64 5fbe 43a0 0e3f
00000360: 4649 093e ae5b 7c3d 7fc6 df3b 993d 163e
00000370: 4e2b 76bd f7c5 07bf 7fbc 8fbe 425a 603e
00000380: 5994 86bc 878e 4b3e cfbd a73e 06b4 5dbe
00000390: 822d 3abe 5b66 013f 2bee 813e 8a3a 20bd
000003a0: 4d12 d03d d19b 3cbf be5a 4bbe 179f 763e
000003b0: 6725 dabe edc7 2f3d 76af dabd 2c53 52be
000003c0: 4705 703c 0bd1 4c3d 6975 ddbe 159c 04be
000003d0: 0642 563d 4d07 0f3f cdbd e53e 7a22 5b3c
000003e0: 51ce 6c3e a4e0 f1bd 9551 2a3e 997c 843e
000003f0: 2a4c 2b3e 4915 eebe d224 2d3c 780e 5bbe
-0.6270978 -0.42057148 -0.31459457 -0.16461612 -0.41942763 -0.31459275 -0.3205014 0.0056336084
-0.015180969 -0.39904535 -0.15062292 -0.24114767 -0.123963565 -0.5068154 0.2249676 0.53044754
-0.51924443 -0.023220666 -0.029554483 0.33206362 -0.49130234 0.1724895 -0.46362728 -0.26846564
0.30296236 -0.8948307 -0.08982348 -0.18875857 -0.039919727 0.75049806 0.14347166 -0.105154015
-0.9027766 0.09051612 0.15594743 -0.03250514 -0.06776899 -0.71749383 -0.051698014 -0.1151507
-0.56701416 -0.19080447 0.48440972 -0.018612357 -0.10211559 0.45936537 -0.5421983 -0.4559315
0.5002075 0.45195207 0.24297602 -0.26076746 0.0068525774 -0.14120558 -0.150995 0.39402065
-0.5532793 0.44023696 0.198193 -0.047339823 -0.04222648 0.089869805 -0.887379 0.22906666
0.41967025 0.31353706 0.24707292 -0.24458683 0.041335456 -0.26726454 0.1757517 -0.6889807
-0.16607809 -0.107716024 -0.017454613 0.86763173 -0.45261613 0.22254625 -0.027582807 -0.38948357
-0.007979553 -0.010017292 -0.15748961 -0.32058907 0.3548811 0.01734383 0.06704079 0.11452872
0.32989258 0.5461915 -0.0859627 -0.3542923 0.11271249 0.27774864 0.18043527 0.5272496
-0.7876866 0.7890788 0.09387184 0.22386824 -0.5729816 -0.7388721 -0.3235371 -0.57256025
-0.38675937 0.017032228 0.28491932 0.092704594 -0.34021696 0.66883034 0.028541362 -0.27883074
-0.19847962 -0.14833017 -0.17708299 0.20032892 -0.065968 -0.19834705 -0.100673206 -0.036463052
-0.32802185 0.3574342 -0.15455098 0.19661564 0.055567436 0.31742993 0.16805506 -0.116703846
-0.002174534 0.3816171 0.0023268557 0.28881532 -0.37855762 -0.51610196 0.42639902 -0.38211837
0.4571956 -0.80274254 -0.54312766 -0.34572688 -0.4941212 0.39011073 -0.70137155 0.4971013
-0.60311896 0.17049663 0.4514144 -0.316197 -0.004775011 0.7216645 -0.27075166 0.33717752
-0.57242686 -0.46577758 -0.11549789 -0.14285088 -0.6612429 0.002510642 0.061840277 0.27625293
-0.17359017 0.606851 -0.49738696 -0.48963127 0.1823033 0.20391054 0.06895189 -0.26617998
0.22539303 -0.06593745 -0.7772725 -0.09215869 0.51310813 -0.22646646 -0.15231176 -0.002232582
0.22992349 -0.021561336 -0.17668621 -0.32464668 -0.045592066 -0.2720989 -0.40959752 -0.39128134
-0.2339185 0.031300463 -0.22332884 -0.76820475 0.19165443 0.2950193 0.68713266 -0.25759667
0.075469345 -0.66791487 0.37628254 0.6498322 0.032755505 0.5224692 -0.12016132 -0.18706128
0.17123817 0.16537265 0.5788937 0.3314949 0.19113293 0.14374888 -0.04018822 0.23571552
0.25018644 0.17659031 -0.15109602 0.402761 -0.13241439 -0.75718075 -0.21815844 0.5571329
0.13406858 0.06161087 0.0068290825 0.14671935 -0.060099892 -0.53036445 -0.280735 0.2190943
-0.01642816 0.19878589 0.32762 -0.21650705 -0.18181422 0.5054681 0.2537702 -0.039118327
0.101597406 -0.73675257 -0.19858834 0.24084125 -0.4260666 0.042915273 -0.10677998 -0.2053954
0.014649696 0.050004046 -0.4325364 -0.12950166 0.05230906 0.55870515 0.4487137 0.013374919
0.23125578 -0.11810425 0.16632684 0.2587631 0.16728273 -0.46500614 0.010567861 -0.21392238

convs.0.lin_rel.bias f4 [64]
00000000: 358c ffbe f4a7 27be afcf 84bf 594a e7be
00000010: f499 a9bf 7016 73be e748 4fbf 5a84 53bf
00000020: c5e7 9abe fa0b 12bf 4bff 44bf 93b2 4bbf
00000030: cddb 9bbf bec5 7dbf 9488 12bf 596d c7bf
00000040: a371 55be c68c 76bf d927 3fbf b5e2 9cbf
00000050: 03f7 23bf c1be 90bf 5a47 d2be c7d6 5dbf
00000060: c3cc 53bf ad7e 68bf b85b a4bf 2b91 50bf
00000070: d76c a1bf dee7 8bbf cf4b 95bf 2027 35bf
00000080: 6807 3dbe 5ab4 0ebf bcee 49bf d579 9bbf
00000090: 5483 5bbf 3601 88bf d631 9dbf 1066 efbf
000000a0: 37f7 8dbe 0ada 81bf dbbc bfbe 9c91 67bf
000000b0: 97e5 b7bf 04bd 3abf 5f4d f2be 72ff 82bf
000000c0: d403 6bbf fc32 3dbf 60ff 0cbf 2fc6 afbf
000000d0: 9a35 6cbf e8ad 79bf 36f4 40bf f367 7bbf
000000e0: a287 02bf e6b5 88bf 75ed 9ebf 6cd3 8ebf
000000f0: 316c 6ebf 4198 22bf 2d42 13bf 0da0 7abf
-0.49911657 -0.16372663 -1.037588 -0.4517391 -1.3250108 -0.23739028 -0.80970615 -0.8262383
-0.3025495 -0.57049525 -0.76952046 -0.7956936 -1.2176453 -0.99129856 -0.5723965 -1.5580245
-0.2084413 -0.96308553 -0.7467018 -1.2256685 -0.64048785 -1.1308213 -0.41070062 -0.8665585
-0.82734317 -0.9081829 -1.284049 -0.8147151 -1.261134 -1.0930135 -1.166376 -0.70762825
-0.18459857 -0.55743945 -0.78879905 -1.2146555 -0.85747266 -1.062537 -1.2280834 -1.8703022
-0.27727672 -1.0144665 -0.37448773 -0.9045656 -1.436694 -0.72944665 -0.47324654 -1.0234206
-0.91802716 -0.7390592 -0.5507717 -1.3732356 -0.9226929 -0.97530985 -0.75372636 -0.9820549
-0.5098821 -1.0680511 -1.2416216 -1.1158271 -0.93133837 -0.6351357 -0.5752285 -0.9790047

convs.0.lin_root.weight f4 [64, 20]
00000000: 615e 0cbf 2d7a 683c cbd7 bdbe 6a79 88bf
00000010: a950 1ebe f808 5abe ac87 9c3e 3a07 b33d
00000020: 7738 0fbf 19c3 8bbe a116 053c 8462 6cbc
00000030: 59ee a3be 5297 8bbf 8c4d aebe 7fd5 203f
00000040: c53e c4be f5ae 0b3e ccb3 163f ae33 6fbe
00000050: 40ed 85be 3d56 29bd 1c87 c13e 2751 c73e
00000060: 67ee 1cbf 35c7 d63e d832 353f 7098 c6be
00000070: ca85 03bf f2d7 80bd e635 11be 2c3a 51bd
00000080: a839 0d3f d273 4bbe 10e2 f3bd 2bd1 1dbf
00000090: 00ac cebd a5a8 80be babc 873e 466b 183d
000000a0: 3cd8 973e 5655 cbbe ac74 3c3f 304a d83d
000000b0: 4318 763e 7743 39bf 41dd 59bf 365a a1be
000000c0: a4b1 06bf 44e0 583d 6511 1bbe 9e08 febe
000000d0: a618 a33d 0aae 55bf 74cd 6bbe d18f 173f
000000e0: 949f 9fbe 734d 4d3f 2c7b a1bd e233 9d3e
000000f0: 6b9e 16bf 1d70 a4be 4596 78be daac 27be
00000100: 6800 fabe c5ed 29bf f0c4 9d3b 9684 8cbd
00000110: ed1e a9be 33ba a33e f33f a53e 3186 b7bf
00000120: 8133 fc3e d128 573d fcfc 13bb 3fc3 2e3f
00000130: aa45 ccbe d1de 65be d312 443e 7785 d33e
00000140: 576a 5f3e 429b fd3e 5467 d83e 23a0 5b39
00000150: d579 393f 1b33 ad3e e030 493e e85b 1a3f
00000160: 094f 2a3e 0598 7bbe 60bc 52be fa4b a1bf
00000170: c78f 4dbe 1497 22be ae8a 94be baf8 73bd
00000180: d059 0dbf 1af1 f13e ac4b 24be 25b3 b73e
00000190: 75f4 1dbf 3452 ddbd cac9 493e abc3 e7be
000001a0: 7a78 7bbe 5636 5cbc ea10 35bf ac34 72bd
000001b0: 3e50 9ebd 8f93 44bf c51d 35be 4b37 81be
000001c0: 0987 cc3e a3ed 56bc 9a03 66be d003 223f
000001d0: ef77 0e3f f687 24be 0c4e 993c 8655 393d
000001e0: 539b 4cbd e460 693e 5e2d de3e d84f bc3e
000001f0: 432f 12bf 6e43 95be 67be 0b3e f090 973d
00000200: 48ca d13e 4dec 00be 8b75 c3be e0c0 693e
00000210: 25da 113e 7966 81bf 2b63 033f c3ae 72bf
00000220: 6e88 a23e 16e5 d5be 0b22 0cbf e992 79bf
00000230: 0b1e 7f3e d84e a2be 1380 b23e 3881 02bf
00000240: 6c51 74bf f0c0 613f 968d cdbe 2379 063e
00000250: ee59 10bf 666f 15be 4863 f03d 5a35 8c3e
00000260: 123f 1c3e 2cd1 dc3e dde9 c53c 80dc cdbc
00000270: a5c9 903e 66a2 1b3e dffa f6bc 4721 47bf
00000280: 87b9 03bf c74b 32bf 2963 84be fc15 cf3e
00000290: db88 80bf 6f03 3a3f 25ac d7be f8dc 4abe
000002a0: f72a 9f3e 31f3 f13e 5c30 68bf 5128 253f
000002b0: f647 77be 549f fabe 8a43 b4bd 8968 7e3e
000002c0: ee3a 8ebe 8e69 dc3b 281a 87bd aed7 45be
000002d0: 5e5d cfbe de19 a23e 3e55 10bf 52bb 47bf
000002e0: c2eb 293e 2b70 d7be 6f36 3f3d 7d06 2cbd
000002f0: 25b9 0f3c b020 39bc 8b48 f9be 1d6a 81bf
00000300: d5a2 a7be 5899 23bf d0b8 5d3f 9ad3 f23d
00000310: afd8 1bbf 388a b93e 74ec 503f d327 d73e
00000320: e11f 913d 5ff4 c63e 5ca1 903e aef2 68bf
00000330: 926e 65bf 6370 7b3d 5619 b2be dfec 78be
00000340: 51b3 84be b969 03bf 228a ad3e c210 323e
00000350: 0e4a 68bf 072e 5dbf e4c1 89be bf20 a43c
00000360: a6f7 bcbd 5307 cabe 58dd 38bd c9b7 3cbf
00000370: 1676 f6be 9650 33bf 6819 5b3f b69d 00be
00000380: e614 88bf 5827 2e3e e8e0 f23e 32b8 493d
00000390: b556 403e 2e0a 1e3f 9452 bbbe c7d4 943e
000003a0: 10fa 07bf d7fe 0dbf db1e 153e a33e 193f
000003b0: cd1a 81bf d68e 4b3f b0a5 14be 3451 18bf
000003c0: c6b2 8abe 2906 56bf b73f d6be 5375 82bf
000003d0: f866 0dbf dd60 a1be 822f 493f 050e d3be
000003e0: 83cd 9e3e 69cf 073e be32 5d3c b61b f13e
000003f0: bbe1 623d 1d6b cdbd b9a7 88be 3f38 afbc
-0.5483151 0.014189285 -0.370787 -1.0662053 -0.15460457 -0.21292484 0.3057226 0.08741613
-0.55945534 -0.27297285 0.008123071 -0.014427785 -0.32017782 -1.0905554 -0.3404354 0.6282577
-0.3832914 0.1364096 0.588681 -0.23359558 -0.2615757 -0.04134201 0.37798393 0.38929102
-0.61301273 0.41948858 0.70780706 -0.38788176 -0.5137602 -0.06291188 -0.14180717 -0.051080868
0.551661 -0.198684 -0.119083524 -0.6164729 -0.100914 -0.25128666 0.26511174 0.03721168
0.2965716 -0.39713544 0.7361553 0.10561025 0.24032693 -0.7236857 -0.8510323 -0.31514138
-0.5261481 0.05294825 -0.15143354 -0.4961595 0.07963686 -0.8346869 -0.23027593 0.5920382
-0.31176436 0.80196303 -0.07884821 0.30703646 -0.58835477 -0.32116786 -0.24276073 -0.16374531
-0.48828435 -0.6637843 0.0048147365 -0.06861226 -0.33031407 0.31977996 0.32275352 -1.4337827
0.49258044 0.05252916 -0.002258121 0.6826667 -0.398969 -0.22448279 0.19147806 0.41312763
0.21817909 0.49532515 0.42266333 0.00020945123 0.72451526 0.33828053 0.1964755 0.6029649
0.16631712 -0.2456971 -0.20579672 -1.2601311 -0.20074378 -0.15877944 -0.29012054 -0.059563376
-0.5521517 0.47254258 -0.16044492 0.35878864 -0.61701137 -0.108066946 0.19705883 -0.4526647
-0.24557677 -0.013440689 -0.70728934 -0.059132263 -0.07730149 -0.76787657 -0.17687137 -0.25237498
0.39946774 -0.01311818 -0.22462311 0.6328707 0.55651754 -0.1606749 0.018713973 0.045247577
-0.049952816 0.22790867 0.43393987 0.36779666 -0.57103366 -0.29153007 0.13646851 0.074006915
0.4097464 -0.12590142 -0.38175616 0.22827482 0.14243372 -1.0109397 0.51323193 -0.94797915
0.31744713 -0.4177634 -0.54739445 -0.9748979 0.24913804 -0.31700778 0.34863338 -0.5097842
-0.9543674 0.88185024 -0.40147084 0.13132147 -0.5638722 -0.14593276 0.117376864 0.27384454
0.15258434 0.43128335 0.024159366 -0.025129557 0.28278843 0.15198669 -0.030148922 -0.7778515
-0.5145497 -0.6964688 -0.25856903 0.4044646 -1.0041765 0.7266149 -0.42123523 -0.19810855
0.31087467 0.47255853 -0.9069879 0.6451464 -0.24148545 -0.48949683 -0.088019446 0.24844564
-0.27779335 0.0067264503 -0.06596786 -0.19320557 -0.4050092 0.3166036 -0.5638007 -0.78020203
0.1659384 -0.42077765 0.04668277 -0.041998375 0.008772169 -0.011299297 -0.48688158 -1.0110508
-0.32741418 -0.6390586 0.86610126 0.11856766 -0.6087751 0.36238265 0.816108 0.4202257
0.070861585 0.38858315 0.28248107 -0.909953 -0.8962184 0.061386477 -0.34784955 -0.24309109
-0.25918058 -0.51333195 0.3389445 0.17389205 -0.90738 -0.8639836 -0.2690574 0.020035146
-0.09226923 -0.39458713 -0.045132965 -0.73717934 -0.48136967 -0.7004484 0.8558564 -0.12560162
-1.0631378 0.17007196 0.47437215 0.049247928 0.18783076 0.6173428 -0.3658644 0.29068586
-0.5311594 -0.5546698 0.14562552 0.598612 -1.0086304 0.79514825 -0.1451633 -0.59498906
-0.27089518 -0.8360315 -0.41845486 -1.0192055 -0.5523524 -0.31519213 0.78588116 -0.41221634
0.31016168 0.13262714 0.013500867 0.47091454 0.055391055 -0.10030196 -0.26690462 -0.021389125

convs.1.lin_rel.weight f4 [64, 64]
00000000: c6f6 903d 018d 9f3d aebd a1bd 2591 683e
00000010: ffb8 70be 0f54 09be 5e67 92be 4052 163d
00000020: b2fa fd3d 56c3 6ebd 4704 7fbe 59c7 3f3e
00000030: be70 bfbd c86b 713c 0d89 5abe 1069 4d3d
00000040: a3a7 afbd 16f3 22be cfe8 41be b58a 75be
00000050: 336c 5cbd e480 43be 8ff1 42bd d085 28be
00000060: a3ef 4fbd a264 0c3e f61a 5a3d 5572 83be
00000070: fc24 373e 1f6f 9dbe ea41 57be 1110 64be
00000080: 66db cabe 946d 113e a5de adbd 1c48 6cbe
00000090: 42e9 8cbe 4b61 12bd 733c 233e a435 0bbe
000000a0: 97a2 94be d5a3 963c 1884 0f3e 0998 23be
000000b0: c611 efba 06e3 6dbe ed4f 54be 5fff 4abe
000000c0: 4f9e 42be d352 a8bc eba4 e93a 020f cfbd
000000d0: f14f 34be 7af6 31bc e283 0b3d 0052 b0bc
000000e0: 9591 24bb a26b 42be 68d9 99be 3411 b5be
000000f0: 738e 0abe feb2 e1bd ec1f 00be 21fa 5abe
00000100: 57c0 17be 34c8 833b 2ad7 20be a1b2 76be
00000110: 15ef ebbc ff30 b5be 14f2 99bc 4013 83bd
00000120: 661f f0bc 0058 d5bc 9473 a5bd b919 32be
00000130: d4d1 a1bd 1d57 16be 564d a1be bb3d ef3d
00000140: 85a2 33be 526d 39be 37ba 03be b626 d4bd
00000150: a8f5 ddbd eb5f 9c3a a629 9cbd ab34 afbe
00000160: b1fc 97bd 654d 25be cf86 1d3e f5e6 32be
00000170: 4e0d 863e ad19 1e3e 6d98 95bc 526a c0be
00000180: 898d babd e736 1bbf 14b7 b4be 8ad3 fb3c
00000190: 7caa 31be 0bf5 c3bd 0e3a 21be 683c 1ebd
000001a0: a2ff c5bd 16db 96be 36ac 27be feae 123d
000001b0: f541 ab3e 7e90 6abe a884 43be 8191 39be
000001c0: 792a 6bbd 691c 6abe 4911 de3c 14c7 a9be
000001d0: 2179 78be 40c9 67be 8336 b9be c5cc 093e
000001e0: 6b03 efbc 7350 f6bd 058e 49bd 06b8 22be
000001f0: a073 28be 57f8 a5be 9028 9dbd c819 6bbe
00000200: 6b4c 043d 232d 3abd 0e77 5abe 75a9 21be
00000210: 4e95 c5be 160a 41be 3e6d a1be ab10 b5bc
00000220: fdaa 19be e129 adbe c23e 31be bd1a fdbc
00000230: dfec 64be 1646 babd c9ed 18be 7603 67bb
00000240: 8de2 8cbe 64fa 21bd 9f1d 06be be6b 5fbe
00000250: 0a62 33be c0a9 d73c 08e8 00be df9e 23bd
00000260: f9bb 0cbe 6bfb 68be cad1 7fbe aea2 c4bd
00000270: 8de2 c3be 496d 31be f52e 59be fb04 51bd
00000280: 7fce 90be 7006 443e b57c 97bd 1a93 d8bd
00000290: 17b5 32be 0004 a4bd 79db 80be 5ca7 86be
000002a0: 0dae 9fbd a849 afbd 2c90 a83c 7e11 66be
000002b0: 2a80 1dbd c63a 85be 8ece 44bd c149 b6bc
000002c0: 8450 63be 5035 e7bd 2992 fe3b 1f67 aabe
000002d0: 397d 61be b043 2c3d 0d6a 3abb b37b a6be
000002e0: 7ccb 7fbe eac0 00bf 6e82 47be e441 6bbc
000002f0: f0ca 90be 2604 9bbd be98 d43c e125 babe
00000300: 3af9 23bd d6ee bf3e 6643 50bc 87c4 65bf
00000310: f320 ee3e b0d8 5b3c 5ca2 ecbe 0e40 92bd
00000320: 7f46 de3d 62e2 7fbc 7c23 94bd c541 063e
00000330: 58b9 c43e f0ea ee3c 7705 92bd 60ae ab3d
00000340: 8736 65bd 9d22 3a3e e960 bdbe b353 cabd
00000350: b1bb 00bf 9171 5f3e 42b7 0e3c a8b1 94be
00000360: 5adf 313e 51e1 c53d ee18 2fbd d81b 6d3e
00000370: 3613 8f3e 936c ecbc bbcb 3e3e e675 6d3e
00000380: 7557 0fbf aa81 c13e d052 833e 14ef e93b
00000390: 26e5 87bf 203c 8cbe 7518 213b d8ea 8fbe
000003a0: 339b 233d 4938 c3bf 0d70 8ebe d13f 96bd
000003b0: 3af8 e4be 4578 0fbf 4802 8e3d 5321 fa3e
000003c0: fafa 23bd ca03 b8bd b55b 2dbe 8bfa 16bf
000003d0: db25 ebbe 089c bdbe e298 b3be d5ef 52bf
000003e0: 818f 51be 8dd5 8a3d 2e3b e23c db3b 0fbe
000003f0: e06f febe caed f83d ad9b 87be e8be b93d
0.07078318 0.07790566 -0.07897507 0.22711618 -0.2350807 -0.13410972 -0.28594488 0.036699533
0.12401332 -0.058291756 -0.24903975 0.18728389 -0.09347676 0.01473517 -0.21341343 0.050149024
-0.08576896 -0.15913042 -0.18936466 -0.23978694 -0.053814124 -0.19092137 -0.04759365 -0.16457295
-0.050765645 0.13710263 0.05324837 -0.25673166 0.17885202 -0.3074884 -0.21021238 -0.22271754
-0.39620513 0.14201957 -0.08489732 -0.23074383 -0.27521712 -0.035737317 0.15941028 -0.13594681
-0.29030296 0.018388668 0.14015234 -0.15975966 -0.001823955 -0.23231134 -0.20733614 -0.19823979
-0.19005702 -0.020547306 0.0017825639 -0.101102844 -0.1760862 -0.010861987 0.03406132 -0.021523476
-0.0025111188 -0.18986371 -0.3004868 -0.35364687 -0.13530903 -0.11020468 -0.12512177 -0.21384479
-0.14819466 0.004021669 -0.15707079 -0.24091579 -0.028800527 -0.35388944 -0.01879219 -0.06400156
-0.029311847 -0.026042938 -0.080786854 -0.17392625 -0.0790135 -0.14681669 -0.31504315 0.11681696
-0.17542465 -0.18108109 -0.12864004 -0.10358946 -0.10837871 0.0011930441 -0.07625131 -0.3421987
-0.07421244 -0.16142805 0.15383457 -0.17470916 0.26182026 0.15439482 -0.018261159 -0.37581116
-0.09109027 -0.6063065 -0.35295928 0.030740518 -0.17350191 -0.095682226 -0.15744802 -0.038631827
-0.09667899 -0.29464024 -0.16374287 0.035811417 0.3344876 -0.22906682 -0.19093573 -0.18121912
-0.057413552 -0.228624 0.027107852 -0.33159697 -0.24264957 -0.22635365 -0.36174402 0.1345702
-0.029176435 -0.12027063 -0.049207706 -0.15890512 -0.16450357 -0.3241603 -0.07673752 -0.22959054
0.03229944 -0.045453202 -0.21334478 -0.15787299 -0.38590473 -0.18851504 -0.31528658 -0.022102674
-0.15006633 -0.33821014 -0.17309096 -0.030896539 -0.22355984 -0.09095399 -0.14934458 -0.0035249866
-0.27516595 -0.03954543 -0.13097237 -0.21818444 -0.17517868 0.02632606 -0.12588513 -0.039946433
-0.13743581 -0.22752158 -0.24982372 -0.09601341 -0.38258782 -0.17326845 -0.21209319 -0.05103014
-0.28282544 0.1914308 -0.07396833 -0.105749324 -0.17451893 -0.080085754 -0.25167444 -0.2629956
-0.077968694 -0.08558971 0.020576559 -0.2246761 -0.038452305 -0.26021403 -0.04804855 -0.022251965
-0.22198683 -0.112894654 0.0077688885 -0.332818 -0.22020425 0.04205674 -0.002844456 -0.3251625
-0.24979967 -0.50294363 -0.19483349 -0.014358971 -0.2827983 -0.075691506 0.02595174 -0.36357024
-0.040032603 0.37486905 -0.012711382 -0.89753 0.46509513 0.013418362 -0.4621762 -0.07141124
0.1085329 -0.015617939 -0.072333306 0.13111027 0.38422656 0.029164761 -0.071299486 0.08382869
-0.055960204 0.18177266 -0.36988 -0.098792456 -0.50286394 0.21820666 0.008710684 -0.2904179
0.17370358 0.09662116 -0.042748384 0.23155153 0.27944344 -0.028860366 0.18632405 0.23189506
-0.55992824 0.37794238 0.25649118 0.007139096 -1.0616806 -0.27389622 0.0024581228 -0.2810886
0.03994293 -1.5251552 -0.27819863 -0.07336391 -0.44720632 -0.5604289 0.06934029 0.4885355
-0.04003427 -0.08985098 -0.16929515 -0.5897605 -0.4592732 -0.37033105 -0.35077578 -0.82397205
-0.20464899 0.06779013 0.02761611 -0.13987677 -0.4969473 0.1215473 -0.2648596 0.090696156

convs.1.lin_rel.bias f4 [64]
00000000: 5ccb e9bd 31ab 9bbe 89aa 8bbe 9fb8 3f3f
00000010: dd97 dfbd 6d42 8d3f 101c 853e 593c 2d3e
00000020: 4b72 323f 05d0 3338 e923 f23e 51ac b6be
00000030: e0e4 e0bd 3177 e3bd 3c9a 203f d648 b53e
00000040: 366c 153f ace4 7e3e bdba 05be 8aa6 82be
00000050: 0da0 80be 5034 04be 1d2c f3bc 36af 8c3f
00000060: 95dc 023f 0dcb 0fbd 3204 053e 4a41 003f
00000070: f140 3f3e 5d8c 3ebd 942c b0bd 4fbe 893e
00000080: 4c46 d03d e5ac 2f3e 7bc2 f03d 5e2c 593f
00000090: 0633 0d3f b474 27be e603 003f 00b7 053f
000000a0: fbc2 b93e 1ae4 fc3e ff55 663e fd49 e9bc
000000b0: 3d42 7c3a 65bf 4bbe ef5b 413d 1f9c 6fbd
000000c0: 2a17 183f 64f1 9cbd 374e 303e 648e 4fbd
000000d0: 9f34 b33c 8223 9c3e 34c4 b93d d1b2 7bbd
000000e0: ced5 05be 65b2 833d f4a6 093f e305 b8be
000000f0: cf05 003f c848 31be 8c21 6fbe bd92 abbe
-0.11415741 -0.30404046 -0.27278545 0.74891084 -0.109176375 1.1035897 0.25997972 0.16917552
0.6970565 4.287066e-05 0.47293022 -0.35678342 -0.109811544 -0.11106718 0.6273534 0.35407132
0.5836824 0.24891919 -0.13059516 -0.25517684 -0.2512211 -0.1291058 -0.02968412 1.099097
0.5111783 -0.035105754 0.12989882 0.50099623 0.18677117 -0.04652058 -0.086022526 0.26903006
0.10169658 0.17155798 0.11755844 0.84833324 0.5515598 -0.16353112 0.5000595 0.5223236
0.3628157 0.49392778 0.22493742 -0.028477663 0.00096229074 -0.1989723 0.047206815 -0.058498498
0.59410346 -0.07663229 0.17217337 -0.050672904 0.021875678 0.3049584 0.09070626 -0.06144983
-0.13069841 0.064305104 0.53770375 -0.3594199 0.50008863 -0.1731292 -0.23352641 -0.3351039

convs.1.lin_root.weight f4 [64, 64]
00000000: a096 233e df46 bcbd d9ae 003d 176e 18be
00000010: 5c65 a5bd 74fa e2bc 095b e0be 7c9c e2be
00000020: 37ba 32be bb49 e9bd e251 3dbe 91ae a2bd
00000030: 0c4c 14bd fe5e 02bf eba2 6cbd 908c ddbd
00000040: b5e9 56be fe01 863e d5f3 19be 06af 00bd
00000050: 1d74 15be 26f3 0cbe 8029 1cbe f489 15be
00000060: b7c9 f53c 9dd9 9bbe d0dc c43c 5130 603d
00000070: be80 ac3c 48fa 83be 3f61 2bbd 0725 ffbe
00000080: 7137 053e 68b3 39be 2a24 8ebd 9417 46be
00000090: 1e58 e3bd 0fae 3c3d 9b5f b93c 05dc 96be
000000a0: 00d1 79be d0d6 d03d be89 733e c665 50be
000000b0: 249b 853d 26b5 9cbe bcfd cfbe ac47 27bd
000000c0: 5784 b73d 8009 12bd d81e 12be 36f3 80be
000000d0: c69c 24be 1747 bdbd d394 7cbe 38e8 67be
000000e0: d0d6 adbe 24bc 8c3d b33e 3ebe 13a6 a8bd
000000f0: 39d3 c5bb 08b3 48be 4981 6bbe 0ee0 9d3d
00000100: ffbb 31bf d402 99bd 2525 81be c791 fdbd
00000110: d50f 47be 28fb 80be da21 15be 6b09 e4be
00000120: 3e25 afbe 4552 aebc a127 6bbe 8b21 f8bc
00000130: e3bd 36bd 2c07 10be 8757 3bbe 8a2b 38bd
00000140: 222d c03c d63a 53bd 99d9 6fbe e73f e0be
00000150: 4046 323e 17f8 65be 1540 aebd e20d 903e
00000160: 81bc a7bd 355b 5cbe 84a3 133e 6c83 893e
00000170: 934b 3dbe 5576 793e d9f9 9e3e 6294 01bf
00000180: b19e 81be 3486 8a3c 3ce4 a23d e1f7 76be
00000190: 5974 7dbe 5276 283c 2616 a2bc 33a2 c43c
000001a0: 6387 ee3e cb07 54be 3aea d7be e5e8 203f
000001b0: a925 edbe 8d45 ab3e f020 e6be 845b 55be
000001c0: f76d e13d 5218 52bc c941 2dbf 8a6e 61bd
000001d0: 7adc b7be 151f dbbd 6bbb 503d 5cb6 20be
000001e0: 1419 43be b33c d53d 1ba5 b23e 10b9 e43e
000001f0: 52bc 783e 236a 89bd 3a74 f93d 244c 593f
00000200: 0cb1 df3c fd05 3cbe 7601 4fbe dcd8 cfbd
00000210: f917 e2be bd37 f5bd 6a4d 9abe f675 03bd
00000220: 5036 9dbe 60de 113d 46f5 88bd 3cc2 81be
00000230: 81bc 56be 5293 63be 0582 c8bd 7e4f 96bd
00000240: b8ec c1be 9461 1dbd 6a7f 10be 2258 37be
00000250: 523e b4bd 51f3 623d ad93 81be cabd eebd
00000260: 26f5 4cbe 0483 a4be 03ce b2bd 2d6f b6be
00000270: e88e c6be 8e08 a9be 5296 85be eff2 e93d
00000280: caa8 d0be 9e49 a2bd f8a2 c9bd c689 ccbe
00000290: bc7a 69be 5e0f 57be 8245 4ebe 1d04 6dbe
000002a0: d71f 36be b30e abbd b53c 12be bfcf b8bd
000002b0: 8e0c cebd eb91 40bc 9081 e6be 0985 b13b
000002c0: 032c d0bd 05aa 86bd 39bd efbd f610 93be
000002d0: ee23 38be 939c 0d3e 4429 e5bd 1cad f9bc
000002e0: c2bf b4be 59c8 2ebf 4762 b6bd 9672 433c
000002f0: 708e 73be af30 3dbe f85b b6bd 50c6 9abe
00000300: cd8c 07be b87f 43bf 2fd8 d33e 2e66 acbe
00000310: 3c28 9bbe 19ec 5a3d 1ccb 023f f9bf 083f
00000320: e86a ea3e 01d0 aa3d ae1f febe 362d 55be
00000330: b939 0cbf e2e1 6d3e f794 22bf d8f5 413d
00000340: ac20 e1be b101 0bbf 4af3 3b3e 79dd 33be
00000350: 2a99 c7bd 8c6c d1bd 1461 f83c 1ab3 ee3c
00000360: 8407 35be 8469 8dbe 7f38 7abc 6490 e1be
00000370: a697 cc3e a0ba 1dbf ff21 56bf da69 223e
00000380: 3770 9fbe a2f2 9dbf 3348 c8bd cebc 09be
00000390: c31b 55bf f8a7 03bd e7a4 b1bd a1b1 ad3e
000003a0: c9ad 67bf ecd8 2ebf 527a b23e 10eb ab3e
000003b0: 823d 883e eb22 c5bd 784b 80bf 290b 73bd
000003c0: 4482 23be 30de 3f3c da4a 793d 63b0 73be
000003d0: eaae 31be dd1c 19bf 63ef debe 6220 98be
000003e0: 567d 88bd cd3d 86be 6e5d 4dbe 6194 423f
000003f0: 7248 8bbe 0392 43bd 3a28 14bf 1da5 773d
0.15975428 -0.09193205 0.031416748 -0.14885746 -0.080759734 -0.027707316 -0.43819454 -0.44260013
-0.17453848 -0.11391016 -0.18488267 -0.07943452 -0.036205336 -0.50926197 -0.05777256 -0.10817826
-0.2098759 0.26173395 -0.15034421 -0.031416915 -0.14595075 -0.13764629 -0.15250206 -0.14603406
0.030003412 -0.30439463 0.024031073 0.054733578 0.021057483 -0.25776887 -0.041840788 -0.49832937
0.1300943 -0.18134844 -0.069404915 -0.19344932 -0.111007914 0.046064433 0.022628596 -0.29464737
-0.24396133 0.10197222 0.23783013 -0.20351323 0.06523731 -0.30606955 -0.4062327 -0.040839836
0.08960789 -0.03565359 -0.14269578 -0.25185555 -0.1607543 -0.09242075 -0.24666147 -0.22647178
-0.3395295 0.068718225 -0.18578605 -0.08234801 -0.0060371426 -0.19599545 -0.22998537 0.07708751
-0.69427484 -0.074712425 -0.25223652 -0.123813204 -0.19439633 -0.25191617 -0.14563695 -0.44538435
-0.342081 -0.021279464 -0.22964336 -0.030289432 -0.044614684 -0.14065236 -0.18295108 -0.044963397
0.023459021 -0.051569782 -0.2342285 -0.43798754 0.17409611 -0.2245792 -0.085083164 0.28135592
-0.08190251 -0.21519168 0.14417845 0.2685808 -0.1848586 0.24361546 0.31049994 -0.5061704
-0.25316384 0.016909696 0.079536885 -0.24117996 -0.24751414 0.010282116 -0.019785952 0.024003124
0.46587667 -0.20706098 -0.42170888 0.6285537 -0.46317795 0.334515 -0.44947004 -0.20835692
0.11007302 -0.012823181 -0.67678505 -0.05503706 -0.35910398 -0.10699288 0.050959986 -0.15694565
-0.19052535 0.10411968 0.3489159 0.4467244 0.24290588 -0.06709697 0.121803716 0.84881806
0.027306102 -0.1836166 -0.20215401 -0.101487845 -0.44158915 -0.11973522 -0.30137187 -0.03209492
-0.307055 0.035612464 -0.06687407 -0.25343502 -0.20970346 -0.22224167 -0.09790424 -0.07339381
-0.37875915 -0.038423136 -0.14111105 -0.17904714 -0.08800949 0.055407826 -0.2530798 -0.11657293
-0.20015392 -0.32131207 -0.087307 -0.35631695 -0.38780904 -0.3301434 -0.26091248 0.11423289
-0.40753776 -0.079241976 -0.09845537 -0.39948863 -0.22800726 -0.21001956 -0.20143703 -0.231461
-0.17785583 -0.08352413 -0.1428097 -0.090239994 -0.10060988 -0.01175354 -0.45020723 0.0054174704
-0.101646446 -0.065753974 -0.11706013 -0.28723878 -0.17982456 0.1382926 -0.111895114 -0.030478053
-0.3530255 -0.68274456 -0.08905464 0.011929175 -0.23784804 -0.18475603 -0.089042604 -0.30229425
-0.13237305 -0.7636676 0.41375872 -0.33671707 -0.30304134 0.053447817 0.5109117 0.5341793
0.45784688 0.08340455 -0.49633545 -0.20818028 -0.5477558 0.23230699 -0.6350855 0.047353595
-0.4397024 -0.54299456 0.18354526 -0.17564954 -0.097460106 -0.10225782 0.030319728 0.029138137
-0.17678648 -0.27619565 -0.015272259 -0.44055474 0.3995945 -0.6161289 -0.83645624 0.15860692
-0.311403 -1.2339671 -0.09779396 -0.1345093 -0.83245486 -0.03214261 -0.08674031 0.33924583
-0.9049955 -0.68299747 0.34858948 0.33577776 0.26609427 -0.09625801 -1.0023031 -0.059336815
-0.15967661 0.0117106885 0.0608624 -0.23797755 -0.1735188 -0.59809667 -0.43542013 -0.29712206
-0.06664531 -0.26219025 -0.20055172 0.7600766 -0.2720371 -0.04774667 -0.5787388 0.0604602

post_layers.0.weight f4 [1, 64]
00000000: faae 3cbc 5f96 83bd 5faa 003e 9e29 0fbe
00000010: c272 e43d 353b afbd 612d 8bbd 1b8e b6bd
00000020: 1908 d6bd 4465 403e 786e a8bd c01d 4ebd
00000030: 7b3d 37bd 5f55 b3bb 349a 4c3e 3912 c7bd
00000040: d264 7abd 22a9 43bd 96d6 89bd c5a1 c3bc
00000050: 2ad6 8cbd da4a 3f3d 9d5f 193e d078 2fbe
00000060: 134a 48bd 9ed6 55bd 050e aabc af5a d23d
00000070: 2b03 f7bd 9c5f 003e 4516 75bd 2fbb 08be
00000080: d726 8bbd 719c 5b3e 48dd 6a3e 613e 3bbd
00000090: f019 90bd c6a0 ecbd 8c83 b1bd 3bf4 c13d
000000a0: 0762 a1bd fee9 003e 2898 f83d a175 7f3d
000000b0: c5d4 d9bc 889c 41bd 8c49 a6bd 17e6 febb
000000c0: fb56 d1bd b067 06be f874 ed3d ffd9 92bd
000000d0: 1f19 c0bd 8d36 bdbd 30ae 0f3d ece1 e2bc
000000e0: 4c7a beb9 1370 1c3e 4fbc 8fbd 6753 c5bd
000000f0: 75f9 bbbd 2f93 1f3e 65a6 2a3d c28b e1bc
-0.011516327 -0.064251654 0.12564991 -0.1398072 0.11154701 -0.08556215 -0.06795765 -0.08913823
-0.10450763 0.1878863 -0.08224195 -0.05032134 -0.044736367 -0.0054728235 0.19980699 -0.097202726
-0.061131306 -0.04776872 -0.06730382 -0.023880849 -0.06876786 0.046702243 0.1497788 -0.1713593
-0.048898768 -0.052206628 -0.020758638 0.10271203 -0.12061151 0.12536472 -0.05983569 -0.13352655
-0.067945175 0.21446396 0.22935975 -0.045713786 -0.07036197 -0.115541026 -0.08667669 0.094704114
-0.07880025 0.12589261 0.121383965 0.06236804 -0.026590714 -0.04726842 -0.08119497 -0.0077788937
-0.10221668 -0.13125491 0.11594576 -0.07170486 -0.093797915 -0.0923892 0.035078228 -0.027695619
-0.00036330742 0.15277128 -0.07018339 -0.09635048 -0.091784395 0.1558349 0.041662592 -0.027532462
