models/BPI17/hoeg/exp_information_leakage/lr=0.01_hidden_dim=128/GraphModule_20230821_13h08m/state_dict_epoch6.pt (torch, 772191 bytes, 33 tensors)

conv1.event__follows__event.lin_rel.weight f4 [128, 27]
-0.22122553 0.059402954 0.14088897 0.21206985 -0.08934321 -0.010501884 -0.09950575 0.02183169
0.05053075 -0.11961455 -0.22268517 0.014918781 -0.04846576 -0.05524505 0.17013304 -0.061239596
-0.2167904 -0.097028844 0.0042091236 0.0024384963 0.054366566 -0.04040944 0.09822458 -0.022183454
-0.12082236 -0.033773508 0.13014348 -0.023595944 0.032479633 0.12670587 -0.01957656 0.029776203
-0.18673633 0.0789551 -0.26343405 -0.2135392 0.04609474 0.0064975093 -0.16705036 -0.06984981
-0.097912095 -0.02186252 -0.21663778 -0.20939331 0.0634216 -0.1717306 -0.1982408 0.016285371
-0.053473197 -0.19108172 -0.20379576 -0.030072495 -0.21956514 0.0021742473 -0.29976493 -0.10045793
-0.33409476 -0.058683828 -0.18062353 -0.14123921 -0.35706797 -0.2514307 -0.14444037 -0.17297213
-0.17692232 -0.06398068 -0.25774267 -0.020987801 -0.20569967 -0.28417593 -0.39156777 -0.2097981
-0.08216832 -0.03492834 -0.2055948 -0.05785369 -0.07054914 -0.13544019 -0.26428324 -0.125539
-0.10357059 -0.37328532 -0.34547362 -0.050195288 -0.6668252 -0.73007876 0.0122144865 0.041435543
-0.12510873 1.023128 -0.08630221 0.651002 1.1732079 -0.35265332 -0.35560933 -0.12756439
0.1891768 0.092279695 0.056081556 0.3123595 -0.18503803 -0.08341636 -0.14463384 0.13578957
0.31785327 -0.17833151 0.45967895 -0.62129736 -0.08859707 0.14574102 -0.23726131 -0.10245485
-0.17910498 -0.25440854 0.022222783 -0.004855525 -0.22230372 -0.031439185 -0.3453287 -0.23449814
-0.09383893 -0.002354164 -0.3024647 -0.3549033 0.016780363 -0.14927365 -0.23111843 -0.086910635
-0.15739688 -0.118445806 0.0014656773 -0.09017914 -0.025635548 -0.014079131 0.048723847 -0.117589876
-0.007436801 -0.12647061 0.054430082 -0.09031856 -0.1549308 -0.040298954 -0.11747461 -0.20959087
-0.22621733 -0.18894407 0.02777226 -0.27569953 0.0033462963 0.04937814 -0.23133901 0.023715552
-0.19489573 -0.2268983 0.07825333 -0.10525026 -0.2843143 0.043053906 -0.27961755 -0.27085483
-0.08823798 0.026663067 -0.20751655 -0.08803232 -0.25985152 -0.068893574 -0.07151768 -0.03783283
-0.10311466 -0.44213095 -0.29892412 0.024708016 -0.12389201 -0.32178444 -0.35762924 -0.21682188
-0.32237437 -0.38475528 -0.13668741 -0.30271402 -0.10301331 -0.18476611 -0.32586116 -0.11539707
-0.14048965 0.026600622 -0.29987952 -0.04312562 -0.096330896 -0.03214322 -0.000812958 0.027580831
-0.02566651 -0.17197028 -0.18090856 -0.12645634 0.05991992 -0.09271159 0.018593485 -0.057950646
0.092912935 -0.2929081 -0.15224881 -0.20598973 0.018083818 -0.13644637 -0.118088 -0.17883466
-0.117978044 -0.039682437 -0.18832566 -0.07287051 -0.32354963 -0.11764056 -0.093504615 -0.18665713
-0.040883042 -0.1282596 0.052962225 0.21810001 -0.17276642 0.018600965 -0.17077404 0.036425654
-0.12650342 -0.26628083 -0.15784329 -0.18811059 -0.05780148 -0.00059217255 0.019397214 -0.017154373
0.108822346 -0.09807907 -0.1523003 -0.11662225 0.083379015 -0.23491436 -0.017592633 0.013481787
0.017783247 -0.25019866 0.017796123 -0.17093046 -0.047319688 -0.08866365 -0.15432021 0.24290594
0.13098812 -0.18659472 -0.20322675 -0.20755154 -0.09906149 -0.3945188 -0.07198057 0.005575599
00000000: f288 62be 8350 733d 3345 103e d728 593e
00000010: 93f9 b6bd 1810 2cbc acc9 cbbd 5fd8 b23c
00000020: 55f9 4e3d 79f8 f4bd 9507 64be e76d 743c
00000030: 0884 46bd a248 62bd 5b37 2e3e 5fd6 7abd
00000040: 4dfe 5dbe 0fb7 c6bd b0ec 893b 2ecf 1f3b
00000050: 7aaf 5e3d 5e84 25bd f829 c93d 13ba b5bc
00000060: b771 f7bd 1756 0abd 5544 053e 484c c1bc
00000070: 5d09 053d 2fbf 013e 065f a0bc 39ed f33c
00000080: cf37 3fbe 36b3 a13d d4e0 86be 05aa 5abe
00000090: d7cd 3c3d 0fe9 d43b 400f 2bbe 6b0d 8fbd
000000a0: 2386 c8bd 0719 b3bc 4bd6 5dbe 336b 56be
000000b0: 2fe3 813d 25da 2fbe a3ff 4abe e668 853c
000000c0: b606 5bbd edaa 43be d6af 50be 985a f6bc
000000d0: afd5 60be d17d 0e3b ca7a 99be e3bc cdbd
000000e0: 780e abbe 745e 70bd 60f5 38be 03a1 10be
000000f0: 9dd1 b6be 86bb 80be 2de8 13be 9b1f 31be
00000100: 202b 35be 4e08 83bd d9f6 83be 9cee abbc
00000110: efa2 52be 827f 91be 927b c8be 50d5 56be
00000120: dd47 a8bd 0511 0fbd 7187 52be fef7 6cbd
00000130: 117c 90bd d5b0 0abe 2250 87be 4c8d 00be
00000140: d11c d4bd 411f bfbe ebe1 b0be 9399 4dbd
00000150: 0eb5 2abf 71e6 3abf 451f 483c 51b8 293d
00000160: 811c 00be dcf5 823f 37bf b0bd 11a8 263f
00000170: ad2b 963f fa8e b4be 6d12 b6be 3da0 02be
00000180: 90b7 413e 23fd bc3d c6b5 653d 96ed 9f3e
00000190: 9c7a 3dbe 32d6 aabd e51a 14be 6c0c 0b3e
000001a0: aabd a23e 899c 36be 0a5b eb3e 580d 1fbf
000001b0: 6172 b5bd 223d 153e a1f4 72be d9d3 d1bd
000001c0: 4c67 37be d641 82be 8e0c b63c 191b 9fbb
000001d0: 96a3 63be 60c6 00bd ecce b0be 4820 70be
000001e0: a02e c0bd 5148 1abb a7dc 9abe e3b5 b5be
000001f0: f976 893c 31db 18be 4faa 6cbe 34fe b1bd
00000200: a62c 21be b793 f2bd f81b c03a d7af b8bd
00000210: a401 d2bc 28ac 66bc a892 473d f6d2 f0bd
00000220: 69b0 f3bb 8381 01be 14f2 5e3d f0f8 b8bd
00000230: 2ea6 1ebe 8410 25bd 8796 f0bd fd9e 56be
00000240: 84a5 67be 8e7a 41be a782 e33c 7d28 8dbe
00000250: 894d 5b3b bc40 4a3d 22e4 6cbe 1e47 c23c
00000260: bf92 47be 0758 68be 4843 a03d 738d d7bd
00000270: a591 91be 4b59 303d 082a 8fbe 7cad 8abe
00000280: 1db6 b4bd 816c da3c 387f 54be 4a4a b4bd
00000290: 420b 85be 1318 8dbd dd77 92bd 99f6 1abd
000002a0: c72d d3bd fd5e e2be 950c 99be 7768 ca3c
000002b0: 18bb fdbd eec0 a4be 2e1b b7be 8e06 5ebe
000002c0: 410e a5be a5fe c4be c9f7 0bbe 55fd 9abe
000002d0: a4f8 d2bd 5433 3dbe 46d7 a6be 4d55 ecbd
000002e0: 85dc 0fbe 8ce9 d93c cf89 99be 7da4 30bd
000002f0: 2249 c5bd 9ca8 03bd b01c 55ba 32f1 e13c
00000300: 9342 d2bc fa18 30be 1840 39be c57d 01be
00000310: 976e 753d 93df bdbd 5d51 983c a85d 6dbd
00000320: 2349 be3d 0df8 95be 1de7 1bbe f9ee 52be
00000330: 8424 943c 99b8 0bbe 1fd8 f1bd 6f20 37be
00000340: 799e f1bd 0d8a 22bd 71d8 40be 223d 95bd
00000350: 4ca8 a5be 89ed f0bd 597f bfbd 0c23 3fbe
00000360: fa74 27bd 7c56 03be ebee 583d 9c55 5f3e
00000370: aee9 30be 0d61 983c 64df 2ebe 1133 153d
00000380: 1d8a 01be f655 88be aca1 21be 10a0 40be
00000390: 3fc1 6cbd 073c 1bba e8e6 9e3c 5487 8cbc
000003a0: 40de de3d aedd c8bd 9cf4 1bbe a5d7 eebd
000003b0: 9ec2 aa3d 648d 70be 6d1e 90bc b7e2 5c3c
000003c0: 2cae 913c 0a1a 80be 2dc9 913c 6508 2fbe
000003d0: 4ad2 41bd 4a95 b5bd 1e06 1ebe 56bc 783e
000003e0: c021 063e b012 3fbe ac1a 50be 6488 54be
000003f0: c0e0 cabd 5efe c9be 8d6a 93bd 84b3 b63b

conv1.event__follows__event.lin_rel.bias f4 [128]
-0.225118 -0.10145823 -0.10942066 0.08273419 -0.102585115 -0.09899677 -0.09514047 -0.3301312
0.02560088 -0.06634659 -0.24531473 -0.23749305 0.025382968 0.042814095 -0.17339441 -0.1533724
-0.13233972 -0.28884682 0.019031228 -0.035855494 0.057571862 -0.1012406 0.02468406 -0.3359581
-0.17208497 -0.1794789 -0.0952616 -0.07611494 -0.17732486 -0.2296524 -0.09870527 -0.16515698
-0.34958887 0.17296043 0.03463352 0.09433967 -0.22557561 -0.20651796 -0.21642925 -0.2919503
0.0057828114 0.03619454 -0.1520823 -0.16031042 -0.20463735 -0.18428434 -0.22127017 -0.113896616
-0.001168721 -0.23850338 -0.18360119 -0.27362943 -0.10864341 -0.052876797 -0.11957759 -0.27485582
-0.06250601 -0.30155024 -0.41026273 -0.14180344 -0.19879887 -0.013351514 -0.037115857 -0.0061024567
-0.1166218 -0.01750951 -0.04995996 -0.059437916 -0.1114647 -0.20889239 -0.22395387 0.1438284
-0.15376319 -0.20513958 0.089587495 -0.074120015 -0.20372725 0.083061144 -0.31708005 -0.22835006
-0.25406438 -0.049060587 -0.112671055 0.16074009 -0.07306903 -0.38119534 -0.11083159 -0.12049556
-0.021589678 -0.2554955 -0.19583182 -0.13818055 -0.10485968 -0.03237573 -0.19848068 -0.13662654
-0.042689014 0.040778495 -0.0946266 -0.11284593 -0.08361735 -0.44078514 -0.1409474 -0.14902173
-0.28228977 -0.036140095 -0.17546377 -0.18598153 -0.15572701 0.0370653 -0.26510236 -0.13221559
-0.10866195 -0.01751898 -0.13881835 -0.106572144 -0.21292995 -0.030034777 -0.2263226 -0.37730238
-0.04380211 0.07890681 -0.13591456 -0.31878865 0.00061554177 -0.23655793 -0.09466263 0.1267907
00000000: 5585 66be 55c9 cfbd f017 e0bd 8b70 a93d
00000010: 2518 d2bd d2be cabd 02d9 c2bd f506 a9be
00000020: f0b8 d13c b9e0 87bd c933 7bbe 6131 73be
00000030: f1ef cf3c d55d 2f3d 4e8e 31be a80d 1dbe
00000040: 1084 07be bbe3 93be 61e7 9b3c 36dd 12bd
00000050: 79d0 6b3d 3b57 cfbd 3a36 ca3c b302 acbe
00000060: 0b37 30be 51c9 37be 8418 c3bd 26e2 9bbd
00000070: a694 35be 002a 6bbe fd25 cabd e91e 29be
00000080: 50fd b2be 8a1c 313e e1db 0d3d 2835 c13d
00000090: 4bfd 66be 7279 53be a19f 5dbe 827a 95be
000000a0: bd7d bd3b ba40 143d 76bb 1bbe 6a28 24be
000000b0: 748c 51be 09b5 3cbe a694 62be a142 e9bd
000000c0: c52f 99ba 3b3a 74be f301 3cbe 2819 8cbe
000000d0: 7080 debd 5795 58bd 18e5 f4bd e7b9 8cbe
000000e0: 2703 80bd cb64 9abe f50d d2be ec34 11be
000000f0: ee91 4bbe 4fc0 5abc cc06 18bd 1ef7 c7bb
00000100: 69d7 eebd 1b70 8fbc d1a2 4cbd 2c75 73bd
00000110: 9b47 e4bd e3e7 55be 2a54 65be c147 133e
00000120: 1974 1dbe 1c10 52be a679 b73d 3ccc 97bd
00000130: e09d 50be f61b aa3d 5158 a2be 99d4 69be
00000140: ba14 82be c1f3 48bd 15c0 e6bd 0d99 243e
00000150: 37a5 95bd 092c c3be acfb e2bd 60c6 f6bd
00000160: d6dc b0bc 4ed0 82be 2388 48be 347f 0dbe
00000170: acc0 d6bd 6a9c 04bd 853e 4bbe d4e7 0bbe
00000180: adda 2ebd 5a07 273d 97cb c1bd c41b e7bd
00000190: 933f abbd 97ae e1be 8454 10be 2799 18be
000001a0: 4988 90be a307 14bd c6ac 33be f171 3ebe
000001b0: e776 1fbe c9d1 173d 7fbb 87be 8663 07be
000001c0: 288a debd f783 8fbc 6626 0ebe 7f42 dabd
000001d0: 4f0a 5abe 7e0b f6bc 1dc1 67be c72d c1be
000001e0: d769 33bd e599 a13d 302d 0bbe 4438 a3be
000001f0: 4f5c 213a 3e3c 72be 7bde c1bd 6cd5 013e

conv1.event__follows__event.lin_root.weight f4 [128, 27]
0.034497388 -0.064205356 -0.16318876 0.037831157 0.14995399 0.019432036 0.114180006 -0.265743
-0.2418042 0.040945623 -0.13934141 -0.09710683 0.18797831 -0.24144925 -0.0024000397 -0.123284325
-0.0062697153 -0.07495621 -0.03501718 -0.14680336 -0.23699641 -0.32430673 -0.23596275 -0.18936732
-0.0046797334 -0.18855397 0.045568533 0.08305786 -0.03001972 -0.27761987 -0.15741146 -0.0074627604
-0.32159474 0.09181893 -0.09715499 -0.12970378 -0.075534225 -0.18850398 -0.11264929 0.035949923
-0.25865993 0.005385242 -0.22038624 0.031926736 0.052693326 -0.02066312 -0.27077648 -0.23307976
-0.35183463 -0.023815917 -0.30922934 -0.22027238 -0.039326843 -0.015443775 -0.018178038 -0.1621468
-0.11620362 -0.39667913 -0.16118073 -0.20177668 -0.28503427 -0.26980695 -0.07806946 -0.32584044
0.019622862 -0.04041886 -0.16070144 -0.21272661 -0.27723822 -0.16093343 -0.12146815 -0.2655508
-0.32727638 -0.23605146 -0.09372861 -0.28339013 -0.02509305 -0.05097217 -0.047676593 -0.19969404
-0.35521618 -0.56872725 -0.21097414 -0.18161947 -0.33009183 -0.10824481 -0.059003 -0.3537312
-0.0788217 0.63248426 -0.055839706 0.4003036 0.80614173 -0.72413355 -0.28039053 -0.35864246
-0.14407122 0.008428519 -0.13350932 -0.08348959 0.058029916 0.05976527 0.45111012 0.3554776
0.6423317 -0.15723218 0.26206475 -0.41085684 -0.17346847 -0.06640536 -0.37628895 0.08850431
0.005556935 -0.15580647 -0.20444885 -0.12398468 -0.067779884 -0.04400868 -0.13531457 -0.120072976
-0.28939816 -0.0001330591 -0.25488585 -0.057059538 -0.07917938 -0.28746563 -0.27650633 -0.15760264
-0.13443929 -0.124656014 -0.2150102 0.17709869 -0.090523995 -0.07009417 -0.07820459 0.026614306
-0.2020955 0.07514322 0.0436225 -0.15616871 -0.20713529 0.0029129146 -0.22789748 -0.17614526
-0.21609254 -0.037837368 -0.15179722 -0.2582214 -0.06752373 -0.006678328 -0.040812187 -0.27718616
0.045740318 -0.08683177 -0.21472484 -0.064720094 -0.15827899 0.013528759 -0.06060494 0.062448945
-0.20010887 -0.2728254 0.061515827 -0.15787943 -0.08440555 -0.11861428 -0.04914673 -0.14304128
-0.2729366 -0.13552016 -0.100557044 0.118583634 -0.41399476 -0.18317369 -0.34669164 -0.45955503
-0.18614268 -0.33836678 -0.030500852 -0.38745815 -0.36645517 -0.254378 -0.10030668 -0.3945852
-0.2363677 -0.32931396 -0.033419386 -0.16595355 -0.5065955 -0.1811242 0.08727163 -0.18242572
0.044661313 0.077577524 -0.518838 0.14036639 -0.24702093 -0.02974376 -0.09214887 -0.20122103
-0.03975283 -0.1560632 0.027446084 -0.021024607 0.04322133 -0.062447038 -0.30122635 -0.10009777
-0.22641248 -0.06562816 -0.2527548 -0.070546746 -0.10323659 -0.28125796 -0.2035426 -0.055627637
-0.20652205 0.033260193 -0.16523206 -0.15270631 -0.10679026 -0.13467583 -0.119538665 -0.24637732
-0.010265892 -0.21029148 -0.009179134 -0.23094524 0.085980654 -0.055062186 -0.21405125 -0.13617234
-0.09106493 -0.17637712 -0.14072022 0.062437735 -0.218092 -0.3067848 -0.1128445 -0.046620276
-0.19797435 -0.009181808 -0.054254476 -0.18272986 0.18570872 -0.09577226 0.03377295 0.15301323
-0.26015887 -0.2829207 -0.09681494 0.17057 0.12922344 -0.25198358 -0.08974914 -0.1633144
00000000: 224d 0d3d 197e 83bd f41a 27be d8f4 1a3d
00000010: 8a8d 193e ef2f 9f3c 35d7 e93d 770f 88be
00000020: 859b 77be 99b6 273d 84af 0ebe f2df c6bd
00000030: 637d 403e 793e 77be fc49 1dbb 7e7c fcbd
00000040: 2f72 cdbb a482 99bd 2d6e 0fbd 9f53 16be
00000050: 30af 72be 880b a6be 38a0 71be 82e9 41be
00000060: 7358 99bb 4b14 41be 12a6 3a3d 3d1a aa3d
00000070: eaeb f5bc 3124 8ebe 7830 21be 2c8a f4bb
00000080: 11a8 a4be 900b bc3d 32f9 c6bd 11d1 04be
00000090: b0b1 9abd 3007 41be acb4 e6bd 3a40 133d
000000a0: 136f 84be af76 b03b eeac 61be 9cc5 023d
000000b0: f5d4 573d b445 a9bc 37a3 8abe 76ac 6ebe
000000c0: ab23 b4be 9919 c3bc 4f53 9ebe 158f 61be
000000d0: 2f15 21bd e307 7dbc 1cea 94bc d009 26be
000000e0: 2afc edbd 8719 cbbe 900c 25be 8c9e 4ebe
000000f0: 03f0 91be 2324 8abe e2e2 9fbd 8fd4 a6be
00000100: 20c0 a03c 3f8e 25bd eb8e 24be 01d5 59be
00000110: 2bf2 8dbe bccb 24be 4bc4 f8bd 46f6 87be
00000120: c590 a7be 79b7 71be c9f4 bfbd 8318 91be
00000130: f18f cdbc 32c8 50bd 8848 43bd 987c 4cbe
00000140: e5de b5be 1c98 11bf 9b09 58be 74fa 39be
00000150: cc01 a9be 74af ddbd 21ad 71bd 411c b5be
00000160: 456d a1bd 7dea 213f 2db8 64bd 98f4 cc3e
00000170: 4e5f 4e3f d160 39bf 598f 8fbe fc9f b7be
00000180: 6887 13be c517 0a3c abb6 08be 97fc aabd
00000190: c7b0 6d3d 6ecc 743d e8f7 e63e 2901 b63e
000001a0: da6f 243f 7901 21be 5a2d 863e d45b d2be
000001b0: b8a1 31be 89ff 87bd f2a8 c0be bf41 b53d
000001c0: f316 b63b bb8b 1fbe 0a5b 51be aeeb fdbd
000001d0: 2ed0 8abd 7242 34bd e78f 0abe d2e8 f5bd
000001e0: ff2b 94be c885 0bb9 6680 82be 43b7 69bd
000001f0: cc28 a2bd b22e 93be 3d92 8dbe 9662 21be
00000200: 74aa 09be a74b ffbd a22b 5cbe 5c59 353e
00000210: a564 b9bd 888d 8fbd ba29 a0bd 3f06 da3c
00000220: 1ff2 4ebe b0e4 993d 82ad 323d b1ea 1fbe
00000230: 461b 54be 99e6 3e3b f55d 69be 6c5f 34be
00000240: 5d47 5dbe 5bfb 1abd bb70 1bbe 9835 84be
00000250: e249 8abd e0d5 dabb ae2a 27bd 58eb 8dbe
00000260: 335a 3b3d dbd4 b1bd d4e0 5bbe f88b 84bd
00000270: e313 22be baa7 5d3c e33c 78bd 77ca 7f3d
00000280: 57e9 4cbe c5af 8bbe 05f8 7b3d 25ab 21be
00000290: d1dc acbd 0bec f2bd 154e 49bd 6a79 12be
000002a0: 59be 8bbe ccc5 0abe daf0 cdbd fadb f23d
000002b0: 1ff7 d3be e291 3bbe 9181 b1be cc4a ebbe
000002c0: 309c 3ebe 693e adbe ecdc f9bc ea60 c6be
000002d0: 03a0 bbbe d53d 82be 976d cdbd 1207 cabe
000002e0: 600a 72be d79b a8be c4e2 08bd baef 29be
000002f0: 3eb0 01bf 9f78 39be 78bb b23d cfcd 3abe
00000300: c8ee 363d f7e0 9e3d 91d2 04bf 35bc 0f3e
00000310: 0ef3 7cbe 30a9 f3bc 8cb8 bcbd e30c 4ebe
00000320: ddd3 22bd 08cf 1fbe 9cd6 e03c cc3b acbc
00000330: d908 313d 77c8 7fbd 573a 9abe 0f00 cdbd
00000340: acd8 67be 0f68 86bd 1469 81be d07a 90bd
00000350: b56d d3bd 0b01 90be 796d 50be ced9 63bd
00000360: 847a 53be d73b 083d 9832 29be 0b5f 1cbe
00000370: dab4 dabd 76e8 09be b0d0 f4bd 564a 7cbe
00000380: 4632 28bc a656 57be 1464 16bc e97c 6cbe
00000390: a016 b03d e388 61bd 4030 5bbe c370 0bbe
000003a0: 4080 babd 349c 34be f618 10be b6be 7f3d
000003b0: 8253 5fbe e612 9dbe 041b e7bd e7f4 3ebd
000003c0: cab9 4abe 4b6f 16bc f139 5ebd 891d 3bbe
000003d0: 6d2a 3e3e 3f24 c4bd 8155 0a3d 80af 1c3e
000003e0: 8b33 85be fbda 90be e946 c6bd e7a9 2e3e
000003f0: 2653 043e fe03 81be 66ce b7bd e43b 27be

conv1.event__interacts__application.lin_rel.weight f4 [128, 27]
0.14041655 0.059363797 -0.03668107 -0.13265754 -0.13523236 -0.015658548 -0.13488074 -0.13193004
0.0013544647 -0.21099243 -0.14283043 -0.11020064 0.03119337 0.04333909 -0.1134767 -0.118561834
0.048142906 -0.18899344 0.07935444 0.012304688 0.092462465 -0.1897253 0.0035949205 -0.25578547
0.10542459 -0.007585038 0.24836208 -0.2184746 -0.21440384 -0.15424606 0.012977429 0.09227805
-0.24167788 -0.15341333 -0.03603931 -0.1336517 0.013643851 -0.30073377 0.012048152 -0.19190897
-0.17142577 -0.15793599 -0.02889295 -0.026941303 -0.08190635 -0.04459718 0.08284012 0.09121511
-0.15795937 -0.1305463 0.095052235 0.06987486 -0.24230859 0.012820481 -0.20562866 -0.11046588
-0.28984687 0.062392104 -0.16134298 -0.09914622 -0.0044776276 -0.05138964 -0.22536081 -0.28417957
0.051570594 -0.18622378 -0.12374104 -0.23206347 -0.18949093 -0.060864624 -0.14903624 0.039401636
-0.25740126 -0.07627625 -0.1422783 -0.3435205 0.0006079927 -0.3282727 0.0059360913 -0.13354939
0.012755804 -0.0860619 -0.17271863 0.0719098 0.17900914 0.0029503435 -0.10920226 -0.08560224
-0.076133855 0.18161699 -0.102745205 0.20947476 0.028650608 -0.12859264 0.14284416 0.118065335
0.029240424 0.02732491 -0.15983285 0.046736043 -0.02947515 0.09625142 -0.3136183 -0.22351837
-0.24893574 -0.1538154 -0.18830472 -0.24677022 0.0082814 0.21254618 -0.13496004 -0.09814837
-0.14683028 -0.007391618 -0.23666863 -0.18201861 -0.10493843 -0.17181925 -0.17368974 0.051528838
0.16625024 -0.20711301 0.18190604 -0.19419402 -0.030731482 -0.34228596 -0.20449632 -0.07328722
-0.19969924 -0.23937076 0.027684364 0.25475845 -0.020379579 -0.21224323 0.083148114 -0.3505974
-0.12527245 -0.19468772 -0.3068164 0.11236053 -0.3798866 -0.12494896 -0.38114876 0.029309748
-0.26016626 -0.25369757 -0.2925272 -0.4033434 -0.15855649 -0.22010045 -0.19751741 -0.17223541
-0.15960917 -0.16248082 -0.23348859 -0.15831588 0.3541213 0.06479334 0.67256373 0.035516765
-0.17403969 -0.3233753 -0.046358947 -0.13375373 -0.18715505 0.032505397 -0.2710939 0.061216284
-0.20432758 -0.15134372 -0.18809904 -0.11564613 -0.10991471 0.024915177 -0.33206654 -0.1619622
0.021801662 -0.22135858 -0.034220725 -0.3111099 -0.029850876 -0.25138503 -0.22386825 -0.15368067
-0.09702131 0.071816616 -0.24834396 -0.1385784 0.041678015 -0.07761669 -0.17692547 -0.15807633
0.080776826 -0.079488575 0.07664556 -0.19156602 -0.029519584 -0.1311714 0.09482802 0.07796865
-0.04224956 0.082444556 -0.13150184 -0.112324916 -0.09040497 -0.10057139 -0.06253275 -0.021307059
-0.07532099 0.054348685 -0.03199677 -0.16814482 0.0056741345 0.0706369 -0.23409083 -0.0052559995
0.07092435 -0.10771669 -0.13409224 0.05862978 -0.29607973 -0.12039886 0.058616668 -0.27302477
-0.1928251 -0.3063796 -0.03187985 -0.03966485 -0.2328911 0.04029928 -0.031230098 0.033298917
-0.043837532 -0.1335032 -0.090593204 -0.19979498 -0.01147391 -0.18841721 0.022077741 -0.2394592
-0.28134814 -0.10234911 -0.2871744 -0.2273509 -0.13007009 -0.08684453 -0.12907234 -0.13968816
0.028713634 0.046347044 -0.022712208 -0.08579564 -0.013457892 0.083402924 0.14435361 0.036555137
00000000: 5bc9 0f3e 7427 733d e43e 16bd 61d7 07be
00000010: 5a7a 0abe 5b46 80bc 2d1e 0abe ab18 07be
00000020: 4b88 b13a 660e 58be 2442 12be e0b0 e1bd
00000030: 3d89 ff3c 5484 313d 7966 e8bd 8cd0 f2bd
00000040: 7f31 453d 7f87 41be 9584 a23d 9a99 493c
00000050: f65c bd3d 5947 42be c298 6b3b 50f6 82be
00000060: d9e8 d73d e98b f8bb a152 7e3e ceb7 5fbe
00000070: ae8c 5bbe aef2 1dbe 489f 543c 46fc bc3d
00000080: 687a 77be 6218 1dbe f59d 13bd fedb 08be
00000090: 758a 5f3c c7f9 99be 9d65 453c c983 44be
000000a0: 3d8a 2fbe f9b9 21be e8b0 ecbc 02b4 dcbc
000000b0: 84be a7bd 88ab 36bd 15a8 a93d fdce ba3d
000000c0: 1ac0 21be eead 05be bfaa c23d 8d1a 8f3d
000000d0: be1f 78be ff0c 523c 5290 52be ef3b e2bd
000000e0: cf66 94be dd8e 7f3d 1837 25be 2c0d cbbd
000000f0: 10b9 92bb f17d 52bd fcc4 66be fc7f 91be
00000100: b03b 533d 72b1 3ebe f16b fdbd 0ca2 6dbe
00000110: e909 42be 2f4d 79bd f59c 18be 9c63 213d
00000120: 19ca 83be b936 9cbd 67b1 11be ebe1 afbe
00000130: b361 1f3a 5c13 a8be 8b83 c23b 2cc1 08be
00000140: b8fd 503c 3941 b0bd 27dd 30be 7245 933d
00000150: 2c4e 373e 8d5a 413b 6fa5 dfbd 3a50 afbd
00000160: 11ec 9bbd cef9 393e 146c d2bd 8d80 563e
00000170: aeb4 ea3c caad 03be bd45 123e 3dcc f13d
00000180: 9d89 ef3c 7dd8 df3c 39ab 23be 4b6e 3f3d
00000190: df75 f1bc 771f c53d 9492 a0be 00e2 64be
000001a0: 03e9 7ebe c981 1dbe f4d2 40be 55b1 7cbe
000001b0: b6ae 073c b5a5 593e f732 0abe 0302 c9bd
000001c0: ad5a 16be 6335 f2bb 4359 72be 1663 3abe
000001d0: f6e9 d6bd 63f1 2fbe b9db 31be e70f 533d
000001e0: 813d 2a3e 6f15 54be 9445 3a3e ccda 46be
000001f0: 97c0 fbbc 1b40 afbe 7c67 51be 9c17 96bd
00000200: f57d 4cbe 9c1d 75be 52ca e23c b36f 823e
00000210: 13f3 a6bc 4a56 59be 8f49 aa3d 8181 b3be
00000220: 6c47 00be 385c 47be 0a17 9dbe 471d e63d
00000230: 7f80 c2be 3ee5 ffbd ee25 c3be ff1a f03c
00000240: 8334 85be a6e4 81be 20c6 95be 0783 cebe
00000250: a25c 22be 0362 61be 0142 4abe 7b5e 30be
00000260: 9670 23be 5f61 26be a217 6fbe 8f1d 22be
00000270: 634f b53e 5fb2 843d 232d 2c3f 077a 113d
00000280: 7637 32be 7391 a5be e1e2 3dbd bdf6 08be
00000290: 93a5 3fbe 6124 053d d2cc 8abe edbd 7a3d
000002a0: 403b 51be d9f9 1abe 099d 40be e1d7 ecbd
000002b0: f71a e1bd ea1a cc3c a004 aabe 6bd9 25be
000002c0: 6699 b23c d3ab 62be 082b 0cbd cc49 9fbe
000002d0: d389 f4bc 8ab5 80be b83d 65be 775e 1dbe
000002e0: 1cb3 c6bd 9714 933d e14d 7ebe 7fe7 0dbe
000002f0: 91b6 2a3d 80f5 9ebd f32b 35be c3de 21be
00000300: 526e a53d e8ca a2bd 59f8 9c3d e229 44be
00000310: 0ed3 f1bc cc51 06be 3135 c23d 07ae 9f3d
00000320: e00d 2dbd b1d8 a83d 6ba8 06be 9b0a e6bd
00000330: 3e26 b9bd 5ff8 cdbd 2c11 80bd 248c aebc
00000340: e441 9abd ba9c 5e3d 0c0f 03bd 282e 2cbe
00000350: 17ee b93b 14aa 903d 82b5 6fbe 853a acbb
00000360: c940 913d 919a dcbd 7a4f 09be c825 703d
00000370: c397 97be ad93 f6bd 0818 703d e7c9 8bbe
00000380: f173 45be c9dd 9cbe 7294 02bd 9c77 22bd
00000390: 017b 6ebe dc10 253d 43d6 ffbc 7264 083d
000003a0: fc8e 33bd 10b5 08be ee88 b9bd 0e97 4cbe
000003b0: 11fd 3bbc 71f0 40be 61dc b43c cb34 75be
000003c0: dd0c 90be 699c d1bd 8608 93be adce 68be
000003d0: 1831 05be 8cdb b1bd 8a2b 04be 6a0a 0fbe
000003e0: db38 eb3c 66d6 3d3d f40e babc a0b5 afbd
000003f0: 7e7e 5cbc 27cf aa3d 6fd1 133e d7ba 153d

conv1.event__interacts__application.lin_rel.bias f4 [128]
-0.16246024 -0.0067814025 -0.25340492 0.10413025 0.0050088787 -0.28772858 -0.067529745 -0.055404633
-0.13226086 -0.27606177 -0.122450404 -0.054673757 -0.18276118 0.006860802 0.06152223 -0.4444544
0.045234904 -0.29518542 -0.2586067 -0.20580411 -0.1232984 -0.29690078 0.103069045 -0.07883841
0.07649395 -0.12194069 -0.22513112 -0.26137966 -0.3649709 -0.44428226 -0.0073158625 -0.2654304
0.2695358 -0.3781992 -0.10214101 0.09268443 0.1153188 -0.13725813 0.028937297 -0.16053131
0.0055873003 -0.2913774 -0.15689078 -0.28776282 -0.30320802 -0.20199132 -0.011904437 -0.20798872
0.050219566 -0.11359326 -0.2279844 0.3203375 0.14812732 -0.13141492 0.16537143 -0.2437765
-0.010919428 -0.44765648 -0.2632767 0.087804735 -0.06046711 -0.11797987 -0.1353865 -0.12948646
-0.0011966876 0.049011577 -0.026631905 -0.19425106 -0.113064766 -0.16751203 -0.018777221 -0.003381276
-0.035202943 -0.043792598 -0.17206974 0.1829424 -0.5424058 0.109563164 0.112042725 -0.17016432
-0.23269275 -0.017395582 0.080164686 -0.19379391 0.087430455 -0.28712928 -0.11683441 -0.17223565
-0.15747362 -0.07752009 0.1947165 0.032856926 -0.16321018 -0.061760537 -0.15067323 -0.30752593
-0.57868 -0.092359856 0.03360657 -0.1234753 -0.13190594 0.03533042 -0.29187962 -0.5071343
-0.2488815 -0.09748546 -0.35917222 -0.1734043 0.058298398 0.03535951 0.27935013 -0.31603542
-0.03139195 -0.35938805 -0.2715998 0.23813346 0.06292267 -0.19507949 -0.181293 -0.00030738433
-0.056482438 -0.2850167 -0.3689888 0.10429938 -0.039253518 -0.14707612 -0.3901933 -0.29666308
00000000: fa5b 26be 8736 debb 4abe 81be 3e42 d53d
00000010: 8521 a43b 2951 93be 094d 8abd f8ef 62bd
00000020: 646f 07be f857 8dbe 47c7 fabd 97f1 5fbd
00000030: bf25 3bbe 94d0 e03b bcfe 7b3d 878f e3be
00000040: 3c48 393d 8b22 97be 1968 84be 50be 52be
00000050: df83 fcbd 6103 98be dd15 d33d 0876 a1bd
00000060: dca8 9c3d 0abc f9bd c688 66be 8ed3 85be
00000070: 77dd babe f778 e3be e7b9 efbb 7ee6 87be
00000080: 9900 8a3e 53a3 c1be 4e2f d1bd 56d1 bd3d
00000090: 432c ec3d 658d 0cbe e90d ed3c 5262 24be
000000a0: ac15 b73b 6b2f 95be faa7 20be a655 93be
000000b0: 153e 9bbe d0d6 4ebe d40a 43bc fffa 54be
000000c0: 08b3 4d3d 95a3 e8bd be74 69be 4703 a43e
000000d0: b0ae 173e a291 06be 2157 293e 8ca0 79be
000000e0: 67e7 32bc 3b33 e5be 34cc 86be f8d2 b33d
000000f0: 5cac 77bd 6e9f f1bd c2a2 0abe 1998 04be
00000100: 2cda 9cba 5dc0 483d 272b dabc c0e9 46be
00000110: 808e e7bd 4688 2bbe b0d2 99bc 6698 5dbb
00000120: f630 10bd de5f 33bd 0d33 30be 4155 3b3e
00000130: 1bdb 0abf a762 e03d a876 e53d 8e3f 2ebe
00000140: 0247 6ebe 2e81 8ebc 622d a43d e971 46be
00000150: bd0e b33d 9c02 93be e146 efbd 8b5e 30be
00000160: c440 21be dac2 9ebd c363 473e fc94 063d
00000170: 9220 27be 9ef8 7cbd 154a 1abe 0a74 9dbe
00000180: 5f24 14bf 2a27 bdbd 0ba7 093d 9ee0 fcbd
00000190: 5a12 07be a1b6 103d 3f71 95be 8ed3 01bf
000001a0: cbda 7ebe 75a6 c7bd 6ce5 b7be e690 31be
000001b0: 4dca 6e3d 22d5 103d fb06 8f3e 65cf a1be
000001c0: d894 00bd b601 b8be 210f 8bbe 42d9 733e
000001d0: 9add 803d ebc2 47be dfa4 39be 6d28 a1b9
000001e0: 215a 67bd b5ed 91be 1aec bcbe ea9a d53d
000001f0: 4cc8 20bd 1f9b 16be 6bc7 c7be 39e4 97be

conv1.event__interacts__application.lin_root.weight f4 [128, 3]
0.42322072 0.10185799 0.2076119 0.2579638 0.13675964 0.3213449 0.0032022311 0.1026494
0.041679956 0.025038864 -0.15950815 0.044866513 -0.11327076 -0.11631267 -0.07446981 -1.1076233
-0.42780915 -0.79613465 -0.3951993 -0.44509366 -0.2847431 0.6924075 -0.11438199 -0.13096833
0.279503 0.40033126 0.4396301 -0.2053933 -0.4913789 -0.49260738 0.35930505 0.36023632
0.34487766 0.30168766 -0.105777696 0.25094175 -0.6080032 -0.10757261 -0.27166638 0.22367263
-0.14173594 -0.35323423 0.044063155 -0.33854026 0.03985079 -0.6873773 -0.14962216 0.13427295
-0.8623601 -0.52499217 -0.2531 0.35348964 -0.37796026 0.37344584 -0.268517 -0.21151981
-0.12380441 -0.694845 0.06834715 -0.00087219576 0.3677051 0.34051093 -0.17154959 0.1682233
-0.7614817 -0.1740635 0.2504836 -0.31624067 -0.07948788 0.011384711 0.19113517 0.35669935
0.52202004 -0.2643201 0.45061475 -1.2262795 -0.0027292944 0.015115055 0.090414256 -0.24468867
-0.32623526 -0.20350416 -0.12820652 -0.6859098 0.45445248 0.22417998 0.12835874 -0.12239872
-0.037722018 -0.07872834 0.05085513 -0.022682743 0.38254917 -0.70228755 0.37161592 -0.22453296
0.84468657 0.50202686 0.44800153 -0.2488695 -0.1728425 -0.26090622 0.44889298 -0.54679304
0.19006285 0.6898413 -0.052251358 0.13740267 -0.99069405 0.079199985 -0.05969474 -0.23155272
0.15782611 0.05100727 0.0020069922 0.051906887 0.04144796 -0.46356282 0.16548225 0.077521734
-0.4687273 0.24006006 0.09494835 0.73385775 -0.1436654 0.2911783 0.4124457 -0.4095235
0.07200301 -0.8090248 -0.06676099 0.09244083 -0.17153412 0.5637118 0.29310468 0.05717752
0.6585 -0.2827387 0.36371234 0.00074278784 -0.28787446 -0.9155874 0.03702073 -0.07921807
0.18294361 0.13595589 0.045499783 0.019338122 -0.10508641 -0.08298141 -0.00811461 -0.33572254
-0.32799867 0.26970565 0.17941809 0.25668463 0.21421097 0.23466124 0.22346495 0.041608762
-0.10110328 -0.027730195 -0.20215629 -0.50533396 -0.3795565 0.5606307 -0.37515652 -0.076538175
0.14475141 -0.47728404 0.20934774 -0.2330984 -0.49775088 -0.6580459 0.036686584 -0.82011145
-0.50776726 0.002968044 -0.3001749 -0.17631309 -0.25205448 0.52721775 0.0033145046 -0.10567345
-0.49375236 -0.11187182 0.2493238 -0.046701606 -0.049855318 0.5123407 0.3814522 0.3577939
-0.46197644 -0.15273686 -0.4227977 -0.677882 0.041095063 -0.22550748 0.07885263 -0.45381778
-0.26079383 0.30006596 0.83670175 -0.108501345 0.061361652 0.41182604 -0.19424851 0.2574419
0.18694815 0.23813364 -0.11268647 0.18680808 0.17750217 -0.5603087 -0.28578672 -0.10866994
0.046496708 -0.038106114 -0.012238187 0.18261412 -0.054525062 -0.4783154 0.08084037 0.4739857
0.0048476835 -0.30827844 -0.17331214 -0.17032064 -0.98090297 -0.46274644 -0.64181054 0.33299744
0.3521913 0.09472481 0.14944598 -0.20487441 0.051339284 0.14387262 0.27280542 0.089923225
-0.5713874 -0.31736708 -0.24844119 -0.49492902 0.17824231 0.20477141 0.094734184 0.18396328
0.17889717 -0.1862687 0.14581971 -0.09353001 -0.30141777 -0.23377897 -0.14333324 -0.36034995
00000000: 63b0 d83e ec9a d03d 3798 543e d513 843e
00000010: b80a 0c3e 5287 a43e 86dc 513b d939 d23d
00000020: 9ab8 2a3d 4e1e cd3c 1b56 23be f3c5 373d
00000030: 80fa e7bd 5635 eebd a183 98bd 9ac6 8dbf
00000040: cd09 dbbe 7bcf 4bbf 9057 cabe 51e3 e3be
00000050: d9c9 91be 9e41 313f 1b41 eabd 901c 06be
00000060: 041b 8f3e 38f8 cc3e 3217 e13e 9f52 52be
00000070: 0496 fbbe 0937 fcbe d5f6 b73e e570 b83e
00000080: ce93 b03e ce76 9a3e faa1 d8bd 707b 803e
00000090: 19a6 1bbf 074f dcbd db17 8bbe 700a 653e
000000a0: 3a23 11be 1edb b4be 917b 343d 2655 adbe
000000b0: 953a 233d f5f7 2fbf 8d36 19be d97e 093e
000000c0: a2c3 5cbf e365 06bf 5396 81be 98fc b43e
000000d0: 0284 c1be 4b34 bf3e 0f7b 89be a698 58be
000000e0: 2b8d fdbd 5de1 31bf 97f9 8b3d 11a4 64ba
000000f0: d843 bc3e 7357 ae3e b2aa 2fbe bb42 2c3e
00000100: 77f0 42bf b43d 32be 633f 803e 4cea a1be
00000110: 8bca a2bd f086 3a3c f0b8 433e 4ca1 b63e
00000120: 1ba3 053f f754 87be fab6 e63e baf6 9cbf
00000130: f6dd 32bb 23a5 773c 1c2b b93d ab8f 7abe
00000140: 4f08 a7be 6563 50be 9248 03be c997 2fbf
00000150: ffad e83e 708f 653e 7970 033e 2eac fabd
00000160: 6782 1abd 533c a1bd 784d 503d 29d1 b9bc
00000170: 7cdd c33e 1ec9 33bf 7144 be3e f8eb 65be
00000180: 613d 583f d584 003f 7560 e53e a5d7 7ebe
00000190: a0fd 30be 8095 85be 4dd5 e53e a1fa 0bbf
000001a0: d69f 423e 7099 303f 8505 56bd 49b3 0c3e
000001b0: 209e 7dbf 9a33 a23d 7982 74bd 281c 6dbe
000001c0: 2b9d 213e 00ed 503d be87 033b 519c 543d
000001d0: 56c5 293d 1b58 edbe 2e74 293e b7c3 9e3d
000001e0: 06fd efbe 4ed2 753e 4874 c23d 1ade 3b3f
000001f0: 061d 13be 5215 953e 152c d33e 10ad d1be
00000200: 5076 933d 401c 4fbf fcb9 88bd 9e51 bd3d
00000210: a4a6 2fbe 6b4f 103f d111 963e fa32 6a3d
00000220: 7593 283f 20c3 90be 8138 ba3e a6b7 423a
00000230: 4864 93be f063 6abf 0da3 173d 153d a2bd
00000240: 9255 3b3e 0538 0b3e fb5d 3a3d fb6a 9e3c
00000250: 8b37 d7bd 28f2 a9bd 24f3 04bc d3e3 abbe
00000260: 71ef a7be dc16 8a3e 60b9 373e 2b6c 833e
00000270: 1f5a 5b3e 094b 703e ffd3 643e f36d 2a3d
00000280: 3d0f cfbd 6f2a e3bc 0f02 4fbe 915d 01bf
00000290: 3b55 c2be 7e85 0f3f 8414 c0be 0cc0 9cbd
000002a0: b739 143e 935e f4be 415f 563e 59b1 6ebe
000002b0: 34d9 febe b275 28bf ac44 163d d3f2 51bf
000002c0: 09fd 01bf 8483 423b 86b0 99be 6b8b 34be
000002d0: 490d 81be bef7 063f 2938 593b 526b d8bd
000002e0: 1ccd fcbe 0e1d e5bd bd4e 7f3e 2f4a 3fbd
000002f0: 1735 4cbd c328 033f b44d c33e c330 b73e
00000300: 2d88 ecbe 0d67 1cbe f178 d8be ad89 2dbf
00000310: 4c53 283d 6feb 66be 7d7d a13d ce5a e8be
00000320: c586 85be 3fa2 993e 1632 563f f435 debd
00000330: 5b56 7b3d ddda d23e 15e9 46be 6dcf 833e
00000340: 566f 3f3e 4ed9 733e 2ac8 e6bd 9e4a 3f3e
00000350: 21c3 353e 6470 0fbf a352 92be 588e debd
00000360: 5573 3e3d 2815 1cbd ad82 48bc 32ff 3a3e
00000370: ac55 5fbd c2e5 f4be a38f a53d 41ae f23e
00000380: 51d9 9e3b acd6 9dbe bd78 31be 8968 2ebe
00000390: 751c 7bbf 1aed ecbe b24d 24bf a47e aa3e
000003a0: 6b52 b43e 15ff c13d 5e08 193e 99ca 51be
000003b0: 2449 523d 5853 133e 27ad 8b3e ab29 b83d
000003c0: 7246 12bf f07d a2be 5e67 7ebe 5667 fdbe
000003d0: 2785 363e 99af 513e ff03 c23d df60 3c3e
000003e0: d230 373e 39bd 3ebe c351 153e a98c bfbd
000003f0: 6e53 9abe c163 6fbe f3c5 12be ca7f b8be

conv1.event__interacts__offer.lin_rel.weight f4 [128, 27]
-0.25164622 -0.19426067 -0.204132 -0.20381378 -0.19893555 -0.053514134 -0.05943106 -0.2349459
0.16295093 -0.23344949 -0.2668989 0.042241428 -0.16547456 -0.11113128 -0.059549622 -0.12232709
-0.19918172 -0.14331678 -0.17441747 -0.19228871 -0.038914267 -0.1374751 -0.2732872 0.06870629
-0.21838666 -0.15312396 -0.08864133 -0.014562496 -0.06230102 -0.1330025 0.06676887 0.097802356
0.15393023 0.09808948 -0.15960222 -0.10403261 0.0045818486 0.14532194 -0.00022011381 0.05413928
0.10182645 -0.11930538 0.025339246 -0.33773476 0.04406513 0.011300087 -0.010893705 0.082695924
0.044111736 -0.0800091 0.076940864 -0.15222569 -0.04562763 0.22137596 -0.22586188 -0.12515806
-0.15732336 -0.2033034 -0.018117774 0.26709765 0.05783098 -0.013051284 0.004223196 -0.061556946
-0.0447344 -0.19425648 -0.1562566 -0.05300916 -0.3397248 -0.30824724 -0.35274425 0.0037921516
-0.23234843 -0.09777554 0.0046553714 0.036026824 0.17255819 -0.13729334 -0.19077615 -0.35055444
0.32500958 0.02051864 -0.1633678 0.17679411 0.03956119 -0.08079963 -0.011621213 -0.027047988
-0.1452801 0.110221766 0.04570235 0.15449531 -0.033032246 0.00077946857 0.15239637 0.0042866366
-0.0052569294 0.12774782 0.07061013 0.028041545 0.10807866 0.07232977 0.10401022 -0.06344419
-0.0077983807 0.11177886 -0.1782702 -0.02693972 -0.22898607 -0.13590592 -0.17750001 -0.036129247
-0.07903457 -0.14498228 -0.14742878 -0.17552863 -0.18471046 0.15015638 -0.03564517 0.13345912
-0.23876275 0.20779239 -0.007762584 -0.060252625 -0.18928808 -0.20824772 -0.21201421 -0.17472008
-0.10920651 0.25541896 0.17793426 0.22246698 -0.07296579 -0.055922024 0.14929134 0.10860087
0.14106742 -0.12541896 0.18393543 -0.058225077 0.07461093 -0.104903094 -0.043143082 0.12071803
-0.118895635 -0.037578788 -0.09335653 -0.022682922 0.042633995 0.07035145 -0.13600889 -0.060216513
0.013632983 -0.035071537 0.12475559 -0.07953751 -0.43352577 -0.3317992 -0.23661807 0.08459748
-0.16738187 -0.33498287 -0.09506883 -0.06640858 0.03151565 -0.15347126 -0.07116745 -0.17416282
0.10176609 0.051974915 -0.28957558 -0.006394573 -0.18002231 -0.06428897 -0.060064387 0.005681837
-0.009036884 -0.10605082 -0.15156877 -0.17444487 -0.21624301 0.108259074 -0.14892584 -0.0014799064
-0.34668395 -0.19260181 0.10692 -0.07457176 0.10420454 0.09994943 0.045161206 -0.12770955
-0.049928535 -0.112995036 -0.28727132 -0.18126889 -0.10102915 0.24306154 -0.0793554 0.11275061
-0.068822905 -0.13321307 -0.11453203 -0.16356777 -0.1792843 -0.099331275 0.055937294 -0.1458488
0.248304 -0.10023535 -0.63360035 -0.36028156 -0.107664414 0.06007732 -0.09159754 -0.22176477
-0.16487923 0.03166382 -0.11202712 0.15150599 0.061469425 0.03900031 -0.026732784 -0.16864897
-0.16555893 0.18135849 -0.2557636 -0.1359102 -0.17157649 -0.05514912 -0.11703403 -0.27191624
-0.17992543 -0.16862224 0.11025334 -0.05647332 0.055004105 -0.070444964 -0.013141439 0.022220833
-0.055139262 0.071210854 0.0933911 0.08234804 0.33774027 0.037544094 0.16583326 0.14433739
-0.004259396 0.11750088 0.45875448 0.07106359 -0.20402427 -0.082816444 0.02049492 -0.070820846
00000000: c6d7 80be 45ec 46be fb07 51be 8fb4 50be
00000010: c3b5 4bbe a331 5bbd fc6d 73bd a895 70be
00000020: 9cdc 263e 620d 6fbe f9a6 88be 5905 2d3d
00000030: 2a72 29be cc98 e3bd 4eea 73bd a086 fabd
00000040: 4bf6 4bbe a2c1 12be 7e9a 32be 55e7 44be
00000050: 9164 1fbd 46c6 0cbe 4dec 8bbe e2b5 8c3d
00000060: c1a0 5fbe 87cc 1cbe 9689 b5bd 8997 6ebc
00000070: 5b2f 7fbd cf31 08be 1ebe 883d 9a4c c83d
00000080: e39f 1d3e 23e3 c83d c46e 23be 0d0f d5bd
00000090: 5523 963b 46cf 143e 5ace 66b9 26c1 5d3d
000000a0: 638a d03d 6156 f4bd 4094 cf3c 92eb acbe
000000b0: a37d 343d 0024 393c 837b 32bc 7b5c a93d
000000c0: 82ae 343d d0db a3bd 2c93 9d3d 0de1 1bbe
000000d0: 0ae4 3abd 61b0 623e 5648 67be 6f29 00be
000000e0: 6019 21be c42e 50be ba6b 94bc 06c1 883e
000000f0: 2de0 6c3d 0dd5 55bc bc62 8a3b 2323 7cbd
00000100: 6b3b 37bd 2ceb 46be bb01 20be 2220 59bd
00000110: 69f0 adbe 95d2 9dbe e59a b4be bf85 783b
00000120: bfec 6dbe 8b3e c8bd 168c 983b dd90 133d
00000130: 18b3 303e a096 0cbe d35a 43be df7b b3be
00000140: a867 a63e b516 a83c e349 27be 8409 353e
00000150: ea0a 223d 477a a5bd e666 3ebc be93 ddbc
00000160: 4ec4 14be f3bb e13d 6332 3b3d 0534 1e3e
00000170: d24c 07bd 4055 4c3a cb0d 1c3e ea76 8c3b
00000180: 5242 acbb 53d0 023e 0b9c 903d 62b7 e53c
00000190: 5858 dd3d a121 943d 4f03 d53d 07ef 81bd
000001a0: 8f89 ffbb 51ec e43d 778c 36be b0b0 dcbc
000001b0: 537b 6abe ec2a 0bbe 90c2 35be 43fc 13bd
000001c0: e0dc a1bd 3c76 14be 92f7 16be c7bd 33be
000001d0: bd24 3dbe 98c2 193e ab00 12bd 82a9 083e
000001e0: 397e 74be 87c7 543e 465d febb 75cb 76bd
000001f0: bcd4 41be e43e 55be 411a 59be d2e9 32be
00000200: aaa7 dfbd 46c6 823e 6634 363e 62ce 633e
00000210: 176f 95bd 7e0e 65bd d4df 183e 226a de3d
00000220: fa73 103e d46d 00be 9259 3c3e 6b7d 6ebd
00000230: 9ecd 983d 6fd7 d6bd cdb6 30bd 043b f73d
00000240: 8e7f f3bd 37ec 19bd b531 bfbd 89d1 b9bc
00000250: fca0 2e3d 6c14 903d ea45 0bbe 97a5 76bd
00000260: e05c 5f3c 2ca7 0fbd dc7f ff3d 90e4 a2bd
00000270: 17f7 ddbe 96e1 a9be 024c 72be 7241 ad3d
00000280: 2766 2bbe e082 abbe 72b3 c2bd 3901 88bd
00000290: 8e16 013d 9227 1dbe 3dc0 91bd bd57 32be
000002a0: bd6a d03d a6e3 543d 4043 94be 9189 d1bb
000002b0: c557 38be efa9 83bd 1306 76bd b42e ba3b
000002c0: 700f 14bc 2c31 d9bd d834 1bbe ada1 32be
000002d0: cf6e 5dbe efb6 dd3d 0480 18be 6bf9 c1ba
000002e0: 8f80 b1be 6939 45be dff8 da3d 14b9 98bd
000002f0: 3169 d53d 49b2 cc3d f5fa 383d 4bc6 02be
00000300: dd81 4cbd f169 e7bd 3a15 93be 8d9e 39be
00000310: 5fe8 cebd 20e5 783e 1585 a2bd cbe9 e63d
00000320: 06f3 8cbd 0269 08be c58f eabd 4f7e 27be
00000330: 4e96 37be 326e cbbd 811e 653d 6359 15be
00000340: 6743 7e3e 3148 cdbd a233 22bf d376 b8be
00000350: 297f dcbd a313 763d 7e97 bbbd 4e16 63be
00000360: 1ad6 28be ecb1 013d 7a6e e5bd 6324 1b3e
00000370: 5dc7 7b3d cabe 1f3d b6fe dabc 51b2 2cbe
00000380: 4888 29be 0ab6 393e 72f3 82be 0b2c 0bbe
00000390: bfb1 2fbe 0be4 61bd 8aaf efbd 9b38 8bbe
000003a0: 5f3e 38be 4fab 2cbe 81cc e13d 9150 67bd
000003b0: fc4b 613d 7345 90bd 314f 57bc 7708 b63c
000003c0: b5d9 61bd ffd6 913d d543 bf3d 17a6 a83d
000003d0: 4bec ac3e d6c7 193d 32d0 293e 2ecd 133e
000003e0: 6792 8bbb 4da4 f03d dee1 ea3e ca89 913d
000003f0: bdeb 50be ab9b a9bd f6e4 a73c 850a 91bd

conv1.event__interacts__offer.lin_rel.bias f4 [128]
-0.15226513 -0.23840521 0.016966244 -0.1536746 0.0693448 0.013704954 0.041566845 -0.06562096
0.09143029 0.2333873 -0.2345487 -0.31257138 -0.08176594 -0.04730844 -0.047837023 0.13040948
-0.25685012 -0.020615594 0.027084814 -0.1544038 -0.39629552 -0.09631709 -0.0329106 -0.08210078
-0.13794838 -0.09744694 -0.41245568 -0.12612118 0.09138024 0.10008605 -0.1499488 0.024987603
0.041787446 -0.406376 -0.23087656 0.17401898 -0.29214573 -0.4077772 0.022532703 -0.23127894
-0.13912115 -0.1740148 -0.08240077 0.093646646 -0.018208066 -0.21937963 -0.14740933 -0.012299558
-0.25186574 -0.011057421 0.12635572 -0.26879823 0.13664748 -0.07363192 -0.24087888 -0.16427863
-0.13494304 -0.37051708 -0.17068753 0.15218866 -0.10081101 -0.3784428 -0.06512295 -0.121604934
-0.043157868 -0.06572218 -0.15302542 0.06543696 0.1361449 -0.27434587 -0.27232382 -0.017045042
-0.013546452 -0.19074638 0.5805541 0.061990187 -0.31395137 -0.04934916 0.034303438 -0.22052301
-0.2222661 0.056442976 0.0397197 -0.13784997 -0.14374256 -0.16314524 -0.012969236 -0.029501745
-0.17029405 0.09701672 -0.33509913 0.09997932 -0.39058927 0.41783097 -0.204416 -0.015431447
-0.1530562 -0.09028385 0.037833255 -0.099697 -0.1368691 -0.050548714 0.27202487 -0.020503784
-0.035205986 -0.17577282 -0.075989895 -0.062219575 -0.51497865 -0.19508058 0.05303571 -0.18625395
-0.040303104 -0.1574084 0.106458455 0.3283494 -0.0596532 0.023623282 -0.083852924 0.044672713
-0.13951267 -0.074460365 -0.13616095 0.019783089 0.07109921 0.0105505865 -0.0062432527 -0.077512786
00000000: 64eb 1bbe 7f20 74be cbfc 8a3c e05c 1dbe
00000010: a604 8e3d be8a 603c ff41 2a3d 4864 86bd
00000020: ce3f bb3d 15fd 6e3e 892d 70be 5b09 a0be
00000030: e774 a7bd 7fc6 41bd c1f0 43bd 108a 053e
00000040: dc81 83be 09e2 a8bc f9e0 dd3c 081c 1ebe
00000050: 3fe7 cabe e541 c5bd 44cd 06bd 7424 a8bd
00000060: 5742 0dbe 4392 c7bd 642d d3be e925 01be
00000070: 9025 bb3d eaf9 cc3d 2e8c 19be cdb2 cc3c
00000080: 5029 2b3d 8410 d0be e86a 6cbe 0832 323e
00000090: 2094 95be 2cc8 d0be 8196 b83c 63d4 6cbe
000000a0: c675 0ebe f030 32be bcc1 a8bd d0c9 bf3d
000000b0: 1529 95bc 0ea5 60be 79f2 16be 1684 49bc
000000c0: 8cf4 80be 2f2a 35bc 6563 013e ec9f 89be
000000d0: 51ed 0b3e 55cc 96bd f4a8 76be a838 28be
000000e0: 822e 0abe 6ab4 bdbe b6c8 2ebe 58d7 1b3e
000000f0: 0176 cebd 41c3 c1be 2e5f 85bd 020c f9bd
00000100: 4ec6 30bd 5a99 86bd b2b2 1cbe d003 863d
00000110: 9269 0b3e 1077 8cbe 076e 8bbe 0ba2 8bbc
00000120: f0f1 5dbc 0553 43be 329f 143f 6ce9 7d3d
00000130: 3cbe a0be 5822 4abd c381 0c3d c9d0 61be
00000140: b999 63be c030 673d 20b1 223d 8b28 0dbe
00000150: 4031 13be 8c0f 27be eb7c 54bc a5ad f1bc
00000160: 9061 2ebe b4b0 c63d 1d92 abbe f5c1 cc3d
00000170: 51fb c7be f1ed d53e 6e52 51be 2ed4 7cbc
00000180: c4ba 1cbe bde6 b8bd 0bf7 1a3d f12d ccbd
00000190: 6a27 0cbe 2b0c 4fbd d846 8b3e 8df7 a7bc
000001a0: 2734 10bd cafd 33be 97a0 9bbd f4d9 7ebd
000001b0: a4d5 03bf 34c3 47be f93b 593d 5bb9 3ebe
000001c0: de14 25bd ab2f 21be e406 da3d 6a1d a83e
000001d0: ea56 74bd 9d85 c13c 15bb abbd bcfa 363d
000001e0: 69dc 0ebe ad7e 98bd c76d 0bbe 2510 a23c
000001f0: 769c 913d 5edc 2c3c 3394 ccbb 06bf 9ebd

conv1.event__interacts__offer.lin_root.weight f4 [128, 7]
-0.42066628 0.5968818 0.43115643 -0.0755104 0.16713054 -0.25945798 -0.507303 -0.018717788
-0.14741361 -0.09214241 0.015987586 0.59517825 0.025413763 -0.06887136 -0.21220376 -0.22546805
0.028616505 -0.0104193855 -0.44143757 -0.38637 -0.32927302 0.5160799 -0.36897132 -0.18083777
-0.005459856 -0.3991152 -0.0008913944 0.21388826 0.17497174 -0.14917243 -0.41002867 -0.28173733
-0.038395543 -0.22575982 0.3170294 -0.07340118 0.09079482 -0.50564015 -0.2881001 -0.022740923
-0.08168237 0.21527757 -0.05820819 -0.16720298 -0.37732074 -0.009003729 -0.68558586 0.016705535
-0.16018073 0.13794363 0.50670946 -0.012130718 -0.17218715 0.07337331 -0.33706078 0.22335179
0.10400179 -0.2535106 -0.81754166 -0.031930156 -0.8084873 -0.13649173 -0.20755808 0.099956095
0.4656625 0.66300964 0.25303668 -0.0021932817 0.2563511 -0.13223879 0.17047477 -0.48696986
0.10177734 -0.12788466 0.23115984 0.21883526 -0.19998246 -0.72788393 0.13524096 0.34892103
-0.16714072 0.046250813 0.12120112 0.26839906 -0.4166862 -0.83598775 -1.1533493 -0.16140139
0.19291465 -0.17813075 0.1950606 -0.14780596 -0.05687121 -0.3367085 0.02064164 0.095996924
0.15562633 0.1613047 0.34483957 0.19200718 0.22546867 0.43996504 -0.27652434 0.095923774
0.46057802 -0.113668755 -0.42610237 0.13591748 -0.06608045 0.5123333 -0.0823452 -0.4373228
0.3181364 -0.75435704 -0.77450323 -0.3321895 -0.5984006 -0.07103251 -0.10015747 -0.23542479
0.20654906 0.12274301 0.010912799 0.16137278 -0.1712886 -0.7847362 0.08698557 0.39020088
0.026035415 0.09324269 -0.17211142 0.016149059 -0.030300442 0.18353966 -0.10303338 0.027230725
-0.10533347 0.8493113 -0.05996886 -0.165812 -0.9441865 -0.097950265 -0.3952751 -0.158903
-0.44461304 -0.06629992 0.055578467 0.2344355 -0.5474239 -0.7092117 -0.046753187 0.22139277
-0.13851708 -0.5105653 0.3060759 -0.495584 -0.054799683 -0.053437773 0.7722885 0.033830807
-0.52782565 -0.21269327 -0.21062945 -0.15048455 -0.12872766 -0.33569494 0.17302813 0.24815522
-0.0058677453 -0.38539308 -0.38059434 -0.14190139 -0.20268996 -0.26763603 -0.28480282 -0.1828476
-0.20607232 -0.105413094 0.05152594 0.11902659 -0.03380777 0.06605093 0.33076495 -0.3308926
0.038639423 0.07699559 -0.33946088 -0.041604787 -0.037384447 0.010073089 -0.18430147 -0.07591691
-0.18093573 -0.24712776 -0.21763603 -0.32581663 -0.039587535 -0.25879776 0.40551913 0.09672773
0.2554726 0.04989541 -0.039929625 -0.046962652 -0.61940676 -0.16792032 -0.21458784 0.27778846
0.007858484 -0.20033887 -0.13685696 -0.15055129 0.291261 0.01684159 0.15531966 0.04039693
0.18805976 0.50925773 0.2335081 0.11360859 0.01452255 0.05991496 -0.0230722 -0.28161684
0.04586573 -0.21109737 0.0014607495 -0.19179246 -0.3347291 -0.19162634 -0.21282396 -0.34436885
-0.48691908 -0.7191686 0.12176297 -0.6101671 -0.044724137 -0.087184295 -0.011072733 0.0885071
-0.512303 -0.3660218 0.20336454 -0.36818174 -0.08323324 0.9242608 0.36859295 0.28080326
0.30013934 1.2115563 0.13603592 -0.5162534 -0.7535263 0.017506095 0.13003807 0.042720843
00000000: 9261 d7be 3fcd 183f 89c0 dc3e 32a5 9abd
00000010: 4524 2b3e add7 84be 9cde 01bf 0c56 99bc
00000020: 98f3 16be 29b5 bcbd 66f8 823c 9a5d 183f
00000030: 8630 d03c 6d0c 8dbd f14b 59be 19e1 66be
00000040: 296d ea3c 12b6 2abc 1b04 e2be 4ad2 c5be
00000050: 7996 a8be d01d 043f cfe9 bcbe 892d 39be
00000060: 97e8 b2bb d458 ccbe 77ac 69ba 8605 5b3e
00000070: cb2b 333e a8c0 18be 47ef d1be e03f 90be
00000080: a544 1dbd 952d 67be ad51 a23e 5c53 96bd
00000090: a2f2 b93d a271 01bf db81 93be 2c4b babc
000000a0: 1649 a7bd b971 5c3e b66b 6ebd 4237 2bbe
000000b0: 2f30 c1be 6084 13bc 8e82 2fbf 0cda 883c
000000c0: 6b06 24be 1841 0d3e b6b7 013f ebbf 46bc
000000d0: d451 30be bf44 963d 3b93 acbe 55b6 643e
000000e0: e4fe d43d 24cc 81be 694a 51bf 32c9 02bd
000000f0: 06f9 4ebf 7dc4 0bbe 1b8a 54be c8b5 cc3d
00000100: 516b ee3e 00bb 293f 068e 813e 29bd 0fbb
00000110: 7440 833e 9b69 07be f090 2e3e 1d54 f9be
00000120: a370 d03d 32f4 02be 2ab5 6c3e 5a16 603e
00000130: 34c8 4cbe 9a56 3abf 9b7c 0a3e c7a5 b23e
00000140: f026 2bbe 7e71 3d3d 4b38 f83d 9a6b 893e
00000150: e557 d5be 4b03 56bf f3a0 93bf 6846 25be
00000160: 6b8b 453e e867 36be f7bd 473e 725a 17be
00000170: c9f1 68bd 0e65 acbe a818 a93c 099a c43d
00000180: 825c 1f3e 0f2d 253e d08e b03e 889d 443e
00000190: 42e1 663e 1943 e13e 9994 8dbe af73 c43d
000001a0: e2d0 eb3e 2acb e8bd 172a dabe f42d 0b3e
000001b0: 3055 87bd 4628 033f 9aa4 a8bd c6e8 dfbe
000001c0: c6e2 a23e 8b1d 41bf d845 46bf be14 aabe
000001d0: c830 19bf 7e79 91bd 5c1f cdbd 3213 71be
000001e0: 9981 533e b060 fb3d 99cb 323c e83e 253e
000001f0: 4766 2fbe 79e4 48bf 7e25 b23d 69c8 c73e
00000200: 3948 d53c 06f6 be3d fa3d 30be 084b 843c
00000210: a238 f8bc d2f1 3b3e 2a03 d3bd f812 df3c
00000220: 13b9 d7bd 776c 593f e8a1 75bd 9fca 29be
00000230: 35b6 71bf 269a c8bd 7f61 cabe 78b7 22be
00000240: 52a4 e3be 41c8 87bd 3fa6 633d dc0f 703e
00000250: f923 0cbf e68e 35bf 4580 3fbd c9b4 623e
00000260: 6cd7 0dbe 68b4 02bf fbb5 9c3e 30bd fdbe
00000270: a275 60bd 91e1 5abd b3b4 453f 2c92 0a3d
00000280: 951f 07bf 44cc 59be 3faf 57be 9f18 1abe
00000290: 2fd1 03be 35e0 abbe 492e 313e 671c 7e3e
000002a0: 3746 c0bb 3e52 c5be 43dd c2be 994e 11be
000002b0: f58d 4fbe 9707 89be add1 91be 673c 3bbe
000002c0: 9f04 53be d2e2 d7bd dd0c 533d 36c4 f33d
000002d0: 047a 0abd b645 873d 065a a93e c16a a9be
000002e0: 5f44 1e3d ddaf 9d3d d1cd adbe c869 2abd
000002f0: 6f20 19bd 9909 253c 86b9 3cbe 537a 9bbd
00000300: 3747 39be 0f0f 7dbe fbdb 5ebe 70d1 a6be
00000310: 8a26 22bd 2481 84be 34a0 cf3e 3019 c63d
00000320: 4ecd 823e 215f 4c3d 3f8d 23bd e95b 40bd
00000330: 7191 1ebf 4ef3 2bbe eabc 5bbe 4a3a 8e3e
00000340: dfc0 003c a225 4dbe 3b24 0cbe 1e2a 1abe
00000350: 2920 953e 60f7 893c 1e0c 1f3e 4077 253d
00000360: bd92 403e b75e 023f bf1c 6f3e 9fab e83d
00000370: fdef 6d3c 6469 753d e901 bdbc 1530 90be
00000380: b4dd 3b3d e929 58be 9f76 bf3a 3e65 44be
00000390: 9d61 abbe b239 44be 86ee 59be 1d51 b0be
000003a0: 754d f9be 6f1b 38bf dd5e f93d e933 1cbf
000003b0: a830 37bd ae8d b2bd 696a 35bc 3643 b53d
000003c0: 4a26 03bf 3667 bbbe cb3e 503e 5182 bcbe
000003d0: 3076 aabd 5b9c 6c3f 37b8 bc3e 72c5 8f3e
000003e0: ddab 993e 4714 9b3f 004d 0b3e 2f29 04bf
000003f0: 19e7 40bf f168 8f3c b328 053e 0dfc 2e3d
