models/OTC/hoeg/exp_v3/no_subgraph_sampling/lr=0.01_hidden_dim=16/GraphModule_20230830_17h59m/state_dict_epoch4.pt (torch, 45903 bytes, 46 tensors)

convs.0.event__follows__event.lin_rel.weight f4 [16, 20]
-0.050632723 -0.09714538 -0.11282208 -0.43109187 0.20372057 0.1097072 0.09919189 0.2441707
0.29353246 0.019604875 0.25779286 0.5067155 0.16790172 0.4380464 -0.057735212 -0.34563625
0.5394023 -1.0295753 0.08487763 0.25009972 -0.117220625 0.4727047 -0.14197257 -0.12627187
0.007432196 0.094975546 0.054092675 -0.08245587 0.17889611 -0.104936406 0.45072883 0.63098013
-0.545108 -0.12250134 0.28239515 0.30698788 -0.60212475 0.042870123 0.28631103 -0.07533999
0.038290847 0.19708465 -0.21297331 -0.4301156 -0.08857957 0.1721012 -0.011679238 0.07754629
-0.052047107 0.06536773 0.32087946 0.2508435 -0.04794991 -0.45113218 0.60763806 -0.2788886
-0.2539599 -0.37750947 -0.030162675 0.07515443 -0.23301329 -0.16181286 -0.92177224 -0.16280082
-0.35992926 0.03705567 0.3069749 -0.038070273 -0.56858665 0.14621197 -0.23513383 -0.1229667
-0.02016136 -0.1925348 -0.11861083 0.27656785 -0.49040142 0.23141328 0.05380595 -0.35163364
0.17742804 0.3999174 -0.17672858 0.30685726 0.07916603 0.0020353782 0.30493662 0.647991
0.02162993 0.057998467 0.04455224 -0.40684766 0.22455959 0.38225904 0.29126337 0.05422816
0.4566335 -0.22054559 -0.09138942 -0.16149427 -0.27219304 -0.3549638 0.14768285 -0.16164792
-0.3660101 0.06418377 0.30791992 -0.10607728 0.13372132 0.57871723 0.50078243 0.18774536
0.27544922 -0.17354713 -0.24686557 -0.09997994 -0.08853098 -0.3615321 -0.05496313 -0.21069834
-0.046273243 -0.051190417 -0.23141068 -0.47543085 0.21482031 0.4229289 0.06368599 -0.08543432
0.5036818 -0.34931627 -0.07413198 0.15882826 -0.40171358 -0.051049307 -0.03383657 0.033179466
-0.32456326 -0.4109902 -0.017146591 0.08971041 0.42477396 -0.033526137 -0.26678586 -0.83352685
-0.23610581 -0.24243993 0.054225527 0.86478215 -0.69210505 -0.2684569 -0.35051912 0.25163275
0.033689674 -0.0024885219 -0.2464271 0.6542968 -0.22908281 -0.3353415 -0.052595966 0.15848425
-0.22660439 -0.2614662 0.17861809 -0.5012634 0.09080133 0.7613686 -0.025940197 0.26341543
0.00012303516 0.37051153 -0.2054168 -0.01681615 0.49341938 -0.22396398 0.0064025517 -0.05668263
-0.48452073 -0.069117665 -0.35815716 0.25706208 -0.5264626 0.34171504 0.062600635 0.4134121
0.85547966 -0.12794043 0.059889816 0.20947286 -0.045519557 -0.06989422 -0.060077254 0.10549993
0.39865777 0.12828992 -0.18243401 0.25499448 -0.4087089 -0.13737802 0.029460603 -0.03239837
-0.1143952 -0.03167095 -0.17152928 0.33097956 0.33393455 0.12840977 -0.3311413 -0.43477228
0.25246146 0.07365025 0.5745726 -0.060107287 -0.016690107 -0.15491195 -0.039528683 0.39731663
0.17514981 -0.27105522 -0.16636768 -0.045694422 -0.27082476 -0.4568687 -0.75772864 -0.41015846
-0.15305786 -0.1065748 -0.32813567 0.009949752 -0.00712804 0.4429495 0.05349625 -0.19733064
-0.04254901 0.3879784 0.4079886 -0.2832052 0.26475912 0.2038011 -2.8128412e-05 -0.041903038
-0.11926096 0.020501567 -0.4002689 -0.12764308 -0.54749745 0.022627212 -0.34525883 -0.39402473
-0.067192696 0.7358211 -0.66022575 -0.127771 -0.39296493 -0.35889578 -0.09554435 0.31704023
00000000: 4264 4fbd 28f4 c6bd 430f e7bd 13b8 dcbe
00000010: 209c 503e 2bae e03d 1e25 cb3d e207 7a3e
00000020: e349 963e 679a a03c 6dfd 833e 1bb8 013f
00000030: 6eee 2b3e 9e47 e03e c27b 6cbd 3cf7 b0be
00000040: 4516 0a3f 20c9 83bf 53d4 ad3d 120d 803e
00000050: 5e11 f0bd 5a06 f23e 4261 11be 6a4d 01be
00000060: c789 f33b 8a82 c23d 4890 5d3d a0de a8bd
00000070: 8b30 373e e6e8 d6bd eec5 e63e ea87 213f
00000080: 338c 0bbf fce1 fabd 1996 903e 842d 9d3e
00000090: d924 1abf 9598 2f3d 5c97 923e da4b 9abd
000000a0: ddd6 1c3d 8fd0 493e ad15 5abe 1d38 dcbe
000000b0: 3569 b5bd 4c3b 303e 465a 3fbc 97d0 9e3d
000000c0: 592f 55bd 84df 853d 504a a43e 8f6e 803e
000000d0: 2067 44bd ccfa e6be 2b8e 1b3f 7dca 8ebe
000000e0: 0807 82be ec48 c1be b717 f7bc 91ea 993d
000000f0: 099b 6ebe 45b2 25be 44f9 6bbf 42b5 26be
00000100: a648 b8be b0c7 173d d02b 9d3e 93ef 1bbd
00000110: e58e 11bf 97b8 153e ecc6 70be f7d5 fbbd
00000120: 7029 a5bc d827 45be 3cea f2bd 4d9a 8d3e
00000130: e515 fbbe 9af7 6c3e a163 5c3d 5309 b4be
00000140: b2af 353e f9c1 cc3e 56f8 34be 651c 9d3e
00000150: cd21 a23d fb63 053b a720 9c3e bde2 253f
00000160: 4031 b13c cd8f 6d3d 697c 363d 564e d0be
00000170: f3f2 653e 75b7 c33e 7920 953e 591e 5e3d
00000180: decb e93e b4d6 61be 602a bbbd c15e 25be
00000190: e35c 8bbe d1bd b5be 2c3a 173e 0887 25be
000001a0: ad65 bbbe c872 833d aea7 9d3e 0c3f d9bd
000001b0: 3eee 083e d026 143f 4733 003f 5240 403e
000001c0: ae07 8d3e 57b6 31be 54ca 7cbe 48c2 ccbd
000001d0: bb4f b5bd bc1a b9be 0521 61bd 4ec1 57be
000001e0: 0389 3dbd 0bad 51bd ecf6 6cbe ac6b f3be
000001f0: dbf9 5b3e 238a d83e cd6d 823d 30f8 aebd
00000200: 4af1 003f 95d9 b2be 82d2 97bd e0a3 223e
00000210: 67ad cdbe 1419 51bd 3798 0abd 31e7 073d
00000220: 282d a6be 4f6d d2be 0277 8cbc 17ba b73d
00000230: f97b d93e b452 09bd 2898 88be 0462 55bf
00000240: b9c5 71be 2c42 78be 961b 5e3d 5d62 5d3f
00000250: cc2d 31bf 2f73 89be 3e77 b3be 02d6 803e
00000260: 2ffe 093d 7816 23bb 6357 7cbe ff7f 273f
00000270: af94 6abe e2b1 abbe de6e 57bd b249 223e
00000280: fb0a 68be e6de 85be a9e7 363e cc52 00bf
00000290: 0cf6 b93d 0de9 423f 8980 d4bc 63de 863e
000002a0: 0003 0139 b0b3 bd3e c858 52be 06c2 89bc
000002b0: 77a1 fc3e d056 65be 7fcc d13b 0c2c 68bd
000002c0: 1a13 f8be 908d 8dbd 6060 b7be a49d 833e
000002d0: 41c6 06bf 46f5 ae3e c334 803d c0aa d33e
000002e0: b700 5b3f d102 03be 064f 753d 0e80 563e
000002f0: b772 3abd b324 8fbd 9113 76bd 5910 d83d
00000300: df1c cc3e 6f5e 033e fbcf 3abe a38e 823e
00000310: 4b42 d1be d3ac 0cbe 5d57 f13c 27b4 04bd
00000320: 0848 eabd 66b9 01bd 5fa5 2fbe 2776 a93e
00000330: 78f9 aa3e da7d 033e 5a8b a9be 799a debe
00000340: a142 813e f1d5 963d 3117 133f 0f33 76bd
00000350: b1b9 88bc 3da1 1ebe d4e8 21bd 166d cb3e
00000360: 795a 333e c0c7 8abe 4a5c 2abe 132a 3bbd
00000370: 8ba9 8abe b2ea e9be 81fa 41bf 4a00 d2be
00000380: 33bb 1cbe e443 dabd 6601 a8be 4904 233c
00000390: 5592 e9bb 47ca e23e e21e 5b3d 0b11 4abe
000003a0: df47 2ebd 1ba5 c63e e2e3 d03e 4600 91be
000003b0: 828e 873e 3cb1 503e 4ef5 ebb7 85a2 2bbd
000003c0: 173f f4bd e7f2 a73c 0cf0 ccbe deb4 02be
000003d0: cb28 0cbf b45c b93c c4c5 b0be 9cbd c9be
000003e0: 539c 89bd c65e 3c3f 8e04 29bf 67d6 02be
000003f0: b332 c9be 30c1 b7be c2ac c3bd 1953 a23e

convs.0.event__follows__event.lin_rel.bias f4 [16]
-0.32847378 -0.37362784 -0.24891014 -0.08374817 -0.11673442 -0.39097005 -0.3004686 -0.008284507
-0.48603967 -0.44993466 -0.5502138 -0.0039703124 -0.39973587 -0.47987798 -0.14825374 -0.3364614
00000000: b72d a8be 264c bfbe 4de2 7ebe 2984 abbd
00000010: 7512 efbd 3a2d c8be 05d7 99be bebb 07bc
00000020: 31da f8be d65d e6be d0da 0cbf 6519 82bb
00000030: 2eaa ccbe 91b2 f5be d4cf 17be ab44 acbe

convs.0.event__follows__event.lin_root.weight f4 [16, 20]
-0.31509748 0.1414892 -0.051781096 -0.18967353 -0.20422862 -0.23552929 0.22108927 -0.05913232
0.2186022 -0.094024524 0.13207754 -0.2922477 0.083294354 0.7547856 -0.13746095 -0.21710442
-0.1466225 -0.435366 0.36185148 0.264009 -0.040061057 -0.24512091 0.12084653 0.012764696
-0.03856034 0.09135764 0.062265716 0.123827256 -0.018809564 0.13021708 0.11996004 0.69584846
0.23231986 -0.38905618 0.37795863 -0.09890971 0.40738773 0.03729486 0.23358169 -0.27838337
-0.0638733 -0.367586 -0.045873653 0.04515817 0.05428015 0.0798336 0.21254082 0.35671318
-0.14957139 0.055631083 -0.19535245 0.3279866 0.10952965 0.022058658 0.6223062 -0.28175464
0.461442 0.20139605 -0.3571015 0.08125203 -0.6066922 0.4916089 -0.27613056 -0.28656903
0.09994188 -0.44045177 0.4226482 0.11667244 0.096216395 -0.16704941 -0.29268417 0.36235029
-0.16673374 -0.16698466 -0.05011092 0.61564666 0.07110627 0.16425616 0.1372722 -0.2400705
0.22795202 -0.033613622 -0.26277074 -0.2185345 -0.10850741 -0.17689024 -0.18689825 0.2700733
0.004758636 -0.14933112 0.46966654 -0.53138524 -0.18161038 0.4227083 0.15430637 -0.11305872
0.53061944 0.23380701 -0.15926234 -0.08843967 -0.59827566 -0.29302943 0.041923713 -0.4035023
-0.17902102 0.10985387 -0.17885782 -0.35227722 0.27091816 -0.18384133 0.22343558 0.72592545
0.17499726 -0.16331404 -0.099882714 0.6562353 -0.14209194 -0.13433467 -0.22085191 0.2240374
-0.032052543 0.08447563 -0.06606901 -0.32395774 0.28464466 -0.56952906 0.10378984 -0.014595131
-0.15821065 -0.2350313 -0.0011044057 0.2222515 -0.05059147 -0.03247353 -0.07178678 0.03960577
-0.10809181 -0.007509821 0.28165063 0.3171397 0.20244922 -0.5672524 0.1136074 -0.1979468
-0.13832909 0.17058715 -0.23208953 0.014217183 -0.25331226 0.2692796 -0.42967185 0.15638015
0.08585508 -0.117737874 -0.24527554 0.37403247 0.3863227 -0.047200594 0.24393442 -0.22720972
0.25116855 -0.8333778 -0.113499105 0.22953771 0.33313975 0.5419552 0.5863335 0.6943375
0.16690533 0.47268447 0.67268485 0.14137493 0.32053506 -0.03126589 0.09115985 -0.0014502086
0.052466206 -0.0980606 -0.29429343 -0.20720245 0.18697645 0.23846073 -0.5886118 0.14303645
0.15395458 -0.14442071 -0.04270083 0.32163715 -0.026962273 0.358581 -0.07699149 0.66889596
-0.053387996 0.109910354 -0.72951305 0.2553645 0.039463293 -0.03240366 0.07822149 0.080698274
-0.02839408 0.19532275 0.03802423 -0.5450687 -0.0780948 -0.021238184 -0.06300503 0.114271276
0.19458209 0.09390928 -0.073565885 -0.10474685 -0.23197626 -0.31876823 -0.04779411 -0.08980202
0.49565303 -0.052706897 -0.37702015 0.055271573 0.14113572 -0.0693265 0.089597195 0.0069436603
0.19539733 -0.05753429 0.4118461 -0.11823222 0.11762533 0.13793649 0.19602674 -0.46797574
-0.14271237 0.16820142 0.61807233 -0.050998427 -0.29454005 -0.13294785 -0.07598786 0.01016033
-0.48239833 -0.26685038 0.23058915 0.2828118 0.04891967 0.14384253 -0.11823917 0.1491292
-0.031980544 0.01395924 0.090546 0.43125904 -0.43812174 -0.22713204 -0.21880516 0.95608044
00000000: 7554 a1be 8be2 103e 6a18 54bd c739 42be
00000010: 4f21 51be 972e 71be 3a65 623e bb34 72bd
00000020: 41d9 5f3e ee8f c0bd 563f 073e 7ea1 95be
00000030: 3b96 aa3d a139 413f 90c2 0cbe 9f50 5ebe
00000040: 3524 16be 4be8 debe 9944 b93e 302c 873e
00000050: 1017 24bd fa00 7bbe 637e f73d 0423 513c
00000060: 72f1 1dbd b719 bb3d 560a 7f3d 2599 fd3d
00000070: 8416 9abc a057 053e 9cad f53d 2023 323f
00000080: 42e5 6d3e 5f32 c7be cb83 c13e 2d91 cabd
00000090: 2095 d03e 7fc2 183d 0a30 6f3e 4488 8ebe
000000a0: 01d0 82bd 3b34 bcbe 03e6 3bbd c6f7 383d
000000b0: dd54 5e3d cc7f a33d 4da4 593e 1ca3 b63e
000000c0: 3e29 19be 6bdd 633d 790a 48be dced a73e
000000d0: 1551 e03d 5cb4 b43c 764f 1f3f 2542 90be
000000e0: 2042 ec3e c43a 4e3e 02d6 b6be 7767 a63d
000000f0: 2e50 1bbf 29b4 fb3e fc60 8dbe 2db9 92be
00000100: 54ae cc3d e582 e1be 5865 d83e f6f1 ee3d
00000110: 1a0d c53d 000f 2bbe b3da 95be fa85 b93e
00000120: 40bc 2abe 07fe 2abe 1c41 4dbd 059b 1d3f
00000130: 2aa0 913d c432 283e 1591 0c3e 0bd5 75be
00000140: 416c 693e 70ae 09bd e389 86be 82c7 5fbe
00000150: 2239 debd b722 35be 4162 3fbe 0c47 8a3e
00000160: 55ee 9b3b 42ea 18be 2278 f03e dd08 08bf
00000170: 12f8 39be 396d d83e 7d02 1e3e 558b e7bd
00000180: add6 073f 1b6b 6f3e ab15 23be dc1f b5bd
00000190: 9828 19bf f407 96be 33b8 2b3d da97 cebe
000001a0: 4951 37be 11fb e03d 8126 37be ae5d b4be
000001b0: c9b5 8a3e e740 3cbe 4ccc 643e 40d6 393f
000001c0: 7b32 333e cc3b 27be 4f8f ccbd 09ff 273f
000001d0: 8d80 11be 078f 09be 0127 62be 0f6a 653e
000001e0: 8749 03bd 8f01 ad3d 304f 87bd cadd a5be
000001f0: f2bc 913e a8cc 11bf c58f d43d 6b20 6fbc
00000200: f901 22be 0cac 70be b5c1 90ba e695 633e
00000210: 0039 4fbd f702 05bd f304 93bd a939 223d
00000220: 3d5f ddbd f214 f6bb 8334 903e 2260 a23e
00000230: d94e 4f3e 7437 11bf ffaa e83d 91b2 4abe
00000240: 24a6 0dbe 66ae 2e3e e1a8 6dbe 30ef 683c
00000250: 25b2 81be 04df 893e f3fd dbbe 1e22 203e
00000260: cad4 af3d 8e20 f1bd 8329 7bbe 2f81 bf3e
00000270: 17cc c53e 6955 41bd f2c9 793e aaa9 68be
00000280: 2a99 803e 3f58 55bf 3872 e8bd ef0b 6b3e
00000290: 4b91 aa3e 93bd 0a3f f419 163f 1ac0 313f
000002a0: 3be9 2a3e b303 f23e 1335 2c3f 97c4 103e
000002b0: 2c1d a43e a910 00bd 04b2 ba3d ed14 beba
000002c0: cee6 563d ffd3 c8bd a1ad 96be e12c 54be
000002d0: c176 3f3e 0d2f 743e 43af 16bf 2678 123e
000002e0: 45a6 1d3e 06e3 13be 11e7 2ebd a0ad a43e
000002f0: fcdf dcbc ee97 b73e b7ad 9dbd c43c 2b3f
00000300: 5fad 5abd ae18 e13d 5ec1 3abf 23bf 823e
00000310: 43a4 213d b3b9 04bd 9732 a03d 2345 a53d
00000320: b49a e8bc b002 483e 4cbf 1b3d 9f89 0bbf
00000330: 2bf0 9fbd b3fb adbc c808 81bd 0f07 ea3d
00000340: 8740 473e 8253 c03d b6a9 96bd 8485 d6bd
00000350: 2f8b 6dbe 9735 a3be c2c3 43bd 1fea b7bd
00000360: 3cc6 fd3e 30e3 57bd c908 c1be 7264 623d
00000370: e285 103e 0dfb 8dbd bc7e b73d a587 e33b
00000380: 3d16 483e 13a9 6bbd 7edd d23e bc23 f2bd
00000390: 8de5 f03d 393f 0d3e 3cbb 483e 849a efbe
000003a0: 3123 12be fe3c 2c3e fd39 1e3f bae3 50bd
000003b0: f4cd 96be 7b23 08be 869f 9bbd 8377 263c
000003c0: eafc f6be 9da0 88be 901f 6c3e b5cc 903e
000003d0: fe5f 483d 754b 133e 6127 f2bd 53b5 183e
000003e0: 08fe 02bd 4cb5 643c 2e70 b93d fccd dc3e
000003f0: 7e51 e0be 4d95 68be 760e 60be b0c1 743f

convs.0.order__interacts__event.lin_rel.weight f4 [16, 1]
-1.0928028 0.15760587 -0.666222 -1.1036803 -1.203348 -0.36061376 0.32831615 -0.10719624
-0.094869055 -0.5578635 -0.66948766 0.6235669 -0.8394032 -0.13661537 0.31294754 0.06852534
00000000: f6e0 8bbf 6f63 213e 868d 2abf 6545 8dbf
00000010: 4f07 9abf 5ea2 b8be 0e19 a83e b489 dbbd
00000020: b54a c2bd 24d0 0ebf 8b63 2bbf 15a2 1f3f
00000030: 21e3 56bf e6e4 0bbe a93a a03e 0357 8c3d

convs.0.order__interacts__event.lin_rel.bias f4 [16]
-1.2455877 -0.76221913 -0.41007307 0.49215472 0.70895606 -0.41173217 0.22095752 0.04081331
0.25087026 0.2281946 -1.3194478 0.37658176 -0.7383025 0.25610065 -0.8706944 0.53885466
00000000: 6b6f 9fbf cb20 43bf 19f5 d1be b4fb fb3e
00000010: 257e 353f 8fce d2be b042 623e db2b 273d
00000020: 1172 803e d8ab 693e aae3 a8bf 53cf c03e
00000030: 6501 3dbf a01f 833e d4e5 5ebf 61f2 093f

convs.0.order__interacts__event.lin_root.weight f4 [16, 20]
-0.0888403 -0.08045217 -0.22064386 0.021868693 0.0123084895 0.105300054 0.25108802 0.07729654
0.10651703 0.034579027 0.18300416 0.07141818 -0.19616279 0.918764 -0.3538334 -0.24940783
0.053387523 -0.21186778 0.7015199 0.15650868 -0.03040597 0.084489085 0.15661332 -0.2752452
-0.22654745 0.018869407 0.25330126 0.08509809 0.059128392 0.152826 0.20467813 0.34907275
-0.0030126495 -0.5550085 0.23726252 0.1985031 0.25552586 0.15275598 -0.041998006 -0.038961668
-0.16435279 -0.24284892 -0.05189361 -0.08189097 0.05599098 0.009955282 0.06712444 -0.07104809
0.011235799 -0.23534013 -0.35449502 0.024841923 0.13368031 -0.18131363 0.64839166 -0.3655452
0.11887356 0.3136679 -0.21382765 0.032713596 -0.3367098 0.7071259 -0.2877309 -0.22229178
-0.1421912 -0.38083488 0.49984878 0.09803225 0.12721035 -0.2537914 -0.4816405 0.5446993
0.054219164 -0.09081133 -0.3764133 0.4618057 -0.23346475 0.08095826 0.30122876 -0.06827801
-0.024774782 0.109490074 -0.16056038 -0.1375476 -0.021744037 0.24283178 0.053692352 0.130199
0.1846548 0.06689766 0.082316406 -0.49169692 0.055141557 0.4742581 0.089302525 -0.30706856
0.49595135 -0.13249542 0.025386753 0.109692335 -0.3384689 -0.4904134 0.15483184 -0.27062204
-0.14835702 0.25801405 -0.2940715 -0.25101146 -0.020290168 -0.18875842 0.37501338 0.67481166
-0.1681785 0.07514643 -0.49462068 0.7138514 -0.15287386 0.04844981 0.0034905607 0.16610163
0.071872264 -0.05812198 -0.32953796 -0.21283396 0.070786014 -0.669038 0.001493539 0.09413515
-0.048005417 0.053146597 -0.13647987 0.42355624 -0.014270204 -0.12212509 -0.35551983 -0.18003769
-0.21382672 -0.24646075 -0.04507381 0.4084637 0.1393557 -0.40776628 0.15934835 0.099963635
-0.3797721 0.049888622 0.041650016 0.092650935 -0.40482455 -0.13573664 -0.15815568 0.050468665
-0.072234854 0.026743654 -0.033082664 0.4955998 0.10797743 0.24672507 0.024600592 -0.22075975
-0.10804665 -0.8351933 -0.031874456 0.24609518 0.35998917 0.5742646 0.42141464 0.5475066
0.22243218 0.19191614 0.62697124 -0.024371058 0.05932397 -0.089351006 0.11140192 -0.07739004
0.19252293 -0.21885794 -0.25217688 -0.063342325 0.09884914 0.13183443 -0.7571412 -0.12954889
0.42939603 0.025498213 0.38378745 0.14653888 0.039704893 0.123816304 -0.2576066 0.4466533
-0.15906522 -0.014384384 -0.4078114 0.16008076 -0.2694316 -0.020081837 0.12897986 -0.22842148
-0.053564575 0.24607174 0.17074391 -0.44299483 -0.0146308765 0.17841272 0.048819628 0.10164469
0.3804577 -0.10509854 -0.16234548 -0.0850474 -0.5115664 -0.21424846 -0.19768733 0.24142605
0.17112839 0.025749424 -0.3754043 0.22090484 0.0374503 0.18720317 0.0880835 0.14001405
0.07037734 -0.43528232 0.13244721 -0.43175682 -0.120585 0.4657766 -0.018205974 -0.35838157
0.16356604 0.14953803 0.5940595 -0.25535762 -0.31046543 -0.2800812 -0.19582736 0.08691511
-0.08246797 0.05515754 0.033883482 -0.029363574 0.06572003 0.24939007 0.08613007 -0.048243225
0.30148476 -0.1451067 0.16422202 0.2795354 -0.14405602 -0.28122187 -0.18733075 0.88462746
00000000: e7f1 b5bd 1bc4 a4bd 77f0 61be f925 b33c
00000010: 8ca9 493c 8ea7 d73d 9c8e 803e a64d 9e3d
00000020: 9a25 da3d bda2 0d3d 7165 3b3e b243 923d
00000030: e6de 48be 1e34 6b3f a729 b5be c464 7fbe
00000040: e0ac 5a3d def3 58be cf96 333f d043 203e
00000050: f115 f9bc 9d08 ad3d 3e5f 203e f0ec 8cbe
00000060: 0efc 67be 0494 9a3c b4b0 813e e847 ae3d
00000070: 9d30 723d 6b7e 1c3e 2597 513e aab9 b23e
00000080: df6f 45bb 0915 0ebf f2f4 723e 6644 4b3e
00000090: 49d4 823e 106c 1c3e 1a06 2cbd 4596 1fbd
000000a0: 194c 28be 63ad 78be 658e 54bd 74b6 a7bd
000000b0: cc56 653d 7b1b 233c 8a78 893d a981 91bd
000000c0: 5b16 383c 01fd 70be 5f80 b5be 4a81 cb3c
000000d0: 7ee3 083e 48aa 39be fffc 253f be28 bbbe
000000e0: fb73 f33d 1499 a03e a3f5 5abe b1fe 053d
000000f0: 3a65 acbe 3406 353f 7751 93be 75a0 63be
00000100: 929a 11be cafc c2be 2eec ff3e 22c5 c83d
00000110: 6e43 023e f2f0 81be 9599 f6be 6a71 0b3f
00000120: ea14 5e3d 4afb b9bd 3eb9 c0be cc71 ec3e
00000130: 6211 6fbe 72cd a53d a83a 9a3e 57d5 8bbd
00000140: 7cf4 cabc 553c e03d f169 24be 47d9 0cbe
00000150: 8d20 b2bc e5a8 783e 83ec 5b3d e352 053e
00000160: 2616 3d3e a401 893d 8195 a83d b3bf fbbe
00000170: 1ddc 613d f5d1 f23e 3ee4 b63d 1738 9dbe
00000180: 56ed fd3e e1ac 07be e1f7 cf3c 60a6 e03d
00000190: cc4b adbe 7717 fbbe 3d8c 1e3e f98e 8abe
000001a0: e7ea 17be 6b1a 843e 8a90 96be 9384 80be
000001b0: 9137 a6bc e349 41be c101 c03e 75c0 2c3f
000001c0: fc36 2cbe 5fe6 993d ec3e fdbe f7be 363f
000001d0: f78a 1cbe 4f73 463d e4c1 643b 8c16 2a3e
000001e0: c431 933d 5011 6ebd 33b9 a8be 25f1 59be
000001f0: 42f8 903d 1346 2bbf dac2 c33a eec9 c03d
00000200: 54a1 44bd 3fb0 593d 61c1 0bbe 5ddc d83e
00000210: 93cd 69bc b81c fabd b206 b6be cd5b 38be
00000220: 64f5 5abe 3560 7cbe 519f 38bd 2722 d13e
00000230: 43b3 0e3e bec6 d0be 372c 233e bcb9 cc3d
00000240: 7d71 c2be 0358 4c3d 3599 2a3d c6bf bd3d
00000250: 2a45 cfbe 8cfe 0abe 90f3 21be 3bb8 4e3d
00000260: deef 93bd 8215 db3c b081 07bd 42bf fd3e
00000270: 4523 dd3d 7fa5 7c3e 2e87 c93c d80e 62be
00000280: 9047 ddbd 3acf 55bf ca8e 02bd 6000 7c3e
00000290: 8050 b83e 0103 133f a9c3 d73e 6429 0c3f
000002a0: 43c5 633e aa85 443e 3081 203f d0a5 c7bc
000002b0: b1fd 723d a9fd b6bd b126 e43d ab7e 9ebd
000002c0: bb24 453e 4c1c 60be 541d 81be 9fb9 81bd
000002d0: 6b71 ca3d 9bff 063e 01d4 41bf 77a8 04be
000002e0: ccd9 db3e a1e1 d03c ca7f c43e 4a0e 163e
000002f0: 99a1 223d 6793 fd3d 03e5 83be beaf e43e
00000300: fee1 22be 7bac 6bbc a8cc d0be 36ec 233e
00000310: f0f2 89be aa82 a4bc 4c13 043e 52e7 69be
00000320: 8766 5bbd 3bfa 7b3e 7ed7 2e3e 38d0 e2be
00000330: 58b6 6fbc d3b1 363e 17f7 473d 172b d03d
00000340: 5acb c23e e73d d7bd e53d 26be 552d aebd
00000350: 04f6 02bf f363 5bbe 8c6e 4abe 6438 773e
00000360: 483c 2f3e 75f0 d23c fe34 c0be e134 623e
00000370: 7c65 193d 30b2 3f3e 1f65 b43d d85f 0f3e
00000380: ff21 903d 53dd debe 3ea0 073e 3b0f ddbe
00000390: 45f5 f6bd 457a ee3e b224 95bc ca7d b7be
000003a0: db7d 273e 7f20 193e 4914 183f 3cbe 82be
000003b0: 53f5 9ebe ce66 8fbe f886 48be 8d00 b23d
000003c0: f8e4 a8bd dfec 613d 68c9 0a3d e18b f0bc
000003d0: 3998 863d 1c60 7f3e f664 b03d b09a 45bd
000003e0: 365c 9a3e da96 14be d129 283e 441f 8f3e
000003f0: 6c83 13be 50fc 8fbe a2d3 3fbe f276 623f

convs.0.item__interacts__event.lin_rel.weight f4 [16, 1]
0.66192645 -0.094546266 -0.55266285 -0.1853676 -0.75228584 0.5249348 -0.8500176 -0.5562591
0.6383047 0.6634498 -0.5325471 0.5618231 -0.069089696 -1.2882491 -0.12923625 0.14661509
00000000: 0374 293f 79a1 c1bd 507b 0dbf 01d1 3dbe
00000010: ce95 40bf 2162 063f c19a 59bf ff66 0ebf
00000020: f067 233f d9d7 293f 0255 08bf a4d3 0f3f
00000030: e67e 8dbd 59e5 a4bf 8256 04be 4422 163e

convs.0.item__interacts__event.lin_rel.bias f4 [16]
-0.56327057 0.42987055 0.32110304 -0.7913499 0.7175483 0.38834667 0.06521787 -0.6726555
-0.35833174 -0.4596821 -0.52951014 -1.1606048 0.49408168 -1.1475086 0.24402715 -0.04570623
00000000: 8032 10bf fe17 dc3e 9e67 a43e e895 4abf
00000010: 3fb1 373f 60d5 c63e f290 853d 2733 2cbf
00000020: 4277 b7be 745b ebbe fa8d 07bf b38e 94bf
00000030: 46f8 fc3e 90e1 92bf 41e2 793e 7536 3bbd

convs.0.item__interacts__event.lin_root.weight f4 [16, 20]
-0.30722183 0.076993495 -0.16678385 0.023322767 0.09219764 0.1240465 0.32680714 0.30902103
0.003651209 0.11709987 -0.06471901 -0.20152153 -0.12896669 0.7768237 -0.32211643 -0.33796847
0.016719816 -0.11679504 0.6804801 0.29002944 0.11175893 0.112130165 -0.052941 0.033546824
-0.14157876 0.122632414 0.09104723 0.18582706 0.07483871 0.29724997 0.008010538 0.37101668
-0.07035381 -0.3944517 0.32495576 0.15259477 0.11644572 -0.035250798 0.14642546 -0.111062534
-0.19266693 -0.12056277 -0.2333404 -0.032134224 -0.16529329 -0.29751602 0.01900497 0.10131652
0.20537367 -0.08542374 -0.14447889 0.33299765 -0.15416078 -0.35143444 1.0083828 -0.24691829
0.26630622 0.29645774 -0.050013434 0.019374788 -0.6089455 0.6950751 -0.046717104 -0.35093597
-0.13218234 -0.30337894 0.5090641 -0.012946461 -0.17243256 -0.037885156 -0.5371693 0.52035254
-0.2517361 -0.3434974 -0.019216746 0.6693329 -0.09089438 0.096766554 0.30888644 -0.44125733
-0.03518924 0.21652772 0.15287986 -0.40561157 -0.01144322 -0.17389153 0.035790466 0.2986612
0.1173009 0.11590843 0.12020076 -0.4959592 -0.09092455 0.3429006 0.16550456 -0.42429262
0.4543055 -0.1448023 -0.31962577 0.07497655 -0.28453368 -0.5025834 -0.037444767 -0.12849423
0.04085467 0.39368868 -0.24524182 -0.094752245 0.024530483 -0.16303867 0.2615618 0.68788993
-0.14943089 -0.088113375 -0.35925964 0.606608 0.03490348 0.08551231 -0.10345089 0.18337697
0.07649527 0.01475592 -0.3868671 -0.40268615 0.23424233 -0.5014764 -0.14357623 -0.010219842
-0.23978187 0.068482295 -0.13144603 0.41499025 -0.036315493 -0.21786202 0.020884458 0.063546285
-0.032226853 -0.20995876 0.0043765153 -0.013365521 0.0045458428 -0.32819438 -0.021343969 -0.22659881
-0.16138758 0.3774884 -0.00705623 0.04415245 -0.057165276 0.22497573 -0.05520851 0.06860215
-0.20133553 -0.35041884 -0.4172004 0.28483456 0.044313457 0.18865426 0.085554704 0.049180392
0.072829455 -0.8569512 -0.021259975 -0.12254969 0.053179957 0.5122902 0.36190832 0.35168126
0.4909647 0.26752245 0.6855132 -0.008601172 0.08662401 -0.107210055 0.38000497 -0.07969847
-0.09878215 -0.25662962 0.039986372 0.23149148 0.050196562 0.26497564 -0.66712576 -0.0989483
0.07324431 -0.011381918 -0.052757036 0.13327251 0.25079647 0.22480053 -0.26924542 0.7194865
-0.17200199 0.16824703 -0.7371457 0.39520323 0.06889557 0.086663306 -0.129431 -0.09218763
-0.08574881 0.2166241 0.19784804 -0.4275011 0.1786375 0.12926604 0.1578992 0.115010716
0.28244945 -0.17526248 -0.17840885 0.029066976 -0.1277837 -0.45665872 0.13583325 -0.009752648
0.3004785 0.1445412 -0.4416492 0.0347614 -0.075658135 -0.16985352 0.30192065 0.044724803
-0.008031554 -0.35037434 0.43789536 -0.38765275 0.19257016 0.11442771 -0.1418902 -0.42485344
0.07071431 0.17655325 0.56923723 -0.29406354 -0.22950234 -0.19803874 -0.3007648 0.0021817458
-0.3885733 -0.23087184 0.14467674 0.040707592 -0.016526062 0.10570042 0.09337073 0.1864609
-0.049324296 0.2323719 0.11074696 0.23973393 -0.26282737 -0.14837204 -0.229243 1.0297322
00000000: 2e4c 9dbe c4ae 9d3d 63c9 2abe 630f bf3c
00000010: 1ed2 bc3d 170c fe3d 4453 a73e 0138 9e3e
00000020: 1f49 6f3b 0fd2 ef3d 668b 84bd a95b 4ebe
00000030: d80f 04be ebdd 463f 72ec a4be 340a adbe
00000040: fff7 883c 3d32 efbd f233 2e3f bd7e 943e
00000050: dee1 e43d 80a4 e53d a9d8 58bd 6568 093d
00000060: 06fa 10be b426 fb3d f876 ba3d 7349 3e3e
00000070: 0a45 993d 2631 983e a23e 033c e6f5 bd3e
00000080: a915 90bd 93f5 c9be 9a60 a63e ce41 1c3e
00000090: 187b ee3d 2463 10bd 8ef0 153e c174 e3bd
000000a0: 7b4a 45be 9de9 f6bd c9f0 6ebe 2d9f 03bd
000000b0: a542 29be 0554 98be 50b0 9b3c 097f cf3d
000000c0: 7a4d 523e a4f2 aebd 46f2 13be ab7e aa3e
000000d0: 53dc 1dbe 37ef b3be b012 813f 26d8 7cbe
000000e0: 4a59 883e 4fc9 973e e3da 4cbd e0b7 9e3c
000000f0: dae3 1bbf 71f0 313f 6f5a 3fbd e1ad b3be
00000100: cf5a 07be 7c54 9bbe 0652 023f 651d 54bc
00000110: 2992 30be 772d 1bbd ed83 09bf d335 053f
00000120: 8ee3 80be e4de afbe 706c 9dbc 6759 2b3f
00000130: d526 babd 8b2d c63d 5d26 9e3e 7bec e1be
00000140: 9822 10bd 71b9 5d3e 8a8c 1c3e 52ac cfbe
00000150: 587c 3bbc 9f10 32be 0699 123d 1fea 983e
00000160: 743b f03d 6661 ed3d d12b f63d 5dee fdbe
00000170: a736 babd ab90 af3e 077a 293e e23c d9be
00000180: bb9a e83e 0e47 14be fda5 a3be 4e8d 993d
00000190: 66ae 91be 4ea9 00bf af5f 19bd fe93 03be
000001a0: 3a57 273d 9091 c93e ac20 7bbe 770d c2bd
000001b0: 27f4 c83c 9cf3 26be 6eeb 853e 8e19 303f
000001c0: 6904 19be c974 b4bd e1f0 b7be a94a 1b3f
000001d0: f4f6 0e3d 1421 af3d 0fde d3bd 2cc7 3b3e
000001e0: 8da9 9c3d d0c2 713c 7213 c6be e12c cebe
000001f0: 39dd 6f3e c260 00bf a605 13be 2071 27bc
00000200: 6189 75be 7240 8c3d ca99 06be 9a79 d43e
00000210: 8ebf 14bd 3917 5fbe e215 ab3c 8e24 823d
00000220: 4e00 04bd 6eff 56be df68 8f3b 0ffb 5abc
00000230: 4bf5 943b 1809 a8be 8cd9 aebc 8509 68be
00000240: c942 25be 2946 c13e f337 e7bb 33d9 343d
00000250: 2326 6abd 0a60 663e 5222 62bd 497f 8c3d
00000260: e72a 4ebe 196a b3be 4a9b d5be d6d5 913e
00000270: 0782 353d 952e 413e 4e37 af3d 6171 493d
00000280: 9c27 953d 2761 5bbf 6629 aebc 55fb fabd
00000290: 3ad3 593d 7325 033f 0c4c b93e 910f b43e
000002a0: ba5f fb3e b4f8 883e cb7d 2f3f eeeb 0cbc
000002b0: ee67 b13d f290 dbbd 0390 c23e f438 a3bd
000002c0: 4c4e cabd f564 83be c0c8 233d 1a0c 6d3e
000002d0: e99a 4d3d e3aa 873e c1c8 2abf 68a5 cabd
000002e0: 1d01 963d 397b 3abc c317 58bd 9778 083e
000002f0: 6568 803e 1c32 663e 89da 89be 4430 383f
00000300: 4a21 30be f348 2c3e 95b5 3cbf 1458 ca3e
00000310: 1f19 8d3d 887c b13d 8f89 04be decc bcbd
00000320: 129d afbd b5d2 5d3e ad98 4a3e 6de1 dabe
00000330: c0ec 363e 515e 043e 54b0 213e bd8a eb3d
00000340: 379d 903e 0278 33be cfb0 36be de1d ee3c
00000350: bbd9 02be 2ccf e9be df17 0b3e 92c9 1fbc
00000360: 51d8 993e 9c02 143e d81f e2be f861 0e3d
00000370: a7f2 9abd 15ee 2dbe 5895 9a3e 5b31 373d
00000380: c796 03bc 4464 b3be d233 e03e 6c7a c6be
00000390: 1d31 453e 1359 ea3d aa4b 11be 6486 d9be
000003a0: aad2 903d 60ca 343e 88b9 113f 7f8f 96be
000003b0: a902 6bbe abca 4abe d8fd 99be 9ffb 0e3b
000003c0: 14f3 c6be ab69 6cbe 2426 143e 01bd 263d
000003d0: aa61 87bc 7679 d83d 2739 bf3d 9bef 3e3e
000003e0: 4608 4abd e6f2 6d3e 4dcf e23d d07c 753e
000003f0: 4f91 86be d7ee 17be adbe 6abe 44ce 833f

convs.0.package__interacts__event.lin_rel.weight f4 [16, 1]
0.2687145 -0.7597927 0.8657311 0.747896 0.12396095 0.4643295 0.40855792 -0.15792696
0.007759844 -0.37305933 0.38841677 0.039587166 0.8894183 -0.898159 0.067718126 -0.4230897
00000000: f294 893e c681 42bf 8ea0 5d3f 1d76 3f3f
00000010: 3ddf fd3d 99bc ed3e 812e d13e 9bb7 21be
00000020: 4a46 fe3b a201 bfbe 90de c63e 2726 223d
00000030: ebb0 633f c0ed 65bf cdaf 8a3d 379f d8be

convs.0.package__interacts__event.lin_rel.bias f4 [16]
0.27410024 0.61213225 0.33921066 0.7303384 -0.07284699 -1.0380712 -0.89611715 0.16487448
-0.973445 0.024584506 0.076630175 -1.1191763 0.21310893 -1.2554027 -0.95809084 -0.9148766
00000000: de56 8c3e b3b4 1c3f 05ad ad3e 75f7 3a3f
00000010: cd30 95bd 84df 84bf ef67 65bf dbd4 283e
00000020: b133 79bf 7265 c93c 48f0 9c3d 2b41 8fbf
00000030: 3a39 5a3e 09b1 a0bf 7145 75bf 5a35 6abf

convs.0.package__interacts__event.lin_root.weight f4 [16, 20]
-0.1271798 0.20596685 -0.02960982 -0.10248565 0.021639777 0.0020946497 0.43068796 0.34162822
-0.02524107 -0.025957739 0.22228934 -0.08212165 0.056492865 0.4951003 -0.35977617 -0.45427987
0.040978916 -0.2403125 0.7749617 -0.012963531 0.071176894 0.016411558 0.13181043 -0.35329482
-0.17256448 -0.097460434 -0.010474005 0.14997803 0.031202745 0.237184 -0.006453761 0.26376304
-0.13907148 -0.4527639 0.43528974 0.25438917 0.2059474 0.12010314 -0.0009958 -0.38589367
-0.050607536 -0.39803365 -0.15794146 0.016166164 0.092460416 -0.04076509 0.0788215 0.026697828
0.16077183 0.0036190136 -0.03221099 0.29830155 -0.1302226 0.031415988 0.90494037 -0.31813663
0.120951325 0.20652558 -0.24131782 0.038416196 -0.36935225 0.30477223 0.10859214 -0.5164484
0.20447002 -0.07413158 0.35861585 -0.11462749 -0.052661914 -0.035571277 -0.54839176 0.48567873
0.13972159 -0.30964154 -0.100875996 0.66491807 -0.15352252 -0.1835757 0.13823415 -0.055202167
-0.0014546544 0.007818707 -0.15867068 -0.3263092 0.1458629 -0.11171194 -0.1965696 -0.09509636
-0.1709277 -0.12915717 0.46547526 -0.4223809 0.052376516 0.28627682 0.115410484 -0.4095328
0.26716438 0.087703355 -0.31564304 0.09626804 -0.5442881 -0.5125983 -0.015390726 -0.2134126
-0.13059378 0.32213557 -0.3863905 -0.1785451 0.058048062 -0.035607506 0.15101938 0.9451748
-0.06866075 -0.24155013 -0.31946722 0.46062967 0.056785036 -0.23706892 -0.26816094 0.30306134
0.017832952 0.12049057 -0.26303482 -0.017440846 -0.03202595 -0.5421469 0.10514418 0.16407593
-0.13549815 0.042249154 0.010759194 0.12132275 -0.23187794 -0.35814396 -0.09032987 -0.077936776
0.05435976 0.05384739 0.17317055 0.15530385 0.020700809 -0.32645696 0.026557058 0.046131037
-0.3502813 0.25458172 0.041049097 0.36744553 -0.17144625 0.06425213 -0.26475304 0.32296026
-0.019932609 -0.26358312 -0.31058112 0.48629048 0.25590903 0.11733376 -0.05244422 -0.3868197
-0.09792744 -1.1326046 0.0006294899 0.1627751 0.18457517 0.21752684 0.20150979 0.42623717
0.3659708 0.47762817 0.4506503 0.31504008 0.3812974 -0.028753122 0.114691496 0.30247816
0.03209702 0.015026901 -0.064880274 0.20865162 0.19927484 0.26571319 -0.472292 -0.12090731
0.40885374 -0.18747939 -0.04866819 0.08312742 0.15490043 0.082032196 0.15880291 0.6711175
-0.22719602 0.28679088 -0.67046994 0.36670175 -0.34562063 0.12289369 0.019102512 -0.04669542
-0.250489 0.09953813 0.14429058 -0.7384627 0.090158 0.12840681 0.16352877 0.33943674
0.38700694 -0.057695728 0.0068681943 0.028585333 -0.15773284 -0.17803925 0.20798033 0.20621417
0.20117857 0.21001688 -0.08191878 0.3416539 -0.23693779 0.14163457 0.05568417 0.25002095
0.24317522 -0.37371296 0.36387902 -0.013795889 -0.12241691 0.35294077 -0.13844296 -0.24281925
0.05121346 0.09072556 0.39987245 -0.14331508 -0.122172855 -0.42905954 -0.2617168 -0.031187369
-0.22639476 -0.013187245 0.21027587 0.11641591 0.03765948 0.21634428 -0.2611995 0.079317674
0.20035213 -0.057308923 0.31509942 0.5344778 -0.2994775 -0.1731908 -0.24425639 1.0365787
00000000: 6c3b 02be f9e8 523e 4b90 f2bc ffe3 d1bd
00000010: e745 b13c 6446 093b 2283 dc3e e5e9 ae3e
00000020: 5cc6 cebc 53a5 d4bc d19f 633e 652f a8bd
00000030: 1065 673d c97d fd3e 9534 b8be 5f97 e8be
00000040: 82d9 273d 7b14 76be e463 463f fd64 54bc
00000050: 31c5 913d 8871 863c 50f9 063e 0fe3 b4be
00000060: beb4 30be 5699 c7bd 299b 2bbc d793 193e
00000070: e69c ff3c 5de0 723e 127a d3bb f30b 873e
00000080: c168 0ebe abd0 e7be 4cde de3e 4c3f 823e
00000090: e0e3 523e a3f8 f53d 8185 82ba db93 c5be
000000a0: d949 4fbd 11cb cbbe 68bb 21be e76e 843c
000000b0: e35b bd3d 4cf9 26bd 2b6d a13d 67b5 da3c
000000c0: 5fa1 243e f92c 6d3b acef 03bd fbba 983e
000000d0: 1359 05be 0dae 003d 2caa 673f cee2 a2be
000000e0: 54b5 f73d 717b 533e 051c 77be 4d5a 1d3d
000000f0: bd1b bdbe 1b0b 9c3e 8e65 de3d f635 04bf
00000100: 9760 513e 4cd2 97bd 7f9c b73e d1c1 eabd
00000110: 05b4 57bd 30b3 11bd 6763 0cbf e2aa f83e
00000120: 2d13 0f3e 5689 9ebe 1398 cebd 1238 2a3f
00000130: 0235 1dbe 45fb 3bbe 418d 0d3e ab1b 62bd
00000140: 1aaa beba 091a 003c 917a 22be 0012 a7be
00000150: 165d 153e 3bc9 e4bd 8b49 49be e1c1 c2bd
00000160: ac07 2fbe c741 04be c652 ee3e 4f42 d8be
00000170: c288 563d e092 923e 555c ec3d 48ae d1be
00000180: c5c9 883e d19d b33d f79b a1be 2e28 c53d
00000190: 7756 0bbf a439 03bf 6229 7cbc d588 5abe
000001a0: 60ba 05be f4ee a43e fad4 c5be 87d4 36be
000001b0: cec3 6d3d 2dd9 11bd d3a4 1a3e faf6 713f
000001c0: 029e 8cbd eb58 77be 3591 a3be a7d7 eb3e
000001d0: 6d97 683d 32c2 72be 644c 89be db2a 9b3e
000001e0: 6916 923c c3c3 f63d 80ac 86be 1be0 8ebc
000001f0: a42d 03bd 24ca 0abf d555 d73d 8503 283e
00000200: 07c0 0abe 730d 2d3d 5547 303c 1078 f83d
00000210: 6971 6dbe a55e b7be defe b8bd 519d 9fbd
00000220: 57a8 5e3d 158f 5c3d 9f53 313e f907 1f3e
00000230: be94 a93c 5e25 a7be 308e d93c e6f3 3c3d
00000240: 1258 b3be 8958 823e 1923 283d d221 bc3e
00000250: 9b8f 2fbe 9f96 833d b68d 87be 0c5b a53e
00000260: b649 a3bc 5ef4 86be 7d04 9fbe 11fb f83e
00000270: 8206 833e af4c f03d c0cf 56bd 3b0d c6be
00000280: 2f8e c8bd 30f9 90bf 5a04 253a 84ae 263e
00000290: 4601 3d3e 5bbf 5e3e 9558 4e3e c23b da3e
000002a0: 8660 bb3e ae8b f43e a3bb e63e ef4c a13e
000002b0: 6a39 c33e ab8b ebbc 60e3 ea3d 6bde 9a3e
000002c0: 2a78 033d 6433 763c f3df 84bd c5a8 553e
000002d0: b40e 4c3e 8f0b 883e 42d0 f1be 409e f7bd
000002e0: 4755 d13e 99fa 3fbe 4c58 47bd b53e aa3d
000002f0: 389e 1e3e 7f00 a83d 3b9d 223e 5bce 2b3f
00000300: 13a6 68be 41d6 923e eba3 2bbf 55c0 bb3e
00000310: 30f5 b0be b0af fb3d df7c 9c3c b243 3fbd
00000320: 1840 80be a6da cb3d e9c0 133e e40b 3dbf
00000330: c2a4 b83d 137d 033e 1674 273e a7ca ad3e
00000340: c625 c63e 5b52 6cbd 970e e13b ca2b ea3c
00000350: b884 21be ec4f 36be ccf8 543e cf29 533e
00000360: c101 4e3e aa0e 573e 09c5 a7bd 43ed ae3e
00000370: d29f 72be a708 113e 1615 643d bf02 803e
00000380: ed02 793e 4e57 bfbe 5a4e ba3e 2708 62bc
00000390: b8b5 fabd a7b4 b43e fec3 0dbe 9ca5 78be
000003a0: 34c5 513d 53ce b93d 15bc cc3e 30c1 12be
000003b0: c335 fabd b1ad dbbe bfff 85be a77c ffbc
000003c0: 07d4 67be 500f 58bc 8f52 573e 776b ee3d
000003d0: d440 1a3d 5b89 5d3e f1bb 85be 4e71 a23d
000003e0: 1c29 4d3e c3bc 6abd b654 a13e 89d3 083f
000003f0: 1d55 99be ee58 31be 591e 7abe 9cae 843f

convs.0.package__updates__package.lin_rel.weight f4 [16, 1]
0.6096024 0.9690403 -0.1362684 0.20632571 -0.74220073 -0.43474174 -0.21608277 1.1719642
0.502962 0.5604036 -0.2977877 0.10981084 0.15770036 0.57888705 -0.03588475 -0.5914435
00000000: e70e 1c3f 0613 783f f289 0bbe 0c47 533e
00000010: de00 3ebf 7896 debe cd44 5dbe ec02 963f
00000020: 1ec2 003f 9c76 0f3f a177 98be 81e4 e03d
00000030: 347c 213e f131 143f e3fb 12bd d768 17bf

convs.0.package__updates__package.lin_rel.bias f4 [16]
-0.5053525 -0.22212863 -0.795074 -0.5441767 -0.98341966 0.6263965 0.69233185 0.7764013
-0.079736955 0.21690406 0.66468567 0.8422069 0.1336533 0.13326631 0.24990459 0.09332311
00000000: c85e 01bf b075 63be f889 4bbf 2a4f 0bbf
00000010: 64c1 7bbf 855b 203f a93c 313f 3cc2 463f
00000020: 214d a3bd 191c 5e3e d728 2a3f df9a 573f
00000030: 69dc 083e f776 083e fde6 7f3e 3020 bf3d

convs.0.package__updates__package.lin_root.weight f4 [16, 1]
-0.5783911 -0.9026532 -0.7036745 0.2778656 -1.1002134 -0.7313285 -0.8239157 1.0136392
-0.56037766 -0.7831602 0.5275034 -1.0569266 0.9183848 -0.46507013 -0.80909544 -0.14048187
00000000: 7011 14bf 4814 67bf 0324 34bf 6644 8e3e
00000010: cbd3 8cbf 5838 3bbf 24ec 52bf eebe 813f
00000020: e974 0fbf 307d 48bf 760a 073f 5f49 87bf
00000030: 441b 6b3f ac1d eebe e120 4fbf 7bda 0fbe

convs.0.order__updates__order.lin_rel.weight f4 [16, 1]
0.23192666 -0.32835808 -0.20049357 -0.93787265 -0.2529419 -0.93613803 0.020501187 -0.15896942
0.23836942 -0.46633148 0.3352655 0.97453904 0.70088816 0.620284 0.45503956 -0.95027715
00000000: 2f7e 6d3e 8d1e a8be 304e 4dbe 6c18 70bf
00000010: 9a81 81be bea6 6fbf 1bf2 a73c e1c8 22be
00000020: 1d17 743e 00c3 eebe eba7 ab3e 647b 793f
00000030: 686d 333f efca 1e3f f2fa e83e 5d45 73bf

convs.0.order__updates__order.lin_rel.bias f4 [16]
-0.036818292 -0.24301037 0.849457 0.47629455 -0.5540649 -0.8287511 -0.6446014 0.7216567
0.87553304 -0.0093335975 0.22153181 -0.33012185 -0.46892813 -0.25468296 0.47501045 0.4462796
00000000: c7ce 16bd b6d7 78be 0476 593f e1dc f33e
00000010: 33d7 0dbf 0829 54bf 9904 25bf 7ebe 383f
00000020: ef22 603f f2eb 18bc 3cd9 623e bb05 a9be
00000030: 5917 f0be ce65 82be 9234 f33e c27e e43e

convs.0.order__updates__order.lin_root.weight f4 [16, 1]
0.078158475 0.4655563 -0.04381824 0.8700067 -0.19891295 -0.63582444 -0.7360429 -0.523015
-1.0663607 1.0050938 -0.61360824 -0.6687767 -0.35123023 0.6505061 0.84145784 -0.81603396
00000000: 8d11 a03d 655d ee3e c17a 33bd c2b8 5e3f
00000010: d6af 4bbe 64c5 22bf 4f6d 3cbf 50e4 05bf
00000020: 827e 88bf eaa6 803f 6e15 1dbf f334 2bbf
00000030: 73d4 b3be 9187 263f c869 573f 9ae7 50bf

convs.0.item__updates__item.lin_rel.weight f4 [16, 1]
-0.614662 0.069607936 -0.0936803 -0.2438667 -0.5863044 -0.64962155 0.10131636 -0.40839902
-0.4582523 -0.41332477 -0.7078119 -0.5584094 0.32279366 -0.3559418 0.3350164 -0.868806
00000000: 7d5a 1dbf 9b8e 8e3d 75db bfbd 31b8 79be
00000010: 0c18 16bf 994d 26bf f47e cf3d ad19 d1be
00000020: 0ca0 eabe 4e9f d3be 2933 35bf ebf3 0ebf
00000030: 3645 a53e 013e b6be 4587 ab3e 126a 5ebf

convs.0.item__updates__item.lin_rel.bias f4 [16]
0.5407535 0.02456491 -0.32958436 0.7002273 0.14027494 -0.16406892 -0.7260714 0.16716684
0.63473207 -0.6698428 0.11563902 0.9976301 0.5178524 0.17194623 -0.69313407 0.8841864
00000000: d26e 0a3f 5a3c c93c 48bf a8be 1942 333f
00000010: 3ca4 0f3e af01 28be d1df 39bf c92d 2b3e
00000020: cd7d 223f d17a 2bbf 27d4 ec3d b064 7f3f
00000030: fa91 043f ac12 303e 3c71 31bf 0a5a 623f

convs.0.item__updates__item.lin_root.weight f4 [16, 1]
0.123723924 0.40887523 0.58515096 -0.13321488 0.3751231 0.800428 -0.66028243 0.19803745
-0.24464461 -0.77124786 0.40614453 -0.75948334 -0.1630816 0.5751631 0.25499213 0.14930077
00000000: f862 fd3d 1858 d13e 74cc 153f 7b69 08be
00000010: 2310 c03e d9e8 4c3f 4508 29bf 54ca 4a3e
00000020: 1e84 7abe 8070 45bf 2df2 cf3e 806d 42bf
00000030: ddfe 26be e43d 133f 548e 823e 4de2 183e

convs.1.event__follows__event.lin_rel.weight f4 [16, 16]
0.07713937 0.27892876 0.27534276 0.0319958 0.010138625 -0.2644526 -0.03189086 0.26057884
-0.26483408 -0.3166822 -0.01162057 -0.032043148 0.3610172 -0.27303353 -0.10297327 -0.14658202
0.13763155 -0.08221081 0.08801346 -0.049622025 -0.035758037 0.14247008 -0.27111706 -0.16558123
0.14321233 -0.14845687 -0.050579272 -0.1683743 0.0006828297 0.13178363 0.12467641 -0.047583148
-0.04657251 0.05142685 0.129826 -0.056902107 -0.32403025 -0.13061841 0.23631854 -0.094976746
-0.121061176 -0.051236 0.20487402 -0.104017556 0.022744404 -0.052159727 -0.040482998 -0.13008435
-0.074333295 0.2914045 0.15876834 -0.23785754 0.1360813 -0.21682797 0.048482087 0.2110482
-0.034390047 -0.124818414 0.16109207 -0.16154931 -0.48696205 0.5493334 0.065425545 0.06744304
-0.3191927 0.26294094 -0.14984643 -0.19963394 0.1832777 -0.22400498 -0.017830614 0.235554
0.18538767 0.08461772 0.14012611 -0.059674725 -0.11366112 0.2615687 -0.08636961 0.048500694
0.25781405 0.06893663 -0.1355761 -0.45906562 0.063647516 0.13938907 0.3416722 -0.2736633
-0.22907901 -0.055701207 -0.21376836 -0.021322044 -0.22947422 0.14767994 -0.62863195 -0.022078654
0.1156344 -0.028753653 -0.33790234 0.11664294 -0.34918532 0.19610614 -0.13904741 0.0012883827
-0.22973272 0.22006491 -0.03031814 -0.39206013 0.05396156 -0.046096083 0.12740918 0.07994233
0.13670287 -0.28198454 -0.15709735 -0.24868329 -0.20139208 0.16968584 0.22872616 -0.106991045
0.15222703 -0.20481138 0.09385082 0.14256059 0.40072724 0.10697646 -0.33954784 -0.048168167
0.06553013 -0.25104916 -0.06338689 -0.062241543 -0.015198 0.011302138 -0.07904588 -0.22685578
-0.1468091 -0.09602968 0.08897899 -0.02378754 0.22767444 -0.22385998 -0.09545162 0.11275889
-0.05647338 0.20857355 0.032672003 0.04632329 -0.40204638 -0.1390936 -0.75911677 0.15805954
-0.06904548 0.17173806 0.040918 -0.37520316 -0.2839398 0.39846548 -0.31075525 -0.121638685
0.0027366583 0.01567384 0.12611005 -0.108790666 -0.10161743 0.091959864 -0.07151671 0.0025252525
0.12369125 0.16153139 0.077019684 -0.26559365 -0.32369187 0.0068568946 -0.32109615 -0.22774561
0.0669547 -0.17476529 -0.14948821 0.052237015 0.05270061 -0.054835837 -0.124676526 0.02953861
-0.017611116 -0.24094982 -0.0059645013 -0.08816266 -0.19417152 -0.053365268 -0.15788908 0.07615896
-0.15159136 0.034361795 -0.035978124 0.009827309 0.114875466 0.019823661 0.37034068 -0.34365916
-0.057017747 -0.1648583 0.09422472 -0.05982247 0.32506657 0.21569733 0.021183012 -0.009165889
0.19335634 -0.04142918 0.0478279 0.076284066 0.1621979 -0.20209266 0.20784348 -0.022960288
-0.0738646 -0.21062323 -0.024537884 -0.101228386 0.10353169 -0.04528169 -0.07833351 0.060072232
0.1936004 0.13384308 0.044983465 0.101903796 -0.35549763 -0.05342936 -0.06070881 -0.057858873
-0.11436869 -0.01759635 -0.27115247 0.13959631 -0.13146037 0.117618784 -0.30187014 -0.29328513
-0.18293384 0.18290126 0.31535634 -0.49407268 0.073638454 0.17471914 0.017554495 -0.029387295
-0.08663283 -0.41820866 0.41975528 0.13260265 -0.15986165 0.47288948 -0.26661044 -0.2960749
00000000: 3ffb 9d3d c0cf 8e3e baf9 8c3e 070e 033d
00000010: 7a1c 263c 5566 87be fe9f 02bd 976a 853e
00000020: 5598 87be 2b24 a2be 3464 3ebc ad3f 03bd
00000030: 3fd7 b83e 0dcb 8bbe a6e3 d2bd 9919 16be
00000040: 49ef 0c3e 245e a8bd 6740 b43d 7740 4bbd
00000050: 0577 12bd ade3 113e dbcf 8abe 208e 29be
00000060: 41a6 123e 1405 18be 362c 4fbd 506a 2cbe
00000070: edff 323a 4af2 063e 5856 ff3d 8ce6 42bd
00000080: d1c2 3ebd f6a4 523d 1bf1 043e 2f12 69bd
00000090: 4be7 a5be d5c0 05be 7dfd 713e 2b83 c2bd
000000a0: ecee f7bd d7dc 51bd 7fca 513e 2807 d5bd
000000b0: 7952 ba3c 70a5 55bd 80d1 25bd d534 05be
000000c0: 0e3c 98bd f832 953e 2b94 223e ed90 73be
000000d0: e558 0b3e 2708 5ebe 2795 463d 051d 583e
000000e0: 94dc 0cbd cca0 ffbd 52f5 243e 2f6d 25be
000000f0: 1753 f9be 1da1 0c3f d4fd 853d 941f 8a3d
00000100: 3a6d a3be 32a0 863e 5871 19be d76c 4cbe
00000110: 26ad 3b3e 9061 65be 8211 92bc 1135 713e
00000120: 44d6 3d3e 0e4c ad3d 387d 0f3e 7c6d 74bd
00000130: 29c7 e8bd 55ec 853e 8de2 b0bd aaa8 463d
00000140: 3400 843e a62e 8d3d 76d4 0abe a60a ebbe
00000150: a159 823d 02bc 0e3e a9ef ae3e 991d 8cbe
00000160: b093 6abe f326 64bd 18e6 5abe 91ab aebc
00000170: 4afb 6abe 6939 173e 06ee 20bf 4bde b4bc
00000180: bad1 ec3d c88c ebbc 8901 adbe 7ee2 ee3d
00000190: 6bc8 b2be 0cd0 483e 7262 0ebe f3de a83a
000001a0: 0e3f 6bbe b258 613e bf5d f8bc 1bbc c8be
000001b0: cc06 5d3d 3fcf 3cbd 8d77 023e ceb8 a33d
000001c0: d6fb 0b3e 4760 90be 21de 20be d5a6 7ebe
000001d0: ba39 4ebe 20c2 2d3e 3137 6a3e 1f1e dbbd
000001e0: 67e1 1b3e 13ba 51be dc34 c03d 67fb 113e
000001f0: 1f2c cd3e 7916 db3d 37d9 adbe fc4b 45bd
00000200: a934 863d 8489 80be fcd0 81bd fdf0 7ebd
00000210: 0801 79bc 9a2c 393c cee2 a1bd e24c 68be
00000220: 2055 16be 35ab c4bd 9e3a b63d 16de c2bc
00000230: 7d23 693e 8d3b 65be 247c c3bd 22ee e63d
00000240: a250 67bd 4e94 553e 14d3 053d 7dbd 3d3d
00000250: 06d9 cdbe 8d6e 0ebe 7a55 42bf 5cda 213e
00000260: b767 8dbd 1adc 2f3e a299 273d a11a c0be
00000270: 8f60 91be ab03 cc3e 501b 9fbe b41d f9bd
00000280: 8259 333b 6d66 803c fe22 013e a4cd debd
00000290: cd1c d0bd 7455 bc3d 5a77 92bd b57e 253b
000002a0: d751 fd3d 7c68 253e 7fbc 9d3d e4fb 87be
000002b0: f1ba a5be cdaf e03b b766 a4be 2536 69be
000002c0: 8c1f 893d acf5 32be 7013 19be 7bf6 553d
000002d0: 98dc 573d 8b9b 60bd 6856 ffbd f4fa f13c
000002e0: 3045 90bc 8dbb 76be dd71 c3bb a08e b4bd
000002f0: e6d4 46be 8a95 5abd adad 21be 3bf9 9b3d
00000300: c43a 1bbe f4be 0c3d cc5d 13bd b902 213c
00000310: d443 eb3d 3b65 a23c 4b9d bd3e 18f4 afbe
00000320: 718b 69bd 9dd0 28be e4f8 c03d 6808 75bd
00000330: 206f a63e c3df 5c3e ff87 ad3c 862c 16bc
00000340: 34ff 453e a5b1 29bd 30e7 433d d23a 9c3d
00000350: 3517 263e 61f1 4ebe ecd4 543e 3717 bcbc
00000360: 5346 97bd 9ead 57be ac03 c9bc d450 cfbd
00000370: 6c08 d43d 4b79 39bd 526d a0bd 4d0e 763d
00000380: 2f3f 463e 290e 093e 9540 383d f0b2 d03d
00000390: c903 b6be bfd8 5abd cda9 78bd 6dfd 6cbd
000003a0: 223a eabd 3826 90bc 7fd4 8abe 56f2 0e3e
000003b0: 8c9d 06be 1ee2 f03d b98e 9abe 7829 96be
000003c0: 0253 3bbe 784a 3b3e 6376 a13e 18f7 fcbe
000003d0: c2cf 963d 93e9 323e 72ce 8f3c a0bd f0bc
000003e0: 8e6c b1bd 721f d6be 2aea d63e fdc8 073e
000003f0: c6b2 23be 921e f23e 2a81 88be 2197 97be

convs.1.event__follows__event.lin_rel.bias f4 [16]
-0.23462388 -0.17506048 -0.11640767 0.29117322 -0.25558183 0.27297848 0.22888272 -0.07675935
0.041424546 0.3086772 -0.013857272 -0.1045285 -0.23456463 -0.20561966 0.24022579 0.106799684
00000000: 3e41 70be 0e43 33be 2567 eebd a814 953e
00000010: 9fdb 82be d6c3 8b3e 3b60 6a3e 0234 9dbd
00000020: c9ac 293d f00a 9e3e 9d09 63bc 0a13 d6bd
00000030: b631 70be f68d 52be c0fd 753e cbb9 da3d

convs.1.event__follows__event.lin_root.weight f4 [16, 16]
0.061796326 0.028806223 -0.24987067 -0.23219976 -0.23406236 0.029512504 -0.116247 -0.16982158
0.14343476 -0.050094616 -0.33416587 0.061375327 0.104564644 0.059047554 -0.22118603 -0.010642898
0.116245106 -0.14008966 0.044194933 -0.00918703 -0.20015688 -0.21933033 0.23917226 0.05672857
-0.055096183 -0.18817693 -0.25714427 0.07180526 0.092634924 -0.004795044 -0.05565081 0.2250164
-0.14966926 0.091756776 -0.24722198 -0.06765159 -0.21006444 -0.15619503 -0.102802716 0.2141692
0.16637604 -0.17990084 0.15222183 0.24065365 -0.04204297 -0.074350886 -0.06575705 -0.22481453
0.20492806 -0.19501786 -0.122905165 -0.14631075 0.009046533 -0.1652944 -0.057036392 -0.15728983
-0.13777284 -0.25869742 0.20594028 -0.02792413 -0.31815863 -0.1993362 -0.21081254 -0.14999993
-0.038629383 0.011806829 0.34355333 -0.13121983 0.13012096 -0.037833594 -0.21950594 0.012835772
-0.11620427 -0.39983714 -0.12207898 0.116634615 -0.068355024 -0.24077396 0.05844465 -0.24048792
0.13016893 -0.081078626 -0.29280096 0.0931068 -0.0336726 -0.22639559 -0.0710628 -0.11161424
0.014027051 -0.12899755 -0.2899765 0.28948942 0.07255382 0.23873459 -0.22142082 0.10135958
0.1233891 -0.35934058 -0.43703195 -0.10657063 -0.06045267 0.10317389 0.17796814 0.24528566
-0.21197483 -0.17071912 0.14051238 -0.19203536 -0.3002407 0.16653764 -0.13487202 0.19097966
0.077839315 -0.15816225 -0.0103681255 0.10254463 -0.33294383 0.1413777 0.1343192 -0.11718212
0.008916697 0.09950998 -0.10480926 0.18615504 -0.2768512 0.16926028 0.13285455 0.053900566
0.04769893 0.17279884 -0.051822644 0.036987122 -0.29023102 -0.039347924 -0.036202062 0.18771246
-0.15509272 0.004523619 0.19932842 -0.07002825 0.2040417 0.12014552 -0.15517858 0.08309571
0.04274099 -0.11190012 0.15092924 -0.32673305 -0.32872584 -0.18706451 0.31582788 0.010571125
0.07394374 -0.03508751 -0.24628295 0.051462308 0.07124388 -0.12240205 0.112043604 -0.32179126
0.11912535 0.0005548199 -0.14565843 -0.087292485 -0.0058815214 -0.23835993 -0.11875431 -0.115493394
-0.007914292 0.014345957 0.09917916 -0.26845372 0.05271437 -0.002590332 -0.08910658 -0.27309242
-0.032705292 -0.047637597 -0.20078538 -0.08501366 0.010078408 -0.03220443 0.02201709 0.030056423
0.14093508 -0.08660488 -0.050202083 -0.1105664 0.12630215 -0.23229231 0.043615416 0.070837356
-0.22907047 -0.15771163 0.10021406 -0.08880085 0.047344044 -0.1175943 0.11953954 -0.077813506
0.19278823 -0.12655286 -0.23471549 -0.1618954 0.081864044 0.21536711 -0.10989338 0.09245485
-0.09398754 0.029051408 0.13077405 -0.19502302 0.049347345 0.120991245 0.0006716452 0.030255806
-0.2161109 0.024428982 0.1325508 0.19152093 0.14937975 -0.07734568 -0.019280795 -0.1546715
-0.12380101 -0.23080392 0.1391055 0.1971089 0.18805048 -0.31463218 0.30466023 -0.021759603
-0.08539885 0.0015491525 0.11584637 -0.05524536 -0.4386797 0.25318283 -0.046429288 -0.13821138
-0.13901797 0.082061954 0.17867282 -0.20809163 0.0116684 -0.001181069 -0.33789405 0.0015978634
-0.15414934 -0.14565359 -0.09575096 -0.06879024 -0.32159802 0.030058581 -0.25649524 -0.2927487
00000000: 251e 7d3d 07fb eb3c 19de 7fbe c6c5 6dbe
00000010: 0bae 6fbe 35c4 f13c e812 eebd b5e5 2dbe
00000020: 90e0 123e 0330 4dbd ca17 abbe b264 7b3d
00000030: fd25 d63d d9db 713d 977e 62be 8d5f 2ebc
00000040: ea11 ee3d aa73 0fbe bf05 353d 3285 16bc
00000050: edf5 4cbe 2198 60be 93e9 743e 385c 683d
00000060: 89ac 61bd 74b1 40be 6aa8 83be a30e 933d
00000070: 61b7 bd3d bf1f 9dbb 1bf2 63bd b36a 663e
00000080: e642 19be faea bb3d c227 7dbe eb8c 8abd
00000090: 221b 57be 97f1 1fbe 3b8a d2bd 2c4f 5b3e
000000a0: 7b5e 2a3e ed37 38be 0ae0 1b3e e96d 763e
000000b0: 4035 2cbd 4745 98bd a2ab 86bd c835 66be
000000c0: a9d8 513e c3b2 47be b4b5 fbbd 7cd2 15be
000000d0: e937 143c ef42 29be fe9e 69bd 9610 21be
000000e0: 5314 0dbe fd73 84be 02e2 523e 25c1 e4bc
000000f0: b0e5 a2be ca1e 4cbe 3edf 57be 9599 19be
00000100: d839 1ebd 6e71 413c 39e6 af3e 7e5e 06be
00000110: 6e3e 053e 66f7 1abd 2ac6 60be 214d 523c
00000120: 81fc edbd 74b7 ccbe 8b04 fabd 21de ee3d
00000130: b8fd 8bbd 738d 76be a863 6f3d 7742 76be
00000140: 014b 053e 8d0c a6bd 02ea 95be c7ae be3d
00000150: 48ec 09bd 3fd4 67be 6089 91bd 0296 e4bd
00000160: b7d1 653c ef17 04be cd77 94be f537 943e
00000170: 1997 943d d776 743e 24bc 62be 9d95 cf3d
00000180: 6db3 fc3d 7dfb b7be a7c2 dfbe b441 dabd
00000190: 389d 77bd d54c d33d 483d 363e 2a2c 7b3e
000001a0: ee0f 59be fed0 2ebe 7ae2 0f3e eba4 44be
000001b0: 26b9 99be d888 2a3e e41b 0abe 2c90 433e
000001c0: 386a 9f3d 49f5 21be 12df 29bc eb02 d23d
000001d0: 9d77 aabe 51c5 103e f98a 093e 2efd efbd
000001e0: 5717 123c e3cb cb3d 3da6 d6bd 6d9f 3e3e
000001f0: 71bf 8dbe 9152 2d3e 060b 083e d7c6 5c3d
00000200: f45f 433d 2ef2 303e fb43 54bd cf7f 173d
00000210: 2999 94be 4a2b 21bd 9d48 14bd b237 403e
00000220: a0d0 1ebe de3a 943b c01c 4c3e f96a 8fbd
00000230: 4ff0 503e db0e f63d 22e7 1ebe 152e aa3d
00000240: 2d11 2f3d e42b e5bd 328d 1a3e 8e49 a7be
00000250: c14e a8be d78d 3fbe 31b4 a13e 8332 2d3c
00000260: d16f 973d ecb7 0fbd 9931 7cbe 24ca 523d
00000270: 50e8 913d edad fabd 1e77 e53d d3c1 a4be
00000280: fef7 f33d 5571 113a 7c27 15be 67c6 b2bd
00000290: c7b9 c0bb a014 74be 7635 f3bd cd87 ecbd
000002a0: f2aa 01bc 4e0b 6b3c 721e cb3d c472 89be
000002b0: 06eb 573d 8fc2 29bb 837d b6bd c5d2 8bbe
000002c0: fcf5 05bd a41f 43bd af9a 4dbe a41b aebd
000002d0: e81f 253c cbe8 03bd 2f5d b43c e338 f63c
000002e0: 4951 103e e65d b1bd b3a0 4dbd a370 e2bd
000002f0: 5a55 013e 09de 6dbe 14a6 323d 2d13 913d
00000300: 7391 6abe 287f 21be 073d cd3d 38dd b5bd
00000310: d4eb 413d 48d5 f0bd 25d1 f43d b05c 9fbd
00000320: 476a 453e 1397 01be 4259 70be e8c7 25be
00000330: 56a8 a73d 3289 5c3e c80f e1bd f858 bd3d
00000340: 8a7c c0bd 38fd ed3c a2e9 053e 1db4 47be
00000350: 7120 4a3d 42ca f73d 5911 303a 06db f73c
00000360: 2d4c 5dbe 4a1f c83c 66bb 073e 101e 443e
00000370: 01f7 183e 6967 9ebd c2f2 9dbc 3562 1ebe
00000380: 628b fdbd dd57 6cbe ac71 0e3e ead6 493e
00000390: 4e90 403e 7817 a1be 6dfc 9b3e 3241 b2bc
000003a0: 98e5 aebd ef0c cb3a dd40 ed3d f548 62bd
000003b0: a09a e0be 2ea1 813e a32c 3ebd 4987 0dbe
000003c0: ba5a 0ebe 1910 a83d 02f6 363e f915 55be
000003d0: d12c 3f3c 19ce 9aba 7300 adbe 666f d13a
000003e0: 53d9 1dbe 3726 15be 1419 c4bd e6e1 8cbd
000003f0: 7fa8 a4be 6a3d f63c 5853 83be 28e3 95be
