models/BPI17/hoeg/exp_information_leakage/lr=0.01_hidden_dim=24/GraphModule_20230821_12h22m/state_dict_epoch1.pt (torch, 58015 bytes, 33 tensors)

conv1.event__follows__event.lin_rel.weight f4 [24, 27]
00000000: ce46 6dbe 21fd 9fbe d2a0 0bbd a342 19bf
00000010: aa3c 0cbe 6694 633e c2f3 bcbe d34e 673d
00000020: 1de1 1e3d 8bc4 373e 4876 583e 5cc9 5e3e
00000030: 8e5e 7b3e c2bc b13d 4043 a53e 4bde a83e
00000040: 730b 603e 79d3 61bc 957d abbd 7203 e13d
00000050: 2773 703d 141d dd3e 24db a73e a9cd 1c3e
00000060: fc78 213d 3ad1 00bb 88d2 00bb abca fcbe
00000070: 70e1 0abe 8bda 193e f8dc 10bd 9ca7 a6be
00000080: 6b53 c6bd 2eb1 9c3e 1374 ffbe b0a2 62be
00000090: fe5a e13d d2e5 08bf 5b26 bdbe 7b46 85be
000000a0: de7b adbe a1aa 2ebe f75d d0bd 44a5 2bbe
000000b0: 6ed5 1fbe 32fe 2fbe 5436 d23a 3218 7fbe
000000c0: ec51 673f 5414 c13e 9efe 863c a3e5 d33c
000000d0: 3ebc cebe d15d 413e b320 bd3e 6aff 303d
000000e0: 5f10 883d b964 6f3e 0325 1b3e cd51 a5bd
000000f0: 8306 203c 2188 16be 63b8 5b3d d3b5 82bd
00000100: d563 91bc ce5c 7abe 8c97 3ebe 1013 5dbe
00000110: 7795 c2be 8a9d 50be 21a1 9abe 0809 6b3c
00000120: 5ae4 203d 413a 563e 6c2c 773c 23f0 d2bf
00000130: 8f44 1ebe 865b d9bd 8840 87be 2b77 873e
00000140: 1c38 ae3d 0ba5 8cbe 96e5 c0bd 1656 8b3d
00000150: 5901 a9be f9cd bebd d741 6fbe ec3f 7cb9
00000160: 6d14 563e e76a 9e3d c5fb 5f3e 65e1 293e
00000170: ea7f 29be f434 e3bd b2a2 993d e129 4abd
00000180: 0cbc 183e 58b4 933d 0e5c 79bd 2dcc dc3d
00000190: 7408 083d 4cad 77be 32bd a53d 01e3 b7bd
000001a0: c07f a4bc 4005 79be 65a5 abbd cbe5 183c
000001b0: 5f96 803e 749a 053e 41e6 c4bd 072e 3d3c
000001c0: c79f 573e dd1e 2d3e 5d3a 7e3e bfde 923b
000001d0: d19b 9c3d 49a4 2e3e 3390 1cbe 7bd5 e4bd
000001e0: 60dd b9be cc9e a7bd 8910 bbbd f319 d2bd
000001f0: 2a80 6bbe 711d 38be 8d8d 15bd 1310 473e
00000200: 1bd1 0cbe 8a6e debf f8ab 9cbe 3c20 eebd
00000210: b4cf a0be b773 bd3e 9347 c0be 4b09 a3be
00000220: 134e bbbc f37d 3dbe b6e8 ddbe 8553 19bd
00000230: 9559 383e 59b2 99bd fc47 4b3d a3ed f8bc
00000240: 2b28 2bbe 73f4 a5bd ccde b53d ea28 e53d
00000250: 1a89 90bd 7166 37bd 910d 343e 4f0c 42bd
00000260: 7bf3 883d 414f 0ebd 7d94 78be ba5d 513d
00000270: 24b0 9f3f e9ca f93d d916 7d3e 2d6d d03e
00000280: 3103 d2bb 5c6b 19be f9f0 61bd a1b2 f4bc
00000290: 62c1 413d a562 8c3d 10c6 183e 1aaf c5bc
000002a0: 6546 24bd d326 983d 3158 75be 8f8c 00bf
000002b0: 76ed 4ebd 740e 87bd c04c 8dbe 1161 65be
000002c0: 9fb2 69be b84e 39bd 9fa1 153d f69b 243e
000002d0: fdc2 f1bd 6de2 d5bd 5df7 a13d 7dde 09bf
000002e0: e08e a9bb a3d0 b2bc 6433 473e 1ca5 083e
000002f0: c475 babc 069e cfbe 2493 debd 95b0 cabe
00000300: 8c66 43be 7392 d4bd f240 ef3d 9d40 c7be
00000310: 68d9 6dbc 3543 91bd 2ad4 793e fd1e 21bd
00000320: 0a6c 0abd 6cf4 c13d 79fb 69be d739 b5bd
00000330: deb3 2d3e 8aa1 413d 75cd d83b 305b dfbd
00000340: f167 a3be 7b81 34bc 3db1 323f 20c9 933e
00000350: 30cf 8c3e 2b25 4f3e f4f8 82be 7d58 6b3c
00000360: bc09 45be 8437 34be 5587 01be a24a 05bf
00000370: 2613 c5be 4d0d 42be e1e3 9abe 645e 2a3e
00000380: 15ee 91bb 1411 4e3a 9940 0e3d 2856 c8bd
00000390: db8f 67be b909 9abe a755 e63b 9db2 113e
000003a0: e96b 033d e2f9 233d 153a 65be e707 c7bc
000003b0: e3c7 81bd 7d23 6cbe df9a d8bc 3698 a3bd
000003c0: 75f2 febd 47da c9be 8dea 42be c33a 233e
000003d0: e60a 54be 0591 47be a84d f9bd 8391 773d
000003e0: aa80 0ebd a896 0e3e 488c fa3d de49 833d
000003f0: 2603 803c 9bd5 95bc 9848 40bd 28cb cebc
-0.23171541 -0.3124781 -0.034088917 -0.59867305 -0.13695017 0.22224578 -0.36904722 0.056471657
0.038788904 0.17946069 0.2113887 0.217565 0.24547789 0.08678581 0.3227787 0.32982096
0.21879368 -0.013783329 -0.08373562 0.10986985 0.058703568 0.43186247 0.3278438 0.15312828
0.03942202 -0.0019655959 -0.0019656736 -0.49373373 -0.1356256 0.15024774 -0.035366982 -0.3254975
-0.096838795 0.30603927 -0.49893245 -0.22132373 0.110036835 -0.5347568 -0.36943325 -0.26030335
-0.33883566 -0.17057277 -0.10174172 -0.16762263 -0.1560876 -0.17186812 0.001603792 -0.24911574
0.9035938 0.37710822 0.016478833 0.025866335 -0.40377992 0.18883444 0.3693901 0.04321233
0.066437475 0.23378266 0.15150838 -0.08072243 0.0097671775 -0.14700367 0.05364264 -0.063823365
-0.017747799 -0.24449465 -0.18612498 -0.21589303 -0.38004658 -0.20372596 -0.30201057 0.014345415
0.039280273 0.2092066 0.015086275 -1.6479534 -0.1545584 -0.1061316 -0.2641642 0.26458105
0.08506796 -0.27469668 -0.0941879 0.06803529 -0.3300884 -0.0931663 -0.2336496 -0.00024056406
0.2090623 0.07735234 0.21873386 0.16589887 -0.16552702 -0.110940844 0.07501735 -0.049356345
0.14915484 0.07212132 -0.060878806 0.10781131 0.033211187 -0.24187201 0.08092727 -0.089788444
-0.020080447 -0.24318409 -0.08381156 0.009332131 0.25114724 0.130472 -0.0961423 0.011546618
0.21057044 0.16906305 0.24826951 0.00448212 0.07646907 0.17054857 -0.15289383 -0.11173531
-0.36301708 -0.08184585 -0.09134013 -0.10258856 -0.2299811 -0.17979981 -0.036511946 0.19439726
-0.13751642 -1.7377484 -0.30599952 -0.11627242 -0.31408465 0.37002346 -0.37554607 -0.31843027
-0.022864377 -0.18505077 -0.43341607 -0.037433166 0.18002923 -0.0750472 0.049629197 -0.030386752
-0.16714542 -0.081032656 0.08880386 0.11189444 -0.070574 -0.04477543 0.175833 -0.04737502
0.06687065 -0.03474355 -0.24275394 0.051114775 1.2475629 0.12196905 0.24715747 0.40708295
-0.006409072 -0.1498236 -0.05516145 -0.029870333 0.047303565 0.068547525 0.14919305 -0.024131346
-0.040106196 0.0742928 -0.23959424 -0.50214475 -0.05051943 -0.065945536 -0.27597618 -0.22400309
-0.22822045 -0.045241088 0.036531087 0.1607512 -0.11804769 -0.10443578 0.07908509 -0.53855115
-0.0051745027 -0.021828001 0.19453198 0.13344234 -0.022761233 -0.4055025 -0.108679086 -0.39587846
-0.19082087 -0.103794955 0.11682309 -0.38916484 -0.014517166 -0.07092897 0.2439734 -0.039336193
-0.03379444 0.09470448 -0.22849835 -0.08848923 0.16963145 0.047273196 0.0066162893 -0.109060645
-0.31915238 -0.011017199 0.69801694 0.28864384 0.27501822 0.20229022 -0.2558056 0.014364359
-0.19241995 -0.17599303 -0.12649281 -0.52067006 -0.38491172 -0.18950386 -0.30251983 0.1663757
-0.0044534304 0.0007860821 0.034729574 -0.09782058 -0.2261347 -0.30085543 0.0070292535 0.14228292
0.032085333 0.04003323 -0.22385438 -0.02429576 -0.063369535 -0.23060413 -0.026441036 -0.07988016
-0.12448589 -0.39424345 -0.19034787 0.15940385 -0.20707282 -0.19488914 -0.12173015 0.060441505
-0.034790672 0.13924658 0.12233788 0.064105734 0.015626501 -0.018290332 -0.04694423 -0.025243357

conv1.event__follows__event.lin_rel.bias f4 [24]
00000000: ce17 abbb 33ee 87be d15b 1f3e a9c0 cebd
00000010: 2e20 0b3c ce57 eabc b578 1a3e 27b9 5dbc
00000020: 1a15 02be a1a2 95bd d1c4 9e3c 12d1 58bd
00000030: bb69 4d3d 9795 5ebe 17cb 97bd d7c7 0abc
00000040: 1c47 57be c4e5 d7bc 7983 48be 3b22 bcbd
00000050: 5a38 0b3d 326f 873d 5cd9 e8bb a8f1 f5bd
-0.0052213436 -0.2654892 0.15562369 -0.10095341 0.008491559 -0.028606322 0.15085109 -0.013532913
-0.12703362 -0.073064096 0.019380959 -0.05293376 0.05014966 -0.21736751 -0.07411783 -0.008470497
-0.2102322 -0.026354678 -0.19581403 -0.091862164 0.033989288 0.06613006 -0.0071059894 -0.12008983

conv1.event__follows__event.lin_root.weight f4 [24, 27]
00000000: f7e8 0dbf e136 56be d7d0 a3be ae82 1bbf
00000010: 64ee 5abe 39cc d8bd 635e c0be 4ba6 fcbd
00000020: 34d5 92bd da99 89bb 4522 053e ad99 a03d
00000030: a922 4dbe e1e8 91bd df8d 323e 2ad5 6a3c
00000040: 0494 3c3d 55e3 9fbd dfd0 103d 629d 8bbd
00000050: fedc adbe fb88 e43e ed39 8c3e 7a66 043e
00000060: 6072 3c3d a085 b6be d178 91be 393b dbbc
00000070: 050c 35bd ebf8 c63c f37f 543e 8537 42be
00000080: 133b 873e ce6e a3be 1a90 1cbb 8b16 5bbe
00000090: 1ed2 113e 6bb3 0cbf c40c 14bf a7da 02bf
000000a0: e641 8fbe 59be b0be effe 13be 4c7c 0fbd
000000b0: 30e4 8dbe 43a1 c8bd c0ab 2dbe f390 a8be
000000c0: e39a c53f 8054 d03e 96c1 9fbe ec79 953e
000000d0: 178d 0bbf 1ff4 3b3f 6e58 9c3e 06c1 193e
000000e0: a7ba 693e 6bb7 a03e cd94 b83e 6d65 e13d
000000f0: f735 8d3e acb5 76bd b763 6b3d 29f2 3b3e
00000100: bbc5 523c 6c33 fc3c f5a5 bdbd 559a 4cbe
00000110: 07a1 9d3d 17d4 093d d9a6 11be 1988 55bd
00000120: a084 163d d020 fc3d d0f0 0fbd d974 cbbf
00000130: fd3b 293e 6138 f8bc b80d 513e c2d8 273e
00000140: 3878 2e3e d668 36be 63be 2cbe 2be0 4fbe
00000150: 8760 55be e51b c3be 6415 5ebe d837 94be
00000160: 7a83 5f3d 3357 9e3d be8f 72bd 1475 cabd
00000170: 9232 9d3b 0de3 7a3d 60e5 c7bc a0f0 28be
00000180: 7069 883d 014e 8f3d f44d 373d dbf3 c83c
00000190: 22d5 f3bc 3b92 8abe 61c8 863e 4702 a9bd
000001a0: 5866 073d b8e4 af3c 28fa 8bbe b3df 273d
000001b0: 1940 a43e 89e6 c53d 450a 973c 0d9e c13e
000001c0: 2f25 853e 14a7 643e 693f b73e ec45 923e
000001d0: 4c90 9f3e 54cb 7d3e f0c6 ccbd 12ff ff3d
000001e0: b497 1abe ed46 f3be a5f4 16be 0df1 1cbe
000001f0: 231b 45be 619a 343e eecd fb3c ab29 253e
00000200: 2cc5 a83d cca4 fcbf 5ab8 35be 18cd f93d
00000210: b5d7 27be 5786 0b3f 94ce 8abd d50c 2bbf
00000220: 8485 0bbe 5b61 dcb9 878b a7be 37c8 09bf
00000230: 7fb8 f5bd 2299 513d 541d 213d 2d43 803b
00000240: e6d4 00bf cbb3 8fbe ef61 61be 1283 0abe
00000250: 6aff 6c3e 0a9f ba3d d48b 593e df1f 9b3d
00000260: 61b7 0dbe 7312 e7bd 6d96 e8bd 5a3e c4be
00000270: d439 c73f 05b6 9cbb 2531 d23c 4a87 303e
00000280: cda1 d9be da4a 9fbc f176 773e f37a 02be
00000290: 8c5b 043e 985d cd3d 2314 083f 9d87 40be
000002a0: f90d 8c3e 8a75 85be 62d2 2ebd 8f22 29be
000002b0: a87e 023e 5caa 05be 47a2 3fbe 8e34 b43c
000002c0: ed3a e33d 3cf4 94bd 7d5c 02be b978 f1bd
000002d0: c2f6 193e a469 b8bc 33b0 253e 54bc 09bf
000002e0: 0cce bb3c ca10 d43e d473 1abe a36e c83c
000002f0: ed9e 76be 337b 06bf 7fa6 37be 1edd a8be
00000300: 70c8 82be 962b bdbe ff16 1cbe 3c74 a6be
00000310: c65e 03be a914 3bbe df7f afbd bdd2 9abe
00000320: b4fc 143c 3b98 80be 9284 023e b463 12bd
00000330: c1f1 9c3c cf2d 33be 8020 99be 832b 12be
00000340: 08c1 11be 2770 96bd cae6 843f f184 ae3e
00000350: ff34 2abd 0c6f 043e aff6 0fbf 7c90 3dbe
00000360: be6f 41be 03e9 aebe b4a0 25be 2a30 84be
00000370: 14bd d5be d456 cfbd 8e0a 46be cb62 f03d
00000380: 764b 63be d654 94be 470e 43be c834 b93d
00000390: c22c a1be 4043 123d a4c2 91be 6d77 a73d
000003a0: 674c dbbd 097b 63bd c55f a2be 6060 5ebe
000003b0: d315 62be e664 edbe e42b 0f3d 5034 a5bd
000003c0: 11d1 5f3c 1997 edbd b351 393d cd81 2bbe
000003d0: 1cf6 2abe 524c 26be 1502 5cbe 2901 78be
000003e0: fb56 52be 28e9 6bbe e06a 5a3e e1b4 503e
000003f0: 621b 51be c0e9 c83d c947 31be d282 b23d
-0.554336 -0.20919372 -0.3199527 -0.60746276 -0.21380001 -0.105858274 -0.3757201 -0.12336405
-0.071695715 -0.0041992487 0.13001354 0.07841811 -0.20032753 -0.07124496 0.17436932 0.014333049
0.046039596 -0.07807032 0.035355445 -0.06817128 -0.33957666 0.44635758 0.27387944 0.12929717
0.046007514 -0.35648823 -0.28412488 -0.026761638 -0.044200916 0.024288615 0.20751934 -0.18966492
0.26412258 -0.31920475 -0.0023889602 -0.21395318 0.1424031 -0.5496127 -0.5783198 -0.51114887
-0.27979964 -0.34520224 -0.14452718 -0.035030648 -0.27713156 -0.09796383 -0.16960049 -0.32923087
1.5437893 0.40689468 -0.31202382 0.29194582 -0.5451216 0.73419374 0.30536216 0.15015039
0.22825108 0.31389937 0.36051026 0.110056736 0.27580234 -0.06023185 0.057468142 0.18354096
0.012864525 0.030786239 -0.092601694 -0.19980748 0.07696729 0.03364953 -0.14223804 -0.052131746
0.036747575 0.12310946 -0.035141766 -1.5895034 0.1652679 -0.030300321 0.2041539 0.1639128
0.17038047 -0.17813429 -0.16869502 -0.20300357 -0.20837604 -0.3810722 -0.21687847 -0.28948855
0.054568745 0.07731476 -0.059219114 -0.09885612 0.004797288 0.06125169 -0.024401367 -0.16498041
0.066607356 0.069973 0.044752076 0.024530342 -0.029764716 -0.2706469 0.26324752 -0.082523875
0.033056587 0.021471366 -0.27339292 0.04098482 0.32080153 0.09663112 0.018437514 0.37815896
0.2600493 0.2232936 0.35790566 0.2856897 0.31164777 0.24784595 -0.09998882 0.12499823
-0.15096933 -0.4751505 -0.14741762 -0.15326329 -0.19248633 0.17637016 0.030737843 0.16129176
0.082407326 -1.9737792 -0.17746106 0.12197322 -0.1639088 0.5450186 -0.06777683 -0.66816455
-0.13625151 -0.00042034205 -0.32723638 -0.5382113 -0.119980805 0.05117143 0.03933461 0.003914258
-0.5032486 -0.2806686 -0.22010015 -0.13526562 0.23144308 0.091123655 0.21244746 0.07574438
-0.13839485 -0.11282816 -0.113568164 -0.3832882 1.5564523 -0.0047824406 0.0256582 0.17239109
-0.42506257 -0.019444872 0.24166466 -0.12742214 0.12925547 0.10027617 0.53155726 -0.18801732
0.2735441 -0.26066238 -0.042681105 -0.1651709 0.12743628 -0.13053268 -0.18714248 0.021997716
0.110952236 -0.072731465 -0.12730594 -0.11790604 0.15035537 -0.02251131 0.16180496 -0.5380299
0.0229254 0.4141906 -0.15083247 0.024466818 -0.24084063 -0.5253174 -0.17934607 -0.329812
-0.25543547 -0.36947316 -0.15243147 -0.32510555 -0.12829122 -0.182696 -0.08569311 -0.30238906
0.009093452 -0.25116143 0.12745884 -0.035739616 0.019158246 -0.17497943 -0.29907608 -0.14274411
-0.14233792 -0.0734561 1.0382931 0.340858 -0.041554447 0.12932986 -0.56235784 -0.18512148
-0.18890283 -0.3416215 -0.16174585 -0.25817996 -0.41745818 -0.10123983 -0.19339964 0.11737593
-0.22196755 -0.28970975 -0.19048415 0.0904327 -0.3147946 0.035708666 -0.28468812 0.081770755
-0.10707932 -0.055537257 -0.3171369 -0.21716452 -0.22078638 -0.46366042 0.034953967 -0.080666184
0.013660685 -0.11601085 0.04524393 -0.16748734 -0.16695446 -0.16240051 -0.21485169 -0.24219193
-0.20540993 -0.23038161 0.21329832 0.203815 -0.20420602 0.09810209 -0.1731254 0.08716358

conv1.event__interacts__application.lin_rel.weight f4 [24, 27]
00000000: 580c 2d3d e65e 0b3e 5a29 02be c3df f93d
00000010: d654 d23b 450c 943d e559 923d 3f18 413d
00000020: 57c2 87be 8eb2 203d 57d2 0a3f 1111 9f3e
00000030: 78d6 ba3e 4f66 f2bc 3234 043f 806e 133f
00000040: 4e89 bf3e 9020 e33d 4cb8 713e 68d3 80bd
00000050: 1d65 c13d e008 71bf 2d4a a7be fa1c ce3e
00000060: 83e9 e33d 139f 113e c53e c3be 3f89 e3bd
00000070: 538f d13b 6eb6 8dbd ae43 3bbe 8943 46bc
00000080: 6066 8abc 160a 333d e62e bebd 3917 febd
00000090: 2a6c 913d 3795 bebd b30a bcbd a055 67bd
000000a0: 9191 b7bc 73df 9abe 3bd1 9cbe 5332 f5bd
000000b0: bb1e ee3c 53e7 69be d7dd adbb ccfc 1dbe
000000c0: ccb0 b93e 7294 c33d 1cad e53c 70cd 063e
000000d0: 9e2b 5f3d 6a83 873e d694 253e d847 a4be
000000e0: 454c 0a3e 8db6 ecbd 1bd6 d83d 6919 83bd
000000f0: 9b2e 693d 11f5 863d 4a74 663e 978d f43c
00000100: c64d 03be 1531 883d fc25 77be 35d5 e5bc
00000110: 0b06 bdbd 444a 9abe 2550 bcbd c0db 02be
00000120: a187 00be aac0 77be 4093 4bbb 3797 793f
00000130: bbab 9f3e 13bf 16be f0c8 2bbc 45c1 323e
00000140: fcc0 0e3e 479f c0bd 2e36 8abe df7a 9cbc
00000150: 7973 ccbd 6e2e f2bd c24c c13d 5823 ccbd
00000160: 16e2 093e 135a 04be 82ff e8bd 798f 1d3e
00000170: 89e7 f2bd f70d 76be 2c09 98be 34ad 113e
00000180: 4f26 c4bd bee5 273c c10f f9bd b48c 85bd
00000190: fb4b 023d 8537 4cbe 6e71 113f 33d4 5c3e
000001a0: 6e13 f1bd 3d38 19be 4b42 1bbd fe61 e23d
000001b0: 3ca0 f8bd 1227 483d 3ee4 95bd 116e b0bd
000001c0: f71d 953d efd5 f2bb 93e6 b53c 68d4 68be
000001d0: b682 7e3e 1b27 2abe 4702 97bd 7a5a 59be
000001e0: c06e 953c 2707 753e 954e cbbd f8fa 4fbe
000001f0: 6a2c 6ebe 60c4 d03d a1aa cbbd cac5 d73c
00000200: 0409 e33d f139 71be 48f5 0ebe 4412 c2bb
00000210: dbe8 1dbd d6e7 ffbd b5ec 193e 5ba7 f53d
00000220: d0ae 773d a655 ec3d 117c 4ebd 8a73 063e
00000230: 11b0 58bd 666a 013e d673 d1bd 90cb 67bc
00000240: 2bc6 963a c234 d3bb 3362 20be a82a 3f3c
00000250: be9f 333e 49dc bf3d 87e5 24be 888c 80be
00000260: 5f0b 42bc 9ae7 4cbe f5fb 9abd bdf9 b7bd
00000270: b8eb 63be 792a 81be 5554 6b3d 16f6 913d
00000280: 02aa b3bd 300a 493e 7d64 8abd bacd 7d3d
00000290: ce0d 663d 3626 0abe d288 af3d 9753 4bbe
000002a0: 4398 15be 7d61 da3a 5e3a 83be fefa 1bbd
000002b0: 9270 033e 5462 543e bd9f 23bc ad3f 46be
000002c0: 6e68 ef3d eee5 243e 15ca ecbd a5da 59bd
000002d0: 6207 0fbd 8bed 00be a6a0 1cbe 5486 27bd
000002e0: 2706 163e 2fc8 253d 3046 79bc 71c1 d2bc
000002f0: c566 3fbe 9ecd 5b3c b414 533e e357 2cbe
00000300: e101 173d 69bf 393e 7909 e1bd 2b15 66bb
00000310: c4b0 3cbe 01be d0bd 515a 1fbe b53a 943e
00000320: 7426 143e 7ab6 d73d 98ee 3dbe 499e 943e
00000330: 8c25 763e 8b97 833d ce43 a83d 6e91 1fbe
00000340: 133d 4c3e dd38 243e bdf6 12bf ef3f 99bd
00000350: 1a08 503e eeaf 4ebd 9857 353e 75fe 7bbe
00000360: 1dd0 0bbe bc1a b9bd bd50 2d3e 639a 85bd
00000370: ba81 153c 6a1e c6bb 13ad 56bd 9be3 e63d
00000380: 9a68 063e 7da8 1c3d 693d bebe 3578 0cbd
00000390: 2c10 bbbe 4886 2a3e 03b4 b3be 862f a9be
000003a0: e2f3 dbbd 514b 75bd c9f6 3dbe 2831 683c
000003b0: 2292 123e 811a c43f 3712 a23e adf9 4bbe
000003c0: 36e5 c6bd 4ae8 9cbd 2e6f ff3e 6173 fcbd
000003d0: ab34 c43e ec3b 18bd adb7 533e dc24 8d3d
000003e0: 0f79 a33b 525a 78bd ebf4 8a3d a7b9 e13d
000003f0: 53b2 2f3e e7bf e13e 75df 2abd 8375 6c3e
0.0422481 0.1361042 -0.12711087 0.12200882 0.0064188046 0.07228903 0.07146052 0.047142264
-0.26515457 0.039232783 0.54227203 0.31067708 0.36491752 -0.0295898 0.51642144 0.57590485
0.37409443 0.11090195 0.2360546 -0.062903225 0.09443114 -0.9415417 -0.3267378 0.40256482
0.11128523 0.14220838 -0.38133827 -0.11110162 0.0063952594 -0.06919561 -0.18287537 -0.012101063
-0.01689452 0.04371079 -0.09286289 -0.12406773 0.07100709 -0.09305804 -0.09181728 -0.056478143
-0.022408279 -0.30248603 -0.3062838 -0.11972489 0.029067388 -0.2284215 -0.0053059864 -0.15428466
0.36267698 0.09549798 0.028036647 0.13164306 0.054484956 0.26467448 0.16170058 -0.32086062
0.13505657 -0.11558256 0.105877124 -0.06401331 0.056929212 0.065897115 0.22505298 0.029852672
-0.12822637 0.06649987 -0.24135584 -0.028055767 -0.09229668 -0.30134785 -0.09194974 -0.1277914
-0.12551738 -0.2419459 -0.003106311 0.9749636 0.31185707 -0.14721327 -0.010484919 0.17456539
0.13940805 -0.0940538 -0.2699446 -0.019101558 -0.09982962 -0.11825262 0.094384685 -0.09967679
0.13465151 -0.12924986 -0.11376859 0.15386762 -0.11860568 -0.24028765 -0.29694498 0.14226228
-0.09577619 0.010247646 -0.12161208 -0.065209776 0.031810742 -0.19943054 0.56813705 0.21565323
-0.11771284 -0.1496286 -0.03790502 0.11053847 -0.12139937 0.048865385 -0.07318924 -0.086147435
0.07281106 -0.007410757 0.022204673 -0.22737277 0.2485455 -0.1661648 -0.07373481 -0.2122592
0.018241286 0.2392851 -0.09927098 -0.2031058 -0.2325913 0.101937056 -0.09944654 0.02633943
0.11085704 -0.23557259 -0.13960755 -0.0059225876 -0.038552146 -0.12495391 0.15031703 0.11994811
0.06046945 0.11539774 -0.050411288 0.13130012 -0.052902285 0.12638244 -0.10227172 -0.014147654
0.001150315 -0.006445498 -0.1566246 0.011667885 0.17541406 0.09368188 -0.16103183 -0.25107217
-0.011843531 -0.20010224 -0.07567588 -0.08983181 -0.22257888 -0.25227717 0.057453472 0.07127015
-0.08772661 0.19632792 -0.06757448 0.061963774 0.05616551 -0.13491139 0.08571018 -0.19856106
-0.14608864 0.0016661134 -0.25630468 -0.03808116 0.12835911 0.20740634 -0.009986815 -0.19360228
0.1168984 0.16103336 -0.115619816 -0.05318703 -0.03491915 -0.12590615 -0.15295658 -0.04089959
0.14650784 0.040474113 -0.015214488 -0.025727006 -0.18691547 0.013415722 0.20613366 -0.16830401
0.036867026 0.18139423 -0.10988135 -0.0035107832 -0.18426806 -0.1019249 -0.15561797 0.2895104
0.14467794 0.105328515 -0.18548048 0.29027012 0.2403776 0.06425389 0.08216058 -0.15582821
0.19945173 0.16037317 -0.5740774 -0.074828975 0.2031559 -0.05046075 0.17709196 -0.24608786
-0.13653608 -0.09038302 0.1692533 -0.065235876 0.0091251675 -0.006046106 -0.05241115 0.11273881
0.1312584 0.03824662 -0.37156227 -0.034294326 -0.36535776 0.16652787 -0.35098276 -0.3304407
-0.10739876 -0.05988628 -0.18551172 0.014171876 0.14313558 1.5320588 0.31654522 -0.19919463
-0.09711687 -0.07661493 0.4988951 -0.12326694 0.38321432 -0.03716652 0.20675536 0.06891796
0.0049887965 -0.06063301 0.06784996 0.110217385 0.17157869 0.44091722 -0.04171701 0.23091702

conv1.event__interacts__application.lin_rel.bias f4 [24]
00000000: 95dd f1bd 6d16 143e c6af 1d3c 5bb5 81bd
00000010: a246 2cbe 04ee f8bc acf6 b1bd 5339 7dbe
00000020: 8709 77bc d3fc 5a3d 072f 11ba ed3c c2bd
00000030: 106a 2ebd f2b7 c03c 7832 9fbc 00fb d63d
00000040: e1e3 2abd 419d bc3d 8696 a23d 9854 c53d
00000050: 4bbf 193e 3410 5fbd a940 943e bff6 533e
-0.118098415 0.1446168 0.009624427 -0.06333419 -0.1682382 -0.030386932 -0.08689627 -0.24728899
-0.015077955 0.05346377 -0.00055383187 -0.09484277 -0.042581618 0.023525212 -0.019433245 0.10497093
-0.04172123 0.09209681 0.07938866 0.096352756 0.15014379 -0.054458812 0.28955582 0.20699595

conv1.event__interacts__application.lin_root.weight f4 [24, 3]
00000000: ea26 99be 4fe8 5cbe ccf6 d5be 7bd6 cabd
00000010: bc2f 91be 4404 f2be 0a3e 433e ef37 083f
00000020: dc80 983c 9001 6e3d ec81 c7be 90ca ddbd
00000030: 74fd 34bd 214d bf3e b236 a73e ff5a 89bc
00000040: b87e a0bd 61f0 74be 0936 993e f4ae 893e
00000050: a30b a7be 4b86 0fbe 97cb 0abd 9707 bcbe
00000060: 4aa1 9d3e 16e4 f93e fcf6 be3d 388c f7bd
00000070: e7e2 82bd 98b6 fcbc 19eb a2be 2bd7 16bf
00000080: d093 08bf fe89 983e cf1e aa3e 1435 463e
00000090: 25b2 c13e ed0a 8a3e 097e c63e b206 84be
000000a0: 99b6 063e de00 d53e e072 b93d 59a2 5e3d
000000b0: 93b8 023f 4d22 913e 9f8c 803e ee1b b7be
000000c0: cecc b2bc 5460 393e be54 203e 95aa b63e
000000d0: a90e 013e 4e82 3d3e 0832 97bd 5718 f03e
000000e0: dc54 cf3e 2f28 f1be e87c 68bd bdbe cfbd
000000f0: ffc7 a13c 40f8 243e cbb1 a83e eb42 833e
00000100: 50c0 8c3e 718a 653e d2b7 203f f217 8b3e
00000110: 2950 1b3f e19e a7bd fde5 ccbe 976a dfbe
-0.29912502 -0.21572994 -0.41789854 -0.0990419 -0.2835673 -0.4726888 0.19066635 0.5321035
0.018616132 0.05810696 -0.3896631 -0.10829651 -0.044187024 0.37363532 0.32658917 -0.016767023
-0.0783667 -0.23919822 0.29924038 0.2689129 -0.32626066 -0.14016072 -0.033885565 -0.3672454
0.30787116 0.48806828 0.09324452 -0.120872915 -0.063909344 -0.030848786 -0.3181999 -0.5892207
-0.53350544 0.2979278 0.3322663 0.19356185 0.37831226 0.2696146 0.38768032 -0.25786358
0.13155593 0.41602224 0.09055114 0.054354046 0.5106289 0.28346482 0.25107285 -0.35763496
-0.021826174 0.18103153 0.15657327 0.3567702 0.12603249 0.18506739 -0.073825896 0.4689357
0.4049443 -0.4710097 -0.056759745 -0.10143802 0.019748686 0.16110325 0.32948145 0.25636992
0.27490473 0.22416092 0.6278049 0.27166706 0.6066919 -0.081846006 -0.40019217 -0.4363601

conv1.event__interacts__offer.lin_rel.weight f4 [24, 27]
00000000: 3e8e 953d 7fd3 263d 98bf 70be e23f 10be
00000010: 616d 34be 5119 853c de5d 7cbe d203 1d3e
00000020: 74fe 03be 60f6 b2bd 0e70 b3bd 1232 8c3d
00000030: 06c5 32bd 7a1d 063d 8c76 e3bd dc9a 4ebe
00000040: 5628 0dbd f209 28be 4730 91bd 3e93 d13d
00000050: 55f6 5dbd deb9 d7be d5f9 ddbd d45c 73be
00000060: 95c5 403d 3179 33bd 901c 02be 3c72 cf3d
00000070: b773 eebb f26e 45be e569 033e ba05 113e
00000080: 617d 203e bae8 d6bc 6827 72bd 0532 32bd
00000090: aeca 0fbe 9901 ab3e 8074 1b3e 7605 293e
000000a0: 3ccc dabd fbac 193c a489 0c3e 0259 963e
000000b0: c0e0 0a3e 0c46 ac3b 9af1 3dbe a6f5 973d
000000c0: a423 f4be c981 2cbe e4f2 7fbe 4d35 853d
000000d0: 3e45 24bd b7d7 7cbe f737 1fbe 7144 68be
000000e0: 642e 503d e684 d33b 60ee 5c3e 36b6 9f3d
000000f0: 0c6a 503d fee0 a2be b472 203e ad32 ce3b
00000100: 3c87 a1bd c459 663d 8a3a 3b3c 3b7d c1be
00000110: 608d 4fbe 9192 30be a5f9 4cbf 9d9d 74bd
00000120: 573d d2bd c7a0 25be 26f3 c3bd c56f ff3f
00000130: 932f b93f 76e1 863e 5467 1fbc f5f3 303d
00000140: 0b06 273f a17b 3fbd 9c45 573d a29b 2a3e
00000150: e8c6 c7bc b935 c7bd cc2f acbd ef4e 2c3e
00000160: 1bc4 373d 189e 133e d510 883d 1ec8 34bd
00000170: 49c0 40bd 06a4 12bd e7ee 10be a065 11be
00000180: ef3f bc3d 07c0 02bd f8be 523e aa6a bd3d
00000190: ae9b 15be f664 a63d 5f21 b43e 071e 5b3e
000001a0: 8326 80bd 970f 05be 33b2 0d3e 43f0 853b
000001b0: d1e1 65be 26fb 46bd 078a acbc 26f7 2b3d
000001c0: 3995 ea3c 2f4d 8e3e a97b 843d 08e4 c6be
000001d0: dd8b e33e 45cb 7a3e b2b4 81be 9cc5 8cbe
000001e0: b01c dabe 701e 063f 5ec0 68be ea07 9d3d
000001f0: dddd a8bf 476f 0b3d 510a 2bbe 0ac8 36be
00000200: dc7a 8c3c cf5b 9d3f e0a2 793f 1140 a53d
00000210: 99c8 ccbb 0907 90be 1b2d 9f3e 0a01 913d
00000220: acd9 023e f14c ba3d 4016 3abe 59a3 71bd
00000230: 5881 0ebe 1c78 0e3d d273 073d e6c2 42bc
00000240: db3e 14be 1547 e03c b5df 103d d6d4 903c
00000250: 935b 693c 3861 8fbd 3d91 6a3d 47ae a2bd
00000260: d7b5 1ebe b47c adbd 8ed8 c53d e9d2 103e
00000270: daab d43c e9e4 53bd 1373 5fbe 0f7b 36be
00000280: cca1 72bd 2e62 02be bd2f 853e 65ee b83e
00000290: 48b6 a13e a878 6a3e 67ee 273e feed d0bd
000002a0: 7487 e13d d0bf f03e a8a8 c23d bdf4 afbd
000002b0: 6cf2 8e3e a7bc a2bd dc0c 20be 0e6f 103f
000002c0: 9a71 a03e b2f3 b53d 0871 0c3f ce26 293d
000002d0: b1f4 7b3e 0318 8d3e cb89 a13e 1a01 d3bf
000002e0: a67b 63bf 03ba 223e e755 ad3d 4af1 8c3e
000002f0: 4ac9 b4be 769b 1cbe 37be 44be 37fa 8d3d
00000300: e383 b3bb d054 903d c1a1 6d3d deee f7bd
00000310: 13ac 453d 34ed 4e3c 2b3d abbd 0c2b e03d
00000320: eb31 393e a5c3 2ebc 0f62 983d bc78 04be
00000330: a488 3a3e 30ae 77be d440 02be 419a 57be
00000340: fc5f 32bc 8f45 023e 9d8c b53d e657 ae3e
00000350: e273 ad3d 3ff6 5bbd e979 13be 776b 2dbe
00000360: 19f9 29be 6ed6 02be 0701 7abc cb5b b73d
00000370: b08f 1ebe 509d 67bd f243 073e 3009 29be
00000380: c563 10be 8f14 b23d 11a8 d2bc ae34 13bd
00000390: 67b7 3cbe 8b77 b83d 5300 23be 6840 11be
000003a0: 8ba4 68bd 7c5c 2bbe 7dd0 e03c 5352 af3d
000003b0: 5010 10be 69b5 953d 63bc 22be 2429 28be
000003c0: fdcb a9bc d034 1d3d cfaf e03e be9e 2c3d
000003d0: 91c6 ac3d f1d6 3bbe a1f2 e5bc c095 89be
000003e0: 9222 543d 9422 05be a47f 64be 2e2b 083d
000003f0: 586b 92bd d052 92be f474 963d af26 88be
0.07302521 0.040729042 -0.23510587 -0.1408687 -0.1761985 0.016247423 -0.24645182 0.15333489
-0.12890035 -0.087383986 -0.08761607 0.06845488 -0.043644927 0.032742955 -0.111065954 -0.20176262
-0.034462295 -0.16410044 -0.07089286 0.10233162 -0.05419 -0.42133993 -0.10838667 -0.2376588
0.04706343 -0.04381675 -0.12706208 0.1012921 -0.007276978 -0.19280604 0.12833364 0.14162341
0.15672828 -0.02623402 -0.059119612 -0.043504734 -0.1404216 0.33399656 0.1518116 0.1650599
-0.10683486 0.009379621 0.1372438 0.29364783 0.13562298 0.0052573737 -0.18549195 0.074199006
-0.47683442 -0.16846384 -0.24994999 0.06504307 -0.040105097 -0.24691664 -0.15548693 -0.22682358
0.05082549 0.0064550517 0.21575308 0.07798426 0.050882384 -0.3181228 0.15668756 0.006292662
-0.07887122 0.05623795 0.011427531 -0.37790856 -0.20268774 -0.1724341 -0.8006843 -0.059720624
-0.10265606 -0.16174613 -0.09567861 1.9955984 1.4467643 0.26343888 -0.009729225 0.043201406
0.65243596 -0.04674876 0.05255662 0.16660932 -0.024386838 -0.09727044 -0.08407554 0.16826986
0.044864755 0.14415777 0.066438355 -0.04413616 -0.047058377 -0.035800956 -0.14153634 -0.14198923
0.09191882 -0.031921413 0.20580661 0.0924886 -0.14610168 0.081247255 0.3518171 0.21398173
-0.062573455 -0.12994228 0.13837509 0.0040874793 -0.22449423 -0.048579358 -0.02106191 0.041983746
0.028635608 0.2779326 0.06468899 -0.3884585 0.44442645 0.24491604 -0.25333172 -0.27494514
-0.42600012 0.52390194 -0.22729632 0.07667525 -1.3192707 0.03404167 -0.16703154 -0.17849746
0.017148428 1.2293643 0.9751415 0.0806886 -0.006249499 -0.28130367 0.310891 0.07080276
0.12778348 0.09096707 -0.1817255 -0.05899367 -0.13916528 0.034782514 0.03306944 -0.011887288
-0.14477102 0.027377645 0.035369594 0.017679613 0.014243024 -0.07000965 0.057267416 -0.07943397
-0.15499054 -0.08471051 0.09660445 0.14142956 0.025960851 -0.051731978 -0.21821241 -0.1782038
-0.059236333 -0.12732765 0.26012984 0.3611938 0.31584382 0.22897589 0.16399537 -0.102016434
0.11012164 0.4702134 0.09504825 -0.08591602 0.27919328 -0.07946139 -0.15629905 0.56419456
0.3133667 0.08884372 0.5485997 0.041296773 0.24605061 0.27557382 0.3155044 -1.6484711
-0.8886055 0.1589127 0.0846365 0.2752784 -0.3530982 -0.15293679 -0.19213186 0.0693249
-0.0054783686 0.07047427 0.05801559 -0.12106107 0.048259806 0.012629796 -0.08361276 0.109457105
0.18085448 -0.0106667625 0.07440578 -0.12936682 0.18216187 -0.24187541 -0.12720042 -0.21054937
-0.010887142 0.12721847 0.088647105 0.34051436 0.084693685 -0.053701635 -0.14401974 -0.16935526
-0.1659893 -0.12777111 -0.015259034 0.08953055 -0.154845 -0.05654651 0.13209513 -0.16507411
-0.14100559 0.086953275 -0.025714906 -0.03593891 -0.18429337 0.09007176 -0.15918092 -0.14184725
-0.056797545 -0.16734499 0.027443165 0.08560624 -0.14068723 0.07309992 -0.15892176 -0.16421944
-0.020727152 0.038380444 0.4388413 0.042143576 0.08436311 -0.18343712 -0.028069796 -0.26872063
0.05179078 -0.13001472 -0.22314316 0.033244304 -0.071493804 -0.28578806 0.07346526 -0.26592013

conv1.event__interacts__offer.lin_rel.bias f4 [24]
00000000: 5e7a 763d 3065 37be 47ec eebd c9b5 3ebe
00000010: a6fa 703d fc88 99bd 8107 8a3d 5aee c9bc
00000020: a77f 1bbc 33c7 3cbe 0c30 603e f830 263d
00000030: d8b7 1bbe 9dfd 28be c660 39be 3da5 1e3d
00000040: a64e 27bd 00d4 5c3c 4e52 8f3d d7c3 9c3e
00000050: c39a 52bc 7439 65be 83dc b0bd 4b1e fdbd
0.060175292 -0.17909694 -0.1166616 -0.18624033 0.058832787 -0.07496831 0.067397125 -0.024649788
-0.009490884 -0.18435363 0.21893328 0.040574044 -0.1520685 -0.16502996 -0.18103322 0.038731802
-0.04084649 0.013478279 0.0699812 0.30618164 -0.012854281 -0.22385198 -0.08635809 -0.123592936

conv1.event__interacts__offer.lin_root.weight f4 [24, 7]
00000000: c742 143d 8589 a8bd 3857 3c3e 785d e63d
00000010: 0f36 ed3e e9f4 843c a8e1 c0bc b76a 6d3e
00000020: d37b 533e 4973 0ebc a5e7 88be 1025 283f
00000030: d9e1 9a3d 9e6f 08be dab5 68be 95ee 843c
00000040: 8361 b63d 9aee 633e b863 143f 90dd 3d3e
00000050: 837b 88bd 845d 5d3e ebd7 76bd 5fa8 f6be
00000060: 3d17 31be daa3 b73e a020 aebd 6bdb d73e
00000070: 9acd b63e b836 1f3e eac6 d9bd 908b 19be
00000080: 6586 1bbf a307 c4bd f144 773e 4087 d3bd
00000090: 71c9 79be f3cc 7c3e 706e 04be 14fd 183f
000000a0: 4432 193d 5eee a9be 7709 2e3e 5c05 f93c
000000b0: 2ae5 03be 259b 34bc ca64 5cbf 8c8b 813e
000000c0: b238 1e3e de26 503d d047 5cbe e80b be3d
000000d0: d2e7 1cbe 99bb 85bd 3e81 203d 3810 1b3f
000000e0: 4e10 403e 6377 75be f78a b7be 5765 eebd
000000f0: 4e13 7e3c 6b45 47bc 541d 88be c43f 0bbf
00000100: b284 a5be 7661 2b3e 38dc f9bd efbb 33bd
00000110: 2f0a b23e f679 78bd 6e1d 063f 7328 643e
00000120: 4d26 6fbd 7b6e 623e c71a 6ebd 039d b0bd
00000130: 9c02 9c3d a814 e03d b207 b5bb 8701 25bd
00000140: e9a5 0dbe f62b a0be 9e74 943d 8dbf 8abc
00000150: 638a a0bc 2601 da3e 44b2 c7bd f5d4 4a3e
00000160: 08cc 733d 9ee0 083e 38ef ecbd 2d3c 9fbe
00000170: a02d fdbd 6f69 443e ea1e 6bbd 7293 9ebe
00000180: 8004 7a3e e67d 373d 430a 443e 5313 113e
00000190: 8d29 dabd e41a 3f3e 0c4d b6be cee7 283e
000001a0: e9f0 e93e 547f 5cbd d7f1 50bf f26d 71bf
000001b0: 5047 28bc 4f05 adbd c7c1 483e 3e0a 14bf
000001c0: b7cc ac3d ef9a a1be 7d52 68be 6e96 54be
000001d0: 8cfa f33d fcad 113e afbc 9fbe cafe 01bf
000001e0: 1b99 913e 04a9 dabe bef8 953e b9e3 2d3d
000001f0: 34f4 a03e bd15 9dbd 1679 b53e a8d0 74bf
00000200: 76d6 b5be d960 85be e0fc 8a3e cbfb 93be
00000210: cabd 7d3d cfa9 103f f450 c7bd 1612 8c3d
00000220: 22d2 e53c 115e 343e 2ac0 bd3c 472e 233f
00000230: 5c00 4f3e 6f1e 47be 91ed 9fbe 14f4 26be
00000240: 94db c03c c238 133e 8109 9abd 0353 0b3e
00000250: 29db 883d a7a4 52bd 5054 273e db00 883e
00000260: fc77 0d3d 7853 15bf 673c 4ebe 642a b6be
00000270: bdb4 c93e 1e12 54bd 573f 013f 89d4 1f3e
00000280: b8bb d03e 47b6 533e 02d7 08bd f850 6ebe
00000290: 28b5 2dbe 96b7 42bf 9141 43bd 7ebc 29be
0.036196496 -0.08229355 0.18392646 0.112482965 0.46330306 0.016230064 -0.023545101 0.2318524
0.20652704 -0.008694478 -0.2673923 0.6568155 0.07562608 -0.13323829 -0.22725621 0.016227046
0.08905318 0.22258988 0.5796466 0.1854155 -0.06664183 0.21617705 -0.06026451 -0.48175332
-0.17294021 0.35867196 -0.085023165 0.4215959 0.35703737 0.15548217 -0.10633643 -0.14994645
-0.60751945 -0.09571769 0.24147393 -0.10328531 -0.2439325 0.24687557 -0.12932754 0.59761167
0.037401453 -0.33189672 0.16995798 0.030398063 -0.12880388 -0.011023317 -0.8609129 0.25301778
0.15451315 0.050818317 -0.2151177 0.09279615 -0.15322807 -0.06529922 0.039185755 0.6057162
0.1875622 -0.23971324 -0.3584821 -0.11640423 0.015507532 -0.012162547 -0.26584876 -0.54394174
-0.323278 0.16736397 -0.122002065 -0.0438804 0.34773394 -0.060663186 0.52388656 0.22281055
-0.058386136 0.22112457 -0.058131006 -0.086236976 0.07617685 0.1094144 -0.005524599 -0.04028466
-0.13832821 -0.3128354 0.072488055 -0.016937042 -0.019597238 0.42579 -0.09750798 0.19807799
0.05952075 0.13366935 -0.11569065 -0.31100598 -0.12362218 0.19180845 -0.05740253 -0.30971867
0.24415779 0.0447978 0.1914454 0.14167528 -0.106524564 0.18662602 -0.35605657 0.16494676
0.45691612 -0.053832367 -0.8161902 -0.9430839 -0.0102709085 -0.08448278 0.1960517 -0.5782813
0.08437484 -0.31563517 -0.22687717 -0.2076051 0.119130224 0.14226526 -0.31198642 -0.507794
0.28437123 -0.42707074 0.29291338 0.0424535 0.31436312 -0.07670162 0.35443944 -0.95630884
-0.35515183 -0.2605045 0.27146053 -0.2890304 0.061948575 0.5650911 -0.097322375 0.06839387
0.0280543 0.17614008 0.02316292 0.6374249 0.20214981 -0.19445203 -0.31235936 -0.16304046
0.023542203 0.1437712 -0.07521344 0.13605885 0.066824265 -0.051426556 0.16340756 0.26563153
0.034538254 -0.5833049 -0.20140229 -0.35579216 0.39395705 -0.05177509 0.50487274 0.1560842
0.40768218 0.20675002 -0.033408172 -0.23273075 -0.16963637 -0.7606138 -0.04766995 -0.1657581

conv1.application__rev_interacts__event.lin_rel.weight f4 [24, 3]
00000000: 19c5 2d3e f0f4 903e 19ea 263e df4d 4fbe
00000010: e9a3 c63d b59c 0e3e 530f fc3d 655d 543d
00000020: 044c f53d ea7f 18bf 7a4b a13d bbfe 76be
00000030: 98ec c03e 6b09 dc3e 55ea c63e bd66 743e
00000040: 3215 8a3d 4f02 363e eff6 9a3d d529 bbbe
00000050: b053 06bf d9ff 583e 8f3b dd3d b4cf ba3d
00000060: d55c 113e 036c d3be 6c5c 883e 8106 fd3d
00000070: 5c02 75be c255 c2bd fb4c 01bf f890 02bf
00000080: 72d9 19bf ab46 733e 6379 563e 5488 243d
00000090: 3ae9 19bd d085 083e 5174 9bbe 1f61 a5bd
000000a0: 7033 423e f7e9 02bf 753b ac3e 3a46 7a3e
000000b0: 5497 dc3e a097 f1bd a646 cbbe 8905 30be
000000c0: 690e d43e feef d13e f3db 0e3e d3ae 04be
000000d0: dc3f fbbe 28ce a33c e7a0 a9be 96de a3bd
000000e0: 09aa 0a3d ecf6 853e 3658 1ebd 281d 9d3e
000000f0: eb54 143d 930b 3c3d 39a3 933c 9dcc b23e
00000100: d054 d03e 57a1 cd3e 6382 1bbf 6322 393e
00000110: bdfb 233e 7572 87bc e197 283e 96df a8be
0.16969718 0.28311872 0.16300239 -0.20244549 0.09699232 0.13926966 0.1230761 0.05184688
0.119773895 -0.5957018 0.07875724 -0.2412061 0.37680507 0.42975935 0.38850656 0.23867317
0.06742324 0.17774318 0.0756663 -0.36555353 -0.52471447 0.21191348 0.108023755 0.091216475
0.14195569 -0.41293344 0.26633012 0.12354756 -0.23926681 -0.09489013 -0.5050809 -0.51002455
-0.6009742 0.23757426 0.20944743 0.040169075 -0.037575938 0.13332295 -0.3036218 -0.08075165
0.18964934 -0.5113825 0.33639112 0.24440852 0.43084204 -0.11796498 -0.39702338 -0.17189611
0.41417244 0.41003412 0.13951091 -0.12957315 -0.49072158 0.019995764 -0.3313057 -0.08001439
0.033853564 0.2616495 -0.038658343 0.30686307 0.036213797 0.045909476 0.018022167 0.34921733
0.40689707 0.40162155 -0.6074583 0.18079524 0.16014 -0.01653407 0.16464187 -0.32983083

conv1.application__rev_interacts__event.lin_rel.bias f4 [24]
00000000: ca69 0d3d 3d99 0abf 5deb a5bd bd9a 9fbe
00000010: 5f85 05be 8203 26be bcd8 a7be c2cc 85be
00000020: 8589 5f3e aa78 3bbe 1100 ad3e 5982 183e
00000030: efa6 cdbe 4f29 ffbd 2e1e 003d 6530 b7be
00000040: a99b f9be f8c4 04bf b4b9 bbbe 7727 60be
00000050: f971 c1bd ebcc bdbe 0658 1bbe 56e7 d7be
0.034524716 -0.54140073 -0.081015326 -0.31172743 -0.13039158 -0.16212276 -0.32782543 -0.2613278
0.21829803 -0.18307748 0.33789113 0.14893474 -0.40166423 -0.12459051 0.03127878 -0.3577911
-0.48751572 -0.5186305 -0.36665118 -0.21890055 -0.09445567 -0.37070403 -0.15170297 -0.42168683

conv1.application__rev_interacts__event.lin_root.weight f4 [24, 27]
00000000: 48ba fbbe 9c2e dbbd 2efb 5ebe 1a82 d0be
00000010: 55ba e4be cf21 903d 9861 f7be 0f64 9cbe
00000020: b4eb 293d 5b49 f13d a6ff 9d3e 4206 84bd
00000030: 915f fc3d eba7 77bc b48e 813e 3df9 cf3d
00000040: dd26 093e 4f9c 4bbd 7520 333d 6f82 cabe
00000050: 6ab2 7cbe f677 c63e 4d4d 33bc 827d c33e
00000060: 2e65 e1bd 709a 8ebe d153 a7be 63fb 13bd
00000070: 5d69 693e 8e2f 32bc 27ba 793e 3cb6 adbe
00000080: a1fd 4b3e d101 49be e673 023e 028d 95be
00000090: a3c6 233e 673f 16bf 8b03 dbbe 9146 52be
000000a0: 5acc ccbe 0406 c5be 9e97 b2bd aef9 71be
000000b0: b974 88bb 17f8 4ebe 5ad9 92be 4c65 91be
000000c0: 4bd0 d03f b8f3 1b3f 4cf6 0bbe 8a5d 8ebd
000000d0: b52e 2fbf 8aaa 013f 04da 023f dee4 8f3e
000000e0: a726 ee3d 66fb 923e 375d fc3e 4951 163d
000000f0: 023f 6a3e 30d4 bb3d 2ee7 7f3e ab55 c13d
00000100: e7bc 593e 6b09 c4bc 19f3 01be 34bd 2cbe
00000110: c72f 74be 1e20 3c3d 220b 203e 8fb0 0dbe
00000120: 8a5f 7b3d f271 673e 0dbe 1dbb a8a2 f2bf
00000130: d5a5 52bc 572f 64be 073f a23d ef38 b93e
00000140: e1ea 11bd 943d 09be dcf9 363d 611e 69be
00000150: 3e97 dfbd 3ed5 a0be d22b b8bd fdc4 a1be
00000160: 56d2 493e 101f 843d 21b2 3c3d 1ad1 b13c
00000170: 8f78 7d3c b08e 6fbe 5d4f 0cbe fabe 0bbe
00000180: ad1f 953d d88e 54be f010 9fbe e545 56be
00000190: f555 05bd 6eff 1f3d 6e07 853e ea5b 51be
000001a0: d82d d23d 644e edbc 7f16 d8bd c2a9 433e
000001b0: a33a 5e3e 6937 033e 2e86 8d3e 9219 833e
000001c0: 3424 b83e d528 833d 6bbb 0a3f b940 a93e
000001d0: 8ef6 423e 456e 0e3f 8d0b f0bd c0b0 0d3e
000001e0: 38cd 88be d82d a8be 8be8 3a3e ec19 21be
000001f0: 654c 623d 175d 9abd e223 7d3e 1941 803e
00000200: 839d 193e 3bcb eabf f8cd e23c d6b1 6c3e
00000210: 7808 86be 7223 163f 74d4 f6bd f356 aabe
00000220: b658 88bd e623 6bbe bca7 e9be ec99 b3be
00000230: 4591 eebc 5a84 8c3d be40 12bd 6384 e9bc
00000240: 9d43 98be 1e80 04bf a823 babd 2ca5 9cbd
00000250: 76c3 763d b8fe d4bd 76fe 8c3e e359 42be
00000260: f037 c53d b263 7ebd 1bab 87be 4b79 9ebe
00000270: 4dca d53f 4f6c 443e 0913 443e bb94 693e
00000280: b1ce 94be 1ce3 c3bd e633 383e 9771 03be
00000290: 16e8 343e 94e0 973d 6fe1 0f3f 3bdb afbe
000002a0: 5081 463d 0412 8bbe e7c5 d93d 18f1 8dbe
000002b0: c2e2 18bc b8a7 823d c917 0abe dc01 68be
000002c0: e6ac 6cbc 3d5d ec3c 9ece 443d 27d7 8abd
000002d0: 8c6f d2bd a775 ac3d 7a19 22bd 5e67 1abf
000002e0: faa1 18be c869 593e bf19 e9bd 925c 983d
000002f0: 99ac 933d 47e5 e3be e5dc a1be e8f4 f0be
00000300: 5736 0abf 37d3 f6be c05e aebe db68 0abf
00000310: c0dd 043c 2ab3 92bc 1671 a8bd a7c9 13be
00000320: f128 01bd 14d9 293c 224a 213d c473 003d
00000330: fa9a 2dbe 0f4c 28bd e1a7 21be bf57 cabe
00000340: aa74 98be 120e dbbe 884a 643f 3bcf 353e
00000350: 890c 0a3e 05e3 0dbd eb8a 08bf 9f07 a63c
00000360: 28b2 2abe 1ad9 b4be 7638 b6be 89d6 2cbe
00000370: e05d 33be 2418 8abe 7c24 42be 3a56 083e
00000380: 6cc9 31bb d62c a8bb 6ead 30bd e90f cdbd
00000390: 5ea7 f1bd 8872 bdbd 0010 69bd d113 f83d
000003a0: a948 93be 3b0e 03bd 1602 84be b883 71bb
000003b0: 4200 bc3a 1917 bbbe 599e 4fbe 0767 43be
000003c0: 50f9 56be 5999 37be 0bfa b63d ddb4 a1be
000003d0: 546e 84bd 6bea 90be 0d31 91bd f8a2 883c
000003e0: 2af4 e33c c53b 21bd a301 083c b212 c3bd
000003f0: 46f9 a6bd daf3 453e c927 ef3d 89c5 f93c
-0.4916556 -0.107022494 -0.21775505 -0.4072426 -0.4467341 0.070376985 -0.48316646 -0.3054509
0.04148455 0.117815696 0.30859107 -0.06446506 0.12322915 -0.015115718 0.25304186 0.1015496
0.13393731 -0.049709614 0.043732125 -0.39552638 -0.24677435 0.38763398 -0.010943723 0.38181692
-0.110056266 -0.278522 -0.32681134 -0.036128413 0.22794099 -0.010875596 0.24387418 -0.33928096
0.1992097 -0.19629599 0.12739524 -0.29209143 0.15993743 -0.58690494 -0.4277614 -0.20534731
-0.39999658 -0.38481152 -0.08720325 -0.23630401 -0.004164305 -0.20211826 -0.2868145 -0.28397596
1.6313566 0.6091876 -0.13668174 -0.06951435 -0.68430644 0.50650847 0.51113915 0.281043
0.11628466 0.28707427 0.49289867 0.036698613 0.22875598 0.09171331 0.24990532 0.09440168
0.21263467 -0.023930272 -0.1269039 -0.1686905 -0.2384635 0.045929067 0.15629247 -0.13836883
0.06137041 0.2260206 -0.0024069578 -1.8955889 -0.01285692 -0.22283684 0.07922178 0.3617625
-0.03562439 -0.13402396 0.04467188 -0.22765495 -0.10917519 -0.3141269 -0.08992733 -0.31595603
0.19709143 0.06451237 0.046068314 0.021706153 0.015470638 -0.23394275 -0.1370215 -0.1364707
0.07281432 -0.20757616 -0.3106761 -0.209251 -0.03255268 0.039061956 0.2598223 -0.20445219
0.1026265 -0.028968044 -0.10551166 0.19107726 0.21702056 0.12814106 0.27641433 0.25605446
0.3596512 0.064042725 0.5419223 0.33057192 0.19039366 0.5563701 -0.11720953 0.13836956
-0.2671907 -0.32847476 0.1825277 -0.15732545 0.055248637 -0.07537287 0.2472072 0.25049666
0.15001492 -1.8343271 0.027686104 0.23114714 -0.26178336 0.58647835 -0.12052241 -0.33269462
-0.06657545 -0.22962913 -0.45635784 -0.3507837 -0.029122004 0.068611816 -0.035706274 -0.02850551
-0.29739085 -0.5175799 -0.09088832 -0.076486915 0.060245 -0.10400146 0.27537888 -0.18979602
0.0962981 -0.062106796 -0.2649773 -0.30951914 1.6702362 0.19181941 0.19147886 0.22810642
-0.29063943 -0.09564802 0.17988548 -0.128363 0.17666659 0.07415882 0.5620336 -0.34346947
0.048463166 -0.27162182 0.1063345 -0.27723002 -0.009331407 0.06379646 -0.13485636 -0.2265696
-0.014445519 0.028853053 0.048048608 -0.06779318 -0.10275182 0.08420878 -0.039575078 -0.60313976
-0.14905539 0.21231759 -0.11381864 0.074395314 0.07210655 -0.44510862 -0.31613842 -0.4706185
-0.53989166 -0.4820802 -0.34056664 -0.54066247 0.00810951 -0.017907698 -0.082246944 -0.14432393
-0.031533185 0.010366697 0.03937734 0.031360403 -0.1695365 -0.04108816 -0.15786697 -0.3952007
-0.29776508 -0.42784172 0.89176226 0.17754833 0.13481344 -0.03464033 -0.5333697 0.020267306
-0.16669524 -0.35321885 -0.3558995 -0.16878714 -0.17516279 -0.26971543 -0.1895923 0.13314143
-0.0027128113 -0.005132298 -0.043134145 -0.100128 -0.11799501 -0.09250361 -0.056900024 0.12113155
-0.28766373 -0.031995993 -0.2578284 -0.0036852192 0.0014343339 -0.3654106 -0.20275249 -0.1908227
-0.20993543 -0.17929591 0.08934411 -0.315833 -0.06466356 -0.28303847 -0.07089434 0.016679272
0.027826387 -0.03936364 0.0083011715 -0.0952505 -0.08153014 0.19331303 0.1167751 0.0304897

conv1.offer__rev_interacts__event.lin_rel.weight f4 [24, 7]
00000000: b3dc 50be ebab 25bc 8706 983e 8651 a63c
00000010: f9f4 d23e f047 afbc 042d 3abd c15b 2dbe
00000020: 978a 4a3f 8b33 383f 950e e43e a650 2d3e
00000030: 24e7 d63e 962b ad3e dc3c 22be 0ee5 d83d
00000040: 4acf 59be 8dc9 1d3b 9fc6 67be 3358 06bd
00000050: 29a4 17be 6b30 05bf 9b70 9e3d 215d a53d
00000060: 5ec0 e03a 503d a53e a7c5 15be 2bed 8ebe
00000070: f671 90be cd1e 41be 4799 8e3e a091 713d
00000080: 70a6 193f b800 993d cb80 283d 5e7a 803d
00000090: c3ff 66be aab9 32bc 07c5 46bd 9ff6 263f
000000a0: 988e ab3d 4289 8c3e 7e06 c73e 3c38 0d3e
000000b0: 9b4c 8a3e 12a1 013e cc8d 95be a933 763d
000000c0: 7cba 103e 8625 b93e 2c04 2fbe 60fb 4dbe
000000d0: bbbd 103e 2662 923e 94df 0a3e 67dd 783e
000000e0: 87e8 e4be 79c1 653d cc53 d3bc efec b2be
000000f0: 3d35 5ebd 4b03 b1be 1802 c5be a8a2 8bbe
00000100: 2ee9 57be c0cb cdbe 7f65 5fbe a44d bb3e
00000110: b71c 0b3e 8167 90be b764 203e dc95 0b3e
00000120: dd31 513e 9454 ec3d e5dd d83e 4adc 413e
00000130: 1585 893d 55e6 0b3d 9d71 973e b019 c4bc
00000140: 94ee ed3d 57f4 043f 7a97 d63d 85ef bf3c
00000150: 3c30 5c3d fc7a 413e 29dd 01bc 72d4 9c38
00000160: 1482 043f f3e8 9a3d 7cf1 69bd 155a 8b3d
00000170: bfa0 5fba 1cd8 963e 1164 b3be e889 31bf
00000180: a8ff 7e3e a1c3 813d 447d 90be e3c4 7c3d
00000190: 2f16 60be e0a2 90be b13b 45bf 611d 7dbc
000001a0: 394c 923d 2a1f 8d3e e4b0 b3be 37ca 763e
000001b0: e9d8 28be 9822 063c 6692 93be d252 2abd
000001c0: 958a 88be 3fff b73d fcd2 ebbd 2515 2bbe
000001d0: a26f 60be ff11 febd 8b73 6cbe c32a 97be
000001e0: ac60 4cbe 9470 1c3c f443 6abd 05f7 1a3d
000001f0: 7341 2bbe e854 afbd 614c 253e a0da 863e
00000200: 82fb 63bd 70cc 5f3e c3c7 9dbe 25e3 1c3e
00000210: 674d 79be 2036 ddbe fb05 05be 82da 4b3d
00000220: c5a1 a83d cc95 083e 866b 3f3e a13b 86be
00000230: c1f5 b6be eb47 17be 7292 ed3d bc70 1a3e
00000240: 85b5 2f3f 4cda 2e3e c9df b5bd 3a27 acbe
00000250: e693 87be c7dd fcbe 0497 3abf a41d edbe
00000260: c3f3 ffbe ed33 16bf 1d2a ccbe 5a5c dbbd
00000270: 12f0 e53d 485d bdbc 134e 843d 0529 cbbd
00000280: baf6 74be 168e cabe 772e bd3c e06a 4d3e
00000290: 7ce8 7cbd 9447 3e3c 0fe5 55be c90a e7be
-0.2039669 -0.010111789 0.2969248 0.020302545 0.41202524 -0.021396607 -0.045453086 -0.16929533
0.7911772 0.7195365 0.44542375 0.16925296 0.4197322 0.33822316 -0.15843529 0.10590564
-0.21270481 0.0024076432 -0.22634362 -0.032798957 -0.14808716 -0.52027005 0.077363215 0.080744036
0.0017147174 0.3227334 -0.1462618 -0.2791532 -0.28211945 -0.18859406 0.27851316 0.05897677
0.6001959 0.0747084 0.04113845 0.0627334 -0.22558503 -0.010908524 -0.048527744 0.65220064
0.08376807 0.2744847 0.3887214 0.13790983 0.2701157 0.126591 -0.29209745 0.06010786
0.14133638 0.3616144 -0.17091435 -0.20115423 0.14134876 0.28590506 0.13561851 0.24303208
-0.44708654 0.056092713 -0.025796793 -0.3494639 -0.05424999 -0.34572825 -0.3847816 -0.27272534
-0.21085045 -0.4019451 -0.21816061 0.36582673 0.13585173 -0.28203967 0.1566342 0.13631386
0.20429178 0.115395695 0.42356792 0.1893169 0.067148365 0.03415521 0.29578868 -0.02393803
0.11617771 0.51935333 0.104781106 0.023429642 0.053756937 0.18894571 -0.007926264 7.478231e-05
0.51760983 0.07563963 -0.057115063 0.06804291 -0.0008530728 0.29461753 -0.35037282 -0.69351053
0.24902213 0.063361414 -0.2822057 0.061711203 -0.21883462 -0.28249264 -0.77044207 -0.015448899
0.071434446 0.2756284 -0.35095894 0.24100576 -0.16488995 0.008186959 -0.2882263 -0.04158289
-0.2666823 0.08984231 -0.115148515 -0.16707285 -0.21917585 -0.12405776 -0.23090951 -0.29524812
-0.19958752 0.009548325 -0.05719371 0.037833232 -0.16724186 -0.085611165 0.16142417 0.26338673
-0.05565978 0.2185533 -0.3081647 0.15321024 -0.24345933 -0.43205357 -0.12990563 0.049768932
0.0823398 0.13338393 0.1869336 -0.26217368 -0.3573437 -0.14773528 0.11600198 0.15082067
0.6863635 0.17075461 -0.08880574 -0.33623677 -0.26480025 -0.49387953 -0.7288668 -0.46311677
-0.49990663 -0.5867298 -0.3987588 -0.10710974 0.112274304 -0.023115769 0.06460204 -0.09919933
-0.23922244 -0.39561528 0.023093445 0.20060301 -0.061745152 0.011613745 -0.2088816 -0.45125416

conv1.offer__rev_interacts__event.lin_rel.bias f4 [24]
00000000: 02eb 8cbd b9e8 3e3e 035e 5d3c 7587 833e
00000010: 8083 5bbe 8db4 693e 356c d93d 2b62 bc3d
00000020: 205d bcbb 3026 86be 5350 98bc dfe8 31be
00000030: e112 20bd f903 3e3e bdc6 f2bc 777e c13c
00000040: 7ddb ab3c 9fa3 64bd 9a08 12be df26 c63d
00000050: a0f9 a9bd 9e4f 7ebd 0d30 66be da5e 88be
-0.06880762 0.18643464 0.013511184 0.25689283 -0.21436882 0.22822781 0.10616342 0.091984116
-0.005748406 -0.2620101 -0.01859299 -0.1737399 -0.039080504 0.18556203 -0.029635781 0.023619873
0.020978684 -0.055820104 -0.14261094 0.09675383 -0.08299565 -0.062087648 -0.22479267 -0.26634866
