models/OTC/efg/exp_v2/no_subgraph_sampling/lr=0.01_hidden_dim=8/HigherOrderGNN_20230830_00h33m/state_dict_epoch5.pt (torch, 5631 bytes, 7 tensors)

convs.0.lin_rel.weight f4 [8, 20]
000000 34 0e c8 3d b3 26 29 be 9b d9 2d be 46 23 8d be
       0.09768334 -0.16518669 -0.16977541 -0.27565974
000010 e3 0d d0 bd ec a6 ad be 23 1e 08 bd 6c 78 b2 3e
       -0.10158899 -0.33916414 -0.033231866 0.348575
000020 d0 c3 fe bd e3 36 e0 3e 5b 5e e3 3e 81 c7 ab 3e
       -0.12439692 0.43791875 0.44407925 0.33550647
000030 90 18 12 bf 72 db 4b be 32 10 c4 3b 39 20 df 3e
       -0.5706873 -0.1990793 0.005983376 0.4357927
000040 83 53 24 3e b1 fc 56 bf 6c cf a7 3d 6c f2 f6 3e
       0.16047482 -0.83979326 0.081938595 0.48231828
000050 6f 9d 09 3e 0c a2 81 bf 5e bd a0 be bc d4 5b be
       0.13438962 -1.0127578 -0.31394476 -0.2146787
000060 77 39 5f be e7 86 34 3e 9f 69 30 3d 45 2b e0 3e
       -0.21799265 0.17629586 0.043069478 0.43783012
000070 b7 19 84 bd ed 54 25 3e 46 e7 78 3f ed 4f 49 be
       -0.06450217 0.16145678 0.97227895 -0.19659396
000080 6d 02 7b 3f 91 68 5f 3e 4b f7 07 be c7 f9 1f bf
       0.98050576 0.21817233 -0.13277929 -0.62490505
000090 84 d8 b0 bc 95 2d 98 bd 93 31 0d be b7 d0 8c be
       -0.021587618 -0.07430569 -0.13788442 -0.27502987
0000a0 cf 83 43 bd 3c a2 05 be 83 2c 91 3d ec ca 80 3e
       -0.047733124 -0.13050169 0.07088568 0.25154817
0000b0 3d e8 8f 3d 24 04 19 3e 63 36 a8 be ff 45 26 be
       0.07026718 0.14942986 -0.32853994 -0.16237639
0000c0 46 b0 d2 be 42 bd a4 3c 1a 18 a3 3f 01 ff f8 3e
       -0.4115011 0.020109776 1.274173 0.48632053
0000d0 f3 a2 67 3f 50 44 50 3e 52 e3 17 bf 0a df 4b be
       0.90483016 0.20338559 -0.5933124 -0.19909301
0000e0 75 50 36 3e 05 af a8 bd 74 3e df 3e 85 c1 6c 3e
       0.1780413 -0.08236507 0.43602335 0.23120697
0000f0 fd d1 4e be bb 56 12 3f e9 23 c7 bd 92 4d 6f bd
       -0.20197292 0.5716359 -0.09723646 -0.058423586
000100 22 c9 3c be 4d f8 67 3e e5 0b 09 bd 30 bf bb bd
       -0.18436101 0.22653313 -0.03345861 -0.091673255
000110 d9 77 2c be ee d0 5f 3e ae 88 a9 be 98 81 16 3f
       -0.16842593 0.21857044 -0.3311209 0.58791494
000120 9a d5 bf be 46 8d 45 be 62 31 43 3d ad 4d 97 3e
       -0.37467653 -0.19292173 0.047654517 0.2955145
000130 34 c0 08 bf 3c 6d 71 3d 5a ac 16 3e 49 7e 20 be
       -0.5341828 0.058942065 0.14714184 -0.15673174
000140 9a a7 10 3e 42 b9 56 3e 80 29 b7 3e c2 e7 19 bc
       0.14126435 0.20969108 0.3577385 -0.009393634
000150 93 c0 aa 3e 28 be c0 bc 31 90 98 3e 54 6c 8e 3e
       0.33350047 -0.023528174 0.2979751 0.27817023
000160 9b cf f7 3c 1a d7 06 bc 47 8e 1d 3f e6 64 c7 bd
       0.030250361 -0.008229995 0.61545223 -0.09736042
000170 f7 dc 76 3e cb ca d7 be 68 cc 00 3f 08 69 89 3e
       0.24107729 -0.42146906 0.503119 0.26837945
000180 d9 ff b5 be 28 81 21 3f 3c f2 ee 3d 28 29 89 3c
       -0.3554676 0.630877 0.11667296 0.016743258
000190 37 a5 5e 3e 74 c7 0b 3d bf ef 1a 3e 6c 27 ab bd
       0.21742712 0.03412576 0.15130518 -0.083571285
0001a0 df 38 9e 3b 5a de 12 3d 6d 10 7e 3e 1d 6e af 3d
       0.004828557 0.035856582 0.24810953 0.08565924
0001b0 60 37 78 3e a5 f8 10 3f 3e f7 84 bc c2 91 8d 3e
       0.24239874 0.566294 -0.016231176 0.27650267
0001c0 09 d4 cf be b1 38 51 3e cd f5 64 bd bf d7 8b be
       -0.40591457 0.20431782 -0.055898476 -0.2731304
0001d0 44 de e8 3e 6d d2 7b bf 84 3d 14 be 90 73 8d 3e
       0.45482075 -0.9836796 -0.14476591 0.2762723
0001e0 7e db a5 be 13 4c 0d 3e dd 12 97 3d 04 13 92 bc
       -0.32394022 0.13798551 0.07376645 -0.017831333
0001f0 83 91 01 3e a1 04 5c 3d d8 c8 a4 3b a0 ca 68 be
       0.12653165 0.053715352 0.0050288253 -0.22733545
000200 b4 ad 4e be 55 1e bb bd a3 38 76 bd 56 aa 4a 3d
       -0.2018345 -0.09136645 -0.060112607 0.04947885
000210 de a1 49 bd 12 36 eb bd 1f b5 39 be 56 c6 a6 3e
       -0.049226634 -0.114849225 -0.18135498 0.32573193
000220 15 46 d1 3d 33 09 c6 3d a1 75 15 be 41 05 46 3c
       0.10218445 0.09669723 -0.14595653 0.012086214
000230 b2 6a 15 3f 17 c5 d4 3e d8 23 59 3f 40 ce 2c 3f
       0.5836593 0.41556618 0.8482032 0.6750221
000240 0d c7 34 3e 38 2b 99 3e d3 f7 c1 be 72 69 1a 3e
       0.17654057 0.29915786 -0.37884387 0.15079287
000250 e8 8e 3a 3e a5 fe 20 bf f7 8a a5 be 69 28 13 3f
       0.18218577 -0.62888557 -0.32332584 0.57483536
000260 58 25 81 bd c8 1f c9 be a2 90 ab 3c 00 02 02 3f
       -0.06305951 -0.3928206 0.02094299 0.507843
000270 1a cb 8f 3d 78 2a f5 bd b7 c4 9c be f7 a3 5b 3e
       0.070211604 -0.11970991 -0.30618832 0.21449266

convs.0.lin_rel.bias f4 [8]
000000 e5 26 b2 be d7 03 35 be 6d 55 5c bf 8c ca 04 bf
       -0.347953 -0.17677246 -0.8606785 -0.5187156
000010 92 b7 8d bf b0 72 1a be bc 93 90 3e a3 0c 61 bf
       -1.1071646 -0.15082812 0.28237712 -0.8790991

convs.0.lin_root.weight f4 [8, 20]
000000 31 77 2c 3d 00 6e 78 3e 73 dc d9 bd 2e 8c 22 bf
       0.042105857 0.24260712 -0.106377505 -0.6349515
000010 93 0a 42 be 6e 94 07 3f 19 4e 05 bf 8e fe f0 3e
       -0.18949346 0.5296086 -0.5207229 0.4706921
000020 a3 d6 c9 be a0 39 d8 be 0b 12 48 bf 1d 52 0e 3f
       -0.39421567 -0.42231464 -0.7815253 0.55594045
000030 27 39 21 bd 25 2f fd be 08 14 e3 3d 70 46 2f 3f
       -0.039361145 -0.4945003 0.11087805 0.68466854
000040 b7 b5 d6 3e 42 f9 80 bf d8 0d 32 bd 65 c2 80 3f
       0.41935512 -1.0076067 -0.043470234 1.0059325
000050 b2 6b 20 bf ab 70 a6 bf dc 58 d7 be fc af 4d bf
       -0.6266433 -1.3003134 -0.42059982 -0.80346656
000060 04 7c 16 bf 34 33 d8 3d 1e 9e 77 3f 43 ce da bd
       -0.5878298 0.10556641 0.9672564 -0.106838726
000070 24 96 f0 be 14 18 00 3f e8 5d e1 3c 7c ce 15 3f
       -0.46989548 0.5003674 0.027510598 0.58518195
000080 53 19 51 3e 18 79 04 bf ed fe 8c be f0 fd b3 3e
       0.20419817 -0.51747274 -0.27538243 0.35154676
000090 b7 e5 85 3e 0c a8 b1 bd 89 07 c8 3d 50 3f b8 bd
       0.2615182 -0.086746305 0.09767062 -0.08996451
0000a0 a3 4b d1 bd ad 10 c5 3d 44 fb 55 be 57 cf 82 be
       -0.10219505 0.09622321 -0.20896631 -0.25548813
0000b0 1e eb d0 bd c8 2a 13 bf a4 bf aa be eb c1 e3 3c
       -0.10201095 -0.57487154 -0.33349335 0.027802428
0000c0 cb 5f a4 3e d5 f6 93 3e dd 0a 63 b7 29 30 aa 3d
       0.32104334 0.28899255 -1.3532784e-05 0.08309967
0000d0 f6 2d c9 bd 52 9b 2d 3f 09 44 b2 bc 1f b0 ec be
       -0.098232195 0.67815125 -0.021760957 -0.4622812
0000e0 c7 47 36 3e 3b ab 12 bf 84 8e 1d 3f 2a 7b 86 3e
       0.17800818 -0.57292527 0.61545587 0.26265842
0000f0 7b 95 c1 bd dd 52 95 bd 76 e8 48 be da eb a4 be
       -0.09452339 -0.072911955 -0.19619927 -0.3221119
000100 9c a2 95 3e a0 a3 eb be bf 89 38 be f3 84 7f be
       0.29225624 -0.46023273 -0.18021296 -0.2495306
000110 06 aa 72 bd 5b 56 d5 be d7 c5 4b 3d d1 74 7c 3f
       -0.05924418 -0.41667446 0.04974922 0.9861575
000120 63 2c 44 be 39 86 0f bf ff e0 06 3d 15 8a 00 3f
       -0.19157557 -0.5606418 0.032929417 0.50210696
000130 55 ab 17 bf 85 54 a9 3e ab 55 03 3f 36 03 a1 be
       -0.59245807 0.33072296 0.51302594 -0.31447762
000140 e6 83 1e 3f c7 03 3a 3f 7b 54 ea 3d 21 56 4e 3e
       0.6192001 0.72662014 0.114418946 0.20150043
000150 68 34 d4 be e4 c0 63 3e 8e a6 05 bf 87 0e 8a bd
       -0.41446233 0.2224155 -0.5220727 -0.06741052
000160 1e e2 ad be 7e 77 86 be c8 79 d7 3e a8 4f c8 bf
       -0.33961576 -0.2626304 0.420851 -1.5649309
000170 1c c9 43 bf 67 a0 22 bf 52 34 2d 3f 01 3b 3a 3d
       -0.76478744 -0.63526005 0.6765796 0.045466427
000180 2f b3 3e be c3 88 3b be ed db 4c be 05 24 5b 3d
       -0.1862304 -0.18313889 -0.2000577 0.053501148
000190 8e 58 a1 be 22 bb 82 bf 48 23 4f bf 3e 12 0b bf
       -0.31512874 -1.0213358 -0.8091321 -0.5432471
0001a0 18 de 9c be ff 4d 33 ba 70 ac 90 3e 9a 13 25 3e
       -0.30638194 -0.00068399304 0.2825656 0.16120759
0001b0 9f 20 0f 3b ac 26 88 3d 92 b3 89 3d da b1 85 be
       0.0021839512 0.06648001 0.067237034 -0.26112252
0001c0 73 f1 1b be bd 4a 79 3f 61 f6 58 bd 33 ee 2f be
       -0.15228824 0.97379667 -0.05296934 -0.1718071
0001d0 7e 9d af 3e d2 90 48 be 5a 7e 93 3b 68 87 fb 3e
       0.34299845 -0.19586495 0.0045011463 0.49126744
0001e0 e3 56 a9 bf 29 46 f0 3d 94 49 cb be ac e8 83 be
       -1.3229641 0.11732132 -0.39704573 -0.25763452
0001f0 2d 50 a1 3d fa d9 92 bc 2b 5a f0 be f1 a4 10 bf
       0.078766204 -0.017926205 -0.46943793 -0.5650168
000200 73 17 2b be e3 4c 72 3d 5e 83 09 3e 72 db 8e 3f
       -0.16708164 0.059155356 0.13429019 1.1160719
000210 f0 b9 32 bd dc a7 cb be 8e 62 8f be b8 ad ad 3f
       -0.043634355 -0.39776504 -0.2800488 1.356864
000220 85 91 91 3e f2 d2 32 3d 4e c4 36 be a3 22 8f 3e
       0.28431335 0.043658204 -0.17848322 0.27956113
000230 1d 4e 86 3e fd e2 07 bf ef a1 34 ba 9f 2c b9 be
       0.2623147 -0.5308073 -0.0006890585 -0.36166856
000240 4f c0 78 3d 87 7e a8 be 90 3a 80 bf b0 d0 c2 be
       0.060730275 -0.32909033 -1.0017872 -0.3804984
000250 91 0a 56 bf 92 74 01 bf f6 ed 76 bd 2a 47 4c 3f
       -0.83609873 -0.505685 -0.06028553 0.7979609
000260 39 f7 b3 b9 03 91 36 bf 57 77 b4 3d af f1 27 be
       -0.00034325736 -0.7131502 0.08811825 -0.16400789
000270 5a a8 57 3e a0 41 07 bc b9 d5 ab be 06 86 39 bc
       0.21060315 -0.008255392 -0.33561495 -0.011323458

convs.1.lin_rel.weight f4 [8, 8]
000000 f1 8f b6 be ec 14 43 be 2c d7 9f 3d 2e 5a 83 be
       -0.35656694 -0.1905095 0.07804713 -0.2565474
000010 44 2c 2d 3e d4 fa 81 3e 53 b3 3f be 60 d4 86 bd
       0.16911417 0.2538668 -0.1872075 -0.06583476
000020 ad a3 bc bd b9 0e 64 bf 4b 5f 92 be b2 50 50 bf
       -0.09210906 -0.89084965 -0.28588328 -0.8137313
000030 96 01 30 bf 2c 25 3a 3e e1 57 59 3e 6f 25 df 3c
       -0.6875242 0.18178242 0.2122493 0.02723953
000040 63 f5 dc be 54 62 2b bf 7d 16 69 3e 2c 13 74 be
       -0.43155965 -0.6694691 0.22762485 -0.23835438
000050 68 72 5e be 29 51 c3 bd a2 14 00 bf bb a2 84 be
       -0.2172333 -0.095369644 -0.50031483 -0.25905403
000060 a0 e4 6e be f0 64 0f 3e 46 c6 5e 3e b6 27 ca bd
       -0.23329401 0.14003348 0.21755323 -0.098708555
000070 4e 65 3f be 9f 46 ea 3d 74 26 5f be bc b1 5f 3c
       -0.18690988 0.11439251 -0.21792012 0.013653215
000080 b5 be 57 be 43 ec 9c bd 36 a7 19 3e e6 b6 7a 3e
       -0.21068843 -0.07662251 0.15005192 0.24483833
000090 02 d6 17 bf 2d 33 9b 3e d5 85 37 bf 26 b5 14 bf
       -0.59310925 0.30312482 -0.71688586 -0.5808891
0000a0 65 65 28 bf fb bf 69 bd ba d5 1b be db 65 91 bd
       -0.65779716 -0.057067852 -0.15218249 -0.070995055
0000b0 59 17 47 bf 5a 3b 2a be 53 74 f2 3d ce ef 77 3e
       -0.7777 -0.16624203 0.11838593 0.24212572
0000c0 43 d8 c3 bf 92 1b fc be 5d cc b3 be 17 22 6a 3e
       -1.5300373 -0.49239784 -0.35116854 0.22864567
0000d0 a7 68 6e 3d 0f b2 38 3d a8 a1 59 3c 01 cd 8d bf
       0.058205273 0.045091685 0.013283171 -1.1078187
0000e0 ae df e8 3d 11 42 d4 3d 9b 7b 82 be cc 91 a8 3e
       0.113707885 0.10364164 -0.25484928 0.32923734
0000f0 8a 2c ab be a8 91 85 bc d2 97 23 bd b3 01 0f bf
       -0.33432418 -0.016304806 -0.03993971 -0.5586197

convs.1.lin_rel.bias f4 [8]
000000 47 e1 68 3f ee 9e 5b 3e 52 f0 86 3e bf ba 6c 3d
       0.90968746 0.21447346 0.26355225 0.057795282
000010 6c d2 97 3e 93 0c 69 bf a6 81 93 3e e6 ed 91 3e
       0.29652727 -0.9103481 0.2880985 0.28501815

convs.1.lin_root.weight f4 [8, 8]
000000 5d 4d 8c bf e9 e2 2a bf 31 e8 85 3e 4b 7a 1e bf
       -1.0961109 -0.6675249 0.2615371 -0.61905354
000010 fd f7 20 3e 02 02 43 3e 46 9c ae be 77 e5 19 be
       0.157196 0.19043735 -0.34103602 -0.1502894
000020 dc c9 73 be 3d 77 1c bf 15 37 2f be d0 63 30 bf
       -0.23807472 -0.61119443 -0.17110856 -0.689023
000030 8d 69 fb be c1 29 9f 3e 59 56 09 3e 23 12 21 3e
       -0.49103966 0.31086543 0.13411845 0.15729575
000040 ee c7 ed bd c2 37 a0 3e 98 a0 87 be 29 51 32 3e
       -0.11610399 0.3129254 -0.2648971 0.17413773
000050 94 49 15 be 9e 04 3f 3f 0f d8 31 bc 54 0c bd 3e
       -0.14578849 0.7461642 -0.010854735 0.36923468
000060 95 dd 00 3f 81 81 0c be 59 b1 33 bf f4 80 a0 3e
       0.5033811 -0.13721277 -0.70192486 0.31348383
000070 ba f3 b9 bd c7 e3 90 bd e7 7b 0d 3f ba f4 62 bf
       -0.0907969 -0.07074695 0.55267185 -0.88654673
000080 98 6d a6 be f2 a9 4b be 04 e6 06 3f 17 f9 87 bc
       -0.32505488 -0.19889048 0.52694726 -0.016598267
000090 81 81 32 bf b3 33 59 3e 55 59 de be 7d 10 76 bf
       -0.6972886 0.21211128 -0.4342753 -0.9611891
0000a0 4e 3a a6 be ee 64 63 3e 6b 30 7a bd 5a 0c 00 be
       -0.32466358 0.2220647 -0.06108133 -0.12504712
0000b0 89 7f 86 3e 3e 3f 1f bf f2 05 3e 3e ab ea 71 3c
       0.26269177 -0.62205875 0.18556955 0.014765422
0000c0 8f 89 46 bf 92 fe f3 3d 01 07 3f be e2 97 9e 3d
       -0.7755365 0.1191379 -0.18655016 0.07743813
0000d0 ef 83 93 bd 21 ba f8 be 71 d1 7a 3d 8b 73 02 bf
       -0.07202899 -0.48579505 0.061234895 -0.50957555
0000e0 6d ae 8d be b3 4f c3 3e 22 8c 73 3e 32 c8 41 3e
       -0.2767214 0.38146743 0.23783925 0.18924025
0000f0 a7 63 0d bf c9 7b 81 3e 14 97 f9 3e ca 07 86 3d
       -0.5523018 0.25289753 0.48748076 0.065444544

post_layers.0.weight f4 [1, 8]
000000 6c 34 51 3e e0 81 39 be fe 94 39 3e 89 55 da bd
       0.20430154 -0.1811595 0.18123242 -0.10660846
000010 84 16 29 3e c5 11 d7 3d ac 2b 20 be e1 55 0d be
       0.16512495 0.10501436 -0.1564166 -0.13802291
