models/BPI17/hoeg/exp_information_leakage/lr=0.001_hidden_dim=128/GraphModule_20230821_14h47m/state_dict_epoch3.pt (torch, 772191 bytes, 33 tensors)

conv1.event__follows__event.lin_rel.weight f4 [128, 27]
0	0xbe0d260e	-0.13784048
1	0x3e0633e4	0.13105732
2	0xbe23da5b	-0.16001265
3	0x3da2bcba	0.07946153
4	0xbe2e042c	-0.16993779
5	0xbe0fd81c	-0.14047283
6	0xbe0fda47	-0.1404811
7	0xbe4bcead	-0.1990306
8	0x3dfbe70b	0.12299927
9	0xbe3d44ef	-0.18483327
10	0xbdf54c42	-0.11977436
11	0xbccc78ba	-0.02495991
12	0xbd9f058d	-0.077647306
13	0xbe3c5947	-0.18393432
14	0x3c5e9f05	0.013587718
15	0xbdf9a92e	-0.121904716
16	0x3e26df75	0.1629618
17	0xbda7d4cd	-0.081948854
18	0x3e203d72	0.1564844
19	0xbd26cf15	-0.040724833
20	0xbddae417	-0.10688036
21	0xbe3b1633	-0.18270187
22	0x3c154079	0.00910961
23	0xbe0bcac6	-0.1365157
24	0x3e47002b	0.19433658
25	0xbced1445	-0.02894033
26	0xbbdbeb54	-0.006711403
27	0xbd8f750f	-0.07004749
28	0xbde8334f	-0.11337911
29	0xbdaff168	-0.085909665
30	0xbd9456aa	-0.07243092
31	0xbcb1a01f	-0.021682797
32	0x3e12fdbb	0.14354603
33	0xbda78ea0	-0.081815004
34	0x3d97dc2f	0.074150436
35	0x3dcbe967	0.09956627
36	0xbe247207	-0.16059123
37	0xbdd255cf	-0.10270273
38	0xbe081f21	-0.13293125
39	0xbe34fea2	-0.1767526
40	0xbe3a3a91	-0.18186404
41	0x3d20f135	0.039292533
42	0x3e005454	0.12532169
43	0xbd48d1dc	-0.049028262
44	0x3d7eda93	0.062220167
45	0xbdaacb13	-0.083395146
46	0xbe16e6ad	-0.14736433
47	0x3c78a7e3	0.015176746
48	0x3e4b92c7	0.1988021
49	0x3dc95fcd	0.09832726
50	0xbd31d973	-0.043420266
51	0xbe3bdbb8	-0.18345535
52	0xbe639dcd	-0.22228165
53	0x3e51425c	0.2043547
54	0xbd871754	-0.06596246
55	0xbdc82430	-0.09772527
56	0x3e036a9e	0.1283364
57	0xbcc376fe	-0.02386045
58	0x3d14ad05	0.036297817
59	0xbe17261c	-0.14760631
60	0x3de8621f	0.1134684
61	0x3e1b6858	0.15176523
62	0x3cc7419b	0.024323275
63	0x3e67ef37	0.22649847
64	0xbd3b8679	-0.04578254
65	0xbe150864	-0.14553982
66	0xbd316234	-0.043306544
67	0x3d87bd8f	0.06627952
68	0xbcd3bbad	-0.025846327
69	0xbe0aad22	-0.13542607
70	0xbe1bd0c5	-0.15216358
71	0x3e2f7129	0.17133011
72	0xbd3ca13b	-0.0460522
73	0xbcd25b76	-0.025678378
74	0xbe10c34a	-0.14136997
75	0xbe9f4558	-0.31107593
76	0x3ccd820e	0.025086429
77	0xbba127ee	-0.00491809
78	0xbdd49092	-0.10379137
79	0x3d9ef51a	0.07761593
80	0x3d749ca2	0.05971969
81	0xbcb8c04c	-0.022552632
82	0x3d7f25f4	0.062292054
83	0x3e3e836b	0.1860482
84	0xbd406757	-0.046973553
85	0xbcb6604d	-0.022262717
86	0x3d82a349	0.063788004
87	0x3e2c63a1	0.1683488
88	0x3e430133	0.19043426
89	0x3dab8bc0	0.083762646
90	0xbe1560a6	-0.1458765
91	0xbd78eb9b	-0.060771566
92	0x3e2b71f7	0.16742693
93	0x3e0c28bc	0.13687414
94	0xbbd8ec79	-0.0066199866
95	0x3e09cdc9	0.13457407
96	0xbdd7e879	-0.105423875
97	0x3ce7d6e3	0.028300708
98	0xbe012230	-0.12610698
99	0xbd731ad0	-0.059351742
100	0xbe0260d7	-0.12732254
101	0x3e090212	0.13379696
102	0x3e529f8c	0.20568675
103	0x3d90afa1	0.070647486
104	0xbc1b6057	-0.009483418
105	0x3d378908	0.044808418
106	0xbd0dcf13	-0.03462131
107	0x3b6c8f1d	0.0036096044
108	0xbce39516	-0.02778105
109	0x3e0d11b3	0.13776283
110	0x3c1911a7	0.009342588
111	0x3c489b82	0.012244107
112	0x3d702db1	0.058637325
113	0xbe4f6561	-0.20253517
114	0xbd84fd01	-0.06493569
115	0x3db9deae	0.09075676
116	0xbdc6990a	-0.09697159
117	0x3df47f5f	0.119383566
118	0x3d2577cc	0.04039745
119	0x3e03abbb	0.12858479
120	0x3dd0a4b6	0.10187666
121	0xbe3ba24b	-0.18323629
122	0xbe47ab5e	-0.19498965
123	0xbe16375d	-0.14669557
124	0xbe1608af	-0.1465175
125	0xbe411a8a	-0.1885778
126	0x3d0576e0	0.03258407
127	0x3da2a734	0.07942048
128	0x3d89c136	0.06726305
129	0xbedbdf25	-0.42943683
130	0xbdbf952e	-0.09354626
131	0x3d0bf08a	0.034164943
132	0xbdea48c5	-0.11439661
133	0x3e3b57f4	0.1829527
134	0xbe1d4980	-0.1536007
135	0xbd278857	-0.04090151
136	0xbd1b2f64	-0.037886992
137	0x3e3ffb01	0.18748094
138	0xbe078b45	-0.13236721
139	0x3e0babf0	0.13639808
140	0xbe265331	-0.16242673
141	0x3e2f3197	0.17108761
142	0xbdbe2a24	-0.092853814
143	0x3d11e60b	0.035619777
144	0x3d23edcd	0.040021706
145	0x3c93eb3b	0.018056503
146	0xbd380c9f	-0.04493391
147	0xbe0b1b27	-0.13584577
148	0x3d6263a2	0.0552708
149	0x3e26b01c	0.16278118
150	0x3d6b60a4	0.05746521
151	0x3be085fe	0.0068519106
152	0xbd9b0759	-0.07569761
153	0xbddb90bb	-0.107209645
154	0x3dbe72ec	0.09299263
155	0xbcd95b45	-0.026532779
156	0xbec8e425	-0.3923656
157	0x3c898309	0.016786115
158	0x3dcdba90	0.100453496
159	0xbe24b953	-0.1608632
160	0xbd58b81c	-0.052909955
161	0x3e31eba6	0.17375049
162	0xbd50f466	-0.051014327
163	0xbe7b218c	-0.24524516
164	0x3df427f3	0.11921682
165	0xbe4a68e5	-0.19766577
166	0xbcbb4d47	-0.022863997
167	0xbe549b09	-0.20762266
168	0xbd5b75ce	-0.053579144
169	0xbe0a9fa8	-0.13537467
170	0xbe81db9b	-0.25362858
171	0x3d586215	0.052827913
172	0x3dc69865	0.09697036
173	0xbccd7b71	-0.025083276
174	0x3d931945	0.07182554
175	0x3d938e3e	0.07204865
176	0xbe3fcf04	-0.18731314
177	0xbbf0d566	-0.007349658
178	0x3d16f2c2	0.036852606
179	0xbde3d5da	-0.11124773
180	0xbc6d3288	-0.01447738
181	0xbe485450	-0.19563413
182	0x3d798e52	0.060926743
183	0x3ed0dc58	0.4079311
184	0xbe60fc22	-0.21971181
185	0xbda1bd88	-0.07897478
186	0xbe4f7f70	-0.20263457
187	0xbe940407	-0.28909323
188	0xbe031e94	-0.12804633
189	0x3e916994	0.28400862
190	0x3e9977cf	0.2997422
191	0xbd4cd0c0	-0.050003767
192	0x3e9aadba	0.30210668
193	0x3e2ff733	0.17184143
194	0x3cee4e98	0.02909021
195	0xbe061a72	-0.13096026
196	0xbd193c9a	-0.03741131
197	0x3e3829f5	0.17984755
198	0xbbd6860c	-0.0065467414
199	0xbd9f239a	-0.07770462
200	0x3e21849a	0.1577324
201	0x3d8b5e8c	0.06805143
202	0x3dc30dff	0.09524154
203	0x3d20c8b0	0.03925389
204	0x3e225e17	0.15856205
205	0x3d042fd6	0.032272182
206	0xbdf0af1c	-0.117521495
207	0xbdb57796	-0.088607
208	0x3d9810e6	0.07425098
209	0x3e28dc2c	0.16490239
210	0x3e357d01	0.17723466
211	0x3e83115b	0.2559918
212	0xbda21e62	-0.07915951
213	0x3d911555	0.07084147
214	0x3d940d02	0.072290435
215	0x3dbc5fff	0.09197997
216	0x3d5c8686	0.05383923
217	0x3d9008ee	0.07032953
218	0x3d8db35b	0.06918975
219	0x3ddce4e5	0.10785846
220	0xbd048b08	-0.032359153
221	0xbdccabed	-0.0999373
222	0x3c9efcc4	0.019407637
223	0xbca2c9e9	-0.019871669
224	0x3caf180a	0.021373767
225	0x3dd9e256	0.10638873
226	0x3d3d72cd	0.04625206
227	0x3e0466f5	0.129299
228	0xbdae0fa0	-0.08499074
229	0x3e84abe5	0.25912395
230	0x3c92a469	0.017900662
231	0x3d8621f0	0.06549442
232	0xbd88f21a	-0.06686802
233	0x3b28848e	0.0025713774
234	0xbe245c4f	-0.16050838
235	0x3e3dc1b1	0.18530919
236	0x3de0ac51	0.10970367
237	0x3f0f2a77	0.5592417
238	0x3e86d8f3	0.26337394
239	0x3df6b8dc	0.12046978
240	0x3dfe5d09	0.12420089
241	0xbe07d004	-0.13262945
242	0x3deade46	0.114681765
243	0xbc0d7ae5	-0.008635257
244	0xbd9dcb00	-0.07704735
245	0xbdeafcc4	-0.114739925
246	0xbdedb48a	-0.11606701
247	0x3987d92d	0.00025911015
248	0x3cb0d5cd	0.021586323
249	0xbe898255	-0.26857248
250	0xbd319992	-0.043359347
251	0xbe0b8686	-0.13625535
252	0xbe5db173	-0.21649723
253	0xbe002056	-0.12512335
254	0xbdb6f4d5	-0.08933417
255	0xbdba1b23	-0.09087207

conv1.event__follows__event.lin_rel.bias f4 [128]
0	0x3df62d32	0.12020339
1	0x3d96ce4a	0.07363565
2	0x3d6e5b62	0.05819262
3	0x3e34c16f	0.17651914
4	0xbe0b23e8	-0.13587916
5	0xbd44e3a2	-0.04806865
6	0x3d4f30af	0.050583538
7	0x3e7f1c16	0.24913058
8	0xbc716a24	-0.014734779
9	0xbbcb9cb5	-0.0062137493
10	0xbe079f05	-0.13244255
11	0xbdf084d5	-0.11744086
12	0x3db1a482	0.086739555
13	0xbdffa4a4	-0.124825746
14	0x3e2d7905	0.16940697
15	0xbd8e294d	-0.06941471
16	0x3d720c5c	0.059093818
17	0x3de79321	0.113073595
18	0xbe0a38f4	-0.13498288
19	0x3dd06d67	0.10177117
20	0x3de9711d	0.11398528
21	0xbe4c4def	-0.19951604
22	0x3cdfe8ae	0.02733263
23	0x3d403954	0.046929672
24	0x3e2077f3	0.15670757
25	0x3dfb232c	0.12262568
26	0x3dd2fab6	0.103017256
27	0xbda83a77	-0.08214276
28	0x3dadf7ff	0.08494567
29	0x3df7c658	0.12098378
30	0x3ddf9227	0.10916548
31	0xbda62962	-0.08113362
32	0x3adbb7a0	0.0016763099
33	0xbd62fe9a	-0.05541859
34	0xbd9ba7df	-0.07600378
35	0x3ce54277	0.027985794
36	0xbe4275da	-0.1899027
37	0xbda6d1c2	-0.08145477
38	0x3cf10ea6	0.02942593
39	0xbd7da1f4	-0.06192203
40	0xbdfee896	-0.12446706
41	0xbddac584	-0.10682204
42	0xbd2bfac8	-0.04198721
43	0xbda237ae	-0.07920776
44	0xbdb95152	-0.09048714
45	0xbdaef3a2	-0.08542563
46	0xbdfc0ee9	-0.123075314
47	0xbe27df60	-0.16393805
48	0xbe2efa2c	-0.1708762
49	0xbdde71df	-0.10861563
50	0x3da6351f	0.08115601
51	0xbd61bd35	-0.055112083
52	0xbe134c66	-0.14384612
53	0x3cc3e7c7	0.023914231
54	0x3ddfe32b	0.10932001
55	0xbd0404ca	-0.03223113
56	0x3db0405f	0.08606028
57	0x3dcf68c3	0.101274036
58	0x3d81b02b	0.063324295
59	0x3db7515f	0.08951067
60	0x3e19fcd1	0.15037848
61	0xbcec0752	-0.028812084
62	0x3c6c3035	0.01441579
63	0xbb6ff634	-0.0036615254
64	0xbd721814	-0.059104994
65	0xbde44428	-0.11145812
66	0x3da2a5f5	0.0794181
67	0x3c624805	0.013811116
68	0xbdab29db	-0.08357593
69	0xbe05eb49	-0.13078035
70	0x3e4a4ee3	0.19756655
71	0xbb502633	-0.003176105
72	0xbe4c0647	-0.1992427
73	0x3cd553f8	0.026041016
74	0x3dd43d86	0.10363297
75	0xbdd49e4a	-0.10381754
76	0x3dac2122	0.08404757
77	0xbce031c1	-0.027367475
78	0xbd7c5a0a	-0.061609305
79	0xbca9606c	-0.02067586
80	0x3db1cdb2	0.086818114
81	0x3d91ef20	0.071256876
82	0xbde54d3d	-0.11196373
83	0xbdd5a621	-0.10432077
84	0x3cf49ba1	0.029859366
85	0xbd811bf3	-0.06304159
86	0xbe3ea2fc	-0.18616861
87	0xbd4f4e6e	-0.050611906
88	0x3daed98d	0.08537588
89	0xbd98cdc5	-0.074611224
90	0xbe01b6c0	-0.1266737
91	0x3de8644f	0.11347257
92	0x3dce2e3e	0.10067414
93	0x3b26077a	0.0025334046
94	0xbdd43a31	-0.10362662
95	0xbac1d8ad	-0.0014789306
96	0xbe41fffa	-0.18945304
97	0xbe1ff7f8	-0.15621936
98	0xbd20493f	-0.039132353
99	0xbe147dfa	-0.14501181
100	0x3e38aa4b	0.18033712
101	0xbe3c3427	-0.1837927
102	0x3af7ef1d	0.0018915866
103	0x3dab1973	0.083544634
104	0xbe0db68e	-0.1383917
105	0xbe06f74e	-0.13180277
106	0xbd7626fd	-0.060095776
107	0x3b120b38	0.002228452
108	0x3e33fd4a	0.17577091
109	0xbe2707d9	-0.16311587
110	0x3dc09509	0.09403426
111	0xbdf234ec	-0.118265
112	0xbe7f1b42	-0.24912742
113	0xbcec6179	-0.028855072
114	0x3d9c5677	0.07633679
115	0x3d1ab605	0.037771244
116	0x3e29857a	0.16554824
117	0x3dfe62d8	0.12421197
118	0xbd7059ed	-0.05867951
119	0xbbc9526f	-0.00614386
120	0xbd98ed69	-0.074671574
121	0x3e36f967	0.17868577
122	0xbd089e49	-0.033354077
123	0x3da2d7eb	0.07951339
124	0xbd56b8bb	-0.052422266
125	0x3e233ef2	0.1594198
126	0xbe112e12	-0.1417773
127	0x3e2ad623	0.16683249

conv1.event__follows__event.lin_root.weight f4 [128, 27]
0	0x3c981f5b	0.018569639
1	0x3dfe17b8	0.12406868
2	0xbd118dee	-0.035535745
3	0x3e1b8861	0.15188743
4	0x3a7088d7	0.0009175664
5	0x3de9a525	0.11408452
6	0xbe08c836	-0.13357624
7	0x3e166ca5	0.14689882
8	0xbd4a8efd	-0.04945277
9	0xbdc317ec	-0.09526047
10	0xbe05eeb2	-0.13079336
11	0xbdce5a18	-0.10075778
12	0xbe19be8b	-0.15014093
13	0x3d8e6b8a	0.06954105
14	0xbe4e8fda	-0.20172063
15	0x3c30f29f	0.010800033
16	0xbde71272	-0.11282815
17	0xbe133181	-0.14374353
18	0xbdab10cc	-0.08352813
19	0x3db24259	0.08704061
20	0xbd9bc624	-0.07606152
21	0xbe734a71	-0.23758866
22	0x3ca66e22	0.020316187
23	0x3be0e6ad	0.006863436
24	0x3d712ce4	0.0588807
25	0xbdc6b6f1	-0.09702862
26	0x3e2c9a15	0.16855653
27	0xbdead4ed	-0.114663936
28	0x3da086cb	0.0783821
29	0xbe0c25b6	-0.1368626
30	0xbc3f2254	-0.011665899
31	0xbdba4229	-0.0909465
32	0xbe593de8	-0.21215022
33	0x398638af	0.00025600704
34	0x3c3dfd5f	0.011596053
35	0xbe1cfcf5	-0.1533087
36	0xbe360710	-0.17776132
37	0xbd30ce59	-0.04316554
38	0x3d235538	0.039876193
39	0xbe64b09e	-0.22332999
40	0x3dbf972d	0.09355006
41	0xbc975742	-0.018474225
42	0xbce4744c	-0.027887486
43	0xb9bced0e	-0.00036034774
44	0x3d8c1cdc	0.06841442
45	0x3ca8b284	0.020592935
46	0x3e104d16	0.14091906
47	0x3de0cb5d	0.109762885
48	0x3f22fe4f	0.63669294
49	0xbd9bd88d	-0.07609663
50	0xbd71c67a	-0.059027173
51	0xbc477478	-0.012173764
52	0xbdf935bb	-0.121684514
53	0x3e4a228e	0.19739744
54	0x3d097bf3	0.033565473
55	0x3e02d97c	0.12778276
56	0xbdf1e5e5	-0.11811427
57	0x3e227280	0.15863991
58	0xbe10dd60	-0.14146948
59	0x3e24fb36	0.16111454
60	0xbd8f121b	-0.06985875
61	0x3e68a7d5	0.22720273
62	0xbd98d1df	-0.07461905
63	0x3e622e7b	0.22088043
64	0xbd543181	-0.051805023
65	0x3e1c48d4	0.15262157
66	0x3d0c7ca4	0.034298554
67	0x3da9bc1b	0.082878314
68	0xbddc8a1c	-0.1076853
69	0x3ca05464	0.01957149
70	0x3e4df4f6	0.20112976
71	0xbe126db7	-0.14299665
72	0x3e2f4f82	0.17120174
73	0x3dfeec31	0.12447394
74	0x3e38cd54	0.18047076
75	0xbeccdf2f	-0.40014026
76	0xbd8fcf68	-0.070219815
77	0xbb9e9f01	-0.004840732
78	0x3dbd09ad	0.09230361
79	0x3d2774a6	0.04088273
80	0xbd3176d4	-0.043326214
81	0xbdaff8b3	-0.085923575
82	0x3d604452	0.054752655
83	0xbd8bbd1c	-0.06823179
84	0xbd390326	-0.04516902
85	0xbde28dcc	-0.11062202
86	0xbc82f01a	-0.01598363
87	0xbe0f5492	-0.13997105
88	0x3904dec0	0.00012671482
89	0x3e1c2c2f	0.1525123
90	0xbe11af75	-0.14227088
91	0x3cdbd6dc	0.026835851
92	0x3d5e0f1f	0.05421364
93	0x3d75e525	0.060032982
94	0x3cefd423	0.02927596
95	0x3e05927e	0.13044164
96	0x3df49eb2	0.11944331
97	0xbcbaae06	-0.022788059
98	0x3e2d3284	0.16913801
99	0xbdd33d79	-0.10314459
100	0xbba14d43	-0.0049225404
101	0x3e331af5	0.17490752
102	0x3ecd450b	0.40091738
103	0x3e28b4fb	0.16475289
104	0x3e15a60d	0.14614125
105	0x3db12298	0.08649176
106	0x3cae1762	0.021251384
107	0x3e26f0e7	0.16302834
108	0xbd105baf	-0.035243686
109	0x3dff3046	0.12460379
110	0x3d7f0d3e	0.062268488
111	0xbd54f53e	-0.051991694
112	0xbe334405	-0.17506416
113	0x3de7bc62	0.11315228
114	0xbdd28ee5	-0.10281161
115	0x3e286cbd	0.1644773
116	0x3e5a3181	0.21307947
117	0xbd21279f	-0.039344426
118	0xbcb9966d	-0.022654736
119	0x3d1669b5	0.036721904
120	0xbd52cdb8	-0.05146572
121	0xbe28bbbd	-0.16477866
122	0x3e32dce3	0.17467074
123	0x3e27b429	0.1637732
124	0xbd032365	-0.032016177
125	0xbd3bfe27	-0.045896675
126	0xbd9a30db	-0.0752885
127	0xbe2b4834	-0.16726762
128	0x3c4cd75f	0.01250252
129	0xbec11718	-0.37712932
130	0x3cca8215	0.024720231
131	0xbd62b579	-0.055348847
132	0x3c5f139a	0.013615513
133	0xbe002c00	-0.12516785
134	0xbd8ef5df	-0.0698049
135	0x3ddc0c8e	0.10744582
136	0x3d1abe08	0.037778884
137	0xbdddec13	-0.10836043
138	0x3e6ca9b8	0.23111618
139	0x3e3ecaa7	0.18631993
140	0xbe1d7a34	-0.15378648
141	0x3d41c275	0.04730459
142	0xbe44c1a3	-0.19214492
143	0x3e14f7f6	0.14547715
144	0xba2d1a33	-0.000660333
145	0x3d89b1ba	0.06723352
146	0x3c29f0d0	0.010372356
147	0xbdc49e78	-0.09600538
148	0xbdb28635	-0.08717004
149	0xbcc383d5	-0.023866573
150	0xbe3ebb20	-0.1862607
151	0x3e3253bc	0.17414755
152	0xbbccddbe	-0.0062520197
153	0xbd933c8b	-0.07189282
154	0x3e068035	0.13134845
155	0x3de761f7	0.11297982
156	0xbeefe096	-0.46851033
157	0xbd1a2a21	-0.037637834
158	0xbd407062	-0.046982177
159	0xbc5e7d56	-0.013579687
160	0xbe0e03a9	-0.13868584
161	0x3e0e01fa	0.13867941
162	0xbe224371	-0.1584604
163	0x3de1b070	0.11019981
164	0xbe8846e2	-0.2661658
165	0xbe667099	-0.2250389
166	0xbe4b43f3	-0.1985014
167	0x3d7d233a	0.061801173
168	0xbda5523b	-0.08072325
169	0xbe631f7a	-0.22179976
170	0xbd98dd24	-0.07464054
171	0xbe666801	-0.22500612
172	0xbe46f7b7	-0.19430433
173	0xbdef6db8	-0.11690849
174	0x3e01da2b	0.1268088
175	0xbe1d1813	-0.15341215
176	0x3aa468d9	0.0012543454
177	0x3e0079e5	0.12546499
178	0x3d7d39ce	0.061822705
179	0xbe205abb	-0.15659611
180	0x3d310619	0.043218706
181	0xbdf724a8	-0.120675385
182	0xbe8c6de8	-0.27427602
183	0x3e293d92	0.16527393
184	0x3dab95a6	0.083781525
185	0xbe5e7d6b	-0.2172753
186	0xbc7c8389	-0.01541222
187	0xbe0d00d8	-0.13769853
188	0xbdeb7e21	-0.114986666
189	0x3ecb5e98	0.39720607
190	0x3e813027	0.2523205
191	0x3e2175a0	0.15767527
192	0x3e71a2e7	0.23597299
193	0x3da257a0	0.079268694
194	0x3d940b40	0.07228708
195	0x3c967f1f	0.018371163
196	0xbd94ac2a	-0.072594
197	0xbe03793c	-0.12839216
198	0x3c09667f	0.008386253
199	0xbe2ce2ff	-0.16883467
200	0xbbf06142	-0.007335813
201	0xbe06cb6a	-0.13163534
202	0x3e4e7977	0.20163523
203	0x3e15ee52	0.14641693
204	0xbd450727	-0.048102524
205	0x3e1480ae	0.14502212
206	0x3df7d654	0.12101427
207	0x3d8c5648	0.06852394
208	0x3e172526	0.14760265
209	0x3a9633ca	0.0011459526
210	0x3e177338	0.14790046
211	0x3d051312	0.03248889
212	0x3c17d599	0.009267234
213	0x3e5998e7	0.21249734
214	0x3d4779fe	0.048700325
215	0x3eabf0e8	0.33582234
216	0xbdb546cc	-0.08851394
217	0xbdd755c3	-0.105144046
218	0x3d3c8762	0.04602755
219	0xbd9b6e9b	-0.07589456
220	0xbd9ec809	-0.077529974
221	0xbe08dd6b	-0.13365714
222	0x3d922c97	0.07137411
223	0x3d863ecd	0.06554947
224	0x3e356216	0.17713198
225	0xbe10b716	-0.14132342
226	0xbda6fedc	-0.08154079
227	0xbe3fb6ea	-0.1872212
228	0xbb82f7b9	-0.003996816
229	0x3d54ad50	0.051923096
230	0x3d8ab446	0.06772666
231	0x3e360af8	0.17777622
232	0x3e000a1e	0.1250386
233	0x3c3cbdfa	0.011519903
234	0xb913c117	-0.00014090944
235	0xbcf53839	-0.029934036
236	0xbe0394ee	-0.12849781
237	0x3ef9be8f	0.48778197
238	0x3d8b3c1e	0.06798576
239	0xbd4fcf6f	-0.050734933
240	0x3d5e7637	0.054311957
241	0x3dd5604e	0.10418759
242	0x3cda979e	0.026683625
243	0xbe4704cc	-0.19435424
244	0xbe77be15	-0.24193604
245	0xbe3db804	-0.18527228
246	0xbd7aeaa8	-0.061258942
247	0xbe275e42	-0.1634455
248	0x3c352fc9	0.011058756
249	0xbe83ab1b	-0.2571648
250	0x3db5501f	0.088531725
251	0xbe493343	-0.19648461
252	0x3c44f912	0.012022274
253	0xbdcc2c5b	-0.09969398
254	0xbe6c54cc	-0.23079222
255	0xbe403f11	-0.18774058

conv1.event__interacts__application.lin_rel.weight f4 [128, 27]
0	0xbd051c7c	-0.032497868
1	0x3e33f252	0.17572907
2	0x3cf81443	0.030283099
3	0xbd016f3f	-0.031600233
4	0xbe1e33db	-0.15449469
5	0xbdbbcb88	-0.0916968
6	0x3e33b26a	0.17548528
7	0xbe1a2bd3	-0.1505578
8	0x3ddb7e68	0.107174695
9	0xbd408318	-0.04700002
10	0x3df76da8	0.12081462
11	0xbe5bbbbb	-0.21458332
12	0xbe3da639	-0.1852044
13	0x3e49b720	0.19698763
14	0xbda2c003	-0.079467796
15	0xbdeddd88	-0.11614519
16	0x3cc74483	0.024324661
17	0xbdb0f23c	-0.086399525
18	0x3e38253a	0.17982951
19	0x3d10f283	0.035387527
20	0xbd02eb19	-0.031962488
21	0x3bff7466	0.007795858
22	0xbe488d0d	-0.19585057
23	0xbe34fdde	-0.17674968
24	0xbc6a0c5e	-0.014285175
25	0x3e0d17c4	0.13778597
26	0xbce14c36	-0.02750216
27	0xbd88b015	-0.0667421
28	0xbd3f28e3	-0.046669852
29	0x3d3b68dc	0.0457543
30	0xbdd346c8	-0.10316235
31	0x3e253590	0.16133714
32	0xbcaf2615	-0.021380464
33	0x3d5f3b1b	0.054499727
34	0xbe131504	-0.14363486
35	0xbd86fc75	-0.06591121
36	0x3e2b01e4	0.1669994
37	0x3e16282e	0.14663765
38	0xbe1c8e6d	-0.15288706
39	0xbe4ca69d	-0.19985433
40	0x3e1ebaf1	0.15501
41	0xbdc2397d	-0.09483621
42	0xbe1b86a5	-0.15188082
43	0xbdf5c951	-0.12001289
44	0x3d9796d5	0.07401816
45	0xbdc6f9cb	-0.09715613
46	0xba7f0edb	-0.00097296917
47	0x3e19ed3f	0.15031908
48	0x3e5edf49	0.21764864
49	0x3e1b268b	0.15151422
50	0xbda4097a	-0.0800962
51	0xbde7a6a3	-0.1131108
52	0x3e46a1f0	0.19397712
53	0x3e45e8e3	0.1932712
54	0xbdaae560	-0.08344531
55	0xbdb81c8a	-0.089898184
56	0x3df3fd53	0.11913552
57	0xbdc80849	-0.09767205
58	0x3e2b54c5	0.16731556
59	0xbda852c0	-0.08218908
60	0xbd4eceff	-0.050490376
61	0x3e394859	0.18094005
62	0xbd1f16d1	-0.03884012
63	0xbd45c525	-0.048283715
64	0xbe6cf96b	-0.2314202
65	0xbd87181d	-0.06596396
66	0x3b80078e	0.0039071506
67	0xbe0c441b	-0.13697855
68	0xbe2cdd77	-0.16881357
69	0xbe69fefa	-0.22851172
70	0x3d967b90	0.073477864
71	0xbdf11730	-0.11772001
72	0xbd88d985	-0.066821136
73	0xbde400c4	-0.111329585
74	0x3d01bdaa	0.03167502
75	0x3df9184a	0.12162836
76	0x3e57238e	0.21009657
77	0x3d280e31	0.04102916
78	0xbd9a26a6	-0.07526903
79	0x3e1ddf1a	0.15417138
80	0x3e033ffe	0.1281738
81	0x3dc6bdcb	0.09704169
82	0xbdc8a516	-0.09797113
83	0xbe1b2375	-0.15150245
84	0x3e5c400e	0.2150881
85	0xbdaaba8f	-0.083363645
86	0xbd51458d	-0.05109172
87	0xbd0ce930	-0.034402072
88	0xbd62684d	-0.05527525
89	0xbdc3d511	-0.095621236
90	0x3d7992f0	0.060931146
91	0x3dd4b9ef	0.103870265
92	0x3e044489	0.12916769
93	0x3e6ac10d	0.22925206
94	0xbcf712e3	-0.030160373
95	0x3d155e4c	0.03646688
96	0xbdbcfcff	-0.09227943
97	0xbc4837da	-0.012220347
98	0x3e0566be	0.13027474
99	0x3cfa5b6b	0.03056117
100	0x3dad8009	0.084716864
101	0x3e6130ee	0.21991321
102	0xbe906ee4	-0.28209603
103	0xbcc8af31	-0.0244976
104	0x3e04ef9f	0.12982033
105	0xbbb42298	-0.005497288
106	0x3e1f19a9	0.15537132
107	0x3de529eb	0.11189636
108	0xbe2dffba	-0.16992083
109	0xbd80e571	-0.062937625
110	0x3e43f0c1	0.19134809
111	0x3ce5cab0	0.02805075
112	0xbd54a3b7	-0.051913943
113	0x3e472ad9	0.19449939
114	0x3d63a683	0.05557872
115	0x3d6ca71c	0.057776555
116	0xbd9b8b25	-0.07594899
117	0x3db953c5	0.09049181
118	0xbd85d004	-0.065338165
119	0xbdb766bb	-0.08955141
120	0xbdf08c7a	-0.11745544
121	0x3d98ec47	0.07466941
122	0xbe36f2fe	-0.17866132
123	0xbe4a6e2e	-0.19768593
124	0xbe313207	-0.1730424
125	0x3e37ec7d	0.17961307
126	0xbd409b5b	-0.04702316
127	0x3dfabd55	0.122431435
128	0x3d8325bd	0.064036824
129	0x3d918d8c	0.07107076
130	0x3ddbe81c	0.10737631
131	0x3dfac6df	0.12244963
132	0xbe141e57	-0.14464699
133	0xbde3a26f	-0.11114966
134	0xbde1fbe2	-0.11034371
135	0x3d5d9a18	0.054102033
136	0xbe1154a2	-0.14192441
137	0xbda29082	-0.07937719
138	0xbdd2aa90	-0.102864385
139	0xbb720c0f	-0.0036933457
140	0xbcb8312e	-0.022484388
141	0xbe541b2d	-0.20713492
142	0x3de915b5	0.113810934
143	0xba680321	-0.0008850564
144	0xbe5ee7ed	-0.2176816
145	0xbd7c65a5	-0.061620373
146	0x3dc1c23c	0.094608754
147	0xbd2ff650	-0.04295951
148	0x3dd7412a	0.10510476
149	0xbe22dfbd	-0.15905662
150	0xbcad57f4	-0.021160103
151	0xbe0dfaeb	-0.13865249
152	0xbe1ddd13	-0.15416364
153	0xbe08c906	-0.13357934
154	0x3c1fe8e7	0.009760118
155	0x3e1bae10	0.15203118
156	0xbdf50418	-0.119636714
157	0x3d3894df	0.04506385
158	0xbe8d1694	-0.27556288
159	0xbd39e39e	-0.04538309
160	0xbd87a746	-0.06623702
161	0xbd92f939	-0.07176442
162	0x3e0bd92d	0.13657065
163	0x3ddaf822	0.10691859
164	0xbc9aff13	-0.018920457
165	0x3e1b6942	0.15176871
166	0x3e035be4	0.12828022
167	0xbd02cfab	-0.03193633
168	0x3d0c87f9	0.03430936
169	0xbd424c35	-0.047435958
170	0x3d42d2bf	0.047564264
171	0x3c6e7e82	0.014556529
172	0xbe1ab0c7	-0.15106498
173	0xbd7c0843	-0.061531316
174	0xbe47f32d	-0.19526358
175	0xbe39fdf0	-0.18163276
176	0x3d498ca6	0.0492064
177	0xbe355ffd	-0.17712398
178	0xbdbdada5	-0.09261636
179	0xbe31010f	-0.1728556
180	0xbdda2d55	-0.10653178
181	0xbcac4b27	-0.02103193
182	0x3e0c6085	0.13708694
183	0x3e28df40	0.16491413
184	0xbda5f5ba	-0.08103509
185	0x3dc8f322	0.09811999
186	0xbc90533d	-0.017617816
187	0xbdd1c206	-0.10242085
188	0x3d8736c0	0.066022396
189	0xbe316542	-0.17323783
190	0xbe8388b0	-0.25690222
191	0xbd81b018	-0.06332415
192	0xbe7ad30a	-0.24494568
193	0x3e071d0d	0.13194676
194	0xbb054545	-0.0020335477
195	0xbd3b35e5	-0.045705695
196	0x3df28d23	0.11843326
197	0x3d0b3258	0.03398356
198	0x3e02c346	0.12769803
199	0x3d16a69a	0.036779977
200	0x3df2f9f4	0.11864081
201	0xbe5ffc30	-0.21873546
202	0xbe499cac	-0.19688672
203	0xbdf60e6b	-0.12014469
204	0xbc0318ea	-0.008001545
205	0xbd8e0b92	-0.069358006
206	0x3d978db2	0.07400073
207	0xbc7b5c2b	-0.015341799
208	0xbe6ede29	-0.23326935
209	0x3d32a2ec	0.043612406
210	0x3e3f8004	0.18701178
211	0xbe0fce24	-0.1404348
212	0xbd62294e	-0.055215172
213	0xbe042158	-0.12903345
214	0x3e12bb67	0.14329301
215	0x3d5edc5e	0.054409377
216	0xbd19e5f8	-0.03757283
217	0x3d0faa58	0.03507456
218	0x3da1aa4d	0.078938104
219	0x3e097765	0.13424452
220	0x3df5b480	0.11997318
221	0x3d98c487	0.074593596
222	0x3bed0634	0.0072334055
223	0xbdfac7a8	-0.12245113
224	0x3d918939	0.07106251
225	0x3e48c166	0.19605026
226	0xbd361bfb	-0.044460278
227	0x3e051009	0.12994398
228	0x3e21efed	0.1581418
229	0x3e226550	0.1585896
230	0xbe0f3978	-0.13986766
231	0x3e71ae74	0.23601705
232	0x3e0733c5	0.13203342
233	0xbd9d2d3e	-0.07674645
234	0xbd2cefe9	-0.042220984
235	0x3dba36a2	0.09092452
236	0xbd68cbf4	-0.05683513
237	0xbe850278	-0.25978446
238	0x3bb9c85e	0.0056696376
239	0x3e239244	0.15973765
240	0xbcdbf5d8	-0.026850626
241	0x3c0dcdf6	0.008655062
242	0xbe1c256e	-0.15248653
243	0x3d999b6f	0.0750035
244	0x3d5280ea	0.051392473
245	0xbd5cd004	-0.053909317
246	0xbdeca183	-0.115542434
247	0xbe0bf313	-0.13666944
248	0xbde299e0	-0.110645056
249	0xbdefdcfe	-0.11712073
250	0xbe1a3d32	-0.15062407
251	0xbd4ef3d9	-0.05052552
252	0x3ce01074	0.027351595
253	0xbd9eae0e	-0.07748042
254	0x3dc29a2a	0.09502061
255	0xbd02e432	-0.031955905

conv1.event__interacts__application.lin_rel.bias f4 [128]
0	0xbe10386b	-0.14084022
1	0xbdd9c190	-0.10632622
2	0x3cb10e44	0.021613248
3	0x3debae8b	0.11507901
4	0xbca8bc1f	-0.020597516
5	0x3da75384	0.08170226
6	0xbd94c6ec	-0.07264504
7	0x3e0e1cd2	0.13878182
8	0x3d7bc70b	0.06146912
9	0xbdd74772	-0.10511674
10	0xbe267882	-0.16256908
11	0xbe43ed9d	-0.19133611
12	0x3cb8ee43	0.02257455
13	0xbd8c8142	-0.068605915
14	0xbd2b5545	-0.041829366
15	0x3dc49427	0.0959857
16	0x3e0cdce3	0.13756137
17	0x3e42a1d1	0.1900704
18	0x3d531e39	0.051542494
19	0x3d4bcd6c	0.049756452
20	0xbc8a3e78	-0.01687549
21	0x3e0504bc	0.12990087
22	0xbd4922d5	-0.049105484
23	0xbe06db87	-0.1316968
24	0xbc68d138	-0.014210038
25	0xbde84f71	-0.11343277
26	0x3d83c8d6	0.06434791
27	0x3d3954b4	0.045246795
28	0xbe06aaa8	-0.13151038
29	0xbd80c1bc	-0.06286952
30	0x3df9aabe	0.121907696
31	0x3dd0c23a	0.10193296
32	0x3cf7a3ee	0.030229535
33	0x3e02c818	0.12771642
34	0xbd8c6952	-0.06856026
35	0xbd9c3c64	-0.07628706
36	0x3cf652fa	0.030068863
37	0x3e4593d3	0.19294672
38	0xbe4b16d6	-0.1983293
39	0x3c060545	0.008179967
40	0x3db6785b	0.08909675
41	0xbc908d9b	-0.017645648
42	0x3dee6d95	0.11641995
43	0x3e3e5388	0.18586552
44	0xbd8cb8df	-0.06871199
45	0xbe691c78	-0.22764766
46	0xbb741cca	-0.0037248605
47	0xbe11a7eb	-0.14224212
48	0xbdeacc86	-0.11464791
49	0xbe12d7da	-0.14340153
50	0xbcd5c60f	-0.026095418
51	0x3e2ca622	0.1686025
52	0x3e04c1f1	0.12964608
53	0x3cd07ae4	0.025449224
54	0xbdaa89f0	-0.08327091
55	0xbdf282b2	-0.118413344
56	0x3c49f151	0.012325601
57	0x3dcfa0e4	0.10138109
58	0xbddfba12	-0.10924162
59	0x3e51cc2d	0.20488043
60	0x3db92de5	0.09041957
61	0x3e0a977d	0.1353435
62	0xbd093ba3	-0.03350414
63	0xbe3b0e6b	-0.18267219
64	0xbbb5f9a1	-0.0055534397
65	0x3d054c8f	0.032543715
66	0xbdeafe21	-0.114742525
67	0xbd426ee7	-0.047469046
68	0x3e027fc7	0.12744056
69	0xbdc9d7a4	-0.09855583
70	0xbe08e9d0	-0.13370442
71	0x3ca32a20	0.019917548
72	0xbdedeeff	-0.116178505
73	0x3d8e1427	0.069374375
74	0xbd1fc784	-0.039008632
75	0xbddbfeb8	-0.10741943
76	0x3d852fa1	0.06503225
77	0x3def730a	0.11691864
78	0x3cae06f7	0.021243555
79	0xbd4cc70b	-0.04999451
80	0x3dbaa812	0.09114088
81	0x3dcfb988	0.10142809
82	0xbe237366	-0.1596199
83	0xbe6b18dc	-0.22958702
84	0xbda2205f	-0.079163305
85	0xbd252e84	-0.040327564
86	0xbd47dee2	-0.048796542
87	0x3c90d7c7	0.017681016
88	0x3da96f9c	0.08273241
89	0xbdc9db48	-0.09856278
90	0xbd52aa7f	-0.05143213
91	0xbe23dd5f	-0.16002415
92	0xbdd7949b	-0.10526391
93	0xbc8f13e5	-0.017465541
94	0xbdc659b1	-0.09685076
95	0xbe1524d7	-0.14564835
96	0x3c913faa	0.017730553
97	0x3e04c312	0.12965038
98	0x3d85efde	0.06539892
99	0x3e4c31c2	0.19940856
100	0xbd99e3cf	-0.07514154
101	0xbc932257	-0.01796071
102	0xbe2ead1e	-0.17058226
103	0xbe30b53c	-0.17256635
104	0xbcf7c194	-0.030243672
105	0xbcc73c30	-0.024320692
106	0xbdad9461	-0.08475567
107	0x3df51646	0.11967139
108	0xbd5ccb1e	-0.053904645
109	0xbe0163e8	-0.12635767
110	0x3dba72e9	0.091039486
111	0x3df77f49	0.120848246
112	0x3df734d2	0.120706216
113	0x3e32dfd2	0.17468193
114	0x3dbb9292	0.091588154
115	0x3df62ac5	0.120198764
116	0xbd8460c7	-0.06463771
117	0xbe0f2805	-0.1398011
118	0xbd96b167	-0.073580556
119	0x3deebf19	0.11657543
120	0xb9b307dd	-0.000341474
121	0x3d3a9ab4	0.045557693
122	0x3d246e98	0.040144533
123	0xbe056fd3	-0.13030939
124	0x3e14b070	0.1452043
125	0x3d4bf95b	0.04979835
126	0x3c9c0dbd	0.01904952
127	0xbd36a4df	-0.044590827

conv1.event__interacts__application.lin_root.weight f4 [128, 3]
0	0xbeb9cf9c	-0.36291206
1	0x3ea66fc8	0.32507157
2	0x3d228902	0.039681442
3	0x3eddb5c1	0.4330273
4	0x3edcc75b	0.43120846
5	0x3d8a5d0c	0.067560285
6	0x3e93f752	0.28899628
7	0x3dde712f	0.10861432
8	0x3ed6922b	0.41908392
9	0x3e57f5c7	0.2108985
10	0x3e5b2704	0.21401602
11	0xbea4c45d	-0.32181063
12	0xbd9fe332	-0.07807006
13	0xbec264f9	-0.3796766
14	0xbeb9163d	-0.3614978
15	0x3e0ef001	0.13958742
16	0xbdda08ab	-0.106461845
17	0x3ecd6a28	0.40120053
18	0xbe5d1c10	-0.21592736
19	0xbeb2e6aa	-0.34941608
20	0x3ed01c62	0.40646654
21	0x3f0fd67d	0.5618666
22	0x3e34a148	0.17639649
23	0x3ebce9c4	0.368971
24	0x3e93d5bb	0.28874
25	0xbe3dd6f3	-0.18539028
26	0xbe9819da	-0.29707223
27	0x3e533fa6	0.20629749
28	0xbe88a0b0	-0.26685095
29	0x3eca35e4	0.3949424
30	0xbebf9d9f	-0.37424943
31	0x3f099aa9	0.5375162
32	0xbec7e8a9	-0.39044693
33	0x3f077f40	0.52928543
34	0x3df13afd	0.11778829
35	0x3e2ab619	0.16671027
36	0x3e7d1c25	0.24717768
37	0xbef4e6b8	-0.47832274
38	0x3e74bd63	0.2390037
39	0xbdaaa0ff	-0.08331489
40	0xbe089c66	-0.13340911
41	0xbe141bea	-0.14463773
42	0x3f123da8	0.5712533
43	0xbe0d7ae8	-0.13816416
44	0x3e455144	0.19269282
45	0x3eeed641	0.46647838
46	0xbee1114b	-0.43958506
47	0xbe937ca0	-0.2880602
48	0xbecdc6ac	-0.40190637
49	0xbe233be6	-0.15940818
50	0x3eb5723b	0.35438713
51	0x3e96ddd3	0.29466113
52	0x3efa2a60	0.48860455
53	0xbedaed2a	-0.42759067
54	0xbf070826	-0.5274681
55	0xbed8cd32	-0.42344052
56	0x3f0ba7e2	0.54553044
57	0x3e89489c	0.2681321
58	0x3ed49193	0.41517314
59	0x3e0747ce	0.13210985
60	0xbec11d21	-0.37717536
61	0xbdddfa1a	-0.10838719
62	0x3d4b8da9	0.049695645
63	0xbf010298	-0.5039458
64	0x3e9b3676	0.30314988
65	0xbea9e657	-0.33183548
66	0x3e5b72a6	0.21430454
67	0x3e6adf18	0.22936666
68	0x3ebfe4e0	0.37479305
69	0x3e14e3c1	0.14540006
70	0x3e2ee940	0.17081165
71	0xbe0d9497	-0.13826214
72	0x3ea88b13	0.32918605
73	0xbec1ffcd	-0.37890473
74	0x3e7808ab	0.24222057
75	0x3d97fc7e	0.07421206
76	0x3e717591	0.23580004
77	0x3df82e7d	0.12118242
78	0x3e8da425	0.27664295
79	0x3ee82662	0.45341784
80	0x3eb09178	0.34485984
81	0xbef5ab6e	-0.47982353
82	0x3d6e1850	0.058128655
83	0xbe2fe2b0	-0.17176318
84	0x3ec89906	0.39179248
85	0xbd9877f8	-0.07444757
86	0x3e5a85cb	0.213401
87	0xbeef5166	-0.4674179
88	0x3ec2797b	0.37983307
89	0xbe5dd7e9	-0.21664394
90	0x3de70b5a	0.11281462
91	0x3e9fc79c	0.31206977
92	0xbd1d8659	-0.038458202
93	0xbde46dfd	-0.11153791
94	0xbd8edbd0	-0.0697552
95	0xbee3285e	-0.44366735
96	0x3d674716	0.056464277
97	0x3eb2f3a3	0.34951505
98	0x3ec10813	0.37701473
99	0x3ec541e1	0.38526824
100	0xbef14a98	-0.47127223
101	0x3e7a44bb	0.24440281
102	0xbe2b681a	-0.1673893
103	0x3e50b2b9	0.20380677
104	0xbe2ee9ed	-0.17081423
105	0xbee5710e	-0.44812816
106	0x3ee4f94d	0.4472145
107	0x3e9e1065	0.30871883
108	0xbe234473	-0.1594408
109	0x3dd84b3f	0.10561227
110	0x3ed3c83f	0.41363713
111	0xbefa985b	-0.48944363
112	0xbeed868f	-0.46391723
113	0xbe934be8	-0.2876885
114	0xbed67c0f	-0.41891524
115	0x3e7750cc	0.24151915
116	0x3efa242c	0.48855722
117	0x3dab1ed6	0.08355491
118	0x3e331589	0.17488684
119	0x3ed1e1cb	0.4099258
120	0x3d9e0d29	0.07717354
121	0x3e2c962a	0.16854158
122	0x3e26a898	0.16275251
123	0x3dc3b2e1	0.09555603
124	0xbe1e8b60	-0.15482855
125	0x3de8ee40	0.113735676
126	0xbd403ca8	-0.046932846
127	0x3da53aad	0.08067832
128	0x3ee9949c	0.45621192
129	0xbe79e883	-0.24405102
130	0x3e5c6be0	0.21525526
131	0x3cbf6134	0.02336178
132	0xbe56b24c	-0.20966452
133	0xbed5b50a	-0.41739684
134	0xbd5d4e0e	-0.054029517
135	0x3b8d8e33	0.00431993
136	0xbe6eaae4	-0.23307377
137	0xbe9a6249	-0.3015311
138	0xbea14f50	-0.31505823
139	0xbea3b03f	-0.31970403
140	0xbe3e9eff	-0.1861534
141	0xbec890c9	-0.39172962
142	0x3efc8d0d	0.49326363
143	0x3f0b9334	0.5452149
144	0x3edb3f2f	0.42821643
145	0x3d9073d2	0.07053341
146	0x3ed11d26	0.4084255
147	0x3ed95ca2	0.42453486
148	0x3f0ea224	0.55716157
149	0x3ed52d0e	0.41635936
150	0xbeca2751	-0.3948312
151	0xbe8bfc9e	-0.2734117
152	0xbf08c37e	-0.534233
153	0xbe2954ce	-0.16536257
154	0xbe383934	-0.17990571
155	0xbe4bb6c7	-0.19893943
156	0xbea16b4e	-0.3152718
157	0x3c2474a1	0.010037572
158	0x3edd11e6	0.43177718
159	0xbecf3210	-0.40467882
160	0x3eaa9868	0.33319402
161	0xbdac2f92	-0.08407511
162	0xbec5f962	-0.38666826
163	0xbe8f6c4c	-0.2801231
164	0xbe805908	-0.25067925
165	0xbecf2557	-0.40458176
166	0xbea06525	-0.31327167
167	0x3e066ddc	0.13127846
168	0x3d937804	0.072006255
169	0xbf00cdd3	-0.5031406
170	0x3d8a5e7d	0.067563035
171	0x3e86c71d	0.26323786
172	0x3dc912ab	0.09818014
173	0xbee72518	-0.45145488
174	0x3e98c466	0.2983734
175	0xbc7ea019	-0.0155411
176	0x3e2cb6e5	0.16866644
177	0xbe75a177	-0.23987375
178	0x3e3899f6	0.18027481
179	0xbeca1760	-0.3947096
180	0x3eb8afe3	0.3607169
181	0x3ec2545e	0.37954992
182	0x3e5605e7	0.20900689
183	0x3e157469	0.14595188
184	0x3e629426	0.22126827
185	0xbf045f1f	-0.51707643
186	0x3e72e663	0.23720698
187	0x3edb36e4	0.42815316
188	0xbeb94dd3	-0.36192188
189	0x3ca9ae99	0.020713137
190	0xbb79784b	-0.0038066085
191	0xbbb1d9a1	-0.0054275547
192	0x3e8678e5	0.2626411
193	0x3e846e05	0.25865188
194	0x3e30dda5	0.1727205
195	0xbc162088	-0.0091630295
196	0xbeb572f8	-0.35439277
197	0x3f0d79ba	0.55263865
198	0x3df0f0a1	0.11764646
199	0x3e82fa38	0.25581527
200	0x3ee2ea31	0.443193
201	0x3dc41a98	0.09575385
202	0xbeae6816	-0.34063786
203	0x3dbcb476	0.09214108
204	0xbdfe7850	-0.124252915
205	0x3f07c11d	0.5302904
206	0xbe73db25	-0.23814066
207	0x3e839df6	0.25706452
208	0x3e755da5	0.23961504
209	0xbd0d47bf	-0.03449225
210	0x3e7eda19	0.24887885
211	0x3ec2ea2c	0.38069284
212	0xbe9a26c0	-0.3010769
213	0x3d0f9a7e	0.035059445
214	0x3e8633a8	0.26211286
215	0x3ea54033	0.32275543
216	0xbee1da42	-0.4411183
217	0xbe3d2128	-0.1846968
218	0x3eabc160	0.3354597
219	0xbe9b7e8f	-0.30369994
220	0x3e3f5a7e	0.18686864
221	0x3ddf1bd7	0.10893982
222	0xbd2fea56	-0.04294809
223	0xbe0c8e91	-0.1372626
224	0xbedbc6b7	-0.42925045
225	0xbeec5c2a	-0.46164066
226	0x3e3493c3	0.17634492
227	0x3f00e361	0.5034695
228	0xbe122dbf	-0.14275263
229	0x3ec9e6bb	0.39433846
230	0x3e8ce35b	0.27517208
231	0xbdd67b46	-0.10472731
232	0xbb88cc6a	-0.0041747587
233	0xbe1897b6	-0.14901623
234	0x3e4b0a65	0.19828184
235	0x3e7e5408	0.24836743
236	0x3eb687da	0.35650522
237	0x3b02d693	0.0019964322
238	0xbefc2e7c	-0.49254215
239	0xbc35f67e	-0.011106132
240	0xbe8a4b2b	-0.27010474
241	0xbe998006	-0.29980487
242	0xbe248f4f	-0.16070293
243	0x3eb7f9a4	0.35932648
244	0xbeef5d3b	-0.46750817
245	0x3e72f16d	0.23724909
246	0x3e59d369	0.21272053
247	0x3d250478	0.040287465
248	0xbe3e49ad	-0.18582793
249	0xbd2b4eac	-0.041823074
250	0x3dd3a409	0.103340216
251	0xbec84bd5	-0.39120355
252	0x3e510be6	0.20414695
253	0xbe801f40	-0.25023842
254	0xbe5f8fb0	-0.21832156
255	0x3f0a955e	0.54134166

conv1.event__interacts__offer.lin_rel.weight f4 [128, 27]
0	0xbe59d5e8	-0.21273005
1	0xbd80668f	-0.062695615
2	0x3b44108f	0.0029917096
3	0xbe2a7220	-0.16645098
4	0xbdf07ba0	-0.117423296
5	0x3d89ef1d	0.0673506
6	0x3dc7411b	0.09729215
7	0xbd8313dd	-0.06400273
8	0xbdb97390	-0.09055245
9	0x3e0f5467	0.1399704
10	0x3d527361	0.051379565
11	0x3e556bff	0.20841978
12	0xbe32542f	-0.17414926
13	0x3d0eceae	0.034865074
14	0x3d7e0e12	0.062025137
15	0xbe350533	-0.17677765
16	0xbc3b6cd4	-0.011439521
17	0xbd099b63	-0.033595454
18	0xbd6e3d68	-0.05816403
19	0x3da4cd5a	0.0804698
20	0xbe11b745	-0.14230068
21	0x3eb4808f	0.35254332
22	0x3dbe046d	0.09278188
23	0x3deb650a	0.11493881
24	0xbda96125	-0.08270482
25	0xbd855c1d	-0.0651171
26	0x3e1bbd2a	0.15208879
27	0xbe90ae37	-0.28257915
28	0xbe23ccb5	-0.15996058
29	0xbe097531	-0.13423611
30	0xbda444bd	-0.08020923
31	0xbc3dc443	-0.011582437
32	0xbc9a8365	-0.018861482
33	0xbe14586b	-0.14486854
34	0xbd915e69	-0.070980854
35	0xbd571607	-0.05251124
36	0xbcf5d6fe	-0.030009743
37	0xbe807e1c	-0.25096214
38	0xbe5349e7	-0.2063366
39	0xbe8cfcf9	-0.27536753
40	0x3bc62b04	0.0060476083
41	0xbe26dbbf	-0.16294764
42	0x3d4d30ea	0.050095476
43	0xbe4b2588	-0.19838536
44	0x3e023ac6	0.12717733
45	0x3d2967c2	0.041358717
46	0x3da1c384	0.0789862
47	0x3c024285	0.00795043
48	0x3dac3268	0.08408052
49	0x3e420b92	0.18949726
50	0x3dbbf171	0.09176911
51	0xbdb53cd2	-0.08849491
52	0xbe7bebfe	-0.24601743
53	0x3c432730	0.0119111985
54	0x3e317d6f	0.17333005
55	0x3e01360a	0.1261827
56	0x3e3492d2	0.17634133
57	0x3db5aa7d	0.08870409
58	0x3bdeba2b	0.0067970953
59	0x3d73d6ac	0.0595309
60	0x3c9107f5	0.01770399
61	0xbbbef1a9	-0.005827148
62	0x3dd8b078	0.10580534
63	0x3e167022	0.14691213
64	0x3e372213	0.17884092
65	0x3ddd2820	0.10798669
66	0xbe019603	-0.12654881
67	0xbd849353	-0.06473412
68	0x3dd76310	0.105169415
69	0x3c6ee74e	0.0145815145
70	0x3e0069e0	0.12540388
71	0x3e3cc096	0.1843284
72	0xbc80878c	-0.015689634
73	0xbda37841	-0.07981921
74	0x3e03cab1	0.1287029
75	0xbeed9d36	-0.46409005
76	0xbd32afa0	-0.04362452
77	0x3d9076c1	0.070539005
78	0xbddcd6da	-0.10783167
79	0xbddda01f	-0.10821556
80	0xbd57069f	-0.05249655
81	0x3da1c0d2	0.07898106
82	0x3dcd2780	0.100173
83	0x3d9c181a	0.076217845
84	0x3d11f536	0.035634242
85	0xbdbca879	-0.09211821
86	0xbd065c80	-0.03280306
87	0x3ccee4ed	0.025255645
88	0x3cf5116f	0.02991554
89	0xbd4bcce1	-0.049755935
90	0x3ddff4bd	0.10935352
91	0x3caba507	0.020952715
92	0xbda7dec8	-0.08196789
93	0xbca6f24b	-0.020379206
94	0xbe5ef745	-0.21774013
95	0xbe4433a9	-0.19160332
96	0x3e1eac79	0.1549548
97	0xbe4d3880	-0.20041084
98	0xbdf34281	-0.11877919
99	0xbe02c028	-0.12768614
100	0x3e35079a	0.17678681
101	0xbd0761c7	-0.033052232
102	0x3e94e468	0.2908051
103	0x3ea03f6d	0.3129839
104	0xbda3d1fd	-0.079990365
105	0xbd53b458	-0.05168566
106	0xbcb3b6d7	-0.02193777
107	0x3e6344e1	0.22194244
108	0xbd2a095b	-0.04151283
109	0x3d9c61fe	0.07635878
110	0x3c98a968	0.018635467
111	0xbcfae016	-0.03062443
112	0xbd9cf188	-0.07663256
113	0x3d8b4cbf	0.068017475
114	0xbe5e6d17	-0.21721302
115	0x3e6351bd	0.2219915
116	0x3dbf56bc	0.09342715
117	0xbdc497c5	-0.0959926
118	0xbdfa35a8	-0.12217265
119	0x3e08c4c5	0.13356312
120	0x3e88244e	0.26590198
121	0xbd1190b6	-0.035538398
122	0x3e76b71d	0.2409329
123	0xbe4b5fcf	-0.19860767
124	0x3e692dd4	0.22771388
125	0x3b6c600e	0.0036067995
126	0x3e40058c	0.18752116
127	0xbe030b94	-0.12797385
128	0xbd99d112	-0.0751058
129	0xbe6c57aa	-0.23080316
130	0xbdeefc12	-0.11669172
131	0x3de80c5e	0.11330484
132	0x3e3998f1	0.18124749
133	0x3e7b0e51	0.2451718
134	0xbe6cf0b5	-0.23138697
135	0xbe53962c	-0.20662755
136	0xbe28df1c	-0.1649136
137	0xbd3ced74	-0.04612489
138	0xbe4119f9	-0.18857564
139	0xbd5c679c	-0.053809747
140	0xbe2f68cb	-0.17129819
141	0x3d81f9a3	0.063464426
142	0x3cca5dde	0.024702962
143	0xbddfd730	-0.10929716
144	0xbe1b00d4	-0.15137035
145	0xbe2bccc8	-0.16777337
146	0x3d40d979	0.047082398
147	0xbe519f9f	-0.20471047
148	0x3e093934	0.13400728
149	0x3c6ce449	0.014458724
150	0x3d16b37e	0.03679227
151	0xbd1dd857	-0.038536396
152	0xbe184300	-0.14869308
153	0x3e263ac9	0.16233362
154	0x3c840e73	0.016120171
155	0x3d839cdf	0.06426405
156	0x3ec4de27	0.3845074
157	0xbcd2ee6d	-0.025748456
158	0xbb4811ee	-0.0030528265
159	0x3db27b51	0.08714927
160	0xbcf33d5e	-0.029692348
161	0x3e6afd45	0.22948177
162	0x3d845a9b	0.06462594
163	0x3de28da8	0.11062175
164	0x3b798fca	0.003808009
165	0xbe08aaea	-0.13346449
166	0xbdfa1b8e	-0.12212287
167	0x3d72d091	0.059280936
168	0x3d114884	0.035469547
169	0x3e184561	0.14870216
170	0xbe5280cd	-0.20556946
171	0xbe3038bc	-0.17209142
172	0xbe32dadf	-0.17466305
173	0x3e00e9da	0.12589207
174	0x3d12fb62	0.03588427
175	0xbd010cbd	-0.03150629
176	0xbdaca95c	-0.0843074
177	0x3dcb323c	0.09921691
178	0x3dbf05a4	0.09327248
179	0x3e00c0d2	0.12573555
180	0x3dd6d555	0.104899086
181	0x3ce78a89	0.0282643
182	0xbdca9036	-0.09890787
183	0xbcdc1029	-0.026863175
184	0xbe89ccd2	-0.26914078
185	0xbdf7cab6	-0.12099211
186	0xbe3e36fb	-0.18575661
187	0xbb934278	-0.0044940077
188	0xbe2b9532	-0.16756132
189	0xbdfc0c95	-0.12307087
190	0x3d710d91	0.05885083
191	0xbe0595b1	-0.13045384
192	0x3e33f0e7	0.17572366
193	0xbdecc89b	-0.115617
194	0x3c92ac08	0.017904297
195	0xbe1303df	-0.14356945
196	0xbd2bb850	-0.04192382
197	0x3e24e9b7	0.1610478
198	0xbd907166	-0.07052879
199	0x3dda8298	0.1066944
200	0xbd5461cf	-0.05185109
201	0xbe851b36	-0.25997323
202	0x3e90671b	0.28203663
203	0xbd91a25c	-0.07111046
204	0xbe19184e	-0.14950678
205	0x3dd2f715	0.103010334
206	0x3d9a4112	0.075319424
207	0xbd3ea318	-0.046542257
208	0xbe09597a	-0.13413039
209	0xbe006f82	-0.12542537
210	0xbe182b01	-0.14860155
211	0xbdacc564	-0.08436087
212	0xbe30818e	-0.17236921
213	0x3e171e37	0.1475762
214	0x3e2459d2	0.16049889
215	0x3d82773a	0.06370397
216	0x3e07eff3	0.13275127
217	0xbdb2d401	-0.08731843
218	0xbdcc58cb	-0.099778734
219	0xbdffa034	-0.12481728
220	0x3db4238f	0.08795845
221	0x3d82a960	0.06379962
222	0x3dc9e964	0.09858969
223	0xbe45e31e	-0.1932492
224	0x3e4797c5	0.19491489
225	0x3db044c2	0.086068645
226	0x3e0b6cb1	0.13615681
227	0xbd898fc0	-0.06716871
228	0xbe145a82	-0.14487651
229	0xbe2159a1	-0.15756847
230	0x3dff40ca	0.124635294
231	0x3d2f5076	0.042801343
232	0xbe9edf48	-0.31029725
233	0xbe4d1645	-0.20028026
234	0x3ddf3138	0.108980596
235	0xbe3722ba	-0.17884341
236	0xbd73bdf6	-0.059507333
237	0x3dff2a42	0.12459232
238	0x3e0038ad	0.1252162
239	0x3a819ea2	0.0009889195
240	0xbe5a02cd	-0.21290131
241	0xbd6a595f	-0.057214137
242	0xbe8002b3	-0.2500206
243	0xbe25a3b6	-0.16175732
244	0x3cddb4c1	0.02706373
245	0xbc99fbd9	-0.018796848
246	0xbdf0fb6b	-0.11766704
247	0x3d4bafc1	0.04972816
248	0xbbe6cd8b	-0.0070435456
249	0xbe1bf03d	-0.15228362
250	0x3e075b73	0.13218479
251	0xbe439551	-0.19099928
252	0x3dceb836	0.10093729
253	0xbcc07891	-0.02349499
254	0xbe561c98	-0.20909345
255	0x3e1b5d2e	0.15172264

conv1.event__interacts__offer.lin_rel.bias f4 [128]
0	0xbd4002d3	-0.046877693
1	0x3dc81701	0.09770013
2	0x3cdf15f8	0.027232155
3	0xbe043771	-0.12911774
4	0xbde19525	-0.11014775
5	0x3b9ae15a	0.004726571
6	0xbdb4d728	-0.088301
7	0x3dae05a8	0.084971726
8	0x3df6b5f4	0.120464236
9	0x3da32c47	0.079674296
10	0xbd535750	-0.05159694
11	0xbe01e0b3	-0.12683372
12	0xbde2fbeb	-0.11083206
13	0xbd5684da	-0.05237279
14	0xbe005876	-0.12533745
15	0xbd8330f9	-0.06405825
16	0x3bc59a47	0.006030354
17	0xbd278dfd	-0.040906895
18	0x3df90e21	0.12160898
19	0xbd9d243d	-0.076729275
20	0x3ddeda55	0.10881487
21	0x3d3b0387	0.04565766
22	0x3d821506	0.06351666
23	0x3d8ef0e0	0.06979537
24	0x3c131395	0.008976837
25	0x3dd3f362	0.10349156
26	0x3e163ecd	0.14672394
27	0xbd44cec7	-0.04804876
28	0xbd675a0d	-0.056482363
29	0x3dbf7a78	0.09349531
30	0xbe4cdc3a	-0.20005885
31	0xbd7c23f4	-0.061557725
32	0x3e011b8b	0.12608163
33	0x3d30d04d	0.0431674
34	0xbd6f8838	-0.058479518
35	0x3d0cfb10	0.03441912
36	0x3e15af55	0.14617665
37	0xbdd9a642	-0.10627414
38	0xbc97e049	-0.018539565
39	0xbcebfe6e	-0.028807845
40	0xbdf6ffe1	-0.12060524
41	0xbdc75bec	-0.097343296
42	0x3e335436	0.17512593
43	0x3b86df4f	0.004115976
44	0x3d995bd6	0.074882194
45	0x3d882bd8	0.066489875
46	0x3e0ca752	0.13735703
47	0xbe595242	-0.21222785
48	0x3d043fe6	0.0322875
49	0x3d1d9765	0.03847446
50	0xbe1e64db	-0.15468161
51	0x3d706bb0	0.05869645
52	0xbc8db401	-0.017297747
53	0x3de3f6e1	0.11131073
54	0x3e025899	0.1272911
55	0x3daafdc8	0.08349186
56	0x3da10d3f	0.078638546
57	0xbcb4789f	-0.022030173
58	0x3cb03c70	0.021513194
59	0x3e0006ca	0.1250259
60	0x3d92ab09	0.071615286
61	0x3d94ab93	0.07259288
62	0x3d93f73e	0.07224892
63	0xbd46de35	-0.048551757
64	0xbd2dba0a	-0.04241375
65	0xbd8ec20b	-0.069706045
66	0xbe499c13	-0.19688444
67	0x3dcd2f29	0.10018761
68	0x3dd62511	0.104562886
69	0xbd6ca413	-0.05777366
70	0x3e13c6ee	0.14431354
71	0x3dcee7bd	0.10102794
72	0xbd9f92d8	-0.0779168
73	0xbd0b0034	-0.03393574
74	0xbdadbe3c	-0.0848355
75	0x3d3922d5	0.045199234
76	0x3e3b6277	0.1829928
77	0xbe3d3464	-0.18477017
78	0x3c3e637b	0.011620398
79	0x3e119eff	0.14220808
80	0xbe21e427	-0.1580969
81	0x3dea8c52	0.11452545
82	0x3d1d49ca	0.03840045
83	0xbe14283c	-0.14468473
84	0x3d15ef01	0.036604885
85	0x3e318735	0.17336734
86	0x3e2fda78	0.17173183
87	0x3e058a22	0.13040975
88	0x3d60e645	0.054907102
89	0x3e264f42	0.16241172
90	0x3dcf72b6	0.10129301
91	0xbd828b48	-0.06374222
92	0xbe1a2005	-0.15051277
93	0x3d0bd5de	0.034139507
94	0xbe0fcaae	-0.1404216
95	0xbe337826	-0.17526302
96	0x3db803a0	0.089850664
97	0xbe0ab074	-0.13543874
98	0x3ddd9d72	0.10821046
99	0x3e0cd526	0.13753185
100	0x3b9d3821	0.004797951
101	0x3be5beec	0.007011285
102	0xbe0dc903	-0.13846211
103	0x3db72b25	0.08943776
104	0x3e236d5e	0.15959689
105	0xbcb2c7ee	-0.02182385
106	0x3e40d8ec	0.18832749
107	0xbe313cbc	-0.17308325
108	0x3e22526e	0.15851757
109	0x3c519a4b	0.012793134
110	0x3e23c6bf	0.15993784
111	0x3d791338	0.060809344
112	0x3dde34cb	0.10849913
113	0xbe09f8ee	-0.13473865
114	0xbe2f4150	-0.17114758
115	0x3c7a78b2	0.015287565
116	0xbdd51802	-0.1040497
117	0xbdf2e7e3	-0.11860635
118	0x3e066be4	0.13127095
119	0xbcdf04db	-0.027223995
120	0xbd38b475	-0.045093972
121	0xbe0bbad2	-0.13645485
122	0x3da5e25f	0.080998175
123	0x3d82d671	0.06388558
124	0x3e06e48d	0.13173123
125	0x3e3239e3	0.17404895
126	0xbcbc3d21	-0.022978367
127	0xbc80fef6	-0.015746575
