models/BPI17/efg/exp_v2/no_subgraph_sampling/lr=0.01_hidden_dim=32/HigherOrderGNN_20230830_00h54m/state_dict_epoch1.pt (torch, 19327 bytes, 7 tensors)

convs.0.lin_rel.weight f4 [32, 27]
000000 f9 50 52 bd e0 09 70 3b 9a 22 01 bd 0b f3 bf 3d
       -0.051346753 0.003662698 -0.03152714 0.09372529
000010 db fc 2c be 35 7c 0b be 45 1d ff bd 18 2d 41 3d
       -0.16893332 -0.136216 -0.124567546 0.047162145
000020 e5 12 f3 bd 55 bf 3a be 09 b5 b9 3d e8 e0 81 3e
       -0.11868838 -0.1823705 0.09067733 0.25366902
000030 12 35 94 be 6d 4a 08 3f b2 5e d2 3d 31 61 4c 3e
       -0.2894674 0.53238565 0.10271968 0.1995895
000040 1d 2c 5e 3e 9f a9 77 3d 55 c7 fb bd 9d 62 17 3e
       0.21696515 0.060464498 -0.12293879 0.14783712
000050 3f b4 5d be fa 53 ad bc 3f 4b 88 bd 5a de fc bd
       -0.2165079 -0.021158207 -0.06654977 -0.12347098
000060 7c 9e 00 be 53 6b b6 bc d6 2e 5a 3e 7f f7 19 3e
       -0.12560457 -0.022267973 0.21306929 0.15035819
000070 7d f4 c9 3b 26 04 de 3d 5a 1f db 3d 70 c4 9e 3d
       0.0061631785 0.10840635 0.10699339 0.07752311
000080 77 0f e2 3c 6f a5 9e 3d 57 65 e7 3d 83 9d f1 3c
       0.027595265 0.07746398 0.11298626 0.029494053
000090 2c 07 bf 3d 63 9b 2b 3e e4 34 b9 3d b8 fb 18 3d
       0.0932754 0.16758494 0.09043291 0.037349433
0000a0 07 1a 9d 3e 8e b2 be 3e 9e 3b 07 3d ee 35 28 3e
       0.3068392 0.372456 0.03301584 0.16426823
0000b0 41 97 50 3e 23 6c 43 bd 25 7f 1a bd 5b f0 63 3c
       0.20370199 -0.04771055 -0.03771891 0.013912286
0000c0 4f 7f 05 bc 73 d3 a9 3c 48 fa a7 bd 20 15 73 be
       -0.0081480285 0.02073071 -0.08202034 -0.23738527
0000d0 81 84 9e bd 3a 7a 1b 3c ed 26 e5 bd ad bd 08 be
       -0.07740117 0.00948959 -0.11189065 -0.13353606
0000e0 65 1f e1 bd 30 5b df be c2 42 90 3d 1c d2 40 bd
       -0.10992316 -0.43624258 0.07043983 -0.047075376
0000f0 d3 59 f3 bd 02 05 49 3d 71 94 1e bc b6 63 63 3d
       -0.11882367 0.04907704 -0.009678946 0.055515014
000100 9a 56 7a ba 27 57 2d 3d 00 9c 7a bd 22 32 28 bd
       -0.0009549648 0.042319443 -0.06118393 -0.041063435
000110 9c ec 96 be e6 d6 a7 be a1 a8 3e bd 43 19 66 3e
       -0.29477394 -0.32781142 -0.046547536 0.22470574
000120 6e 5c 18 be 24 f4 92 be ac 97 1c bd f8 2c 10 3e
       -0.14879009 -0.2870189 -0.038230583 0.14079654
000130 4c 48 6a be 68 56 44 bc 72 f4 6a 3e 48 e8 65 bd
       -0.22879142 -0.0119834915 0.22944811 -0.056129724
000140 05 ef b7 3d 22 f7 96 bd fc 69 1c 3e 72 97 96 bc
       0.08981136 -0.073713556 0.15274805 -0.018382762
000150 b4 c9 de 3d 45 24 b3 3d 70 9e 9f bd 44 3b 10 bd
       0.108783156 0.08747152 -0.077938914 -0.03521277
000160 b8 2f 2e be 8d 62 9c 3d a9 eb 78 be d6 3a 4c be
       -0.17010391 0.076359846 -0.24308647 -0.19944319
000170 70 ea bc be c5 32 83 bd 50 10 40 3f 5e 6c 62 3e
       -0.36897612 -0.06406168 0.7502489 0.22111651
000180 c7 55 3b 3e ff fa 8a 3d c7 ef a1 3e 4c 66 a6 bd
       0.1829444 0.06786155 0.31628248 -0.0812498
000190 28 0d a0 be 2d 34 63 bd 02 d6 99 3d 76 47 e9 3c
       -0.31260037 -0.05546968 0.07511522 0.028476458
0001a0 9b e3 04 be b9 12 13 be ab 33 7c be 69 51 81 3c
       -0.1297745 -0.14362611 -0.24629085 0.01578589
0001b0 e2 d5 09 3d 12 00 bb bd 75 7a 74 bd e9 25 a4 be
       0.03365124 -0.09130873 -0.059687097 -0.32060173
0001c0 bb f8 c3 be 80 b8 66 bd 8f 8d f2 3d 28 6c b8 bd
       -0.38275704 -0.056328297 0.118434064 -0.09005004
0001d0 0c c6 05 3e 30 d9 19 be 87 62 ae 3d 27 cf 00 3f
       0.1306383 -0.15024257 0.08514886 0.5031609
0001e0 97 74 2b be 96 60 01 3f 30 d5 af 3e 76 e5 61 3f
       -0.16743694 0.50538003 0.34342337 0.88240755
0001f0 81 34 f4 bd dc 8b 37 3d 43 82 cd bc 6a 47 29 be
       -0.11924077 0.044811115 -0.025086528 -0.16531149
000200 65 a9 a0 bd e3 7c 8c be 8b 11 8d bd 4b f4 e8 3d
       -0.078448094 -0.2743903 -0.06888112 0.1137472
000210 c2 15 71 3e 23 34 4a 3e 3a d8 c9 3d d9 6e ed bc
       0.23543456 0.19746451 0.09855695 -0.02898352
000220 17 79 07 3f 6b f6 de 3e 5f 5a 47 3e 06 47 9f 3c
       0.52919143 0.43547377 0.19468068 0.019443046
000230 f4 26 b7 bc 14 e9 f5 3d 52 da e3 3d 4d d6 88 3c
       -0.022357441 0.12007347 0.11125626 0.01670375
000240 53 35 b2 bc 3a 42 87 be c4 23 84 be 64 4f 04 3e
       -0.021753943 -0.26417714 -0.25808537 0.1292091
000250 ba fc 65 3e 9f 63 1c 3e 8d 3f 12 be e2 8a 2e 3e
       0.22459689 0.15272377 -0.14282055 0.17045167
000260 25 6d 3a 3d 66 fa f0 bd fb 4b 70 bc cc e4 e0 bc
       0.045514245 -0.1176651 -0.014666553 -0.027452849
000270 17 94 4d 3e 1d 0e f1 bc 92 b5 84 be 5e e0 b9 3d
       0.20076023 -0.029425675 -0.25919777 0.09075998
000280 b8 86 a3 be df 30 52 3e 3e 98 4d 3e e1 6d 8e be
       -0.3193872 0.20526455 0.20077607 -0.27818206
000290 3d 1f 61 be d1 dd e4 bd 7a d5 08 bd 52 1a 7f 3d
       -0.21984573 -0.111751206 -0.033406712 0.06228096
0002a0 a2 0d 82 3d 46 0e 4d be f3 35 7e bd e9 e0 fa 3d
       0.063502565 -0.20024976 -0.06206317 0.122499295
0002b0 0d c3 97 3e 88 1b 07 bf 35 12 8f bd 93 6d be 3e
       0.29641 -0.52776384 -0.069858946 0.37192973
0002c0 bd b2 5e 3d a6 11 09 3d 9a d8 34 3e 82 ad 24 bd
       0.054369677 0.033464096 0.17660752 -0.040204532
0002d0 1a 10 8a bd 45 b0 85 3e 5c f3 7c 3c ab 2b e1 bc
       -0.067413524 0.26111045 0.015438881 -0.027486643
0002e0 58 f9 b4 bd ba 6a 66 be 8f 28 df bd aa 1c 3c 3e
       -0.08836621 -0.2250165 -0.10896408 0.1837031
0002f0 40 9e 07 be e6 66 d9 bd 50 2c 6a 3e f9 6c 09 be
       -0.13243961 -0.106153294 0.22868466 -0.13420476
000300 87 e1 77 3e 6a 85 37 3d fc 8e b3 bd 9e a6 b4 3d
       0.24207126 0.044804968 -0.087675065 0.08820842
000310 20 62 43 be ae 3f f0 bd 95 b7 6f be 04 2a 89 bc
       -0.190804 -0.11730896 -0.23409875 -0.016743667
000320 0e 1c 81 bd b6 01 b6 bc 3a 08 be 3b 76 f6 f5 3e
       -0.06304179 -0.022217613 0.0057993205 0.48039597
000330 3c a1 1e 3e 94 2b 10 3e 89 cb 56 3e 8f 3d b8 bd
       0.15491194 0.14079124 0.2097608 -0.08996116
000340 7f f2 f1 bd e8 09 94 bc 48 0b 9b 3d ed 1e 0a bc
       -0.118138306 -0.01807113 0.07570511 -0.008430225
000350 97 37 7f be 47 e7 3b be 51 8e 8f 3d 58 f3 57 3e
       -0.2492355 -0.18349944 0.070095666 0.21088922
000360 53 8c 6e 3d 1e 70 9e 3d 0c 12 df bd b7 a0 25 be
       0.058239292 0.077362284 -0.10892114 -0.16174589
000370 1a 60 b3 3c 1d 9d 0c bb 5b 0a 88 3d ad 83 d4 3d
       0.02189641 -0.0021455952 0.066426 0.10376678
000380 2f e5 6f 3e 5f ec 3a 3e 09 d4 a9 bd 75 32 09 3d
       0.2342727 0.18254231 -0.082923956 0.033495385
000390 77 b9 19 3d 83 b3 2b be d6 30 3a bd ce 35 2d be
       0.03753039 -0.16767697 -0.04545673 -0.16915056
0003a0 f5 da 15 3d 70 43 58 3e de 6e a7 3c ec b0 f2 3d
       0.036585767 0.21119475 0.020438608 0.118501514
0003b0 ea 6f 0a bd c3 2a 47 3d 94 40 d5 bd 58 15 a2 3d
       -0.033798136 0.048624765 -0.10412708 0.07914227
0003c0 b7 37 ea 3e ad 93 c8 3d 7b f5 b5 3d 17 8b 3f be
       0.45745632 0.09793792 0.08884712 -0.18705402
0003d0 c7 7f a5 bd ed d5 8f 3e a0 4b 3b be 02 d7 bc 3e
       -0.08081012 0.280929 -0.18290567 0.36882788
0003e0 9d 29 21 be 50 22 84 3e fe e4 c6 3b f6 f4 dc bd
       -0.1573853 0.25807428 0.0060697785 -0.1078891
0003f0 d0 19 b1 be 38 b3 b0 bd fe 29 bf 3c 0d 26 8c 3d
       -0.34590006 -0.08627933 0.023335453 0.06843195

convs.0.lin_rel.bias f4 [32]
000000 92 71 04 bf 90 b8 86 bf 0b 7f 17 be 06 be 08 bf
       -0.51735795 -1.0525074 -0.14794557 -0.5341495
000010 33 89 27 bf 78 d9 e4 be 1e 0b 87 bd cf 70 f0 be
       -0.65443724 -0.44697165 -0.06593917 -0.46961066
000020 82 8d 84 be c5 bc 67 be 6e 64 81 bf 27 a4 09 3d
       -0.25889212 -0.22630604 -1.0108774 0.033603813
000030 ae 4f 45 be 42 fb 9e 3e 0a 38 40 bf b5 8f 55 bf
       -0.19268677 0.3105107 -0.7508551 -0.83422405
000040 12 d7 a3 be 71 04 47 bf b3 de 01 bf 06 3a 95 be
       -0.32000023 -0.7774115 -0.5073044 -0.2914583
000050 f6 e8 2d bf 59 6e a3 be 30 02 3a bf f0 70 5f bf
       -0.67933595 -0.31920126 -0.7265959 -0.87281704
000060 b9 3c 4b bf 34 56 f9 be ec a4 e7 bd 38 b1 04 bf
       -0.7938953 -0.4869858 -0.11310753 -0.51832914
000070 83 02 58 bf 66 93 1b bf 68 9e c7 be d9 7a 1c be
       -0.8437883 -0.6077179 -0.38988042 -0.15281238

convs.0.lin_root.weight f4 [32, 27]
000000 9c 14 2d be eb cd 9c be 62 87 04 be bc c0 42 bc
       -0.16902393 -0.30625853 -0.1294227 -0.011886772
000010 1c a2 a8 bd c5 db 0c bc 5a f7 af bd ff 0f 04 3e
       -0.08234045 -0.008597319 -0.085921004 0.12896727
000020 e0 5f 95 bd 3f 8a 8b 3d 25 e5 26 be 61 2f c3 3e
       -0.07293677 0.06813478 -0.16298349 0.38122085
000030 b7 cf b8 be c4 1b a7 be 97 1a 40 3e 75 7e 0c be
       -0.36095974 -0.3263837 0.18760143 -0.13720115
000040 68 d6 16 bc bc 3c 97 be 14 f0 33 bd af b3 5a 3e
       -0.009206392 -0.29538524 -0.04393013 0.21357606
000050 72 8f de bd cf 77 4c be 9c b3 32 3e 6e 5c 88 3c
       -0.10867204 -0.19967578 0.17451328 0.016645636
000060 8c 9c 87 be 8b 22 d4 bd 33 69 a8 be 4b 9d 4f 3e
       -0.26486623 -0.10358151 -0.3289276 0.20274846
000070 cf a4 ad 3d 35 6a 5f bd a7 da ab 3d 9f c0 ac 3e
       0.084787 -0.054544646 0.08391314 0.33740708
000080 03 d3 13 3d 35 50 87 3d 28 d3 04 3e 2c f1 21 be
       0.03608991 0.06607095 0.12971175 -0.15814656
000090 2f 4e 23 3e a9 f5 86 3d ff 1b 50 3d 1b 4d 9d 3d
       0.15947793 0.06589825 0.05080795 0.07680722
0000a0 bf 66 11 bd 06 81 7f 3d 81 97 6b be 4b 5d 81 39
       -0.035498377 0.062378906 -0.23007013 0.00024674306
0000b0 f3 93 87 be a8 0d 5d bd 4a 54 f6 3c 6c e4 c6 bd
       -0.26480064 -0.0539681 0.030069489 -0.09711537
0000c0 f1 e5 73 bd e8 3b da bc 57 35 4c bd 4f f1 b9 bd
       -0.05954546 -0.026639894 -0.049855556 -0.09079229
0000d0 21 90 51 bb 22 06 4a bc 7a 61 8c be 91 10 cf 3d
       -0.0031976777 -0.012330564 -0.2741812 0.10110582
0000e0 85 71 ca be 53 fa 5f be 71 6b 5a be 1e 16 f9 3c
       -0.39539734 -0.21872835 -0.21330048 0.030406054
0000f0 85 95 b7 bc 29 aa 04 bf de 16 1d bf b7 48 a7 be
       -0.022410164 -0.51822144 -0.6136302 -0.32672665
000100 10 4e 2a 3e 8c 24 6c 3e 69 ed 3e 3e 13 86 ca be
       0.16631341 0.23060817 0.18645252 -0.39555416
000110 73 cb 38 be 96 e8 81 bd 97 3a 16 be 14 63 4b 3e
       -0.1804636 -0.0634319 -0.14670788 0.19862014
000120 e4 f4 19 be 8a 84 5b be 0e b3 48 be 84 d6 6a be
       -0.15034825 -0.21437278 -0.19599554 -0.22933394
000130 0f 13 a6 bd c6 14 30 3e ba a7 0e bf 99 55 f4 3e
       -0.08109104 0.17195424 -0.5572468 0.47721556
000140 ac 77 51 3c 81 a0 d8 3d 7a 5e 6f be 13 ea 5c be
       0.01278488 0.10577489 -0.23375884 -0.21573667
000150 eb 6f 2f bd dd 27 32 bd e9 d4 d7 3c 09 c9 a2 be
       -0.042831343 -0.043495048 0.02634664 -0.31794003
000160 0e 66 1a be de db 12 3d 54 a0 53 bd 3d 3e 0e 3e
       -0.15077993 0.035854213 -0.051666573 0.1389093
000170 0f 7f 0a 3d 24 b9 4c 3a aa 95 65 3b c1 22 83 3e
       0.03381258 0.00078095705 0.0035031834 0.25612453
000180 07 a1 06 be c9 74 01 3c ab 31 1b be d5 6e 83 bd
       -0.13147365 0.007901379 -0.15155666 -0.06417624
000190 c1 86 20 be 08 82 2e bd 96 64 38 3e 40 16 8d bc
       -0.15676405 -0.042604476 0.1800712 -0.017222524
0001a0 d0 0a 0b be 3a e1 18 bf b2 80 b3 bd f9 d5 ea be
       -0.13578343 -0.5971867 -0.08764781 -0.45866373
0001b0 84 d2 8e 3d 14 0b 9f bd ff 46 4c bc d9 de 30 bc
       0.069737464 -0.07765785 -0.012468099 -0.0107953185
0001c0 5c b6 6f 3e 6c 93 12 be 26 61 80 3e 77 49 f3 3d
       0.23409408 -0.1431405 0.25074118 0.11879247
0001d0 47 f0 1d bd 1b a7 31 3e 20 af e3 be 22 f4 ed bd
       -0.038559224 0.17348902 -0.44469547 -0.1161883
0001e0 83 d2 af be 8f 00 88 be f3 56 94 be dd fa 5a be
       -0.34340295 -0.26562926 -0.28972587 -0.21384759
0001f0 1b 22 cf bd 9f a3 4a 3d 02 ad 36 be 6e 3e 25 3e
       -0.10113927 0.049472447 -0.17839435 0.16137096
000200 27 b6 7a bd c4 e0 3f be 65 fa b3 3d 75 27 cd bd
       -0.06120887 -0.18738085 0.08787993 -0.100172915
000210 c6 e1 0c be 39 0a b7 3c 15 cc 27 3e 30 ab b1 3e
       -0.13758 0.022343742 0.16386445 0.34700918
000220 2e c0 30 3f 31 97 86 3e a9 e3 87 3e 07 a8 db 3e
       0.6904324 0.26287225 0.26540878 0.42901632
000230 f1 fc b3 bd e3 d8 66 3f a8 fb dd bd 73 2d 60 be
       -0.08788479 0.9017469 -0.10839015 -0.21892338
000240 01 b0 98 be 6b 51 f1 bd a9 8f 35 be 5b 00 1a be
       -0.2982178 -0.11783107 -0.17730583 -0.15039198
000250 65 72 b0 be 78 13 c0 3d fe 8d c8 be 26 b6 35 be
       -0.34462276 0.09378713 -0.3917083 -0.17745265
000260 df a5 c9 bd f9 f6 43 bd a8 a0 8e bd 4a 5f 52 3e
       -0.098460905 -0.047842953 -0.069642365 0.20544162
000270 0f bd 20 bc d1 a9 4d 3d cc 67 8e 3e 1e bb 26 3e
       -0.0098107 0.050210778 0.27813566 0.16282317
000280 0c fb 32 3f fc fc 42 bb ee 2d cd be 6c 73 b9 be
       0.6991432 -0.0029752841 -0.40074104 -0.36220872
000290 96 48 8a be fe ac 6f be 95 3c d9 be 31 c9 01 3e
       -0.27008504 -0.23405835 -0.42429033 0.12674405
0002a0 c4 34 ff be ee 28 80 3e ce 2f 93 3d 33 a2 cc 3e
       -0.49844944 0.25031227 0.071868524 0.39967498
0002b0 50 61 b0 3e 3e d1 85 3d 93 19 87 3d 5a b3 d2 be
       0.34449244 0.065340504 0.06596675 -0.4115246
0002c0 96 95 bb be 0f 3c b0 be d0 bd 6e be c6 c5 a4 3e
       -0.36637563 -0.3442082 -0.23314595 0.3218214
0002d0 84 f1 85 be 4e f6 c4 3e f3 93 c3 bc 49 b6 2a bd
       -0.26160824 0.38469166 -0.023874259 -0.041677747
0002e0 da 78 3f be 83 08 d5 3d d5 49 eb 3e 9b 8e d8 3d
       -0.18698445 0.10402014 0.45954767 0.10574075
0002f0 0e f1 c5 3d 73 18 24 3e af 83 5a 3e 3d bf 35 3e
       0.09665118 0.16024952 0.21339296 0.17748733
000300 57 0b 15 be df 75 5b 3e 88 30 1f bd 08 b6 c0 3e
       -0.14555107 0.21431683 -0.038864642 0.3763888
000310 19 d7 42 3e 94 0a 66 3d ad 60 7e be 77 c4 20 3e
       0.19027366 0.05616243 -0.24841566 0.15699945
000320 b9 1c f2 3d c9 68 51 bd 02 38 0b 3a 0e ab 7d 3e
       0.11821885 -0.05112532 0.0005310775 0.24772283
000330 2e f1 3c be a1 ee 86 be 51 79 1e bd 07 60 23 3e
       -0.18451378 -0.26353934 -0.038689915 0.159546
000340 d2 89 ab 3b 13 d6 77 be e4 0e 1d be 09 2f 03 3d
       0.0052349353 -0.24202757 -0.15337712 0.032027278
000350 42 c1 7a 3e 6f 47 f0 bc 4e b1 89 3e 55 39 f0 3d
       0.24487785 -0.029330937 0.26893085 0.11729685
000360 e1 57 c1 3d 1e a9 a2 be 7d 15 f1 bd b7 cf 12 be
       0.0944059 -0.3176965 -0.11771677 -0.1433705
000370 1e d4 e2 bd ff 35 69 be 73 50 82 bd dc 0b 25 3e
       -0.110756144 -0.22774504 -0.06363001 0.16117805
000380 c6 e9 c7 be 8e bb 96 be 16 e9 84 3e 92 f8 4a be
       -0.39045542 -0.29439968 0.2595908 -0.19821385
000390 2f 28 a2 3d 3f d8 47 3e cc 01 98 3e 1c 0a 8e be
       0.07917821 0.19516085 0.2968887 -0.27742088
0003a0 e2 8a 5a be 14 57 91 3d 6a 6f 55 3e 80 52 35 3e
       -0.21342042 0.07096687 0.20843282 0.17707253
0003b0 6c f3 d6 3d e0 66 ab bd d5 56 65 bc e8 24 ca be
       0.10495648 -0.08369231 -0.013997753 -0.39481282
0003c0 e4 16 a8 be e2 f5 10 3e 2a e4 57 be 78 12 a2 3e
       -0.32829964 0.14156297 -0.21083131 0.31654716
0003d0 45 50 f4 3e aa be 8c 3e 66 38 90 3e 20 04 82 3e
       0.4771749 0.27489215 0.2816803 0.25393772
0003e0 b3 21 d3 bd 6d 24 c4 be 41 56 91 be 3b 5f e5 bd
       -0.10309162 -0.3830904 -0.2838612 -0.111998044
0003f0 50 80 b4 be 73 ed ce be 45 04 48 be 41 a2 89 3d
       -0.35254145 -0.40415534 -0.19532879 0.067204006

convs.1.lin_rel.weight f4 [32, 32]
000000 17 0b 8b be 12 4d f2 3d 7a 17 08 be f1 b5 2a be
       -0.27156898 0.11831106 -0.13290206 -0.16670968
000010 3a 18 79 be 88 ce bb bd 0e 82 93 bd 33 a9 f6 bd
       -0.24325648 -0.09170252 -0.0720254 -0.12043991
000020 00 ca cb be 20 e8 38 bb a9 83 82 be 47 fc c0 be
       -0.3980255 -0.002821453 -0.25491074 -0.37692472
000030 70 77 64 3d 22 34 ca bd 0e f6 fd 3c 89 8a 86 3d
       0.055777967 -0.09873225 0.031001117 0.06569392
000040 50 80 a5 3c 85 9c c5 be 95 11 33 3d 44 3b 6d be
       0.020202786 -0.38595977 0.04371794 -0.2316714
000050 3e d5 20 be 77 bd 44 be b8 d9 6a be 8f 64 cc bb
       -0.15706345 -0.192129 -0.22934616 -0.0062375735
000060 24 f3 a7 be 86 27 97 bd 4d d4 80 be 7e 19 bb be
       -0.3280269 -0.07380585 -0.25161973 -0.36542886
000070 fe ab c6 be 7a 7e f4 bd c3 78 95 bd d1 75 40 bd
       -0.38803095 -0.11938186 -0.07298424 -0.04698736
000080 ee 35 a8 b8 dc 2c 1d be 58 f5 d4 be 9f 5e 67 3e
       -8.0209094e-05 -0.15349144 -0.41593432 0.22594689
000090 26 6b fb bd 83 23 50 be dd b1 20 be 55 04 29 be
       -0.12276296 -0.20326047 -0.1569285 -0.16505559
0000a0 1f a0 62 be da 5d 89 bc ae 3d 9b be 3f b1 7c be
       -0.22131394 -0.016768385 -0.30320495 -0.24676989
0000b0 f7 01 e7 bd c5 62 90 be 9e ca 62 bc 7b d5 50 3d
       -0.11279672 -0.28200355 -0.013842253 0.05098484
0000c0 d5 2c a8 bd 1a 18 be bb 20 89 d9 bd d2 34 39 bd
       -0.08211676 -0.005801213 -0.10621858 -0.04521639
0000d0 7c 60 29 be f0 d2 35 bc f7 83 21 be e9 ff 84 3e
       -0.16540712 -0.011097655 -0.15772997 0.25976494
0000e0 a8 8b 9a bc a7 b6 4e bc a6 47 61 bd 20 b9 41 be
       -0.018865421 -0.01261679 -0.05499997 -0.18918276
0000f0 fd 34 5b 3c a3 4c 38 3d a5 e5 2c 3d c2 dc 9e be
       0.013379333 0.04499496 0.042211194 -0.310278
000100 b4 2f 2c be 0d 5a 92 bd 58 45 96 3d fe 41 af bd
       -0.16815072 -0.07146082 0.07337445 -0.08557509
000110 83 67 10 be 79 ed a1 be 8e 98 a3 be ff 5a fc bd
       -0.14101987 -0.3162649 -0.31952327 -0.12322044
000120 45 f6 89 be cc 09 91 be 8e 11 e9 bd 19 21 ad bd
       -0.269457 -0.28327787 -0.113803014 -0.084535785
000130 de 85 20 be f2 36 98 3b f0 a2 ca bd 34 68 3a bd
       -0.15676066 0.004645222 -0.09894359 -0.045509532
000140 98 ee 93 bd 29 d6 97 be 4b 83 27 be e7 20 73 be
       -0.072232425 -0.2965558 -0.16358678 -0.2374302
000150 28 76 7f be 35 23 8e be 3a 15 46 be 0c bb a5 be
       -0.24947417 -0.27761236 -0.19344035 -0.32369268
000160 51 12 44 be 40 ea 26 be b6 04 0a 3e d5 6a 25 bd
       -0.19147612 -0.16300297 0.1347836 -0.040385086
000170 4d 43 95 be 64 c9 34 be ba 48 c9 bc 68 93 c8 bc
       -0.2915291 -0.1765495 -0.024570812 -0.024484351
000180 70 fd cd bc f6 b7 e0 3c 7b 09 8b bd a6 37 7f 3d
       -0.025145262 0.02743147 -0.06788918 0.06230893
000190 c3 57 2b be c5 97 cc bd 70 73 0d bb 94 dc 58 bd
       -0.16732697 -0.09989885 -0.0021583699 -0.052944735
0001a0 ee f0 16 3e 36 39 6b be b9 a7 0e 3d f9 08 6e be
       0.14740345 -0.22971043 0.03482792 -0.2324561
0001b0 3a bc 61 3c f6 b8 8f bd 2f f6 16 be 16 17 14 bc
       0.013777787 -0.070177004 -0.14742349 -0.009038707
0001c0 f6 81 7c bd a8 c1 46 bb 78 13 06 be 5c 11 b6 bd
       -0.061647378 -0.003032783 -0.13093364 -0.0889003
0001d0 a9 49 5f be 90 0c 63 be 6c 52 88 be fa aa 61 3d
       -0.21805443 -0.22172761 -0.26625383 0.055094697
0001e0 f2 aa d9 bd 72 ab e2 3d 0e 7f 0d be 8e db 18 be
       -0.10628308 0.11067857 -0.13817999 -0.14927503
0001f0 44 ce 28 be 25 1b 64 be eb b9 f8 bd 07 81 5d be
       -0.16484934 -0.2227598 -0.12144836 -0.21631251
000200 c0 f9 55 3d c2 17 4d be 66 d9 0a be 01 78 0f bd
       0.052240133 -0.20028594 -0.13559493 -0.035026554
000210 0e 53 de bd 17 69 b4 bc 31 53 08 be ec 39 96 bc
       -0.10855685 -0.022022767 -0.13312985 -0.018338166
000220 ae 18 b6 bd f6 d0 ad 3d 39 9e 24 be 75 e3 43 be
       -0.08891426 0.08487122 -0.16075982 -0.19129737
000230 a0 51 9c be fb e1 10 bd 58 52 b5 3d b6 c6 37 be
       -0.30531025 -0.03537176 0.088535964 -0.17946896
000240 97 1c c6 3c 00 2f 1f be ac 71 66 bd 49 3b 47 bc
       0.024183555 -0.15545273 -0.05626075 -0.012160131
000250 ec 09 63 3e ed 14 46 be 9c 52 ea bd a0 e0 4a 3d
       0.22171754 -0.1934392 -0.11441538 0.049530625
000260 f2 7b 85 be 9d ce 72 bd 3d 9c 88 3c 66 d3 83 3c
       -0.26071125 -0.059279073 0.016676063 0.016092014
000270 29 30 4f 3d c9 06 aa be 6b c4 8f 3e 76 d8 a8 bc
       0.05058304 -0.33208302 0.28079543 -0.02061103
000280 bd ce 05 3c 93 f0 c3 3e 77 10 8a be 25 8a 99 3d
       0.008166966 0.3826948 -0.26965687 0.07497052
000290 e6 bf f7 3c f8 06 55 be 0d c8 5a be 02 ba 0c bd
       0.030242871 -0.2080344 -0.21365376 -0.03435708
0002a0 aa a8 56 be a9 ab 87 3d 7d e9 7a bd 93 06 83 be
       -0.20962778 0.066245385 -0.061257828 -0.25590953
0002b0 c5 78 af 3d 17 80 e1 bd 95 a7 11 3d f1 b2 0c be
       0.08567957 -0.11010759 0.03556021 -0.13740136
0002c0 55 f5 58 be 0b cc c9 bd 90 77 37 3e a7 8f 32 be
       -0.21187337 -0.09853371 0.17916703 -0.17437612
0002d0 32 0a b3 3d 19 df f2 bd 57 34 90 be 5d 04 d4 3d
       0.08742179 -0.11858959 -0.28164932 0.10352395
0002e0 9a ea bd be 16 54 e9 bd 77 c0 a2 3d b6 16 0e be
       -0.3709305 -0.11392991 0.07946866 -0.13875851
0002f0 87 06 97 be bb 94 28 be 09 59 2a be 78 e6 63 bd
       -0.29497167 -0.16462986 -0.16635527 -0.055639714
000300 f9 97 34 be c1 85 9b 3d ab e7 93 3d 3c 7a 1d bd
       -0.17636098 0.07593871 0.072219215 -0.03844665
000310 90 1a e1 bd a4 6a 16 be 68 86 17 be 4c 1b 1c be
       -0.109913945 -0.14689118 -0.14797366 -0.15244788
000320 18 81 50 3c 56 82 3d 3d 45 69 88 bd db 35 40 3d
       0.012726091 0.046266876 -0.066607036 0.04692636
000330 b1 7a 27 be cd ef 28 be dc 47 0b 3d 29 a9 c3 3d
       -0.16355397 -0.16497727 0.034004077 0.09553749
000340 27 83 28 3d e6 e4 cb 3c c5 7d 25 3c 3a b0 ba bd
       0.0411407 0.02488942 0.010100787 -0.09115644
000350 b8 98 e6 bc e1 a2 c2 bd d7 18 9d bd dd a5 67 3e
       -0.028148994 -0.09503723 -0.076707534 0.22621866
000360 60 0a eb 3c 39 d0 1c bd b0 5e 0b be 4d d1 96 bd
       0.02869147 -0.038284514 -0.13610339 -0.0736414
000370 71 98 17 be 78 04 36 3e dc e3 02 be 77 55 e5 bd
       -0.14804246 0.17775142 -0.12782234 -0.11197942
000380 e6 9a 84 3e 57 5e 36 3e 2c 39 a1 be 96 0a 21 3e
       0.25899428 0.17809425 -0.3148893 0.15726694
000390 32 e3 17 3e 9e f4 38 be 36 93 2c bd e1 ab cb bd
       0.14832762 -0.18062064 -0.04213258 -0.09944893
0003a0 4e a8 4e 3e 36 11 9c be 30 03 22 3e ed 49 a2 bd
       0.2018139 -0.3048188 0.15821528 -0.079242565
0003b0 ed 06 12 bd ab 03 29 bf 5c 28 f7 3d 25 a9 ad 3e
       -0.035651136 -0.6602122 0.12068245 0.3391811
0003c0 76 09 71 be 7b f2 a3 3e 69 80 53 3e a2 fc 65 3d
       -0.23538765 0.32020935 0.20654453 0.056149133
0003d0 93 47 8b 3e fc 2d 01 be 66 32 c3 be b9 26 d4 3e
       0.27203044 -0.12615198 -0.38124388 0.41435793
0003e0 81 6d a3 3d 45 f6 4d 3e 97 dd 8e be d7 74 fc bd
       0.079798706 0.20113476 -0.27903435 -0.12326973
0003f0 fe 3d 4c 3e 6d 02 73 3e 98 e2 10 be a0 3d 41 3e
       0.19945523 0.23731394 -0.14148939 0.18871164

convs.1.lin_rel.bias f4 [32]
000000 52 b5 55 be 19 86 c1 be aa 88 fc 3e db b1 14 bc
       -0.2086995 -0.3779762 0.49323016 -0.009075607
000010 d2 6a 9c 3d 5f 04 90 be 1c 6d 28 be 4b 80 87 be
       0.07637562 -0.28128335 -0.16447872 -0.26465067
000020 29 57 47 be b3 de 8b be 7d 72 9e 3f 00 7b 05 bf
       -0.19466843 -0.27318344 1.2378689 -0.5214081
000030 70 43 aa be 82 20 a0 be 1d 9a 97 be 67 67 fe bd
       -0.33254576 -0.31274801 -0.29609767 -0.12422066
000040 ce a8 dd be ab 74 06 3f 20 61 96 3d a4 83 68 3f
       -0.4329285 0.5252177 0.07342744 0.9082587
000050 ac ad 81 3e 74 57 0e 3f 32 ec 60 3f 7e 5d 99 bd
       0.25327814 0.5560219 0.87860405 -0.07488535
000060 39 70 9b 3f d0 e5 f3 be 15 b7 1d be ae 58 de be
       1.2143623 -0.4763627 -0.15401872 -0.43427032
000070 89 94 0d be c9 55 18 3f c4 7d 6c 3e 27 6a 11 be
       -0.13826193 0.595059 0.23094851 -0.1420065

convs.1.lin_root.weight f4 [32, 32]
000000 12 2f bb 3d 2a 2c 57 be 56 67 bc be 0d b9 e7 bd
       0.09139837 -0.21012941 -0.3679759 -0.113145925
000010 be 32 7b bc e5 fe 90 3c 30 c6 80 be 80 1d 62 be
       -0.015331922 0.017699668 -0.25151205 -0.22081566
000020 e6 08 a3 be 29 e0 c4 3d 37 39 4c be 3b fb 76 be
       -0.31842726 0.09613068 -0.199437 -0.24119274
000030 ac 22 dc bd 2b 4a 12 be 3a 60 0d 3e d1 e8 de 3d
       -0.10748801 -0.14286105 0.13806239 0.1088425
000040 dd ae 4d 3d a2 40 a8 be a0 0d b4 3d d3 91 a9 be
       0.05021559 -0.3286181 0.08791661 -0.33119068
000050 a6 86 26 bd 01 11 1d be 12 d4 3a bd f2 4f f2 bb
       -0.040655755 -0.15338518 -0.045612402 -0.007394784
000060 28 61 ca bd fb d8 df bd 16 69 ae be 7f 28 9c be
       -0.09881812 -0.109300576 -0.3406455 -0.30499646
000070 67 25 fb be ac ca 0c be 56 f4 83 3d 23 2b bf 3d
       -0.49051973 -0.13749188 0.06443088 0.093343996
000080 6e 46 c9 3d 62 1e 5c bd 7d f5 7d bc 7b 31 cc bd
       0.098278865 -0.053739913 -0.0155004235 -0.09970375
000090 06 3a 5e be 4f ff 90 bd 3d c4 a2 3c 13 c4 59 be
       -0.21701822 -0.07079946 0.019868964 -0.21266203
0000a0 d3 54 0f bd 9f 00 b6 3d 6a 36 bc be fc be 27 be
       -0.034993004 0.08886837 -0.36760265 -0.16381449
0000b0 e2 c8 9a be eb c2 bb be 3e 60 ba 3d 27 98 cb bd
       -0.30231386 -0.36672148 0.09100388 -0.0994113
0000c0 c3 49 d6 bc 53 17 66 be 32 2a d1 bd fb f9 d6 3c
       -0.02615822 -0.22469835 -0.10213126 0.026242247
0000d0 65 01 85 bd 88 93 5b be 41 45 92 bd 38 b6 a8 3d
       -0.064944066 -0.21442997 -0.071421154 0.082378805
0000e0 54 1a 44 be 8c 7a 0d bd 1e 09 c5 bd 7e bd 12 3e
       -0.19150668 -0.034540698 -0.096208796 0.14330098
0000f0 de 3f 5d be 49 6f ad bd 72 dc 5c be 42 9d 6b be
       -0.21606395 -0.084684916 -0.21568468 -0.23009208
000100 6f 9b 29 be 75 32 91 3d 3c 62 3c bd 4f f9 13 3d
       -0.165632 0.07089702 -0.04599212 0.03612643
000110 3b b2 96 3e 72 0e 21 be 5c aa 77 be e8 73 44 3e
       0.29432854 -0.15728167 -0.2418608 0.1918484
000120 28 71 26 be f2 1e 7f be 72 a6 01 be c5 60 4b be
       -0.16254103 -0.24914148 -0.1266115 -0.19861133
000130 01 8e 40 bd 28 62 92 be 51 c3 26 3e d6 ab 4f bb
       -0.047010425 -0.28590512 0.16285445 -0.0031688116
000140 7b 8c fd 3c 80 5f 22 3d 0e 83 96 3d e9 66 c4 be
       0.030950775 0.039641857 0.073492154 -0.38359764
000150 b7 fe 4e bd 80 b0 b3 bd 95 4c 66 be f9 bb 86 bd
       -0.050535884 -0.08773899 -0.22490151 -0.06578822
000160 d7 99 b1 bd 3a 64 45 bd 09 ba f8 bc f4 ac 72 be
       -0.08671921 -0.048191287 -0.030362146 -0.23698789
000170 d0 49 92 bb 13 ed 01 bd 5b eb 8e 3d f6 73 6e bd
       -0.0044643655 -0.031720232 0.06978484 -0.058216058
000180 2c 79 89 3d de 73 02 be 3d 59 10 3d 48 80 62 be
       0.06712565 -0.12739512 0.035241354 -0.22119248
000190 e7 c3 1f be 89 b6 f5 bd 43 9e 4e be 70 e6 ad ba
       -0.15602075 -0.119977064 -0.2017756 -0.0013267528
0001a0 bc 29 28 3d 18 99 d2 3d 2e 23 3b be fa 4c 33 be
       0.041055426 0.102831066 -0.18275139 -0.17509833
0001b0 1f 69 2c be 08 c9 27 be 74 76 09 3d 94 73 e8 bd
       -0.16836976 -0.16385281 0.03356023 -0.1135017
0001c0 e2 71 42 be 84 6c 05 bc 0e f6 1c be 0e 6a 1f bb
       -0.18988755 -0.008143548 -0.15328237 -0.0024324688
0001d0 83 9d 71 be ed 38 21 3e 4a bd d9 bd ec b5 bd 3d
       -0.23595242 0.15744372 -0.10631807 0.092632145
0001e0 d6 c1 e6 3d 82 12 3e bd c6 37 57 be 64 52 94 3d
       0.1126744 -0.04640437 -0.2101737 0.07242277
0001f0 14 83 99 3c bb 0d 03 3b 33 c6 ce 3c 5c f7 18 be
       0.01873926 0.0019997198 0.025240993 -0.1493811
000200 1e 66 02 bd 08 22 e6 3d f1 7f 9f 3d b7 b6 bd 3b
       -0.031835668 0.1123696 0.07788075 0.0057896036
000210 7b 3b bc 3a ca ea d2 be ec 05 34 bd da 00 a4 be
       0.0014360988 -0.41194755 -0.04395096 -0.320319
000220 d8 a8 b4 bd c6 ea 21 be d1 91 7b bc 98 d3 25 be
       -0.08821267 -0.15812215 -0.01535459 -0.16193998
000230 89 b9 85 bd 2b 7b f7 bc e8 6b bf 3d 7d 69 63 3c
       -0.06529529 -0.030210098 0.09346753 0.013880131
000240 cb 06 93 bd 05 86 b1 bd df e8 aa bd 9d 9f 51 3d
       -0.0717903 -0.0866814 -0.08345198 0.05117761
000250 25 c2 3e 3e 1a 35 da bd 55 55 1a bd 76 d8 8b bd
       0.18628748 -0.106546596 -0.037679035 -0.06828396
000260 65 42 89 be 1b 0f 9b be 70 3d e3 3b 02 ae 96 3d
       -0.26808468 -0.30284962 0.006934814 0.07357408
000270 df a0 80 3d 88 15 a0 bd 0b 41 c5 3c 9d d0 97 bd
       0.06280684 -0.07816607 0.024078866 -0.07412837
000280 d9 cf f7 3c 9b aa 20 3e 46 8f 9b bb 05 f9 89 3e
       0.030250477 0.15690081 -0.004747304 0.269478
000290 57 d9 22 be fe ff 1e be a6 b2 92 be 52 26 0c 3e
       -0.15903221 -0.15527341 -0.28651923 0.13686493
0002a0 d6 88 a4 be 7c 80 07 3d 8e 6f 80 3e 62 0f 05 be
       -0.32135648 0.033081517 0.2508511 -0.1299415
0002b0 d3 00 8c be cc 24 c6 be 40 9c 05 be 2b 70 d3 bd
       -0.2734438 -0.3869995 -0.13047886 -0.10324129
0002c0 56 62 e1 3d d8 83 ed bd f1 d3 d7 3b 9e 5f 0c be
       0.11005084 -0.11597413 0.0065865447 -0.1370835
0002d0 99 d1 84 bd f5 27 f3 be 2f e3 1f bc d5 d3 38 bd
       -0.0648529 -0.47491422 -0.009758755 -0.045123894
0002e0 53 c6 08 3d 8f bf ad be f1 3d 57 bc f7 23 95 be
       0.03339226 -0.3393521 -0.013137327 -0.29129001
0002f0 df cc 5c be fa e6 08 bb 73 36 2a be 64 25 89 be
       -0.21562527 -0.0020889626 -0.16622333 -0.2678634
000300 98 ad 24 3d 1b d1 0b be c5 01 0c be 12 4f 12 be
       0.040204614 -0.13653986 -0.1367255 -0.14287975
000310 9e be 5c bd e3 29 31 bd 79 8b 2a be 54 0e 47 3e
       -0.053892724 -0.043252837 -0.16654767 0.1943906
000320 4a d8 de bd 71 26 3a be 24 56 95 bd b7 56 87 bd
       -0.108810976 -0.18178727 -0.07291821 -0.066083364
000330 09 74 12 3d f5 ff 0f be fc c3 0f bc a3 ab 3d bd
       0.03575519 -0.14062484 -0.008774754 -0.046306264
000340 0d b6 9a 3d 0f 46 33 3e 43 34 8b 3d f1 7c 04 3e
       0.07554255 0.17507194 0.067970775 0.12938286
000350 0e 3d a8 bc 06 12 df bd 6b 8f 6d bd 1f c4 90 bd
       -0.020536926 -0.108921096 -0.057998102 -0.07068657
000360 82 aa aa bd 9d 20 65 be 5e f4 8b bc db 0a 35 3c
       -0.08333303 -0.22375722 -0.017084297 0.011049951
000370 62 ac 65 bd f3 a3 56 3d 2d 47 2f be 5f c2 07 be
       -0.0560726 0.052402448 -0.17116995 -0.1325774
000380 99 72 eb 3d 48 d8 5b be 7f 2f b7 bd 34 ef aa bc
       0.11496467 -0.21469223 -0.08944606 -0.020866014
000390 2e 81 1d 3e a2 83 2b be 9b 61 ff bd ee 8e 39 be
       0.1538131 -0.16749433 -0.12469789 -0.1812093
0003a0 91 94 20 be f1 03 81 bc db 7a 40 be 74 20 d9 be
       -0.15681674 -0.01574895 -0.18796866 -0.42407572
0003b0 3a 22 02 3e c6 14 db be 94 49 8c 3e b2 db 84 be
       0.12708369 -0.42789286 0.27399886 -0.25948864
0003c0 76 ec 98 be 4b f4 8f 3e 01 56 35 3e 96 d1 6f be
       -0.29867905 0.28116068 0.17708589 -0.23419794
0003d0 7e f9 e8 3e db 7e bc be a5 31 02 bd bd 7a 64 be
       0.45502847 -0.36815533 -0.031785626 -0.22312446
0003e0 de 30 6b be 94 57 85 be ae 5e e8 be ad 13 8e 3e
       -0.2296786 -0.2604338 -0.45384735 0.27749386
0003f0 5b b4 d7 bd 83 6a a5 bc 0f 0f 3c be 8c 1b 12 3e
       -0.10532447 -0.02019239 -0.1836512 0.14268321

post_layers.0.weight f4 [1, 32]
000000 fd 7b 1c 3d c0 e9 34 bd 2b 79 3e 3e 39 c4 d4 3c
       0.038204182 -0.044168234 0.1860091 0.025972473
000010 3c 6e 36 3c bf 3c 4a bb 94 3d 42 bc e2 7b ac bc
       0.01113468 -0.0030858961 -0.011855502 -0.021055166
000020 7e ef fc bb 06 28 a2 bc ad 3c fa bd af c7 a4 bd
       -0.0077189794 -0.019794475 -0.12218604 -0.08045899
000030 6e 11 43 bd ce 07 6c bc f2 4f 01 3d 60 c9 2e 3d
       -0.047624044 -0.014406158 0.031570382 0.042672515
000040 2b dd f6 bc 10 9a c5 3d 77 b3 54 3d 10 e5 95 bd
       -0.030134758 0.09648526 0.051928964 -0.07319081
000050 b8 27 f8 3d 61 fa 2d bd 0f 1a a2 bd 0d b4 1c 3d
       0.12116951 -0.042475108 -0.079151265 0.038257647
000060 7f 46 ff bd 5d f3 e3 bd 00 ea d2 3d db f5 0e bd
       -0.12464618 -0.11130402 0.10298538 -0.034902435
000070 ac 58 34 bd 79 82 3a bd b5 04 98 bd 1b bb 15 bb
       -0.044029877 -0.045534585 -0.07422773 -0.002284712
