models/BPI17/efg/exp_v2/no_subgraph_sampling/lr=0.01_hidden_dim=32/HigherOrderGNN_20230830_00h54m/state_dict_epoch2.pt (torch, 19327 bytes, 7 tensors)

convs.0.lin_rel.weight f4 [32, 27]
00000000: b4a1 983d 430a 17be 4cb9 46be 5e56 0dbd
00000010: 415d a6bc d00f f6bd b3e2 bcbc cf37 163d
00000020: 2df2 30bc 1f11 84be 4948 193d 5b31 0c3e
00000030: 0ee9 8ebe 568a 263f 1c3d 843e 3524 ac3d
00000040: 74da 923e 7e80 003e 99c7 1cbe 1a19 db3e
00000050: 2b3a 50be 8ae3 533e 2462 0cbe 77d6 11be
00000060: 3a13 debd 8327 503c dc64 633e cff9 003e
00000070: 324e 1a3b 339a d33d 613d 333e 1d2f 1d3d
00000080: fa3d 55bd 46bd 7a3d 6932 163e 82d5 cb3b
00000090: 9c99 d93c 84f3 2d3e cd9f b73d 6666 8c3d
000000a0: 9031 9f3e 2667 c83e a3f5 383d 71be ec3d
000000b0: 72ad 523e a937 8ebd a197 1cbd 9c00 c0bc
000000c0: 6fdf 02bd 9af8 dcbc 94a7 e2bd 1b3a 5bbe
000000d0: 9d1b 73bd fd75 443c 3aae 0dbe 91a1 2cbe
000000e0: 5c5f bcbd 257a bdbe 452b 873d 35c0 f93c
000000f0: a41f 5ebd 1547 a03d fe66 25be b865 de3d
00000100: d07a edbc fb8e c0bd 2bf1 46bd ca12 9e3d
00000110: 2a9c 99be 5a13 bbbe 3e7c 9a3d b44e e13e
00000120: 4ffc 10be 5f3f a8be def6 09be 224e 133e
00000130: 2758 e8bd 815b afbd d715 d13e fec3 2d3b
00000140: 137e 2c3e a97d 083d f2d7 e23d b1e8 56bd
00000150: 014f 913e 2056 c13d ea9f 1cbe 55ca d33d
00000160: b070 84be 42ac ce3d 45d5 56be 8fea 93be
00000170: fc73 98be 94fd b4bd ddb7 353f a5ae 173e
00000180: 0668 f13c b5f5 a03d a07f 6e3e ec19 8bbe
00000190: 35e5 87be 17f3 5dbd 108c 59bd e3ee c13d
000001a0: 0ccd ffbd 65d6 9ebe 0580 90be b67d 81bc
000001b0: 6c82 403e fa4f 03be b457 c9bd fd58 6fbe
000001c0: 667e afbe 28bd 5dbd 48ad 3f3b 1779 44be
000001d0: 125d 90bd ac9d 76be 4d3e f33e e99f 193f
000001e0: 668c 803c 065b 903e 7a09 db3e 5647 4b3f
000001f0: 3e1a ccbd cf69 b73d dbbb e5bc 7675 30be
00000200: cd2c d73a 3ccd 06be 3022 34be c1a0 aebc
00000210: ce71 8e3e 6c34 4a3e 6a35 f63d 7e01 40be
00000220: 3b64 a63e e727 053f 45e9 8a3e d9de 273e
00000230: d752 9e3c eb75 c03d e04b 193e 9986 93bd
00000240: ca51 11be c688 b8be e0cd dabe 89af 393e
00000250: e72d 993e 9f18 4c3e e399 02be 6a13 813e
00000260: 58fa d93d e153 4fbe a0f3 c53b ec58 c4bd
00000270: c794 b13d 311d d4bd 8b6c 99be 362e ce3d
00000280: 38dd 28be 5b15 333e e33a e63e 8622 d4bd
00000290: 9ec0 62bd dabd 41be e53b bfbd e577 a73d
000002a0: 35ad 0dbe cb71 88be 551b a0bc 9a27 eabd
000002b0: a4d6 8f3e c9cd 98be 0965 59bc ab00 e03e
000002c0: e9bb 763e 1fe6 413e aeb5 533d 84da 1bbe
000002d0: 00c9 83bd 7641 883e ebab 18be 9176 29bd
000002e0: 23f7 d53c 41c1 a0be 0f81 8dbd 632e e03d
000002f0: c194 d2bd 3dad d73b 1c15 1f3e e3ac 3fbc
00000300: 9acd fb3d aec5 de3d f97a 12be 79cf 2b3e
00000310: b167 d8bd edea a8bd c6bb 1cbe 259c 94bc
00000320: cfdd 873d 7e83 d8bc 372f 393e b9a9 133f
00000330: 7510 0e3d c391 e73d 8a21 823d d677 b1bd
00000340: cd03 e6bd d5e0 0bbc 3197 f63d f4a2 55bd
00000350: cfe4 84be 0fa8 2ebe 0104 a2bc 905b 423e
00000360: 6273 843d cd6a ba3d ca23 073a 85d9 d0bd
00000370: 6c14 9a3d c0e4 5d3e cf76 9bbc 9d89 9f3d
00000380: 2560 a4bd 615f 753d db89 bcbd 5dd0 ebbc
00000390: 9396 91bd e7e7 8fbd 8e94 013e f9bc 983d
000003a0: c00e d1bd 1525 313e 4e95 48be 92ad 913e
000003b0: 7e07 8bbd 776a 913d 902f cfbd 5425 5c3e
000003c0: 1a6b 013f 0d00 4b3c 1141 3f3e 3529 7fbe
000003d0: a2ed 1f3b 8fca a23e a163 53be a4a6 c73e
000003e0: 4e42 33be 741e 933e c126 7d3d 6a0e e8bd
000003f0: 8935 b4be 0acb dfbd ff8f 87bd aef0 373e
0.074527174 -0.14750008 -0.19406623 -0.034506194 -0.020308139 -0.12014735 -0.023057317 0.036674317
-0.010799927 -0.25794312 0.037422452 0.13690703 -0.27912182 0.65054834 0.25827873 0.084053434
0.28682292 0.12549016 -0.15310515 0.42792588 -0.2033469 0.20692268 -0.13709313 -0.14241968
-0.10843511 0.012704733 0.22206444 0.12595294 0.0023545143 0.103321455 0.17503883 0.03837501
-0.05206106 0.06121566 0.14667667 0.0062205205 0.026562504 0.16987425 0.089660265 0.068554685
0.310925 0.39141196 0.045156132 0.11559761 0.20573977 -0.0694421 -0.038230542 -0.02343779
-0.031951364 -0.026974011 -0.11067119 -0.21408884 -0.059352506 0.011991021 -0.13835993 -0.16858508
-0.09197876 -0.3700725 0.0660005 0.03048716 -0.054229394 0.07826058 -0.1615257 0.10859245
-0.028989226 -0.09402271 -0.04856984 0.077184275 -0.30001956 -0.36538202 0.075432286 0.44005358
-0.14158748 -0.32860848 -0.13473079 0.14385274 -0.11344939 -0.08562375 0.40836975 0.0026514526
0.16844968 0.033322964 0.110763445 -0.052468006 0.28380588 0.09440255 -0.15295377 0.10341326
-0.25867224 0.10091449 -0.20979793 -0.28889892 -0.2977599 -0.08837429 0.7098368 0.14812715
0.029468548 0.07859365 0.23290873 -0.27168214 -0.2654206 -0.054186907 -0.05311209 0.09469392
-0.124902815 -0.31022945 -0.2822267 -0.015807014 0.18799752 -0.12823477 -0.09831181 -0.2337379
-0.34276122 -0.05413547 0.002924757 -0.19186817 -0.07049002 -0.24083585 0.4750847 0.6000963
0.015691947 0.28194445 0.42780668 0.79405725 -0.09965943 0.08955728 -0.028043678 -0.17232308
0.001641655 -0.13164228 -0.17591166 -0.021316888 0.278212 0.1974656 0.12021907 -0.18750569
0.32498345 0.5201401 0.27131096 0.16393603 0.01932661 0.09397491 0.1497035 -0.07203407
-0.14191356 -0.3604185 -0.42735195 0.18133368 0.29917833 0.19931267 -0.12754016 0.25210124
0.106434524 -0.20246841 0.0060410053 -0.09587273 0.08670955 -0.1035713 -0.29965624 0.10067408
-0.16490638 0.17488615 0.44966802 -0.10358147 -0.055359475 -0.18920079 -0.09337596 0.08177165
-0.13835604 -0.26649317 -0.019544283 -0.11433335 0.28093445 -0.29844502 -0.013268718 0.4375051
0.2409512 0.1893544 0.051686935 -0.15220076 -0.06434822 0.26612443 -0.14909332 -0.04137284
0.02611882 -0.3139744 -0.069093816 0.109463476 -0.10282279 0.006581931 0.15535396 -0.011698934
0.12295075 0.10877548 -0.14304723 0.16778363 -0.105666526 -0.082479335 -0.15306005 -0.018140862
0.066341035 -0.026429888 0.18084417 0.5768085 0.034683663 0.11307099 0.06354053 -0.08665435
-0.11231194 -0.008537491 0.12040556 -0.052157357 -0.25955817 -0.17056297 -0.0197773 0.18980241
0.0646732 0.09102402 0.00051551743 -0.101977386 0.075234264 0.21669292 -0.01897755 0.077899195
-0.080261506 0.059905414 -0.09205981 -0.028785879 -0.07108798 -0.07026654 0.12654325 0.07457919
-0.102078915 0.17299302 -0.19588205 0.28452736 -0.067885384 0.07100385 -0.10116494 0.21498615
0.5055405 0.012390149 0.18677165 -0.24918063 0.0024403115 0.31795165 -0.20643474 0.38994324
-0.17505762 0.2873417 0.061804537 -0.11330874 -0.35197094 -0.109273985 -0.06619262 0.17962906

convs.0.lin_rel.bias f4 [32]
00000000: c936 29bf 291b 81bf 6d79 97be 0a10 4ebf
00000010: 0d1c 5ebf dfe6 30bf 49ab 7dbe 67ae 3bbf
00000020: a6f5 03bf bbcc a1be 036f afbf 4a8c e4bd
00000030: a7b4 e9be 2fe5 e23e d9d2 6dbf 46e6 5bbf
00000040: d5ea 24bf c508 b0bf 51bf 36bf 45b4 d4be
00000050: 7dfd 96bf 7dbe f4be e1a3 49bf 19da 89bf
00000060: d645 7ebf b7cc 35bf cd40 b5be e498 17bf
00000070: 9e44 acbf 55fe 50bf 3432 2abf f242 dabe
-0.6609922 -1.0086414 -0.29584828 -0.80493224 -0.8676155 -0.6910228 -0.24772371 -0.7331299
-0.51546705 -0.3160151 -1.3705753 -0.111595705 -0.4564564 0.44315478 -0.92899853 -0.85898244
-0.64420825 -1.3752676 -0.71385676 -0.41543785 -1.1796108 -0.4780158 -0.78765684 -1.0769683
-0.9932531 -0.71015495 -0.35401002 -0.5921767 -1.345844 -0.8163808 -0.66482854 -0.426292

convs.0.lin_root.weight f4 [32, 27]
00000000: c38a d6bd ba77 91be 55cc 41be 59ca b73b
00000010: 44a5 cbbc 4fa2 bbbd 803a fdbd 5489 063e
00000020: 2054 d2bd 3269 033e d068 c7be 9963 8f3e
00000030: 1356 04bf 40b2 19bf 1d08 783d 73d0 84be
00000040: ddb7 923c cc56 efbe 063f 48bd 6610 fa3e
00000050: b751 dfbd ce35 85be 01dd e7bd 6a41 b3bc
00000060: d9ab 1abe f6c6 15be 092b babe b33a 563e
00000070: c9bd a03d b58b 8cbd 3ec0 9a3d c04f b33e
00000080: 6429 e43c 83f2 fa3c b655 da3d 51f9 e6bd
00000090: d884 0f3e d15e 8e3d 34e0 b73c 12a7 be3d
000000a0: ba16 1abd b336 cd3d 6548 4abe 689d 8d3c
000000b0: 0393 9ebe e829 aabd bfa3 ca3d e2a3 e4bd
000000c0: 33eb a3bd 9898 06bb 5c69 b1bd 5146 9dbd
000000d0: 890b 33ba fc2b 04bd b5dd 1cbe 2af4 c83d
000000e0: 1975 b1be c1d4 9cbe 4065 12be 095c 32be
000000f0: 0334 31bd 6c5c d3be 062b fcbe c966 ecbe
00000100: de3c 0e3e 59bb 4e3e 2092 8f3e c4b0 fdbe
00000110: 1e1e bbbd 8fcc f9bd 8685 59be 6c2a a13e
00000120: 177d d4bd 0532 62be 4155 c1bd a8e6 aabe
00000130: 6a8d 81bd eefe 5f3d 08e8 07bf a140 373f
00000140: 7422 8f3d af6d 953e 045e 9fbe 7eda 85be
00000150: 3c41 c23b 2136 ab3d 3114 353d d0d4 d1be
00000160: 61ed 7dbd ebc7 c4bd bdec 47bd 1c6f 933d
00000170: 88bf 28be f02c 723d 3392 4f3c 72f2 183e
00000180: 605c a2be a188 b6bd 0821 85be c7e2 b0bd
00000190: 55d3 0dbe 2a10 8cbc fa6d c53d 94fc 54bd
000001a0: e737 1ebe a485 1ebf 869e 89bd 552d 0ebf
000001b0: 8b08 04bd dccf 12be 2aaa 46bd ad0e 89bd
000001c0: bbd8 8e3e 8111 83be 3b48 a43e 9270 2f3e
000001d0: 70d1 24be 2a15 f43d ef47 dabe 30f1 a4be
000001e0: dce8 95be 8bb6 18be 6566 eabe f6a2 99be
000001f0: 4880 66be 3910 92bc ef5a 99be fd62 8e3c
00000200: 31ec 56bd ae47 0dbe ba8f 4abd d2d8 febd
00000210: d4ec 6abb b229 c93d 8be7 673e e5de ca3e
00000220: 95ec 3f3f 2b18 c33e aaa1 313e d617 293f
00000230: 251e 95be c3e0 4c3f c666 c8bd 8b75 5fbe
00000240: f335 a1be 5f3a 95bd 7185 ddbd 2d22 26be
00000250: f5d1 e0be d130 613e 3d46 f9be 1832 9cbe
00000260: 9c54 aabd 4220 4dbc 4389 7dbd ca78 3f3e
00000270: a1ad 3ebe 698a 95bd 914d 943e 5fa6 0d3e
00000280: 5efa 6c3f 1bf9 3f3d e140 f0be ecc2 a0be
00000290: 2429 0ebe 61b5 81be 27bf ccbe b19a 2cbb
000002a0: 64b9 9dbe 7a91 083e e16f 013c b610 cf3e
000002b0: d401 d33e 2403 1e3d 0627 1cbd e8af ddbe
000002c0: 737c f3be 2d71 90be 3605 c5be 0df1 a93d
000002d0: 26bd ddbc fd52 bf3e ff84 04bd 76e3 1fbe
000002e0: 52bf 6fbe d1e2 b63d 28aa 2f3f 264f c2bd
000002f0: 7f82 e83d e547 fb3d bb66 a13e 0cc8 5c38
00000300: 6db4 a4bc 1aba 483e 68a6 f1bd cb73 7a3e
00000310: e347 ae3e 6577 31bd 0fd4 7cbe a6dc 9a3e
00000320: 524b 083e 6c2d 833d fd1c 29bd da6f 3d3e
00000330: d538 97be 3106 18be ed59 eabd 1bb8 27bc
00000340: a9cd 213e a395 67be 8933 c8bd c61c 38be
00000350: 20e5 303e 47cf 2bbe efaa 713e 8002 0f3e
00000360: dcee 863e eb66 8cbe 9f28 cabd e0d0 a3bd
00000370: fd46 ffbd 2ebb 2dbe 4420 433d 8a17 033e
00000380: 73b7 bfbe 7e7d cebd 21ce 823e 1ab7 5b3d
00000390: b08a 6e3d 2548 0c3e 20fa 6e3e 9bd5 23be
000003a0: 4567 b7bd 7f7e 62be 30f0 19bd 37b7 f83e
000003b0: 5d6f 17bc 37d4 f8bd 7c4f c0bd fdff b7be
000003c0: e2cd 82be 991c 2e3e b361 4ebe b787 933e
000003d0: c558 f23e 51e0 eb3e 8f2c a13e bc24 bd3e
000003e0: f8e4 e0bd f852 eabd 5f58 a8be 4c4d 30be
000003f0: 8672 e1be 64c0 ecbe fb87 67be efa7 873e
-0.104756854 -0.28411657 -0.18925603 0.0056088385 -0.024859078 -0.09161817 -0.123646736 0.13138324
-0.10269952 0.12833098 -0.38947153 0.28005674 -0.5169384 -0.6003761 0.060554612 -0.25940284
0.017909938 -0.46745908 -0.04888823 0.48840636 -0.10904258 -0.26017612 -0.1132145 -0.021881778
-0.15104617 -0.14626679 -0.36360958 0.2092083 0.07848699 -0.068625845 0.075561985 0.35021782
0.027851768 0.030633217 0.10660879 -0.11278022 0.1401552 0.069516785 0.022445776 0.0930921
-0.03761933 0.10020199 -0.19754179 0.017286971 -0.30971536 -0.08308774 0.09894513 -0.11164071
-0.08003845 -0.002053773 -0.08662674 -0.076794274 -0.0006830027 -0.03226851 -0.1531895 0.098121956
-0.3465965 -0.30631068 -0.14296436 -0.17417921 -0.043262493 -0.4128145 -0.49251574 -0.4617217
0.13890406 0.20188655 0.28041172 -0.49548924 -0.09136604 -0.121972196 -0.21242341 0.31477678
-0.103754215 -0.22089393 -0.09440089 -0.33379102 -0.06325801 0.05468648 -0.53088427 0.7158299
0.06988993 0.29185244 -0.31126416 -0.2614326 0.0059281867 0.08359934 0.04420871 -0.40982676
-0.06199396 -0.09608444 -0.048809756 0.07198927 -0.16479313 0.059124887 0.012669134 0.14936236
-0.31711102 -0.08912779 -0.26001763 -0.08637004 -0.13850148 -0.017097551 0.09640117 -0.05199869
-0.15451013 -0.6192267 -0.06719689 -0.5553792 -0.03223471 -0.14337105 -0.048502125 -0.06692252
0.27899727 -0.25599292 0.32086357 0.17132786 -0.16095519 0.11918099 -0.42633006 -0.3221526
-0.2927922 -0.14913385 -0.45781246 -0.30007142 -0.22509873 -0.017830001 -0.2995219 0.017381186
-0.052471343 -0.13796875 -0.049453475 -0.12443699 -0.0035846727 0.09822406 0.2264692 0.3962318
0.7497037 0.38104376 0.17346826 0.66051996 -0.2912456 0.8003046 -0.097852275 -0.21822183
-0.31486472 -0.07286524 -0.108164676 -0.16223975 -0.43910185 0.21991278 -0.486864 -0.30506968
-0.08316919 -0.012519898 -0.06189848 0.18698421 -0.18620922 -0.0730179 0.28965428 0.13832997
0.9256953 0.046868425 -0.469245 -0.31398714 -0.13882881 -0.25333694 -0.39989588 -0.002633732
-0.30805504 0.13336745 0.007900209 0.40442437 0.41212332 0.038577214 -0.038123153 -0.43298268
-0.47555885 -0.28211346 -0.38480538 0.0829793 -0.027067732 0.37368003 -0.032353397 -0.15614113
-0.23412827 0.089299805 0.6861901 -0.094877526 0.11353015 0.12269572 0.3152369 5.2638396e-05
-0.020105565 0.19602242 -0.117993176 0.24458234 0.3403922 -0.043326754 -0.24690269 0.30246466
0.13309982 0.06405148 -0.04128741 0.18499699 -0.29535547 -0.14846112 -0.11442933 -0.010236765
0.1580111 -0.22615676 -0.097754546 -0.17979726 0.17274904 -0.16778289 0.23600362 0.13965797
0.2635411 -0.2742227 -0.09871029 -0.07998824 -0.12464712 -0.16965935 0.047638193 0.12801948
-0.37444648 -0.100825295 0.2554789 0.053641416 0.05823773 0.13699396 0.23337603 -0.15999453
-0.08955244 -0.22118567 -0.037582576 0.48577282 -0.00924286 -0.12149852 -0.093901604 -0.3593749
-0.255477 0.17003097 -0.20154457 0.2881448 0.4733335 0.46069577 0.31479308 0.3694209
-0.10981172 -0.11441606 -0.32879922 -0.17216986 -0.44032687 -0.46240532 -0.22610466 0.2649531

convs.1.lin_rel.weight f4 [32, 32]
00000000: b892 a5be be4d f03d a993 25be d721 07be
00000010: c981 7ebe 4472 c0bd 1760 40bb 5d23 03be
00000020: 3eda b4be 59be babb 02d7 53be 73bb a3be
00000030: f969 3c3d 23c8 cebd 140f fdbc 8928 b03d
00000040: 9e34 c33c 8401 d0be 39ca 123c 07c9 4fbe
00000050: 3bac 0abe c21c 1dbe 4f6c 65be a8e8 c9bc
00000060: bcac a6be 5875 5ebd ca36 4dbe d221 95be
00000070: 010c cdbe 4375 06be e501 8ebd a1e1 aa3d
00000080: f3ef 0c3e 4443 f1bd 1274 c0be cfa2 7f3d
00000090: 6872 02be bc56 86be bff7 71be 1eee 85bd
000000a0: 7ca5 87be a5ce 64be c547 38be bdff 84be
000000b0: 9f58 93be f958 e7be 9dfe 34bc 824c 883e
000000c0: 0944 11be 1153 99bd 95fb 7c3d 1b7b 2ebe
000000d0: c378 3bbe c711 8dbe 0661 a6be 11f9 cc3e
000000e0: 82db 29bd d3f0 393d b97b 8e3d 0184 8dbe
000000f0: 4367 0d3e aec8 4cbe 3a60 583d 2d5b 90be
00000100: 4f1b 3ebe b57e 85bd b878 b73d 2386 28be
00000110: 6794 32be 2626 a4be c326 9cbe 3aa3 15be
00000120: 4f23 66be 64ee 48be 7591 00be 2463 34bd
00000130: fde5 5fbe dfc7 8fbc d445 bcbd a251 42bd
00000140: ac6d ca3c c10d 94be 4a8d 36be 61bf 60be
00000150: c569 7fbe 4fad 86be e88a 2bbe 862e a4be
00000160: 33b1 8cbe 7644 4ebe 5e65 d93d ac10 993c
00000170: 27e9 a9be c7d9 33be 017b 86be 8554 45bd
00000180: e030 05bd d799 da3c 9a4f f7bc 5af7 803c
00000190: 8532 30be 2e89 ccbd 2352 783d c248 66bd
000001a0: 2f01 d83c 894a 65be d7c5 083d 3ffa 59be
000001b0: 1d09 f13c 5115 f3bd 4f8f 1cbe 47c9 88bb
000001c0: 7982 74bd 5471 1cbc 8a52 04be 9886 bcbd
000001d0: 3b48 5abe 0297 48be c248 96be f354 3b3d
000001e0: bc86 5ebd 6264 ea3d 5690 d0bd f198 07be
000001f0: b52b 21be aed8 67be 7827 edbd 65bf 1abe
00000200: 1388 c5bb b035 21be 019e c3bd c401 c5be
00000210: caed 02be b181 c3be 7e1e 1f3d 8128 66bd
00000220: 0d17 1a3d 2f25 6cbd 8621 533e b0b9 7b3d
00000230: 6b14 08bf 1710 19be 4af7 203e 460f acbd
00000240: 9e03 c2bd a44b b3bd cf84 3f3c 47e2 b2bc
00000250: a3bc c0bd 668d 4cbe 4e7c 7dbe b519 1b3e
00000260: 2030 c5be 8889 003e c4bd 72bd 53a0 8cbe
00000270: bae7 273e 27e2 abbe df32 3a3d 26f7 91be
00000280: 313c f9ba df04 c43e 8de6 6bbe a4f0 a5be
00000290: 747b 863c 75de 64be d1ec 59be d264 4ebc
000002a0: f5d0 b1be a43f 8f3c e243 1abe 3a7b c9be
000002b0: d6a2 483d 63c3 7cbe 7325 ff3c 1324 c8bd
000002c0: 158c 42be db55 f9bd e435 3f3e b464 63be
000002d0: 1650 c13d 65bf 97be 0e0c c4be f435 e43d
000002e0: af53 9dbe c3ef 90bd 3e0f 803e ee84 60be
000002f0: 7003 82be 68d7 22be 5855 0ebe 9e1f 2bbe
00000300: d0b7 4bbe 4175 b03d a732 12be b793 38be
00000310: 6998 b5bd 1039 c7be 417c cebd 4684 0cbe
00000320: 28b2 903b b8a8 61bb 9aa9 b6be 0423 adbc
00000330: db78 19bf d589 aabe cc96 69bd 513a 44bd
00000340: 8935 8cbe 5e1a 0bbd ce26 2c3d 960c 11be
00000350: 1a10 d63c 9102 80be 5dd4 96be 68e1 7d3e
00000360: d8e2 dabb 8cf0 3e3c e21c e0bb d8d2 82be
00000370: 8b50 d2bd 1fb2 983c 189e 793c 971c ceba
00000380: 3eec 4a3c 2b8d 323e ca2b 06be 19f1 bfbd
00000390: 78d6 473e fef4 9dbd 059b 8dbe b3a5 02be
000003a0: 205a e93d b225 3ebe 3463 d4bd edbb 85be
000003b0: 1eb3 aa3c da0d b0be fc6e 39bc 6340 b43d
000003c0: 15cc 85be 0cfa b73d 683e f0bd 0cee 24be
000003d0: d09f a9bb f3fe 5bbe ae8c d3be f7e7 1a3e
000003e0: f701 43be 6a46 8b3c 6dcc b8bd 1f80 45be
000003f0: fab6 a0bd d7d9 503d f235 13be 6ffb 4abe
-0.323385 0.11733578 -0.16169609 -0.13196503 -0.24854197 -0.093967944 -0.002935415 -0.12806459
-0.35322756 -0.0056989607 -0.20687488 -0.3197895 0.0459995 -0.10096767 -0.030890979 0.086014815
0.0238288 -0.40626156 0.008959346 -0.2029153 -0.13542263 -0.15343001 -0.22404598 -0.024647072
-0.3255366 -0.054311126 -0.20040432 -0.29127365 -0.4004822 -0.1313067 -0.06933955 0.083438165
0.13763408 -0.11780408 -0.37588555 0.062411126 -0.12738955 -0.26238048 -0.23629664 -0.06539558
-0.26493442 -0.22344454 -0.17996128 -0.25976363 -0.2877855 -0.45185068 -0.011047033 0.2662087
-0.1418611 -0.07486547 0.061763365 -0.17039149 -0.18307786 -0.27552626 -0.32495898 0.40033773
-0.041469105 0.045395683 0.06957192 -0.27639773 0.13808922 -0.19998428 0.052826144 -0.28194562
-0.18565105 -0.06518308 0.08958572 -0.16457419 -0.17439424 -0.32060355 -0.30498323 -0.14613047
-0.22474407 -0.19622189 -0.12555487 -0.04403986 -0.21865077 -0.01755136 -0.09193006 -0.047441132
0.024710499 -0.28916743 -0.17827335 -0.21948005 -0.24942692 -0.263041 -0.16752207 -0.32066745
-0.27478942 -0.20143303 0.106150374 0.018684708 -0.33185694 -0.17563544 -0.2626572 -0.048176307
-0.032517314 0.026684685 -0.030189324 0.015742946 -0.17206772 -0.099871024 0.060625207 -0.05622173
0.026367752 -0.22391714 0.0333918 -0.21286868 0.02942329 -0.118693 -0.15289043 -0.0041743848
-0.05969474 -0.009548504 -0.12922111 -0.09205359 -0.21316616 -0.19588855 -0.29352385 0.04573531
-0.05432771 0.11444928 -0.1018378 -0.13241936 -0.15739329 -0.2264125 -0.11579794 -0.15112074
-0.006028184 -0.15743136 -0.09551621 -0.3847791 -0.12786022 -0.38184884 0.03884744 -0.05619097
0.03761964 -0.05765265 0.20618257 0.061456382 -0.53156155 -0.14947544 0.15719333 -0.08401351
-0.09473346 -0.08754662 0.011689379 -0.021836413 -0.094109796 -0.19975814 -0.2475445 0.15146525
-0.3851328 0.12552464 -0.059263006 -0.27466068 0.1639699 -0.33570978 0.04545867 -0.28508872
-0.0019015131 0.38284966 -0.23037167 -0.32410157 0.016416289 -0.22350486 -0.21281745 -0.01259728
-0.34729734 0.0174864 -0.15064958 -0.39351827 0.048983417 -0.24683909 0.031145787 -0.097725056
-0.1899875 -0.12174579 0.18672901 -0.22206384 0.09439103 -0.2963821 -0.38290447 0.11143103
-0.30727908 -0.07076981 0.2501163 -0.21925709 -0.25393248 -0.15902483 -0.13899744 -0.1671128
-0.19894338 0.086161144 -0.14277135 -0.18025099 -0.088669606 -0.38910723 -0.10082293 -0.13722333
0.004415769 -0.003443284 -0.3567627 -0.02113486 -0.59950036 -0.33308282 -0.057028577 -0.047907177
-0.27384594 -0.033960693 0.042029195 -0.14164957 0.026130725 -0.25001958 -0.29458895 0.24793017
-0.006679874 0.0116540305 -0.0068393806 -0.25551486 -0.102692686 0.018639622 0.015235446 -0.0015725073
0.012385426 0.17436664 -0.13102642 -0.093721576 0.19515407 -0.07712744 -0.27657333 -0.12758522
0.11394143 -0.18569067 -0.10370484 -0.26119938 0.020837363 -0.34385568 -0.011317965 0.08801343
-0.26132265 0.089832395 -0.11730653 -0.16106433 -0.005176522 -0.21483974 -0.41318268 0.1512755
-0.19043718 0.01700135 -0.09023366 -0.19287156 -0.078474 0.050989 -0.14376047 -0.19822477

convs.1.lin_rel.bias f4 [32]
00000000: 5ca3 5bbe aa54 25bf ae8a d43e 201f 44bc
00000010: 1a7a cdbe 879a b2be ce13 c4be ff8d 5ebe
00000020: 2433 12be df72 dfbe 69e4 d03f 7046 40bf
00000030: d0ff f0be f56f cebe 6de2 f2be e276 14bf
00000040: 92de eebe f6b7 1b3f d628 863d 99b0 993f
00000050: dc7e 6d3e d717 1a3f a1f8 923f 34a2 4abe
00000060: 011d ca3f d0a2 9ebe cc66 2cbe d0ed 2abf
00000070: 37e4 edbe 09c6 223f d127 993e 663c 4cbe
-0.21449035 -0.6458231 0.41512054 -0.011970311 -0.4013222 -0.3488352 -0.3829636 -0.21733855
-0.14277321 -0.43642327 1.6319705 -0.7510748 -0.4707017 -0.4031979 -0.47438374 -0.579939
-0.46654183 0.6082758 0.065507576 1.2007018 0.23192924 0.60192627 1.1482126 -0.19788438
1.5790101 -0.3098359 -0.16836089 -0.66769123 -0.46463177 0.6358343 0.2991319 -0.19944915

convs.1.lin_root.weight f4 [32, 32]
00000000: fcd5 7abd ba65 58be a0a7 afbe 0aa2 7abd
00000010: ca43 a73b c91c ea3c cb12 1bbe 0769 5bbe
00000020: 081f 8abe 9aa8 c83d 48d4 c0bd 6548 0dbe
00000030: 6966 afbd de25 13be 559f 0e3e 0aa0 513e
00000040: 91c9 1c3d 6167 aabe 9d17 d83d 0fa4 7dbe
00000050: 5a4d 1ebd 13ab 12be fca4 40bd 2669 b43c
00000060: 51fd c7bd 1be8 97bd 735d 87be ab6b a1be
00000070: cfcf ccbe 150d fcbd d0ec 913d 7fa9 b03d
00000080: 28bb 5dbe 1785 23bd 2623 8abe bfb5 9abe
00000090: 1853 44bd dbed 74be b8f9 7dbd 5fa1 6bbd
000000a0: c1da 52bc c746 17be 8b09 11bf a7bd 90be
000000b0: b0b1 9dbe aa1e fcbe 7926 ab3d c7ad a1bd
000000c0: e761 25be 8973 67be 1c30 0bbd 3de8 46be
000000d0: 875d 15bd 199d 9fbe c6fd 7bbe 752a b5bc
000000e0: 6428 8abe f496 1e3d 9edc e5bd b51b c0be
000000f0: a77a 81be b40b f73c 13f8 b4be 550e 52be
00000100: 804a 1ebe 2797 a53d b30d 2dbd 5e90 13bc
00000110: 9f2e 553e 8212 59bd 10a0 5ebe af4c 413e
00000120: c9e6 3bbe 8a35 5fbe 750e b7bd 2d8b 17be
00000130: 5337 90bb d5b6 95be 2288 283e 2aeb 073d
00000140: 5a57 2a3e 13b6 3a3d 6248 913d ee43 a8be
00000150: b1c5 d9bd 4d2a 8abd 1d3e b1bd adf5 15bd
00000160: 7c01 b4bd 5f35 27bd 3137 b8bd 29d2 d3bd
00000170: 6e8c 1fbc 32af a6bd bda4 5bbd 1822 95bd
00000180: 4e3f 613d eeac 03be cd4e 3d3d 9552 81be
00000190: 0a8d 1cbe c290 95bd 0bb5 74be 5887 433c
000001a0: efcd b7bb 2ff5 d83d 7d8c fcbd 00ba 05be
000001b0: 4cae 0ebe 194a efbd 9ce9 063d 911b afbd
000001c0: d656 3dbe 6f7b b7bc fadd 1abe 4213 34bd
000001d0: 7eb0 77be f6fe 04bb c4e9 cbbd 64c2 db3d
000001e0: e1a5 173e 59d3 a5bc fb1d 15be 6ff5 0dbd
000001f0: e4c9 553d c996 8f3b 30f4 0d3d 7b97 e7bd
00000200: a097 a93c 4e29 323e 3c29 48be b320 28be
00000210: d3e7 b7bd 2283 c9be be10 06be 7a7d 80be
00000220: 3421 20bd 3b0d 69bf 4047 05be ca27 53be
00000230: 5e7c 81be 0bc9 aebe 7755 1f3e ac3c 7bbe
00000240: 1867 8abe 98bf 483c 925b 863d 5297 cebe
00000250: f846 8f3c 16b3 c0be d54a a4be 0b02 22bd
00000260: c6b6 673e f125 11be 244f 8cbe e950 70be
00000270: ae95 0b3c 6b4d a2bd eb2c 3bbe 3deb 95bd
00000280: 2080 b0bd 50d2 203e d9d3 3ebd 2218 263e
00000290: 13f5 0bbe 23f4 25be 3bb7 89be 9167 103e
000002a0: f706 85be b213 393c 1024 0cbc 7a9f a7be
000002b0: d9ba 77be 657e e1be f0f9 cfbd 1cc8 97bd
000002c0: e7c8 713d 9076 dcbd 7729 c23c 6163 7bbe
000002d0: 9124 74bd 1daf 17bf f764 96bc 9d7e 80bd
000002e0: 9c38 9fbd 9128 c1be a1da a13c 822e f3be
000002f0: 68e8 5abe 4cc6 5dbc c2e1 ddbd 605b 48be
00000300: 77d6 10be 0e70 f1bd 8023 bbbe 6847 17be
00000310: ad58 673d 40d5 9d3d 4e69 22be e8a2 253e
00000320: 7546 fdbd 7219 7ebe 3787 3abe 965c 13be
00000330: 1f0a eabd 3066 50be dfa3 3abd 819c d2bd
00000340: b7ef 68be 8bda 3b3e 8031 8e3d 2998 fdbc
00000350: aee6 373d a7ca 63be 1a07 ebbe c9cb 09bd
00000360: 55e8 d6be 7282 26be ef8a 433d 55c1 9dbe
00000370: b6bf 94bd b711 0cbb f4a3 d7be 8ab3 01be
00000380: 106d c1bc f67d 3bbe 65fb 25bd 0b03 f2bc
00000390: 756c 6a3c 69b7 9bbd 2733 d2be 0a9c 5cbe
000003a0: 8153 96be c4b9 1e3d b8bd b1be e29a 10bf
000003b0: a092 5cbd e566 9fbe 1a7c 713d 0963 acbd
000003c0: 2e75 cebe db18 e73c 3ed7 a8bd 4adf cdbe
000003d0: b7cb a7bd d8e2 afbe 169e 93bd b092 d5be
000003e0: 51e8 acbe 9cf8 a9be 12ec a93b 2d4d 5a3e
000003f0: 352a 8fbe c93d c7be 801f 92bd 1414 0fbe
-0.061239228 -0.21132556 -0.34307575 -0.06118969 0.0051045166 0.028578179 -0.15143888 -0.21426784
-0.269768 0.09797783 -0.094154894 -0.13797148 -0.08564455 -0.14369914 0.13927968 0.20471206
0.038278166 -0.33281997 0.10551379 -0.24769615 -0.038647987 -0.14323072 -0.04703234 0.022022795
-0.09765113 -0.074173175 -0.26438484 -0.31527457 -0.40002295 -0.12307183 0.071252465 0.08626079
-0.21653426 -0.039921846 -0.2697994 -0.30216786 -0.047930807 -0.2391886 -0.06200573 -0.057526942
-0.012869538 -0.14773093 -0.56655186 -0.28269693 -0.30799627 -0.49242145 0.083569475 -0.078944735
-0.16150628 -0.22602667 -0.033981428 -0.1942453 -0.036466148 -0.31174543 -0.24608526 -0.022114972
-0.2698394 0.03871818 -0.1122372 -0.3752114 -0.2528889 0.030156948 -0.35345516 -0.2051328
-0.15458107 0.08085471 -0.042249393 -0.009006588 0.20818566 -0.052996166 -0.21740746 0.18876909
-0.18349756 -0.21797767 -0.08938304 -0.14799185 -0.0044011264 -0.29241052 0.1645818 0.033183254
0.16634884 0.045583796 0.07093884 -0.32864326 -0.1063341 -0.067463495 -0.08654425 -0.036611248
-0.087893456 -0.040822383 -0.08994902 -0.10342819 -0.009738071 -0.081388846 -0.053623904 -0.072818935
0.054992013 -0.12858936 0.04621773 -0.25258318 -0.15288177 -0.07303001 -0.23897187 0.011934124
-0.005609266 0.1059364 -0.123314835 -0.13059235 -0.13933676 -0.11684055 0.03293763 -0.0855018
-0.18490157 -0.022397725 -0.1512374 -0.04396368 -0.2418842 -0.002029357 -0.09956697 0.107304364
0.14809372 -0.02024238 -0.14562218 -0.03465789 0.05219449 0.0043819887 0.034656703 -0.113081895
0.020702183 0.17398569 -0.1954698 -0.16418724 -0.08979764 -0.3935786 -0.13092324 -0.2509573
-0.039094165 -0.91035813 -0.13015461 -0.20620647 -0.25290197 -0.3413776 0.15559946 -0.24534863
-0.2703178 0.012252711 0.065604344 -0.40349823 0.017489895 -0.37636632 -0.32088342 -0.03955273
0.22628316 -0.1417463 -0.2740413 -0.23468365 0.008519573 -0.079249226 -0.18278854 -0.07320259
-0.08618188 0.15705228 -0.046588752 0.16220143 -0.13667707 -0.16206412 -0.26897606 0.14102007
-0.25981876 0.0112962 -0.00855352 -0.32738858 -0.2419237 -0.44041744 -0.10155094 -0.07411215
0.059029486 -0.107648015 0.023701413 -0.24549629 -0.059605185 -0.59251577 -0.01835869 -0.062741496
-0.07774469 -0.37726262 0.01975757 -0.4749642 -0.21377718 -0.013536047 -0.108340755 -0.19566107
-0.14144312 -0.11788951 -0.36550522 -0.14773333 0.056481052 0.0770669 -0.15860483 0.16175425
-0.12366954 -0.24814394 -0.18215643 -0.14390787 -0.11427712 -0.20351481 -0.045566436 -0.10283757
-0.22747694 0.18345086 0.06943035 -0.030956345 0.044897728 -0.22245274 -0.45903856 -0.03364161
-0.4197413 -0.16260698 0.04773992 -0.30811563 -0.072631285 -0.0021372864 -0.42117274 -0.12666145
-0.023611575 -0.18309769 -0.04052295 -0.029542467 0.014308085 -0.07603342 -0.4105465 -0.21543899
-0.29360583 0.03875138 -0.34715056 -0.5648633 -0.05385077 -0.3113319 0.058956243 -0.08417327
-0.40323776 0.028210094 -0.08244179 -0.4020942 -0.081931524 -0.34352756 -0.07207887 -0.41713476
-0.33770993 -0.33197486 0.0051856125 0.21318503 -0.2796189 -0.38914326 -0.071349144 -0.13972503

post_layers.0.weight f4 [1, 32]
00000000: 56ef 03bd 1835 38be 4566 283e 545d 86bc
00000010: c014 4a3e 52c3 babd c4d4 cfbd 75a6 833e
00000020: c6db 713e f58a 12be ab0d ebbd 1e9c 4abe
00000030: d8fb 0fbe 0799 67bd 25b0 1a3e 9905 6a3e
00000040: fcdf a2bd f58c fa3d 91fb 963d a58a 86bd
00000050: 3c1b c23d c638 25bd 7d2a a8bd 20af 8dbd
00000060: ae37 13be 2763 443e 0846 e43d 4d0c a8bd
00000070: 3fec 9cbd 5993 5cbd 29aa cfbd 465e 83bd
-0.03221067 -0.17989004 0.16445263 -0.016401924 0.19734478 -0.09119286 -0.10148004 0.25712934
0.23618993 -0.1431082 -0.11477216 -0.19786116 -0.14060915 -0.056542423 0.15106256 0.22853698
-0.07952878 0.12233917 0.07372201 -0.06569413 0.09477851 -0.040337346 -0.08211229 -0.06918168
-0.14376709 0.19178449 0.1114617 -0.08205471 -0.07662248 -0.05385146 -0.10139877 -0.064144656
