models/OTC/hoeg/exp_v3/no_subgraph_sampling/lr=0.001_hidden_dim=64/GraphModule_20230830_18h33m/state_dict_epoch14.pt (torch, 285387 bytes, 46 tensors)

convs.0.event__follows__event.lin_rel.weight f4 [64, 20]
0.38096863 0.072149195 -0.22986323 -0.086992815 -0.060732756 0.12598477 0.39812627 0.4018449
0.22617944 -0.15613814 -0.04292579 0.29026318 0.49454826 -0.091572456 -0.10870893 0.05961464
0.048499983 0.011103477 0.07474618 -0.07383933 -0.2620402 0.11304115 -0.088346906 0.26629913
0.06290486 0.12472002 0.19246753 0.033155695 -0.1762915 -0.22028843 -0.12112031 0.1204255
0.15908213 -0.13760835 -0.21536186 -0.014665587 0.11351182 -0.20666769 0.12531704 -0.018507026
-0.26072568 -0.26871535 -0.07862218 0.08737513 -0.107125945 -0.5094357 -0.1883121 -0.11001586
0.11091283 0.33786795 0.11338422 0.06967119 -0.35687768 0.128761 0.20433165 0.09744065
0.27158675 -0.1797256 0.1680945 0.13317503 0.007905428 0.1754147 -0.14460218 -0.29223385
-0.30168137 0.066926725 -0.18333995 -0.22744998 0.04055645 0.017270783 -0.099170916 0.08743007
-0.22737768 0.13938378 -0.12920398 -0.0898473 -0.13962999 -0.26771393 0.21172214 0.13498653
0.123581566 0.108961746 0.029697062 -0.18924414 -0.019277409 0.11098423 0.030104727 0.16722956
-0.16992103 -0.3152748 0.2102615 -0.025174072 -0.18426058 0.05835962 0.21361038 0.2168778
-0.13036619 -0.024808068 -0.015041455 0.050371718 0.03904588 -0.37350768 0.14489837 0.417636
0.25291082 -0.06334291 0.09919937 -0.0539374 0.14529486 -0.25821817 0.3443742 -0.10386974
-0.042040974 0.01167425 -0.138626 -0.06192306 -0.11646628 0.102064535 -0.013329385 -0.08836815
0.12628376 -0.09719906 0.1746176 0.030666435 -0.31735957 -0.22400413 -0.19404039 -0.1943964
0.1867652 0.23322085 -0.15641606 -0.100170225 -0.26671803 0.03264922 0.20375757 0.064399645
-0.12724864 0.31631294 -0.18870924 0.089295 0.057826594 0.25825837 -0.10866651 -0.023938248
0.10059907 0.15913132 -0.08834891 -0.11483352 0.031295873 0.2128494 0.044052526 0.13732637
0.2163781 -0.1942526 -0.046430096 0.151833 -0.002695056 -0.1356727 -0.023513148 0.017591871
-0.29703465 0.02064728 0.1379786 -0.290312 0.06854613 0.103408754 -0.1281136 -0.045677453
-0.023440229 -0.0012526395 -0.0016594962 0.20769432 -0.21073957 0.049792666 -0.027572902 -0.23271729
0.17935461 -0.14718427 -0.2076588 -0.14853705 0.1414622 -0.13822423 0.4089946 -0.18789394
0.12561789 0.4055274 -0.06985471 -0.23688428 0.2207997 0.102340534 -0.16637804 -0.0809845
-0.33285907 0.09003712 0.2618281 0.27568373 -0.26894245 -0.17770611 0.21125655 0.050534077
-0.016766373 0.07485606 -0.2954723 -0.32410735 0.13449813 -0.19149014 -0.006858645 -0.20905179
-0.10198449 0.20100185 -0.079230286 -0.20933484 -0.29130816 -0.22204034 0.057667192 0.13016775
-0.067737095 -0.04760711 0.15358746 0.1799974 0.070505716 0.14457236 0.21610793 -0.20873702
-0.00057719427 -0.39125553 -0.30089274 0.09471223 -7.439088e-05 0.10603701 -0.017595029 0.09210254
0.28294343 -0.09132282 0.109009884 -0.024202444 0.25150695 0.3437784 0.19389392 0.19368029
-0.047477398 -0.29805443 0.25220397 0.15543167 -0.008227285 -0.24082837 -0.23273267 -0.12174462
-0.075484626 0.23241201 0.118955836 0.06292771 0.09120353 -0.10119269 -0.03198987 0.06940113
00000000: 520e c33e f5c2 933d 4461 6bbe 4a29 b2bd
00000010: e9c2 78bd 2702 013e 35d7 cb3e 9dbe cd3e
00000020: 959b 673e ade2 1fbe f4d2 2fbd 609d 943e
00000030: 6e35 fd3e 578a bbbd caa2 debd 7b2e 743d
00000040: eba7 463d 5ceb 353c 8614 993d 1339 97bd
00000050: 222a 86be 1e82 e73d 39ef b4bd 5c58 883e
00000060: 43d4 803d 366d ff3d 3516 453e 44ce 073d
00000070: c285 34be 4a93 61be ed0d f8bd a5a1 f63d
00000080: 6de6 223e 34e9 0cbe d287 5cbe ee47 70bc
00000090: e378 e83d b2a0 53be 1c53 003e 0c9c 97bc
000000a0: d67d 85be 0f95 89be aa04 a1bd bbf1 b23d
000000b0: d964 dbbd 616a 02bf e3d4 40be ff4f e1bd
000000c0: 4426 e33d 07fd ac3e fc35 e83d c5af 8e3d
000000d0: acb8 b6be ecd9 033e 513c 513e f78e c73d
000000e0: 6b0d 8b3e fd09 38be f720 2c3e 095f 083e
000000f0: c585 013c e99f 333e 9812 14be ad9f 95be
00000100: fb75 9abe e110 893d 78bd 3bbe a6e8 68be
00000110: 851e 263d 757b 8d3c 1f1a cbbd 890e b33d
00000120: b2d5 68be 9fba 0e3e 0c4e 04be dc01 b8bd
00000130: 2afb 0ebe cd11 89be b0cd 583e e939 0a3e
00000140: 5518 fd3d 5627 df3d 4147 f33c 37c9 41be
00000150: a8eb 9dbc b34b e33d 309e f63c 3a3e 2b3e
00000160: c7ff 2dbe b36b a1be ca4e 573e db39 cebc
00000170: ceae 3cbe 7f0a 6f3d aebc 5a3e 3715 5e3e
00000180: b77e 05be 4a3a cbbc 6f70 76bc 9352 4e3d
00000190: 93ee 1f3d 663c bfbe 3d60 143e 63d4 d53e
000001a0: 877d 813e edb9 81bd 0a29 cb3d 77ed 5cbd
000001b0: 2dc8 143e 2c35 84be d151 b03e a9b9 d4bd
000001c0: 2833 2cbd 5a45 3f3c f9f3 0dbe 09a3 7dbd
000001d0: df85 eebd 3607 d13d 7e63 5abc 5cfa b4bd
000001e0: 8850 013e 4d10 c7bd f5ce 323e 2d38 fb3c
000001f0: f47c a2be 5761 65be 86b2 46be da0f 47be
00000200: 603f 3f3e 72d1 6e3e 882b 20be 0c26 cdbd
00000210: 448f 88be 30bb 053d d3a5 503e f6e3 833d
00000220: 784d 02be c5f3 a13e ff3c 41be 4ce0 b63d
00000230: 94db 6c3d 713a 843e 8c8c debd 251a c4bc
00000240: e306 ce3d 52f3 223e 46f0 b4bd d62d ebbd
00000250: 1a30 003d 31f5 593e 6c70 343d 499f 0c3e
00000260: 3892 5d3e 27ea 46be 7c2d 3ebd 1c7a 1b3e
00000270: 899f 30bb c9ed 0abe a59e c0bc d41c 903c
00000280: ed14 98be 7c24 a93c 434a 0d3e c6a3 94be
00000290: ea61 8c3d f8c7 d33d 3630 03be 4818 3bbd
000002a0: b905 c0bc 9b2f a4ba 7483 d9ba d2ad 543e
000002b0: 1dcc 57be 65f3 4b3d 91e0 e1bc 714d 6ebe
000002c0: bca8 373e 79b7 16be 82a4 54be 191a 18be
000002d0: 78db 103e a78a 0dbe bd67 d13e 4567 40be
000002e0: faa1 003e 4aa1 cf3e fc0f 8fbd cb91 72be
000002f0: 5119 623e ea97 d13d 015f 2abe 34db a5bd
00000300: 816c aabe 6265 b83d 550e 863e 6b26 8d3e
00000310: d3b2 89be 97f8 35be a353 583e d2fc 4e3d
00000320: a259 89bc 224e 993d 2548 97be 66f1 a5be
00000330: e1b9 093e fe15 44be 7cbe e0bb ac11 56be
00000340: 3fdd d0bd 6ed3 4d3e 7d43 a2bd df5b 56be
00000350: 5826 95be 8b5e 63be 6f34 6c3d b24a 053e
00000360: bfb9 8abd acff 42bd 0846 1d3e 3d51 383e
00000370: 4d65 903d c70a 143e 664b 5d3e 28bf 55be
00000380: da4e 17ba a552 c8be 9d0e 9abe 7cf8 c13d
00000390: 4d02 9cb8 ef29 d93d 7323 90bc 42a0 bc3d
000003a0: f6dd 903e 7507 bbbd 9340 df3d 3444 c6bc
000003b0: 85c5 803e b903 b03e 218c 463e 2054 463e
000003c0: a977 42bd 979a 98be e120 813e 7b29 1f3e
000003d0: bccb 06bc b69b 76be 7951 6ebe 3e55 f9bd
000003e0: af97 9abd 6afd 6d3e 1e9f f33d 3ee0 803d
000003f0: ebc8 ba3d 1d3e cfbd cf07 03bd 2e22 8e3d

convs.0.event__follows__event.lin_rel.bias f4 [64]
-0.2007798 0.02983059 -0.18769749 -0.19416532 -0.31554535 -0.101029165 -0.103575 -0.10506975
-0.25764084 0.16205463 -0.2254613 -0.17726573 -0.25393352 -0.14011261 -0.10265485 0.010558905
-0.066374056 -0.06977121 0.023610633 0.14335443 -0.24415065 -0.11829127 -0.034066938 -0.19395165
0.054360207 -0.0046878257 -0.20281321 0.068892606 -0.13028811 -0.28475922 -0.32353693 -0.033985592
-0.3517594 -0.08432628 -0.039873526 -0.28626847 0.11141319 0.0039994093 -0.015920695 0.11028119
-0.037045892 -0.21128844 0.1572316 -0.0053191204 -0.22985803 0.10035911 -0.005365184 -0.025113052
0.049190093 0.025388354 0.050425895 0.086624436 -0.010807567 -0.16793172 0.05047777 -0.2208801
-0.36780405 0.1782853 -0.04455744 -0.22528723 -0.31386548 -0.14027901 0.001160793 -0.18966582
00000000: 3899 4dbe 485f f43c c533 40be 46d3 46be
00000010: 298f a1be 61e8 cebd 211f d4bd cf2e d7bd
00000020: 80e9 83be a6f1 253e 54df 66be 2685 35be
00000030: 9303 82be ae79 0fbe b53c d2bd 42ff 2c3c
00000040: 1fef 87bd 35e4 8ebd 166b c13c 81cb 123e
00000050: a102 7abe b242 f2bd c689 0bbd 439b 46be
00000060: cfa8 5e3d 559c 99bb 44ae 4fbe 9117 8d3d
00000070: 3f6a 05be f6cb 91be a2a6 a5be 7a34 0bbd
00000080: cf19 b4be 42b3 acbd 6c52 23bd c891 92be
00000090: 992c e43d 7a0d 833b 1e6c 82bc 1bdb e13d
000000a0: 6fbd 17bd ff5b 58be 5201 213e 044c aebb
000000b0: e75f 6bbe 1489 cd3d 6dce afbb e3b9 cdbc
000000c0: 8d7b 493d 3dfb cf3c 628b 4e3d 2768 b13d
000000d0: 3912 31bc 4bf6 2bbe c7c1 4e3d 652e 62be
000000e0: d050 bcbe 6c90 363e dd81 36bd b2b1 66be
000000f0: fab2 a0be 4da5 0fbe c025 983a c237 42be

convs.0.event__follows__event.lin_root.weight f4 [64, 20]
0.17896897 -0.12659834 0.094843075 -0.12745823 0.03839958 0.0056030084 0.33901978 0.040690992
0.3270563 0.10028843 -0.19076626 -0.18112732 0.2162775 0.02393716 -0.18585247 0.23560843
-0.1336324 0.052443285 0.026012452 0.18715568 -0.03597647 -0.08095024 -0.025831828 0.2970632
-0.06516559 0.12015615 -0.08173354 0.0754656 0.019271662 -0.20021448 0.13215809 -0.023102293
-0.13518009 -0.14590262 0.012966633 0.096178345 0.056254886 -0.12229907 -0.079815954 -0.12281082
-0.08231511 -0.064103864 -0.06951638 -0.2761619 -0.19539297 0.20350394 -0.15222819 -0.0937225
0.2260128 0.1503001 0.09263378 -0.15780498 0.13337906 -0.041784737 0.025571832 -0.11788993
0.14589684 -0.13383958 -0.054262485 0.06921692 -0.4282977 -0.03563222 0.1878302 0.21413614
-0.03592453 0.017241575 -0.039717536 0.13255641 0.18608159 0.07309692 -0.07573863 0.18153894
0.10305436 0.16477177 -0.072256126 -0.04511521 -0.1572082 -0.18503185 -0.08678683 -0.10570103
0.2558796 -0.111012 -0.29151648 0.1398602 -0.2710529 -0.07868457 -0.24117091 0.15556824
-0.19794518 0.23646232 0.0127393985 0.29002243 -0.18142174 -0.2278669 -0.25437537 -0.019988254
0.066159874 0.0035353722 -0.094569 0.07329738 -0.11539476 -0.004991107 0.03687488 -0.08206695
-0.23963991 0.05951363 -0.17345998 -0.0074754357 0.15430704 0.092985734 -0.35554674 0.044276882
-0.026713513 0.2167625 0.081014775 0.1672013 -0.18028615 0.23922144 0.12905364 -0.18375668
-0.050645143 -0.2536273 0.3957951 0.062599935 -0.28435743 -0.08634681 -0.13070798 -0.1794517
0.1009929 0.049731884 -0.017527064 -0.2754654 0.06279133 0.042045098 -0.03874013 0.18012942
-0.381506 0.39704868 -0.009416907 0.047610167 0.22601366 -0.114023305 -0.16489935 -0.048263613
0.13272683 -0.3441127 -0.0020171355 0.06207739 0.070299946 -0.0506954 -0.07560541 0.3416011
-0.13271335 0.1338401 -0.15971686 0.102319635 0.20247068 -0.11346728 0.05879221 -0.07116498
0.10875254 0.027074577 -0.06019483 0.17490666 -0.09007964 -0.03503668 -0.114702955 -0.07359576
0.033267234 -0.2780978 0.1924775 -0.026123665 0.022266397 0.11706471 -0.1022495 -0.23016416
-0.21212482 -0.017591082 -0.09048561 0.04194736 0.17545134 0.008192834 -0.14476581 0.04119534
0.24763735 -0.010420105 0.05301952 -0.25542942 0.03368965 0.017034836 -0.28488126 -0.032040764
0.026914945 0.08209199 -0.083471194 0.15699862 0.15235783 -0.045270953 -0.043954574 -0.17407927
-0.20602703 0.14007191 -0.014192614 0.007245359 0.1281078 -0.2560463 -0.044579368 -0.17215265
0.0700151 -0.15744483 -0.049659435 -0.09552541 0.22918315 -0.21878688 -0.018010557 -0.11244429
-0.012130625 0.15171474 0.24671163 0.0007838565 0.1867669 0.0010224836 0.053688023 0.074900866
0.09879217 -0.32811114 -0.22631419 0.04907988 -0.05560688 -0.04784149 0.08494724 0.063997135
0.23552829 0.19886662 -0.07440137 -0.17928344 0.25468278 -0.1679485 0.06312318 0.106497645
0.11338419 -0.012237368 0.07740648 0.17143966 0.13932699 0.050076317 0.108432114 -0.05937556
0.00554863 -0.104599364 -0.19111995 0.1531588 0.2178362 -0.02049489 -0.023227692 0.03223177
00000000: a443 373e ffa2 01be 163d c23d 6984 02be
00000010: e148 1d3d 7199 b73b 0094 ad3e 99ab 263d
00000020: ec73 a73e 0564 cd3d 3b58 43be 7179 39be
00000030: d977 5d3e dd17 c43c 1c50 3ebe 5643 713e
00000040: efd6 08be c5ce 563d 1118 d53c bda5 3f3e
00000050: 105c 13bd 3dc9 a5bd 459d d3bc ab18 983e
00000060: 8975 85bd 6d14 f63d ea63 a7bd b58d 9a3d
00000070: 9bdf 9d3c 0605 4dbe 7354 073e 0541 bdbc
00000080: a66c 0abe 7f67 15be 0072 543c 27f9 c43d
00000090: 866b 663d ef77 fabd 8c76 a3bd 3d84 fbbd
000000a0: d394 a8bd e348 83bd 9b5e 8ebd 1865 8dbe
000000b0: 1815 48be 5663 503e b5e1 1bbe 95f1 bfbd
000000c0: e66f 673e 45e8 193e c7b6 bd3d a197 21be
000000d0: 8594 083e 7926 2bbd 057c d13c 4770 f1bd
000000e0: fb65 153e 3e0d 09be 5742 5ebd 9ac1 8d3d
000000f0: d649 dbbe 17f3 11bd 8f56 403e 8146 5b3e
00000100: 9a25 13bd 343e 8d3c dbae 22bd debc 073e
00000110: 2c8c 3e3e d7b3 953d db1c 9bbd 58e5 393e
00000120: 2a0e d33d eeb9 283e 05fb 93bd baca 38bd
00000130: 30fb 20be fd78 3dbe 4bbd b1bd c879 d8bd
00000140: a702 833e 425a e3bd a641 95be 8337 0f3e
00000150: 72c7 8abe 6025 a1bd 82f5 76be 484d 1f3e
00000160: 24b2 4abe 2e23 723e e9b8 503c d27d 943e
00000170: 9fc6 39be f155 69be 7d3d 82be 68be a3bc
00000180: d47e 873d b4b1 673b 64ad c1bd f01c 963d
00000190: 1754 ecbd 718c a3bb 1d0a 173d b812 a8bd
000001a0: 2a64 75be 90c4 733d 7e9f 31be 80f4 f4bb
000001b0: aa02 1e3e 4e6f be3d 390a b6be ad5b 353d
000001c0: 4cd6 dabc fdf6 5d3e 13eb a53d d136 2b3e
000001d0: ef9c 38be 77f6 743e a326 043e b62a 3cbe
000001e0: 4871 4fbd 70db 81be a8a5 ca3e 6534 803d
000001f0: 4c97 91be 99d6 b0bd 50d8 05be 30c2 37be
00000200: 5ed5 ce3d a9b3 4b3d eb94 8fbc cd09 8dbe
00000210: be98 803d 7b37 2c3d f8ad 1ebd d973 383e
00000220: c154 c3be f749 cb3e 5f49 1abc e102 433d
00000230: 2070 673e 0d85 e9bd 60db 28be 11b0 45bd
00000240: 8be9 073e 8a2f b0be eb31 04bb dc44 7e3d
00000250: 6bf9 8f3d fba5 4fbd 02d7 9abd 57e6 ae3e
00000260: 02e6 07be 610d 093e d18c 23be f58c d13d
00000270: 7954 4f3e 8961 e8bd 1ad0 703d f2be 91bd
00000280: a7b9 de3d 81cb dd3c db8e 76bd bb1a 333e
00000290: ad7b b8bd 9f82 0fbd 62e9 eabd 60b9 96bd
000002a0: 3943 083d d662 8ebe d218 453e 4c01 d6bc
000002b0: 0568 b63c 9fbf ef3d 3068 d1bd 27b0 6bbe
000002c0: 4037 59be 2c1b 90bc 8550 b9bd ffd0 2b3d
000002d0: 84a9 333e 3d3b 063c 7d3d 14be 72bc 283d
000002e0: a594 7d3e 17b9 2abc ff2a 593d a5c7 82be
000002f0: 29fe 093d a48c 8b3c f5db 91be 2d3d 03bd
00000300: bb7c dc3c d81f a83d f2f2 aabd 3fc4 203e
00000310: b103 1c3e 096e 39bd b609 34bd d641 32be
00000320: c0f8 52be 036f 0f3e 2388 68bc 7a6a ed3b
00000330: b12e 033e 8018 83be db98 36bd c948 30be
00000340: 1464 8f3d 3839 21be b167 4bbd d3a2 c3bd
00000350: fdae 6a3e ab09 60be e08a 93bc 3149 e6bd
00000360: 87bf 46bc 1c5b 1b3e f9a1 7c3e b87b 4d3a
00000370: d23f 3f3e db04 863a f9e7 5b3d a065 993d
00000380: 8d53 ca3d 2ffe a7be e8be 67be fc07 493d
00000390: 0ac4 63bd 70f5 43bd d2f8 ad3d ee10 833d
000003a0: 542e 713e b1a3 4b3e bf5f 98bd 1496 37be
000003b0: c865 823e b1fa 2bbe ba46 813d 701b da3d
000003c0: f835 e83d 3e7f 48bc 4a87 9e3d e18d 2f3e
000003d0: bcab 0e3e d31c 4d3d a811 de3d ca33 73bd
000003e0: 48d1 b53b 3138 d6bd f3b4 43be a9d5 1c3e
000003f0: 7410 5f3e e6e4 a7bc 0048 bebc 7605 043d

convs.0.order__interacts__event.lin_rel.weight f4 [64, 1]
-0.17270964 -0.7448865 -0.8140037 -0.7422084 -0.23152328 -0.9057142 0.27395886 -0.39175355
0.8554802 0.5263554 -0.5300754 -0.7385823 0.27039808 -0.20556705 -0.8113974 0.5899325
0.14644179 0.2970296 0.5222111 0.7228612 -0.11304275 0.85899085 -1.0808939 -0.38283476
0.2795789 0.47272635 0.39173958 0.26497614 0.010765301 0.61595386 0.060265202 -0.51122516
-0.094017655 0.7149741 0.45489725 -0.10149422 -0.66782385 -0.39407918 -0.36978477 0.22943732
0.15816203 0.549568 -0.8522801 0.4462948 -0.43789175 0.21357207 0.07919282 0.7186008
-0.86918986 -0.14704566 0.8786724 0.6483319 0.93917817 0.70914704 0.5190315 0.7322603
-0.15340614 -0.2215215 -0.59353685 0.25613523 0.6441011 -0.57141054 0.55502397 -0.85117537
00000000: ccda 30be e2b0 3ebf 8c62 50bf 5f01 3ebf
00000010: 7014 6dbe e3dc 67bf 5644 8c3e ec93 c8be
00000020: c000 5b3f 3abf 063f 05b3 07bf bb13 3dbf
00000030: 9e71 8a3e 2b80 52be bdb7 4fbf d105 173f
00000040: d6f4 153e 4414 983e a0af 053f 6e0d 393f
00000050: f582 e7bd d3e6 5b3f bb5a 8abf eb02 c4be
00000060: f724 8f3e 3009 f23e 1792 c83e f4aa 873e
00000070: f260 303c 27af 1d3f a5d8 763d a7df 02bf
00000080: 548c c0bd 8b08 373f 4be8 e83e 34dc cfbd
00000090: 81f6 2abf bfc4 c9be 6e54 bdbe 9ef1 6a3e
000000a0: 3af5 213e 7db0 0c3f 072f 5abf c180 e43e
000000b0: 5933 e0be a3b2 5a3e d82f a23d 39f6 373f
000000c0: 3a83 5ebf 2393 16be adf0 603f 14f9 253f
000000d0: fb6d 703f a98a 353f 40df 043f 6975 3b3f
000000e0: 8016 1dbe 88d6 62be 08f2 17bf 2824 833e
000000f0: cfe3 243f f647 12bf 0d16 0e3f a1e6 59bf

convs.0.order__interacts__event.lin_rel.bias f4 [64]
-0.96486 0.2532588 0.6084855 0.4997934 0.7354829 0.56865704 0.7460772 -0.80292296
-0.6433413 -0.40754998 0.7441949 -0.10286538 -0.967914 -0.45846832 -0.8074081 -0.7453294
-0.31621835 0.00524216 -0.59823936 0.34656605 0.14228466 0.08658049 -0.9934994 -0.959423
0.9033359 -0.13152038 0.23140982 -0.44852158 -0.6218537 -0.70778537 0.34549573 -0.9525057
0.6767612 -0.15312745 0.8111664 0.58695406 -0.3971304 -0.9927766 0.84470856 0.92813516
-0.6069831 -0.28393286 0.1055773 0.33902416 -0.8705198 0.4033939 -0.6681909 -0.2566521
-0.047302585 -0.5931566 0.18070763 0.79350156 0.3766097 0.43600446 0.46937427 -0.43829763
0.44491595 -0.14135902 -0.5393726 -0.3269288 -0.5668567 -0.057365883 -0.48646736 0.95996755
00000000: 1101 77bf 23ab 813e b5c5 1b3f ece4 ff3e
00000010: 9b48 3c3f 8293 113f eafe 3e3f 5c8c 4dbf
00000020: 04b2 24bf 64aa d0be 8f83 3e3f 16ab d2bd
00000030: 36c9 77bf 5cbc eabe 4cb2 4ebf e8cd 3ebf
00000040: 5fe7 a1be 6dc6 ab3b 3726 19bf 1b71 b13e
00000050: 12b3 113e 1d51 b13d fa55 7ebf bf9c 75bf
00000060: 0641 673f 47ad 06be b2f6 6c3e 9fa4 e5be
00000070: ce31 1fbf 6c31 35bf d1e4 b03e 6ad7 73bf
00000080: 3940 2d3f 71cd 1cbe 9aa8 4f3f 9f42 163f
00000090: ad54 cbbe 9b26 7ebf d23e 583f 449a 6d3f
000000a0: 3f63 1bbf a65f 91be e938 d83d 9394 ad3e
000000b0: 63da 5ebf a589 ce3e 8f0e 2bbf e767 83be
000000c0: 5bc0 41bd 1cd9 17bf 6c0b 393e eb22 4b3f
000000d0: fdd2 c03e fa3b df3e d351 f03e 8c68 e0be
000000e0: 06cc e33e 6bc0 10be 5314 0abf 3663 a7be
000000f0: 851d 11bf 7df8 6abd 4012 f9be 6fc0 753f

convs.0.order__interacts__event.lin_root.weight f4 [64, 20]
0.014010553 -0.011699747 -0.07456289 -0.10626653 -0.18832642 0.12723398 0.3222434 -0.0059094224
0.2515379 -0.015235636 -0.071173385 -0.13806938 0.19632713 -0.24143256 -0.04575176 -0.15668303
0.058285918 -0.10545006 -0.03899891 -0.2539912 0.020793628 -0.07778278 0.04137965 -0.0630473
-0.09922411 0.01747764 -0.13239993 0.16152336 -0.04137067 -0.0011618473 0.025284208 -0.014319246
-0.15413323 -0.07973462 0.22462109 -0.27494293 0.30647916 0.046620127 0.0520365 0.0069004507
-0.07361375 0.16765785 0.16348062 0.12331248 -0.23075873 0.12013381 -0.24098551 -0.06992157
0.117184944 0.18715632 -0.26649457 0.084726706 0.16599153 -0.2642439 0.06497251 -0.17407602
-0.2039989 0.14475988 0.272724 0.066966414 -0.39872634 -0.20269965 -0.014969998 0.10489633
0.22945769 0.020026527 0.1227642 -0.057176523 -0.12535219 -0.13206695 -0.22096653 0.24747123
0.061597034 -0.05100822 0.06535368 -0.19850929 0.18062101 -0.14026749 -0.09126086 -0.13742743
-0.12551293 0.00035185498 0.07694496 0.039809756 0.028858354 0.12519422 0.18184192 0.020905226
0.124869585 -0.08560743 -0.21747787 0.12628476 -0.28534165 0.0072144694 -0.095127165 -0.037389636
0.028178817 -0.2168765 0.121925846 0.24232657 -0.09326167 -0.15890606 -0.20064478 0.04081115
-0.13135591 -0.08522327 0.032472745 -0.18740393 0.031828117 0.047697086 -0.14820202 0.20832922
-0.040725082 0.19158515 -0.096662 0.015250149 -0.36079022 0.20650405 -0.02971732 0.10136364
0.13295889 0.13738726 0.21183504 0.27691954 0.052939303 -0.08600759 -0.19067606 -0.012774672
-0.016376637 -0.2213256 -0.16212149 -0.3464305 -0.026403844 -0.11016809 0.0719956 0.19286567
-0.029292816 0.2323917 -0.094075724 -0.056994915 -0.11506974 0.23067151 -0.17705192 -0.23686613
0.10109162 -0.28008357 0.15044068 -0.33459726 -0.09118845 -0.13622317 -0.069189124 0.18873844
-0.078856505 0.014769279 0.07585617 0.113951765 0.012049181 0.06611392 -0.108948566 -0.13537413
-0.030729678 -0.16854843 -0.18329358 0.21264797 0.027619157 0.01748333 0.18900906 0.14046438
-0.1309964 -0.02113337 0.072837554 0.17633541 0.12432057 0.07112971 -0.07675969 -0.21886855
0.099665254 0.06300311 -0.19576049 -0.17059648 0.19612496 -0.30443156 0.18131882 -0.13003989
6.941433e-05 -0.18617667 -0.118624635 -0.2580144 -0.11126396 0.075287595 -0.10269879 -0.0007880087
-0.25309783 -0.19440939 -0.07880678 0.13985857 -0.094413854 0.12583792 0.078113325 0.11636941
-0.036019836 0.010501079 0.022217788 -0.179648 0.0018172697 -0.14539167 -0.098606095 -0.124665424
-0.1714279 -0.17583722 -0.08927616 -0.057539232 0.09707004 -0.076786004 -0.13752484 0.11874584
-0.15855692 0.08690855 -0.0025561326 -0.016336448 -0.051864665 0.14893216 -0.120656915 0.18234715
0.046323795 0.027895551 -0.21300384 -0.04489802 -0.06331675 -0.16973808 0.0889283 0.056982014
-0.13553388 -0.08179469 0.06311311 -0.03810158 -0.10118648 0.15491425 0.024164414 0.2527541
-0.06037891 0.00956846 0.1310884 -0.22060892 -0.08008868 0.04823482 -0.051612537 -0.086812995
-0.23086362 0.27001116 0.14339902 -0.21804859 -0.13099185 0.20003982 -0.28253436 0.06582646
00000000: 858c 653c 4cb0 3fbc 6eb4 98bd 44a2 d9bd
00000010: a4d8 40be a049 023e 16fd a43e d4a3 c1bb
00000020: 93c9 803e e49e 79bc 5ac3 91bd 0f62 0dbe
00000030: fb09 493e 193a 77be 3366 3bbd 8471 20be
00000040: 37bd 6e3d 33f6 d7bd 52bd 1fbd 220b 82be
00000050: 6657 aa3c 944c 9fbd b57d 293d f11e 81bd
00000060: 0336 cbbd 452d 8f3c d993 07be 6166 253e
00000070: 4b74 29bd 2049 98ba d420 cf3c 459b 6abc
00000080: 1ad5 1dbe e84b a3bd 1203 663e 52c5 8cbe
00000090: d6ea 9c3e bff4 3e3d 3a24 553d 2d1d e23b
000000a0: cec2 96bd 80ae 2b3e 7767 273e 418b fc3d
000000b0: 044c 6cbe b708 f63d e8c4 76be 0a33 8fbd
000000c0: a9fe ef3d e8a5 3f3e fa71 88be 3285 ad3d
000000d0: aff9 293e fa4a 87be 4f10 853d fc40 32be
000000e0: 16e5 50be ef3b 143e 7ba2 8b3e b025 893d
000000f0: dc25 ccbe 7f90 4fbe b944 75bc e3d3 d63d
00000100: f5f6 6a3e ac0e a43c cc6b fb3d ee31 6abd
00000110: 535c 00be 8f3c 07be 0d45 62be 1969 7d3e
00000120: 2c4d 7c3d ffed 50bd 26d8 853d 0546 4bbe
00000130: b7f4 383e 48a2 0fbe f9e6 babd c7b9 0cbe
00000140: 7686 00be 2d79 b839 5295 9d3d 8e0f 233d
00000150: 5b68 ec3c ea32 003e c534 3a3e 7041 ab3c
00000160: a0bb ff3d f352 afbd 85b2 5ebe cb50 013e
00000170: 4d18 92be 5b67 ec3b 08d2 c2bd e025 19bd
00000180: 43d7 e63c e014 5ebe 42b4 f93d 7524 783e
00000190: f9ff bebd 45b8 22be d375 4dbe 9829 273d
000001a0: 2a82 06be 8a89 aebd 2402 053d d1e6 3fbe
000001b0: 335e 023d 055e 433d 45c2 17be 4154 553e
000001c0: 58cf 26bd e62e 443e baf6 c5bd c3db 793c
000001d0: 7fb9 b8be cc75 533e bd71 f3bc bd97 cf3d
000001e0: 6026 083e 3faf 0c3e 49eb 583e 66c8 8d3e
000001f0: e2d6 583d bf24 b0bd 9640 43be dc4c 51bc
00000200: 4c28 86bc 2ea3 62be 2d03 26be 575f b1be
00000210: e04c d8bc cf9f e1bd 6e72 933d 947e 453e
00000220: 7df7 efbc 17f8 6d3e c6aa c0bd 8073 69bd
00000230: afa9 ebbd 2735 6c3e 194d 35be 098d 72be
00000240: 2009 cf3d 1d67 8fbe 1f0d 1a3e 5550 abbe
00000250: 03c1 babd 167e 0bbe 07b3 8dbd a644 413e
00000260: 857f a1bd d9fa 713c 7b5a 9b3d 8b5f e93d
00000270: ee69 453c bc66 873d 6d20 dfbd 849f 0abe
00000280: cebc fbbc f697 2cbe 50b1 3bbe 64c0 593e
00000290: 9241 e23c 3339 8f3c 978b 413e e5d5 0f3e
000002a0: ec23 06be e41f adbc db2b 953d 4591 343e
000002b0: c89b fe3d 74ac 913d 2f34 9dbd 141f 60be
000002c0: 4c1d cc3d c607 813d 7075 48be d8b0 2ebe
000002d0: fbd4 483e 74de 9bbe a4ab 393e 2d29 05be
000002e0: 8992 9138 19a5 3ebe 79f1 f2bd 771a 84be
000002f0: 5cde e3bd 6230 9a3d be53 d2bd 5e92 4eba
00000300: 0a96 81be 4113 47be 7365 a1bd 1637 0f3e
00000310: 0d5c c1bd a8db 003e e1f9 9f3d 1653 ee3d
00000320: 8989 13bd b80c 2c3c 1402 b63c a5f5 37be
00000330: 7431 ee3a 8ee1 14be fef1 c9bd 9650 ffbd
00000340: cc8a 2fbe ac0e 34be 6bd6 b6bd 42ae 6bbd
00000350: a8cc c63d fb41 9dbd 50d3 0cbe 0531 f33d
00000360: bf5c 22be 1cfd b13d ca84 27bb 04d4 85bc
00000370: 0b70 54bd ac81 183e f91a f7bd 36b9 3a3e
00000380: 05be 3d3d 3685 e43c ae1d 5abe fce6 37bd
00000390: 36ac 81bd d2cf 2dbe 0a20 b63d f965 693d
000003a0: 65c9 0abe f983 a7bd 7241 813d 6710 1cbd
000003b0: db3a cfbd d7a1 1e3e 73f4 c53c fc68 813e
000003c0: e04f 77bd 08c5 1c3c 0a3c 063e 4ee7 61be
000003d0: 8905 a4bd e091 453d ab67 53bd 03cb b1bd
000003e0: 8367 6cbe e73e 8a3e 31d7 123e 2148 5fbe
000003f0: ba22 06be 3dd7 4c3e 58a8 90be 06d0 863d

convs.0.item__interacts__event.lin_rel.weight f4 [64, 1]
-0.88762975 -0.4880826 -0.6451409 0.6408733 0.7317732 0.5731921 0.5759519 0.539114
0.1583345 -0.3140481 0.28257793 -0.20687449 0.86108863 -0.90702367 -0.24168321 -0.35387874
0.008611746 -0.54703563 0.3669332 -0.98706466 0.5398958 -0.49030638 0.60491663 -0.46171498
-0.07835127 -0.15144257 0.06506321 -0.5203421 0.68045616 0.5639086 0.18835068 0.50374717
0.63685733 -0.7349888 -0.0901299 0.11886663 -0.4033866 -0.52254796 -0.9520455 -0.91855055
-0.5128741 0.33108544 0.28929466 -0.3343483 0.39963123 -0.8896994 0.2381647 0.48062238
-0.49641994 -0.103817135 -0.7064949 -0.32766214 -0.8148166 0.25646004 -0.99370694 -0.6065225
0.68986005 -0.74155635 -0.046052296 0.40118447 0.23909019 0.01652755 0.0036195517 -0.2941301
00000000: b43b 63bf f6e5 f9be f427 25bf 4610 243f
00000010: 7d55 3b3f b8bc 123f 9571 133f 6003 0a3f
00000020: 7022 223e eaca a0be 0eae 903e e8d6 53be
00000030: 4e70 5c3f b432 68bf ce7b 77be 982f b5be
00000040: 4818 0d3c 870a 0cbf abde bb3e 45b0 7cbf
00000050: 9c36 0a3f 7009 fbbe d1db 1a3f e865 ecbe
00000060: a176 a0bd c313 1bbe dc3f 853d 2435 05bf
00000070: 6032 2e3f 505c 103f 00df 403e 93f5 003f
00000080: 1509 233f 3a28 3cbf 0696 b8bd 5970 f33d
00000090: b088 cebe b4c5 05bf 41b9 73bf 2126 6bbf
000000a0: b84b 03bf 0884 a93e 6e1e 943e b32f abbe
000000b0: 779c cc3e 57c3 63bf 72e1 733e 2314 f63e
000000c0: c12a febe 149e d4bd dadc 34bf 55c3 a7be
000000d0: d297 50bf bb4e 833e 9463 7ebf 0f45 1bbf
000000e0: ab9a 303f a3d6 3dbf 55a1 3cbd 0d68 cd3e
000000f0: 0fd4 743e c964 873c 0036 6d3b 3898 96be

convs.0.item__interacts__event.lin_rel.bias f4 [64]
-0.019451004 0.31310698 0.951616 0.7791216 0.43431473 -0.825299 -0.29003507 0.48044232
0.5460446 -0.0387489 -0.30781984 -0.99694675 -0.18014494 0.12256101 0.26302284 -0.075981185
-0.44765013 0.85584867 -0.29748747 0.06497327 0.14123745 0.124384195 -0.40441814 0.3753022
0.2660427 -0.18616125 -0.7593926 0.121298656 0.43498152 0.5628103 -0.96232516 0.5798515
0.40539438 -0.30053177 -0.15110838 -0.104245715 0.77944285 0.42527112 -0.103649534 -0.4750462
-0.68001443 0.26912987 0.661936 0.07065727 -0.5455786 0.78951 -0.3330233 0.11524459
0.32376266 0.76209444 0.59977525 -0.8276272 -0.038672686 -0.54755205 -0.8460206 0.3003528
0.60878223 0.8313939 0.39437068 0.2767582 -0.72738534 0.24014537 -0.22366351 0.39797068
00000000: b657 9fbc 8f4f a03e 1b9d 733f 8374 473f
00000010: 805e de3e cc46 53bf 7a7f 94be 89fc f53e
00000020: 94c9 0b3f 2bb7 1ebd 909a 9dbe e737 7fbf
00000030: ea77 38be 4401 fb3d eeaa 863e 069c 9bbd
00000040: 6632 e5be e618 5b3f 4750 98be b510 853d
00000050: 8da0 103e 24bd fe3d e50f cfbe 9c27 c03e
00000060: c036 883e 0ea1 3ebe 8e67 42bf 6e6b f83d
00000070: e6b5 de3e 5614 103f f15a 76bf 2671 143f
00000080: da8f cf3e 4ddf 99be 28bc 1abe c77e d5bd
00000090: 9189 473f 23bd d93e 3546 d4bd 4139 f3be
000000a0: 6d15 2ebf 64cb 893e a374 293f c2b4 903d
000000b0: 0aab 0bbf 541d 4a3f 0882 aabe 5b05 ec3d
000000c0: 38c4 a53e 9f18 433f df8a 193f 60df 53bf
000000d0: 4067 1ebd 5f2c 0cbf ce94 58bf d8c7 993e
000000e0: 27d9 1b3f 3bd6 543f f4ea c93e 40b3 8d3e
000000f0: ed35 3abf abe8 753e 0c08 65be d0c2 cb3e

convs.0.item__interacts__event.lin_root.weight f4 [64, 20]
0.2695784 -0.30102697 -0.11913737 -0.13118553 -0.12936684 0.13328539 0.0745117 0.020215219
0.049440186 0.11879197 0.015919197 -0.17857735 0.2117647 -0.04124645 -0.24960345 0.0049272887
-0.057657864 -0.1348355 -0.0077913115 -0.090657674 -0.086288325 -0.11920241 -0.27612936 0.26291037
0.10325466 0.08641837 -0.08856387 -0.08941497 -0.23112999 0.16174945 -0.06419726 0.12593311
-0.09315864 -0.16654831 0.13561079 -0.26045346 0.024358083 0.045825608 -0.053566862 0.12395128
0.04576299 -0.19354093 -0.035014432 -0.15248089 0.039550476 0.035307065 -0.25528416 0.2442911
0.011549703 -0.12161902 0.08926918 0.06271943 0.04374406 0.05606206 0.045905426 0.033287592
-0.03091272 0.070128776 -0.08121866 0.23253004 -0.22866306 -0.018676741 -0.15733138 -0.18078169
-0.17517275 -0.16030805 -0.15045248 -0.043703344 0.26164648 0.061781384 -0.117999196 0.19100939
0.12445308 -0.071158685 -0.10063615 -0.26540256 0.12516098 -0.20248082 -0.13682997 0.07706409
-0.118730836 -0.11849089 -0.17134291 -0.05245981 -0.23823486 0.0040472155 -0.054128263 -0.043903407
0.040680613 -0.08495385 -0.08079946 0.2680078 -0.05881393 -0.055677794 0.04509051 0.2266985
0.06974605 -0.09415288 0.11610943 0.117909074 0.18449572 -0.059120465 -0.034570027 -0.09900532
0.028380724 0.08941511 0.12952408 -0.19076474 0.27942425 0.20153078 0.024781398 -0.139955
-0.0199348 0.20511858 -0.09719568 -0.14012668 -0.39746353 0.25103465 0.029154291 0.032442413
0.12202116 -0.15274484 0.004234256 0.111729875 -0.0060658175 0.20082434 0.2202639 -0.019726845
0.01937171 -0.219545 -0.28652015 -0.24749362 -0.04637595 0.08343023 -0.13778658 -0.11413299
-0.20816298 0.13483997 -0.12776777 0.14396901 0.13458797 -0.12306798 -0.03141266 0.124782614
-0.13564049 0.02012107 -0.091538645 -0.09808388 -0.066056095 -0.10046585 0.1318744 0.12493478
-0.08467033 -0.06357583 0.016913272 0.23701729 0.14876439 0.06392906 -0.16598915 -0.07943583
0.053691644 -0.08539492 -0.06091115 0.10623609 0.13177162 0.18317369 0.08999143 0.11872552
-0.06365643 -0.07251239 0.080915764 0.19767304 0.02083248 0.13381329 -0.14917895 -0.03110154
-0.033537325 0.15617444 -0.14920816 0.21236488 -0.05333038 -0.18495151 0.15942329 0.22744736
0.09666886 -0.041503858 0.04856334 -0.06872716 -0.109404825 0.2048985 -0.27153677 -0.09923332
0.18725741 -0.14176358 -0.20950858 -0.06676986 0.17401265 -0.07762352 0.24056937 0.080059916
0.15679944 -0.07702698 -0.050758034 -0.16767044 0.03801107 -0.16531065 0.005655462 0.042845387
-0.2650091 0.16982307 -0.11615857 -0.020722078 0.18824643 -0.10650547 0.17767967 0.09273118
-0.24445385 0.06736551 0.26392084 0.07856584 0.0012208177 0.039537277 0.19537058 -0.20281617
0.23361479 -0.24298775 -0.2578972 -0.05031293 -0.19659995 -0.091879286 0.28715864 -0.17050155
0.06624808 0.09155526 -0.1481889 0.062009726 -0.05688099 -0.0004112872 0.15436046 -0.14248478
-0.16571984 0.03667644 -0.23077585 -0.09511501 -0.07601102 0.061986793 -0.2753115 0.0561434
-0.09574354 0.23455653 -0.060615562 0.2014223 -0.06910527 0.26619476 0.14603117 0.01534738
00000000: 2e06 8a3e 3520 9abe 4bfe f3bd 8055 06be
00000010: be78 04be f77b 083e 9799 983d 639a a53c
00000020: cb81 4a3d 3449 f33d fa68 823c fbdc 36be
00000030: d8d8 583e 0af2 28bd 0c98 7fbe 1875 a13b
00000040: a72a 6cbd 5112 0abe 424e ffbb bbaa b9bd
00000050: efb7 b0bd 6520 f4bd d460 8dbe 309c 863e
00000060: 2e77 d33d 1dfc b03d f960 b5bd 321f b7bd
00000070: 57ad 6cbe a6a1 253e da79 83bd 9cf4 003e
00000080: f5c9 bebd a48b 2abe 8edd 0a3e 285a 85be
00000090: 9a8a c73c a2b3 3b3d ed68 5bbd 2bda fd3d
000000a0: f971 3b3d 982f 46be 4b6b 0fbd f323 1cbe
000000b0: aeff 213d 249e 103d 9bb4 82be 7227 7a3e
000000c0: f73a 3d3c 6513 f9bd c3d2 b63d 0b73 803d
000000d0: f92c 333d 55a1 653d 5407 3c3d 9258 083d
000000e0: ac3c fdbc ad9f 8f3d f855 a6bd 5b1c 6e3e
000000f0: a626 6abe f7ff 98bc 7a1b 21be d61e 39be
00000100: 7c60 33be cb27 24be 3710 1abe 4702 33bd
00000110: 87f6 853e 7a0e 7d3d 90a9 f1bd f797 433e
00000120: 42e1 fe3d a5bb 91bd 531a cebd d8e2 87be
00000130: 332a 003e 2257 4fbe 281d 0cbe c7d3 9d3d
00000140: 2729 f3bd 5aab f2bd 8474 2fbe 19e0 56bd
00000150: d7f3 73be 819e 843b 99b5 5dbd 0fd4 33bd
00000160: b7a0 263d 49fc adbd 307a a5bd 5238 893e
00000170: e0e6 70bd 660e 64bd d4b0 383d a723 683e
00000180: 04d7 8e3d 3ad3 c0bd c8ca ed3d 507a f13d
00000190: 72ec 3c3e 4d28 72bd 4d99 0dbd 4dc3 cabd
000001a0: b17e e83c 451f b73d f6a1 043e d557 43be
000001b0: b210 8f3e 165e 4e3e 5c02 cb3c 5d50 0fbe
000001c0: 4e4e a3bc 9b0a 523e 870e c7bd 5e7d 0fbe
000001d0: 5780 cbbe 9d87 803e fbd4 ee3c 56e2 043d
000001e0: 3be6 f93d 2569 1cbe 84bf 8a3b a2d2 e43d
000001f0: c4c3 c6bb e5a4 4d3e dc8c 613e 319a a1bc
00000200: 6cb1 9e3c 68d0 60be c5b2 92be f86e 7dbe
00000210: b5f4 3dbd 78dd aa3d ed17 0dbe 8fbe e9bd
00000220: ad28 55be 7d13 0a3e 8ed5 02be 9d6c 133e
00000230: 6ed1 093e 110b fcbd 90aa 00bd 078e ff3d
00000240: 57e5 0abe f1d4 a43c 9d78 bbbd 34e0 c8bd
00000250: 6b48 87bd 0ac1 cdbd 150a 073e cedd ff3d
00000260: a367 adbd 0b34 82bd b48d 8a3c a9b4 723e
00000270: b155 183e 3ded 823d 0ff9 29be 41af a2bd
00000280: c5eb 5b3d 88e3 aebd f87d 79bd 4f92 d93d
00000290: 24ef 063e e291 3b3e 6d4d b83d 5e26 f33d
000002a0: 4d5e 82bd 6081 94bd 2ab7 a53d cd6a 4a3e
000002b0: e1a8 aa3c 5a06 093e 5ec2 18be a8c8 febc
000002c0: 6f5e 09bd 31ec 1f3e 06ca 18be 2e76 593e
000002d0: f570 5abd ee63 3dbe dc3f 233e f6e7 683e
000002e0: 53fa c53d f3ff 29bd 5aea 463d d3c0 8cbd
000002f0: a30f e0bd ead0 513e de06 8bbe d73a cbbd
00000300: 68c0 3f3e 792a 11be 6b89 56be a3be 88bd
00000310: 5f30 323e 14f9 9ebd d157 763e 74f6 a33d
00000320: 0890 203e 52c0 9dbd a8e7 4fbd cdb1 2bbe
00000330: 7fb1 1b3d 3247 29be 7451 b93b a57e 2f3d
00000340: 46af 87be 19e6 2d3e 8be4 edbd 59c1 a9bc
00000350: acc3 403e 8a1f dabd a9f1 353e d8e9 bd3d
00000360: 1c52 7abe eef6 893d a220 873e 21e7 a03d
00000370: d803 a03a d7f1 213d 3a0f 483e 0baf 4fbe
00000380: b738 6f3e c8d1 78be 1a0b 84be ee14 4ebd
00000390: 7f51 49be 352b bcbd 7506 933e f597 2ebe
000003a0: 13ad 873d 5381 bb3d d5be 17be e9fd 7d3d
000003b0: 0afc 68bd 09a2 d7b9 ab10 1e3e 88e7 11be
000003c0: 76b2 29be 093a 163d 8150 6cbe a9cb c2bd
000003d0: aaab 9bbd dde5 7d3d a1f5 8cbe 9ff6 653d
000003e0: 3015 c4bd 962f 703e 0648 78bd a641 4e3e
000003f0: 1087 8dbd ae4a 883e 3289 153e 9473 7b3c

convs.0.package__interacts__event.lin_rel.weight f4 [64, 1]
-1.0776428 -0.00900157 0.6857582 -0.9572432 -0.9680584 -0.3927701 -1.0755843 -0.40838584
0.6190261 0.2760725 0.4856282 0.21177927 -1.0566766 -0.3575346 0.69773966 0.13103728
0.9867276 -0.23339237 0.21678156 0.422171 -0.46565565 -0.14810148 0.47465393 -0.9446016
0.4651673 0.32416603 -0.2902496 0.8386026 -0.88889486 0.4320035 -0.24874692 0.92939425
-0.6863007 -0.83232343 -1.018651 0.43165562 0.09267648 0.5323949 -0.43051246 0.050272908
-0.8922255 0.5717645 -0.289087 -0.99756455 0.3747769 1.2003157 0.04619416 0.8535431
-0.7690691 0.9007342 0.43933973 -0.9859961 -0.41411963 -0.8487737 0.84953773 0.67828435
0.06432274 0.31821334 -0.5101684 0.11149626 -0.42402485 -0.81810707 -0.44955248 -1.0489337
00000000: 33f0 89bf 527b 13bc d98d 2f3f e40d 75bf
00000010: add2 77bf 2a19 c9be bfac 89bf f317 d1be
00000020: 7f78 1e3f 6059 8d3e 42a4 f83e aadc 583e
00000030: 2e41 87bf c60e b7be 119f 323f a32e 063e
00000040: 2e9a 7c3f 69fe 6ebe fcfb 5d3e cc26 d83e
00000050: 6b6a eebe eaa7 17be d705 f33e 69d1 71bf
00000060: 692a ee3e 17f9 a53e 989b 94be a9ae 563f
00000070: 9d8e 63bf 902f dd3e 83b7 7ebe c8ec 6d3f
00000080: 67b1 2fbf 2613 55bf 2863 82bf f701 dd3e
00000090: 2bcd bd3d 084b 083f 216c dcbe f7ea 4d3d
000000a0: e468 64bf 295f 123f 3603 94be 6460 7fbf
000000b0: c2e2 bf3e f2a3 993f 1636 3d3d cd81 5a3f
000000c0: b6e1 44bf 8496 663f 23f1 e03e 3e6a 7cbf
000000d0: 7d07 d4be 3c49 59bf 4e7b 593f 0ba4 2d3f
000000e0: a4bb 833d dcec a23e 659a 02bf 2758 e43d
000000f0: c919 d9be 776f 51bf be2b e6be 7643 86bf

convs.0.package__interacts__event.lin_rel.bias f4 [64]
0.3157921 -0.9620739 -0.20360076 -0.05834921 0.48199317 0.54293585 -0.37159902 0.39118052
-0.55087215 0.1761338 0.5473663 0.40600467 -0.8720116 -0.8360204 0.5073708 -0.9453282
-0.020511966 -0.21414249 0.32186985 -0.79756093 0.5335197 -0.80499464 -0.37675652 0.9462862
-0.5262401 -0.4264574 0.26876786 -0.08165269 -0.568395 -0.6808498 0.16073582 0.29871404
0.38829333 0.20334509 0.14410786 0.8446433 -0.51044774 -0.9300323 -0.94750255 -0.21770231
-0.21421705 -0.9193855 -0.7821774 0.7350162 0.2964674 0.4327431 -0.37391025 -1.0033273
0.26580575 0.58394057 0.30225828 0.8769943 -0.72325766 -0.2022597 -0.20336941 -0.46156597
0.67155164 0.8783962 0.19008102 0.21679907 -0.06983198 0.6694887 -0.2829008 0.13966885
00000000: 81af a13e 7a4a 76bf b87c 50be 95ff 6ebd
00000010: cfc7 f63e d8fd 0a3f 3a42 bebe d048 c83e
00000020: f505 0dbf 6b5c 343e 3320 0c3f d8df cf3e
00000030: 273c 5fbf 6f05 56bf 0ee3 013f 0701 72bf
00000040: b608 a8bc 2b48 5bbe 20cc a43e f42c 4cbf
00000050: bf94 083f 2114 4ebf 3be6 c0be d03f 723f
00000060: acb7 06bf a058 dabe f19b 893e 8739 a7bd
00000070: 5682 11bf 2c4c 2ebf ee97 243e 0cf1 983e
00000080: 62ce c63e b239 503e 0391 133e 8b3a 583f
00000090: b4ac 02bf 9916 6ebf 878f 72bf 5bed 5ebe
000000a0: b75b 5bbe d95c 6bbf c73c 48bf 062a 3c3f
000000b0: 93ca 973e 8190 dd3e 2a71 bfbe 076d 80bf
000000c0: b117 883e 217d 153f 99c1 9a3e b382 603f
000000d0: 6a27 39bf 2b1d 4fbe 1240 50be 6052 ecbe
000000e0: cfea 2b3f 93de 603f 99a4 423e 9300 5e3e
000000f0: 1204 8fbd 9d63 2b3f 60d8 90be 5a05 0f3e

convs.0.package__interacts__event.lin_root.weight f4 [64, 20]
0.028134806 -0.25467584 0.21963371 0.2601267 0.0006529354 -0.061772753 0.30032063 0.4070736
0.040842943 -0.12757221 -0.0137662105 -0.19257644 0.2520371 -0.2269642 -0.06220533 0.08255882
-0.119117126 -0.1315583 0.07826689 0.067452535 -0.14671475 -0.036984004 -0.087080315 0.0916552
-0.15023844 -0.005450225 0.095677584 -0.22167088 0.05909595 0.14917009 0.12514561 0.054116372
0.26889935 -0.24062143 0.12684685 0.08330452 -0.044198494 -0.17152725 0.17455484 0.27515805
-0.15950158 -0.115776695 0.041373633 0.054463964 0.00092038605 0.20459524 -0.11951626 0.17673324
0.27378678 -0.10819004 0.010091493 0.075594224 0.011251432 -0.10221741 -0.03394436 -0.065065645
0.1907694 0.04770975 0.0568272 -0.15834904 -0.0272693 -0.14921804 -0.06071749 -0.19818068
-0.17302163 -0.016797852 -0.19533743 -0.036424857 0.24149753 0.05438307 -0.029265523 -0.06621173
0.07940648 0.20140621 0.16489096 0.13771161 0.17451859 0.008183404 -0.058906015 -0.042978216
0.2930598 0.2699319 -0.18433915 -0.08272684 -0.042506292 -0.07857181 -0.18095331 -0.10685015
0.14472492 -0.035098407 -0.12479157 0.06866034 0.01628909 -0.2872623 -0.04059046 0.10606969
0.109958425 -0.007780478 0.06865905 -0.113398395 -0.087170675 -0.17237683 -0.03698623 -0.110238455
-0.22843069 0.3076151 0.19192256 -0.18606557 0.28940198 0.055237122 0.060141664 -0.20888036
0.11074114 0.22951688 0.05329759 -0.24058808 -0.38530803 0.18940969 0.1322568 0.1240369
0.022199014 -0.2506006 0.047278468 0.01648671 0.041998297 0.09443785 0.18759842 -0.06702935
-0.17109561 0.06923955 -0.29838073 -0.04143592 0.012352217 0.06267989 0.21375057 0.10679697
-0.070954025 0.12063509 0.06937196 -0.2051502 -0.12300869 0.22866642 -0.019959552 0.11654703
0.069774345 -0.18535067 0.1298206 -0.012818778 -0.24903594 0.18455411 0.06133332 0.2965191
-0.21434943 0.065093465 -0.047277786 0.0017812417 -0.16293158 -0.08341682 -0.033850063 -0.1167978
0.10934099 -0.103209324 -0.056546338 -0.14366674 -0.25310096 -0.15239836 0.16283283 -0.08811313
-0.019298166 -0.045775175 -0.0033852388 -0.20440197 0.23191372 -0.21433295 0.13394623 -0.15014562
0.01441865 -0.20491743 -0.24538462 0.03797756 0.09185665 -3.7280215e-06 0.045317397 0.08756018
0.032978743 -0.09826302 0.0072211064 -0.22199006 0.17798983 -0.18477677 -0.27392533 -0.196971
0.14743328 -0.056999784 -0.2032476 0.055795122 0.10298641 0.30982727 0.18555386 -0.013454408
-0.16758849 0.06722393 -0.15903305 0.038189933 -0.19886926 -0.024364417 -0.16662273 -0.036719788
-0.19909276 -0.008422119 0.04980507 -0.09456599 0.111750245 -0.13009942 0.19255199 -0.08284351
-0.18507227 0.052747935 -0.051531978 -0.16884437 -0.0175293 0.03722643 -0.16496448 0.20502318
0.36299315 -0.12304331 -0.21450078 -0.0077073737 -0.18411604 0.1678031 0.047517337 -0.065617844
0.16952479 0.13445865 -0.2030002 0.14258088 0.105889566 0.0163122 -0.012276006 -0.04519294
0.10558712 -0.17599885 -0.093372665 -0.20875299 0.119111836 0.11178055 -0.14577363 -0.26369813
-0.10327849 0.09234241 0.06262517 -0.19271475 0.14125668 0.16269885 -0.17098245 0.12452915
00000000: f77a e63c df64 82be a9e7 603e 542f 853e
00000010: c129 2b3a 6d05 7dbd a0c3 993e f36b d03e
00000020: ee4a 273d 4aa2 02be ac8b 61bc c232 45be
00000030: 020b 813e 4e69 68be 04cb 7ebd 9914 a93d
00000040: aef3 f3bd 38b7 06be 644a a03d 8e24 8a3d
00000050: 643c 16be 8a7c 17bd 2a57 b2bd b9b5 bb3d
00000060: 1bd8 19be cd97 b2bb 9cf2 c33d b1fd 62be
00000070: 980e 723d 0bc0 183e 2c26 003e 21a9 5d3d
00000080: 2dad 893e 7765 76be 24e4 013e 8f9b aa3d
00000090: 7b09 35bd d7a4 2fbe 81be 323e 84e1 8c3e
000000a0: 6254 23be 551c edbd 6677 293d 9b15 5f3d
000000b0: 1046 713a 6a81 513e f1c4 f4bd 8ff9 343e
000000c0: c82d 8c3e bd92 ddbd ca56 253c 25d1 9a3d
000000d0: ed57 383c 5d57 d1bd 3e09 0bbd 2341 85bd
000000e0: 0e59 433e 4c6b 433d a3c3 683d 4026 22be
000000f0: de63 dfbc 9dcc 18be e7b2 78bd e0ef 4abe
00000100: 952c 31be a69b 89bc 8906 48be 3b32 15bd
00000110: 214b 773e c8c0 5e3d 40be efbc 049a 87bd
00000120: dd9f a23d 6e3d 4e3e 2dd9 283e 4604 0d3e
00000130: 00b5 323e af13 063c 6f47 71bd ed09 30bd
00000140: ef0b 963e 8434 8a3e 67c3 3cbe b16c a9bd
00000150: 141b 2ebd 42ea a0bd d34b 39be 40d4 dabd
00000160: c532 143e 59c3 0fbd b992 ffbd cb9d 8c3d
00000170: b370 853c 0b14 93be 2f42 26bd 113b d93d
00000180: e231 e13d 61f3 febb 1e9d 8c3d 6b3d e8bd
00000190: 8a86 b2bd 8d83 30be e07e 17bd b3c4 e1bd
000001a0: bce9 69be ba7f 9d3e 5987 443e f987 3ebe
000001b0: 7f2c 943e 5240 623d 1b57 763d bce4 55be
000001c0: 40cc e23d 7906 6b3e 934e 5a3d b95c 76be
000001d0: 1847 c5be 9df4 413e 546e 073e 0f07 fe3d
000001e0: b5da b53c b94e 80be 11a7 413d 230f 873c
000001f0: 6806 2c3d a268 c13d cd19 403e af46 89bd
00000200: b033 2fbe 77cd 8d3d 5cc5 98be b6b8 29bd
00000210: f460 4a3c 505e 803d 6ee1 5a3e 5fb8 da3d
00000220: 5850 91bd 880f f73d e312 8e3d e512 52be
00000230: fbeb fbbd 8827 6a3e 3782 a3bc 36b0 ee3d
00000240: dae5 8e3d 91cc 3dbe b1ef 043e da05 52bc
00000250: 4703 7fbe c1fb 3c3e a638 7b3d 5ad1 973e
00000260: 6b7e 5bbe b94f 853d 5aa6 41bd 8e78 e93a
00000270: 89d7 26be 70d6 aabd 5da6 0abd af33 efbd
00000280: 2bee df3d 695f d3bd 229d 67bd 601d 13be
00000290: 7396 81be 510e 1cbe a6bd 263e a874 b4bd
000002a0: 3017 9ebc c07e 3bbd e2da 5dbb c04e 51be
000002b0: ca7a 6d3e 197a 5bbe 3329 093e c6bf 19be
000002c0: 343c 6c3c e0d5 51be 1b46 7bbe 5c8e 1b3d
000002d0: 571f bc3d ec2e 7ab6 bc9e 393d c052 b33d
000002e0: b814 073d 1f3e c9bd 089f ec3b 5d51 63be
000002f0: f742 363e 1f36 3dbe f13f 8cbe c4b2 49be
00000300: c0f8 163e 9b78 69bd 2420 50be 6d89 643d
00000310: 8aea d23d aea1 9e3e d501 3e3e e16f 5cbc
00000320: 519c 2bbe b3ac 893d 8fd9 22be 0c6d 1c3d
00000330: 62a4 4bbe e397 c7bc 269f 2abe 7d67 16bd
00000340: f9de 4bbe edfc 09bc 6700 4c3d d0ab c1bd
00000350: 50dd e43d c838 05be 592c 453e dca9 a9bd
00000360: 9683 3dbe 380e 583d 3213 53bd 8ae5 2cbe
00000370: 9b99 8fbc be7a 183d 73ec 28be 99f1 513e
00000380: 3dda b93e 22fe fbbd 18a6 5bbe 238e fcbb
00000390: ea88 3cbe 93d4 2b3e 8aa1 423d a662 86bd
000003a0: e897 2d3e 87af 093e 49df 4fbe b900 123e
000003b0: a1dc d83d 2aa1 853c 4d21 49bc 3b1c 39bd
000003c0: 0f3e d83d 0b39 34be 2b3a bfbd 58c3 55be
000003d0: e8f0 f33d 33ed e43d af45 15be 7103 87be
000003e0: ac83 d3bd 041e bd3d a041 803d 0457 45be
000003f0: 97a5 103e 879a 263e 0616 2fbe 2409 ff3d

convs.0.package__updates__package.lin_rel.weight f4 [64, 1]
-0.22064364 0.72909546 0.0025843214 -0.4212467 -0.18995565 0.19970459 -0.33395264 -0.35695952
0.10793506 0.7862302 0.29951864 -0.24965893 -0.97096896 0.5646503 -0.3829399 0.51422876
-0.44601485 -0.06602006 -0.31464168 -0.8044709 -0.92704654 0.31605533 0.40082476 0.3510164
-0.4997066 -0.014827205 -0.021464847 -0.025043769 0.87550616 0.6986485 0.7399263 0.45104223
0.2986888 -0.79660225 -0.6051168 -0.9125709 -0.48218518 0.061623044 -0.6550063 0.399988
0.92637503 0.28572142 -0.56696624 -0.5943593 0.33610138 0.89072365 0.60447204 -0.807161
0.91512686 -0.2055931 0.33683813 0.3137361 -0.7911493 -0.91715825 0.13748333 0.780896
-0.6902582 0.020470675 -0.8583373 -0.47272682 -0.1406483 -0.012333922 -0.12959006 -0.86858666
00000000: 68f0 61be 00a6 3a3f b85d 293b a6ad d7be
00000010: bc83 42be 5c7f 4c3e d7fb aabe 66c3 b6be
00000020: 0f0d dd3d 6246 493f 825a 993e 97a6 7fbe
00000030: 6c91 78bf ec8c 103f b310 c4be 7fa4 033f
00000040: 0f5c e4be 8635 87bd b718 a1be cef1 4dbf
00000050: ec52 6dbf 01d2 a13e e738 cd3e 6cb8 b33e
00000060: 8bd9 ffbe ceed 72bc 0cd7 afbc 9728 cdbc
00000070: 2c21 603f a1da 323f cf6b 3d3f 02ef e63e
00000080: bded 983e 20ee 4bbf efe8 1abf 3f9e 69bf
00000090: fae0 f6be 7268 7c3d 7eae 27bf 3acb cc3e
000000a0: ea26 6d3f 144a 923e b324 11bf ee27 18bf
000000b0: 7b15 ac3e 7706 643f aebe 1a3f 1aa2 4ebf
000000c0: c145 6a3f ff86 52be 0c76 ac3e 05a2 a03e
000000d0: c388 4abf e2ca 6abf 6ec8 0c3e cde8 473f
000000e0: c3b4 30bf 1eb2 a73c febb 5bbf 4009 f2be
000000f0: 1c06 10be 3814 4abc 42b3 04be b25b 5ebf

convs.0.package__updates__package.lin_rel.bias f4 [64]
0.82272434 -0.82346374 -0.40657067 0.47587135 0.040267475 -0.89917636 0.77850306 -0.012414695
0.3531345 -0.18594645 -0.89602786 0.5178998 0.6060597 0.260113 0.4144978 -0.6106331
-0.85431623 -0.8110556 0.8398533 -0.85544074 -0.54284006 0.48479816 0.3539135 -0.2754421
0.6969815 0.15033698 0.19683303 -0.6304193 -0.3598836 0.53761095 0.27586254 -0.84196055
0.7923442 0.9559492 0.08287168 -0.83118004 0.12109491 -0.84642136 0.15291022 0.10179456
0.017322198 -0.6956031 0.8987754 -0.26767793 -0.6600319 -0.5569843 0.5660436 -0.06244442
-0.51091653 -0.2945316 -0.6873817 0.348614 0.74040514 -0.22228062 -0.59662616 -0.5607683
0.7107976 -0.10359814 -0.4865811 0.9112491 -0.48079428 -0.0007588524 -0.49579656 -0.8984528
00000000: 109e 523f 85ce 52bf 082a d0be 69a5 f33e
00000010: 82ef 243d 6c30 66bf fa4b 473f 0167 4bbc
00000020: 0cce b43e bf68 3ebe 1562 65bf 1595 043f
00000030: ba26 1b3f 882d 853e 0e39 d43e 7352 1cbf
00000040: 78b4 5abf 57a1 4fbf a000 573f 2afe 5abf
00000050: 91f7 0abf 7737 f83e 2634 b53e bf06 8dbe
00000060: 616d 323f f0f1 193e 998e 493e 2963 21bf
00000070: aa42 b8be dfa0 093f db3d 8d3e ba8a 57bf
00000080: 12d7 4a3f 16b9 743f a1b8 a93d 37c8 54bf
00000090: 9c00 f83d 12af 58bf 7f94 1c3e ab79 d03d
000000a0: 48e7 8d3c 0b13 32bf 2516 663f 150d 89be
000000b0: daf7 28bf 8696 0ebf 3ce8 103f b8c5 7fbd
000000c0: 6dcb 02bf d9cc 96be 3ff8 2fbf 897d b23e
000000d0: 318b 3d3f 889d 63be 7ebc 18bf 838e 0fbf
000000e0: d5f6 353f 432b d4bd 2821 f9be 9f47 693f
000000f0: ab2a f6be b9ed 46ba 0cd9 fdbe 0101 66bf

convs.0.package__updates__package.lin_root.weight f4 [64, 1]
0.4629243 0.28180635 0.7618793 -0.82297087 -0.9784783 0.69218045 -0.4307538 0.6393759
0.81759334 -0.3078188 0.562858 0.70853823 0.2356594 -0.29592893 -0.03923906 -0.4827233
0.093771294 -0.17848891 0.13858154 0.38705555 -0.9376214 -0.8284093 0.26392505 -0.5860086
-0.1303972 0.19337977 -0.6304083 0.28488967 -0.52637655 0.30489206 -0.19130765 -0.26177078
-0.70046395 -0.17279755 0.12905529 0.40457657 -0.67915094 0.7722385 -0.0005237318 -0.19745296
-0.33630577 -0.121412374 -0.48599774 -0.61376625 0.9149861 0.5444955 0.45619085 -0.34319565
-0.33903712 0.5335038 0.27468082 -0.09743766 0.72512776 0.51347953 -0.24361496 -0.50531584
0.023557853 -0.73126954 0.9734374 -0.09730256 -0.48538262 0.1242125 0.15157813 0.1729828
00000000: 6a04 ed3e ec48 903e 860a 433f 38ae 52bf
00000010: 8e7d 7abf bd32 313f c38b dcbe 24ae 233f
00000020: cc4d 513f 6d9a 9dbe 7617 103f c362 353f
00000030: b350 713e ff83 97be 23b9 20bd 8227 f7be
00000040: 2a0b c03d ccc5 36be 52e8 0d3e 252c c63e
00000050: f507 70bf a212 54bf 2f21 873e a904 16bf
00000060: d886 05be 5905 463e 7062 21bf 0fdd 913e
00000070: 9dc0 06bf d01a 9c3e 27e6 43be d206 86be
00000080: 9b51 33bf d7f1 30be 1227 043e a924 cf3e
00000090: d6dc 2dbf 6cb1 453f 0c4b 09ba 1c31 4abe
000000a0: 4530 acbe 0da7 f8bd b2d4 f8be c91f 1dbf
000000b0: 873c 6a3f 0f64 0b3f d991 e93e 57b7 afbe
000000c0: 4696 adbe b493 083f f7a2 8c3e 658d c7bd
000000d0: f9a1 393f 6573 033f 3376 79be 615c 01bf
000000e0: 66fc c03c 7b34 3bbf 3233 793f 9146 c7bd
000000f0: 1284 f8be 2063 fe3d 4c37 1b3e 6722 313e

convs.0.order__updates__order.lin_rel.weight f4 [64, 1]
0.010080513 0.26289052 0.97618604 -0.38137853 -0.85189974 0.12587495 -0.31564626 0.716485
0.5869315 0.23292665 0.6792735 -0.5930227 0.18310252 -0.72164446 -0.33374438 0.8520426
0.57360405 0.64004135 -0.83911484 -0.31626153 0.22134353 -0.6389973 -0.96988267 -0.46113253
-0.58522576 -0.07118282 -0.08600363 -0.63392824 0.64587134 -0.8801221 0.62192744 0.87638986
-0.6871127 0.14030065 0.1945683 0.8749163 0.103291646 0.89010507 -0.6348433 0.052750863
-0.24291867 -0.7257158 0.8867746 0.40312478 0.31106323 0.5229895 0.35125318 -0.15149292
-0.6740206 -0.6768888 0.72339606 -0.01377853 0.3634526 -0.41599217 -0.31223303 0.49586287
0.40171027 -0.91467196 -0.7552361 -0.3771588 -0.36646897 0.40018782 0.06723837 -0.6933955
00000000: bc28 253c 9699 863e 54e7 793f 0c44 c3be
00000010: 1a16 5abf 5de5 003e 639c a1be 906b 373f
00000020: 2541 163f 5384 6e3e dee4 2d3f 56d0 17bf
00000030: 3a7f 3b3e b1bd 38bf 8be0 aabe 771f 5a3f
00000040: b7d7 123f c0d9 233f 3bd0 56bf 08ed a1be
00000050: e1a7 623e 5495 23bf 3b4a 78bf 9019 ecbe
00000060: 5bd1 15bf 4cc8 91bd ac22 b0bd 1f49 22bf
00000070: d357 253f af4f 61bf a336 1f3f 165b 603f
00000080: 9ee6 2fbf f9aa 0f3e ea3c 473e 84fa 5f3f
00000090: 928a d33d eddd 633f 1785 22bf 4a11 583d
000000a0: acbf 78be 83c8 39bf a903 633f 5f66 ce3e
000000b0: ae43 9f3e a4e2 053f 75d7 b33e f620 1bbe
000000c0: 9d8c 2cbf 9648 2dbf 7c30 393f 58bf 61bc
000000d0: 7616 ba3e edfc d4be 02dd 9fbe bde1 fd3e
000000e0: f8ac cd3e f127 6abf 2757 41bf f51a c1be
000000f0: d2a1 bbbe 6be5 cc3e 45b4 893d 5e82 31bf

convs.0.order__updates__order.lin_rel.bias f4 [64]
0.7761966 -0.037431903 -0.7082324 0.647662 -0.32191646 -0.31336805 0.7762039 0.43942174
0.12853356 0.5508863 -0.670179 0.9725718 -0.22678198 -0.10448802 0.5990872 -0.28909516
0.77144563 0.04955552 -0.08075474 0.42847845 0.08570744 -0.7431324 -0.64939487 -0.009510639
0.34574726 0.46941528 0.5773959 -0.48245302 -0.92194206 -0.7273575 0.59749466 -0.06315148
-0.91397446 -0.14297523 -0.8124768 0.6908625 -0.09848011 -0.017558947 -0.5716665 -0.32426542
0.23990054 0.53125745 -0.5589075 -0.13319713 0.40830332 -0.10432136 -0.28650567 -0.64504874
-0.057237957 0.19190575 0.65951645 0.67976284 -0.06034959 -0.5386639 -0.048324425 0.16297597
-0.44714043 0.48648006 -0.42836443 0.6562846 -0.5543614 0.28534013 -0.5653467 0.7484138
00000000: d2b4 463f 3252 19bd b84e 35bf 2dcd 253f
00000010: 3cd2 a4be c771 a0be 4cb5 463f e3fb e03e
00000020: 4d9e 033e e206 0d3f da90 2bbf 77fa 783f
00000030: 8939 68be d1fd d5bd c75d 193f 4804 94be
00000040: 767d 453f bbfa 4a3d be62 a5bd 8761 db3e
00000050: 6287 af3d ed3d 3ebf be3e 26bf 83d2 1bbc
00000060: c905 b13e 3357 f03e 38d0 133f 1504 f7be
00000070: 6504 6cbf 1a34 3abf 69f5 183f 9055 81bd
00000080: 3bfa 69bf 1968 12be 7bfe 4fbf 5ddc 303f
00000090: f1af c9bd c8d7 8fbc bc58 12bf 1e06 a6be
000000a0: 7da8 753e 7d00 083f 9014 0fbf d464 08be
000000b0: 220d d13e 70a6 d5bd dfb0 92be ea21 25bf
000000c0: 5972 6abd f182 443e 12d6 283f f004 2e3f
000000d0: 2231 77bd e1e5 09bf d5ef 45bd 2ce3 263e
000000e0: 97ef e4be ea13 f93e 9552 dbbe 4402 283f
000000f0: a1ea 0dbf 1a18 923e 90ba 10bf 0c98 3f3f
