models/OTC/efg/exp_v2/no_subgraph_sampling/lr=0.01_hidden_dim=32/HigherOrderGNN_20230830_00h35m/state_dict_epoch5.pt (torch, 17535 bytes, 7 tensors)

convs.0.lin_rel.weight f4 [32, 20]
0	0xbeaffca5	-0.3437244
1	0xbf191bfc	-0.59808326
2	0x3f5bcfa8	0.85863733
3	0x3f1af019	0.6052261
4	0x3eeecc82	0.46640402
5	0x3e9b49fe	0.3032989
6	0xbe53572e	-0.20638725
7	0xbe8e881a	-0.27838212
8	0xbeb8ab0f	-0.36068007
9	0xbe592d94	-0.21208793
10	0x3f3baaa7	0.7330727
11	0x3f0ed065	0.55786735
12	0x3eadd6de	0.33952993
13	0xbe754421	-0.2395177
14	0xbf1c4bee	-0.6105336
15	0x3ec5f7a5	0.386655
16	0x3ecd6588	0.40116525
17	0xbe4e0786	-0.20120057
18	0x3d9cabed	0.0764998
19	0xbd22e7e7	-0.03977194
20	0xbed2869d	-0.41118327
21	0x3dab8816	0.08375566
22	0xbf09e44f	-0.53863996
23	0xbf0b90f4	-0.54518056
24	0x3e88e40b	0.26736483
25	0xbd1ea38c	-0.03873019
26	0xbe0de739	-0.13857736
27	0xbd96b161	-0.07358051
28	0xbcd91674	-0.026499964
29	0xbe1a130e	-0.15046331
30	0x3df3879b	0.11891099
31	0x3ef9c171	0.48780397
32	0xbe278fc5	-0.16363437
33	0xbee0b00d	-0.43884316
34	0x3e8ff942	0.28119856
35	0x3f96f499	1.1793395
36	0xbe8e3807	-0.2777712
37	0xbda177e5	-0.07884196
38	0x3df228c4	0.11824182
39	0x3e4bc3a9	0.19898857
40	0x3e7af354	0.24506885
41	0x3cfd674e	0.030933049
42	0xbe9a93b8	-0.30190825
43	0xbe92c139	-0.28663042
44	0xbf0c1d78	-0.54732466
45	0x3e32d963	0.17465739
46	0xbdb392c2	-0.08768226
47	0xbe301bf9	-0.1719817
48	0x3da60741	0.08106852
49	0xbc85b08b	-0.016319534
50	0x3e8aa310	0.27077532
51	0xbe9585b8	-0.29203582
52	0xbe9396ba	-0.28825933
53	0xbf534159	-0.8252159
54	0x3edb6400	0.4284973
55	0x3e171bc5	0.14756687
56	0xbf116cbf	-0.5680656
57	0x3ea472b6	0.32118767
58	0xbe38e76c	-0.1805703
59	0xbb49d8cd	-0.003079939
60	0xbec03a5e	-0.3754453
61	0x3eb050b6	0.34436578
62	0xbe61f011	-0.22064234
63	0xbed59433	-0.4171463
64	0x3d8fc355	0.070196785
65	0x3e4621c8	0.19348824
66	0xbe2916c5	-0.16512592
67	0xbe55fe96	-0.20897898
68	0xbf02c6df	-0.51084703
69	0xbd206766	-0.03916111
70	0x3df83723	0.121198915
71	0x3f0af05d	0.54273015
72	0xbeb657b5	-0.3561379
73	0xbf0048af	-0.50110906
74	0x3dfd6686	0.123730704
75	0x3f4cef4f	0.80052656
76	0xbef5bfe9	-0.47997978
77	0x3e231866	0.15927276
78	0xbeb49bff	-0.35275266
79	0x3f80a295	1.0049616
80	0xbd8cbac9	-0.06871564
81	0x3e2c36d7	0.16817795
82	0xbe0de630	-0.13857341
83	0xbeb48639	-0.35258654
84	0x3e7d6597	0.24745785
85	0x3e92c207	0.28663656
86	0x3e94236a	0.2893327
87	0xbee614ce	-0.44937748
88	0xbf0e02e8	-0.55473185
89	0x3e9e349c	0.30899513
90	0xbecf76f4	-0.40520442
91	0x3e8d4b3d	0.27596465
92	0x3e5f8635	0.2182854
93	0xbe277f62	-0.16357186
94	0xbe739716	-0.23788103
95	0xbda3f40c	-0.080055326
96	0x3f1b665e	0.60703075
97	0xbf562ad6	-0.8365911
98	0x3cd65673	0.02616427
99	0xbde6dcbc	-0.112725705
100	0x3df7fbfc	0.12108609
101	0x3e952d3d	0.29136077
102	0xbe1c7181	-0.15277673
103	0x3f0a0e10	0.5392771
104	0xbf329b41	-0.6976815
105	0xbc87049f	-0.016481696
106	0xbd53385f	-0.05156743
107	0x3e608f3b	0.21929638
108	0xbea91376	-0.3302266
109	0xbe6847dd	-0.22683664
110	0xbd15a6f0	-0.036536157
111	0x3f186d79	0.5954204
112	0x3ef1d348	0.47231507
113	0xbdbb3f06	-0.0914288
114	0xbd0e6b34	-0.034770206
115	0x3e7c91e5	0.2466503
116	0xbe0e8f07	-0.13921748
117	0x3dd3e494	0.10346332
118	0x3c89806f	0.016784875
119	0xbd44962e	-0.047994785
120	0xbdad5ffe	-0.08465575
121	0xbe65b3c2	-0.22431853
122	0xbbbeec6d	-0.005826524
123	0x3d043e9a	0.032286264
124	0xbf142644	-0.5787089
125	0x3f53f938	0.8280215
126	0xbbf41644	-0.0074489433
127	0xbe76cc78	-0.24101436
128	0x3dcb2c2b	0.09920534
129	0x3f147b9c	0.5800111
130	0xbf127eef	-0.57224935
131	0x3e0c7bfa	0.13719168
132	0xbeb29732	-0.34880978
133	0xbd642da3	-0.055707585
134	0x3ec55f4e	0.38549274
135	0xbe247ce6	-0.1606327
136	0x3ee44866	0.44586486
137	0xbf32a686	-0.69785345
138	0xbe6001bd	-0.21875663
139	0x3e2df8a4	0.1698938
140	0xbe7b315f	-0.24530552
141	0xbd137eca	-0.036009587
142	0xbe34758b	-0.17622964
143	0x3eded2b5	0.43520132
144	0xbe8f54cd	-0.27994385
145	0xbeb37e2e	-0.35057205
146	0x3e661de8	0.22472346
147	0x3d961337	0.07327884
148	0x3e9a5650	0.30143976
149	0x3ec4b06f	0.38415858
150	0x3e8dcce7	0.2769539
151	0x3e6fc31f	0.23414277
152	0x3eb6bdee	0.3569178
153	0x3ef2758f	0.47355315
154	0xbf2b6e1c	-0.6696489
155	0xbdd46b65	-0.103720464
156	0x3ed45827	0.41473505
157	0xbf5b2460	-0.8560238
158	0x3ec70892	0.38873726
159	0x3e781d32	0.24229887
160	0xbe2b9643	-0.16756539
161	0x3e321668	0.1739136
162	0xbe9a8fc2	-0.30187804
163	0xbee7b462	-0.4525481
164	0x3eafc3d9	0.34329107
165	0xbe5eab1c	-0.2174496
166	0xbed78153	-0.42090854
167	0xbe15afc0	-0.14617825
168	0xbef59f33	-0.47973022
169	0xbe825b4b	-0.25460276
170	0x3df15eaf	0.117856376
171	0x3f525bac	0.8217113
172	0xbc84d11c	-0.016212992
173	0xbebe72b6	-0.37196892
174	0xbeb37a8f	-0.35054442
175	0x3f18e1e5	0.5971969
176	0x3e27a614	0.16371948
177	0xbe8d1c52	-0.2756067
178	0xbe3b3f68	-0.18285906
179	0xbc788028	-0.015167274
180	0x3eab8a41	0.33503917
181	0x3c2d4d4e	0.010577513
182	0x3ed20e98	0.4102676
183	0xbe314ff7	-0.1731566
184	0x3ea8017f	0.3281364
185	0x3ea82c4e	0.32846302
186	0x3e514be2	0.20439103
187	0x3e0c0b90	0.13676286
188	0x3e1c61d5	0.15271695
189	0x3eb85cb3	0.36008224
190	0x3e17b966	0.14816818
191	0xbf067ca7	-0.52533954
192	0xbd9f3e94	-0.07775608
193	0x3e231527	0.15926038
194	0x3e4400b0	0.19140887
195	0xbe29d084	-0.16583449
196	0x3e6f24e4	0.23353916
197	0xbd286557	-0.04111227
198	0x3de4787b	0.11155792
199	0xbb79bd47	-0.0038107203
200	0xbd3afd40	-0.045651674
201	0x3ea05f3e	0.31322664
202	0x3ea8b431	0.32949975
203	0xbed234f6	-0.4105603
204	0x3e8dc671	0.2769046
205	0x3e62c074	0.22143728
206	0x3e437f70	0.19091582
207	0xbc263b46	-0.010145968
208	0xbd1cf3b3	-0.038318347
209	0x3cd52ad1	0.026021393
210	0x3f061bf8	0.52386427
211	0x3ec6a58b	0.38798174
212	0xbed7d59e	-0.42155164
213	0xbe293b2b	-0.16526477
214	0x3d91820a	0.07104881
215	0xbeea531b	-0.4576653
216	0xbed05b06	-0.40694445
217	0xbf530b66	-0.8243927
218	0x3d35a35c	0.044345245
219	0x3e862b31	0.26204827
220	0xbf02505e	-0.5090388
221	0x3e89cd76	0.26914567
222	0x3d251d5d	0.040311206
223	0x3f0cf327	0.5505852
224	0xbeae2d17	-0.34018776
225	0xbf02196a	-0.5082003
226	0xbee33f2d	-0.44384137
227	0x3e1b311d	0.15155454
228	0xbe0ddf27	-0.13854657
229	0x3f5cbdb4	0.86226964
230	0xbee099d4	-0.43867362
231	0xbe92a10b	-0.2863849
232	0xbeb84a24	-0.35994065
233	0xbe6d65f6	-0.23183426
234	0xbeab4359	-0.3344982
235	0x3ed8075c	0.42193115
236	0x3e9c89cd	0.30573884
237	0xbf00b1e1	-0.5027142
238	0x3dd10234	0.10205498
239	0x3de902d1	0.1137749
240	0xbf282ad2	-0.6569034
241	0xbea04a1e	-0.31306547
242	0xbe9c8c81	-0.30575946
243	0x3dae658f	0.085154645
244	0xbf0a20c3	-0.5395624
245	0xbeab0247	-0.33400175
246	0xbe48b6be	-0.1960096
247	0xbedaa4de	-0.4270391
248	0xbd2a34e7	-0.041554358
249	0xbf1191af	-0.5686292
250	0xbf38d614	-0.7220166
251	0x3c34818f	0.011017217
252	0x3e08745d	0.13325639
253	0x3ddbde93	0.10735812
254	0xbe0a4c0a	-0.13505569
255	0x3ebe3170	0.37147093

convs.0.lin_rel.bias f4 [32]
0	0xbf931ca8	-1.149312
1	0xbf57b496	-0.8425993
2	0xbf51c2a1	-0.81937605
3	0xbf80527e	-1.0025175
4	0xbf307f2a	-0.68944037
5	0xbf90177c	-1.1257167
6	0xbe159b68	-0.14610064
7	0xbf283b40	-0.6571541
8	0xbfaffabf	-1.3748397
9	0xbf12c09f	-0.57325166
10	0xbf03d93d	-0.51503354
11	0xbf6c3e5f	-0.9228267
12	0x3db62adb	0.08894893
13	0xbf09ddde	-0.5385417
14	0xbf4f2ad6	-0.8092474
15	0xbecac9f2	-0.39607197
16	0xbe9c7a76	-0.3056218
17	0xbee87848	-0.45404267
18	0xbf25134c	-0.6448257
19	0xbe8273fa	-0.25479108
20	0xbefa6287	-0.48903295
21	0xbf7a42ab	-0.9775798
22	0xbf782fdc	-0.9694803
23	0xbf363214	-0.71170163
24	0xbe23b7b4	-0.15988046
25	0xbeeb877f	-0.46001813
26	0xbfa9fc7b	-1.3280176
27	0xbfd43b23	-1.6580547
28	0xbf9096e2	-1.1296046
29	0xbf8b797f	-1.0896453
30	0xbf0142ea	-0.5049273
31	0xbf5fa4e0	-0.87360954

convs.0.lin_root.weight f4 [32, 20]
0	0x3f0e8cf9	0.5568386
1	0xbf66bef0	-0.901351
2	0x3f1203cf	0.5703706
3	0x3f22210b	0.6333167
4	0x3da99b45	0.082815684
5	0xbe06d1d7	-0.13165985
6	0xbf307953	-0.68935126
7	0xbee0f42c	-0.43936288
8	0xbea0c088	-0.3139689
9	0x3f193e98	0.59861135
10	0x3d7b328f	0.061327513
11	0x3f2a1ced	0.6645039
12	0xbe62d2df	-0.22150753
13	0xbe0239f5	-0.12717421
14	0xbf05d4c7	-0.522778
15	0x3d9ff829	0.07811005
16	0xbe8b7830	-0.27240133
17	0xbd0f4c13	-0.03498466
18	0xbec3ee36	-0.38267678
19	0x3ed5c34b	0.4175056
20	0x3eb1f36a	0.34756023
21	0xbf099321	-0.53740126
22	0xbea9efdb	-0.33190808
23	0xbdd7f274	-0.10544291
24	0x3f037fc2	0.5136682
25	0x3e901535	0.2814118
26	0xbedceefa	-0.43151075
27	0xbdce71ef	-0.10080325
28	0xbe587775	-0.21139319
29	0x3f42b31e	0.7605456
30	0xbe1470b3	-0.14496116
31	0xbf211a67	-0.6293091
32	0x3e8ad2d2	0.27113968
33	0xbf3903d8	-0.7227149
34	0xbf4318e9	-0.76209885
35	0x3e9d131c	0.30678642
36	0x3efacaba	0.48982793
37	0xbe6677f0	-0.2250669
38	0x3e679bdb	0.22618048
39	0xbe9a11c2	-0.30091673
40	0x3e433443	0.19062905
41	0x3e753d91	0.23949267
42	0xbf18a3af	-0.5962476
43	0xbdda0525	-0.106455125
44	0xbf1a4163	-0.6025602
45	0x3ddf89ff	0.109149925
46	0x3f2f7ec3	0.685528
47	0x3f0f5255	0.55985004
48	0x3eb155ba	0.34635717
49	0xbddc2a59	-0.10750265
50	0x3dacaf00	0.08431816
51	0xbf8a5101	-1.080597
52	0x3f316281	0.6929093
53	0xbe9c12b3	-0.30483016
54	0x3f843a6c	1.0330329
55	0x3ecb697f	0.39728925
56	0xbf38e90e	-0.72230613
57	0x3e26602e	0.16247627
58	0xbe12c283	-0.14332013
59	0xbeb144fb	-0.3462294
60	0x3edb2ab9	0.42806032
61	0x3cff3382	0.03115249
62	0x3ea8a96a	0.32941753
63	0x3e8799ac	0.2648443
64	0x3dfd9103	0.123811744
65	0xbe5349a9	-0.20633568
66	0xbe0c92a4	-0.13727814
67	0x3e8fdb9a	0.2809723
68	0x3e1f0fe1	0.15533401
69	0xbde8c58a	-0.113658026
70	0x3ccd975f	0.025096593
71	0xbe97287c	-0.29523075
72	0x3df1c1a4	0.11804512
73	0xbf185f7c	-0.595207
74	0x3e01da2e	0.12680885
75	0x3e7937b0	0.2433765
76	0xbf1b1e67	-0.60593265
77	0x3bd337dc	0.006445868
78	0x3ea3b30f	0.31972548
79	0x3efe4d86	0.4966852
80	0xbe857450	-0.26065302
81	0x3f65fe6a	0.8984133
82	0xbeec4df7	-0.46153232
83	0xbf0a3b66	-0.53996885
84	0x3f22831f	0.63481325
85	0xbf716439	-0.9429355
86	0x3eb1b1f6	0.34706086
87	0x3e6265b2	0.22109106
88	0xbf556a7e	-0.8336562
89	0xbed766cc	-0.42070615
90	0xbd91af2d	-0.0711349
91	0x3e8aa473	0.2707859
92	0x3efef15f	0.49793527
93	0xbe0b2f36	-0.13592228
94	0xbf1c7e7e	-0.6113051
95	0x3df9da57	0.12199848
96	0x3edbf349	0.4295905
97	0xbe432e5b	-0.19060652
98	0xbe51ad4e	-0.20476267
99	0xbd8da02e	-0.069153175
100	0x3e9ad1fe	0.30238336
101	0xbf4cb9c3	-0.7997095
102	0x3f0803a6	0.5313057
103	0xbee3c270	-0.44484282
104	0x3e94b672	0.29045445
105	0xbec1fb0a	-0.3788684
106	0xbefbd51e	-0.49186033
107	0x3d3ef53f	0.046620604
108	0x3eb165a2	0.34647852
109	0x3e0c7f39	0.13720407
110	0x3f169883	0.58826464
111	0x3e69a276	0.2281588
112	0x3efe5a24	0.49678147
113	0xbf6f7fc4	-0.9355433
114	0xbd8352ca	-0.06412275
115	0xbf50d198	-0.81569815
116	0xbcb37708	-0.021907344
117	0x3dc386ce	0.09547196
118	0x3cb0dc52	0.021589432
119	0x3f14661d	0.5796831
120	0xbd9eb380	-0.07749081
121	0xbecc1130	-0.39856863
122	0x3eb67f5a	0.35644037
123	0xbf8c3200	-1.0952759
124	0x3db7d04c	0.08975276
125	0x3e3e04b4	0.18556482
126	0xbe8bc622	-0.272996
127	0x3e870bb6	0.26376122
128	0xbf71d357	-0.94463104
129	0x3c9d8cb1	0.019232126
130	0x3f7d5afc	0.98966956
131	0xbe1184ce	-0.14210817
132	0x3f0718bc	0.52772117
133	0xbe3d919f	-0.18512581
134	0x3dafd134	0.08584824
135	0x3d86b989	0.06578357
136	0x3d5d8b87	0.05408814
137	0xbf5553ce	-0.83331
138	0x3dd07cd2	0.101800576
139	0x3d7cf016	0.0617524
140	0xbdec2bbf	-0.115317814
141	0xbe247b75	-0.1606272
142	0xbda9a5b9	-0.08283562
143	0x3d1bb4d9	0.038014267
144	0xbf330a7c	-0.6993787
145	0xbdee234f	-0.11627828
146	0x3e13cabc	0.14432806
147	0xbe566f41	-0.20940877
148	0xbe35d5e0	-0.17757368
149	0x3ebaba24	0.3647014
150	0xbe8e5769	-0.27801064
151	0xbe69597b	-0.2278804
152	0x3e962a95	0.29329363
153	0x3f924251	1.1426488
154	0xbf0759e4	-0.5287154
155	0xbf27aa14	-0.65493894
156	0x3ecc4c0c	0.3990177
157	0xbf0ac194	-0.54201627
158	0x3ec52a29	0.38508728
159	0x3e9653bd	0.29360762
160	0x3e41a57c	0.18910784
161	0xbf62f559	-0.8865562
162	0x3e8d8b6c	0.27645433
163	0xbf3c61ba	-0.7358662
164	0x3e0f14dd	0.13972802
165	0xbd848876	-0.0647134
166	0xbe9c57a2	-0.3053561
167	0xbebb7064	-0.36609185
168	0xbe832c09	-0.25619534
169	0xbf40df6d	-0.7534092
170	0xbeee1dbe	-0.46507066
171	0x3f6599bb	0.896877
172	0xbe8edea9	-0.2790425
173	0xbe72f849	-0.23727526
174	0xbef5ba0c	-0.47993505
175	0x3f12a557	0.5728354
176	0x3d57e54d	0.052708913
177	0xbdf82453	-0.12116303
178	0xbecea353	-0.40358981
179	0x3ef2dc6a	0.47433788
180	0x3e5a9164	0.21344525
181	0x3eaf1a5f	0.34199807
182	0xbe34cdf5	-0.17656691
183	0xbdcdd909	-0.10051162
184	0x3e9543ec	0.29153383
185	0x3c9cafc0	0.019126773
186	0x3e081bf2	0.1329191
187	0x3e0748c2	0.13211349
188	0x3e178a1d	0.1479878
189	0x3e469acd	0.1939499
190	0x3e8645a3	0.26225004
191	0xbfc50f4a	-1.5395291
192	0xbf59108f	-0.8479089
193	0x3f80007d	1.0000149
194	0x3f0d23c9	0.5513273
195	0xbf4df65c	-0.8045404
196	0xbe828b6e	-0.25497
197	0xbe3f3bb4	-0.18675119
198	0x3f2be2db	0.6714303
199	0xbd99a1a0	-0.07501531
200	0x3f212709	0.6295019
201	0x3e186a87	0.14884387
202	0x3f34cdfb	0.706268
203	0x3dbb49a8	0.09144908
204	0x3d99ca42	0.07509281
205	0xba7e5300	-0.0009701699
206	0x3f5a265f	0.852148
207	0x3e05258b	0.13002603
208	0x3f7cd7b2	0.98766625
209	0x3f54e678	0.8316417
210	0xbb5ebe01	-0.0033987763
211	0xbf23c134	-0.6396668
212	0xbf78275b	-0.9693505
213	0x3e9c3b42	0.3051396
214	0x3f852535	1.040198
215	0xbf41cdba	-0.7570454
216	0x3db5cc11	0.08876813
217	0xbebbd69e	-0.36687177
218	0x3e891182	0.2677117
219	0xbd9fae0c	-0.07796869
220	0x3eb8e347	0.361109
221	0xbf082b3d	-0.53190976
222	0x3e81a46f	0.25320765
223	0xbe47849b	-0.19484179
224	0xbf657a14	-0.896394
225	0x3eb57891	0.35443547
226	0xbf1df3b8	-0.6170001
227	0x3ef79f1b	0.48363575
228	0x3e4b50a2	0.19854978
229	0xbdcb6341	-0.099310406
230	0x3c5dcfa8	0.013538279
231	0x3e58f915	0.21188767
232	0x3d907cc8	0.0705505
233	0xbf69baf2	-0.9130088
234	0xbed2902d	-0.41125622
235	0x3fae7e11	1.3632222
236	0x3f449ad5	0.76798755
237	0xbe32b320	-0.17451143
238	0x3e8282f6	0.2549054
239	0xbe3a8f9e	-0.18218848
240	0xbf9673f2	-1.1754134
241	0x3c945e93	0.018111503
242	0x3e8153d6	0.25259274
243	0xbe4be8c7	-0.19913016
244	0xbe5ca02b	-0.21545474
245	0xbe8b94ae	-0.2726187
246	0x3e43239c	0.19056553
247	0x3cfe4ba7	0.031041933
248	0xbe0a4c2c	-0.1350562
249	0x3e8b513f	0.27210423
250	0x3ee3a4d9	0.44461706
251	0x3ebe6944	0.37189686
252	0xbf55eecf	-0.8356752
253	0xbefc050b	-0.49222597
254	0xbdd9e87c	-0.10640046
255	0x3f2c9b7c	0.6742475

convs.1.lin_rel.weight f4 [32, 32]
0	0xbeaa3083	-0.33240137
1	0x3eaf7841	0.34271434
2	0xbd3661f3	-0.044527005
3	0xbf39283c	-0.7232702
4	0xbe126774	-0.14297277
5	0x3efd2541	0.49442485
6	0xbea0a3bb	-0.31374916
7	0xbf05f440	-0.5232582
8	0xbeb3cc56	-0.35116833
9	0xbf2592d1	-0.6467715
10	0xbe9cace7	-0.30600664
11	0xbe621e0d	-0.22081776
12	0xbf327a57	-0.69717926
13	0xbee7f4d2	-0.4530397
14	0xbe23f950	-0.16013074
15	0xbf7e241d	-0.99273854
16	0xbf24c95a	-0.6436974
17	0xbf0a7e9f	-0.5409946
18	0x3ee5eb69	0.44906166
19	0xbcf03a48	-0.029324666
20	0x3e08649a	0.13319626
21	0x3ee60853	0.44928226
22	0xbebb3b4b	-0.36568674
23	0x3e00021d	0.12500806
24	0xbf0b0648	-0.5430646
25	0xbe7a0c14	-0.2441867
26	0x3e3fda18	0.1873554
27	0x3dc627f9	0.09675593
28	0xbed998f2	-0.424995
29	0xbeaaa8cb	-0.33331904
30	0xbf04aa43	-0.518223
31	0xbf089726	-0.53355634
32	0xbf1c1bef	-0.60980123
33	0xbec7d41f	-0.39029023
34	0x3eab0fd4	0.33410513
35	0xbe5ac39e	-0.21363685
36	0xbf8c7ce0	-1.0975609
37	0x3e130842	0.14358619
38	0xbde51c64	-0.11187056
39	0xbf9f4fbb	-1.2446207
40	0x3e5b048c	0.21388453
41	0x3ec1a53b	0.37821373
42	0x3d248175	0.040162522
43	0xbefa1c23	-0.48849592
44	0xbd9faf06	-0.07797055
45	0xbeb0d284	-0.3453561
46	0xbf2d5ec4	-0.67722726
47	0xbf439ab4	-0.76407933
48	0x3e69cb84	0.22831541
49	0xbf95856d	-1.1681343
50	0xbd601357	-0.054705944
51	0xbdbaba93	-0.091176175
52	0xbefb200a	-0.4904788
53	0x3f3c5b91	0.7357722
54	0xbf7807df	-0.9688701
55	0xbf0507b9	-0.5196491
56	0xbf2fd9db	-0.68691796
57	0x3b308a6d	0.0026937977
58	0xbf0e428e	-0.55570304
59	0xbed28487	-0.41116735
60	0xbf09e787	-0.5386891
61	0xbf0e7af9	-0.5565639
62	0xbe89d30f	-0.26918837
63	0xbebd92fc	-0.37026203
64	0x3d3323e5	0.043735404
65	0x3d0a4c34	0.03376408
66	0xbe3a6649	-0.18203081
67	0xbebd058c	-0.36918294
68	0xbd21a892	-0.0394674
69	0xbe6d59bd	-0.23178764
70	0xbc0e9232	-0.008701848
71	0xbe96d1c0	-0.29456902
72	0xbeb2095f	-0.34772775
73	0x3d1b7278	0.037950963
74	0xbdf25803	-0.11833193
75	0xbd6dfb58	-0.05810103
76	0xbedabe99	-0.4272354
77	0x3e56f7ec	0.20993012
78	0x3d324f73	0.0435328
79	0xbce944c4	-0.028475173
80	0xbe9539e9	-0.29145744
81	0x3d939e15	0.07207886
82	0xbefc5a6a	-0.4928773
83	0xbe66e920	-0.22549868
84	0xbe585b32	-0.21128538
85	0x3d7870c2	0.06065441
86	0xbd7f1dc0	-0.06228423
87	0x3b3dcaed	0.0028960065
88	0xbcb38bc3	-0.02191723
89	0xbdc1d642	-0.094646946
90	0x3d23aa13	0.039957117
91	0x3e2509e9	0.16117062
92	0x3eb39882	0.35077292
93	0xbdcc3366	-0.09970741
94	0x3e4d47d2	0.20046929
95	0xbd7be121	-0.061493997
96	0xbe6f3880	-0.23361397
97	0xbf202586	-0.62557256
98	0xbcc37e85	-0.02386404
99	0x3e8889ff	0.26667783
100	0xbe003287	-0.12519275
101	0x3e16d86d	0.14730997
102	0xbe820d12	-0.25400597
103	0xbf06775f	-0.52525896
104	0xbda6c56f	-0.08143126
105	0xbe9cafdc	-0.3060292
106	0x3cbbebdf	0.02293962
107	0x3d3576dd	0.04430281
108	0xbf13b606	-0.5769962
109	0xbbf13451	-0.007360973
110	0xbe9db3df	-0.30801293
111	0xbf4066a9	-0.75156647
112	0x3dbb7149	0.09152467
113	0xbf17ea5d	-0.59341985
114	0xbf256d4f	-0.64619917
115	0xbeacd9ea	-0.33760005
116	0x3e92ff90	0.28710604
117	0x3eb9dd38	0.3630159
118	0x3dfb65c6	0.12275271
119	0xbed3f576	-0.4139821
120	0xbe76fdec	-0.24120301
121	0x3de13097	0.10995596
122	0x3eb082e8	0.34474874
123	0xbecf8ddb	-0.40537915
124	0xbe9760a5	-0.2956592
125	0xbf24a725	-0.6431754
126	0xbc3c9226	-0.011509454
127	0x3f1bfdb6	0.6093401
128	0xbe39623c	-0.1810388
129	0xbeddeeee	-0.4334635
130	0xbe8882be	-0.26662248
131	0xbdd55dc2	-0.104182735
132	0xbe50d4e4	-0.20393711
133	0xbecb0dc9	-0.39658955
134	0xbec70f13	-0.38878688
135	0xbdd6d6f1	-0.104902156
136	0xbe0d4e96	-0.1379951
137	0xbf244824	-0.6417258
138	0xbe67856c	-0.2260949
139	0x3e564f11	0.20928599
140	0x3e6a6858	0.22891366
141	0xbf2387f2	-0.6387931
142	0x3eb88f15	0.36046663
143	0xbf26e04d	-0.65186006
144	0xbe85ffb8	-0.2617166
145	0xbe4065b2	-0.18788794
146	0xbe3a08a9	-0.18167366
147	0xbc64c4cd	-0.013962937
148	0x3e11ee9c	0.14251179
149	0xbe1a3280	-0.15058327
150	0x3c854519	0.0162683
151	0xbec17f7f	-0.37792584
152	0xbf59dfe9	-0.85107285
153	0x3e6f5883	0.23373608
154	0xbf095df3	-0.5365898
155	0xbe4fc989	-0.20291723
156	0xbf05cb7d	-0.52263623
157	0xbed2c336	-0.4116456
158	0xbf29c675	-0.66318446
159	0xbf05d267	-0.52274173
160	0xbe89f1f5	-0.2694241
161	0x3e983d7a	0.29734403
162	0x3f0038b0	0.500865
163	0xbe868a28	-0.2627728
164	0xbe5e77ef	-0.21725439
165	0xbea90a53	-0.3301569
166	0x3eb5c4fb	0.35501847
167	0x3e9df38b	0.3084987
168	0x3e5f3a99	0.21799697
169	0xbe11268c	-0.1417486
170	0xbec9710b	-0.39344057
171	0x3d0a6e92	0.033796854
172	0xbeaa2d60	-0.33237743
173	0x3dcf0684	0.10108665
174	0xbe3875a0	-0.1801362
175	0xbdc7d9b6	-0.09758322
176	0xbe0dd5ad	-0.13851042
177	0xbe364b8d	-0.17802258
178	0xbf096e3a	-0.5368382
179	0xbf02e4f8	-0.5113063
180	0xbe758179	-0.23975171
181	0x3dbe66ba	0.09296937
182	0xbe938b17	-0.28817055
183	0x3e347f98	0.17626798
184	0xbf0a0d80	-0.5392685
185	0x3e837c36	0.25680703
186	0xbe2810a1	-0.16412593
187	0x3e448471	0.19191147
188	0x3e5801d7	0.21094452
189	0xbdf6e64c	-0.120556444
190	0xbe82f571	-0.25577882
191	0xbd134d4f	-0.0359624
192	0xbe0b7451	-0.1361859
193	0xbeb8e295	-0.36110368
194	0xbe330f94	-0.17486411
195	0xbdce5ba4	-0.10076073
196	0x3e457e35	0.19286425
197	0xbe3dec02	-0.18547061
198	0xbe96e10e	-0.29468578
199	0xbe2953f1	-0.16535927
200	0xbe270bcf	-0.16313098
201	0xbb8f0997	-0.004365157
202	0xbe6859be	-0.22690484
203	0xbde2b963	-0.11070516
204	0x3dd6f7d6	0.1049649
205	0x3d2454d5	0.040119965
206	0xbb9b2252	-0.004734316
207	0x3c3bfb5b	0.011473502
208	0xbdef3806	-0.116806075
209	0xbe0ce951	-0.13760878
210	0xbb599d9c	-0.0033205515
211	0xbf07876c	-0.5294101
212	0xbe270bc6	-0.16313085
213	0xbe372a0d	-0.17887135
214	0x3e8055cf	0.25065467
215	0xbe4de018	-0.20105016
216	0xbea462ab	-0.32106528
217	0x3bd12a4b	0.0063832155
218	0xbee77b8a	-0.4521144
219	0x3d090815	0.033454973
220	0xbdcaea64	-0.09907988
221	0xbc0ca991	-0.00858535
222	0xbd2bf2e2	-0.041979678
223	0x3e0ec797	0.13943325
224	0xbf47a2d9	-0.7798286
225	0xbea6fcbd	-0.326147
226	0x3e683324	0.22675759
227	0x3e2b5960	0.16733313
228	0x3ea237be	0.31683153
229	0xbea438d8	-0.32074618
230	0xbd1c3ebe	-0.038145773
231	0xbe8a1d19	-0.26975325
232	0x3e01d585	0.12679107
233	0xbe0f769f	-0.14010094
234	0x3d6a63ff	0.05722427
235	0x3e3f7f74	0.18700963
236	0x3e0b3741	0.13595296
237	0x3ea0714b	0.31336436
238	0xbd10acc2	-0.035321005
239	0xbcab899a	-0.020939637
240	0x3eaa5956	0.33271283
241	0x3da352dc	0.079747885
242	0x3eb9e0f2	0.36304432
243	0x3d6acd5f	0.057324763
244	0xbef08634	-0.4697739
245	0xbebe3d2b	-0.37156042
246	0x3e752f83	0.23943906
247	0xbe737925	-0.23776682
248	0xbb0198bc	-0.0019774875
249	0x3d83e5ee	0.0644034
250	0xbe33140a	-0.17488113
251	0xbee274c3	-0.44229707
252	0xbe835b96	-0.25655812
253	0x3e6d2720	0.23159456
254	0xbea6f060	-0.32605267
255	0x3cdf6bde	0.027273115

convs.1.lin_rel.bias f4 [32]
0	0x3f468e63	0.77561015
1	0x3f0222e2	0.50834477
2	0x3d7db28b	0.06193785
3	0x3da71f34	0.081602484
4	0x3c6fb33f	0.014630138
5	0x3e4085f0	0.18801093
6	0xbee1f22e	-0.4413008
7	0x3f104152	0.5634967
8	0x3f219864	0.63123155
9	0xbe5bba3b	-0.2145776
10	0x3e2d0b65	0.16898878
11	0x3ec8684a	0.39142066
12	0x3f1a5734	0.6028931
13	0x3f195beb	0.5990588
14	0xbe8cbbd6	-0.27487057
15	0xbd57b453	-0.052662205
16	0x3f894de0	1.072689
17	0xbd7b0b21	-0.06128991
18	0x3f317ff8	0.6933589
19	0xbf089908	-0.5335851
20	0x3d1f5b1b	0.038905244
21	0x3efe59f9	0.4967802
22	0x3e9b252a	0.3030179
23	0x3f5d2300	0.8638153
24	0x3f844b83	1.0335544
25	0x3d65966a	0.05605165
26	0xbf201410	-0.6253061
27	0xbe067719	-0.1313137
28	0xbdc0e45c	-0.09418556
29	0x3f566146	0.8374218
30	0x3e2aa0b6	0.16662869
31	0x3f05b74a	0.522328

convs.1.lin_root.weight f4 [32, 32]
0	0xbc929b77	-0.017896397
1	0x3dfe7004	0.12423709
2	0x3e29103f	0.16510104
3	0x3d3cd464	0.04610099
4	0xbf1637f2	-0.58679116
5	0xbf1358a3	-0.57557124
6	0xbe3fdf3d	-0.18737502
7	0xbe338798	-0.17532194
8	0xbf5aae96	-0.85422647
9	0xbdc27f28	-0.094969094
10	0x3e7cca07	0.24686442
11	0xbf6a845b	-0.9160821
12	0x3e4235c3	0.18965821
13	0xbf5b5edd	-0.85691625
14	0xbf0eb6ee	-0.5574788
15	0x3f1ad7fc	0.60485816
16	0xbd9e4520	-0.07728028
17	0x3e93b331	0.2884765
18	0x3cb25072	0.021766875
19	0x3e0115d1	0.12605979
20	0x3e382159	0.17981471
21	0xbde70751	-0.11280692
22	0x3eac3f3e	0.33642
23	0xbf358555	-0.70906574
24	0xbf4bf3b1	-0.7966872
25	0x3f0d37f1	0.55163485
26	0xbec768d2	-0.3894716
27	0xbe4ae7fd	-0.19815059
28	0xbeb05104	-0.3443681
29	0xbfaf95ec	-1.3717628
30	0xbf93369c	-1.150104
31	0xbf263dfb	-0.64938325
32	0x3f6775cd	0.90414125
33	0x3e85c471	0.26126435
34	0xbe818267	-0.25294802
35	0xbeafa180	-0.34302902
36	0xbe8508e7	-0.25983354
37	0xbe5370b4	-0.20648462
38	0x3e51b6b0	0.20479846
39	0xbecaacc3	-0.39584932
40	0x3e0bb616	0.13643679
41	0x3bf4ca9f	0.0074704434
42	0x3d95bd29	0.0731147
43	0xbf9784d3	-1.183741
44	0x3f40d7b7	0.75329155
45	0x3e12ee15	0.14348634
46	0xbd524089	-0.051331077
47	0xbd1ecc04	-0.038768783
48	0x3e1daceb	0.15397994
49	0xbeae5e6d	-0.34056416
50	0x3ee84bb8	0.4537027
51	0x3f32fd95	0.69918185
52	0x3e37510e	0.17902014
53	0x3d6479da	0.05578027
54	0x3dbe14d1	0.09281314
55	0xbf3067ed	-0.6890858
56	0xbf4369a8	-0.76333094
57	0x3e639519	0.22224845
58	0xbee5df4c	-0.44896924
59	0xbf461d4a	-0.7738844
60	0xbf19b94e	-0.6004838
61	0x3e9a2179	0.30103663
62	0x3e6b1f0d	0.22961064
63	0xbe5fea23	-0.2186666
64	0x3ecd61e6	0.40113753
65	0xbde42ded	-0.11141572
66	0xbe01ac7e	-0.12663457
67	0xbe4ca38c	-0.19984263
68	0xbee3f825	-0.44525257
69	0x3ed36422	0.41287333
70	0x3cc5d6b9	0.02415024
71	0x3d54c601	0.051946644
72	0xbe19c51e	-0.150166
73	0x3eaf2342	0.34206587
74	0x3d52f9e6	0.051507853
75	0xbeff750e	-0.49893993
76	0xbedc7aba	-0.43062383
77	0xbe224d4e	-0.15849802
78	0xbe3fd30f	-0.18732856
79	0xbe8deef5	-0.27721372
80	0xbf365536	-0.7122377
81	0xbe7f0dc0	-0.24907589
82	0xbd907f34	-0.07055512
83	0xbed77625	-0.42082325
84	0xbf12e82f	-0.57385534
85	0x3dac6cc1	0.08419181
86	0xbdfc7d63	-0.12328603
87	0xbad93b1a	-0.00165734
88	0xbee6b6a4	-0.4506122
89	0xbf0107e3	-0.5040266
90	0xbe020d40	-0.12700367
91	0xbdde4bff	-0.10854339
92	0xbe580213	-0.21094541
93	0xbe72a183	-0.23694424
94	0xbec02d26	-0.37534446
95	0xbe2ec5af	-0.17067598
96	0xbf1955f7	-0.59896797
97	0xbedce413	-0.43142757
98	0xbe632599	-0.22182311
99	0x3da60815	0.0810701
100	0xbe8869bd	-0.26643172
101	0xbfa1b496	-1.2633235
102	0x3b61fea5	0.0034484055
103	0xbe4b1f2f	-0.19836114
104	0x3ef56d13	0.4793478
105	0xbf429341	-0.7600594
106	0xbe8c23a9	-0.27370957
107	0x3e3f2ce2	0.18669465
108	0x3e89b20f	0.2689366
109	0xbe0fc51d	-0.14040036
110	0x3cfe2c3d	0.031026954
111	0xbe7d035a	-0.2470831
112	0x3e360f19	0.17779197
113	0xbf25365b	-0.64536065
114	0xbe8d4ffb	-0.27600083
115	0x3e097753	0.13424425
116	0x3e326aa0	0.17423487
117	0x3ece06af	0.40239474
118	0xbdfb99fb	-0.12285229
119	0x3ddd5042	0.108063236
120	0xbe1eb48c	-0.1549856
121	0xbd9d9fd8	-0.076965034
122	0x3edf80cd	0.43652955
123	0xbd6bd0b0	-0.057572067
124	0xbf0f3dc9	-0.5595365
125	0xbf07c322	-0.53032124
126	0x3e297e41	0.16552068
127	0x3f13d8e8	0.5775285
128	0xbf30aa1d	-0.6900957
129	0x3dcdaf38	0.10043186
130	0xbeb5f878	-0.3554113
131	0x3e8bb9a5	0.27290073
132	0xbeac0a17	-0.33601448
133	0x3d91fe27	0.07128554
134	0x3e4c5c36	0.1995705
135	0x3e87c219	0.26515272
136	0x3d8c7cbc	0.06859729
137	0xbec7dfe9	-0.39038017
138	0x3d80c28b	0.06287106
139	0x3f8bd823	1.0925335
140	0xbdc07166	-0.09396629
141	0xbe321f4c	-0.17394751
142	0xbb9ce343	-0.004787834
143	0xbeb27073	-0.34851417
144	0xbf348c75	-0.7052682
145	0xbeb4f4c1	-0.35342982
146	0x3e710952	0.23538712
147	0x3e3589af	0.17728303
148	0xbe362851	-0.17788817
149	0xbf1056b7	-0.56382316
150	0xbeb4be2f	-0.3530135
151	0xbe5b872f	-0.21438287
152	0xbf8112aa	-1.0083821
153	0xbe5d52cb	-0.21613614
154	0x3c0b17cb	0.008489559
155	0xbeae73fc	-0.34072864
156	0xbea8fe22	-0.33006388
157	0xbac54866	-0.0015051484
158	0xbde9da4d	-0.11418591
159	0xbdd6139b	-0.10452958
160	0xbea57255	-0.3231379
161	0x3c3e3d99	0.011611366
162	0xbeeebeb6	-0.46629876
163	0xbb5aa0e9	-0.003336007
164	0xbf205144	-0.62624
165	0xbf147dd9	-0.5800453
166	0x3c07f618	0.008298419
167	0x3e918081	0.28418353
168	0x3ea49e13	0.3215185
169	0xbdd52798	-0.104079425
170	0xbec067d0	-0.37579203
171	0xbdcf2eda	-0.10116358
172	0x3ee80c22	0.45321757
173	0x3ef74788	0.48296762
174	0x3db42c13	0.08797469
175	0x3eea23e2	0.457305
176	0xbd9ca062	-0.07647778
177	0xbf1b4157	-0.60646576
178	0xbee4da20	-0.44697666
179	0xbead6d25	-0.33872333
180	0xbedbccc5	-0.42929664
181	0xbce20ca3	-0.027593916
182	0x3d01a417	0.03165063
183	0xbf1eb278	-0.6199107
184	0xbdfd72ce	-0.12375413
185	0x3e9d5c6e	0.3073458
186	0xbd0f68e4	-0.03501214
187	0xbf227f2f	-0.63475317
188	0x3f14a323	0.58061427
189	0x3dd23b93	0.10265269
190	0xbf0138be	-0.50477207
191	0xbe9a5c31	-0.3014846
192	0xbece3023	-0.402711
193	0xbe410940	-0.18851185
194	0xbf0a239a	-0.53960574
195	0xbeb651b0	-0.35609198
196	0xbe9066cc	-0.28203428
197	0xbdc45398	-0.09586257
198	0xbecb1865	-0.3966705
199	0xbe6d0075	-0.23144706
200	0x3c56e99a	0.013117218
201	0xbebf1573	-0.37321052
202	0xbe990eee	-0.29894203
203	0x3e6071dd	0.21918435
204	0x3d2336e8	0.039847285
205	0x3d9ae475	0.07563106
206	0xbee59418	-0.4483955
207	0xbe7ca9cb	-0.24674146
208	0xbe395782	-0.18099788
209	0xbee26e20	-0.44224644
210	0xbe6270d0	-0.22113347
211	0xbe30cd22	-0.17265752
212	0xbf09d609	-0.53842217
213	0x3ce593d1	0.028024586
214	0xbefdce7f	-0.49571607
215	0xbea6e73c	-0.32598293
216	0xbe69b9b3	-0.22824745
217	0x3e2eda24	0.17075402
218	0xbebd6e25	-0.36998096
219	0xbe90bcdd	-0.2826909
220	0xbe0ee803	-0.13955693
221	0xbe22a678	-0.15883815
222	0xbd40b095	-0.0470434
223	0xbec05b7e	-0.37569803
224	0xbf25d947	-0.64784664
225	0xbe08c611	-0.13356806
226	0x3ea3c9a2	0.3198977
227	0x3e1ff7de	0.15621898
228	0x3ea7097a	0.32624418
229	0x3ea59cd7	0.32346222
230	0xbd980b78	-0.074240625
231	0xbe9b7f71	-0.30370668
232	0xbd8c1a90	-0.06841004
233	0xbf0156b5	-0.5052293
234	0xbef4f439	-0.47842577
235	0x3ee59558	0.44840503
236	0x3ee978f7	0.456001
237	0x3e6d6776	0.23183998
238	0xbd05b8e7	-0.03264704
239	0x3ea9919b	0.331189
240	0x3f0637f3	0.5242912
241	0x3e1cb8b6	0.15304837
242	0x3ee5a07a	0.44848996
243	0xbdc1e2fc	-0.09467122
244	0xbf0723e2	-0.5278913
245	0xbe948c93	-0.290135
246	0xbe7417de	-0.2383723
247	0xbdf96560	-0.12177539
248	0x3c2b419d	0.010452655
249	0x3e99e2c7	0.3005583
250	0x3df073ac	0.11740813
251	0xbf30837b	-0.68950623
252	0xbee6af13	-0.45055446
253	0xbd8e8e1d	-0.069607
254	0x3ed358e2	0.4127875
255	0xbd336c6f	-0.043804582

post_layers.0.weight f4 [1, 32]
0	0xbe50b883	-0.20382886
1	0x3e4ba572	0.19887331
2	0xbdf7a2cd	-0.12091599
3	0x3de55f81	0.111998565
4	0xbe8da3d4	-0.27664053
5	0x3e057c45	0.13035686
6	0x3c994ebe	0.018714305
7	0xbda2f4a4	-0.07956818
8	0xbd89b061	-0.06723095
9	0x3d5f9751	0.054587666
10	0x3e051933	0.12997894
11	0xbe154dda	-0.1458048
12	0xbd5d746e	-0.054066114
13	0x3e59dd60	0.21275854
14	0x3e1fe5f6	0.15615067
15	0x3e43d92f	0.19125818
16	0xbdbb5599	-0.09147186
17	0xbd8d9315	-0.06912819
18	0x3db9a781	0.09065152
19	0x3dfda2fc	0.123846024
20	0xbddd9491	-0.108193524
21	0xbe37a677	-0.17934595
22	0xbd58eeb8	-0.052962035
23	0x3dd18049	0.102295466
24	0xbdc6a477	-0.09699338
25	0xbe3111b8	-0.17291915
26	0x3dee3bad	0.11632476
27	0xbe4c97db	-0.19979803
28	0xbe4595e4	-0.1929546
29	0x3e1045e7	0.14089166
30	0x3db7a71a	0.08967419
31	0xbde769c4	-0.1129947
