models/CS/efg/exp_v3/no_subgraph_sampling/lr=0.01_hidden_dim=256/HigherOrderGNN_20230830_09h40m/state_dict_epoch6.pt (torch, 561919 bytes, 7 tensors)

convs.0.lin_rel.weight f4 [256, 15]
0.13376516 -0.052958924 0.026792364 -0.06988344 0.11001928 -0.105868325 0.1399092 0.11224582
-0.08980829 -0.04268295 0.14992808 -0.4096277 -0.17613529 -0.19265881 -0.064533465 0.038003717
-0.051647626 0.07683791 -0.3736076 -0.06643183 0.07939249 -0.03058516 -0.8062976 -0.057791118
-0.18944308 0.39415136 -0.05461608 -0.07487876 0.06975412 -0.58940035 0.11783471 0.056315184
0.07330283 0.013834166 0.07204419 0.061099973 0.045474246 0.32260406 -0.3320782 0.0015890873
0.13235967 -0.16608009 -0.025169507 0.021189934 -0.20603834 0.27938375 0.28993928 0.09253857
-0.026107984 -0.15942824 -0.048826236 -0.0018681206 -0.053735897 -0.11185854 0.098669454 0.22132832
-0.076032974 0.03443137 -0.09386097 -0.090911634 0.08005771 0.3234358 0.1552148 -0.027282342
0.09405363 0.03949357 0.10350778 0.28854513 -0.24855046 -0.21026821 0.0045624427 -0.101657175
0.009995785 -0.03914806 -0.413278 0.19681503 0.08555185 0.20970768 -0.19970338 0.049175095
0.06560376 0.2962578 0.13853227 -0.01270331 0.17170358 -0.042431697 -0.055833627 -0.22101536
-0.08406225 -0.23986834 0.13878193 -0.014972536 0.0034922156 -0.035736207 -0.22012942 -0.041042954
0.048548218 -0.005889514 -0.085509084 -0.06488468 0.20089893 -0.10374201 -0.098129824 0.20800793
-0.22775689 0.26695156 0.19835111 0.22579025 -0.008312485 0.18430676 0.12579814 0.13530466
0.08241534 -0.08944795 -0.07034102 0.21858747 -0.1554201 -0.03381277 -0.019201837 -0.24003847
0.1220483 -0.020664409 0.047555942 -0.044162054 0.080197565 0.050191097 0.1399138 -0.034473736
0.003786635 0.046718456 0.21383844 0.020705316 0.02890063 -0.102821454 -0.30136713 0.28114372
0.21422623 0.2587315 0.020180456 0.1227206 0.1296638 0.13987364 -0.03986589 -0.29389736
0.23239028 0.06243446 0.061805706 0.27894965 -0.14062367 -0.2213003 0.24744187 0.15969113
0.21412905 -0.036047388 -0.1245099 -0.20616654 0.20866978 0.09376902 -0.22937186 0.079670966
0.028856836 -0.10527109 -0.11950139 -0.050504897 -0.22001119 0.31648254 0.31409618 0.39241847
-0.16847384 0.0689214 0.14336476 0.13355336 0.009922617 -0.2646547 0.05871676 0.14244068
0.011767522 0.21094026 -0.64657694 0.089647844 0.13780987 0.038074605 0.05552711 0.052944724
0.10728181 -0.047575098 0.06946069 0.14392848 -0.108948946 -0.036244005 0.13041541 -0.26393592
-0.17334208 0.035438348 -0.26325712 -0.010584607 0.15171316 0.017644625 0.069328964 0.018723609
-0.064865574 0.07753856 -0.11665208 -0.025926782 0.09796376 0.2678722 0.16681553 -0.05956956
0.048491012 -0.2041088 0.4008664 0.17510661 0.18005687 -0.06564706 0.18558352 0.19544451
0.23739628 -0.06670076 -0.04579147 -0.08606246 0.018235335 -0.05915813 0.22117059 0.02498129
0.044649772 0.45777467 0.06963944 0.16992335 -0.06283714 -0.05495834 -0.034979545 0.17063826
0.1303849 -0.35498554 -0.008469866 0.0802115 0.00031834646 -0.010181486 0.10793437 -0.2795859
0.19007942 0.29269174 0.10095418 -0.06277702 0.051062793 0.10864905 0.12622076 0.16391797
-0.27264833 -0.1112821 0.076720364 -0.24887542 0.10057981 0.18889946 -0.01504546 0.2055046
00000000: bcf9 083e 75eb 58bd a97b db3c 0d1f 8fbd
00000010: ca51 e13d 7ed1 d8bd 5b44 0f3e 23e1 e53d
00000020: 69ed b7bd 51d4 2ebd bf86 193e b9ba d1be
00000030: cf5c 34be 5a48 45be 1f2a 84bd c9a9 1b3d
00000040: 768c 53bd 325d 9d3d 7f49 bfbe 690d 88bd
00000050: 8898 a23d bb8d fabc 8569 4ebf 61b6 6cbd
00000060: 5efd 41be 35ce c93e 1cb5 5fbd 095a 99bd
00000070: 40db 8e3d f1e2 16bf 5353 f13d c0aa 663d
00000080: cb1f 963d b3a8 623c e78b 933d f743 7a3d
00000090: 3443 3a3d 5c2c a53e 2706 aabe ec48 d03a
000000a0: 4b89 073e e610 2abe 4830 cebc 8396 ad3c
000000b0: b7fb 52be 630b 8f3e ec72 943e dd84 bd3d
000000c0: 69e0 d5bc 2841 23be 05fe 47bd badb f4ba
000000d0: 2c1a 5cbd 1716 e5bd 3613 ca3d e4a3 623e
000000e0: 2db7 9bbd e907 0d3d 2e3a c0bd e12f babd
000000f0: 4cf5 a33d 6199 a53e a1f0 1e3e 387f dfbc
00000100: 319f c03d 02c4 213d e3fb d33d 30bc 933e
00000110: 0384 7ebe 8d50 57be 8b80 953b a331 d0bd
00000120: 5cc5 233c b759 20bd 2d99 d3be e189 493e
00000130: cf35 af3d 9cbd 563e 0b7f 4cbe d36b 493d
00000140: 445b 863d 1aaf 973e 67db 0d3e 8b21 50bc
00000150: 10d3 2f3e dccc 2dbd cdb1 64bd da51 62be
00000160: d428 acbd 0ca0 75be da1c 0e3e 5e4f 75bc
00000170: a8dd 643b 2160 12bd 9b69 61be a81c 28bd
00000180: 7fda 463d d3fc c0bb 631f afbd 42e2 84bd
00000190: 73b8 4d3e b176 d4bd 4af8 c8bd 0800 553e
000001a0: 1a39 69be e0ad 883e 8e1c 4b3e 8f35 673e
000001b0: 1731 08bc e9ba 3c3e 3ad1 003e 4e8d 0a3e
000001c0: 60c9 a83d 7d30 b7bd f40e 90bd 65d5 5f3e
000001d0: 7226 1fbe 427f 0abd 2c4d 9dbc a5cc 75be
000001e0: 76f4 f93d 6848 a9bc 05ca 423d 45e3 34bd
000001f0: 9f3e a43d 2e95 4d3d 9045 0f3e 5534 0dbd
00000200: 3129 783b da5b 3f3d 77f8 5a3e 329e a93c
00000210: 04c1 ec3c 0e94 d2bd cb4c 9abe 12f2 8f3e
00000220: 1f5e 5b3e 7578 843e 7c51 a53c f054 fb3d
00000230: 96c6 043e 093b 0f3e 6a4a 23bd b779 96be
00000240: b8f7 6d3e 47bb 7f3d fb27 7d3d 7dd2 8e3e
00000250: a7ff 0fbe 8c9c 62be 6761 7d3e 1286 233e
00000260: a544 5b3e 6da6 13bd 0cff febd 521d 53be
00000270: 88ad 553e f909 c03d 75e0 6abe 882a a33d
00000280: 2c65 ec3c 5f98 d7bd 25bd f4bd 39de 4ebd
00000290: 9d4a 61be 000a a23e 37d1 a03e 13eb c83e
000002a0: 6884 2cbe aa26 8d3d 36ce 123e 36c2 083e
000002b0: 7992 223c d280 87be fc80 703d f8db 113e
000002c0: 91cc 403c b900 583e 1186 25bf 4a99 b73d
000002d0: 081e 0d3e 1ef4 1b3d 6570 633d 91dc 583d
000002e0: 91b6 db3d 1bde 42bd 6841 8e3d fd61 133e
000002f0: a020 dfbd 9874 14bd 9e8b 053e 9c22 87be
00000300: 9680 31be cd27 113d a3c9 86be 0f6b 2dbc
00000310: b25a 1b3e 768b 903c 58fc 8d3d 4162 993c
00000320: 3ed8 84bd 89cc 9e3d 49e7 eebd 6764 d4bc
00000330: 39a1 c83d 8c26 893e b1d1 2a3e 36ff 73bd
00000340: 839e 463d e601 51be 5c3e cd3e 264f 333e
00000350: d460 383e f771 86bd 9b09 3e3e 9b22 483e
00000360: 0318 733e 689a 88bd d68f 3bbd 8441 b0bd
00000370: 4562 953c cc4f 72bd 8b7a 623e 90a5 cc3c
00000380: aee2 363d 7161 ea3e 1f9f 8e3d 6300 2e3e
00000390: c2b0 80bd ff1b 61bd b646 0fbd ccbb 2e3e
000003a0: 9f83 053e aac0 b5be 31c5 0abc ed45 a43d
000003b0: bde7 a639 3fd0 26bc b20c dd3d e225 8fbe
000003c0: 2ea4 423e b1db 953e 11c1 ce3d 3d91 80bd
000003d0: 3827 513d 6583 de3d 0440 013e 1dda 273e
000003e0: 9098 8bbe dfe7 e3bd 911f 9d3d 33d9 7ebe
000003f0: cafc cd3d dc6e 413e 3c81 76bc cc6f 523e

convs.0.lin_rel.bias f4 [256]
-1.3894585 -2.2306368 -1.276746 -1.8641176 -1.6663836 -1.6890604 -0.9564086 -1.6467671
-1.4112936 -1.1562684 -1.702844 -1.4085206 -0.93786216 -1.08788 -1.1747825 -1.661736
-1.1604178 -1.403824 -1.0193393 -1.3189831 -1.341263 -1.1785444 -1.2013532 -1.469742
-1.187186 -0.74204326 -1.7808665 -1.6318108 -1.3262292 -0.789074 -1.313694 -0.7864276
-0.9634407 -1.799847 -0.8712787 -1.5560507 -1.6351627 -1.1010411 -1.5767108 0.32979524
-1.1625825 -1.1083946 -1.421447 -1.6748319 -1.6234236 -1.8206179 -1.2663764 -1.4401116
-1.605409 -1.0006322 -1.2141503 -1.5739037 -1.5006468 -1.4006737 -1.3108904 -0.98170966
-0.8543357 -1.263868 -1.9257282 -1.1770518 -1.343311 -0.99466723 -1.7067552 -1.2756401
-1.6855832 -1.3570433 -1.4463664 -1.5430188 -1.2886893 -1.4306453 -2.287099 -1.2833134
-0.18454918 -1.4276787 -1.497925 -1.3896322 -1.6054355 -1.5021051 -1.4615116 -1.1548239
-1.3196056 -1.7716023 -0.92080754 -0.9553132 -1.0205927 -1.2373358 -1.6759092 -1.9726129
-1.599337 -1.5110254 -1.0504109 -0.87829787 -0.9047834 -1.2181519 -1.0304378 -1.3601263
-1.3998297 -1.8307712 -1.7780501 -1.3446122 -1.2176868 -1.5300828 -1.5871247 -1.2322407
-1.7389516 -1.2167729 -1.4074631 -1.0568373 -1.3753091 -1.3454789 -1.6176162 -1.9131612
-1.3618342 -1.0818322 -0.9876602 -0.024963606 -0.9734598 -1.4333154 -1.6310263 -1.3823997
-1.0083987 -1.4258828 -1.490048 -1.5997137 -1.2838511 -1.4411873 -1.4929507 -0.7635718
-0.94014674 -1.4525908 -1.9892197 -1.0367323 -1.3639231 -0.9768856 -1.2360793 -1.2333518
-0.9462564 -1.2615906 -1.8029655 -1.1730978 -1.2885827 -1.0403582 -1.3664892 -1.3514698
-1.0519615 -1.2139279 -1.2899616 -1.4950477 -1.8053128 -1.4241626 -1.4500155 -1.5887083
-1.3739426 -1.2731186 -1.3816909 -1.8562608 -1.3193773 -1.378641 -1.6608014 -1.1275259
-1.2677555 -1.0937964 -1.491396 -1.0441461 -1.0661143 -1.3547529 -1.4817681 -1.4777563
-0.8226902 -1.4641157 -1.405552 -1.3347167 -1.2810246 -1.5212948 -1.2902668 -1.1967763
-1.3118634 -1.4287503 -1.765096 -1.06591 -1.5044992 -1.0166651 -1.3518683 -1.6196847
-1.5665914 -1.7881902 -1.1351209 -1.8381112 -1.4349592 -1.4033017 -1.3688103 -2.36219
-1.1723729 -1.6093317 -1.2426304 -1.7823827 -1.254688 -2.0352685 -1.4741958 -1.1526146
-1.0024861 -1.6017597 -1.2665609 -1.8410277 -1.0904248 -1.2524639 -1.7074766 -1.0087129
-1.1227245 -1.3272296 -1.060419 -0.64476323 -1.1614587 -1.3456848 -1.0717132 -2.0316632
-1.3591067 -1.1638368 -1.5080296 -1.4341172 -1.217605 -1.5488718 -1.4991442 -0.43389255
-1.7001561 -1.303641 -1.5232779 -1.3686758 -1.5165701 -1.4055891 -1.649068 -0.9028468
-1.3416706 -1.6706879 -1.2262887 -1.8012096 -1.6346383 -1.3594744 -1.5176661 -1.3951756
-1.519241 -1.3332002 -1.2777132 -1.1440953 -1.7708366 -1.5926337 -1.8249706 -1.2456015
-1.5167912 -1.612339 -1.2913679 -1.7790266 -0.98583835 -1.2808752 -1.5816357 -1.6628371
00000000: c7d9 b1bf c1c2 0ec0 6a6c a3bf 689b eebf
00000010: 0f4c d5bf 2233 d8bf 32d7 74bf 44c9 d2bf
00000020: 45a5 b4bf 9a00 94bf cbf6 d9bf 674a b4bf
00000030: bc17 70bf a73f 8bbf 465f 96bf c4b3 d4bf
00000040: 9288 94bf 81b0 b3bf b679 82bf 70d4 a8bf
00000050: 82ae abbf 8bda 96bf f1c5 99bf 8120 bcbf
00000060: b6f5 97bf 8cf6 3dbf 6ff3 e3bf 2ddf d0bf
00000070: e1c1 a9bf c100 4abf 2027 a8bf 5253 49bf
00000080: 0da4 76bf 6361 e6bf 1f0c 5fbf ab2c c7bf
00000090: 034d d1bf eaee 8cbf a9d1 c9bf ecda a83e
000000a0: 81cf 94bf e0df 8dbf faf1 b5bf e460 d6bf
000000b0: 58cc cfbf 020a e9bf 9f18 a2bf 9455 b8bf
000000c0: 0b7e cdbf b714 80bf 4769 9bbf ad75 c9bf
000000d0: 3215 c0bf 4749 b3bf 42cb a7bf 5351 7bbf
000000e0: bfb5 5abf 6dc6 a1bf 437e f6bf a2a9 96bf
000000f0: 9df1 abbf 83a2 7ebf f476 dabf 2d48 a3bf
00000100: 31c1 d7bf 98b3 adbf 8922 b9bf a481 c5bf
00000110: c5f3 a4bf 631f b7bf d45f 12c0 9d43 a4bf
00000120: 76fa 3cbe 2dbe b6bf 02bc bfbf 78df b1bf
00000130: e97e cdbf fb44 c0bf d012 bbbf 45d1 93bf
00000140: d6e8 a8bf ddc3 e2bf 0bba 6bbf 688f 74bf
00000150: c8a2 82bf 0561 9ebf 3184 d6bf 947e fcbf
00000160: 13b7 ccbf 4869 c1bf dd73 86bf 21d8 60bf
00000170: e39f 67bf 67ec 9bbf 63e5 83bf 9e18 aebf
00000180: 9f2d b3bf b656 eabf 2597 e3bf 411c acbf
00000190: 29dd 9bbf c1d9 c3bf e726 cbbf 10ba 9dbf
000001a0: f795 debf 37bf 9bbf c027 b4bf 7246 87bf
000001b0: 210a b0bf a738 acbf 0c0e cfbf 77e2 f4bf
000001c0: 9550 aebf 7a79 8abf 4dd7 7cbf 7a80 ccbc
000001d0: a934 79bf e176 b7bf 78c5 d0bf 79f2 b0bf
000001e0: 3513 81bf 5483 b6bf e5b9 bebf 6bc3 ccbf
000001f0: 3c55 a4bf d378 b8bf 0219 bfbf 7179 43bf
00000200: 75ad 70bf 7fee b9bf c09e febf a5b3 84bf
00000210: 0895 aebf 2d15 7abf d937 9ebf 79de 9dbf
00000220: dc3d 72bf cd7b a1bf 93c7 e6bf 1228 96bf
00000230: 47f0 a4bf 752a 85bf 1ee9 aebf f6fc acbf
00000240: ada6 86bf fd61 9bbf 761d a5bf b95d bfbf
00000250: 7d14 e7bf f64a b6bf 1c9a b9bf cb5a cbbf
00000260: 5add afbf 8df5 a2bf 3fdb b0bf f499 edbf
00000270: 5be1 a8bf 4f77 b0bf 2495 d4bf c552 90bf
00000280: d045 a2bf 8501 8cbf 10e6 bebf 94a6 85bf
00000290: 6f76 88bf 8b68 adbf 94aa bdbf 1e27 bdbf
000002a0: d39b 52bf 2568 bbbf 21e9 b3bf ffd7 aabf
000002b0: 9df8 a3bf cab9 c2bf 7627 a5bf f72f 99bf
000002c0: 24eb a7bf 4ae1 b6bf aaee e1bf bd6f 88bf
000002d0: 6e93 c0bf 1522 82bf 050a adbf d451 cfbf
000002e0: 1186 c8bf 6be3 e4bf a44b 91bf 3a47 ebbf
000002f0: beac b7bf 649f b3bf 2d35 afbf 1f2e 17c0
00000300: 5110 96bf 95fe cdbf 830e 9fbf 1e25 e4bf
00000310: 9e99 a0bf d741 02c0 73b2 bcbf e088 93bf
00000320: 7751 80bf 7606 cdbf ab1e a2bf cca6 ebbf
00000330: 0a93 8bbf bd50 a0bf 988e dabf 811d 81bf
00000340: 70b5 8fbf a9e2 a9bf cfbb 87bf 340f 25bf
00000350: aeaa 94bf 663f acbf e62d 89bf c506 02c0
00000360: 35f7 adbf 9bf8 94bf 1d07 c1bf 2791 b7bf
00000370: 7bda 9bbf 6e41 c6bf f5e3 bfbf 2a27 debe
00000380: b79e d9bf b5dd a6bf c5fa c2bf c530 afbf
00000390: f81e c2bf 58ea b3bf a914 d3bf f820 67bf
000003a0: ddbb abbf 1ad9 d5bf 07f7 9cbf 098e e6bf
000003b0: d43b d1bf 4203 aebf e242 c2bf 1d95 b2bf
000003c0: 7d76 c2bf 4ea6 aabf 1b8c a3bf b771 92bf
000003d0: c6aa e2bf 6cdb cbbf a398 e9bf df6f 9fbf
000003e0: 3726 c2bf 2061 cebf 8b4b a5bf 25b7 e3bf
000003f0: e75f 7cbf b8f3 a3bf 0a73 cabf d9d7 d4bf

convs.0.lin_root.weight f4 [256, 15]
-0.06556378 -0.026759824 -0.097987525 -0.04192954 -0.013916335 -0.044309575 0.2882396 -0.21383175
-0.07464245 0.015991002 -0.14106816 -0.25777268 -0.31107137 0.10764337 0.23536405 0.13001087
0.023980193 0.06183626 -0.13522288 -0.03992471 0.053225257 0.42813262 -0.8836942 -0.08832996
0.2561875 -0.18537576 -0.3118051 0.084509544 -0.015306754 -0.14763471 0.2528177 0.04472488
0.012597824 0.072709434 0.008384024 0.12932964 0.17961913 -0.16172187 0.0006228345 -0.05604004
-0.12678763 -0.05219125 -0.05633946 -0.047802582 0.07647834 -0.00880022 -0.021610595 0.26183337
-0.0064201076 -0.24945793 -0.13520749 0.26392198 -0.18624432 -0.07482378 -0.14291091 -0.29409227
-0.0259861 0.12679885 -0.039958227 0.050797317 0.47936583 0.45181352 0.27259704 -0.16002733
0.024818296 0.33509052 0.511961 -0.051590364 -0.14595293 0.10104659 -0.16201964 -0.06251885
-0.1094271 0.09783335 -0.043382943 0.030029835 0.10280476 -0.06682319 0.06574943 0.121289
-0.043776486 0.13767917 -0.12883662 -0.14376996 -0.011725648 -0.3733158 -0.067008846 0.25730836
0.14916594 -0.16492903 0.05657739 -0.07098837 -0.07218206 0.044173166 -0.14408544 -0.07343917
0.1195992 -0.024655644 -0.02702718 0.03776369 -0.043610085 -0.1332332 -0.0735408 -0.003878638
0.10980034 -0.023056777 -0.016788105 0.008364267 0.06524838 -0.026400028 0.056515098 0.25403115
-0.04693456 -0.15304454 0.12748936 0.1146661 -0.09964795 0.10617047 -0.05621748 0.017375851
-0.0586688 0.0247709 0.07576822 -0.09553959 0.00035787997 -0.031194903 -0.041150615 -0.040532805
-0.0046122572 0.07535619 -0.2641721 -0.14440998 -0.016962217 -0.091874845 -0.056189742 0.18795551
0.10697487 0.07967688 0.05727824 -0.23058785 -0.03415635 0.28032076 0.14848173 -0.31654224
-0.16750072 -0.10609898 -0.41771746 -0.14190194 0.23610036 0.06598338 0.04748674 -0.036298
0.12635334 0.050120004 -0.18075508 -0.26004943 0.16271627 -0.10342105 -0.083581716 0.0034090213
-0.14931804 -0.05086214 -0.056944128 0.12111485 0.04700635 0.020508721 0.12511034 -0.07665437
0.019681673 0.012124322 0.019722195 0.05134916 0.17048565 -0.23474023 -0.07291731 -0.047656566
0.011686464 -0.17998238 0.6911679 -0.28309095 0.17152812 0.018240029 -0.048536655 0.025198769
0.04614854 -0.05262435 0.49254456 -0.038912516 -0.14388898 0.00063571293 -0.121746674 -0.08069214
-0.06876828 0.029228076 0.13733403 0.12021669 0.06468701 -0.2470683 -0.074205555 -0.09902345
-0.053576514 0.13260062 0.070333876 -0.20731893 -0.07413805 -0.23549742 -0.31853938 0.08580895
0.08900125 -0.025115058 0.21555176 0.032662343 0.13240558 -0.059657503 0.039013974 -0.00087607617
-0.1178677 -0.07328034 0.16125177 0.0089673055 -0.121843085 -0.2021515 0.06891758 0.07843684
-0.06982487 0.15072374 -0.16601391 0.100301884 -0.03673465 0.10884671 -0.09212878 0.30779293
-0.114461765 -0.10364237 0.07355131 -0.30161974 -0.14141531 0.1464997 0.23440187 -0.06898903
0.31920168 -0.15583591 0.093510225 -0.022085775 0.01948278 0.13314028 -0.11526487 -0.13918787
-0.16865183 0.08105592 -0.041221272 -0.100208215 -0.11967855 0.0077398703 -0.040861357 0.17238456
00000000: 4e46 86bd 6b37 dbbc afad c8bd 4fbe 2bbd
00000010: 5701 64bc f57d 35bd 2494 933e b6f6 5abe
00000020: 24de 98bd 90ff 823c 2c74 10be c8fa 83be
00000030: bf44 9fbe 2174 dc3d 4603 713e 9221 053e
00000040: 1c72 c43c 0548 7d3d de77 0abe 1888 23bd
00000050: ba02 5a3d 3334 db3e c839 62bf 57e6 b4bd
00000060: 022b 833e 25d3 3dbe eba4 9fbe 5713 ad3d
00000070: 2ec9 7abc 8e2d 17be 5271 813e 7031 373d
00000080: 1b67 4e3c afe8 943d 255d 093c fd6e 043e
00000090: 14ee 373e 6b9a 25be b745 233a 3e8a 65bd
000000a0: 9ed4 01be 7ec6 55bd 35c4 66bd a4cc 43bd
000000b0: ada0 9c3d cc2e 10bc b408 b1bc 060f 863e
000000c0: c45f d2bb e671 7fbe d573 0abe c820 873e
000000d0: d5b6 3ebe 363d 99bd 3d57 12be 4393 96be
000000e0: cde0 d4bc 8fd7 013e 3dab 23bd d910 503d
000000f0: 706f f53e 1a54 e73e d791 8b3e 34de 23be
00000100: bd4f cb3c fc90 ab3e e00f 033f 6b50 53bd
00000110: af74 15be 84f1 ce3d 7ae8 25be e209 80bd
00000120: 511b e0bd da5c c83d 50b2 31bd 2101 f63c
00000130: 4d8b d23d 99da 88bd a3a7 863d 5e66 f83d
00000140: f94e 33bd c5fb 0c3e bfed 03be 6f38 13be
00000150: ef1c 40bc 4023 bfbe ef3b 89bd ecbd 833e
00000160: f5be 183e 28e3 28be b1bd 673d 5a62 91bd
00000170: 30d4 93bd ecee 343d 228b 13be 4767 96bd
00000180: 6df0 f43d a2fa c9bc 1b68 ddbc 19ae 1a3d
00000190: 7da0 32bd 496e 08be 8f9c 96bd bf30 7ebb
000001a0: 00df e03d 91e1 bcbc 3587 89bc 470a 093c
000001b0: f1a0 853d df44 d8bc 607c 673d 5f10 823e
000001c0: 743e 40bd b5b7 1cbe 928c 023e 0fd6 ea3d
000001d0: 3914 ccbd e76f d93d 4d44 66bd cd57 8e3c
000001e0: b24e 70bd 58ec ca3c 5e2c 9b3d 43aa c3bd
000001f0: d6a1 bb39 748c ffbc 8c8d 28bd ba05 26bd
00000200: 6b22 97bb 5954 9a3d 9141 87be 36e0 13be
00000210: 59f4 8abc e128 bcbd 3727 66bd 6977 403e
00000220: a415 db3d a22d a33d 969c 6a3d 391f 6cbe
00000230: 87e7 0bbd 3486 8f3e 980b 183e d311 a2be
00000240: 4f85 2bbe 6c4a d9bd 10df d5be be4e 11be
00000250: 4bc4 713e 4b22 873d 7581 423d 36ad 14bd
00000260: c562 013e a24a 4d3d dc17 39be 3325 85be
00000270: 189f 263e 6ace d3bd e42c abbd e369 5f3b
00000280: d4e6 18be d254 50bd 3f3e 69bd 100b f83d
00000290: bb89 403d e801 a83c ed1c 003e f7fc 9cbd
000002a0: 763b a13c 18a5 463c 7190 a13c 7f53 523d
000002b0: ca93 2e3e be5f 70be ac55 95bd 8833 43bd
000002c0: 9578 3f3c 4d4d 38be 61f0 303f 4cf1 90be
000002d0: 11a5 2f3e 1d6c 953c 5fce 46bd a66d ce3c
000002e0: 4006 3d3d a18c 57bd cd2e fc3e bb62 1fbd
000002f0: a257 13be f9a5 263a 5256 f9bd ec41 a5bd
00000300: 62d6 8cbd b86f ef3c 4ba1 0c3e 2b34 f63d
00000310: a07a 843d 79ff 7cbe 15f9 97bd cecc cabd
00000320: 0c73 5bbd 75c8 073e 350b 903d 6a4b 54be
00000330: b1d5 97bd 3c26 71be 9817 a3be 9abc af3d
00000340: 4a46 b63d 18be cdbc 9ab9 5c3e f3c8 053d
00000350: 5495 073e 6d5b 74bd 1ecd 1f3d 7aa8 65ba
00000360: 9f64 f1bd 0114 96bd 2f1f 253e 9beb 123c
00000370: de88 f9bd ce00 4fbe a924 8d3d 7ea3 a03d
00000380: 5700 8fbd 5357 1a3e 8dff 29be 136b cd3d
00000390: 1377 16bd 06eb de3d 04ae bcbd 0997 9d3e
000003a0: ee6a eabd 7342 d4bd 12a2 963d e76d 9abe
000003b0: 2dcf 10be 0404 163e 0b07 703e 1f4a 8dbd
000003c0: 676e a33e 7393 1fbe 4a82 bf3d 3aed b4bc
000003d0: 5a9a 9f3c ed55 083e fd0f ecbd 4487 0ebe
000003e0: 11b3 2cbe a500 a63d a3d7 28bd f739 cdbd
000003f0: 071a f5bd bd9e fd3b 3d5e 27bd 9485 303e

convs.1.lin_rel.weight f4 [256, 256]
0.11493686 -0.17101608 -0.07639078 -0.31963065 0.279045 -0.082957275 0.12570101 -0.08507069
0.5440821 0.22482727 0.049825396 -0.12739505 -0.16621783 0.16688126 -0.6336325 -0.029284023
0.24310952 -0.31566826 0.11309703 -0.047289833 -0.22511774 0.1078443 0.1626516 -0.3420463
0.080775775 -0.29602683 0.34429172 -0.14850461 -0.4323621 0.009651453 0.09384907 -0.12379681
0.063829735 0.27354437 0.19366463 -0.07153386 0.05266554 -0.59540766 0.30595842 -0.2666867
0.1061773 0.25227544 -0.28741297 0.25757152 -0.36249954 0.42158744 0.027120879 -0.29623076
-0.11474447 -0.4500101 -0.006478456 0.12237352 -0.4288428 -0.19951852 -0.03367467 0.3858241
-0.5294998 0.015590957 -0.33219677 -0.3106913 -0.48568133 -0.2696272 0.2459562 0.044556987
-0.6005106 -0.10933575 -0.05862849 0.054738916 0.4788625 -0.31343037 -0.38868558 0.13185336
-0.3059976 -0.607452 -0.2556522 -0.25553504 -0.4701209 -0.17995 0.6816252 -0.29338637
-0.02803581 0.09081958 -0.29750836 -0.1058221 0.31820136 -0.0786026 0.28324997 -0.012962147
-0.20929086 0.04637273 0.087065116 -0.028247947 -0.056377206 -0.06268603 0.27463892 0.06687924
-0.17840974 0.055818602 -0.26765138 -0.17024446 0.02891123 0.19512048 0.79436165 -0.40106186
0.016892029 -0.0132820085 -0.440134 0.21815053 0.6198187 0.042776432 0.09276609 0.34729534
-0.19672215 0.2942743 0.22293274 -0.56298757 -0.06672219 -0.04593368 0.36027336 0.09250021
-0.049654007 -0.069211036 -0.162825 -0.4045945 0.39516434 0.6435883 -0.19071487 0.06025239
-0.27745774 -0.07776862 -0.80633736 -0.15057997 0.07985222 -0.46363476 0.42593428 0.27183723
0.16601793 -0.64642864 -0.0257926 0.11403182 -0.34879342 -0.09548241 -0.14307241 -0.51462376
0.4815797 -0.24143474 -0.2877048 -0.44379252 0.30521205 0.08082306 -0.42408407 0.01353702
-0.40355387 0.39715353 0.24733622 0.29362392 0.41738677 0.05325796 0.032231335 0.08182056
-0.56851137 -0.09220684 -0.57435805 0.4633663 -0.07831905 -0.0059729833 0.34541 0.32235453
-0.17150377 -0.05222684 0.5660542 0.21214414 0.6572569 -0.2151009 0.6399747 -0.49647373
0.080700256 0.25316414 -0.5368587 0.21834694 -0.23589952 0.029686026 -0.59271663 0.16922086
-0.37168032 -0.09877997 -0.23152962 -0.022406317 -0.24610573 0.5147486 -0.2668792 -0.3605903
-0.5669417 -0.015922155 -0.42164096 -0.4085966 0.1849828 0.00049453066 -0.18170123 0.15972613
0.12914068 -0.5318399 0.008124149 -0.14106971 -0.29494882 -0.15160544 0.017365918 -0.07184567
0.16632728 -0.03185858 -0.15767282 -0.18337843 -0.2043622 0.16657314 0.23833117 -0.6432723
0.18531698 0.29914865 -0.08553877 0.22944562 0.07096189 -0.12770188 -0.4544303 -0.6480956
-0.013573186 -0.48850396 0.3598293 -0.071989715 -0.53497213 0.123606354 -0.64335096 0.005009985
-0.011673105 -0.0989437 0.42200032 0.011682582 0.27437142 0.51025385 -0.23044391 -0.18675578
0.20522681 -0.31128335 -0.14796521 -0.10123454 -0.08001521 -0.34287572 0.28704327 0.16398266
0.32186243 -0.24700493 -0.2344015 -0.08210156 -0.049378816 -0.8798368 -0.2833515 -0.49356085
00000000: 0464 eb3d d71e 2fbe c572 9cbd a1a6 a3be
00000010: fcde 8e3e 81e5 a9bd c4b7 003e 8b39 aebd
00000020: f748 0b3f 1f39 663e b715 4c3d d973 02be
00000030: 0235 2abe ece2 2a3e bd35 22bf 0ce5 efbc
00000040: b4f1 783e 459f a1be 6a9f e73d fcb2 41bd
00000050: 4485 66be 79dd dc3d 248e 263e b120 afbe
00000060: c56d a53d d490 97be 0147 b03e 9811 18be
00000070: 915e ddbe 2121 1e3c f133 c03d 2f89 fdbd
00000080: 2ab9 823d 020e 8c3e 0550 463e 5880 92bd
00000090: d2b7 573d a36c 18bf 95a6 9c3e 298b 88be
000000a0: 7c73 d93d 3f2a 813e cb27 93be 6ae0 833e
000000b0: 8a99 b9be 4fda d73e 9b2c de3c 8fab 97be
000000c0: 26ff eabd b967 e6be 3a49 d4bb f89e fa3d
000000d0: 4991 dbbe 954e 4cbe 73ee 09bd bd8a c53e
000000e0: 4d8d 07bf 3771 7f3c b215 aabe ee12 9fbe
000000f0: 39ab f8be 940c 8abe f1db 7b3e 6381 363d
00000100: 10bb 19bf 6ceb dfbd 6d24 70bd ea35 603d
00000110: 772d f53e f279 a0be cc01 c7be 9104 073e
00000120: b8ab 9cbe f981 1bbf d8e4 82be 7dd5 82be
00000130: b0b3 f0be d044 38be fd7e 2e3f bd36 96be
00000140: 5bab e5bc 9eff b93d 0453 98be 42b9 d8bd
00000150: 4aeb a23e 66fa a0bd 2406 913e 2f5f 54bc
00000160: 5850 56be 55f1 3d3d 324f b23d 3d68 e7bc
00000170: c9eb 66bd 8961 80bd 799d 8c3e fcf7 883d
00000180: 0bb1 36be 0ca2 643d 9a09 89be 9054 2ebe
00000190: 3ed7 ec3c aacd 473e 495b 4b3f fb57 cdbe
000001a0: 2761 8a3c c89c 59bc 3e59 e1be da62 5f3e
000001b0: 70ac 1e3f 5736 2f3d 26fc bd3d b2d0 b13e
000001c0: 8871 49be 1fab 963e 7b48 643e f41f 10bf
000001d0: a5a5 88bd f424 3cbd c075 b83e c070 bd3d
000001e0: 0062 4bbd 84be 8dbd 99bb 26be 0327 cfbe
000001f0: fb52 ca3e 34c2 243f c24a 43be 36cb 763d
00000200: f10e 8ebe 2745 9fbd 206c 4ebf a331 1abe
00000210: 9089 a33d 8961 edbe 0f14 da3e 402e 8b3e
00000220: 9b00 2a3e 597c 25bf 014b d3bc 8489 e93d
00000230: 0d95 b2be 488c c3bd 9381 12be 62be 03bf
00000240: 9d91 f63e ab3a 77be 0b4e 93be c638 e3be
00000250: c144 9c3e 8f86 a53d 8c21 d9be 61ca 5d3c
00000260: 9d9e cebe b557 cb3e b545 7d3e e055 963e
00000270: b8b3 d53e 0525 5a3d 0105 043d 8a91 a73d
00000280: f689 11bf f1d6 bcbd 2109 13bf 593e ed3e
00000290: bd65 a0bd 04b9 c3bb 94d9 b03e a70b a53e
000002a0: af9e 2fbe d0eb 55bd eee8 103f 503c 593e
000002b0: fd41 283f 6943 5cbe 62d5 233f ce31 febe
000002c0: 2d46 a53d bb9e 813e 926f 09bf 5796 5f3e
000002d0: a58f 71be 1c30 f33c 47bc 17bf 3c48 2d3e
000002e0: e24c bebe 274d cabd 1a16 6dbe 748d b7bc
000002f0: 2403 7cbe 90c6 033f 64a4 88be 4b9f b8be
00000300: 1723 11bf 2e6f 82bc 53e1 d7be 9333 d1be
00000310: 226c 3d3e 64a3 013a e30f 3abe 3f8f 233e
00000320: 743d 043e a926 08bf 271b 053c 9474 10be
00000330: 8803 97be 753e 1bbe f842 8e3c d323 93bd
00000340: b351 2a3e 247e 02bd fc74 21be 8ec7 3bbe
00000350: 5344 51be 2692 2a3e 160d 743e 7ead 24bf
00000360: bcc3 3d3e 032a 993e f32e afbd cbf3 6a3e
00000370: 7854 913d 48c4 02be 17ab e8be 98e9 25bf
00000380: 1162 5ebc 311d fabe 8c3b b83e 586f 93bd
00000390: eff3 08bf 5425 fd3d a6b2 24bf cd2a a43b
000003a0: 8d40 3fbc ffa2 cabd 6d10 d83e 4d68 3f3c
000003b0: 697a 8c3e ff9f 023f 7df9 6bbe e83c 3fbe
000003c0: fa26 523e 8860 9fbe 3184 17be 0e54 cfbd
000003d0: 04df a3bd 688d afbe 56f7 923e 12eb 273e
000003e0: 27cb a43e dcee 7cbe f206 70be dd24 a8bd
000003f0: 7141 4abd fc3c 61bf 7313 91be 02b4 fcbe

convs.1.lin_rel.bias f4 [256]
-0.58002746 -0.94675076 -0.39513758 -0.37794858 -0.46074438 -0.81555825 -0.6210478 -0.40371084
-0.27560723 -1.1350976 -0.6537474 -0.51587135 -0.90748477 -0.3715046 -0.25750247 -0.6225329
-0.47578683 -0.40950766 -0.3035252 -0.31734875 -0.944559 -0.4541205 -0.2368002 -0.3323079
-0.5907951 -0.41677594 -0.27965695 -0.6794338 -0.37497792 -0.24718195 -1.0237148 -0.3271718
-0.60129946 -0.47729132 -0.40751117 -0.2179068 -0.72459537 -0.6662345 -0.7537586 -0.1759365
-0.53462845 -0.62949073 -0.97523916 -0.5470138 -0.95165914 -0.31155658 -0.31411242 -0.6399927
-0.18645553 -0.19982724 -0.21529073 -0.43439606 -0.41919968 -0.8294243 -0.25958785 -0.7646996
-0.42511386 -0.6237658 -0.22714089 -1.0020031 -0.5157108 -0.6652876 -0.2866079 -0.49022323
-0.15859666 -0.354669 -0.79200363 -0.3940153 -0.30990276 -0.39109468 -0.55865824 -0.41078186
-1.0148665 -0.75128335 -0.6540372 -0.5982428 -0.46967936 -0.1227461 -0.42071155 -0.55167335
-0.74590206 -0.53126997 -0.3813789 -0.7126195 -0.2056893 -0.421805 -0.59824026 -0.7678715
-0.38539797 -0.20242639 -0.3777716 -0.21752957 -0.7492748 -0.7028588 -0.76890725 -0.23145418
-0.79917485 -0.65629673 -0.37186965 -0.22881998 -0.67082334 -0.47898778 -0.48288307 -0.8977968
-0.4473041 -0.87798804 -0.6102511 -0.7508178 -0.5756087 -0.58765024 -0.2310564 -0.7174769
-0.34001058 -0.9224223 -0.46571672 -0.51739323 -0.39246863 -0.6250503 -0.44324604 -0.2907889
-0.31562647 -0.83257115 2.4990735 -0.4066835 -0.6132603 -0.653463 -0.5261554 -0.39885822
-0.582238 -0.37256977 0.99161774 -0.74170464 -0.39593893 -0.3029395 -0.6393832 -0.573122
-0.5227006 -0.60433036 -0.9777553 -0.41848946 -0.510264 -0.3713058 -0.23322178 -0.31799138
-0.45477995 -0.3358984 -0.7647369 -0.4410876 -0.33871606 -0.7234541 -0.3395458 -0.5788243
-0.42750326 -0.6936462 -0.2530724 -0.2292268 -0.7377623 -0.8061989 -0.08227613 -0.3929078
-0.7218404 -0.6998907 -0.21393399 -0.61790013 -0.64929986 -0.79521596 -0.1772182 -0.55885226
-0.7006442 -0.7656584 -0.58045745 -0.55980295 -0.26563165 -0.5905267 -0.70444137 -0.36240852
-0.8180674 -0.8682461 -0.49860618 -0.531733 -0.5559806 -0.36645636 -0.20192887 -0.3674954
-0.18556933 -0.67901415 -0.45004165 -0.45487216 -0.32698166 -0.61047477 -0.75461054 -0.4152296
-0.5878842 -0.60342824 -0.20193921 -0.29724675 -0.67164624 -0.6014835 -0.5415099 -0.62267905
-0.49539465 -0.29601184 -0.3983478 -0.6478254 -0.37680578 -0.5085763 -0.87217593 -0.3915262
-0.35143167 -0.43186623 -0.37714082 -0.44862878 -0.45183563 -0.5989283 -0.23423938 -0.5342054
-0.41430086 -0.06649885 -0.48998588 -0.295892 -0.32099497 -0.8199467 -0.73222524 -0.56633276
-0.5492237 -1.008914 -0.5699404 -0.49198627 -0.60632044 -0.62752557 -0.24660279 -0.48281926
-0.42233673 -0.34661585 -0.81220764 -0.46669313 -0.5606368 -0.5116909 -0.99930644 -0.31175283
-0.54539394 -0.32197067 -0.42852104 -0.64855057 -0.7058334 -0.75191176 -0.5170466 -0.73155886
-0.40238583 -0.33383065 -0.72561765 -0.44336346 -0.090396054 -0.35199535 -0.14799693 -0.44640765
00000000: ae7c 14bf 425e 72bf 794f cabe 7a82 c1be
00000010: b0e6 ebbe 6dc8 50bf fdfc 1ebf 30b3 cebe
00000020: 641c 8dbe e14a 91bf fd5b 27bf 2510 04bf
00000030: ec50 68bf da35 bebe 5dd7 83be 515e 1fbf
00000040: 559a f3be fdaa d1be a867 9bbe 897b a2be
00000050: 9ece 71bf 7b82 e8be c07b 72be 4324 aabe
00000060: 593e 17bf a863 d5be 322f 8fbe 60ef 2dbf
00000070: 1bfd bfbe 441d 7dbe 1609 83bf 1083 a7be
00000080: c3ee 19bf 875f f4be 4ea5 d0be f622 5fbe
00000090: 157f 39bf 588e 2abf 53f6 40bf b328 34be
000000a0: 69dd 08bf 4e26 21bf 46a9 79bf 1909 0cbf
000000b0: ef9f 73bf 5884 9fbe 58d3 a0be 90d6 23bf
000000c0: 33ee 3ebe 839f 4cbe 2c75 5cbe 2969 debe
000000d0: 57a1 d6be 2755 54bf b3e8 84be 5ac3 43bf
000000e0: 86a8 d9be 1eaf 1fbf 9f97 68be a341 80bf
000000f0: 9f05 04bf 4a50 2abf 45be 92be 8afe fabe
00000100: 2a67 22be 2d97 b5be c0c0 4abf 60bc c9be
00000110: 93ab 9ebe 903d c8be 3a04 0fbf 0052 d2be
00000120: 25e7 81bf 1b54 40bf fb6e 27bf 7126 19bf
00000130: d079 f0be 4f62 fbbd 8167 d7be 773a 0dbf
00000140: 70f3 3ebf 4f01 08bf 1844 c3be 3b6e 36bf
00000150: 37a0 52be d3f6 d7be 4626 19bf 3a93 44bf
00000160: e252 c5be dd48 4fbe 476b c1be 12c0 5ebe
00000170: 79d0 3fbf 8eee 33bf 1bd7 44bf 5302 6dbe
00000180: b996 4cbf 1003 28bf b365 bebe c94f 6abe
00000190: 14bb 2bbf e33d f5be 733c f7be 03d6 65bf
000001a0: 0b05 e5be d3c3 60bf 6b39 1cbf 9835 40bf
000001b0: 175b 13bf 3f70 16bf 0d9a 6cbe 91ac 37bf
000001c0: de15 aebe de23 6cbf 6c72 eebe e273 04bf
000001d0: a6f1 c8be 4c03 20bf 25f1 e2be 48e2 94be
000001e0: cb99 a1be 6223 55bf d2f0 1f40 d238 d0be
000001f0: a1fe 1cbf 5a49 27bf 1fb2 06bf 2537 ccbe
00000200: 8d0d 15bf 77c1 bebe a9da 7d3f 5be0 3dbf
00000210: 82b8 cabe e31a 9bbe 9eae 23bf 20b8 12bf
00000220: b5cf 05bf 65b5 1abf 2c4e 7abf 4044 d6be
00000230: a9a0 02bf cb1b bebe b1d1 6ebe c4cf a2be
00000240: ebd8 e8be e0fa abbe ccc5 43bf 3cd6 e1be
00000250: 316c adbe 4a34 39bf f2d8 adbe d42d 14bf
00000260: b5e1 dabe cc92 31bf b592 81be 6eba 6abe
00000270: fddd 3cbf 0d63 4ebf 6380 a8bd 362b c9be
00000280: 88ca 38bf 092c 33bf 8311 5bbe b42e 1ebf
00000290: 8438 26bf 4693 4bbf b078 35be f110 0fbf
000002a0: 6b5d 33bf 3002 44bf dc98 14bf 3f4f 0fbf
000002b0: df00 88be c22c 17bf 4556 34bf 9c8d b9be
000002c0: dd6c 51bf 6045 5ebf 4f49 ffbe a71f 08bf
000002d0: bf54 0ebf 2ba0 bbbe 71c6 4ebe 5b28 bcbe
000002e0: e305 3ebe dfd3 2dbf dc6b e6be 01e5 e8be
000002f0: 246a a7be 1348 1cbf 282e 41bf f998 d4be
00000300: 947f 16bf 467a 1abf 27c9 4ebe ba30 98be
00000310: 02f1 2bbf d3fa 19bf 65a0 0abf e567 1fbf
00000320: 5ea4 fdbe dd8e 97be 3ef4 cbbe e3d7 25bf
00000330: b0ec c0be 0e32 02bf ec46 5fbf 1f76 c8be
00000340: daee b3be 921d ddbe 9a18 c1be acb2 e5be
00000350: 0057 e7be 5d53 19bf 73dc 6fbe afc1 08bf
00000360: 3e1f d4be 8d30 88bd 6edf fabe 287f 97be
00000370: 7459 a4be 07e8 51bf 1d73 3bbf 2ffb 10bf
00000380: ed99 0cbf 1824 81bf 9de7 11bf a0e5 fbbe
00000390: d137 1bbf 84a5 20bf 7185 7cbe 1634 f7be
000003a0: 853c d8be a277 b1be d7ec 4fbf 67f2 eebe
000003b0: e585 0fbf 2dfe 02bf 8cd2 7fbf 119e 9fbe
000003c0: f09e 0bbf 57d9 a4be 1c67 dbbe 6907 26bf
000003d0: 7fb1 34bf 4a7d 40bf 2a5d 04bf 7147 3bbf
000003e0: 8405 cebe daeb aabe 14c2 39bf 8900 e3be
000003f0: 9121 b9bd bc38 b4be 828c 17be 8b8f e4be

convs.1.lin_root.weight f4 [256, 256]
0.07634232 -0.04497355 -0.30590746 0.04733489 0.47913343 0.0537035 0.0014157806 0.25825086
0.011803972 0.115364626 0.16274893 -0.42713493 -0.1612165 0.20449615 -0.13515878 -0.25703058
0.0152726285 -0.2876148 0.5127674 0.009941917 -0.34182218 0.046176523 0.2770212 -0.37574703
0.14587817 0.008931546 0.20275536 0.10411703 0.12513281 0.110284224 0.02800923 -0.2048751
0.29055795 0.17089984 0.08748266 -0.020286657 -0.35244942 -0.2601243 0.23360793 -0.26695427
-0.12795517 -0.16242073 -0.25153482 0.3252801 -0.38259295 0.123432085 -0.16053438 -0.15278974
0.118179314 -0.40179178 0.16093981 -0.08251466 0.01873302 0.18295461 0.19004692 0.2919066
-0.1462264 -0.249678 -0.5966179 -0.13645689 -0.14093351 -0.09258651 0.11877485 0.17314218
-0.44660792 -0.36707804 -0.18860185 -0.013355548 0.033972245 -0.4242228 -0.7123757 -0.16798541
-0.10324829 -0.3559219 0.0744796 -0.41000414 -0.0744664 0.033919755 0.43830103 -0.12761502
-0.1618135 0.4255435 -0.36710948 0.11639227 0.13895023 -0.11695978 0.22737062 -0.13169563
-0.35098323 -0.16803865 0.19695328 0.5431408 0.065111786 -0.18303782 -0.043528624 -0.058706187
-0.3025624 0.20774318 -0.097991325 0.21484473 -0.044998437 0.051851045 0.503096 -0.31949592
-0.23847748 0.062004004 -0.4174421 0.14976968 0.24069518 0.11337014 -0.13821578 0.10921283
0.15052025 0.35923338 -0.07010537 -0.60767716 -0.08699979 0.31713122 0.070602655 0.1850552
0.23049735 0.18502992 -0.22491242 -0.24002533 0.34356618 0.12862839 -0.06174112 0.050059892
0.07706282 -0.009006598 -0.64335173 0.14109313 0.04778167 -0.45280847 0.1470493 0.10667512
0.41198912 -0.6072285 0.03998493 -0.25494835 -0.16477433 -0.21531555 -0.025975738 -0.26826254
0.28890646 -0.23719749 -0.09856733 -0.28944945 0.19474669 -0.075779445 -0.35447854 -0.03885575
-0.608619 0.49332133 0.15799673 0.38255697 0.24152738 0.22151913 -0.02906707 -0.033942025
-0.41429466 0.022219839 -0.5573778 0.4245435 0.41440585 0.13043907 -0.07971515 0.19882807
-0.057485975 -0.10345699 0.543037 0.5086166 0.4749835 0.15521203 0.68540996 -0.50239724
0.17817229 0.012808327 -0.4924798 -0.3069697 -0.55955786 0.16615319 -0.53741014 0.19461991
-0.40186334 0.13446279 -0.06977165 -0.16345996 0.14600107 0.54002476 0.095673025 -0.3532137
-0.32451624 0.08570305 -1.0049653 -0.40865332 -0.13333338 0.07757164 -0.035953596 0.02295041
0.66066957 -0.4729185 0.044210114 -0.14833061 -0.3299482 0.028678998 0.037198268 -0.17100732
0.21487752 -0.3021521 -0.5258045 -0.022770643 -0.25711852 -0.02299837 0.19305773 -0.8297008
0.31760246 0.53106487 -0.28941765 -0.1275477 0.12077697 0.044313192 0.0568164 -0.61403376
0.007853335 -0.5899754 0.41884935 0.10774063 -0.39237344 -0.14434715 -0.36125633 0.16622837
-0.12749292 0.10041804 0.11066119 0.10241419 0.5265795 0.3646107 -0.21290861 0.15751725
0.26690924 -0.018529994 0.15010203 0.23973359 0.1929514 -0.323138 0.053847574 0.33146408
0.47499025 -0.33140993 -0.22142443 -0.03798442 -0.32527906 -0.8312999 -0.36162126 -0.011573641
00000000: 5d59 9c3d 2f36 38bd e79f 9cbe 3be2 413d
00000010: fa50 f53e 34f8 5b3d b791 b93a 7539 843e
00000020: 7265 413c 4a44 ec3d a8a7 263e 6eb1 dabe
00000030: f015 25be 7067 513e 1067 0abe 8399 83be
00000040: 0c3a 7a3c 3f42 93be b944 033f 6ce3 223c
00000050: 5103 afbe 9823 3d3d b9d5 8d3e ea61 c0be
00000060: 1661 153e 9e55 123c 1a9f 4f3e 4f3b d53d
00000070: d122 003e b2dc e13d 9d73 e53c c7ca 51be
00000080: 03c4 943e 5e00 2f3e 1c2a b33d 3430 a6bc
00000090: 4074 b4be 032f 85be eb36 6f3e 3bae 88be
000000a0: ae06 03be 9f51 26be 2cc9 80be 1d8b a63e
000000b0: 39e3 c3be f6c9 fc3d 2063 24be ea74 1cbe
000000c0: ff07 f23d a7b7 cdbe 68cd 243e 72fd a8bd
000000d0: fe75 993c 7458 3b3e a99b 423e c874 953e
000000e0: 60bc 15be 97ab 7fbe f3bb 18bf 5bbb 0bbe
000000f0: e050 10be ff9d bdbd 3b40 f33d 2f4c 313e
00000100: cba9 e4be a7f1 bbbe d820 41be 3ad1 5abc
00000110: 7b26 0b3d bb33 d9be 415e 36bf 5e04 2cbe
00000120: d773 d3bd 653b b6be c388 983d 10ec d1be
00000130: d781 98bd 71ef 0a3d fe68 e03e 83ad 02be
00000140: 70b2 25be d6e0 d93e c6f5 bbbe 125f ee3d
00000150: f848 0e3e 9c88 efbd d8d3 683e 38db 06be
00000160: 13b4 b3be 5312 2cbe 1fae 493e 470b 0b3f
00000170: 5459 853d 446e 3bbe 124b 32bd e675 70bd
00000180: 75e9 9abe a1ba 543e adaf c8bd 4200 5c3e
00000190: 4850 38bd c361 543d e6ca 003f f894 a3be
000001a0: 7133 74be e9f7 7d3d f9ba d5be 395d 193e
000001b0: cc78 763e 9b2e e83d 7088 0dbe faaa df3d
000001c0: fb21 1a3e 70ed b73e 6793 8fbd bb90 1bbf
000001d0: f22c b2bd 065f a23e 2098 903d 1c7f 3d3e
000001e0: 7f07 6c3e 7c78 3d3e 714f 66be 33c9 75be
000001f0: e8e7 af3e 29b7 033e 42e4 7cbd 9a0b 4d3d
00000200: 1dd3 9d3d 6990 13bc b3b2 24bf b87a 103e
00000210: b6b6 433d 83d6 e7be 1794 163e 7c78 da3d
00000220: 3df0 d23e 5473 1bbf 3dc7 233d 9788 82be
00000230: 9aba 28be ae7b 5cbe 12cb d4bc b559 89be
00000240: 8ceb 933e e6e3 72be abdd c9bd b832 94be
00000250: ad6b 473e 4132 9bbd 367e b5be 3527 1fbd
00000260: 74ce 1bbf 9d94 fc3e e5c9 213e 82de c33e
00000270: f452 773e e9d5 623e 101e eebc cb06 0bbd
00000280: 6e1e d4be 6106 b63c 50b0 0ebf c45d d93e
00000290: 012d d43e d291 053e b241 a3bd 9699 4b3e
000002a0: 6a76 6bbd 42e1 d3bd 7904 0b3f b334 023f
000002b0: 0a31 f33e e7ef 1e3e 0777 2f3f 1b9d 00bf
000002c0: cc72 363e 04da 513c 5026 fcbe 222b 9dbe
000002d0: 2f3f 0fbf 1024 2a3e b693 09bf 714a 473e
000002e0: 08c1 cdbe 9db0 093e 70e4 8ebd 0c62 27be
000002f0: 4e81 153e 103f 0a3f 38f0 c33d 6dd8 b4be
00000300: fe26 a6be 1585 af3d b4a2 80bf 023b d1be
00000310: 8c88 08be e1dd 9e3d 1444 13bd 8002 bc3c
00000320: a421 293f 6022 f2be aa15 353d fbe3 17be
00000330: f8ee a8be 38f0 ea3c 365d 183d 8b1c 2fbe
00000340: da08 5c3e aeb3 9abe 209b 06bf 8089 babc
00000350: 0aa5 83be 1467 bcbc edb0 453e 4667 54bf
00000360: ca9c a23e def3 073f 8d2e 94be dd9b 02be
00000370: eb59 f73d c081 353d 50b8 683d 5131 1dbf
00000380: 46ab 003c a108 17bf 6c73 d63e 1fa7 dc3d
00000390: 2ce5 c8be bdcf 13be 97f6 b8be c537 2a3e
000003a0: 818d 02be f9a7 cd3d 55a2 e23d 88be d13d
000003b0: eacd 063f 41ae ba3e b704 5abe 344c 213e
000003c0: 54a8 883e 37cc 97bc 59b4 193e b97c 753e
000003d0: 0d95 453e 5872 a5be 468f 5c3d a9b5 a93e
000003e0: ec31 f33e 90ae a9be 16bd 62be 8d95 1bbd
000003f0: fa8a a6be 12d0 54bf 6c26 b9be 5e9f 3dbc

post_layers.0.weight f4 [1, 256]
-0.03034971 -0.14508706 0.022171602 0.007484968 0.0035667447 -0.088564165 0.0055950796 0.021523925
0.024881715 -0.16635807 -0.0013841641 0.005574573 -0.25835308 -0.006449264 0.0055182627 0.12497477
-0.00329303 0.030235147 -0.003323571 0.031335097 0.15382029 0.0067201136 0.012160963 -0.002389226
-0.1257263 0.05179769 0.012145032 0.022474533 0.0024624597 0.04565758 0.06399939 0.015402787
0.010896609 0.004458136 0.004751597 0.1078016 0.008921817 -0.007783077 0.01806936 0.009054104
0.0028673394 -0.038622405 -0.020978477 0.0034817355 -0.078188054 0.006024197 -0.028797803 0.0519672
-0.008759303 -0.009746643 0.025583293 0.14564927 0.07824179 0.11876724 0.01662477 -0.22547011
0.014753831 -0.018208435 0.0069313743 0.13920152 0.012923595 0.020377252 0.005965294 -0.036251083
-0.010096746 0.003132987 -0.059996884 -0.007444653 -0.027987206 0.002368027 0.12106194 -0.006168057
-0.117967606 0.11531755 0.0067556 0.000357045 0.00927841 0.0006408875 0.05820274 -0.016410926
0.03531601 0.010251356 0.01818627 0.010688548 0.01582459 -0.016774684 -0.0022215864 0.060518533
0.08931144 0.025055246 0.010965043 -0.008484928 -0.008924876 0.2200076 -0.016685236 0.01779157
0.008024256 -0.07336573 -0.00610867 0.0048638247 -0.047167506 0.022703923 -0.0665875 -0.0021953394
0.0012239661 0.008342481 0.026223756 0.110412255 0.0460839 0.010439372 0.024018409 0.03448924
0.023405153 0.00684493 0.0016589412 0.04101731 0.027088555 0.1041651 -0.028441325 -0.015770515
0.02530665 0.08214128 -0.12479468 0.0011962733 0.006741146 -0.042639785 -0.009036435 0.017381739
0.0070502907 0.0028242778 0.19007067 -0.001063437 -0.018737936 0.016256778 0.049133357 -0.26460925
-0.1328222 -0.0011897783 0.018046847 0.11934498 -0.037585642 0.018214367 0.010560016 0.03265271
0.010179866 -0.011903311 0.029066334 0.018089116 -0.039660256 -0.0635022 0.006176115 0.022495
-0.022112705 -0.008986762 0.012361467 -0.01402414 0.063816495 0.0647217 0.012372263 -0.022076244
0.2077814 0.0021727039 0.010239461 -0.0015912451 0.08911165 -0.18981415 0.010640819 0.03173952
-0.025224881 -0.021660311 0.017502962 -0.010158052 -0.03009719 -0.05856695 -0.03214283 -0.0056583136
0.008358821 0.10499481 0.024847183 0.05757683 -0.028682008 -0.055252627 0.006266146 0.023183703
0.018873015 -0.01642733 -0.041890465 0.008258891 0.0074966396 0.05121747 -0.015770804 0.07028638
-0.04451425 0.06134762 -0.009883087 -0.0013461871 0.091991894 0.0146969715 -0.020548537 0.13216813
0.021695381 -0.004147339 0.0030315414 0.0726533 -0.00038947506 0.0064123855 0.0011799769 0.048477627
-0.0031853372 0.013176135 0.027074141 0.017649269 0.035645187 -0.012601519 0.008134789 0.018488547
0.03954821 0.032113526 0.033458263 0.0040595224 -0.018393286 0.03675368 -0.027327849 -0.021993153
0.011837739 -0.033203036 -0.013523125 0.022333685 -0.015185128 -0.019306755 -0.02268432 0.16182633
-0.0111521585 -0.011523221 0.025869882 -0.014772837 -0.0073196567 0.019765755 -0.021519609 0.022152957
-0.17476813 0.009834907 0.1125667 -0.0048570377 0.04109385 0.16390204 0.16595843 -0.052397363
-0.0032571182 0.012802646 0.07073324 0.014758593 0.031097395 0.054422833 0.008910019 0.011682808
00000000: f49f f8bc b491 14be 38a1 b53c 7644 f53b
00000010: 0cc0 693b 2161 b5bd ee56 b73b f152 b03c
00000020: bdd4 cb3c c559 2abe d76c b5ba e8aa b63b
00000030: db46 84be 5954 d3bb 8bd2 b43b c6f2 ff3d
00000040: e0cf 57bb b3af f73c 45d0 59bb 3b59 003d
00000050: 1183 1d3e 6634 dc3b c73e 473c 9094 1cbb
00000060: 65be 00be d129 543d f5fb 463c 831c b83c
00000070: 3861 213b 7103 3b3d 1d12 833d f95b 7c3c
00000080: b187 323c 8e15 923b 49b3 9b3b 16c7 dc3d
00000090: d02c 123c 2f09 ffbb 3206 943c aa57 143c
000000a0: f9e9 3b3b 8732 1ebd 0edb abbc d42d 643b
000000b0: 0f21 a0bd a166 c53b 5fe9 ebbc 8fdb 543d
000000c0: 2e83 0fbc 62b0 1fbc 0e94 d13c 1525 153e
000000d0: 3b3d a03d 3d3c f33d ab30 883c a3e1 66be
000000e0: 0dba 713c db29 95bc 9520 e33b d88a 0e3e
000000f0: 7cbd 533c 32ee a63c 8378 c33b 047c 14bd
00000100: d26c 25bc cd52 4d3b 4bbf 75bd 47f2 f3bb
00000110: 6d45 e5bc e730 1b3b 53ef f73d 6a1d cabb
00000120: 0099 f1bd 9c2b ec3d 155e dd3b c531 bb39
00000130: 7904 183c 3b01 283a ff65 6e3d 3570 86bc
00000140: 85a7 103d 4ef5 273c 5ffb 943c 051f 2f3c
00000150: 92a2 813c 106b 89bc 0998 11bb 48e2 773d
00000160: ebe8 b63d a940 cd3c b9a6 333c 5e04 0bbc
00000170: a539 12bc ac49 613e 7aaf 88bc a0bf 913c
00000180: 2b78 033c c640 96bd 3d2b c8bb b860 9f3b
00000190: b732 41bd 94fd b93c 075f 88bd afdf 0fbb
000001a0: 7d6d a03a e7ae 083c 34d3 d63c d21f e23d
000001b0: 79c2 3c3d e609 2b3c 41c2 c43c 9744 0d3d
000001c0: 2abc bf3c 6f4b e03b d470 d93a c401 283d
000001d0: d1e8 dd3c 8354 d53d c8fd e8bc 2b31 81bc
000001e0: e44f cf3c b039 a83d 5a94 ffbd 45cc 9c3a
000001f0: d5e4 dc3b 0ea7 2ebd 8e0d 14bc 2664 8e3c
00000200: 2006 e73b 8517 393b e3a1 423e 0663 8bba
00000210: 4d80 99bc ef2c 853c 0f40 493d dd7a 87be
00000220: 8b02 08be 56f2 9bba fbd6 933c 246b f43d
00000230: 67f3 19bd 4c36 953c eb03 2d3c d9be 053d
00000240: 74c9 263c 1b06 43bc 851c ee3c a02f 943c
00000250: cb72 22bd 710d 82bd 0261 ca3b 6f47 b83c
00000260: b425 b5bc 363d 13bc c087 4a3c 82c5 65bc
00000270: 39b2 823d d08c 843d 08b5 4a3c 3dd9 b4bc
00000280: a6c4 543e ec63 0e3b 6ac3 273c 5391 d0ba
00000290: 2b80 b63d a45e 42be d456 2e3c 4d01 023d
000002a0: 69a4 cebc f770 b1bc 5f62 8f3c f56d 26bc
000002b0: 628e f6bc e6e3 6fbd 33a8 03bd 6069 b9bb
000002c0: 70f3 083c 8507 d73d 528c cb3c afd5 6b3d
000002d0: 88f6 eabc 9450 62bd 3e54 cd3b c0eb bd3c
000002e0: 959b 9a3c 9c92 86bc 5695 2bbd 4d50 073c
000002f0: 5fa6 f53b 69c9 513d c631 81bc 4ef2 8f3d
00000300: 9354 36bd a447 7b3d acec 21bc 8b72 b0ba
00000310: 3f66 bc3d 91cb 703c 6855 a8bc 1557 073e
00000320: 83ba b13c 67e6 87bb d3ac 463b 41cb 943d
00000330: 7532 ccb9 fd1e d23b 74a9 9a3a 7a90 463d
00000340: 17c1 50bb b7e0 573c 97ca dd3c 3395 903c
00000350: b000 123d 9a76 4ebc c747 053c 4b75 973c
00000360: 4efd 213d 7989 033d 880b 093d be05 853b
00000370: 84ad 96bc 078b 163d a7de dfbc fc2a b4bc
00000380: 13f3 413c e8ff 07bd 1990 5dbc 22f5 b63c
00000390: 0bcb 78bc 3329 9ebc 78d4 b9bc cdb5 253e
000003a0: 8bb7 36bc e4cb 3cbc 13ed d33c c509 72bc
000003b0: bbd9 efbb cbeb a13c e449 b0bc 1e7a b53c
000003c0: 6bf6 32be 9722 213c 5f89 e63d c927 9fbb
000003d0: 0652 283d f0d5 273e 02f1 293e 9e9e 56bd
000003e0: 6075 55bb 30c2 513c 97dc 903d 07ce 713c
000003f0: f7bf fe3c 7aea 5e3d 54fb 113c 4069 3f3c
