models/BPI17/hoeg/exp_v3/lr=0.01_hidden_dim=48/GraphModule_20230828_11h03m/state_dict_epoch0.pt (torch, 138399 bytes, 33 tensors)

convs.0.event__follows__event.lin_rel.weight f4 [48, 27]
00000000: cffa 0d3e 77f6 bebd a712 d8ba df4d 453e
00000010: a8da 813e 5192 33be 9395 083e 36ae f6bc
00000020: 2319 093e b1ae 5fbe 7b8a 043e d6c3 ca3d
00000030: 0454 b83b 27c6 22be 9bd4 2b3d 3877 3ebe
00000040: b069 88bd 7c6f e0bc c4b8 b23d 6a85 f83c
00000050: 7f9f 583e a249 ba3d cd14 163c 6e69 3b3d
00000060: 0b70 01be 5d2a 9c3e 8a41 9f3c 9f36 eebd
00000070: 6f70 2fbe ef3c 83bb 9cb0 943d 530f 293e
00000080: 737b 0bbe 5449 c6bd a3a0 92be a61a 033c
00000090: a29e 653d a622 38be 35ab 1cbe 145c cf3d
000000a0: a740 3ebe 3f7a 6ebe c869 89be 9473 213b
000000b0: f9c8 39bb 9af8 64be 54c3 37be 32cd cebd
000000c0: 6d4d 08be 8492 ccbd cf0e 2fbe 1bc4 04bb
000000d0: 700f ae3d dcc0 a83d f0ff 9bbc 79e4 34be
000000e0: 6930 a7be 73a0 80be a6a0 88be 3fe7 43bd
000000f0: 2be6 1cbe 21d7 3b3e 4560 fa3d bd2b bd3e
00000100: f2bb b43e 6058 0a3f fbab 8c3e 92bd 883e
00000110: 2512 c83e a5f7 bf3e 3e1e 9f3d e279 543e
00000120: 49a3 243d a268 423e 909a 93bc f876 a03d
00000130: e46a 933d e40a 8a3e fe82 213e 1d45 31be
00000140: e21a a6be 7024 b5be d440 c8be a285 14be
00000150: 40ce dcbe 1044 22be 02c8 00be 9de6 d1be
00000160: 88da 0b3e 3f13 343c c784 98be 84f5 1fbb
00000170: d7ae 853d d1f7 f9bd b53e b43e 5df9 b13e
00000180: 0154 8c3d 8694 2a3e 3731 f43d 8688 503d
00000190: 0224 1abe 48e3 fb3c b32c e9bd 5a03 aebe
000001a0: 0c4a 8fbc 1d36 893e 309f e8bd b72c acbe
000001b0: c320 c8bd f8fe 04be eabd 09bd 0984 133d
000001c0: a007 943d 2de1 55be e8e9 69bc 87c5 d9bd
000001d0: 1bf6 0bbe bf97 04be 3a34 65be fa5a 5dbe
000001e0: 43c9 3abe 2c3e 88be 781d a5be 8865 7c3d
000001f0: 8ca0 7d3d 577d 15be 02a5 603d cab2 2bbe
00000200: 41b8 babd 9fc0 98bd ec4e 59be dc63 2abe
00000210: f466 06bd e07a 12be ba6d 7c3d f603 63be
00000220: 7421 a1be 8c99 b5bd 05d0 fbbe 23a6 a8be
00000230: 62ba 873e db84 b6be ce49 203d aef8 80bd
00000240: ebd7 a43e 8585 d43d fb28 a23d 741f 4d3b
00000250: 6830 a13e 829a 7e3e a32a b83e 425a c53e
00000260: be0b 1b3e 0ada ad3c 51f5 57be 9023 3e3e
00000270: 15ad f93a 7dc5 6b3c ec92 afbd 0a0f 933b
00000280: 75c4 08bf b4ee b83e 8c48 b53d 6657 d53e
00000290: 82d2 833e dd8b 1c3f c911 713e 99c4 79be
000002a0: 40ad 613e a266 ccbe 57e8 093c efd1 d4be
000002b0: 09c1 ccbe 2d48 12bf 5571 b8be 8ab0 adbe
000002c0: 2f39 05be 2cab afbe ee74 cdbd 8cc7 14bd
000002d0: f308 1dbd e3bd 85bd 7c7a 69bd 602d 93be
000002e0: c07e bdbc b753 24bf c63b 31be 4b87 51bc
000002f0: 4f7a bb3e a2fd 4ebe ac25 98be a2e6 65be
00000300: 6e0b d9be 9566 e6be 9bb4 3a3e ee22 19be
00000310: 0e99 753e 48ad 1c3e b69e 3a3e 9fc8 0f3e
00000320: 387d 8d3e 0c22 9a3e 0e91 4a3e 88e8 dd3e
00000330: 6950 c23e 3f24 bb3d dc81 89bb 636e 24bb
00000340: 651c 04bc 3ec9 c73b 3801 c1bc 9fd6 13be
00000350: 9ab3 23bc 82f7 833e 8be0 36be 84d2 d6bd
00000360: e57d 70be 8846 53be 7ed1 4cbd 4c65 bebe
00000370: d6c6 9abe efaf 15bd 446a b2bd 3b06 c83e
00000380: b153 743e ef2c bb3e 9725 963e 7998 4f3e
00000390: 04f6 823e 06ef 2c3e e01e 3a3e a9ed bf3e
000003a0: f856 4b3e 0ba0 c7ba 7dc0 d3bd d9c7 323c
000003b0: 8254 9e3e 152a 8e3d 9b9b 303e b68b 813e
000003c0: cefa 3e3e 7529 38be 035a dfbd 6ff4 1cbf
000003d0: ea9e 8dbe 85f6 29be bbea d6be daeb 2abe
000003e0: e9a6 78be 12a6 33be 9358 063e 7818 5e3c
000003f0: a0a9 cbb9 4b34 203e 33f7 e1bc f9de f9bd
0.13865207 -0.09324353 -0.0016485051 0.19267987 0.25362134 -0.17536284 0.13338308 -0.030112367
0.13388495 -0.21843983 0.12943451 0.09900634 0.00562525 -0.15895902 0.041950803 -0.18600166
-0.06660783 -0.02739691 0.087266475 0.030337054 0.21154593 0.090960756 0.009160233 0.045754842
-0.12640397 0.3050107 0.019440431 -0.11631512 -0.17132734 -0.0040050666 0.07260248 0.16509752
-0.13621311 -0.09681955 -0.2863818 0.008001959 0.056059487 -0.17981967 -0.15299685 0.101249844
-0.1857935 -0.2328882 -0.26838517 0.002463554 -0.0028348549 -0.22360459 -0.17945606 -0.10097732
-0.13310786 -0.09988883 -0.17095493 -0.002025849 0.08499038 0.0823991 -0.019042939 -0.1766528
-0.32654122 -0.25122413 -0.26685065 -0.047827955 -0.15322177 0.18343784 0.12225393 0.36947432
0.3529964 0.540411 0.2747496 0.2670713 0.39076343 0.37493625 0.0776944 0.2074962
0.040194783 0.18985227 -0.018018037 0.078351915 0.07198122 0.26961434 0.15772626 -0.17311521
-0.32442385 -0.35379362 -0.3911196 -0.14504102 -0.43126106 -0.15846276 -0.12576297 -0.40996256
0.13657582 0.010990917 -0.297888 -0.0024407813 0.06527489 -0.1220547 0.35204092 0.34760562
0.0685196 0.1665822 0.119234495 0.05091145 -0.15052798 0.030748025 -0.11385479 -0.33986932
-0.017491363 0.26799098 -0.113584876 -0.33627865 -0.09771874 -0.12987888 -0.03362838 0.03601459
0.07228017 -0.20886679 -0.014276959 -0.106333785 -0.136681 -0.12948512 -0.22383204 -0.21616736
-0.18240838 -0.26609933 -0.32249045 0.061620265 0.061920688 -0.14598595 0.054844864 -0.16767421
-0.09117175 -0.074586146 -0.21221513 -0.16639656 -0.032813028 -0.14304686 0.06162808 -0.2216948
-0.31470835 -0.08867177 -0.49182144 -0.32939252 0.26509386 -0.35648236 0.039132886 -0.06297432
0.32195982 0.10377029 0.07917973 0.0031299265 0.31482244 0.24863628 0.3597003 0.38545424
0.15141198 0.021222133 -0.21089675 0.18568254 0.0019048775 0.014390347 -0.08572945 0.004487877
-0.5342477 0.36119616 0.08851728 0.41668242 0.25746542 0.61150914 0.23541941 -0.24391402
0.22038746 -0.39922053 0.008417211 -0.41566417 -0.39991024 -0.5714138 -0.36023965 -0.3392375
-0.13010095 -0.3431028 -0.10032068 -0.036323115 -0.038338613 -0.06530359 -0.057001576 -0.28745556
-0.023131728 -0.6419024 -0.17307958 -0.012788604 0.36616752 -0.2021394 -0.2971624 -0.2245126
-0.42391533 -0.4500014 0.18232958 -0.14954731 0.23984167 0.15300477 0.18224606 0.14041375
0.27634597 0.301041 0.19781896 0.4334147 0.37951973 0.09137773 -0.0041963886 -0.002509021
-0.00806341 0.006096988 -0.023560151 -0.1443734 -0.009991551 0.2577477 -0.17859094 -0.104893714
-0.23485525 -0.20632374 -0.050004475 -0.37186658 -0.30229825 -0.036544736 -0.08711675 0.39067253
0.2386005 0.3655772 0.29325554 0.20273007 0.2557832 0.16888055 0.1817584 0.37486008
0.19857395 -0.0015230192 -0.103394486 0.010911905 0.3092385 0.0694162 0.17246859 0.25301903
0.18650362 -0.17984565 -0.1090584 -0.61310476 -0.27660304 -0.16597946 -0.4197596 -0.16691533
-0.24282421 -0.1754382 0.13119726 0.0135556385 -0.00038845558 0.15644948 -0.027583694 -0.12200732

convs.0.event__follows__event.lin_rel.bias f4 [48]
00000000: 83e2 843e f5dd ae3d a0b9 1c3d 884c 223e
00000010: 0447 f63d 57ef 0d3e 086c 6ebd d9d6 a33d
00000020: 4a66 55bd ce7d 82bd 7f07 e3bd 556c 373d
00000030: 0f72 7dbd c3c5 27bc 6ca1 d93d 7ec7 c0bd
00000040: 753e e83d c820 29be b6e5 f3bd db6a 97bd
00000050: 0864 94bc 0933 7c3d 1181 9dbd dacd e2bd
00000060: 0fc5 1ebe e263 85be 00b1 b8bd 29d6 1fbc
00000070: cb69 3fbd 86ba 06be eb3d 57be dc75 993d
00000080: bbc8 4ebd 0c27 883c 2a40 3dbe 8f87 993d
00000090: dce8 663d 0ab6 bf3c 0926 1cbd f9b9 6dbd
000000a0: 00cc 053e 8b18 abbe abcb e13c 1640 2abd
000000b0: 50e6 253b d07a 37be 7b1e f3bd bd3b cebd
0.25954065 0.08538429 0.038262963 0.15849507 0.12025264 0.13860832 -0.058208495 0.07999963
-0.052099504 -0.063716516 -0.11085414 0.044781048 -0.061876353 -0.010240021 0.10626492 -0.0941305
0.11340038 -0.16516411 -0.11909048 -0.07393428 -0.018114105 0.06157211 -0.07690633 -0.11074419
-0.1550486 -0.26052767 -0.09018135 -0.00975565 -0.04673175 -0.1315709 -0.21019714 0.07493183
-0.0504844 0.016620182 -0.18481508 0.07496559 0.056374416 0.023402233 -0.03812221 -0.058038685
0.13066101 -0.33417162 0.027562937 -0.041565023 0.002531428 -0.17917943 -0.11871048 -0.10069988

convs.0.event__follows__event.lin_root.weight f4 [48, 27]
00000000: f70b 8c3e f3bf cd3d abc1 863d 285f 84bd
00000010: da89 083f a3dc fd3d c82c 6c3c c703 dabd
00000020: 02ba 06bd 34de 8dbe cd15 123d 95d9 0fbd
00000030: 73fd dc3d 1d5e 37be bb37 6f3e e260 d8bb
00000040: 6f4a 0e3e 3cdc 133e e710 4a3d c6ae 023e
00000050: 6543 3c3d 5795 40be 5d3b c1bd 4b73 163e
00000060: ff15 59bd 2c96 923e 1f7d a43d 5d60 2cbc
00000070: e46a 75bd f6ef 3f3e 01d3 a43c 4fe1 8f3e
00000080: 81d3 eebd b9e0 ba3c 0177 8fbe 68c9 3ebe
00000090: a683 8abd 422f 6fbe 8bcb 52bd de6f dfbc
000000a0: 8a39 92be 2899 3abd 8985 54bc 70c3 02be
000000b0: ede0 a6bb b9d6 cebd 3684 463d 2e3b 693d
000000c0: 6c14 9abe ad03 633c a777 86bd 1943 30bd
000000d0: 21b2 d1bd d56c f73d 242b e4be c750 d2be
000000e0: 6efe 39be 0205 a53d 5b9a 12bf d10b 65bc
000000f0: f2c1 12bf 1d06 a73e 8fd6 30be 80d2 07be
00000100: d3ed a03e 83fd 003f ddb9 723e 1894 ea3e
00000110: e0c6 de3d 646a 083e 048b 9e3e 4504 b23e
00000120: 422a 8b3d 3d64 5fbe 22e4 183e 7fea e73e
00000130: 6902 dd3d 077f 923e b90e af3e 3d2a 90be
00000140: 6623 33be abc1 06bf 180f 99be e125 14be
00000150: 55a1 5dbe 8874 6c3d bdb4 063e 87fc 19be
00000160: ede9 ff3c 84cf 3e3e 03a3 eabd 64ee dbbe
00000170: 97b0 eb3e 6df4 7bbe 1fab 133f 87f8 e13e
00000180: e600 a33e 9aa9 b83e e936 fe3e 302a 6b3e
00000190: a961 3d3d c314 62be 982d cdbc 2c40 babe
000001a0: e95f 083e f62f ef3d dd54 cf3d 3dd9 963d
000001b0: 590f 513d 65d8 f43d cdcf cbbd 18f2 673e
000001c0: f051 373e 93c8 7dbe 0ab1 3e3e 9de6 f43d
000001d0: e13e 073c 096b 273d 4775 48be 402f c2bd
000001e0: 4d2d ec3d 7098 99bd d681 53be 79cd 0ebe
000001f0: a740 c0bd 9870 bb3d 176e 84bd 64a4 95bd
00000200: f094 65bd 8191 87bd da3c df3d 6337 733d
00000210: 0afd 0f3e ad16 0ebd 8d68 ecbd 2e02 f6be
00000220: 78c9 bcbd b692 2dbe 69bb f0be 08c5 88bf
00000230: 1d5a 853e 7cdd 23bf 37c8 8d3e b468 a0bd
00000240: bf3d 283d c8fb 5c3e 87b4 01bd fe20 fdbd
00000250: 5687 143f a460 d13b 5b8b bc3e da33 093f
00000260: 217d 1dbd 91b0 82be 5e39 95bd c052 58bd
00000270: 1c80 a33e 705f 583e e639 8fbd c1e0 aa3e
00000280: fcd4 18bf d00c 2f3f 1db0 013f 8a67 d63e
00000290: d93d bc3e 3683 873e 05ea d73e 7fa7 42be
000002a0: 08a0 143f b2b2 edbe aa8c b43d 8917 953e
000002b0: 31ec b0be 41a1 b9be 991c 243e f0e1 4dbd
000002c0: 8314 a2be 8b7b 18be 4885 23be 1500 9dbe
000002d0: 05bd 05be e9b8 1dbd e4bd ba3d bd8d 3cbf
000002e0: 5b43 3e3d 7b49 dfbe 5999 29be 0ca3 df3c
000002f0: 4345 1e3f d44e dbbe fca0 9abe 9b18 85be
00000300: 0d15 06be 40c3 12bf 6798 203e abbd b4be
00000310: d4f4 5b3e 4871 7e3d 2d61 123e ecd7 f13d
00000320: 1c64 143e 39b0 afbb 2e38 f93e 5558 123e
00000330: 75a6 9c3e 2733 733e 0545 f63d 706e f0bd
00000340: f065 253d 974a 653e 08cb 163e d71f fcbc
00000350: 1fb7 e2bd 687e 853e 02c4 ddbe 3fc6 dc3e
00000360: 3e0d cebe 6c71 84bd d1d7 ecbd f6e5 29be
00000370: 6c6d 22bf c636 8dbd 869d 04bf 41b8 1e3f
00000380: 36b5 473e 54aa 9b3e afc7 243e 034b ab3e
00000390: 307f 0abd a1b8 163f 5795 10bd 93cf c43e
000003a0: 8ece 123f 1653 30bd 6290 5ebd bb1d 163d
000003b0: 4b42 d23c a7a6 d73e 8531 fcbc bbd9 16bd
000003c0: 2407 843c a171 18bf 112e ee3e e16c f5be
000003d0: 2899 9bbe 2815 d7bd 2035 fabe a874 a4be
000003e0: ec3b 08be d5f2 e8be 294a 513e 6f6e 8cbe
000003f0: 474e 7fbe 6b44 1cbd 5ce2 2d3e 5899 01bd
0.27352878 0.10046377 0.06579908 -0.06463462 0.53335345 0.12395599 0.014414974 -0.10645252
-0.032892235 -0.2770859 0.035665322 -0.03511961 0.10790529 -0.17906995 0.23361103 -0.006603346
0.13895582 0.14439481 0.049332526 0.12761983 0.04596271 -0.18806969 -0.09435151 0.14692418
-0.052999493 0.28630197 0.080316775 -0.010521022 -0.059916392 0.18743882 0.020120146 0.28101584
-0.11661435 0.022812234 -0.2802048 -0.18631518 -0.06763391 -0.23357871 -0.051463645 -0.027275022
-0.28559524 -0.045556217 -0.01297129 -0.12769866 -0.005092731 -0.10099549 0.04846593 0.056941204
-0.30093706 0.013855857 -0.065657906 -0.04303274 -0.102390535 0.12081305 -0.44564164 -0.41077253
-0.18163463 0.08057596 -0.5726678 -0.013979868 -0.5732719 0.32621852 -0.17269348 -0.13263893
0.31431445 0.5038683 0.23703714 0.45816112 0.10877776 0.13321835 0.30965436 0.34768882
0.067951694 -0.21815582 0.14930776 0.45296094 0.10791475 0.2861254 0.3419092 -0.28157225
-0.17493972 -0.52639264 -0.29894328 -0.14467575 -0.21643575 0.05772832 0.13154884 -0.15037738
0.031239474 0.18633848 -0.11456873 -0.42955315 0.46033165 -0.2460496 0.57682985 0.44134924
0.31836623 0.36066896 0.49651268 0.22965312 0.046235714 -0.22078232 -0.025046155 -0.36377084
0.13317837 0.1167907 0.10123608 0.07365654 0.051040027 0.119553365 -0.09951744 0.22650945
0.1790235 -0.24783544 0.18622223 0.119580485 0.008254738 0.04087356 -0.19575988 -0.094816685
0.11532078 -0.07499778 -0.20654997 -0.13945569 -0.093873315 0.09152335 -0.064663105 -0.07306746
-0.05605024 -0.066195495 0.109002784 0.059378993 0.1406137 -0.034689594 -0.11543379 -0.48048538
-0.092181146 -0.16950497 -0.47017983 -1.0685129 0.26045313 -0.64009833 0.27691814 -0.078324705
0.04107451 0.21580422 -0.031666305 -0.123598084 0.58019006 0.0063896943 0.3682507 0.53594744
-0.03844941 -0.25525334 -0.072863325 -0.05281329 0.31933677 0.21130157 -0.06993465 0.333746
-0.5969999 0.68378925 0.5065935 0.4187587 0.36765936 0.26467294 0.4217073 -0.19009207
0.5805669 -0.46425396 0.08815892 0.29119518 -0.345552 -0.3625584 0.16026534 -0.0502643
-0.31656274 -0.14890878 -0.15968812 -0.30664125 -0.13060386 -0.038506422 0.0911825 -0.73653775
0.046450954 -0.4361075 -0.16562404 0.027299426 0.61824435 -0.4283358 -0.30200946 -0.25995335
-0.13093968 -0.5732918 0.15683137 -0.35300955 0.21480113 0.062119752 0.14294882 0.11808762
0.14491314 -0.0053615835 0.48675674 0.14291508 0.30595747 0.23749982 0.12024883 -0.11739814
0.04038042 0.22391735 0.14725888 -0.030776901 -0.11070084 0.26073003 -0.43313605 0.4312
-0.40244478 -0.06466946 -0.11564601 -0.1659163 -0.63448215 -0.06895213 -0.5180286 0.619999
0.1950272 0.30403388 0.16091798 0.33455667 -0.0338127 0.5887547 -0.03529867 0.38439617
0.5734643 -0.043047987 -0.054336913 0.036649447 0.025666377 0.42119333 -0.030785332 -0.036828738
0.016116686 -0.59548384 0.4651952 -0.4793463 -0.30390286 -0.10502082 -0.48868656 -0.32120252
-0.13304108 -0.45497766 0.20438446 -0.27428004 -0.24932204 -0.038151186 0.1698088 -0.03164038

convs.0.application__interacts__event.lin_rel.weight f4 [48, 3]
00000000: d567 bfbe dfce 7cbe 8f2e b4be 1890 d5bd
00000010: 0f25 b1bd 3ebd b63d 932f 4ebe 2fa8 123f
00000020: 8212 aabe f0c7 c33e b13f b83d 998f ba3e
00000030: 63fc 1dbe 9db1 5dbe 6c71 46bb 92ff 033f
00000040: 7ba1 013e 78ec b8be 95da f8be e496 a4bd
00000050: f4b6 27bd edae 343e c851 cabe 613a a6bd
00000060: 6f46 f7be 13bf f6be 689f 0abd 3e4d ec3e
00000070: 0cab a03e 034b 8d3e c367 963d 86c4 8abe
00000080: 2ae1 e83b 0111 213f 4971 0c3f 5159 38be
00000090: 69e0 f8be da06 84be f38b afbe cf46 c73d
000000a0: ed17 2fbe 9c3c 99be 5633 aabd b724 a03e
000000b0: 5333 c23e a532 0a3e 282f 7c3e 3df4 05be
000000c0: 816b 8cbe df7e 123f 7b5a efbe b5f6 9fbe
000000d0: 826d d33e 972f d23e a697 523f 0e8c 7f3f
000000e0: fdb0 19bf ff62 0d3d 05b8 2abd ee53 6dbe
000000f0: 74dd 15bf 9bc8 6ebe e445 3cbe 8c61 ccbe
00000100: cea3 d73e 040f a83e 3111 4abe db61 8b3e
00000110: 04f4 a4be 00b0 193e ebc7 f33e 116d 76bd
00000120: 2c1b 053d a97a 1f3d 1656 c0be 081a a73d
00000130: 3bd1 95be 3ca4 413e 11f6 423e 89f5 63bd
00000140: 9e78 aebd 974e 983e a52a 04bf 51e7 e63d
00000150: 4d1f c4be aa62 23bf 99dd 15be 7943 01bf
00000160: 1db9 09bf fbae 01bf cc6f 84bd 1e87 8b3e
00000170: 3361 77be 71fb 25bf e34d 773e 21dd c43e
00000180: 7127 4abe 1a8f 153f 4d85 133d 6728 05bc
00000190: cd22 ffbe 6c19 ddbe e345 58bf 7106 b5bc
000001a0: a57d 8abe be01 af3e 8727 b63e b930 cabe
000001b0: 94a5 033e 57f6 203e f82d c23e b239 563f
000001c0: 4592 223f 8aa8 7abe c13a 3b3f 12ec 30bd
000001d0: 9bbc 023e 4d26 88be 0827 10bf 7f2a bfbd
000001e0: f254 863e ea83 cf3e ee48 ab3e a975 89be
000001f0: 871e 253e 59db d2bd 4434 123e fbf4 d43d
00000200: df27 50bd beed bebe 5c2f f4be d8b5 a6bd
00000210: 028b 76be 4730 8ebe 761d 29bd 79eb a53e
00000220: f60b 97be a19a c43e 6d97 8c3e c01d 9cbe
00000230: 7cc0 33be 400c 41be 2a66 513e dd21 f43e
-0.37383905 -0.2468829 -0.3519177 -0.10427874 -0.086496465 0.08922814 -0.20135336 0.5728788
-0.33217245 0.38238478 0.08996523 0.3643768 -0.15428309 -0.21649785 -0.0030280007 0.51561844
0.12659256 -0.3611791 -0.48604265 -0.080365926 -0.040945962 0.17644854 -0.3951552 -0.08116604
-0.48295924 -0.48192653 -0.033843428 0.4615268 0.31380498 0.27596292 0.0734401 -0.2710306
0.00710692 0.6291657 0.5486036 -0.18002822 -0.4860871 -0.25786477 -0.3428646 0.097303025
-0.1709897 -0.29929054 -0.08310573 0.3127801 0.37929782 0.13495882 0.24627364 -0.13081451
-0.2742577 0.5722484 -0.4674872 -0.3124291 0.41294485 0.41051933 0.8226265 0.9982308
-0.6003569 0.03451824 -0.0416794 -0.23176548 -0.58541036 -0.23318712 -0.18386036 -0.39918172
0.4211716 0.32823956 -0.1973312 0.27223095 -0.3221742 0.15008545 0.47613463 -0.060162608
0.032496616 0.038935337 -0.37565678 0.08159262 -0.29261193 0.18910307 0.1903918 -0.055654082
-0.085191 0.2974746 -0.5162757 0.11274589 -0.3830513 -0.63822424 -0.14635314 -0.5049358
-0.53798085 -0.50657624 -0.06466636 0.27251524 -0.24158172 -0.64836794 0.24150805 0.38449958
-0.19741608 0.5842148 0.036015797 -0.008127308 -0.49831238 -0.43183458 -0.8448164 -0.022097798
-0.27048984 0.34181017 0.35577032 -0.39490297 0.12856132 0.15718971 0.37925696 0.83681786
0.6350444 -0.24478355 0.73136526 -0.043193884 0.1276726 -0.2659172 -0.56309557 -0.09334277
0.26236683 0.4053033 0.33454078 -0.2684758 0.16124927 -0.102957435 0.1427775 0.10398289
-0.050819274 -0.37290758 -0.47692382 -0.08140153 -0.24076465 -0.27771208 -0.04128786 0.32406214
-0.29501313 0.38399222 0.2745928 -0.30491447 -0.17553896 -0.18852329 0.20449129 0.47682086

convs.0.application__interacts__event.lin_rel.bias f4 [48]
00000000: 6e65 1dbe 5706 2dbd 0599 36bd 464e afbd
00000010: 9f23 05bf 6dca ccbe f6d3 8f3e 0b86 e5be
00000020: 591b dbbd 0906 893e 5d94 04bf 5d60 d63d
00000030: 467d 5e3c b727 2d3e 2b1d 18bf 1f28 88be
00000040: c1fb 92be 8cfd 363e b378 8f3e a0ec adbe
00000050: a6de 80be 8704 14be 42de 2f3e 7590 363d
00000060: ce3c bf3e 3c4f b2be 8d94 333e f061 d4be
00000070: 6210 25bc 280e 0abf 2a55 bd3d cba1 8abe
00000080: 31cb 18bf 00a4 c93d fcfa 373c 529e c73d
00000090: ef96 14be c639 9ebe 9279 ee3d 6629 e13e
000000a0: 6407 0fbf 51e6 7e3e d008 94bb 129c 77be
000000b0: d173 9bbe e7d1 e9be 0288 9c3e 4730 42be
-0.15370724 -0.042242374 -0.044579525 -0.08559851 -0.5200748 -0.3999819 0.280914 -0.4482883
-0.106985755 0.26762417 -0.51788884 0.104675986 0.013579672 0.16909681 -0.59419507 -0.2659311
-0.28707698 0.17870158 0.28021774 -0.33969593 -0.25169867 -0.14454852 0.17174628 0.04457136
0.37351078 -0.34826076 0.17537136 -0.4148097 -0.010074707 -0.5392785 0.092447594 -0.27076563
-0.59685045 0.09845734 0.011229273 0.09746994 -0.14510702 -0.30903453 0.116442814 0.43976897
-0.5587065 0.24892546 -0.004517652 -0.2418063 -0.30361798 -0.45667955 0.30572516 -0.18963729

convs.0.application__interacts__event.lin_root.weight f4 [48, 27]
00000000: e9ea 413d 2203 89bb ed29 623d dcba 00bd
00000010: 2163 923e e2e0 873d cf5a 803e 609e 0abe
00000020: 728c 063e 9906 97be bb85 e13d 8a1b 0dbe
00000030: f3f8 a7bd 5d4d 943c 43e3 46bc 58e1 1dbd
00000040: af4b 99bc a64a 953d 4454 01bc 0dc8 8b3c
00000050: f3bc 243e 75c1 e83d 8e8d d1bd 51a3 863e
00000060: b10b 1dbe e659 5c3e fa1c 073d c6bb d03d
00000070: 7069 10be 661f 413e c772 923e d5d4 193e
00000080: afc1 8f3d a8bc 233e 0ec4 4abe d480 56bd
00000090: e87d 7d3d 638f 5fbe 2858 21bd 5c53 d8bc
000000a0: 3029 7bbe 1a72 d0bd 936a 99bd 063e f1bd
000000b0: 1029 463d 1bba 023e 496b 11be a287 193e
000000c0: db6f 2dbe 6875 40bd 0f7a c63d 5e1e 4ebe
000000d0: cf95 0b3e bbbc b9bb 79a4 c2be aecc d4be
000000e0: 490d 90be 98e4 f6bd ee4a 0bbf ec1f 1c3e
000000f0: 8be0 b0be 4888 983e effa 1fbe 664b 1b3e
00000100: 9207 e43e 0e06 fe3e 58ce 043e 5376 df3e
00000110: 3dcb a83e 0d0b bb3e da74 0f3e 027f aebc
00000120: 515d 843d f7b4 113e fb24 403e f472 a33e
00000130: 8926 bfbd 45a5 af3e df75 2a3e 5ffb 173d
00000140: 4bef 29bb acd4 b6be 4391 5fbe 9ec2 26bd
00000150: 06a5 a8bd db82 23bd 825d fdbc 2561 b1bd
00000160: 06aa 85bd e9de 243c 5197 6ebd eecb b0be
00000170: 7869 e53e 0113 afbe bcfe 073f 2ddb 1a3e
00000180: 2676 fa3e 5b34 1a3e 514e e83e b3ce 8b3e
00000190: 2a13 083d c037 14be 2dab c53b d6d9 a0be
000001a0: e119 cd3e 7a30 713d fe20 46be 4ac4 5a3d
000001b0: 970e df3c 4a6f 2e3e 884f 25bd ab55 3cbd
000001c0: 8779 9cbc 1df1 5dbe bed9 44be 1167 1f3d
000001d0: df79 0b3e af84 86bd 69a4 a1bc 7a42 e4bc
000001e0: b9e0 823d ff02 dcbd 5945 0dbd 34a9 66be
000001f0: 518b 1dbe 9a29 52bd 1336 bebc 1c55 acbd
00000200: 94f8 973d 44a3 3d3e b813 27be af75 473e
00000210: 2dd6 19bd 5b3f f53d 6aa0 28be 4e69 b2be
00000220: 7e50 a6be fcb8 07bd a02e 13be f61a 5dbf
00000230: 94cd aa3e 5b53 f1be 6bab 593e 7425 c1b9
00000240: 349a 3c3e fd5b c03e 7a4b ebbd 9736 5c3e
00000250: 9f30 ae3e 3053 953e 9f64 a63e 3477 9b3e
00000260: 5742 5bbe 4eba 7fbe 92e9 a1bd 6a4f 43be
00000270: 6e8c 023f f0a4 a2bd bc32 dbbe 028c c53d
00000280: d5ed 1bbf 2ade f73e 79fd 893e d038 9f3e
00000290: 4d55 aa3e ae36 193f 6d48 173f 4587 ee3d
000002a0: 9cdb fd3e da2d 40bf b1f9 abbd afed 0c3e
000002b0: 4e39 1fbe 384c 91be 7b35 b9bd 2d78 9ebe
000002c0: 5f67 40be 6a0f 56be 02da ebbb f3ff 90bd
000002d0: 7e7a 7e3d ba0b 933e 8dce 9bbc d5f9 38bf
000002e0: a27d 2b3e 9bc4 b5be 554b 23be 9c2a 1e3e
000002f0: 4061 bd3e 9c5a 9cbe 73f0 46be 99a2 1abe
00000300: 5b87 d8be 9b49 3abf 1352 fc3d fc79 abbe
00000310: 68ec 2c3e f788 d7bd b7cb 883d 44b9 e03d
00000320: f66e e03d 1869 323e 62d8 9d3e b512 823e
00000330: 7cc5 b83e a3ed b03e 7a89 b0bd 945d 993d
00000340: b161 013e 1549 1cbd 4a83 fa3d 6b72 543e
00000350: dac9 33be e1e7 633e d206 edbe 93c9 183e
00000360: d257 70be 6321 8ebe 8bfb 84bd 0ca5 d4be
00000370: 7958 2cbf 5552 0b3e e2b4 e6be 275e 973e
00000380: ba52 0c3e a395 543e ad92 373e 12f0 033d
00000390: 35e4 7fbd fbd4 e53e d538 fcbc 929e b93d
000003a0: 4b33 043f 55b8 b5bd 8413 1cbd fbcd 103d
000003b0: 39f7 5f3e c913 1c3f 6013 823e 2a58 dcbd
000003c0: 5e79 893e 6f8f eebe 4b27 ed3e 5077 39bf
000003d0: c683 7dbe 6bd0 dabe ffae 12bf 2727 c9be
000003e0: ca31 d2bd 1977 e1be f2a6 853d 057c a9bd
000003f0: 926c 1bbe 925a 973d 6b2f 693e 3f4e 05be
0.04734317 -0.0041812817 0.055215765 -0.031428203 0.28591254 0.0663469 0.2506928 -0.13536978
0.13139513 -0.2949722 0.11011835 -0.13780037 -0.0820178 0.018103296 -0.012139144 -0.038544983
-0.018712847 0.07289629 -0.007893626 0.017063165 0.16087703 0.11365024 -0.102320775 0.26296476
-0.15336491 0.21518669 0.03298662 0.10192065 -0.14102721 0.18859634 0.28603193 0.15022595
0.07019364 0.15989935 -0.19801351 -0.052368954 0.06188765 -0.21832041 -0.039390713 -0.026406936
-0.2452743 -0.10178013 -0.074910305 -0.11779408 0.048379004 0.12766306 -0.14201082 0.14993146
-0.169372 -0.046986967 0.096912496 -0.20128772 0.13631366 -0.0056682504 -0.38016108 -0.41562408
-0.28135136 -0.120553195 -0.5441121 0.15246552 -0.34546313 0.29791474 -0.15623067 0.15165481
0.44537026 0.49613994 0.12969339 0.43644962 0.32967559 0.3653187 0.14009419 -0.021300796
0.06463111 0.14229189 0.18764107 0.3192364 -0.09333522 0.34305778 0.16646527 0.03710496
-0.0025929983 -0.3570913 -0.21832757 -0.040712945 -0.08234601 -0.039919715 -0.030928377 -0.08661107
-0.0652657 0.010062912 -0.058249775 -0.34530586 0.4480703 -0.34194186 0.5312307 0.15122671
0.48918265 0.15059035 0.4537225 0.27306136 0.0332214 -0.14474392 0.0060323686 -0.31416196
0.40058807 0.05888412 -0.19348523 0.053409852 0.027228637 0.17034641 -0.04035905 -0.045980137
-0.019100918 -0.21674009 -0.19223687 0.03891665 0.13620709 -0.06568276 -0.019731717 -0.02786373
0.06390519 -0.10742759 -0.034489963 -0.22525483 -0.15385176 -0.051309206 -0.023219144 -0.08414671
0.074204594 0.18519312 -0.16316116 0.19478486 -0.03755777 0.11974975 -0.16467443 -0.34845966
-0.32483286 -0.0331354 -0.14373255 -0.86369264 0.3335997 -0.47133908 0.21256797 -0.00036839733
0.18418199 0.3757018 -0.114890054 0.215052 0.3402147 0.2916503 0.32498643 0.30364382
-0.21412025 -0.24973413 -0.07905878 -0.19073263 0.5099553 -0.079416156 -0.42812145 0.09645845
-0.6090978 0.48411685 0.26951197 0.31098032 0.33268204 0.5984906 0.5909489 0.11646894
0.4958161 -0.75069964 -0.08397234 0.13762544 -0.15549204 -0.28378463 -0.09043404 -0.30951062
-0.18789433 -0.20904317 -0.0071976194 -0.070800684 0.062128536 0.28719884 -0.01901939 -0.72256213
0.16747144 -0.3550156 -0.15946706 0.15445942 0.36988258 -0.3053788 -0.19427662 -0.15101089
-0.42290768 -0.72768563 0.12320342 -0.33491504 0.16887057 -0.10524171 0.066794805 0.109728366
0.10958664 0.17422903 0.3082915 0.25404897 0.3608817 0.34556302 -0.086199716 0.07488552
0.12634923 -0.038155634 0.12232073 0.20746772 -0.17557469 0.22256424 -0.46294266 0.14920644
-0.23471001 -0.27759847 -0.064932905 -0.4153217 -0.673225 0.13605626 -0.45059878 0.2956402
0.13703433 0.20760207 0.17927046 0.03221137 -0.062473495 0.44889054 -0.030788818 0.09063448
0.51640767 -0.08873049 -0.03810455 0.03535269 0.21871652 0.6096769 0.25405407 -0.107590035
0.26850408 -0.46593806 0.4631904 -0.7244768 -0.24757299 -0.42737135 -0.5729827 -0.39287683
-0.10263403 -0.44036177 0.06525983 -0.08275608 -0.15178135 0.07390322 0.22771995 -0.1301813

convs.0.offer__interacts__event.lin_rel.weight f4 [48, 7]
00000000: 8682 62be c5fb 963e 160e b03e a322 66be
00000010: 868b d4bf 4951 003f a3e5 733e d688 a2be
00000020: ae6d cf3a c289 483e c2c5 b1bd 5fd0 d0be
00000030: ee60 823c 85ae 1abe 4df7 1bbf 565b 15bf
00000040: fef1 f5bd 46cb d1bd d1a5 b13f 03e2 8bbe
00000050: 4ba9 1b3e 91f5 703e ec18 0a3e ecdc 38be
00000060: 08f7 e1be 12b1 babf 6177 77be fdf1 093f
00000070: 41a5 e13e 3b3f 15bd ae8d 45be 0722 aabc
00000080: af71 25bf 62fd 653e 2335 0d3d 331d 69be
00000090: c0e3 ab3e 5985 b33e f25c d53e 0efa f33f
000000a0: 9ee5 8c3e 096c 44be 9bbb 3f3f f9eb bcbd
000000b0: 8006 c4be a733 4bbc d92e e6bf 8f97 d0bd
000000c0: c556 8abd ef8c 8cbe 6f8c 563e e0c5 3e3e
000000d0: bf0d 903e 94e1 d73f aaf1 2c3e 46bd 2c3e
000000e0: b28b 0e3f 636b 3cbe 4b93 8e3e d120 0e3d
000000f0: bbbf b13f e901 5d3e 6a2f 18bd 41b0 a3be
00000100: 8eef be3d 02fb 9dbe e329 debe fa5f 08bf
00000110: 5b73 183e f067 ce3d d49b b13e a72a 6f3e
00000120: a125 b0bd 01a0 a6be 7889 3dbd a38c bcbe
00000130: dc08 c5bd 53f8 40bf 1159 963e 58df ddbe
00000140: 6adb 0a3e daa7 fc3e 0233 0c3e d65d e4be
00000150: d735 9b3e 3df0 2f3f e89b 453e 85eb 093f
00000160: 0e33 84be c69f b03e 3691 263f 072e e93e
00000170: a99d 233e a26e f6bd afe9 f8bd b6cb 00c0
00000180: a2a5 afbe a1c9 413e 4685 c1be dd7f fdbe
00000190: dcfa fd3d 46d8 0c3e e9b1 573f efe8 123e
000001a0: c9bd fbbe 93f1 d3be 5808 bebe 42b5 bb3d
000001b0: e912 0e3d 036f fb3e 946d 19be 33d5 bf3c
000001c0: d6d0 84bd 6e10 dcbd e6d9 f23e 3147 71bb
000001d0: 41dc fc3f 752f ee3b 64d5 5a3e 90e4 583e
000001e0: b774 0bbf 0ec1 d2be 3930 c8be 6abd 97be
000001f0: ec81 4dbe abd6 a5be 7430 8abe bff7 063f
00000200: 505d 4b3f 1700 483e a3ff 683f befa 95be
00000210: cf3e 89bd ca1c 3a3f 56d9 f13e 5c25 953e
00000220: 73ae c73e c6b2 4dbf b15a bd3e b092 113e
00000230: 7f1f 103f 862e 8abe b017 1abe 8704 b53e
00000240: c5f2 06bd 3a2e 953e 10de d13e 96e3 dabc
00000250: 9707 0bbe 48e8 903e 898c d0bd 062e aa3b
00000260: b1aa 97bd ae07 ab3c cff8 24bf c19c 88be
00000270: d170 863e c177 b7bd 3860 0a40 15a4 d9bd
00000280: a8d8 733c 9802 84be aea0 7abd 97cf 03bf
00000290: 9950 943e a410 c63e 82a6 9b3e 860f c1be
000002a0: 7bef 37be 664d 01bd efae 26be a19b acbe
000002b0: bb71 0a3f 54fc f9bd c004 e03d e6a0 323d
000002c0: abdf c5be 971d 48be c341 acbe f082 03bf
000002d0: cee0 eb3c 85fa 6d3e 6808 b73e 8443 2dbe
000002e0: b6aa 98be 5b11 80be 3d6c 33be c297 7d3e
000002f0: d9bf 76bd e8d8 a43e 802b 7e3c 4ded 733e
00000300: f9f0 6f3e 7507 083f 4090 943e 758f 753e
00000310: 65a1 233f 1fd9 073e 2064 3a3e 140f 483e
00000320: 447f d4bf c6d2 503e 3ac5 b73e c5e9 1f3f
00000330: 47ec a6bd 136e 85bc 615b 8f3e 08d1 05c0
00000340: 8847 723e f620 d13d 4e6c 293e c06f f5bd
00000350: 2a61 88be 4c58 c2bd 1274 753f 545a 2fbe
00000360: c857 f0be 8c82 4cbe 2091 fc3d 1a9c 8e3e
00000370: cb96 603e d38a 72bf 9481 b2be 7b59 c43d
00000380: 5445 90be 7bcc 4abe 8538 fa3e a5ea 953e
00000390: cae5 293f 9476 dc3d e4b9 393e ff51 78be
000003a0: 355e 28be 3249 b33d 885e 8bbe 7cb7 093d
000003b0: a936 00be f57b 1cbe 7914 573e 8a2e 043f
000003c0: c429 043f f3ce c83e a157 cb3e 7434 133e
000003d0: a621 6ebe 1318 32be 82ea 973e 3913 2bbd
000003e0: 1f6c d2be 183a 8cbd cc95 0fbe 323a 4b3e
000003f0: 4704 d93e cce3 66bc 4997 6abd f6dc 88bd
-0.22120103 0.2948896 0.34385747 -0.2247415 -1.6605079 0.5012403 0.23818068 -0.31745023
0.0015825534 0.195838 -0.086802974 -0.40783975 0.01591536 -0.15105636 -0.60924226 -0.5834249
-0.12009047 -0.102438495 1.3878728 -0.2732087 0.15201299 0.23531176 0.1348607 -0.18053025
-0.44133782 -1.4585288 -0.24166633 0.5388487 0.4407139 -0.036437254 -0.19292328 -0.020768179
-0.6462659 0.22459939 0.034474503 -0.22765045 0.33572197 0.35062674 0.41672474 1.9060686
0.27518934 -0.19181837 0.7489564 -0.09224696 -0.3828621 -0.012402452 -1.7983047 -0.101851575
-0.06754831 -0.27451274 0.20952009 0.18630171 0.28135487 1.6865716 0.16889063 0.16869077
0.5568191 -0.1840034 0.2784675 0.034699265 1.3886636 0.2158276 -0.037154593 -0.3197041
0.09323035 -0.30855566 -0.43391332 -0.5327145 0.14887755 0.10078418 0.346892 0.23356114
-0.08600927 -0.32543948 -0.04627368 -0.36826047 -0.096208304 -0.7537891 0.29364827 -0.4333446
0.13560262 0.4934681 0.13691333 -0.4460284 0.30314514 0.6872595 0.19297755 0.53875
-0.25820202 0.34496897 0.65065324 0.4554293 0.15978111 -0.1203282 -0.121539466 -2.0124335
-0.34306055 0.18924572 -0.37796992 -0.49511614 0.12401363 0.13754377 0.84255844 0.1434667
-0.49168232 -0.41395244 -0.3711574 0.091654316 0.034686003 0.49108133 -0.14983207 0.023417091
-0.06485145 -0.10745321 0.47431868 -0.0036816115 1.9754716 0.007268841 0.21370465 0.2118094
-0.5447497 -0.41162914 -0.3909929 -0.296367 -0.20069093 -0.3239034 -0.26990092 0.5272178
0.7943926 0.19531284 0.9101507 -0.29292864 -0.06701433 0.7270018 0.47236127 0.29130065
0.39000282 -0.8035091 0.36983255 0.14216113 0.5629806 -0.2698862 -0.15048099 0.35355017
-0.032946367 0.2913683 0.40989733 -0.02671985 -0.13577114 0.28302217 -0.10183055 0.0051934747
-0.07405604 0.020877685 -0.6444215 -0.26682094 0.26257947 -0.08958388 2.1621227 -0.10626999
0.014883198 -0.2578323 -0.061188392 -0.5148863 0.2896774 0.3868457 0.30400473 -0.37707156
-0.17962448 -0.031567954 -0.1627767 -0.33712485 0.5407979 -0.12206331 0.10938406 0.043610476
-0.38647208 -0.19542538 -0.33643922 -0.5137167 0.028793719 0.23240097 0.357486 -0.16920286
-0.29817742 -0.2501324 -0.17521758 0.24764922 -0.060241554 0.32196736 0.015513301 0.23820992
0.23431768 0.5313638 0.29016304 0.23980506 0.63918144 0.13266419 0.18202257 0.19537002
-1.6601338 0.20392904 0.3589266 0.6246608 -0.08150535 -0.016287839 0.27999404 -2.0908833
0.236601 0.10211365 0.16545221 -0.11984205 -0.2663663 -0.094894975 0.95880234 -0.17124301
-0.46941972 -0.19971675 0.12332368 0.2785347 0.21932523 -0.9474308 -0.34864485 0.095873795
-0.28177893 -0.19804566 0.48871246 0.29280582 0.66366255 0.107648045 0.18137318 -0.24250029
-0.16442187 0.08754195 -0.2722056 0.03362225 -0.12520851 -0.15281661 0.21003903 0.5163351
0.5162623 0.3922039 0.39715293 0.14375478 -0.23255023 -0.17391996 0.29671103 -0.04176638
-0.41098115 -0.06847018 -0.14021987 0.19846418 0.42386076 -0.014092397 -0.057273183 -0.0668277

convs.0.offer__interacts__event.lin_rel.bias f4 [48]
00000000: ee4d 53be a0d5 96be 9689 ed3d 9608 f9bd
00000010: b5e9 d2bd 26d0 8f3e 11f9 cd3d e61b 9c3e
00000020: dba2 6dbe fa91 673e 1d64 833e 3c29 1abe
00000030: e924 cdbe e893 ae3e 1471 583e c95b 7ebe
00000040: 9ce9 ee3d fdf3 85be 688a 463e fdce a13e
00000050: e035 bcbe 0477 57be 5e99 4abe bb6b 31bd
00000060: 1984 9bbe d3c0 adbe 7dfe cebe 7091 99be
00000070: 0324 d23d 4a94 483e 9ce8 013e b0c6 42be
00000080: 5f4a b43d 1023 76be 91c6 2a3c 7ea9 933d
00000090: 1243 44be bb7f a3bc 6a06 813e 800d b43d
000000a0: 2efb 69be 8d29 85be 90e3 31be dc1f 5cbe
000000b0: 0d73 1f3e 5e13 813e ca21 1abe 3bf7 9dbd
-0.20635197 -0.29459858 0.11598508 -0.12159841 -0.10298482 0.28088492 0.10057271 0.30490035
-0.23206656 0.2261428 0.25662318 -0.15054792 -0.40067223 0.3409722 0.21136886 -0.24839701
0.11665651 -0.2616271 0.19388735 0.31603232 -0.36759853 -0.21041495 -0.19785067 -0.04331563
-0.3037422 -0.33936176 -0.40428534 -0.29993773 0.10260775 0.19587818 0.1268639 -0.19021106
0.08803248 -0.24036813 0.0104233185 0.072100624 -0.1916621 -0.019958368 0.25200206 0.087916374
-0.22849724 -0.26008263 -0.17371964 -0.21496528 0.15571232 0.25210088 -0.15051952 -0.07713171

convs.0.offer__interacts__event.lin_root.weight f4 [48, 27]
00000000: e2f0 8d3e 6dee 9b3e c5ce 9a3e b00c 643e
00000010: e963 0e3f 2999 adbd 6890 0d3e 2fa4 59bc
00000020: 4432 31be 4df3 8fbe 3cf9 f03c 26db a5bc
00000030: c868 473d efc2 de3d 91ba 9a3d 2427 ddbd
00000040: a482 0e3e 17e0 4bbd 62ef 493e a9de 66bd
00000050: ed3e 4abd e3c3 ddbc 4c1b 0b3e bf77 d23e
00000060: 626b 00be 40b9 703e 2cd3 8d3d 8ff2 283e
00000070: dce1 e23c 8091 1b3e 8c92 043d 07ec c83e
00000080: 1315 abbd 1214 703e 3a34 ecbd bd6a fa3d
00000090: 8a34 e4bd 5c7d e2bc 02ae fabd 61b6 d53d
000000a0: 9072 1dbe b16d e73b 25c4 45be 739f 84be
000000b0: 9944 e6bd 8f6a abbd 75c5 5dbc c642 01bd
000000c0: 3c8a 9abe 8781 c53d b134 8abd 06ed 8c3b
000000d0: 6c1a 473d b648 d2bd 4efa f0bd 4761 49bd
000000e0: ea53 7cbe bf50 80be fc99 21bf 9bfb 4d3b
000000f0: f941 a3be abc0 3b3e fb1b a6bc d491 d73d
00000100: 74d8 773e 302a 643e cffc 8d3e aaa6 a83e
00000110: fe23 9e3e 3771 053e 821d 4e3e c696 9ebc
00000120: 3aac 20bc 01f0 ebb9 4764 f33d 48b9 8a3e
00000130: 4794 2bbe ec50 c03d eff8 153e 3d74 adbd
00000140: 77ea 55be 6252 23bf 3b78 8bbe 99bb 18be
00000150: 1ea9 413d 0336 29bd e994 073e 420d b3bd
00000160: de32 5cbe fc50 123e ac15 42be 9d3d 0fbf
00000170: 31be e53e e983 b3be e59b 0b3f cc4a 893e
00000180: 395d 183f f8d5 9b3d 1db8 c13e 8690 0c3e
00000190: 5f5c 13be 2d04 9d3d d5a9 a8bc 9751 9dbe
000001a0: 6228 0f3e a44a 743e 3a3d 2b3d 6a8c 88be
000001b0: a17b bd3d 69fc 32bd 4814 87be 91cf 39bd
000001c0: 135e 473e 0382 9bbe 679e d3bd 3c8d 363d
000001d0: 9744 373d 3a13 ba3c d0aa 02be 8b5e 48be
000001e0: c083 763d 56db dbbd bfcc 4fbe 2cf9 c5bd
000001f0: 36d0 80bd b865 9abb e256 463d 5f3f 00be
00000200: 8ef2 2fbe 23cf 203d 39cf 0ebe 6b96 c2bd
00000210: b46a c23d 9f61 f43d 9e52 86bd 9ffa b4be
00000220: 52d3 cdbd 6604 acbe d878 b9be 00ec 3cbf
00000230: 50a1 c33d 4de0 1bbf 7999 df3e f744 023d
00000240: 0280 b53d fb50 4b3e 5c96 653e 2300 583d
00000250: b072 223f 3a61 253e 5787 be3e 3f6a 7f3e
00000260: 6a95 01be f31a c73d 05b8 73be 8e5b 083d
00000270: 5cbb a43e fa37 b5bd 67d0 d5be a70d a53e
00000280: fe67 e5be 2781 d73e 0161 d93e 8ad2 ea3e
00000290: 047c 253e 5ef9 153f 2472 0e3f 650d 2c3c
000002a0: cb5d 113f 7e45 21bf 7ef9 713d 81f4 fa3a
000002b0: 75d5 6cbe cfef 21be e63e 94bd 8c57 7bbe
000002c0: 48d0 0ebe f7eb e8bd 5474 48be 65c3 78be
000002d0: 035e fe3d 8ea8 2cbc ec2e 1f3e 4ac9 0fbf
000002e0: 4b75 ccbc 601b fdbe c123 3cbe 827f d73d
000002f0: 949d 033f d4a7 aabe 7681 b6be 0f77 8cbd
00000300: e89b d6be 3b16 67bf ccad 91bc 09eb 01bf
00000310: 1c25 fb3e c312 d2bd c813 b13b bfd0 c03d
00000320: 8159 093d c5f8 7a3e b85d e23e ecba dc3d
00000330: c9ac d13e 5ad7 1b3e b857 45bd 8b58 2c3e
00000340: 62c2 15bd 8270 d03d d7fa c53e e272 393e
00000350: 1c1e 1cbe d275 543e 6c83 cdbe 9569 c53e
00000360: c0ac 18be 23df f1bd fe53 46be bb62 8fbe
00000370: ac02 10bf 1c12 df3d e0b3 60be 4d6b ec3e
00000380: a8ae 9f3e bdcc b93e 63fc 1a3e e8dd 053e
00000390: c589 edbd e5e6 033f 0a8c 1f3e 96d1 143e
000003a0: a7de 9d3e d090 173e ca8e 97bd 8f7a 4fbc
000003b0: 994e 083e 0406 203f 372a 943e 54ae 18bd
000003c0: a2ed 903e dec8 c9be 66b5 893e fca1 d7be
000003d0: 29ed c2be 7d92 bebd 5320 b8be 6e33 c6be
000003e0: a28e 70be 2987 dfbe 987d 72bd 90e6 f1bd
000003f0: 4939 5ebe e7ec 61be 87da 14be 4d08 e2bd
0.27722842 0.30455342 0.30235878 0.22270465 0.556212 -0.084764786 0.13824618 -0.013283773
-0.17304331 -0.2811531 0.02941572 -0.0202461 0.04868391 0.108770244 0.07555116 -0.10798481
0.13917023 -0.049774256 0.19720224 -0.05636469 -0.049376417 -0.027070945 0.13584632 0.41106984
-0.12540963 0.23508167 0.069250435 0.16498779 0.027695589 0.15192223 0.03236632 0.39242575
-0.08353629 0.23445156 -0.11533399 0.1222739 -0.111428335 -0.027647667 -0.122402206 0.10435177
-0.15375733 0.007062637 -0.19313104 -0.259029 -0.11243553 -0.08369934 -0.013535847 -0.03155782
-0.3018359 0.09643846 -0.06748331 0.0043007163 0.048609182 -0.10267775 -0.11766492 -0.049165037
-0.24641386 -0.25061604 -0.63125587 0.0031430486 -0.3188627 0.18335216 -0.020277014 0.105258614
0.24203664 0.22281718 0.2773194 0.32939655 0.30886835 0.1303147 0.20128444 -0.019359004
-0.009806687 -0.0004500151 0.11884361 0.27094483 -0.16755782 0.093904346 0.14645742 -0.08469436
-0.20890222 -0.6379758 -0.27240166 -0.14915313 0.047280423 -0.041311275 0.13240398 -0.08742763
-0.2150378 0.14288706 -0.1895358 -0.5595339 0.44871667 -0.35061577 0.5453475 0.26814878
0.59517246 0.07609171 0.3783578 0.13727006 -0.14390706 0.07666812 -0.020588795 -0.3072631
0.13980249 0.23856598 0.041806437 -0.26669627 0.09252096 -0.04369775 -0.2638266 -0.045363966
0.1946948 -0.3037263 -0.10332947 0.044568285 0.044743147 0.022714246 -0.12760472 -0.19567315
0.06018424 -0.107351944 -0.20292948 -0.096666664 -0.06289713 -0.004711833 0.0484227 -0.12524174
-0.17182371 0.03926004 -0.13946237 -0.09501346 0.09493008 0.11932682 -0.06558727 -0.3534746
-0.10050072 -0.33597106 -0.3622501 -0.7379761 0.09552252 -0.6088913 0.43671778 0.03180405
0.08862306 0.1985511 0.22420639 0.052734505 0.6345625 0.1615037 0.3721263 0.24942873
-0.12654653 0.09721937 -0.23800667 0.03329044 0.32174194 -0.08848567 -0.4176056 0.32236978
-0.44805902 0.42090723 0.4245682 0.45863754 0.1616059 0.5858363 0.55642915 0.01050124
0.5678374 -0.6299666 0.059075825 0.0019146354 -0.23128302 -0.15814136 -0.072385594 -0.24545115
-0.1394664 -0.11373132 -0.19575626 -0.24293287 0.12420275 -0.010538233 0.15545243 -0.5616652
-0.024958273 -0.49434948 -0.18373014 0.10522367 0.5141232 -0.33331168 -0.35645646 -0.06858646
-0.41915822 -0.90268296 -0.017783068 -0.5074926 0.4905175 -0.10257485 0.0054039694 0.09414815
0.033532623 0.2450896 0.44212127 0.1077784 0.40952137 0.15218869 -0.04817936 0.16830651
-0.03656233 0.10177709 0.38667938 0.1811023 -0.15245861 0.2074807 -0.4013933 0.38557115
-0.14909649 -0.11810138 -0.19367978 -0.28005013 -0.56254077 0.10892126 -0.21943617 0.46175614
0.3118794 0.36289015 0.1513534 0.13072932 -0.11598543 0.5152419 0.15580764 0.14533076
0.30833933 0.14801335 -0.07400282 -0.012663498 0.13311233 0.6250918 0.28938457 -0.037275627
0.283063 -0.39411062 0.2689621 -0.42115772 -0.38071564 -0.09305284 -0.3596216 -0.38711113
-0.2349191 -0.43657807 -0.059201807 -0.118115544 -0.2170154 -0.22063027 -0.14536487 -0.110367395

convs.0.application__updates__application.lin_rel.weight f4 [48, 3]
00000000: 2906 823e 7229 c0be f859 00be 5958 23be
00000010: c771 e23a 1065 bdbe 79b1 9fbe 703a 3a3e
00000020: cf87 bfbe 846e 953e bfdb c93d 2768 edbe
00000030: f5be 6e3e 6241 0b3f 58e9 03be b880 10be
00000040: 0080 25be 1831 813e 2073 af3e 3492 b6be
00000050: 69b9 bfbc b071 65bd 8756 a2be 06ab 62bd
00000060: ec2a 08be bed4 edbd ae68 df3e 9e2b 40bf
00000070: fd95 b73d 92b5 d5bd 8ab6 d73e d7c9 923d
00000080: bb3e 5c3e c366 663e 3077 ae3d afc6 a13e
00000090: a5be 343e d135 59be afa7 f33d dda7 cabe
000000a0: 9f4c 7f3e 75b0 2e3e c76a b0be a845 d23e
000000b0: 4054 41bc b4da e0be 0032 0d3e 74e2 d53e
000000c0: 8d82 b0bc 7729 27bf 51e6 763e 332c 59be
000000d0: f000 9d3e fd02 543e e725 a63f 3410 333f
000000e0: cfd2 e2be 40ec 90bf b849 f3be 4b34 dc3d
000000f0: 1c15 01bf 0e05 05bf b732 d33b 3a2c edbe
00000100: 3058 a03e e398 c1bc e1d2 163f 0922 953e
00000110: 3fd8 733e be7c 1abf a3f6 01be 72e3 8c3e
00000120: 933f bebe 9ebf 4ebd ce70 d7be e690 b0be
00000130: de27 1dbe e707 653e 91bc 1fbf 1c1e 913e
00000140: 2020 15be cb7a bfbd 8a2e 92be 9dfc 1b3e
00000150: a7d3 ab3e 611d 96be a302 633e 8493 8ebe
00000160: 7b60 c8bd 1a35 a63e a9c3 98be 9e4e 94be
00000170: 4e0f 593c 4c8a 9bbe 63b2 7d3e 2bb7 d13e
00000180: 7f49 9dbd 7a1a a93c 3496 5b3e ea64 9fbe
00000190: 9f60 85bd 19b9 90be 3999 bdbe 8107 a73d
000001a0: 7efe 5e3e 2196 b03e e610 0f3e 615d 21bd
000001b0: 9562 6e3e 215a b8be 3fde 7c3e b0a3 813e
000001c0: 7e65 f73d 956d 25be 72f1 433e 0232 dbbe
000001d0: e48d 00bf 15b9 1cbf 3152 da3c 0158 0a3e
000001e0: e721 de3e bbc2 39bf 2524 853e 22e4 4dbe
000001f0: 73dd 903d 9f6a b83e 1d2b 56be 5027 23be
00000200: d819 983b d8ed 24be a7aa 9ebe 0bb4 f03e
00000210: 03c8 57be c468 68be 2ded 413d 1a1b bdbe
00000220: 014b 683d 6dcf 56be d44c 23bc a548 0dbf
00000230: 0347 073e 7550 f83e 5fca a4be 59b0 17bf
0.25395325 -0.3753162 -0.1253432 -0.1595167 0.001727634 -0.36991167 -0.31190088 0.18186355
-0.374083 0.2918588 0.09856366 -0.46368524 0.23315032 0.5439664 -0.12881982 -0.14111602
-0.1616211 0.25232768 0.3426752 -0.3565842 -0.02340384 -0.056016624 -0.3170664 -0.055338882
-0.13297623 -0.11612843 0.43634552 -0.75066555 0.08964155 -0.104350224 0.42131454 0.07167404
0.21508305 0.22500138 0.08518827 0.31596896 0.1765085 -0.21211936 0.118972175 -0.39581195
0.24931572 0.170595 -0.34456465 0.41068769 -0.011799872 -0.43916857 0.13788605 0.41774333
-0.021546626 -0.65297645 0.24111296 -0.21208267 0.30664778 0.20704265 1.2980317 0.699466
-0.4430146 -1.1322098 -0.4751718 0.107521616 -0.50422835 -0.5196084 0.0064452547 -0.46322805
0.31317282 -0.023632472 0.58915526 0.2912753 0.2381296 -0.6034659 -0.1269174 0.27517277
-0.37157878 -0.05047571 -0.4207825 -0.3448555 -0.1534724 0.22366296 -0.62397105 0.28343284
-0.14563036 -0.09349593 -0.2855113 0.15233083 0.33559915 -0.2931929 0.22168975 -0.2784692
-0.09784027 0.32462388 -0.29836777 -0.2896623 0.013248278 -0.3037895 0.2477508 0.4096006
-0.07680034 0.020642508 0.21444017 -0.3113168 -0.0651257 -0.28266218 -0.37030962 0.08155728
0.21776769 0.3448954 0.1397129 -0.039395694 0.23279794 -0.36006263 0.24694155 0.25320196
0.12079905 -0.16155083 0.19135073 -0.4281159 -0.5021651 -0.6121991 0.02665052 0.13510133
0.4338524 -0.7256276 0.2600414 -0.20106557 0.07073488 0.36018845 -0.20914884 -0.15932965
0.0046417527 -0.16106355 -0.30989572 0.47012362 -0.21072392 -0.22696215 0.04734533 -0.3693474
0.056712154 -0.20977564 -0.009967048 -0.5518897 0.13210683 0.48498884 -0.32185647 -0.5925346

convs.0.application__updates__application.lin_rel.bias f4 [48]
00000000: e150 07be d47a 173d 5f78 7dbe 74b3 cabe
00000010: 068b 11be 74c8 bdbd 2e7d 9f3e cc76 533e
00000020: 2ae5 5bbe b18b f9bd 21fa 443d 942d a6be
00000030: 442f 4b3e fc4b f6be 6494 fbbe 3166 9abe
00000040: dfda 2b3e efb8 43bd 203c 213f cd72 25be
00000050: 0c5c 35be ab3b f23c e1b7 1cbf c135 b23d
00000060: 6b89 b7bc 4c07 05bf 3f19 d2be 9f23 e6bd
00000070: 5187 5fbd 0826 933d 5ea8 2fbc 1719 5cbd
00000080: b517 abbe c0d2 e9be 62fa 913e b890 4bbe
00000090: 1dac 41be 0c5a 23be 236c 203e f7f4 d5be
000000a0: b581 df3d 397d 98bd 1288 fdbe 4264 8abe
000000b0: aac8 27be 6a2d 85be 5e77 d43d 1dd3 983d
-0.13214447 0.036982372 -0.24752949 -0.39590037 -0.1421319 -0.09266749 0.31150192 0.20650786
-0.21474138 -0.12184847 0.048090104 -0.32456648 0.19842249 -0.48104846 -0.4913665 -0.3015609
0.16782711 -0.04778379 0.6298237 -0.16157074 -0.17710894 0.029569468 -0.61218077 0.08701659
-0.022404393 -0.5196426 -0.41034886 -0.11237263 -0.054572407 0.07184988 -0.010721294 -0.053734865
-0.33416525 -0.45668602 0.2851134 -0.19879425 -0.18913312 -0.15952319 0.15666251 -0.41788456
0.109134115 -0.07445759 -0.49517876 -0.27029616 -0.16385141 -0.2601121 0.1037433 0.07462142

convs.0.application__updates__application.lin_root.weight f4 [48, 3]
00000000: 844c bbbe 2c0e e63e 353c 3bbe 48d7 b43e
00000010: f3b4 99bc a89c aebd efb8 18be 0a2c 9f3d
00000020: d3e8 7a3e e89a fd3d 5c47 923e cd52 b23e
00000030: 8aaf 7abe cc82 e93e bd89 c2be b481 513d
00000040: 5ccf 5ebe 65da 7b3e 7ec8 f4be 5b5c acbe
00000050: 87bd 3cbc b6d3 5f3d 36b9 42be fddb d43e
00000060: 2e3d a8bb 51ca 40be 9f7d 6ebe e299 0ebe
00000070: 3f3e f9be 7123 383d 5f4f 0abf d4c1 02bf
00000080: e8e0 ecbe 9b6e 72bd ac82 56be ff6b 3dbd
00000090: 3778 e9bd 2fb0 1ebe f653 16be 92d8 c83e
000000a0: c7cf 98be 54c3 9d3e 506f 593e 4633 76be
000000b0: 52a7 5b3e be39 b4bd 81ae d53d d53b c4be
000000c0: 6bdd 44bf 17cf 463e 4a2d edbd bd81 b63a
000000d0: 42dc d5be 7461 3c3d 2fad b03e d7ad a3bd
000000e0: eec4 19bf aab3 41bf 703a 60bf 56e0 39be
000000f0: 8d03 e73d 5ca8 babe 9efe 2a3e be92 c8be
00000100: 0bd4 813e d713 4ebe 9f55 7f3f 761c 6f3e
00000110: 7c0b 6f3e f4d5 e7bd 9dbf 1abf 6187 e1be
00000120: 3f51 46be 633b c03c a4a6 c53e ab55 65bd
00000130: 0212 063f 26f0 b03d af02 89bd 5672 a0be
00000140: 5c64 053f cffd 37bf 3d01 fc3d e121 f73e
00000150: 1cd4 a4be 55f7 a9be c2aa f7be 7971 233e
00000160: ebe9 61be c83a 3cbe 7174 f1bd 4725 983e
00000170: 4b5b e2bd 7f34 973e d775 dbbe 9722 06bf
00000180: 3088 ffbe dfb1 923d 796a 6cbd 197d 1d3f
00000190: afc3 043f 6fd5 d93e 2339 afbe 6c62 12be
000001a0: c430 15bf a052 2bbf 8584 a7be fa20 503e
000001b0: 6a1a 33be f20f 813e 41bb 89be f7b2 61bd
000001c0: 6bad f4be 95e4 403e 9551 023f 5c66 debd
000001d0: 4fd7 61be 8902 aa3e a9a0 d8bc b0d7 293e
000001e0: 8d1c 1d3f 94f3 44be 95f6 04bf de16 e2be
000001f0: 4cd3 07be 6b51 30be 8083 973e 8e6b ffbd
00000200: 71bc 693e 5be7 16bd c047 81be 55d8 93be
00000210: f43a abbe 0eff 413d 3b2b 6dbd 0d84 17be
00000220: 17df 2a3e 99e9 67be 144b 423e 8313 843e
00000230: a561 bfbe dfdb a93e d5c0 1dbf 81a4 59be
-0.36581814 0.44932687 -0.18284686 0.35320497 -0.018763041 -0.085259736 -0.14914297 0.07772072
0.24502878 0.12383062 0.28570068 0.34828797 -0.24481025 0.45607603 -0.3799571 0.051149085
-0.21758789 0.2459503 -0.47809213 -0.33664212 -0.011519796 0.054645263 -0.19015965 0.41574088
-0.0051342463 -0.18827178 -0.23290108 -0.13925889 -0.48680303 0.044955675 -0.5402736 -0.5107701
-0.4626534 -0.059187513 -0.20948285 -0.04624557 -0.11399882 -0.15496896 -0.14680466 0.3922773
-0.29846022 0.30813086 0.21233869 -0.24042997 0.21450546 -0.08800076 0.104336746 -0.38326898
-0.76900357 0.19414936 -0.11580904 0.0013924163 -0.41769606 0.045991376 0.3450713 -0.07992142
-0.60066116 -0.7566477 -0.8758917 -0.18151984 0.11279974 -0.36456573 0.16698691 -0.39174455
0.25357088 -0.20124756 0.9974002 0.233507 0.23344225 -0.11320105 -0.6044863 -0.44048598
-0.1936693 0.023465818 0.386037 -0.055989902 0.5237123 0.08639555 -0.06689965 -0.3133723
0.5210626 -0.71871656 0.12304924 0.48268035 -0.32193077 -0.33196512 -0.48372465 0.15961255
-0.22061889 -0.18381798 -0.117897876 0.2971594 -0.11052569 0.2953224 -0.42863342 -0.5239653
-0.4990859 0.071628325 -0.057718728 0.6151901 0.5186109 0.4254565 -0.3422328 -0.14295357
-0.58277535 -0.6692295 -0.32718292 0.2032508 -0.17490545 0.25207478 -0.26900676 -0.055102315
-0.47788557 0.18837197 0.50905734 -0.10859367 -0.2205479 0.3320506 -0.026443796 0.16586185
0.6137169 -0.19233543 -0.51938754 -0.4415807 -0.13264197 -0.17218558 0.29592514 -0.12471686
0.22825791 -0.03684173 -0.25250053 -0.28875986 -0.33443415 0.04736238 -0.057902556 -0.14796467
0.16686665 -0.22647704 0.18973953 0.25796136 -0.37379184 0.3317556 -0.61622363 -0.2125416
