models/BPI17/efg/exp_v2/no_subgraph_sampling/lr=0.001_hidden_dim=32/HigherOrderGNN_20230830_01h11m/state_dict_epoch14.pt (torch, 19339 bytes, 7 tensors)

convs.0.lin_rel.weight f4 [32, 27]
0	0xbd1df868	-0.038566977
1	0x3daa1a6c	0.08305821
2	0x3e0b132b	0.13581531
3	0x3d184788	0.037177593
4	0x3dd3d383	0.10343077
5	0x3d1182f2	0.03552527
6	0x3dc34682	0.09534933
7	0x3dc1c44e	0.0946127
8	0xbc619b3c	-0.013769921
9	0x3d82630d	0.06366549
10	0xbc87fbf2	-0.01659963
11	0x3af03f9c	0.0018329504
12	0xbce4e03d	-0.027938956
13	0x3e0d5bc4	0.13804537
14	0xbc202d91	-0.009776489
15	0xbdcd9ebd	-0.100400425
16	0x3dc1f90b	0.09471329
17	0x3e5a24a8	0.21303046
18	0x3a8976ee	0.0010487714
19	0x3dd44516	0.103647396
20	0x3cb407c1	0.021976354
21	0x3e2661c0	0.16248226
22	0xbd432411	-0.047641817
23	0xbe88b5f8	-0.2670133
24	0xbd9f2915	-0.07771508
25	0x3df88e3d	0.12136505
26	0x3c0e8e8d	0.008700979
27	0x3d93b795	0.0721275
28	0xbc502db0	-0.012706205
29	0xbe355d71	-0.17711426
30	0x3da5d931	0.080980666
31	0x3cfe1b0e	0.03101876
32	0x3b9425f9	0.0045211283
33	0x3d2b88fb	0.04187868
34	0x3d4d2fb7	0.050094333
35	0x3de0c506	0.10975079
36	0x3d921a50	0.07133925
37	0x3df4a6e5	0.11945895
38	0xbd874045	-0.06604055
39	0x3e4e99fd	0.2017593
40	0x3e71b9fe	0.23606107
41	0xbd931aa9	-0.071828194
42	0x3e920f0b	0.28527102
43	0xbe7908a2	-0.243197
44	0x3b841e07	0.0040319
45	0x3d3c2551	0.045934025
46	0x3e0aac96	0.13542399
47	0x3c817781	0.015804054
48	0x3a8a645a	0.0010558472
49	0x3d74fe99	0.059813116
50	0x3e69bd8f	0.22826217
51	0x3e976495	0.29568925
52	0xbcf42835	-0.029804328
53	0xbd435168	-0.047685057
54	0x3d945b27	0.072439484
55	0x3db00d13	0.08596244
56	0xbdf69560	-0.1204021
57	0x3dbff160	0.093722105
58	0xbe50166e	-0.20321056
59	0x3cf88531	0.030336948
60	0xbe73782b	-0.23776309
61	0x3cd46f06	0.025931846
62	0xbd9cdc30	-0.07659185
63	0xbcfee3bd	-0.031114453
64	0x3e039253	0.12848787
65	0x3ec3de9c	0.38255775
66	0x3d962aa1	0.073323496
67	0x3eb75af9	0.35811594
68	0xbe416b49	-0.18888582
69	0x3e592d70	0.2120874
70	0x3e89967f	0.26872632
71	0x3de35e9f	0.11102032
72	0x3d1028b0	0.035195053
73	0x3c9b7b9d	0.018979842
74	0x3dac0455	0.08399264
75	0xbe0a0568	-0.13478625
76	0x3d2b5f38	0.041838855
77	0x3ddb8fe5	0.10720805
78	0x3e40ebb5	0.18839915
79	0x3c9b1b18	0.018933818
80	0xbc104489	-0.008805403
81	0xbe137445	-0.14399822
82	0xbea013f9	-0.31265238
83	0xbe717fa2	-0.23583844
84	0xbe842e27	-0.2581646
85	0xbe70af00	-0.23504257
86	0x3cf8fb42	0.030393247
87	0xbe10bc3e	-0.14134309
88	0x3e07eb89	0.13273443
89	0xbd00bfd8	-0.031432956
90	0xbbdec568	-0.006798435
91	0x3d0d0b71	0.03443474
92	0x3e09c7aa	0.13455072
93	0xbb52f226	-0.0032187789
94	0xbc7890d0	-0.015171245
95	0xbb99cb8e	-0.004693455
96	0x3e4d0e16	0.20024905
97	0xbe2547c0	-0.16140652
98	0x3c82456b	0.015902242
99	0xbad37e03	-0.0016135577
100	0xbcbbe559	-0.02293651
101	0x3dd6f8e0	0.10496688
102	0x3db1b254	0.086765915
103	0x3c8269b6	0.015919548
104	0xbdb4cc25	-0.08828
105	0x3e6e094d	0.23245735
106	0x3d1e7e24	0.038694516
107	0xbb7681ac	-0.0037613912
108	0xbdd265a3	-0.10273292
109	0xbd4dade5	-0.050214667
110	0xbdd5bd3f	-0.104364865
111	0xbe14cbd0	-0.14530873
112	0xbd7dc0d8	-0.06195149
113	0x3bde1b78	0.006778177
114	0x3dcda7dc	0.10041782
115	0xbe07add3	-0.13249902
116	0xbdd5d2d1	-0.10440601
117	0xbe1baeb1	-0.15203358
118	0x3e718513	0.2358592
119	0x3e7d2711	0.24721934
120	0xbb34c0fd	-0.002758085
121	0x3c63a4f2	0.0138943065
122	0x3e9b1cab	0.3029531
123	0x3ec128c1	0.37726405
124	0x3e2e4646	0.17018995
125	0xbd3c650c	-0.045994803
126	0x3e1ddb97	0.15415798
127	0x3dcae152	0.09906258
128	0xbc8cc333	-0.017182922
129	0x3dda1962	0.10649373
130	0xbba7dda8	-0.005122859
131	0x3e0eb11f	0.13934754
132	0x3de4240d	0.11139689
133	0xbe056223	-0.13025717
134	0x3cce8d55	0.025213877
135	0x3df54f3f	0.119780056
136	0xbd830830	-0.06398046
137	0x3c353a7b	0.011061306
138	0xbd90e345	-0.07074598
139	0xbd848718	-0.064710796
140	0x3cc04021	0.023468079
141	0xbd0e87df	-0.034797546
142	0x3df0f959	0.11766309
143	0x3cda74b1	0.02666697
144	0xbb0b05ae	-0.0021213102
145	0x3c99817c	0.0187385
146	0x3e82ee8b	0.2557262
147	0x3bf60509	0.0075079245
148	0xbd1b05e3	-0.03784741
149	0x3e0a7506	0.13521203
150	0x3e9b05af	0.30277774
151	0x3e1d4b7b	0.15360825
152	0x3e1a6101	0.15076067
153	0x3dcd7b08	0.10033232
154	0xbd9e85e3	-0.077403806
155	0xbd1cd90f	-0.03829294
156	0x3d873942	0.06602718
157	0x3bcf10ed	0.0063191564
158	0x3df0fda8	0.11767131
159	0xbde73c89	-0.11290843
160	0x3ddc8ac8	0.10768658
161	0xbe11f39e	-0.14253089
162	0xbe4735b4	-0.1945408
163	0xbebcab3a	-0.36849385
164	0x3d2b0e9d	0.041761983
165	0xbc593524	-0.013257299
166	0x3d53a1e2	0.051668055
167	0x3dd08f3c	0.1018357
168	0xbbee1a90	-0.00726635
169	0x3d3bbb83	0.045833122
170	0xbd16fdbd	-0.036863077
171	0x3d99206a	0.074768856
172	0xbd31da95	-0.043421347
173	0xbd189fa5	-0.037261624
174	0xbe161e2a	-0.14659944
175	0x3ea04feb	0.31310973
176	0x3d71cb00	0.059031487
177	0x3e023eaf	0.12719224
178	0x3eb9e792	0.36309487
179	0x3e4d33cb	0.20039289
180	0xbdec2a1d	-0.1153147
181	0x3d711417	0.05885705
182	0x3c80df84	0.01573158
183	0xbeb45554	-0.3522135
184	0x3daf57cf	0.0856167
185	0xbe213bd3	-0.15745477
186	0x3e5438bd	0.20724769
187	0x3e0fdf85	0.1405011
188	0xbe54bd89	-0.20775427
189	0xbe165b06	-0.1468316
190	0xbe37a190	-0.17932725
191	0xbd51f8e4	-0.05126275
192	0x3e069392	0.13142231
193	0x3d8605cc	0.065440744
194	0x3972db9c	0.0002316073
195	0x3d8d20f7	0.06891053
196	0xbdacf99b	-0.08446046
197	0x3c078279	0.008270853
198	0xbd3e6406	-0.04648211
199	0x3d4d0937	0.050057616
200	0x3c98822e	0.018616762
201	0xbe4872b9	-0.19575013
202	0x3e316a07	0.17325602
203	0x3e09c673	0.13454609
204	0x3d87d58a	0.06632526
205	0x3dcf98fd	0.10136602
206	0xbcb6980d	-0.0222893
207	0x3d904e2e	0.070461616
208	0xbe06c0aa	-0.13159433
209	0xbe7ac1fa	-0.24488059
210	0xbd91ce2c	-0.07119402
211	0xba3d22a5	-0.000721494
212	0xbc875022	-0.016517702
213	0xbe26f0c3	-0.16302781
214	0xbda04686	-0.07825951
215	0xbe2b0e82	-0.16704753
216	0x3e6125ea	0.2198712
217	0x3dc169dc	0.09444019
218	0xbda140a9	-0.07873661
219	0xbc9b77a6	-0.018977951
220	0xbd309677	-0.043112244
221	0x3c9b4f56	0.018958729
222	0xbcd7c91a	-0.02634101
223	0xbb2eb3a1	-0.002665736
224	0xbc7be2f5	-0.015373935
225	0x3d4b6b63	0.04966296
226	0x3e6e770e	0.23287603
227	0x3dbf1258	0.09329671
228	0x3d02e2cb	0.031954568
229	0x3d5ce207	0.053926494
230	0x3db39572	0.08768739
231	0x3d8046c2	0.06263496
232	0x3d91dfef	0.0712279
233	0x3dfc2970	0.12312591
234	0x3d812165	0.063051976
235	0xbe519b80	-0.20469475
236	0xbdd254eb	-0.10270103
237	0x3a666650	0.00087890495
238	0x3c9794ac	0.01850351
239	0xbea18291	-0.31544927
240	0xbe645579	-0.2229823
241	0x3d476cf1	0.04868788
242	0x3dee1192	0.11624445
243	0xbdb0229d	-0.08600352
244	0xbcccd991	-0.025006087
245	0xbd5c0d81	-0.053723816
246	0xbe993d00	-0.29929352
247	0x3d9f98e5	0.07792834
248	0xbd45b27f	-0.04826593
249	0x3df52f90	0.119719625
250	0xbdd22e7c	-0.102627724
251	0x3dab744b	0.083717905
252	0xbe434c4f	-0.19072078
253	0x3d9cb57f	0.07651805
254	0xbc133ee2	-0.00898716
255	0xbd362f18	-0.044478506

convs.0.lin_rel.bias f4 [32]
0	0xbed122ec	-0.40846956
1	0x3e0c7ece	0.13720247
2	0xbeb4f111	-0.3534017
3	0x3ea6469f	0.32475755
4	0xbec9e257	-0.39430496
5	0xbecdcb6e	-0.40194267
6	0xbe77e56e	-0.24208614
7	0x3e4509cb	0.19242017
8	0xbd9800ad	-0.07422004
9	0xbeae76d8	-0.34075046
10	0xbe092f01	-0.13396837
11	0xbe3b0ce5	-0.18266638
12	0xbe97ce56	-0.2964961
13	0x3d1dc035	0.03851338
14	0xbe795af0	-0.24351096
15	0xbdc3eba4	-0.09566429
16	0xbe8307a3	-0.25591764
17	0xbe4e7bdd	-0.20164438
18	0x3df71feb	0.12066635
19	0xbe8eb287	-0.2787058
20	0xbcbb3aa3	-0.022855109
21	0xbe1048db	-0.14090292
22	0xbeaa16e3	-0.33220586
23	0x3dad8a39	0.084736295
24	0xbd6f2ecf	-0.05839425
25	0xbe871c41	-0.26388744
26	0xbed25a30	-0.41084433
27	0xbe01472e	-0.12624809
28	0x3e3bf9e3	0.18357043
29	0x3c32bd09	0.010909327
30	0xbdb67e4e	-0.089108095
31	0x3d84aa06	0.06477742

convs.0.lin_root.weight f4 [32, 27]
0	0x3eb58a13	0.35456905
1	0x3e9e710c	0.30945623
2	0x3bf52007	0.0074806246
3	0x3d5868f9	0.052834485
4	0x3ed670ca	0.41882926
5	0xbd62cb51	-0.05536968
6	0x3e992e58	0.2991817
7	0x3d73043f	0.05933022
8	0x3d9e47da	0.07728548
9	0xbdf72bb2	-0.12068881
10	0xbe358172	-0.1772516
11	0xbe0f1869	-0.13974155
12	0xbe8c9bfb	-0.27462754
13	0x3d35434c	0.044253632
14	0xbd4fcaed	-0.050730634
15	0xbd4512f9	-0.048113797
16	0xbdaf4320	-0.08557725
17	0x3e97d14b	0.29651865
18	0xbd073831	-0.033012573
19	0xbdf34010	-0.11877453
20	0xbdb0356e	-0.08603941
21	0xbd577a05	-0.0526066
22	0xbdbbc91e	-0.091692194
23	0x3e86fb4b	0.26363596
24	0x3e8b8805	0.27252212
25	0x3ef8d6b3	0.48601303
26	0xbd93e3da	-0.072211936
27	0xbe8c6a8a	-0.27425033
28	0xbe2ea2fc	-0.17054361
29	0x3c63ac7e	0.013896106
30	0x3bbfe279	0.005855855
31	0xbe98913b	-0.29798302
32	0xbce144a0	-0.027498543
33	0xbe080dc6	-0.13286504
34	0x3e8de454	0.27713263
35	0x3d23ea08	0.04001811
36	0xbd11bee7	-0.03558245
37	0x3dccd318	0.100012004
38	0x3e8f1437	0.2794511
39	0x3e00c85e	0.12576434
40	0x3e875b34	0.2643677
41	0x3da45b2b	0.080252014
42	0x3e2a7cf9	0.16649236
43	0xbe22ff46	-0.15917692
44	0x3d359dd5	0.044339973
45	0x3d24b50b	0.04021172
46	0x3ba7c73b	0.0051201857
47	0x3d1ed224	0.038774624
48	0x3dc27264	0.094944745
49	0xba8f11cf	-0.0010915342
50	0xbea06f13	-0.31334743
51	0xbe82bb3f	-0.25533482
52	0xbafd2bea	-0.0019315456
53	0x3e8626c9	0.26201466
54	0x3e548e57	0.20757423
55	0xbdf0477b	-0.11732384
56	0xbe179060	-0.14801168
57	0x3dc65a2a	0.09685166
58	0x3caf4e9a	0.021399785
59	0x3d168ce8	0.036755472
60	0x3c58b91a	0.013227725
61	0x3e2a0be6	0.16606101
62	0x3ddb720f	0.10715114
63	0x3db9ddd8	0.090755165
64	0xbd621734	-0.05519791
65	0xbcd40736	-0.025882345
66	0x3ddbd430	0.10733831
67	0x3e0277bc	0.12740988
68	0xbe826571	-0.2546802
69	0x3d8a4347	0.067511134
70	0xbd0e6cca	-0.034771718
71	0x3dc0a559	0.094065376
72	0x3cd4c93b	0.02597486
73	0xbc60d5e2	-0.013722869
74	0x3de59b67	0.11211281
75	0x3e0bfcb0	0.13670611
76	0x3d58708d	0.05284171
77	0xbdb2824f	-0.08716261
78	0xbef7c11f	-0.48389527
79	0x3dc504f8	0.09620088
80	0xbe2f261a	-0.17104378
81	0xbe81f440	-0.2538166
82	0xbeb7f29d	-0.35927287
83	0xbdb3119f	-0.08743595
84	0xbe29e923	-0.16592841
85	0xbe319d4a	-0.17345157
86	0xbca46e88	-0.020072237
87	0xbd87252e	-0.06598888
88	0xbe9d2bd6	-0.30697507
89	0x3dad2dbd	0.084559895
90	0x3e1c9f4a	0.15295139
91	0x3e4a1e9f	0.19738244
92	0x3d86e0f0	0.06585872
93	0xbe135525	-0.14387949
94	0xbbbf164c	-0.0058315154
95	0x3e756fde	0.23968455
96	0x3ba79cba	0.005115119
97	0xbe072871	-0.13199021
98	0x3e01b2d7	0.12665878
99	0x3d0f6fe7	0.035018828
100	0xbd4bea2c	-0.04978387
101	0xbe75cd43	-0.24004082
102	0x3e858eb7	0.26085445
103	0xbdafa42b	-0.085762344
104	0x3e85e583	0.26151666
105	0x3e7b7a12	0.24558285
106	0xbe178e45	-0.14800365
107	0xbcc87d39	-0.024473773
108	0x3e1e49be	0.15457818
109	0x3d0cd6d0	0.03438455
110	0x3e471d93	0.19444875
111	0x3e13a6ac	0.14419049
112	0x3dd53fc7	0.10412555
113	0x3cf11430	0.029428571
114	0x3e141541	0.14461233
115	0x3daa6a8b	0.08321103
116	0x3e0addbc	0.13561147
117	0xbe047036	-0.1293343
118	0xbcb9ce9e	-0.02268153
119	0xbd9ed850	-0.07756102
120	0xbb6fc5a1	-0.0036586302
121	0xbe1c6b6c	-0.15275353
122	0x3c202c7f	0.009776234
123	0x3e3e84db	0.18605368
124	0x3de5e2d1	0.112249024
125	0xbe1ba77c	-0.15200609
126	0xbddd82d2	-0.108159676
127	0xbbc52202	-0.006016017
128	0xbe8cdc15	-0.2751166
129	0xbe0b59c5	-0.13608463
130	0x3d0f639b	0.0350071
131	0x3d67c026	0.05657973
132	0x3e9b5a3a	0.30342275
133	0xbe11537c	-0.14192003
134	0xbe7b3d5d	-0.24535127
135	0x3e39cff4	0.18145734
136	0x3e42ca8f	0.19022582
137	0xbe096a26	-0.13419399
138	0x3e8f3322	0.279687
139	0xbcc415c6	-0.023936164
140	0x3d97008f	0.073731534
141	0x3c86e863	0.016468232
142	0x3df64552	0.120249406
143	0x3dad4f5d	0.08462403
144	0x3e4a528e	0.19758055
145	0x3e781fc7	0.24230872
146	0x3e4d6905	0.20059593
147	0x3dd6654a	0.10468538
148	0xbc2ea7bc	-0.010660108
149	0x3ca995be	0.020701285
150	0x3df055bc	0.117351025
151	0x3d20f304	0.039294258
152	0x3e3fc808	0.1872865
153	0xbdd397ac	-0.103316635
154	0x3dcb3008	0.099212706
155	0x3d22abd4	0.03971465
156	0x3d0232e6	0.03178682
157	0xbbd9b56a	-0.0066439407
158	0x3d0c071e	0.034186475
159	0x3e52969b	0.20565264
160	0xbe7c8c08	-0.24662793
161	0x3d57c76a	0.05268041
162	0x3d8b71ff	0.068088524
163	0xbd044557	-0.03229269
164	0x3d26fafc	0.0407667
165	0xbca9e2cf	-0.020738034
166	0xbc17b7b5	-0.009260108
167	0x3d653e74	0.055967763
168	0x3dd001fe	0.1015663
169	0x3e1cac03	0.15299992
170	0x3de25fe7	0.11053448
171	0x3dae736d	0.085181095
172	0x3d8e4239	0.06946225
173	0x3dd3c2f0	0.10339916
174	0xbe1cc067	-0.1530777
175	0xbc33ae86	-0.010966903
176	0x3d045f77	0.032317605
177	0x3e0bd1c5	0.1365424
178	0xbdabb1ef	-0.083835475
179	0x3ddd6b6d	0.108115055
180	0x3c7f528b	0.015583645
181	0x3e03b1de	0.1286082
182	0x3cffe8c0	0.031238914
183	0xbe41f066	-0.18939361
184	0xbcfaa5ad	-0.030596578
185	0xbef1a01f	-0.47192475
186	0x3ec19053	0.37805423
187	0xbe7bb1f0	-0.24579597
188	0xbc569631	-0.013097332
189	0xbe82478a	-0.25445205
190	0xbeb16dce	-0.34654087
191	0xbec6364b	-0.38713297
192	0xbeb875ff	-0.36027524
193	0xbcbe0ed7	-0.023200436
194	0xba1f86ae	-0.00060854375
195	0xbe5b89d9	-0.21439303
196	0x3e6aeb88	0.2294141
197	0x3d79a52b	0.060948532
198	0x3dbd91a4	0.09256294
199	0xbde0e279	-0.10980696
200	0x3df58ccd	0.11989746
201	0x3e75cc18	0.24003637
202	0x3e8aa2ce	0.27077335
203	0xbe4fc64b	-0.20290487
204	0xbc834060	-0.016021907
205	0x3e3e2c3e	0.18571565
206	0x3e12de6a	0.14342657
207	0xbea15b20	-0.31514835
208	0xbe3ac6e7	-0.18239938
209	0xbdaa0987	-0.083025984
210	0x3d40f09b	0.04710446
211	0x3d2623f4	0.04056163
212	0xbd96cc9c	-0.07363245
213	0x3ec7076f	0.3887286
214	0xbd7ff7ca	-0.06249217
215	0x3d4db49c	0.05022107
216	0x3e7679ee	0.2406995
217	0x3dcf85be	0.10132931
218	0x3e1f35ed	0.15547915
219	0x3c0fc2ea	0.0087744985
220	0x3e0b5ccb	0.13609616
221	0xbd0d5f54	-0.03451474
222	0x3e838b87	0.25692388
223	0x3e001fa9	0.12512077
224	0x3e513021	0.20428516
225	0x3e4ae768	0.19814837
226	0x3ca05368	0.019571021
227	0x3db39e40	0.08770418
228	0xbe04e551	-0.12978102
229	0xbe16b17e	-0.14716145
230	0x3e2153ff	0.15754698
231	0x3d06e575	0.03293367
232	0x3bdbaa74	0.006703669
233	0xbda92b52	-0.08260216
234	0x3cc36456	0.023851555
235	0x3ceb6575	0.028734902
236	0xbc92644c	-0.01787009
237	0x3dc9f405	0.09860996
238	0x3d7c1041	0.06153894
239	0x3f0598a4	0.52186036
240	0x3d53971c	0.05165778
241	0x3ed3056c	0.41215074
242	0xbbec2b52	-0.0072073126
243	0x3c3fa81a	0.011697793
244	0x3deddfe2	0.11614968
245	0x3b40bc5a	0.0029409141
246	0x3de3880a	0.11109932
247	0x3ebcd08f	0.36877868
248	0xbdbe2306	-0.09284024
249	0x3d044648	0.032293588
250	0x3ac9f5d6	0.0015408348
251	0xbda3bb27	-0.07994681
252	0x3d6dce1d	0.058057893
253	0xbbc90c4e	-0.0061355
254	0xbd1c8aa8	-0.03821817
255	0xbe83f01f	-0.25769135

convs.1.lin_rel.weight f4 [32, 32]
0	0xbe1b7b9d	-0.15183873
1	0xbd285447	-0.041096
2	0xbd11e9f3	-0.035623502
3	0x3e20bf63	0.15698008
4	0xbc9e840f	-0.01935008
5	0x3dfc8b82	0.123312965
6	0xbda12744	-0.078688174
7	0x3bc0b7bb	0.0058812774
8	0x3d2bf7a3	0.04198421
9	0xbdf6bfdb	-0.12048312
10	0x3da1d566	0.07902031
11	0xbacdd6a3	-0.0015704226
12	0xbd7ded3a	-0.061993815
13	0xbc3fa702	-0.011697533
14	0x3e2ec46c	0.17067116
15	0x3c7d9537	0.01547747
16	0x3c0083ce	0.007843925
17	0xbceb11c6	-0.028694998
18	0xbe428125	-0.18994577
19	0x3e3f913a	0.18707743
20	0x3b8048cf	0.0039149295
21	0x3bfa8e42	0.007646353
22	0xbd932f4d	-0.07186756
23	0x3dd02fd6	0.10165374
24	0xbdbf937f	-0.093543045
25	0xbd05ea40	-0.0326941
26	0x3e1f5fac	0.1556384
27	0xbe258cea	-0.16167036
28	0xbe0621f1	-0.13098885
29	0x3d58c112	0.0529185
30	0xbe02915f	-0.12750767
31	0x3ced0022	0.028930727
32	0x3e00f0a8	0.12591803
33	0x3d422cc9	0.04740599
34	0xbd4322f2	-0.04764075
35	0x3e09a060	0.13440084
36	0x3e207539	0.15669717
37	0x3d840c99	0.06447715
38	0xbdf97337	-0.121801786
39	0xbdbdaf16	-0.092619106
40	0x3c13f3ab	0.009030263
41	0x3ccf03c1	0.025270345
42	0xbbfccc2f	-0.0077147703
43	0xbe0430a8	-0.12909186
44	0xbd0b03d6	-0.033939205
45	0xbdf7a020	-0.12091088
46	0xbe16f045	-0.14740093
47	0x3d2fe7e7	0.04294577
48	0x3d6478c5	0.055779237
49	0xbdbc135d	-0.09183381
50	0x3c4d1b97	0.012518785
51	0xbe6e90b6	-0.2329739
52	0xbe23fec6	-0.16015157
53	0xbe5d13e0	-0.21589613
54	0xbda9126f	-0.08255469
55	0xbeae59c6	-0.34052867
56	0xbc4278b2	-0.011869596
57	0xbe331597	-0.17488705
58	0x3d8fa93e	0.07014702
59	0x3dd97164	0.10617331
60	0x3d8f5a4c	0.06999645
61	0xbd5def7a	-0.05418346
62	0x3c6aa533	0.014321613
63	0x3e12222c	0.14270848
64	0x3e0ffe39	0.14061822
65	0xbce92123	-0.028458184
66	0x3c80b2a6	0.015710186
67	0x3de920cd	0.113832094
68	0x3ca59692	0.0202134
69	0xbdba0f6e	-0.09084974
70	0x3d3cda68	0.046106726
71	0x3d13c2dd	0.036074508
72	0xbdae7cdc	-0.08519909
73	0xbdb64684	-0.089001685
74	0xbcaac246	-0.02084459
75	0x3e00622d	0.12537451
76	0xbdab9295	-0.08377568
77	0xbe32114d	-0.17389412
78	0xbd32de80	-0.043669224
79	0xbd333ea5	-0.043760914
80	0xbcfc3b7e	-0.030790087
81	0x3df6424b	0.12024363
82	0x3dfcedba	0.1235003
83	0xbe0405f8	-0.12892902
84	0x3d083032	0.033249088
85	0xbe06cef7	-0.13164888
86	0x3d6d3038	0.057907313
87	0x3ccfcea9	0.025367098
88	0xbd882e51	-0.06649459
89	0x3d76406c	0.06012003
90	0x3e16883e	0.1470041
91	0xbda87a09	-0.08226401
92	0xbbf78dc8	-0.0075547434
93	0x3da64ceb	0.0812014
94	0x3dbac078	0.09118742
95	0xbe8416ee	-0.25798744
96	0x3dc28adb	0.09499141
97	0x3e0b2c48	0.1359111
98	0x3dae9337	0.08524173
99	0x3debdf63	0.11517217
100	0xbb70ed13	-0.00367624
101	0x3de3b7b4	0.11119023
102	0xbe6ace57	-0.22930275
103	0xbdb3a318	-0.08771342
104	0x3d09dadf	0.033655997
105	0x3c20ddc5	0.009818499
106	0xbdbbf659	-0.091778465
107	0xbe253c11	-0.16136195
108	0x3d23503e	0.039871447
109	0x3e25abe7	0.16178857
110	0xbd13c90f	-0.036080416
111	0x3d65c4b0	0.05609578
112	0x3b4c9146	0.003121452
113	0x3d5af9ff	0.05346107
114	0x3e2fc6f8	0.17165744
115	0xbe8a36be	-0.2699489
116	0x3dc9c1b8	0.09851402
117	0xbd1080af	-0.035278972
118	0x3d76c7b9	0.060249064
119	0xbda92fa5	-0.082610406
120	0xbe0c1b1d	-0.13682218
121	0x3d68bec9	0.056822572
122	0x3dbea3d4	0.093085915
123	0x3d82cf36	0.063871786
124	0x3e3f6220	0.18689775
125	0x3d728e58	0.05921778
126	0xbdf5cf8c	-0.12002477
127	0xbb1d5959	-0.0024009554
128	0x3de8b348	0.1136232
129	0xbb393bac	-0.0028264327
130	0xbdaa083a	-0.0830235
131	0x3e357cff	0.17723463
132	0xbe48372a	-0.19552293
133	0x3d2ed81c	0.042686567
134	0x3d16d8e9	0.036827955
135	0x3dd60ec4	0.10452035
136	0x3e0dae82	0.138361
137	0xbd13e652	-0.036108322
138	0x3d9db3f0	0.07700336
139	0x3e691933	0.22763519
140	0xbdaf52d4	-0.0856072
141	0x3c98928d	0.018624568
142	0x3e2533ef	0.16133092
143	0x3ccf3d1e	0.025297698
144	0xbe4a1692	-0.19735172
145	0xbdb7ce7a	-0.08974929
146	0xbba4920b	-0.0050222925
147	0x3e1b0541	0.15138723
148	0xbce628bc	-0.028095596
149	0xbd25e6f7	-0.04050347
150	0xbe5219f6	-0.20517716
151	0x3d9e4826	0.07728605
152	0xbe0161c1	-0.12634946
153	0xbdea3516	-0.114359066
154	0x3db24ad5	0.08705679
155	0x3ca8b438	0.020593747
156	0xbd73fee1	-0.059569243
157	0x3e0a8906	0.13528833
158	0xbd867a36	-0.06566279
159	0xbdd9dc01	-0.106376655
160	0xbb6dede6	-0.0036305129
161	0xbe14bfb9	-0.14526261
162	0xbd932ed6	-0.071866676
163	0xbea2ec4b	-0.31820902
164	0xbd9fb198	-0.07797545
165	0xbe940eb9	-0.28917482
166	0x3e619446	0.22029218
167	0x3dd760a7	0.10516482
168	0xbd8d845e	-0.06910013
169	0x3dfcfefd	0.12353323
170	0x3c6a6304	0.014305834
171	0xbd9c2ce0	-0.07625747
172	0xbd2ec267	-0.042665865
173	0x3dafb99c	0.08580324
174	0xbe7bc34b	-0.24586217
175	0xbc597d71	-0.0132745365
176	0xbd7d5ac2	-0.06185413
177	0x3e259fe6	0.16174278
178	0x3bd74c84	0.0065704007
179	0xbbcf5b84	-0.006328048
180	0x3e3de27a	0.18543425
181	0x3e439d63	0.19103007
182	0x3e3169c1	0.17325498
183	0x3c9be016	0.019027751
184	0xbcc17db5	-0.023619512
185	0x3da2b483	0.07944586
186	0x3e107f7f	0.14111136
187	0x3e5fae49	0.21843828
188	0xbbc5a17e	-0.0060312143
189	0x3e45cc22	0.19316152
190	0xbe9ced4a	-0.30649787
191	0xbe3930ea	-0.18085065
192	0x3e0a94dc	0.13533348
193	0x3e4061dd	0.18787332
194	0xbd865ad6	-0.06560294
195	0x3ad1b881	0.0016000421
196	0x3dfdd98a	0.12395008
197	0xbe9c473b	-0.30523095
198	0x3da41560	0.080118895
199	0xbe59c29f	-0.21265648
200	0x3d7078e2	0.058709033
201	0x3e6bd0bf	0.23028849
202	0x3e1f287a	0.15542784
203	0x3e1f83a8	0.15577567
204	0xbeeb8d8e	-0.46006435
205	0xbd10372d	-0.03520887
206	0xbe73cd2f	-0.2380874
207	0x3e34e617	0.17665897
208	0x3d6cec74	0.057842687
209	0xbddf5460	-0.10904765
210	0xbe5bc421	-0.21461536
211	0xbe850e55	-0.25987497
212	0xbd7643dd	-0.060123313
213	0xbdba402a	-0.090942696
214	0xbd94e548	-0.072702944
215	0xbeb5aff8	-0.35485816
216	0xbd64c922	-0.055855878
217	0xbe148580	-0.14504051
218	0xbe904e0d	-0.28184548
219	0x3d845c73	0.06462946
220	0xbcfa0b90	-0.030523092
221	0xbd12f327	-0.03587642
222	0x3db9ebb5	0.09078161
223	0xbdb07c16	-0.086174175
224	0xbedc4847	-0.43023893
225	0x3e519d62	0.20470193
226	0x3e9cc3a7	0.3061802
227	0xbd1499b9	-0.036279414
228	0x3db67b33	0.08910217
229	0xbe07dabd	-0.13267036
230	0x3d6ef690	0.05834061
231	0xbdef2387	-0.11676698
232	0xbd1428cf	-0.03617173
233	0x3d7c03c7	0.06152704
234	0xbe1d6b44	-0.1537295
235	0x3df563b2	0.11981906
236	0x3da224b4	0.07917157
237	0x3e5ef66b	0.21773688
238	0x3cf20edb	0.0295481
239	0x3d5ecb7c	0.054393277
240	0xbe3d981a	-0.18515053
241	0xbd6ba9f2	-0.05753512
242	0xbe1c8fc1	-0.15289213
243	0x3e3c9183	0.18414883
244	0xbe5c6a5e	-0.21524951
245	0x3de6b456	0.11264865
246	0x3e8e6c86	0.27817172
247	0xba557d6c	-0.00081439945
248	0xbd3755da	-0.04475961
249	0x3d86120a	0.065464094
250	0xbdf338e0	-0.118760824
251	0x3d3b02d8	0.04565701
252	0xbe17eb1f	-0.14835785
253	0x3ca7e2ea	0.020493943
254	0x3dbc0896	0.09181325
255	0xbd108662	-0.035284407

convs.1.lin_rel.bias f4 [32]
0	0x3eb3bbfe	0.35104364
1	0x3e95a54d	0.29227677
2	0x3e5e2522	0.21693853
3	0xbd8a67a7	-0.06758051
4	0x3ca2400c	0.01980593
5	0x3e8073cd	0.2508835
6	0x3e718c61	0.23588707
7	0x3e522861	0.20523216
8	0xbcef10ef	-0.02918288
9	0x3e989b01	0.2980576
10	0x3e10d2ad	0.14142866
11	0xbe67ba8a	-0.22629753
12	0x3e64d73e	0.22347733
13	0x3dbbf930	0.09178388
14	0x3cfa5ebe	0.030562755
15	0xbdcc82d6	-0.099858925
16	0xbdddc9b2	-0.10829486
17	0x3e86e279	0.2634466
18	0x3e4d7f9a	0.20068207
19	0xbda741ec	-0.081668705
20	0x3defcd7d	0.11709116
21	0x3e668f1e	0.22515532
22	0x3dee0ead	0.11623893
23	0x3e1e1217	0.15436588
24	0x3da015b3	0.07816639
25	0x3e824b11	0.25447896
26	0x3e6e552a	0.23274675
27	0xbe1b3506	-0.15156946
28	0x3dc0daf5	0.09416763
29	0x3cf77a16	0.030209582
30	0xbd0dffc5	-0.03466775
31	0x3e1322af	0.143687

convs.1.lin_root.weight f4 [32, 32]
0	0xbea1678a	-0.31524307
1	0x3e2f1636	0.17098317
2	0xbe43fe65	-0.19140013
3	0x3e3753b5	0.17903025
4	0xbcac5c22	-0.021040026
5	0xbd6c4f98	-0.057693094
6	0x3dcd35b2	0.10020007
7	0x3e604a70	0.21903396
8	0xbc94e36a	-0.018174846
9	0x3dfa752e	0.122293815
10	0xbdf296ce	-0.1184517
11	0x3c1b5944	0.009481732
12	0xbd3df1c2	-0.046373136
13	0x3e25baf9	0.16184606
14	0xbe3ec1f7	-0.18628679
15	0x3e05b3c0	0.1305685
16	0xbe3ae1e4	-0.18250233
17	0xbe105b9b	-0.14097445
18	0x3e01dc3a	0.12681666
19	0xbefb94b8	-0.491369
20	0x3d6d551a	0.057942487
21	0xbe3325b1	-0.17494847
22	0xbe00e386	-0.12586793
23	0xbe8877b1	-0.26653817
24	0xbe581751	-0.21102645
25	0x3c38171e	0.01123598
26	0x3a3cd264	0.00072029815
27	0x3dbb29b4	0.091388136
28	0x3e286c57	0.16447578
29	0x3d7188e6	0.058968447
30	0x3ce58a57	0.028020067
31	0x3d5e2e22	0.054243214
32	0xbd018068	-0.0316166
33	0xbd57d96e	-0.05269759
34	0x3e4385ab	0.19093959
35	0x3d9c90aa	0.0764478
36	0x3e02c6bd	0.12771125
37	0x3d1498f0	0.036278665
38	0xbdd5c071	-0.10437096
39	0x3d80119f	0.06253361
40	0x3e5c949e	0.21541068
41	0xbe74539b	-0.23860018
42	0xbde5f5c7	-0.11228519
43	0x3e315e1d	0.17321058
44	0xbe35c1b1	-0.17749669
45	0xbecaf337	-0.39638683
46	0xbe1fea33	-0.15616684
47	0x3e1d823f	0.15381716
48	0x3e7861ee	0.24256107
49	0xbdc718b9	-0.09721512
50	0x3d959960	0.073046446
51	0xbe31c156	-0.17358908
52	0xbdb2278c	-0.08698949
53	0x3e149cf2	0.14512995
54	0x3c0214c5	0.007939522
55	0xbd3bd44f	-0.04585677
56	0x3e2ed30f	0.170727
57	0xbbb9c5e8	-0.005669344
58	0x3e0de443	0.13856606
59	0xbd986b71	-0.07442368
60	0x3d577837	0.05260488
61	0x3c76a2f9	0.015053504
62	0xbe056bf1	-0.13029458
63	0x3e4216b0	0.18953967
64	0xbe83750f	-0.25675246
65	0xbe1df0ba	-0.15423861
66	0x3d5ee413	0.054416727
67	0xbc8db4dd	-0.017298156
68	0xbd0b566a	-0.034017958
69	0xbe023077	-0.127138
70	0x3d91bf75	0.07116596
71	0x3e6e3b67	0.23264848
72	0xbe1a57f6	-0.15072617
73	0x3d9d3be6	0.0767744
74	0x3c739fd9	0.014869654
75	0x3e118a7d	0.14212985
76	0x3e51a223	0.20472006
77	0x3d818bfa	0.063255265
78	0xbd997e23	-0.07494762
79	0xbe00b833	-0.12570266
80	0x3e17dd31	0.14830472
81	0xbe5fe70b	-0.2186548
82	0xbd1c200a	-0.038116492
83	0xbc15bcbf	-0.009139239
84	0xbd80cd2e	-0.06289135
85	0xbcb53e6f	-0.022124497
86	0xbca125af	-0.01967129
87	0xbe508bd2	-0.20365837
88	0xbd6091e0	-0.054826617
89	0xbdee777b	-0.11643883
90	0xbe27e20e	-0.16394827
91	0x3dc78655	0.09742419
92	0x3df1c6ce	0.11805497
93	0xbdac6e19	-0.08419437
94	0xbdf5bcff	-0.11998939
95	0x3c80762f	0.015681354
96	0x3d96c49c	0.07361719
97	0x3e6647a0	0.2248826
98	0xbe4e6ab5	-0.20157893
99	0xbe25d96f	-0.16196226
100	0x3e09b482	0.13447765
101	0x3d51f82e	0.051262073
102	0x3e2a6b2c	0.16642445
103	0xbe1580f8	-0.14599979
104	0xbcfb88fa	-0.030704964
105	0x3d3fd68b	0.046835463
106	0xbd5765a0	-0.05258715
107	0xbe097af2	-0.13425806
108	0xbc289706	-0.010289913
109	0x3e8d0891	0.27545598
110	0x3dac9b76	0.08428089
111	0xbe8b36a9	-0.2719014
112	0xbd8e8d4f	-0.06960546
113	0xbdf26936	-0.11836474
114	0x3d0d40c1	0.034485582
115	0xbd7d1af1	-0.06179327
116	0x3d5179df	0.051141616
117	0xbe36e44f	-0.1786053
118	0xbd2f1f84	-0.042754665
119	0xbe8ebffd	-0.2788085
120	0xbe63f8cc	-0.22262877
121	0xbe086a6b	-0.13321845
122	0xbca05afc	-0.019574635
123	0xbdafbd50	-0.0858103
124	0xbe5fcfaa	-0.21856561
125	0xbd6d6c66	-0.057964705
126	0x3d13c21e	0.036073796
127	0x3d3f610a	0.046723403
128	0xbe8199e2	-0.25312716
129	0xbe53fc16	-0.20701632
130	0x3ace83e0	0.0015755855
131	0xbe1b6379	-0.15174665
132	0x3dc32a10	0.09529507
133	0xbdbffa92	-0.09373964
134	0xbaa0cfbf	-0.0012268944
135	0xbd630bbc	-0.055431113
136	0xbc2add3e	-0.010428725
137	0xbd7d2604	-0.061803833
138	0x3d06c64a	0.032903947
139	0xbec8c628	-0.3921368
140	0x3e987bf4	0.2978207
141	0xbcbd6f2c	-0.0231243
142	0x3b3bf40c	0.0028679399
143	0x3e158878	0.1460284
144	0xbdf9e0de	-0.12201093
145	0xbe310fae	-0.17291138
146	0x3d539c3e	0.051662676
147	0xbe880a9f	-0.26570603
148	0xbe281ac8	-0.16416466
149	0xbe904fdf	-0.28185937
150	0x3dd860f4	0.10565367
151	0xbdbb7caa	-0.09154637
152	0xbcf66404	-0.030076988
153	0x3dccfde6	0.10009365
154	0xbe0dffe9	-0.13867153
155	0x3e9d8d35	0.30771795
156	0x3d6dc474	0.05804868
157	0xbdb41398	-0.087928
158	0x3e08e7e9	0.13369717
159	0x3e1aa76c	0.15102929
160	0x3e8b6db9	0.2723215
161	0xbe26e0d2	-0.162967
162	0xbd5f4b6e	-0.054515295
163	0xbeac86ce	-0.33696598
164	0x3d9e2589	0.07722003
165	0xbdec4105	-0.11535839
166	0xbea2de54	-0.31810248
167	0xbe3ed56c	-0.18636101
168	0x3ea7cd04	0.32773602
169	0x3e0a49cf	0.13504718
170	0xbd53deec	-0.051726267
171	0x3da010da	0.07815714
172	0xbc2e37ba	-0.010633403
173	0x3d0d2985	0.034463424
174	0x3eab523a	0.3346117
175	0xbdb8d5dd	-0.09025166
176	0xbdf1fb94	-0.11815563
177	0x3e40873f	0.18801592
178	0xbe484bff	-0.1956024
179	0xbdc4ef05	-0.09615902
180	0xbdfa9d79	-0.12237067
181	0xbc43740d	-0.011929524
182	0xbe7ae98e	-0.24503157
183	0x3e8d9036	0.27649087
184	0xbe2f08dd	-0.17093225
185	0x3b17e02c	0.0023174388
186	0xbc4924ea	-0.012276867
187	0xbc831c53	-0.016004717
188	0x3cd38ce9	0.025824027
189	0xbdbf3dd0	-0.09337962
190	0xbe9027ce	-0.2815537
191	0x3e179696	0.14803538
192	0xbdfeac16	-0.124351665
193	0xbe7a7114	-0.24457198
194	0xbedd62b3	-0.43239364
195	0x3db59a9d	0.08867381
196	0xbee710de	-0.45130056
197	0xbe8692e0	-0.26283932
198	0xbeb76b4d	-0.35824051
199	0xbd930058	-0.071778
200	0x3ea96fce	0.33093113
201	0xbf1b427f	-0.6064834
202	0xbe4de065	-0.20105131
203	0x3e6ec3e2	0.23316911
204	0xbe01efb1	-0.12689091
205	0xbec63554	-0.3871256
206	0x3dee49e9	0.11635191
207	0xbe46e50a	-0.19423309
208	0x3dceccf1	0.10097683
209	0x3d845b58	0.06462735
210	0x3d86dcc3	0.06585076
211	0xbea81ef7	-0.32836124
212	0xbd97605b	-0.07391425
213	0xbdfc3eaf	-0.123166434
214	0xbd84f5b9	-0.064921804
215	0xbd8b18a6	-0.06791811
216	0xbe9c1f15	-0.30492464
217	0xbe283832	-0.16427687
218	0x3e281d0f	0.16417335
219	0xbd16a9eb	-0.03678314
220	0x3dcec8e1	0.10096908
221	0xbddb175e	-0.10697816
222	0xbe5345cd	-0.20632096
223	0x3d7a1603	0.06105615
224	0x3d57bcf6	0.05267044
225	0xbec3b412	-0.3822332
226	0x3d98d14d	0.07461796
227	0xbdb02d3f	-0.0860238
228	0xbe0f43e2	-0.13990739
229	0xbdf46448	-0.1193319
230	0x3cdd11a6	0.026985954
231	0xbe45b731	-0.19308163
232	0x3dd7cb4f	0.10536825
233	0x3d86c421	0.06580377
234	0xbdce38f6	-0.10069458
235	0xbe8a8c8b	-0.2706035
236	0x3dca4e06	0.09878163
237	0xbe0e5bb8	-0.13902175
238	0x3d44fcd5	0.048092682
239	0x3c45562d	0.012044472
240	0xbce451b6	-0.027870994
241	0xbc918984	-0.017765768
242	0x3e4dc076	0.2009295
243	0xbe12cae6	-0.14335212
244	0xbda9019d	-0.08252261
245	0x3d9b70ed	0.07589898
246	0xbe058be8	-0.13041651
247	0xbc8227c3	-0.0158881
248	0xbdb77516	-0.08957879
249	0x3d43b212	0.047777243
250	0xbd14c5d1	-0.036321465
251	0xbd32f2af	-0.043688472
252	0x3d28f35e	0.041247718
253	0x3d0f51db	0.034990173
254	0xbead499f	-0.3384523
255	0x3d63ed9c	0.055646524

post_layers.0.weight f4 [1, 32]
0	0xbde8e966	-0.11372642
1	0xbd0f8717	-0.03504094
2	0xbbf40a87	-0.007447544
3	0x3c1d250e	0.009591354
4	0xbd1f5f43	-0.038909208
5	0x3e33514b	0.1751148
6	0xbe452101	-0.19250871
7	0x3d20de99	0.039274786
8	0xbcad7a10	-0.021176368
9	0xbdf5a146	-0.11993651
10	0x3db831e6	0.08993892
11	0x3d22103e	0.03956627
12	0xbd954f97	-0.07290571
13	0x3d5b20d5	0.053498108
14	0xbdc6e8d1	-0.09712375
15	0x3cf3718d	0.029717231
16	0xbbc216a2	-0.005923108
17	0x3e655389	0.22395147
18	0xbca5eb64	-0.020253845
19	0xbcc9a54d	-0.024614954
20	0x3dbaa9b9	0.09114403
21	0x3e219d14	0.15782577
22	0x3e33f7c0	0.17574978
23	0x3d041100	0.032242775
24	0xbd75c59e	-0.060002916
25	0xbe02b271	-0.12763382
26	0xbd95c7f7	-0.07313531
27	0x3c9d849c	0.019228272
28	0xbd499a84	-0.049219623
29	0x3dc8360a	0.09775932
30	0x3e74c5f7	0.23903643
31	0xbd2b0ab2	-0.041758247
