models/BPI17/hoeg/exp_information_leakage/lr=0.01_hidden_dim=16/GraphModule_20230821_12h12m/state_dict_epoch3.pt (torch, 39711 bytes, 33 tensors)

conv1.event__follows__event.lin_rel.weight f4 [16, 27]
0.16148071 0.38774955 0.05576693 0.3030469 0.46697855 0.11102465 0.3077632 0.21144739
0.21092437 0.27976948 0.09841388 -0.22548349 -0.39989564 -0.27628875 -0.2069493 -0.21259782
0.0116779795 0.12566511 0.14295231 0.23306213 -0.023030652 -2.387768 -0.09735082 0.023049587
-0.13323349 0.19014235 0.15562083 -0.37192684 0.08858739 -0.079416364 -0.22009304 -0.19975615
-0.22015968 -0.24679263 -0.4637963 -0.16331713 -0.32467487 -0.32714978 0.003652618 0.13541515
0.0019285041 0.34934357 0.4610067 0.2767548 0.3932746 -0.15702693 -0.25567207 -0.2454865
1.2572857 0.083592795 0.80838114 0.46465984 0.018562432 -0.05116832 0.059387032 0.12564135
-0.019338658 -0.23106761 -0.049808998 -0.28259325 0.09822865 0.62875843 0.09324949 0.06177634
0.06564318 -0.5602968 -0.23778747 -0.5209839 -0.43530184 -0.27611035 -0.277855 -0.22031513
0.0052234856 0.15686803 -0.055881806 -2.0530326 -0.100251734 -0.056733046 -0.15646781 -0.099199235
0.050687235 -0.59379214 -0.1515665 -0.20313632 -0.4383851 -0.4704084 -0.05894771 -0.49119082
-0.5548148 -0.134665 -0.26116523 0.06372429 0.6934538 0.24306032 -0.06282435 0.16086808
-0.08663026 0.0930588 -0.27389124 -0.11326638 -0.19012283 0.0073808646 1.5682076 0.27827784
-0.059354026 0.0893197 -0.23746602 -0.25289723 -0.44106886 0.050322473 -0.03445331 -0.3690792
-0.1934417 0.007293501 0.09645309 -0.03196832 0.11452116 -0.025014931 0.12852705 0.18798472
0.3178561 0.27198339 0.32309675 0.34815174 0.085439876 0.17205083 0.1850959 -0.017086564
-0.088390715 2.2229497 0.2729903 0.1255993 0.21330602 -0.0013010965 0.04385411 -0.083659336
0.22798437 0.10340328 -0.2997897 -0.19346912 -0.25507984 0.40568903 0.68524057 -0.14772074
-0.45477682 0.034762274 -0.4361111 -0.34512624 -0.38622332 -0.23420556 -0.3448593 0.0051745623
-0.031048693 -0.11344459 -0.056459714 0.10893535 0.57514083 -0.07211763 0.24743222 -0.081590235
-0.052283157 0.008591409 0.24007288 0.0011636122 -0.100408494 -0.08574203 0.74781424 0.20261425
0.44411013 0.5663993 0.2776171 0.18063381 -0.0005737052 0.07391673 0.038202614 0.10996445
-0.062999085 -0.17636949 -0.12438315 0.10045993 -0.099895425 -0.03146967 0.2079908 -1.0572208
0.13297558 0.19509332 -0.23421368 0.6769752 -0.40494868 0.021085449 -0.058175474 -0.117997125
0.11665413 0.12817407 -0.16619585 -0.018670348 -0.21009578 -0.07628564 -0.13014266 -0.25126436
-0.2696766 -0.34277993 -0.30314133 -0.13610134 -0.4361878 -0.29654056 -0.19195463 -0.092086405
-0.14718795 -0.06446294 -0.65225184 -0.37446994 -0.21991551 -0.23180228 -0.0986904 -0.058819655
-0.27037466 -0.42379758 -0.41986614 -0.56393194 -0.22530624 0.024254695 -0.08362458 0.0601442
0.14733922 0.36312142 0.14484438 0.15074366 -0.035977714 -0.33843338 -0.32906565 -0.06509898
-0.24015747 -0.267188 0.051384903 -0.06526208 -0.385998 -0.77580357 -0.027415523 0.4073582
-0.22819899 -0.15573911 -0.20061307 -0.15370432 -0.42376304 -0.34857735 -0.049172428 0.27519262
0.16884838 -0.029827332 0.46361166 0.18066646 0.11099167 -0.06851844 -0.23529094 -0.1419171
00000000: 335b 253e 1c87 c63e dd6b 643d f728 9b3e
00000010: d017 ef3e e460 e33d 2393 9d3e aa85 583e
00000020: 8ffc 573e f23d 8f3e 378d c93d 25e5 66be
00000030: 1fbf ccbe b875 8dbe 84ea 53be 3eb3 59be
00000040: ff54 3f3c 5bae 003e 1762 123e d7a7 6e3e
00000050: c7aa bcbc 31d1 18c0 de5f c7bd 7dd2 bc3c
00000060: 5c6e 08be adb4 423e 115b 1f3e 326d bebe
00000070: 4e6d b53d 0ca5 a2bd 1260 61be e08c 4cbe
00000080: 8a71 61be 35b7 7cbe b576 edbe 9b3c 27be
00000090: c93b a6be 2d80 a7be c360 6f3b 45aa 0a3e
000000a0: dcc5 fc3a 29dd b23e 1209 ec3e ceb2 8d3e
000000b0: 4a5b c93e abcb 20be 73e7 82be d060 7bbe
000000c0: bdee a03f b332 ab3d 11f2 4e3f e5e7 ed3e
000000d0: 3e10 983c df95 51bd d13f 733d 20a8 003e
000000e0: 1b6c 9ebc fd9c 6cbe 8504 4cbd 10b0 90be
000000f0: 1a2c c93d 50f6 203f 97f9 be3d 3009 7d3d
00000100: ee6f 863d 9c6f 0fbf 8f7e 73be 335f 05bf
00000110: e2df debe 565e 8dbe 0343 8ebe 4a9a 61be
00000120: c629 ab3b 03a2 203e 52e4 64bd e364 03c0
00000130: c850 cdbd e960 68bd 1939 20be f828 cbbd
00000140: 6b9d 4f3d c302 18bf 4034 1bbe f802 50be
00000150: 0374 e0be 5fd9 f0be 2773 71bd 5d7d fbbe
00000160: 5808 0ebf 9fe5 09be 73b7 85be e181 823d
00000170: 3086 313f cee4 783e 0eaa 80bd 9aba 243e
00000180: 356b b1bd 9d95 be3d 793b 8cbe 34f8 e7bd
00000190: 8faf 42be 2edb f13b 07bb c83f 6f7a 8e3e
000001a0: 351d 73bd 3fed b63d 4b2a 73be bf7b 81be
000001b0: c7d3 e1be f01e 4e3d ea1e 0dbd f3f7 bcbe
000001c0: 9515 46be 52fe ee3b 3389 c53d 37f1 02bd
000001d0: 128a ea3d 1dec ccbc 989c 033e 117f 403e
000001e0: 09be a23e 6841 8b3e f06c a53e f240 b23e
000001f0: 1afb ae3d 182e 303e c889 3d3e 1ff9 8bbc
00000200: 3106 b5bd cf44 0e40 62c5 8b3e 1a9d 003e
00000210: e56c 5a3e 8e89 aaba 5ea0 333d 9655 abbd
00000220: bc74 693e 19c5 d33d 097e 99be c51c 46be
00000230: d399 82be 79b6 cf3e ed6b 2f3f 1b44 17be
00000240: 82d8 e8be e362 0e3d f449 dfbe 63b4 b0be
00000250: 10bf c5be 95d3 6fbe 6691 b0be 608f a93b
00000260: d459 febc a355 e8bd 4d42 67bd 7f19 df3d
00000270: 6e3c 133f 68b2 93bd df5e 7d3e c818 a7bd
00000280: dd26 56bd fbc2 0c3c aad5 753e 5984 983a
00000290: f8a2 cdbd 8499 afbd c170 3f3f 1c7a 4f3e
000002a0: 6762 e33e 8bff 103f d423 8e3e 12f8 383e
000002b0: b464 16ba a861 973d 587a 1c3d 0b35 e13d
000002c0: aa05 81bd 349a 34be 98bc febd f0bd cd3d
000002d0: f995 ccbd 57e6 00bd 8afb 543e 0353 87bf
000002e0: c02a 083e 8bc6 473e b6d5 6fbe 3f4e 2d3f
000002f0: 6f55 cfbe 64bb ac3c 6849 6ebd 7aa8 f1bd
00000300: 5ce8 ee3d 1040 033e 3f2f 2abe 8ff2 98bc
00000310: 5923 57be a53b 9cbd 1e44 05be b9a5 80be
00000320: 0d13 8abe da80 afbe 5735 9bbe 265e 0bbe
00000330: 0254 dfbe 2ad4 97be c18f 44be cc97 bcbd
00000340: 70b8 16be 2505 84bd faf9 26bf 86ba bfbe
00000350: 8831 61be 945d 6dbe 311e cabd e1ec 70bd
00000360: 8c6e 8abe fffb d8be b2f8 d6be d85d 10bf
00000370: aeb6 66be c8b1 c63c 5d43 abbd c459 763d
00000380: 18e0 163e 0deb b93e 1652 143e 8c5c 1a3e
00000390: 5e5d 13bd 2447 adbe 4b7b a8be 9d52 85bd
000003a0: d7eb 75be decc 88be fa78 523d 20a8 85bd
000003b0: 88a1 c5be 109b 46bf 8596 e0bc 4191 d03e
000003c0: ffac 69be 137a 1fbe 836d 4dbe aa64 1dbe
000003d0: 78f7 d8be bb78 b2be 0769 49bd 0ce6 8c3e
000003e0: 97e6 2c3e 7358 f4bc 825e ed3e a100 393e
000003f0: 9a4f e33d 6553 8cbd 1cf0 70be b752 11be

conv1.event__follows__event.lin_rel.bias f4 [16]
0.1419451 -0.22170953 0.1708916 -0.05579948 0.13207504 -0.016893905 -0.2568481 -0.1357956
0.07978576 -0.28243494 0.058139537 -0.2223402 -0.057652254 -0.010221364 0.025320351 0.029697856
00000000: 0e5a 113e d307 63be 35fe 2e3e ff8d 64bd
00000010: ae3e 073e 1665 8abc 9881 83be 000e 0bbe
00000020: b766 a33d 509b 90be b923 6e3d 26ad 63be
00000030: c524 6cbd 8277 27bc a06c cf3c eb48 f33c

conv1.event__follows__event.lin_root.weight f4 [16, 27]
0.52239037 0.19843394 0.0020690935 0.3565159 0.45106253 -0.08568522 0.09700266 0.2756341
0.22994664 0.34082004 0.21252999 -0.17867339 -0.32842982 -0.11793485 -0.27143884 -0.23722252
-0.18698624 -0.18362346 -0.022511672 0.05924932 -0.0019147367 -2.7016876 -0.20849803 0.046200782
0.32214904 0.380829 -0.15692982 -0.13708156 -0.052390836 -0.28110245 -0.17192915 -0.30451983
-0.02561393 -0.1288331 -0.454354 -0.026080986 -0.19603567 -0.81972957 0.0402644 -0.23208396
-0.15260585 0.17187558 0.35695845 -0.1643371 0.5793403 -0.39576477 -0.2315098 -0.2683556
0.98041695 0.1010588 0.51492655 -0.16630603 -0.31480813 -0.14751175 0.41978315 -0.055826053
0.052803315 0.009015652 0.02895093 -0.14988227 0.37059143 0.24562582 0.14657255 0.1966102
0.27798262 -0.086069725 -0.041423384 -0.44952777 0.01682352 -0.22084002 -0.113632284 -0.17567708
0.038631093 0.102818094 -0.1059604 -2.0889006 0.05951944 0.020874256 -0.06586953 -0.09550443
0.03960929 -0.5405991 -0.46612918 -0.49066466 -0.2973564 -0.8641545 0.2821579 -0.66114503
-0.31128743 -0.06737823 -0.535507 -0.1456151 0.14201485 0.07585859 -0.022234928 0.28525925
0.14947897 -0.14343548 -0.18682417 -0.09515086 -0.42645654 -0.23632254 1.8227589 -0.14785197
-0.1462395 0.05339135 -0.45501837 -0.17612435 -0.5902155 -0.23345123 -0.28034472 -0.13008158
-0.64386666 -0.13423707 -0.3959273 -0.021713885 -0.15162963 -0.43120506 0.02879657 -0.0878663
-0.0070473244 0.13101573 0.09328855 0.17956705 0.1433539 0.1584127 0.08075281 -0.13227084
-0.13038439 2.566384 0.074104965 0.34769198 0.28292492 -0.08736764 -0.09032956 0.21431428
0.24473299 -0.002273495 0.037576903 0.35574883 -0.6748161 0.005307567 -0.0049204566 -0.119097576
-0.5462708 -0.15326239 0.011634204 -0.2265258 -0.13909724 -0.078168176 -0.12355587 0.0064330418
-0.14591306 -0.08581269 0.09010603 0.052132644 0.8704686 -0.04126663 0.29551238 0.036671553
0.13649228 -0.029094785 0.13812593 -0.21161138 -0.16149001 -0.2934486 0.5290314 -0.057049554
0.37200597 0.49301368 0.30415714 0.41034782 -0.22310038 0.11441679 0.021726413 -0.38871944
-0.37634134 -0.28131557 -0.20252478 -0.09369506 -0.14831199 -0.007894228 -0.18550695 -1.5072758
-0.09051688 0.44067198 -0.3509006 0.73026717 -1.0535591 0.13158633 0.1622768 0.06746782
0.076932974 0.10291648 -0.035848115 0.16693142 -0.15334398 -0.13193838 0.21936022 -0.15199354
-0.17239858 -0.29267675 -0.26380894 -0.27672693 -0.25711155 -0.028755253 -0.09000433 0.02879056
-0.11400322 -0.10791366 -0.5940444 0.058400113 -0.05708631 -0.451673 0.061951865 -0.17959417
-0.10371247 -0.20667176 -0.1601443 -0.25513014 -0.24668086 0.19369633 0.10604032 0.31821528
-0.08003059 0.29030046 0.015975296 0.22586243 -0.14073513 -0.17839599 -0.18144515 -0.17524831
0.04673389 -0.14500548 0.014142275 -0.027321009 -0.05713472 -0.99630284 0.103550985 0.3636284
-0.1305665 -0.25950348 -0.056089398 -0.2868375 -0.42900202 -0.31989226 -0.1321471 -0.027214125
-0.21927503 -0.14201644 0.1126274 -0.010653888 0.1850826 0.11907381 -0.019980075 0.043002445
00000000: 60bb 053f 4432 4b3e a199 073b 4189 b63e
00000010: abf1 e63e bc7b afbd 55a9 c63d ea1f 8d3e
00000020: 2277 6b3e f77f ae3e 76a1 593e 28f6 36be
00000030: f427 a8be d487 f1bd 08fa 8abe 76ea 72be
00000040: 5279 3fbe ca07 3cbe 666a b8bc 6aaf 723d
00000050: e7f7 faba 73e8 2cc0 8280 55be 083d 3d3d
00000060: b8f0 a43e 05fc c23e 36b2 20be 1c5f 0cbe
00000070: c697 56bd a9ec 8fbe 320e 30be 06ea 9bbe
00000080: 4ed4 d1bc d3ec 03be 16a1 e8be cba7 d5bc
00000090: 93bd 48be ccd9 51bf 49ec 243d 6ba7 6dbe
000000a0: b544 1cbe 2700 303e 42c3 b63e fc47 28be
000000b0: a54f 143f aea1 cabe e810 6dbe e865 89be
000000c0: 9bfc 7a3f ebf7 ce3d 3ad2 033f 214c 2abe
000000d0: 882e a1be 520d 17be d1ed d63e dca9 64bd
000000e0: 4a48 583d 63b6 133c 802a ed3c bd7a 19be
000000f0: 29be bd3e 5685 7b3e 1d17 163e 2f54 493e
00000100: bd53 8e3e 5345 b0bd 91ab 29bd 8128 e6be
00000110: 7bd1 893c e323 62be 0bb8 e8bd b1e4 33be
00000120: a33b 1e3d 4b92 d23d c401 d9bd 8cb0 05c0
00000130: a8ca 733d 7d00 ab3c 9be6 86bd d497 c3bd
00000140: 5a3d 223d b464 0abf 7ca8 eebe 6638 fbbe
00000150: 193f 98be 3b39 5dbf 0077 903e cd40 29bf
00000160: 1161 9fbe 99fd 89bd fd16 09bf 201c 15be
00000170: 576c 113e c05b 9b3d 0626 b6bc 800d 923e
00000180: 0411 193e c0e0 12be d64e 3fbe 74de c2bd
00000190: 8358 dabe 89fe 71be 2a50 e93f 8266 17be
000001a0: cfbf 15be e3b0 5a3d 2bf8 e8be f159 34be
000001b0: 5d18 17bf d70d 6fbe 5889 8fbe 1b34 05be
000001c0: 72d4 24bf 7175 09be fcb6 cabe 51e1 b1bc
000001d0: cc44 1bbe e9c6 dcbe c9e6 eb3c 3ff3 b3bd
000001e0: 3eed e6bb fd28 063e 110e bf3d 6de0 373e
000001f0: 5dcb 123e f036 223e bb61 a53d 0272 07be
00000200: 7c83 05be a33f 2440 58c4 973d af04 b23e
00000210: 89db 903e ceed b2bd b4fe b8bd 3475 5b3e
00000220: 499b 7a3e ebfe 14bb 3dea 193d b624 b63e
00000230: bfc0 2cbf 19eb ad3b c83b a1bb 6ee9 f3bd
00000240: 67d8 0bbf d1f0 1cbe 639d 3e3c 61f6 67be
00000250: 826f 0ebe a316 a0bd dc0a fdbd 44cc d23b
00000260: 3c6a 15be 90be afbd 8389 b83d 0a89 553d
00000270: 08d7 5e3f 3307 29bd 664d 973e e934 163d
00000280: a2c4 0b3e 3058 eebc e270 0d3e a7b0 58be
00000290: a35d 25be e53e 96be 9a6e 073f cbac 69bd
000002a0: 9177 be3e 4a6c fc3e 7cba 9b3e 1c19 d23e
000002b0: 6d74 64be 5a53 ea3d 97fb b13c 3c06 c7be
000002c0: d0af c0be 9808 90be a862 4fbe 32e3 bfbd
000002d0: 19df 17be cb56 01bc 89f5 3dbe 6aee c0bf
000002e0: ea60 b9bd c29f e13e 3ea9 b3be caf2 3a3f
000002f0: 06db 86bf 91be 063e e42b 263e 922c 8a3d
00000300: 098f 9d3d e0c5 d23d 79d5 12bd 12f0 2a3e
00000310: 3406 1dbe db1a 07be f79f 603e 32a4 1bbe
00000320: 4189 30be bad9 95be f711 87be 27af 8dbe
00000330: 20a4 83be 2390 ebbc 3154 b8bd 2eda eb3c
00000340: 857a e9bd d601 ddbd 4b13 18bf f534 6f3d
00000350: 56d3 69bd af41 e7be 3dc1 7d3d 89e7 37be
00000360: 3467 d4bd c3a1 53be defc 23be 6ba0 82be
00000370: e899 7cbe 5558 463e ab2b d93d 1ded a23e
00000380: 14e7 a3bd 43a2 943e a0de 823c 7b48 673e
00000390: df1c 10be 70ad 36be c2cc 39be 4b74 33be
000003a0: 096c 3f3d 517c 14be 00b5 673c 4fd0 dfbc
000003b0: 1906 6abd b40d 7fbf 8a12 d43d 802d ba3e
000003c0: 39b3 05be a4dd 84be ffbd 65bd 5ddc 92be
000003d0: 27a6 dbbe ebc8 a3be 9251 07be 28f0 debc
000003e0: a289 60be c26c 11be 32a9 e63d a58d 2ebc
000003f0: 4b86 3d3e f8dc f33d 41ad a3bc 5523 303d

conv1.event__interacts__application.lin_rel.weight f4 [16, 27]
-0.23207211 0.022259183 -0.24995741 0.031184046 -0.19260335 -0.005079122 -0.13924219 -0.14058177
-0.22412981 -0.0036620412 -0.16584177 0.11166023 -0.121121906 -0.0006789401 0.110764675 0.058463868
-0.18839818 -0.13919438 -0.086852886 -0.005891157 -0.2311972 -0.3007379 -0.15412004 0.013261889
0.03655992 -0.10620439 0.03122036 0.03529794 0.29384428 0.18890204 -0.18460098 0.09603755
-0.16638361 -0.022728965 0.07039905 0.14710066 0.21726057 0.19201003 -0.20475595 -0.11489128
0.17838916 -0.13883886 0.039815463 -0.13263501 -0.21637893 0.0028280863 0.13537784 -0.038718764
-0.5487271 -0.19916196 0.031869665 0.062587716 -0.15531804 0.32377905 -0.13018252 -0.3731785
0.061276425 -0.23750676 0.04998263 -0.058715258 -0.09357144 0.014640328 0.099977806 0.05947448
-0.50123376 -0.17851403 -0.3395056 -0.06561817 -0.3160215 -0.5522019 -0.17153665 -0.30908066
-0.111828186 -0.15673596 -0.09157193 1.9129018 0.44799405 0.021263788 0.043043528 0.26212516
0.37572736 -0.3013833 -0.45366904 -0.010040492 -0.2124818 -0.04375497 -0.42019126 -0.29768196
-0.124984704 -0.2908832 -0.13718708 -0.45171455 -0.40048572 -0.41188744 -0.006062757 -0.45390064
-0.31613994 -0.32553798 -0.32632184 -0.13344997 -0.23523475 -0.18112968 0.08688981 -0.2894854
-0.5530618 -0.23700115 -0.15508269 -0.07971191 0.06996966 -0.32451186 0.24906872 -0.26509848
0.20891634 -0.06526978 0.21582368 -0.036628682 0.27265868 -0.21944298 -0.67209864 -0.36214522
-0.49035537 -0.06157035 -0.52586085 -0.43092752 -0.212494 -0.14252982 0.14453092 0.023462258
0.054529324 1.5873543 0.47139737 -0.2590103 -0.22100472 0.15864448 0.22041017 0.14702447
0.4264039 -0.351243 0.034545362 -0.012590026 0.15370253 0.027455725 -0.09305728 -0.41609356
0.3684747 0.73898256 0.3820505 0.4684357 -0.23894723 0.58639914 0.83273554 0.33387265
0.32073933 0.25584936 0.2585027 0.13003017 -1.4613581 -0.39636397 0.33938903 0.33040202
0.26224914 -0.5837326 0.06609057 -0.6195113 -0.06477464 -0.10571735 0.2922064 -0.11119219
0.25446248 0.054059062 -0.008283305 -0.014789154 -0.4357382 -0.113301076 -0.16159947 -0.34595996
-0.024637328 -0.31566158 0.15567103 -0.06378739 -0.04109826 0.015017687 -0.14373328 2.3139107
0.39342186 0.00068206777 -0.07962838 0.30856153 0.18505992 -0.26463485 0.026600422 -0.0797788
0.029064737 -0.25137582 -0.041142568 -0.19763656 -0.23782672 -0.12287007 0.011396979 -0.09768049
-0.023923796 0.18497881 -0.098895915 0.1339094 -0.01071941 0.028378058 -0.24865064 -0.10016336
0.041984234 -0.11529352 -1.2808444 -0.31663084 0.105450034 0.11719333 -0.1789637 -0.5090955
-0.04376884 -0.022993857 -0.13893504 0.015079603 -0.034643054 0.1263282 -0.15887757 -0.19488111
0.14771615 -0.21798098 -0.06716169 0.06214406 -0.077894315 -0.11110269 -0.09241859 0.0043204296
0.11840128 0.24480726 -0.15315832 -0.2049233 -0.15970075 -0.42456993 -0.063883685 -0.3329327
-0.17176242 -0.05410575 -0.15566812 0.22459 0.43168214 -0.0050127287 -0.06196434 -0.19487461
0.055858634 0.005906036 -0.028190807 0.26265645 0.09770472 0.40582606 0.04346504 0.025710758
00000000: 50a4 6dbe e458 b63c d6f4 7fbe af75 ff3c
00000010: d039 45be c36e a6bb 8195 0ebe abf4 0fbe
00000020: 4982 65be dbfe 6fbb 6dd2 29be 1eae e43d
00000030: c30e f8bd e6fa 31ba 97d8 e23d cf77 6f3d
00000040: 74eb 40be f988 0ebe eddf b1bd 9b0a c1bb
00000050: f5be 6cbe 51fa 99be a5d1 1dbe 6548 593c
00000060: dbbf 153d b081 d9bd d7c1 ff3c 9394 103d
00000070: c272 963e 896f 413e 0a08 3dbe 56af c43d
00000080: 7760 2abe 1832 babc 612d 903d 8ea1 163e
00000090: 8e79 5e3e 479e 443e 8bab 51be 1f4c ebbd
000000a0: a6ab 363e c62b 0ebe 8a15 233d 79d1 07be
000000b0: 7092 5dbe 6a57 393b 7da0 0a3e 9197 1ebd
000000c0: 6179 0cbf 1df1 4bbe c489 023d fd2d 803d
000000d0: b10b 1fbe 5ec6 a53e 914e 05be 4111 bfbe
000000e0: fdfc 7a3d f934 73be 96ba 4c3d 697f 70bd
000000f0: 62a2 bfbd fcdd 6f3c 2ac1 cc3d 839b 733d
00000100: db50 00bf 62cc 36be aed3 adbe d262 86bd
00000110: 92cd a1be 1b5d 0dbf 4ea7 2fbe d23f 9ebe
00000120: 2d06 e5bd 647f 20be 108a bbbd f7d9 f43f
00000130: 7a5f e53e 6531 ae3c 694e 303d 4535 863e
00000140: 565f c03e e94e 9abe 4f47 e8be e080 24bc
00000150: d494 59be 6938 33bd 4f23 d7be c569 98be
00000160: fbf7 ffbd a5ee 94be c57a 0cbe 2147 e7be
00000170: 770c cdbe e9e2 d2be 18aa c6bb aa65 e8be
00000180: 18dd a1be eaac a6be a813 a7be 1ca7 08be
00000190: 61e1 70be 0f7a 39be 49f3 b13d 6e37 94be
000001a0: 7595 0dbf 6eb0 72be ffcd 1ebe ff3f a3bd
000001b0: 414c 8f3d 6b26 a6be df0b 7f3e fdba 87be
000001c0: 2aee 553e 2aac 85bd e200 5d3e f507 16bd
000001d0: eb99 8b3e a9b5 60be a80e 2cbf 196b b9be
000001e0: dc0f fbbe 3131 7cbd d19e 06bf 88a2 dcbe
000001f0: 0798 59be 56f3 11be eaff 133e ec33 c03c
00000200: 245a 5f3d 6d2e cb3f ff5a f13e ff9c 84be
00000210: 104f 62be b373 223e 34b3 613e 958d 163e
00000220: 9d51 da3e 1fd6 b3be 707f 0d3d 6546 4ebc
00000230: 3264 1d3e d4ea e03c d194 bebd 370a d5be
00000240: b7a8 bc3e f62d 3d3f 209c c33e ced6 ef3e
00000250: 95ae 74be 411e 163f 282e 553f 5bf1 aa3e
00000260: f237 a43e b0fe 823e 775a 843e a126 053e
00000270: c80d bbbf 38f0 cabe 66c4 ad3e 742a a93e
00000280: 8545 863e 806f 15bf 7e5a 873d 4b98 1ebf
00000290: 91a8 84bd 5782 d8bd 149c 953e bbb8 e3bd
000002a0: e848 823e 096d 5d3d b3b6 07bc 354e 72bc
000002b0: 1419 dfbe 650a e8bd 557a 25be aa21 b1be
000002c0: 39d4 c9bc 659e a1be 3a68 1f3e f7a2 82bd
000002d0: a656 28bd bf0c 763c d12e 13be 1d17 1440
000002e0: 976e c93e cbcc 323a 3414 a3bd c7fb 9d3e
000002f0: 5980 3d3e 387e 87be 21e9 d93c 1163 a3bd
00000300: 2c19 ee3c 55b4 80be 1c85 28bd 3d61 4abe
00000310: d988 73be 4ea3 fbbd 65ba 3a3c b50c c8bd
00000320: d6fb c3bc 166b 3d3e f189 cabd 8c1f 093e
00000330: 77a0 2fbc 1a79 e83c 469e 7ebe 7322 cdbd
00000340: a9f7 2b3d 021f ecbd b6f2 a3bf 701d a2be
00000350: 30f6 d73d 0e03 f03d 4342 37be 1554 02bf
00000360: f546 33bd 9d5d bcbc fd44 0ebe 7010 773c
00000370: e0e5 0dbd 2e5c 013e cdb0 22be ea8e 47be
00000380: e742 173e 6836 5fbe 118c 89bd c58a 7e3d
00000390: 0e87 9fbd cf89 e3bd f545 bdbd 6492 8d3b
000003a0: 5f7c f23d c1ae 7a3e 89d5 1cbe 6ad7 51be
000003b0: 9888 23be 3b61 d9be 73d5 82bd 2876 aabe
000003c0: 7de2 2fbe fe9d 5dbd 7767 1fbe ecfa 653e
000003d0: 7105 dd3e d141 a4bb 52ce 7dbd 368d 47be
000003e0: 06cc 643d 6c87 c13b 68f0 e6bc e87a 863e
000003f0: 6a19 c83d 6fc8 cf3e 6608 323d 5e9f d23c

conv1.event__interacts__application.lin_rel.bias f4 [16]
-0.20336498 -0.023644313 -0.019677043 0.019994425 0.29086494 -0.21299699 0.1028265 -0.29741892
-0.14326374 0.24410838 0.23468496 -0.18889295 -0.03898337 0.18005084 0.2836327 0.10108798
00000000: e93e 50be b8b1 c1bc c031 a1bc 59cb a33c
00000010: 40ec 943e e21b 5abe b396 d23d 4b47 98be
00000020: bbb3 12be 8cf7 793e 4151 703e 276d 41be
00000030: 07ad 1fbd 3f5f 383e 4e38 913e 3707 cf3d

conv1.event__interacts__application.lin_root.weight f4 [16, 3]
-0.9565933 0.009457707 -0.2850048 -0.043576133 -0.25140703 -0.23001891 0.49144062 0.5238984
0.56336355 -0.583841 0.059330255 -0.48843944 0.3657776 0.39881283 0.4601451 0.33467647
0.17870788 0.13409422 -0.0027583607 -0.1691494 -0.042848013 -0.9121069 0.39214212 0.009359791
0.2960069 0.3551993 -0.24147746 0.42757642 0.5013803 0.5465806 0.39316893 -0.30784303
0.48757058 0.12561764 -0.00045619623 -0.52923965 -0.30135953 0.22366543 0.37763685 -0.19759807
-0.052923046 -0.19845648 0.549627 0.4288097 0.3613295 0.11477959 -0.15739827 -0.40213546
00000000: 4ce3 74bf 80f4 1a3c 26ec 91be e37c 32bd
00000010: 6cb8 80be 148a 6bbe 1b9e fb3e 351e 063f
00000020: 9838 103f 9b76 15bf 4804 733d bc14 fabe
00000030: 3447 bb3e 3231 cc3e 2398 eb3e b75a ab3e
00000040: 33ff 363e ff4f 093e 9dc5 34bb 8035 2dbe
00000050: 6681 2fbd d67f 69bf dac6 c83e cf59 193c
00000060: 378e 973e afdc b53e de45 77be 4ceb da3e
00000070: 765a 003f b5ec 0b3f 704d c93e 9a9d 9dbe
00000080: daa2 f93e e9a1 003e 9f2d efb9 407c 07bf
00000090: cc4b 9abe 8d08 653e 9e59 c13e 2657 4abe
000000a0: d6c5 58bd 2d38 4bbe 5bb4 0c3f f28c db3e
000000b0: 2e00 b93e 9011 eb3d 032d 21be b3e4 cdbe

conv1.event__interacts__offer.lin_rel.weight f4 [16, 27]
0.22919899 0.2513573 0.49567506 0.022105444 0.21732162 0.006249756 0.09312191 0.2460611
-0.27144748 0.14736685 0.6158882 0.10681181 0.39207265 0.56705004 0.40133214 0.2807697
1.1913862 0.09393879 0.07771247 0.29670927 0.35439923 -1.8984728 -1.365098 0.11719987
0.36482635 0.26329 -0.100876756 0.049426746 0.19118388 0.1721551 0.21774554 0.11800944
0.32067454 0.15953587 0.51202154 -0.028349547 0.23875743 -0.2605954 0.26390955 0.68624747
0.29864836 0.27700105 0.33688992 -0.27937078 0.3299493 -0.10979207 0.21005255 0.021134824
-0.9613166 0.3155342 -0.0027569707 0.029185055 0.103983745 -1.1225896 0.36832884 0.13672148
0.30899024 0.09179243 -0.038126662 0.38082266 0.09819772 0.3622391 -0.15785177 -0.05758383
-0.20810632 0.006683956 0.20507501 0.68135554 0.37283397 -0.024734683 -0.07116522 0.15973613
0.071805246 0.2425448 0.042215694 -2.1553266 -0.767918 -0.1035853 0.12933205 0.1275569
-0.38360363 0.03126938 0.01445142 0.18185274 0.2503357 0.06576308 -0.111391366 0.17981899
0.08645354 0.30503157 0.1323274 -0.18261401 -0.6555305 -0.277172 0.43512952 -0.020360269
0.35353085 -0.22401 0.041961588 -0.07246412 -0.0037845832 -0.07523322 0.3769372 0.63451886
-0.40112853 -0.1372279 -0.17998494 0.5368098 0.15899025 0.28749287 0.29544353 -0.04721042
0.09313521 -0.009707848 -0.35521948 0.59499526 -0.059249118 -0.19364099 0.19001248 -0.37273845
0.36532363 0.21300417 0.09762474 -0.027811833 0.75584704 0.020028446 0.034042217 0.2793671
0.16421181 -2.865451 -0.48817542 0.38690406 0.46129075 0.33462295 -1.2739486 0.12527052
0.17490372 0.01841509 -0.20482025 -0.13645212 -0.066981845 -0.36475036 -0.025067566 -0.27707848
-0.50644517 0.20463108 0.2564031 -0.08487918 -0.3468597 0.25493723 0.00521832 1.1882076
-0.120151125 0.10013237 0.11984906 0.082013026 -1.0982056 -1.7402687 0.098979905 0.24546044
0.04647656 0.5204573 -0.13341574 -0.38705856 -0.356869 -0.1644307 0.19055586 0.6478045
0.06486839 -0.45802876 -0.023833273 0.027423056 -0.47379783 0.055384364 -0.28658804 -0.5706774
-0.24395406 0.32276517 -1.1322039 0.20163661 -0.11657758 -0.1877048 -0.30772123 1.805474
2.0400398 0.14496824 -0.5493464 -0.28041574 -0.0723492 -0.2242598 -0.30077398 -0.20800953
-0.20297602 0.17579187 0.11168106 0.06552932 -0.2598536 0.10754418 0.0133064 -0.045610253
0.19442558 -0.3229895 -0.16208236 -0.3853932 -0.14199327 -0.4480847 -0.004601712 0.050042983
-0.2964658 -0.108405605 2.8382535 1.2830206 0.34142417 -0.37313 -0.06926395 0.5970525
0.1277037 0.14958382 -0.041304223 0.4412901 0.18280967 0.757103 0.51463723 -0.024068454
0.5463798 0.005284245 -0.5800754 -0.17898785 -0.26343432 0.85912585 0.24611059 0.23494686
-0.93577766 0.27388123 -0.23337199 0.14835428 -0.15225162 -0.31585804 0.64576125 -0.17425543
-0.060824085 -0.22376424 -0.16100231 -0.2829936 -0.2942477 -0.20792757 -0.10207381 -0.010174572
-0.08839955 0.05887982 -0.47828147 -0.16647626 0.28970915 0.0033478707 0.35475615 0.41045573
00000000: 24b3 6a3e e7b1 803e 1fc9 fd3e 7a16 b53c
00000010: 8f89 5e3e c1ca cc3b b3b6 be3d 71f7 7b3e
00000020: 2afb 8abe 56e7 163e d9aa 1d3f 26c0 da3d
00000030: bfbd c83e 312a 113f 687b cd3e 0cc1 8f3e
00000040: 587f 983f fb62 c03d b727 9f3d 47ea 973e
00000050: d173 b53e 2801 f3bf 88bb aebf 7c06 f03d
00000060: 85ca ba3e f2cd 863e 7998 cebd b373 4a3d
00000070: b5c5 433e 6d49 303e b0f8 5e3e efae f13d
00000080: 742f a43e 5f5d 233e d813 033f 4f3d e8bc
00000090: d47c 743e c36c 85be 271f 873e eaad 2f3f
000000a0: 70e8 983e 15d3 8d3e d67c ac3e b009 8fbe
000000b0: 1def a83e aada e0bd 0418 573e f022 ad3c
000000c0: d818 76bf b38d a13e 4bae 34bb 7f15 ef3c
000000d0: 6ef5 d43d 04b1 8fbf 9995 bc3e b700 0c3e
000000e0: f833 9e3e abfd bb3d b42a 1cbd 30fb c23e
000000f0: e31b c93d 6777 b93e e5a3 21be 06dd 6bbd
00000100: d319 55be 1605 db3b 2fff 513e 516d 2e3f
00000110: 18e4 be3e 64a0 cabc 12bf 91bd de91 233e
00000120: a10e 933d aa5d 783e 5dea 2c3d dff0 09c0
00000130: 4696 44bf 8824 d4bd 9f6f 043e 479e 023e
00000140: b267 c4be 5214 003d a6c5 6c3c 9b37 3a3e
00000150: 002c 803e cbae 863d 2821 e4bd 7822 383e
00000160: 8e0e b13d 192d 9c3e d580 073e 2bff 3abe
00000170: d9d0 27bf 7de9 8dbe 4cc9 de3e 94ca a6bc
00000180: ff01 b53e e162 65be eadf 2b3d 1268 94bd
00000190: c506 78bb e013 9abd eafd c03e d46f 223f
000001a0: b860 cdbe 7885 0cbe f94d 38be 5e6c 093f
000001b0: 57ce 223e 4432 933e 6044 973e b75f 41bd
000001c0: acbd be3d aa0d 1fbc 54df b5be 9c51 183f
000001d0: 34af 72bd d349 46be a292 423e 93d7 bebe
000001e0: b30b bb3e c41d 5a3e 7bef c73d a4d5 e3bc
000001f0: 317f 413f b212 a43c da6f 0b3d 3409 8f3e
00000200: 2427 283e 8d63 37c0 21f2 f9be 4a18 c63e
00000210: 4d2e ec3e b353 ab3e bf10 a3bf ea46 003e
00000220: f619 333e 3edb 963c 66bc 51be 1bba 0bbe
00000230: c72d 89bd 8fc0 babe 7f5a cdbc 3bdd 8dbe
00000240: 64a6 01bf cf8a 513e 4447 833e 23d5 adbd
00000250: 9897 b1be 2287 823e 71fe aa3b 3017 983f
00000260: cb11 f6bd 3312 cd3d 6d73 f53d 72f6 a73d
00000270: 0092 8cbf 20c1 debf fab5 ca3d fb59 7b3e
00000280: 355e 3e3d b13c 053f 239e 08be 8a2c c6be
00000290: 89b7 b6be 8560 28be 1321 433e 84d6 253f
000002a0: b8d9 843d bf82 eabe ff3d c3bc 51a6 e03c
000002b0: a195 f2be b7da 623d abbb 92be ea17 12bf
000002c0: 18cf 79be 7a41 a53e 0fec 90bf d479 4e3e
000002d0: 3ac0 eebd b035 40be a38d 9dbe c619 e73f
000002e0: 0390 0240 8e72 143e f7a1 0cbf a792 8fbe
000002f0: d12b 94bd 5ca4 65be 0cff 99be 7300 55be
00000300: f2d8 4fbe c902 343e 0ab9 e43d 3c34 863d
00000310: 880b 85be 1f40 dc3d 1603 5a3c d1d1 3abd
00000320: 8017 473e e15e a5be ebf8 25be 4252 c5be
00000330: af66 11be 5c6b e5be f5c9 96bb dff9 4c3d
00000340: 5eca 97be c203 debd f2a5 3540 053a a43f
00000350: 26cf ae3e e50a bfbe 42da 8dbd 6fd8 183f
00000360: c2c4 023e 802c 193e 9e2e 29bd c7f0 e13e
00000370: 7532 3b3e 81d1 413f 44bf 033f 352b c5bc
00000380: 8cdf 0b3f 7627 ad3b d27f 14bf 9748 37be
00000390: dde0 86be acef 5b3f 6a04 7c3e e995 703e
000003a0: 208f 6fbf 293a 8c3e 11f9 6ebe 2fea 173e
000003b0: d9e7 1bbe 25b8 a1be 9c50 253f 0470 32be
000003c0: ad22 79bd 7422 65be cadd 24be 8ae4 90be
000003d0: a2a7 96be f7ea 54be 130c d1bd 3fb3 26bc
000003e0: d30a b5bd f72b 713d 4fe1 f4be c178 2abe
000003f0: c254 943e f367 5b3b 99a2 b53e 4127 d23e

conv1.event__interacts__offer.lin_rel.bias f4 [16]
0.1472714 -0.5072836 -0.08346259 -0.08636017 0.16116403 0.32355136 -0.090418965 0.09075069
-0.39130318 -0.14097704 0.35197842 -0.08553202 -0.16425605 0.255289 -0.03706317 -0.23623516
00000000: 50ce 163e 57dd 01bf 6fee aabd 9add b0bd
00000010: 2f08 253e 86a8 a53e 942d b9bd 7fdb b93d
00000020: e458 c8be 495c 10be 8436 b43e 692b afbd
00000030: bd32 28be 3db5 823e 8dcf 17bd a1e7 71be

conv1.event__interacts__offer.lin_root.weight f4 [16, 7]
-0.053275026 0.28788233 0.20531793 -0.0263403 -0.3644734 -0.13491869 0.04648669 -0.22559734
-0.31966686 -0.79035884 0.078444 0.47907043 -0.16587794 -0.3382374 0.23103419 -0.14061601
-0.277958 -0.11158756 -0.03816636 -0.09585014 -0.15004824 0.60106754 -0.3933103 -0.27408254
-0.26901057 -1.3497849 -0.38893923 0.29815277 0.6265481 0.1067849 0.0049868356 -0.013518198
0.089447424 0.004610288 0.095449075 0.24076663 -0.27782467 -0.3099991 0.40347496 0.3849074
0.37461704 0.26417392 0.09988934 -0.9393478 -0.42084646 -0.13814805 0.8092093 -0.21198972
-0.14843117 -0.2962807 0.120887876 0.015580207 0.01738814 -0.22248465 0.028792273 0.034572337
-0.03918617 -0.5887777 0.008256981 -0.0649252 -0.40632236 -0.07957301 0.12610525 -0.69023734
0.047005057 -0.18017761 0.041012604 1.2171967 0.008208723 -0.73024493 0.28495085 0.25160825
-0.38000765 0.1851253 0.21582778 0.12746793 -0.14429592 0.3589241 -0.06920195 -0.12375424
0.063300595 -0.8826914 0.016420972 0.08135344 0.7193751 -0.068403766 -0.093616046 -0.120971106
-1.4844158 -0.01592775 0.7318927 0.62875915 -0.19458719 -0.003285058 -0.07035505 -0.529172
-0.048470918 -0.04137646 -0.64655197 0.21322645 -0.098626554 0.049604483 -0.052589875 0.048960123
0.09857998 -0.75117445 -0.6634281 -0.285175 -0.16324432 0.9156494 -0.27245957 -0.7849759
00000000: ea36 5abd 5065 933e dd3e 523e 9dc7 d7bc
00000010: 429c babe 2028 0abe d468 3e3d fd02 67be
00000020: 60ab a3be f554 4abf 3fa7 a03d b848 f53e
00000030: e8db 29be 742d adbe 3a94 6c3e a5fd 0fbe
00000040: 8350 8ebe 0588 e4bd 5454 1cbd 144d c4bd
00000050: 3fa6 19be 90df 193f f85f c9be 8c54 8cbe
00000060: c1bb 89be c0c5 acbf 0b23 c7be 7ba7 983e
00000070: 7565 203f 0bb2 da3d 9c68 a33b 6f7b 5dbc
00000080: 3630 b73d e611 973b ce7a c33d 878b 763e
00000090: 093f 8ebe 34b8 9ebe 4594 ce3e 9512 c53e
000000a0: cecd bf3e ce41 873e c892 cc3d 1979 70bf
000000b0: 3079 d7be af76 0dbe 5728 4f3f d513 59be
000000c0: 57fe 17be 1bb2 97be 1094 f73d 2044 7f3c
000000d0: 9371 8e3c 04d3 63be c6dd eb3c b99b 0d3d
000000e0: ad81 20bd 23ba 16bf 4a48 073c 81f7 84bd
000000f0: 7c09 d0be 2df7 a2bd bc21 013e 65b3 30bf
00000100: 6088 403d 7b80 38be d5fc 273d 1acd 9b3f
00000110: e17d 063c 55f1 3abf 14e5 913e ccd2 803e
00000120: 5d90 c2be 7d91 3d3e f501 5d3e f486 023e
00000130: 4fc2 13be e6c4 b73e c1b9 8dbd dd72 fdbd
00000140: bea3 813d 10f8 61bf 4685 863c a29c a63d
00000150: f728 383f 4617 8cbd c5b9 bfbd b3bf f7bd
00000160: 5601 bebf ea7a 82bc 525d 3b3f 5cf6 203f
00000170: dd41 47be 214a 57bb 4f16 90bd d177 07bf
00000180: 7189 46bd 5d7a 29bd 6e84 25bf 0958 5a3e
00000190: b8fc c9bd 122e 4b3d 7b68 57bd 698a 483d
000001a0: 4de4 c93d f84c 40bf 6dd6 29bf 7502 92be
000001b0: 8529 27be 0068 6a3f d27f 8bbe 2ef4 48bf

conv1.application__rev_interacts__event.lin_rel.weight f4 [16, 3]
0.11380029 0.10128978 0.09234411 -0.07515078 -0.24339297 -0.20833583 -0.25838926 -0.3541518
-0.39823335 -0.16339704 0.060997248 0.06806773 -0.15304576 -0.19413126 -0.16819033 -0.8402075
-0.7855578 -1.0762134 0.4762534 0.38082108 0.15980637 -0.0011547635 0.18838651 0.019410519
0.2190387 -0.34915417 -0.2707128 0.40107644 -0.06132001 -0.029125262 0.12662241 -0.1815374
-0.07118228 0.27563056 -0.06527358 -0.10566486 0.11417103 0.23324151 0.30946404 0.122272044
0.21517636 -0.111656725 0.109761454 0.1530445 0.113686986 0.1666079 0.015089636 0.034318645
00000000: 2010 e93d 0471 cf3d e91e bd3d a7e8 99bd
00000010: 023c 79be fd55 55be 994b 84be 6253 b5be
00000020: 3ee5 cbbe 8e51 27be 40d8 793d 1867 8b3d
00000030: 07b8 1cbe 58ca 46be 163a 2cbe d717 57bf
00000040: 511a 49bf 5cc1 89bf 7cd7 f33e fbfa c23e
00000050: 48a4 233e 6f5b 97ba 65e8 403e cf02 9f3c
00000060: ae4b 603e 56c4 b2be de9a 8abe e459 cd3e
00000070: b12a 7bbd 1a98 eebc 4ea9 013e f1e4 39be
00000080: 04c8 91bd 731f 8d3e 28ae 85bd d166 d8bd
00000090: 80d2 e93d ddd6 6e3e 1272 9e3e c469 fa3d
000000a0: 3157 5c3e 48ac e4bd 9dca e03d b3b7 1c3e
000000b0: b9d4 e83d 439b 2a3e 853a 773c b591 0c3d

conv1.application__rev_interacts__event.lin_rel.bias f4 [16]
-0.1600849 -0.04660035 0.36161634 0.22763652 -0.097070746 0.038259376 -0.21888433 0.31631848
-0.0033398846 -0.4101915 0.018774375 -0.58827746 -0.3378482 -0.5542327 0.31270424 0.30532232
00000000: 4ced 23be 02e0 3ebd c725 b93e 8c19 693e
00000010: 07cd c6bd ddb5 1c3d 3723 60be 7ff4 a13e
00000020: f7e1 5abb 9f04 d2be b8cc 993c 5a99 16bf
00000030: 70fa acbe 32e2 0dbf c51a a03e 3553 9c3e

conv1.application__rev_interacts__event.lin_root.weight f4 [16, 27]
0.37762132 0.039248355 0.26542577 0.5626632 0.4805645 0.2034238 0.12691696 0.10130022
0.23470363 0.027889114 0.42069814 -0.17461717 -0.118930936 -0.17875053 -0.059820324 -0.056430668
-0.22370662 -0.2588832 0.056253374 0.01923353 -0.21020499 -2.6629179 -0.19391334 0.035900813
0.20465258 0.5913476 -0.048901282 -0.14904334 -0.13847694 -0.033520363 -0.22149655 -0.06256039
-0.3139376 -0.35623708 -0.31092805 -0.14491513 -0.29792666 -0.80930823 -0.10584241 -0.18590662
0.07581696 0.10128454 0.5197809 -0.2235759 0.7113111 -0.40874937 -0.35762158 -0.0923284
1.288437 0.06434418 0.70687914 -0.14417487 -0.3289751 -0.10402666 0.1044256 0.17115514
0.048540846 0.07531743 0.23205881 -0.09573375 0.2332764 0.24368222 0.2743801 0.4076575
0.34191063 0.14168018 0.14568962 -0.2382531 -0.18229441 -0.111459844 -0.13417539 0.042967018
0.012781226 0.0048304517 0.07822878 -2.0000422 -0.06374234 0.29684997 -0.04188411 0.13911971
0.16982314 -0.6169333 -0.37985468 -0.58315283 -0.15234134 -0.5725008 0.05899046 -0.4907892
-0.31842747 -0.306605 -0.4015791 -0.12559539 0.010404266 -0.06513025 -0.09955317 -0.054591756
0.22309881 0.06483066 -0.24388061 -0.110089436 -0.3089733 -0.43881863 1.65372 -0.0807859
-0.08558531 0.13119768 -0.5289287 -0.28591013 -0.57483643 -0.35470995 -0.19485912 -0.34828228
-0.554509 0.00870534 -0.34712258 0.06506981 -0.19605726 -0.08868308 -0.10157097 -0.0018531819
0.16095737 0.048038352 0.07241482 0.18329653 0.24393371 -0.04269746 -0.12296232 -0.29717365
-0.4419706 2.4886723 0.07251606 0.1739654 0.075752534 -0.2210407 -0.11339778 0.30124083
0.20564373 -0.020575024 0.12568781 0.43695983 -0.8262409 -0.0035623221 -0.012856828 0.15618783
-0.6445767 0.07720362 0.0364729 -0.15374286 -0.2458775 -0.28084219 -0.014156014 0.048794314
-0.11012016 0.18054001 -0.09727689 0.1110931 0.99297845 -0.05110386 0.494153 -0.024374558
0.26991773 -0.0772215 0.14064395 -0.22417125 0.13178901 -0.27925825 0.41680357 0.040789038
0.4644601 0.33225244 -0.07997073 0.101276785 -0.004975664 -0.077917874 0.022798594 -0.71663964
-0.38112122 -0.4454833 -0.10367016 0.107639395 -0.04220967 0.028226215 -0.16256367 -1.641241
-0.19194193 0.3596814 -0.0017892095 0.64064103 -1.0398422 -0.09054594 -0.0166113 0.0010433433
0.30040225 0.23617733 0.101866506 0.21204692 -0.30457875 -0.20013751 0.2646979 -0.22340798
-0.09408295 -0.03748217 -0.116878755 -0.274698 -0.13843182 0.04246115 -0.02693547 -0.18844154
-0.07461751 0.05262308 -0.5485073 -0.025471982 -0.24778746 -0.46370375 0.06880321 0.04050118
-0.41077808 -0.37601402 -0.52064246 -0.46188718 -0.1985893 0.31021836 -0.2231683 0.31117705
-0.034381736 0.32938313 0.103988595 0.049052775 -0.064597875 -0.19255061 -0.025807628 -0.10830464
-0.008891163 -0.14441107 0.06458325 -0.1453923 -0.005472454 -0.96984035 -0.11742116 0.13457435
-0.19482763 0.011984528 0.12137377 -0.17686002 -0.2727431 -0.33122972 -0.04801816 0.0023397522
-0.016647832 -0.25018963 0.10669721 -0.046563733 -0.0877322 -0.028835114 0.14344099 -0.182776
00000000: 9557 c13e e2c2 203d e3e5 873e b20a 103f
00000010: 8d0c f63e 544e 503e 85f6 013e 7d76 cf3d
00000020: 2656 703e b677 e43c bf65 d73e d8ce 32be
00000030: 1092 f3bd 610a 37be 2806 75bd d823 67bd
00000040: 5913 65be 578c 84be f069 663d a38f 9d3c
00000050: fa3f 57be 3f6d 2ac0 3891 46be bb0c 133d
00000060: 7290 513e 8e62 173f b64c 48bd d19e 18be
00000070: e6cc 0dbe a64c 09bd fecf 62be a91f 80bd
00000080: 6ebc a0be b564 b6be f631 9fbe a264 14be
00000090: d889 98be d32e 4fbf e8c3 d8bd 4e5e 3ebe
000000a0: ec45 9b3d 456e cf3d 5c10 053f 15f1 64be
000000b0: 7c18 363f 9947 d1be 2d1a b7be ac16 bdbd
000000c0: 81eb a43f e2c6 833d 08f6 343f 94a2 13be
000000d0: 6d6f a8be ee0b d5bd 17dd d53d 4b43 2f3e
000000e0: c4d2 463d 0640 9a3d d3a0 6d3e 0e10 c4bd
000000f0: 02e0 6e3e d587 793e 8c7b 8c3e 7cb8 d03e
00000100: e90e af3e 9c14 113e a92f 153e 9ff8 73be
00000110: 63ab 3abe 0f45 e4bd 4665 09be 2ffe 2f3d
00000120: 5968 513c c448 9e3b 6936 a03d b100 00c0
00000130: 588b 82bd b8fc 973e ac8e 2bbd 6675 0e3e
00000140: 1ee6 2d3e 57ef 1dbf 507c c2be 8149 15bf
00000150: 5eff 1bbe 6a8f 12bf fb9f 713d b948 fbbe
00000160: ed08 a3be 55fb 9cbe c79b cdbe 149c 00be
00000170: a876 2a3c 0263 85bd 88e2 cbbd 9b9b 5fbd
00000180: 0474 643e f0c5 843d d7bb 79be 9276 e1bd
00000190: c031 9ebe d6ac e0be 19ad d33f 1473 a5bd
000001a0: 5a47 afbd af58 063e df67 07bf d062 92be
000001b0: 7b28 13bf 8b9c b5be 2689 47be 0e52 b2be
000001c0: 4df4 0dbf d8a0 0e3c 0dba b1be 5243 853d
000001d0: 3cc3 48be 7a9f b5bd 7104 d0bd 77e6 f2ba
000001e0: 02d2 243e ddc3 443d 394e 943d 16b2 3b3e
000001f0: c2c9 793e 88e3 2ebd abd3 fbbd 2527 98be
00000200: f849 e2be 6846 1f40 4d83 943d fc23 323e
00000210: 2524 9b3d 7e58 62be 183d e8bd 3d3c 9a3e
00000220: 4594 523e f48c a8bc 4eb4 003e 33b9 df3e
00000230: 8684 53bf d975 69bb 72a5 52bc b4ef 1f3e
00000240: fb02 25bf ee1c 9e3d 9c64 153d c56e 1dbe
00000250: 50c7 7bbe 8cca 8fbe a0ee 67bc 8cdc 473d
00000260: ae86 e1bd 7bdf 383e 1b39 c7bd c784 e33d
00000270: d633 7e3f 4852 51bd 9f01 fd3e 27ad c7bc
00000280: a832 8a3e 4e26 9ebd f804 103e 268d 65be
00000290: b3f3 063e f0fa 8ebe 4767 d53e 6812 273d
000002a0: b7cd ed3e fe1c aa3e b2c7 a3bd 346a cf3d
000002b0: e50a a3bb 6893 9fbd 1ec4 ba3c b275 37bf
000002c0: 5222 c3be 6316 e4be 0551 d4bd 0b72 dc3d
000002d0: 0ce4 2cbd aa3a e73c 1777 26be 2f14 d2bf
000002e0: 6d8c 44be 2928 b83e e983 eaba 0d01 243f
000002f0: 8d19 85bf 2670 b9bd 6c14 88bc cbc0 883a
00000300: 53ce 993e 78d8 713e 639f d03d d422 593e
00000310: bff1 9bbe d9f0 4cbe 7c86 873e 10c5 64be
00000320: 90ae c0bd e786 19bd 215e efbd 37a5 8cbe
00000330: 12c1 0dbe beeb 2d3d c6a7 dcbc d2f6 40be
00000340: 11d1 98bd 4c8b 573d f96a 0cbf 9eaa d0bc
00000350: ffbb 7dbe 946a edbe b3e8 8c3d 91e4 253d
00000360: 8151 d2be e984 c0be d348 05bf 7a7c ecbe
00000370: fe5a 4bbe f1d4 9e3e 3b86 64be 9952 9f3e
00000380: ddd3 0cbd e8a4 a83e f9f7 d43d 90eb 483d
00000390: e44b 84bd fd2b 45be 856a d3bc d3ce ddbd
000003a0: 3eac 11bc 7fe0 13be 3944 843d b8e1 14be
000003b0: 4552 b3bb 7547 78bf 817a f0bd dccd 093e
000003c0: e580 47be c15a 443c d092 f83d cb1a 35be
000003d0: fca4 8bbe f196 a9be b1ae 44bd 8756 193b
000003e0: 0961 88bc db18 80be 1184 da3d 9db9 3ebd
000003f0: f1ac b3bd 9e37 ecbc 32e2 123e a229 3bbe

conv1.offer__rev_interacts__event.lin_rel.weight f4 [16, 7]
0.14612487 0.258421 -0.33686522 0.009939473 0.32802412 0.022126913 0.18013512 -0.06392163
-0.8734639 -0.19729227 -0.39127165 0.1320736 -0.3236074 0.2585822 0.35412675 0.11978923
0.15767221 -0.057117026 -0.47886983 0.010076833 -0.21630143 0.2568089 0.42770973 0.05449443
0.47196674 0.93336916 0.40273076 0.04420529 -0.012530644 -0.4233502 0.084414594 -0.09989498
0.39398035 -0.07595187 0.11894867 0.30942947 0.56683373 -0.07762698 0.089589186 -1.9635606
0.036036726 -0.51063925 -0.34528214 -1.044278 -0.5533833 0.015096012 1.0989035 0.0069519416
-0.104451455 -0.07804659 -0.17193574 -0.32255256 -0.22299401 -0.49812892 0.1246945 -0.23450957
-0.50028706 -0.11632401 -0.1506945 0.0043889545 0.81804615 0.032443646 -0.36989397 -0.40738642
0.3634832 -0.3441765 0.038936507 0.9939422 0.20718414 -0.13014078 -0.34941497 -0.16455527
-0.024822991 -0.033692442 -0.6548168 -0.2441602 -0.2621865 0.395612 0.107951306 0.46460998
0.20678242 0.6036606 0.19839093 0.5541868 -0.3807715 0.08012055 -0.23038122 -0.02248119
-1.1541154 -0.050277628 -0.11529942 -0.010226366 0.12368709 -0.26778638 0.016520193 0.18242629
0.119873434 0.053723413 0.3302099 0.16057868 0.11729832 0.22740152 0.73098004 0.2111996
-0.02011118 -0.09467923 -0.17203602 -0.010399463 -0.015723284 -0.64184093 -0.034687977 -0.5437529
00000000: c2a1 153e c24f 843e 9979 acbe 2cd9 223c
00000010: c7f2 a73e 8043 b53c 5775 383e 58e9 82bd
00000020: 559b 5fbf fc06 4abe c254 c8be 4d3e 073e
00000030: deaf a5be e364 843e 1a50 b53e 0e54 f53d
00000040: d374 213e 8bf3 69bd 6d2e f5be 4d19 253c
00000050: 1f7e 5dbe 757c 833e c5fc da3e 8d35 5f3d
00000060: a0a5 f13e 48f1 6e3f ba32 ce3e 9b10 353d
00000070: 554d 4dbc 5bc1 d8be 8fe1 ac3d bd95 ccbd
00000080: cbb7 c93e a78c 9bbd 5c9b f33d 8a6d 9e3e
00000090: 041c 113f e5fa 9ebd 897a b73d f455 fbbf
000000a0: 3f9b 133d 41b9 02bf d2c8 b0be e7aa 85bf
000000b0: 87aa 0dbf 4355 773c dfa8 8c3f 1dcd e33b
000000c0: a5ea d5bd e4d6 9fbd ec0f 30be 9c25 a5be
000000d0: 8b58 64be c10a ffbe d45f ff3d 4723 70be
000000e0: d012 00bf 483b eebd a94f 1abe 38d1 8f3b
000000f0: 796b 513f a1e3 043d be62 bdbe f494 d0be
00000100: 781a ba3e e737 b0be e37b 1f3d ff72 7e3f
00000110: 1428 543e a043 05be 85e6 b2be 2d81 28be
00000120: 9659 cbbc 1601 0abd 13a2 27bf 2205 7abe
00000130: 4f3d 86be a88d ca3e 9315 dd3d 5ce1 ed3e
00000140: c5be 533e 8089 1a3f fe26 4b3e 30df 0d3f
00000150: 7bf4 c2be 3e16 a43d 0ee9 6bbe 792a b8bc
00000160: 0eba 93bf eaef 4dbd 1a22 ecbd 7d8c 27bc
00000170: a84f fd3d 4c1b 89be 5b55 873c f5cd 3a3e
00000180: 3480 f53d 150d 5c3d 4611 a93e bd6e 243e
00000190: 1a3a f03d f2db 683e 8221 3b3f b544 583e
000001a0: 34c0 a4bc 2fe7 c1bd 362a 30be 8262 2abc
000001b0: 1ece 80bc b04f 24bf fb14 0ebd 6433 0bbf

conv1.offer__rev_interacts__event.lin_rel.bias f4 [16]
-0.0811257 0.07018986 0.256309 -0.019974696 0.11146077 0.11966193 -0.40266213 -0.07170216
0.096445404 0.1669523 0.21200405 0.1843367 -0.2725843 0.20436317 -0.1951939 0.18670556
00000000: 3b25 a6bd b4bf 8f3d ef3a 833e f9a1 a3bc
00000010: 8b45 e43d 5011 f53d bb29 cebe 95d8 92bd
00000020: 2b85 c53d 8bf5 2a3e 9717 593e c3c2 3c3e
00000030: 2b90 8bbe 9444 513e e9e0 47be be2f 3f3e

conv1.offer__rev_interacts__event.lin_root.weight f4 [16, 27]
0.41882953 0.07217635 -0.063108854 0.2562171 0.5231034 0.20606612 0.44320485 0.117991686
0.06602229 0.24123298 0.07325297 -0.102493875 -0.2045901 -0.26920924 -0.19113871 -0.09405059
-0.18891473 0.0811916 0.06743509 0.11756592 0.08672295 -2.756466 0.10779394 0.199013
0.4175898 0.26382652 -0.22147784 -0.39248726 -0.18838838 -0.12504087 0.04797213 -0.24001905
-0.09670115 -0.4347394 -0.4380449 -0.003907715 -0.34708822 -0.54624736 0.16276768 -0.2531574
-0.025238512 0.0052666725 0.3939628 -0.4474265 0.50752133 -0.3797389 -0.1970004 0.026913032
1.2294521 0.19261096 0.72434527 -0.055010688 -0.15085964 -0.11530756 0.41041785 0.27897087
0.05914918 0.111130536 0.014628106 -0.2948248 0.39421996 0.20052017 0.050005488 0.17767446
0.2490632 -0.041497834 -0.18470114 -0.23759082 0.02171696 -0.088618554 -0.23250799 0.07909837
0.15023729 0.27701753 0.0649028 -2.2487204 -0.1023621 0.10209239 -0.1603644 -0.17408289
-0.15443604 -0.6361478 -0.44154063 -0.43611556 -0.1772702 -0.6915981 0.02524886 -0.41555345
-0.25882107 -0.1356054 -0.29359448 -0.17996806 0.0013786892 0.08051806 0.12079862 -0.016299576
-0.001791219 -0.12345797 -0.065251395 -0.06325563 -0.15486208 -0.44601962 1.9893545 -0.05364545
0.20008734 -0.14474547 -0.26916814 -0.20738098 -0.7870193 -0.3272519 -0.09098729 -0.30638042
-0.40451095 -0.06957876 -0.430098 -0.047450736 -0.008304683 -0.43194225 -0.14938366 -0.007998495
-0.00029760547 0.33015588 0.22291332 0.22659294 0.13957374 0.11608998 -0.13055176 -0.20533949
-0.35279864 2.4070554 0.15535739 0.08779914 0.030735994 -0.345905 -0.103977464 0.113213874
0.0030938077 0.25615326 0.08560903 0.3675984 -0.6849312 0.20345154 0.24721439 -0.10936821
-0.7327304 0.11287627 0.047520783 0.017141331 -0.39172852 -0.24851239 0.0825916 -0.12937956
0.13026828 0.052699678 -0.06823097 -0.12401822 1.0815794 -0.11241552 0.54528415 -0.043378357
0.026554799 0.1635304 -0.083055384 0.09894347 0.03379123 -0.26908273 0.41227347 -0.2776208
0.20921086 0.46147105 0.0927141 0.4289267 0.06065696 0.049395543 -0.08847971 -0.47453466
-0.03470772 -0.28305945 -0.15654017 0.031583592 -0.28233388 -0.06321828 -0.117772914 -1.5803
-0.3182518 0.35528907 -0.20547484 0.8012189 -0.900378 0.027565848 -0.029178396 -0.090952516
0.23671813 0.14743182 0.013656417 0.22876044 -0.17706098 -0.14663756 0.22057346 -0.30171034
-0.15512094 0.02322691 -0.23642698 -0.20101821 -0.11409962 -0.15745863 -0.20571814 -0.0812413
0.06891733 0.07691286 -0.45169005 -0.13916059 -0.4115188 -0.443313 -0.0415488 -0.084116146
-0.17894368 -0.47461212 -0.19660422 -0.10522846 -0.3199158 0.13103747 -0.039906852 0.16599046
0.23624472 -0.019568618 0.1082284 0.18021923 0.005965009 -0.07725315 -0.072910555 -0.17505111
-0.21508509 -0.27071714 -0.06451475 -0.16783431 -0.1683837 -1.0716659 0.12552874 0.27744308
-0.062391177 -0.11032201 0.03878201 -0.37608343 -0.24123514 -0.5283865 -0.07046719 0.022679172
-0.1334597 -0.15031058 0.46167383 0.076299556 -0.019655474 -0.07932996 -0.11872446 0.06446684
00000000: d370 d63e 32d1 933d 373f 81bd e32e 833e
00000010: 1bea 053f ff02 533e bfeb e23e a0a5 f13d
00000020: b236 873d c705 773e a705 963d 4fe8 d1bd
00000030: 1180 51be cbd5 89be deb9 43be 999d c0bd
00000040: dd72 41be c847 a63d 691b 8a3d 67c6 f03d
00000050: cd9b b13d f069 30c0 12c3 dc3d 10ca 4b3e
00000060: 55ce d53e 4514 873e 16cb 62be 17f4 c8be
00000070: e2e8 40be b70a 00be 6d7e 443d 8ec7 75be
00000080: 410b c6bd 2a96 debe 6c47 e0be 4a0c 80bb
00000090: 8cb5 b1be ded6 0bbf 92ac 263e d99d 81be
000000a0: ffc0 cebc 0d94 ac3b 7eb5 c93e 1615 e5be
000000b0: ebec 013f 236d c2be 79ba 49be b878 dc3c
000000c0: b05e 9d3f cf3b 453e b16e 393f e352 61bd
000000d0: f37a 1abe 5f26 ecbd 4a22 d23e 45d5 8e3e
000000e0: 6946 723d 6898 e33d b9aa 6f3c 47f3 96be
000000f0: 33d7 c93e 2955 4d3e 8ed2 4c3d 4bf0 353e
00000100: 6c0a 7f3e a2f9 29bd 4c22 3dbe 024b 73be
00000110: c4e7 b13c a57d b5bd 9316 6ebe 54fe a13d
00000120: ced7 193e 3ed5 8d3e c2eb 843d 09eb 0fc0
00000130: 38a3 d1bd d115 d13d 9136 24be c942 32be
00000140: 7b24 1ebe 95da 22bf 9d11 e2be 8a4a dfbe
00000150: 5286 35be 930c 31bf b2d6 ce3c 6cc3 d4be
00000160: 3284 84be 24dc 0abe 0452 96be 8c49 38be
00000170: 22b5 b43a a7e6 a43d 4465 f73d b086 85bc
00000180: 56c7 eaba 88d7 fcbd 86a2 85bd 2b8c 81bd
00000190: 2a94 1ebe af5c e4be 2ba3 fe3f 55bb 5bbd
000001a0: b2e3 4c3e 2838 14be 68d0 89be ae5b 54be
000001b0: 197a 49bf 908d a7be 8b57 babd e5dd 9cbe
000001c0: 0f1c cfbe 4f7f 8ebd ce35 dcbe b45b 42bd
000001d0: 5d10 08bc 8927 ddbe 08f8 18be 1f0c 03bc
000001e0: ee07 9cb9 310a a93e 6443 643e fb07 683e
000001f0: 6bec 0e3e 95c0 ed3d 5caf 05be 8444 52be
00000200: 06a2 b4be 320d 1a40 0216 1f3e 09d0 b33d
00000210: 0dca fb3c 761a b1be 23f2 d4bd addc e73d
00000220: 7bc1 4a3b 8526 833e ca53 af3d dc35 bc3e
00000230: a757 2fbf 9a55 503e c525 7d3e 71fc dfbd
00000240: 3894 3bbf ad2b e73d 27a5 423d fa6b 8c3c
00000250: a490 c8be 087a 7ebe c925 a93d 137c 04be
00000260: 0c65 053e 9edb 573d aebc 8bbd 44fd fdbd
00000270: 3271 8a3f 1c3a e6bd be97 0b3f 81ad 31bd
00000280: 7389 d93c 8374 273e f118 aabd e0a2 ca3d
00000290: ac68 0a3d 36c5 89be 8215 d33e 5024 8ebe
000002a0: 5f3b 563e ef45 ec3e e4e0 bd3d 489c db3e
000002b0: 6f73 783d fb52 4a3d da34 b5bd 35f6 f2be
000002c0: af29 0ebd 2bed 90be 114c 20be cc5d 013d
000002d0: 118e 90be 9678 81bd ed32 f1bd 4547 cabf
000002e0: e6f1 a2be 73e8 b53e ff67 52be af1c 4d3f
000002f0: 2c7f 66bf c6d1 e13c 8807 efbc 5045 babd
00000300: 3d66 723e 5ef8 163e 2abf 5f3c 2d40 6a3e
00000310: 794f 35be 2828 16be 02de 613e c779 9abe
00000320: 06d8 1ebe 5c46 be3c ea19 72be b8d7 4dbe
00000330: 10ad e9bd d63c 21be c7a7 52be d761 a6bd
00000340: 8724 8d3d 7d84 9d3d eb43 e7be 1d80 0ebe
00000350: 98b2 d2be ecf9 e2be 132f 2abd 1645 acbd
00000360: 033d 37be 5c00 f3be 9e52 49be 0582 d7bd
00000370: 01cc a3be b02e 063e 5e75 23bd 67f9 293e
00000380: 23ea 713e 5e4e a0bc daa6 dd3d 648b 383e
00000390: 1f76 c33b e636 9ebd 2152 95bd 9940 33be
000003a0: 443f 5cbe 709b 8abe 4f20 84bd c2dc 2bbe
000003b0: c76c 2cbe 592c 89bf 9b8a 003e 050d 8e3e
000003c0: e48d 7fbd 82f0 e1bd e3d9 1e3d 028e c0be
000003d0: 5806 77be 5644 07bf 1a51 90bd acc9 b93c
000003e0: a9a9 08be 04eb 19be 8360 ec3e f142 9c3d
000003f0: 8404 a1bc bf77 a2bd cf25 f3bd 3107 843d
