models/CS/efg/exp_v3/no_subgraph_sampling/lr=0.001_hidden_dim=16/HigherOrderGNN_20230830_09h45m/state_dict_epoch6.pt (torch, 7999 bytes, 7 tensors)

convs.0.lin_rel.weight f4 [16, 15]
0	0x3d966bde	0.07344793
1	0x3df2f955	0.118639626
2	0x3d081b4c	0.033229157
3	0x3e0a6be0	0.13517714
4	0xbe691045	-0.22760113
5	0x3d17394d	0.03691988
6	0x3cc948c0	0.024570823
7	0xbe6abca1	-0.22923519
8	0xbd421d34	-0.04739113
9	0x3ded7254	0.11594072
10	0x3d88edda	0.066859916
11	0x3e29647f	0.16542242
12	0x3cff699c	0.031178288
13	0x3ddf4629	0.10902054
14	0xbe88fdef	-0.26756236
15	0xbe4ec331	-0.20191647
16	0xbe247e8e	-0.16063902
17	0xbe082422	-0.13295034
18	0xbcf79b1d	-0.030225331
19	0x3af049ff	0.00183326
20	0xbd1c0095	-0.038086493
21	0x3eb3efb0	0.35143805
22	0xbcfab611	-0.030604394
23	0x3df4b152	0.11947884
24	0xbcb775ce	-0.02239504
25	0x3df7345d	0.120705344
26	0xbd871b85	-0.06597046
27	0xbd566c76	-0.05234953
28	0xbc2666e4	-0.010156367
29	0x3e1c0337	0.15235601
30	0xbe27b3cf	-0.16377185
31	0x3d5d5d37	0.054043975
32	0xbcb4ae15	-0.022055665
33	0xbe70ac95	-0.23503335
34	0xbe4bef38	-0.19915473
35	0xbca0a063	-0.019607728
36	0x3db19847	0.08671623
37	0xbe97c985	-0.29645935
38	0xbe4037ab	-0.18771236
39	0x3df2fc3e	0.11864518
40	0x3e2a0e46	0.16607007
41	0x3d424125	0.047425408
42	0xbd970ab5	-0.07375089
43	0xbb94a7a3	-0.0045365854
44	0xbd7447bc	-0.059638724
45	0x3e5dc367	0.21656571
46	0x3de57f61	0.11205936
47	0x3e4e726b	0.20160834
48	0xbe7459fb	-0.2386245
49	0x3e1bf561	0.15230323
50	0x3dbe4b3b	0.09291693
51	0x3df8a4fb	0.121408425
52	0x3da7f584	0.08201125
53	0xbd5ff702	-0.054678924
54	0x3e214585	0.15749176
55	0x3e512437	0.20423971
56	0xbe621af6	-0.22080597
57	0xbd074014	-0.033020094
58	0x3e10c55d	0.14137788
59	0x3e6c6bda	0.23088017
60	0x3d5111ce	0.05104237
61	0xbd084776	-0.033271275
62	0x3cb39649	0.021922247
63	0x3df42070	0.119202495
64	0x3e4efc4c	0.20213431
65	0x3ddba592	0.107249394
66	0x3d87a34d	0.06622944
67	0xbe4f5ffa	-0.20251456
68	0xbdd8bf44	-0.10583356
69	0x3d07fd04	0.03320028
70	0x3e7ef2c6	0.24897298
71	0xbe5aeb3f	-0.21378802
72	0x3ba292fd	0.00496137
73	0x3d668830	0.056282222
74	0xbd8233d1	-0.063575394
75	0x3d0a7c2c	0.033809826
76	0x3dde4754	0.108534485
77	0xbc3fdd35	-0.011710455
78	0x3e70a4ca	0.23500362
79	0x3be3fa50	0.00695733
80	0x3e3c0787	0.18362246
81	0x3d96f752	0.07371391
82	0x3e5d8247	0.21631728
83	0xbea5ce54	-0.32383978
84	0x3ccb38e5	0.024807403
85	0xbe4bcc6b	-0.19902198
86	0x3dcd45c2	0.10023071
87	0xbe18941b	-0.14900248
88	0x3d8976de	0.06712125
89	0x3dd33874	0.10313502
90	0x3e091142	0.1338549
91	0x3dca510d	0.098787405
92	0x3d671d8d	0.056424666
93	0x3e1242f4	0.14283353
94	0xbdcc4342	-0.09973766
95	0x3d319e5f	0.043363925
96	0xbe3de56c	-0.18544549
97	0x3e2529c0	0.16129208
98	0xbe8f1135	-0.27942815
99	0xbe6b387c	-0.22970766
100	0xbe2753eb	-0.16340606
101	0xbe884fb8	-0.2662332
102	0x3cc5aaa9	0.024129229
103	0xbb41a3ae	-0.0029547024
104	0x3c5f4b24	0.013628755
105	0x3e3f8d26	0.18706188
106	0x3e0db9a3	0.13840346
107	0xbda0504e	-0.07827817
108	0x3d7e5cd0	0.06210023
109	0xbe358551	-0.17726637
110	0x3d970303	0.07373621
111	0xbea215f1	-0.31657365
112	0x3d73ce78	0.059523076
113	0x3cb42187	0.021988643
114	0x3d8bc0a3	0.06823852
115	0xbe018493	-0.1264823
116	0x3e77e0d9	0.24206866
117	0x3ddf3955	0.10899607
118	0xbd5733e8	-0.052539736
119	0x3e6ffdd0	0.23436666
120	0xbdd095a6	-0.10184793
121	0xbcb9002a	-0.022583086
122	0x3dab0353	0.083502434
123	0x3d839177	0.064242296
124	0x3d909cf2	0.07061185
125	0x3db26ed8	0.08712548
126	0x3d2d2f21	0.042281274
127	0xbecbf903	-0.39838418
128	0xbd35bb00	-0.04436779
129	0x3d1e2878	0.038612813
130	0x3de8e7ea	0.11372359
131	0x3e2cc12b	0.16870563
132	0xbe4ae2a7	-0.19813024
133	0x3e7c6a18	0.24649847
134	0x3d81e92d	0.06343303
135	0x3ead0fd2	0.33801132
136	0x3e37fa69	0.17966618
137	0xbd2e45e0	-0.042547107
138	0xbcf27a57	-0.029599352
139	0xbe6cac05	-0.23112495
140	0xbb66ce89	-0.003521832
141	0x3cdb4349	0.026765483
142	0xbd828bed	-0.06374345
143	0x3d895217	0.067051105
144	0xbe52d649	-0.20589556
145	0xbe50ab8b	-0.20377938
146	0xbdba9966	-0.0911129
147	0x3e1023f2	0.14076212
148	0x3cf174e4	0.029474683
149	0xbd491f27	-0.049101975
150	0x3b130e7c	0.0022439053
151	0xbcaa4af9	-0.020787703
152	0xbd357d6f	-0.044309076
153	0xbd6c8b30	-0.057749927
154	0xbe9c3e76	-0.30516404
155	0x3c097510	0.008389726
156	0xbc4bbd71	-0.012435303
157	0xbde5747e	-0.1120386
158	0xbd75745d	-0.059925426
159	0x3c070a5a	0.008242214
160	0x3e1db5ee	0.15401432
161	0xbb4fb3ed	-0.0031692937
162	0xbe888849	-0.26666477
163	0xbe4bf5ed	-0.19918032
164	0x3d5661ea	0.052339472
165	0xbe15689b	-0.14590685
166	0xbe6d9ee0	-0.23205137
167	0x3d802e2f	0.06258809
168	0xbd95155b	-0.07279464
169	0xbd20dd3d	-0.03927349
170	0x3da7afd5	0.08187834
171	0x3da95b95	0.08269421
172	0x3e018116	0.12646899
173	0xbe740e36	-0.23833546
174	0xbe0b4ee0	-0.13604307
175	0x3d51c46d	0.051212717
176	0xbd61cd69	-0.055127535
177	0x3e350b1e	0.17680022
178	0x3e62b389	0.221388
179	0xbe86c1f2	-0.26319844
180	0x3deb2b23	0.11482837
181	0xbcd01068	-0.025398448
182	0x3e1ad5e0	0.1512065
183	0x3da7f7b0	0.082015395
184	0x3db10f3b	0.08645483
185	0x3c72445d	0.014786807
186	0x3dac252c	0.084055275
187	0xbd791a4c	-0.060816094
188	0xbc98a336	-0.018632513
189	0xbba015ee	-0.0048854267
190	0xbe3ae5e6	-0.18251762
191	0x3e1046e5	0.14089544
192	0xbe30f348	-0.17280304
193	0xbe5ea433	-0.21742325
194	0xbeda88b8	-0.42682433
195	0xbe7ec76c	-0.24880761
196	0xbe468e1a	-0.19390145
197	0xbe2d6918	-0.16934621
198	0xbe7a1af0	-0.24424338
199	0x3d9da498	0.076974094
200	0xbe080509	-0.13283171
201	0xbe4408b8	-0.19143951
202	0xbd4cd3ab	-0.05000655
203	0x3dccf25f	0.10007166
204	0x3c51bf2d	0.0128019275
205	0xbe283715	-0.16427262
206	0x3c6dcacf	0.014513685
207	0x3d8a8b7f	0.06764888
208	0x3ccac107	0.024750246
209	0xbe0bd2b2	-0.13654593
210	0xbce78ff6	-0.028266888
211	0xbcff775d	-0.031184847
212	0x3ce681ea	0.02813812
213	0x3e29db5c	0.16587585
214	0x3c4d888a	0.0125447605
215	0xbb7c3d64	-0.003848874
216	0xbd904ec6	-0.07046275
217	0xbe331cfd	-0.17491527
218	0x3d332ccb	0.04374389
219	0xbe2d7db4	-0.16942483
220	0xbcb7b616	-0.022425693
221	0xbe6cd324	-0.23127419
222	0xbdb695e9	-0.08915312
223	0xbdef266b	-0.116772495
224	0xbf1b307b	-0.6062085
225	0x3d2ad0cd	0.041703034
226	0x3c47d993	0.01219787
227	0x3d1d3905	0.038384456
228	0xbd7342fc	-0.059390053
229	0x3d590503	0.052983295
230	0xbdd76109	-0.10516555
231	0xbd0faf68	-0.03507939
232	0x3e18bebc	0.1491651
233	0xbd14cefe	-0.036330216
234	0x3e2c137f	0.16804312
235	0x3d9de8b0	0.07710397
236	0x3da41fa4	0.080138475
237	0x3e735471	0.2376268
238	0xbe144cf0	-0.14482474
239	0xbdb8bd4a	-0.09020479

convs.0.lin_rel.bias f4 [16]
0	0xbe89f803	-0.2694703
1	0x3e4b9200	0.19879913
2	0x3e182af1	0.14860131
3	0x3ea8fbac	0.3300451
4	0xbdc02e0e	-0.09383784
5	0x3e36d389	0.17854132
6	0x3e6e34eb	0.23262374
7	0x3d889cd5	0.06670538
8	0xbd53c861	-0.051704768
9	0x3c29ffbf	0.010375916
10	0x3e77f8f8	0.24216068
11	0xbe40c8b8	-0.18826568
12	0xbb64aad9	-0.0034891872
13	0x3e276063	0.16345362
14	0xbe4f44b7	-0.20241056
15	0xbe0eed9c	-0.13957828

convs.0.lin_root.weight f4 [16, 15]
0	0x3d65f6b5	0.05614348
1	0x3e09b783	0.1344891
2	0x3d01baf4	0.031672433
3	0x3c9a83f6	0.018861752
4	0xbcdf09c5	-0.027226338
5	0x3d6585af	0.056035694
6	0x3e37add0	0.17937398
7	0x3bb1adb0	0.0054223165
8	0xbe4eb76f	-0.20187162
9	0x3c02012b	0.007934849
10	0x3d9996f6	0.07499497
11	0xbcb9b27f	-0.022668121
12	0x3e884f0b	0.26622805
13	0xbe978ca6	-0.29599494
14	0xbe4760e6	-0.19470558
15	0x3df6efcd	0.12057457
16	0x3e176720	0.14785433
17	0x3de27dde	0.110591635
18	0xbd604054	-0.054748848
19	0xbe3827aa	-0.1798388
20	0x3ae6d1a1	0.0017610082
21	0xbd29d2a2	-0.04146064
22	0x3e1876ca	0.14889064
23	0x3de0dc83	0.10979559
24	0x3dadcba7	0.08486109
25	0xbdebb946	-0.115099475
26	0xbc5c2804	-0.013437275
27	0xbe869c35	-0.26291052
28	0xbdf80f22	-0.12112261
29	0x3c20f61a	0.0098243
30	0xbea5d30b	-0.32387576
31	0xbd852091	-0.06500352
32	0xbc9543e0	-0.018220842
33	0x3df694df	0.12040114
34	0xbd83baf2	-0.06432141
35	0xbcd9a9b0	-0.026570171
36	0xbc8dd2d3	-0.017312443
37	0xbf03e067	-0.51514286
38	0xbdb11d71	-0.08648194
39	0xbdb4b561	-0.08823658
40	0x3b268e23	0.002541431
41	0xbdd99f36	-0.1062607
42	0x3d708b2b	0.05872647
43	0xbe3786d1	-0.17922522
44	0xbefe7803	-0.49700937
45	0x3c54ff9b	0.013000394
46	0xbd268b1c	-0.04066001
47	0x3e0a8310	0.13526559
48	0xbbb6808e	-0.005569524
49	0x3e1f0900	0.15530777
50	0xbebfcf00	-0.37462616
51	0xbe5eeae2	-0.21769288
52	0x3eb6390c	0.35590398
53	0xbd99b1d5	-0.07504622
54	0xbdde8a68	-0.10866243
55	0xbdafb695	-0.08579747
56	0x3de7dddf	0.113216154
57	0x3e31b605	0.17354591
58	0xbe3db5ce	-0.18526384
59	0x3dea2dc3	0.114345096
60	0x3d8a74da	0.06760569
61	0x3e9914d8	0.29898715
62	0x3e045716	0.12923846
63	0xbddb3fe5	-0.10705546
64	0xbdf76329	-0.1207946
65	0xbd8fa06a	-0.070130184
66	0x3deb63af	0.114936225
67	0xbee818a8	-0.4533131
68	0xbdb41fef	-0.08795153
69	0xbe15c14b	-0.14624517
70	0x3eb18675	0.34672895
71	0x3e8285d5	0.2549273
72	0x3d30f9b5	0.04320689
73	0x3e0633fe	0.13105771
74	0x3df79358	0.120886505
75	0x3d1f8151	0.038941685
76	0x3e3a0098	0.18164289
77	0x3e3fa544	0.18715388
78	0x3e0953c4	0.1341086
79	0xbe89440d	-0.2680973
80	0xbe2ed7f6	-0.1707457
81	0x3d206cfc	0.039166436
82	0x3e2cde7f	0.1688175
83	0xbc74b294	-0.0149351545
84	0xbe1ff2ce	-0.15619966
85	0x3d66292f	0.05619162
86	0xbd134426	-0.035953663
87	0x3e3cedbf	0.18450068
88	0x3e2238c2	0.15841964
89	0xbe2d0178	-0.16895092
90	0xbc92612d	-0.017868603
91	0x3c77b65f	0.015119164
92	0x3ca4d5fa	0.020121563
93	0xbef441b3	-0.47706375
94	0xbec36384	-0.38161862
95	0x3d86529c	0.06558725
96	0x3ca129bc	0.01967322
97	0xbe6e2c77	-0.2325915
98	0xbe7327cc	-0.2374565
99	0x3e38a907	0.18033229
100	0x3e088f56	0.13335928
101	0xbd791565	-0.06081142
102	0xbd3722af	-0.04471081
103	0xbb820baf	-0.003968678
104	0xba813168	-0.0009856643
105	0xbd89fba2	-0.06737448
106	0x3e176e2f	0.14788125
107	0xbd8f05f0	-0.06983554
108	0xbe712399	-0.23548736
109	0x3b2305e6	0.0024875342
110	0x3dcb05bb	0.099132024
111	0xbe126172	-0.14294985
112	0x3e44d453	0.1922162
113	0xbc27d8b7	-0.01024454
114	0xbdc2b7ca	-0.09507711
115	0x3d399d2d	0.04531591
116	0x3e29b7ea	0.16574064
117	0x3e259299	0.16169204
118	0x3e1b78de	0.15182826
119	0xbe970978	-0.29499412
120	0xbdd15d48	-0.1022287
121	0x3d8ca0d9	0.06866617
122	0xbd74fbd2	-0.059810467
123	0x3e478c35	0.19487078
124	0x3e472f3c	0.19451612
125	0x3c509954	0.012731869
126	0x3e134551	0.14381911
127	0xbeea38a1	-0.4574633
128	0xbe0e88b5	-0.13919337
129	0x3c377d3f	0.011199295
130	0xbe96bdb3	-0.29441604
131	0xbe9a957a	-0.30192167
132	0xbe138727	-0.14407025
133	0x3e2a8717	0.16653095
134	0xbea3b355	-0.31972757
135	0xbe240cfe	-0.16020581
136	0x3ce6a063	0.02815265
137	0xbe046927	-0.12930737
138	0x3e32f85d	0.17477556
139	0x3d8636a4	0.065533906
140	0xbda115a5	-0.078654565
141	0xbcdbf031	-0.02684793
142	0x3dd03c60	0.101677656
143	0x3dab6a37	0.08369868
144	0x3e437764	0.19088513
145	0x3e0c5dfe	0.1370773
146	0xbdb34a84	-0.08754447
147	0x3ce1f94e	0.027584698
148	0x3d48f845	0.049064893
149	0x3e1c5161	0.15265419
150	0xbdf5a2d3	-0.11993947
151	0xbde001dd	-0.109378554
152	0xbda79cc5	-0.08184198
153	0x3d15762d	0.036489654
154	0x3daa9f1c	0.08331129
155	0xbd223f15	-0.03961094
156	0xbe380236	-0.17969593
157	0x3e6d7c2a	0.23191896
158	0x3e02e8cd	0.12784119
159	0x3db8dc56	0.09026401
160	0xbe1b6933	-0.15176849
161	0x3e97d598	0.29655147
162	0xbe982822	-0.2971812
163	0x3db557f1	0.08854664
164	0x3dcf5fec	0.101257175
165	0xbd19e7f1	-0.037574712
166	0xbc4b516b	-0.012409548
167	0x3d9f8a9c	0.077901095
168	0xbd54201b	-0.05178843
169	0x3b8d2b24	0.0043081213
170	0x3e0ec79a	0.1394333
171	0xbd93ac05	-0.072105445
172	0xbe1273c5	-0.14301975
173	0xbdf280d4	-0.11840978
174	0x3e337849	0.17526354
175	0xbd9ecc67	-0.077538304
176	0xbe4386dc	-0.19094414
177	0x3e2eef8c	0.17083567
178	0xbc4ddc7e	-0.012564776
179	0xbeae9a07	-0.3410189
180	0xbc29442a	-0.010331193
181	0xbe2af562	-0.16695169
182	0xbe05d23f	-0.13068484
183	0x3e130fbe	0.14361474
184	0x3dc052aa	0.09390767
185	0xbc4a2fb0	-0.012340471
186	0x3e980242	0.29689223
187	0xbefc138b	-0.4923366
188	0x3d276790	0.04087025
189	0x3e76b34c	0.24091834
190	0x3e3927d7	0.18081604
191	0x3c684747	0.01417715
192	0x3e945941	0.28974345
193	0x3d5336d5	0.051565964
194	0xbe8a61dc	-0.27027786
195	0x3d6eb45f	0.058277484
196	0xbe8da441	-0.27664378
197	0xbe3a6153	-0.18201189
198	0xbcce07c1	-0.025150182
199	0x3e19ee0d	0.15032215
200	0xbde2308d	-0.110444166
201	0xbe4b3124	-0.19842964
202	0x3d038c1c	0.03211604
203	0xbde33e3e	-0.11095856
204	0xbd840538	-0.06446308
205	0x3d6a0f75	0.057143647
206	0xbe34ba76	-0.17649254
207	0xbc8a1a26	-0.016858172
208	0xbc3911c9	-0.011295744
209	0x3da07f39	0.07836766
210	0xbdf57d7b	-0.11986824
211	0xbdb61f90	-0.08892739
212	0x3dc335d4	0.09531751
213	0x3e3d37f1	0.18478371
214	0x3d1f2e1d	0.038862336
215	0x3a9965d8	0.0011703325
216	0x3cfca96f	0.030842511
217	0xbf24cef7	-0.64378303
218	0x3d034c05	0.03205492
219	0xbda92cb5	-0.0826048
220	0xbe715821	-0.23568775
221	0xbabc7206	-0.0014377243
222	0x3c65603e	0.013999997
223	0xbd5da209	-0.054109607
224	0x3db2d3a3	0.08731773
225	0xbdaba5c8	-0.0838123
226	0xbd50e773	-0.051001977
227	0xbc9e7a12	-0.019345317
228	0x3d87a1a8	0.0662263
229	0xbd3c597e	-0.045983784
230	0xbe6b18f5	-0.22958739
231	0x3d82690f	0.063676946
232	0xbee5264f	-0.4475579
233	0xbd724440	-0.05914712
234	0xbe10397e	-0.14084432
235	0xbea23b4f	-0.31685874
236	0xbdfe79a7	-0.12425547
237	0x3e80479f	0.25054643
238	0xbe5e7bc0	-0.21726894
239	0x3cddeeaf	0.027091352

convs.1.lin_rel.weight f4 [16, 16]
0	0xbd454bea	-0.0481681
1	0x3e5010fc	0.20318979
2	0xbe452887	-0.19253741
3	0x3e769404	0.24079901
4	0xbe621b40	-0.22080708
5	0x3be98865	0.007126855
6	0x3de2bacc	0.11070785
7	0x3e67f957	0.2265371
8	0x3e1c7fa5	0.15283068
9	0xbd5877d8	-0.052848667
10	0xbd1e9fba	-0.038726546
11	0xbe816594	-0.2527281
12	0xbcb71412	-0.022348437
13	0xbdd5bb73	-0.10436144
14	0x3e952e41	0.2913685
15	0x3d8fe58d	0.07026205
16	0x3d9fab6b	0.07796367
17	0x3d77bb13	0.060481142
18	0xbc3d409e	-0.0115510505
19	0x3dd917d9	0.10600252
20	0xbcded7be	-0.027202483
21	0x3dd75853	0.105148934
22	0x3e1e31a3	0.15448622
23	0xbdd3ddfc	-0.103450745
24	0x3ca13114	0.019676723
25	0x3d9b653a	0.07587667
26	0x3db64eb1	0.08901728
27	0xbd687ad0	-0.056757748
28	0x3cdb7c9b	0.026792815
29	0x3d1d0874	0.03833814
30	0xbcd14979	-0.02554773
31	0xbd34ca53	-0.044138264
32	0xbd828afa	-0.06374164
33	0xbe94c476	-0.29056138
34	0xba052d98	-0.00050803414
35	0x3e3ef7d3	0.18649225
36	0xbd2bccb1	-0.041943256
37	0x3dea2912	0.11433615
38	0x3e3bc03c	0.1833505
39	0xbe928868	-0.28619695
40	0x3b046722	0.0020203074
41	0x3ddcf2e4	0.10788515
42	0x3dcc7f33	0.09985199
43	0xbe964edb	-0.29357037
44	0x3baf9ea6	0.0053594885
45	0xbeb567b3	-0.3543068
46	0x3df68902	0.12037851
47	0x3e1fbc2f	0.1559913
48	0x3e95addf	0.29234216
49	0xbe00bac0	-0.1257124
50	0xbe2e749d	-0.17036672
51	0x3da74e38	0.08169216
52	0x3e4de203	0.20105748
53	0xbd8f5600	-0.06998825
54	0xbd9b3fae	-0.07580505
55	0xbd273b29	-0.040827904
56	0x3e8a154d	0.26969376
57	0xbd8a9231	-0.06766165
58	0x3ca4ff2d	0.020141209
59	0x3e42ca6e	0.19022533
60	0xbd887fc4	-0.06664994
61	0xbe1aac72	-0.15104845
62	0xbda3d7f1	-0.08000172
63	0x3e5a7dbe	0.2133703
64	0x3e2a1c9a	0.16612473
65	0xbdcb0e32	-0.09914817
66	0x3e4366f7	0.19082247
67	0x3d7e6ff6	0.062118493
68	0x3da9ca03	0.08290484
69	0x3e8fceeb	0.28087553
70	0x3ce84145	0.028351435
71	0x3e0fad01	0.1403084
72	0xbd9c9ff7	-0.076476984
73	0xbbc50dd0	-0.0060136095
74	0x3d64d5cb	0.05586795
75	0x3e5e45b1	0.21706273
76	0xbe694c68	-0.22783053
77	0x3e11f343	0.14252953
78	0x3e007d9a	0.12547913
79	0x3d974f4a	0.0738817
80	0x3d54d425	0.05196013
81	0xbda3e079	-0.08001799
82	0xbd796e4f	-0.060896214
83	0xbe0e97f4	-0.13925153
84	0x3e422750	0.18960309
85	0x3dcb39b1	0.09923113
86	0x3e5292e4	0.20563847
87	0xbdb25f5b	-0.08709594
88	0x3dfb80f7	0.122804575
89	0xbe08feac	-0.133784
90	0xbd825049	-0.063629694
91	0xbddfaa52	-0.10921158
92	0xbd20a516	-0.03921994
93	0x3e1620e6	0.14660987
94	0x3e8758ab	0.26434836
95	0xbcb16cbb	-0.021658292
96	0x3e1dfe51	0.15429045
97	0xbe24f8dd	-0.16110559
98	0x3e325900	0.17416763
99	0xbe4054c0	-0.1878233
100	0x3e183c59	0.14866771
101	0xbe947ee9	-0.29003075
102	0x3e1aacf8	0.15105045
103	0xbd95a57b	-0.073069535
104	0xbd32ebfb	-0.04368208
105	0x3dc51b9d	0.096244074
106	0x3dede861	0.116165884
107	0x3dcb2e51	0.099209435
108	0x3ea5aec0	0.32359886
109	0xbe3eddaa	-0.18639246
110	0x3cbfe38a	0.023423929
111	0xbd4b306f	-0.049606737
112	0xbe3f7347	-0.18696319
113	0xbe72a6ab	-0.23696391
114	0xbe4f077f	-0.20217703
115	0x3dcd1d95	0.10015408
116	0x3dc8738b	0.09787663
117	0x3d399a59	0.045313213
118	0x3d6f40a3	0.05841125
119	0xbd026180	-0.031831264
120	0xbca06e43	-0.019583827
121	0xbd0d7c0e	-0.034542136
122	0xbeafeb9d	-0.34359446
123	0x3c290cc5	0.010317986
124	0x3e32263f	0.17397402
125	0xbde1a5ea	-0.11017974
126	0x3e955b2e	0.29171127
127	0xbded0390	-0.11572945
128	0x3e2afb79	0.16697492
129	0xbdc79022	-0.09744288
130	0xbe814598	-0.25248408
131	0xbe0fb8d1	-0.14035346
132	0xbdee9f87	-0.11651521
133	0x3e023d64	0.12718731
134	0x3d4acf48	0.049514085
135	0xbdb356c6	-0.08756785
136	0x3e27beca	0.16381374
137	0x3e014287	0.12623034
138	0xbe4067c2	-0.1878958
139	0x3e78f95e	0.24313876
140	0xbd695ca2	-0.056973107
141	0x3e0117c0	0.12606716
142	0xbe3d9a9d	-0.18516012
143	0xbdb6d037	-0.089264326
144	0x3d4a1444	0.049335733
145	0xbe8ab301	-0.27089694
146	0x3dc1e6c9	0.09467847
147	0xbdc93dff	-0.09826278
148	0xbe6880ba	-0.22705355
149	0x3d7c3a3e	0.06157898
150	0xbd1715bb	-0.03688596
151	0xbe529224	-0.2056356
152	0x3da4ba71	0.080433734
153	0xbe9341c8	-0.28761125
154	0x3debdacc	0.115163416
155	0x3e5365be	0.2064428
156	0xbe2750a2	-0.16339353
157	0x3e3d32eb	0.18476455
158	0xbd7ee9c9	-0.062234674
159	0xbe14206c	-0.14465493
160	0x3e09c73b	0.13454907
161	0xbd810aa1	-0.063008554
162	0xbe90f9a5	-0.28315464
163	0x3db5d715	0.08878914
164	0x3e2b299d	0.16715093
165	0x3db8c82a	0.09022553
166	0x3e527765	0.20553358
167	0x3e03e135	0.12878878
168	0x3e56c64e	0.20974085
169	0x3e02a3e6	0.12757835
170	0x3e1511a1	0.14557506
171	0xbe8154a7	-0.25259897
172	0x3e4094dd	0.18806787
173	0xbdafbadb	-0.08580562
174	0xbe8b1849	-0.27166966
175	0x3e216ba2	0.15763715
176	0x3d179813	0.037010264
177	0x3da0cd9a	0.078517154
178	0x3dba1e21	0.09087778
179	0xbde05ac0	-0.10954809
180	0x3df21cc5	0.118218936
181	0xbe8cd7f9	-0.27508524
182	0xbe52132f	-0.2051513
183	0xbb73cbab	-0.0037200253
184	0x3e9ceebb	0.30650887
185	0xbc172ad0	-0.009226516
186	0xbeaa8129	-0.33301666
187	0x3e62d277	0.22150598
188	0x3dbf81a4	0.09350899
189	0x3da2b46d	0.0794457
190	0x3d906413	0.07050338
191	0xbb0c59fc	-0.002141594
192	0x3d90cfaa	0.07070859
193	0x3cd8c97d	0.026463265
194	0xbe5c30d4	-0.21503001
195	0x3debfaf5	0.11522476
196	0xbe572044	-0.21008402
197	0xbc83d5fd	-0.016093249
198	0xbde9350d	-0.11387072
199	0x3d2f12d9	0.042742584
200	0xbe7df236	-0.24799427
201	0x3dfa3bda	0.12218447
202	0xbdda2caf	-0.10653054
203	0x3e7978aa	0.24362436
204	0xbe3b3f7b	-0.18285935
205	0x3c592808	0.013254173
206	0xbd9b2faa	-0.075774506
207	0x3e0675f6	0.13130936
208	0xbe68f770	-0.2275064
209	0x3d5b8a64	0.053598776
210	0xbe45635c	-0.19276184
211	0xbd2084af	-0.039189037
212	0x3d19c83e	0.03754448
213	0xbe39f664	-0.18160397
214	0x3d73a32b	0.05948178
215	0xbe680490	-0.2265799
216	0xbeac3555	-0.3363444
217	0x3df30fd4	0.11868253
218	0xbcf96c83	-0.03044725
219	0x3df988cc	0.12184295
220	0x3e3ae376	0.18250832
221	0xbe1daad4	-0.15397197
222	0x3e165587	0.14681064
223	0x3e1d1aef	0.15342306
224	0xbdb554a6	-0.08854036
225	0xbcc22ccf	-0.023703007
226	0x3e7c6857	0.24649177
227	0x3dd673c8	0.10471302
228	0xbb81f88c	-0.0039663967
229	0xbe151964	-0.14560467
230	0x3e300f48	0.1719333
231	0xbe526baf	-0.2054889
232	0xbe50512f	-0.20343469
233	0x3d9a3ed6	0.07531516
234	0xbdabdc00	-0.08391571
235	0x3da5cfd2	0.08096279
236	0x3e3b06e7	0.18264352
237	0x3d21fc45	0.039547224
238	0xbe5e225c	-0.21692795
239	0x3d16dc1d	0.03683101
240	0xbcb21e59	-0.021742987
241	0x3e84264a	0.25810462
242	0xbd1994b8	-0.037495345
243	0x3e4b1df3	0.19835643
244	0xbe51c98c	-0.2048704
245	0xbd416d89	-0.0472236
246	0x3d6fcd68	0.0585455
247	0x3dadcc3e	0.08486222
248	0x3e53cf2c	0.20684499
249	0xbdc86fd6	-0.09786956
250	0x3e972631	0.29521325
251	0xbbe35ef8	-0.0069388114
252	0xbdbc5262	-0.09195401
253	0x3dfd6274	0.12372294
254	0x3dd1a0ab	0.10235723
255	0xbd5ae717	-0.05344304

convs.1.lin_rel.bias f4 [16]
0	0x3e0156b5	0.12630732
1	0xbf131aa0	-0.574625
2	0x3e7c6f4b	0.2465183
3	0xbd8651e9	-0.06558592
4	0x3eb7b430	0.3587966
5	0x3e1fcd50	0.15605664
6	0xbe5332db	-0.20624869
7	0xbea6c5e6	-0.3257286
8	0x3ea383d5	0.31936517
9	0x3e00420d	0.12525196
10	0x3cee4ed7	0.029090328
11	0xbe5887a5	-0.21145494
12	0xbecdb431	-0.40176538
13	0x3e8c357a	0.2738455
14	0x3eda623a	0.42653066
15	0x3db52c89	0.08846385

convs.1.lin_root.weight f4 [16, 16]
0	0xbe0b8f51	-0.1362889
1	0x3e88eb50	0.2674203
2	0xbd48ca7f	-0.04902124
3	0x3c70cc15	0.014697094
4	0xbd588a66	-0.052866362
5	0x3d12ecc9	0.035870347
6	0x3de71bbb	0.11284586
7	0x3d9ac66c	0.07557377
8	0x3e1e72c1	0.15473463
9	0x3d505588	0.05086282
10	0x3e887c34	0.2665726
11	0xbe94f587	-0.29093572
12	0xbe09f20a	-0.13471237
13	0xbba96b3b	-0.0051702536
14	0xbda0db50	-0.078543305
15	0xbea6a0d1	-0.32544568
16	0xbe7d7839	-0.24752893
17	0x3e1138c3	0.14181809
18	0xbe6121c0	-0.21985531
19	0x3d33882f	0.043831047
20	0xbe9659d1	-0.293654
21	0x3e0f530a	0.1399652
22	0xbe27f285	-0.16401108
23	0x3e4b7c28	0.1987158
24	0xbe50b248	-0.20380509
25	0x3d2cc085	0.04217579
26	0x3e30517d	0.17218585
27	0x3c86c89c	0.01645308
28	0xbd844a26	-0.06459455
29	0xbce0d583	-0.02744556
30	0xbe959b59	-0.29220083
31	0x3d1e52bd	0.038653124
32	0xbdb7b829	-0.08970673
33	0x3d0b189e	0.033959024
34	0xbdd5156a	-0.10404475
35	0xbea10ed8	-0.31456637
36	0xbe547429	-0.20747437
37	0x3dd0b40f	0.101905935
38	0xbe6d025a	-0.23145428
39	0xbea26f1c	-0.31725395
40	0x3d82b840	0.06382799
41	0xbd5a5e95	-0.053312857
42	0x3dd68d91	0.104762204
43	0xbd4b71ce	-0.04966908
44	0xbd2e355b	-0.042531352
45	0xbe8ab318	-0.27089763
46	0xbdc8c761	-0.098036535
47	0xbe89091b	-0.2676476
48	0xbe3c46bc	-0.18386358
49	0xbbca86f8	-0.0061806403
50	0x3e6ba43d	0.2301187
51	0xbe241b3c	-0.16026014
52	0xbdd558af	-0.10417306
53	0xbdfe1113	-0.124056004
54	0xbe2b906b	-0.1675431
55	0xbe12f7ce	-0.14352342
56	0xbea9da00	-0.33174133
57	0x3dc70db9	0.09719414
58	0xbd8f9f4b	-0.070128046
59	0xbdcf8fe6	-0.10134868
60	0x3c52f16e	0.012874944
61	0x3d98327d	0.07431505
62	0xbe0df49c	-0.13862842
63	0xbe008188	-0.12549412
64	0xbde2128c	-0.11038694
65	0x3cb314f6	0.02186058
66	0xbdff78db	-0.12474223
67	0x3d835f7d	0.06414697
68	0xbd8af3f8	-0.067848146
69	0xbc4f5c37	-0.012656263
70	0x3d554723	0.052069794
71	0x3dc7f253	0.097630166
72	0x3e13752b	0.14400165
73	0x3df924ff	0.121652596
74	0xbe58e554	-0.21181232
75	0x3e076e2d	0.13225622
76	0xbe9f5581	-0.31119922
77	0x3e512198	0.20422971
78	0xbe86c981	-0.2632561
79	0xbdeadc92	-0.11467852
80	0xbdae91ca	-0.08523901
81	0x3e256694	0.16152412
82	0xbd5c31d4	-0.053758457
83	0x3d8b1476	0.06791012
84	0xbeb432d6	-0.35195035
85	0xbe1135eb	-0.14180724
86	0xbe881d07	-0.26584646
87	0x3e55f78b	0.20895211
88	0xbe0b7b92	-0.13621357
89	0x3df0bff5	0.11755363
90	0x3e10374b	0.14083593
91	0xbcacc793	-0.021091258
92	0xbd98a2f0	-0.07452953
93	0xbdb22f60	-0.08700442
94	0xbded33c0	-0.11582136
95	0xbe57dc6a	-0.21080175
96	0x3e6309b1	0.22171666
97	0x3bd32642	0.0064437697
98	0x3e3ad36b	0.18244712
99	0xbedc08b8	-0.42975402
100	0xbdf6030d	-0.12012301
101	0xbe5b2310	-0.21400094
102	0xbdbc2994	-0.09187618
103	0x3ceb3ea0	0.028716385
104	0x3ec82b93	0.39095744
105	0xbde65d8b	-0.11248311
106	0xbe3cbdd3	-0.18431787
107	0xbd22fad8	-0.039790004
108	0x3e87cf79	0.26525477
109	0x3e1ff089	0.156191
110	0x3e33f2f7	0.17573152
111	0x3e262f91	0.16229083
112	0xbe96148d	-0.29312554
113	0xbe5cd76a	-0.21566549
114	0x3e80f423	0.25186262
115	0xbe81126d	-0.2520937
116	0x3eb97e8b	0.36229357
117	0xbe04c53f	-0.12965868
118	0x3e2d947c	0.16951174
119	0xbe635239	-0.22199334
120	0xbcd2e7fc	-0.025745384
121	0x3d28ad1b	0.04118071
122	0xbea68791	-0.32525304
123	0xbe97dea5	-0.29662052
124	0x3c102d1f	0.00879982
125	0x3e212479	0.1573657
126	0x3e1b6a88	0.15177357
127	0x3c852c3c	0.016256444
128	0x3df35604	0.118816406
129	0xbdf04c10	-0.11733258
130	0xbe017211	-0.12641169
131	0xbd6cc76d	-0.057807375
132	0xbdf3773f	-0.11887979
133	0x3c338b72	0.010958539
134	0x3e7634ab	0.24043529
135	0x3dc0ffd4	0.09423795
136	0xbc564a8e	-0.013079299
137	0xbd1242d9	-0.035708282
138	0x3d294543	0.04132582
139	0x3e3f9a22	0.18711141
140	0x3e523e00	0.20531464
141	0x3d7355f6	0.05940815
142	0xbec85b30	-0.3913207
143	0xbe4b5286	-0.19855699
144	0xbe943986	-0.28950137
145	0xba7f3020	-0.0009734649
146	0x3e954a3a	0.29158193
147	0xbe00869c	-0.1255135
148	0x3e18b072	0.14911059
149	0xbe63f6cc	-0.22262114
150	0x3e995400	0.299469
151	0xbdfddf88	-0.12396151
152	0x3e81ba8b	0.25337633
153	0x3d69d5de	0.057088725
154	0xbe6dec20	-0.23234606
155	0xbe2ea5c7	-0.17055427
156	0x3e05343c	0.13008207
157	0x3df9ec7f	0.12203311
158	0x3e1d07f5	0.15335067
159	0x3e6af809	0.2294618
160	0x3e3d5712	0.18490246
161	0x3dcfd1b6	0.10147421
162	0xbe48b607	-0.19600688
163	0xbe232842	-0.15933326
164	0x3dc60a31	0.096699126
165	0x3ccc0f8a	0.024909753
166	0xbe84a486	-0.2590677
167	0xbe6748eb	-0.2258641
168	0x3d14720b	0.036241572
169	0x3da4dde5	0.080501355
170	0xbe8be094	-0.27319777
171	0x3e22537b	0.15852158
172	0x3db3d08c	0.087800115
173	0x3cf9752c	0.03045138
174	0xbe5d0d53	-0.21587114
175	0x3dfb8a1a	0.122822
176	0xbd81c904	-0.06337169
177	0x3b2c97ab	0.0026335518
178	0x3e444810	0.19168115
179	0xbe8ca5c2	-0.27470213
180	0xbdf8e338	-0.121527135
181	0x3cb03fa5	0.021514723
182	0xbcea7a9d	-0.02862292
183	0xbecf593f	-0.40497777
184	0x3d3d910e	0.046280913
185	0x3d0cc629	0.034368668
186	0xbdaccfe1	-0.08438087
187	0xbcd3c604	-0.025851257
188	0x3e54e9d9	0.20792331
189	0xbe664cf8	-0.22490299
190	0x3ecb0272	0.39650303
191	0x3d752fd3	0.05986006
192	0x3cfc1643	0.030772334
193	0x3c308572	0.010774003
194	0xbe9b4456	-0.30325574
195	0x3e447861	0.19186546
196	0xbeb7de8d	-0.3591198
197	0x3d5cda67	0.053919222
198	0xbdac2338	-0.08405155
199	0x3e30860b	0.17238633
200	0xbdc9b883	-0.09849646
201	0x3c80e1ac	0.015732609
202	0xbe1a5c36	-0.15074238
203	0x3de02dda	0.109462455
204	0xbd7f0182	-0.062257297
205	0x3d984e3f	0.07436799
206	0x3d49f355	0.049304325
207	0xbeae52da	-0.34047586
208	0xbe01b223	-0.1266561
209	0x3e74fa49	0.23923601
210	0xbe87af4b	-0.26500925
211	0x3e2028bb	0.15640537
212	0xbc337ffb	-0.010955806
213	0xbd826070	-0.0636605
214	0xbdb7b085	-0.08969215
215	0xbe36cd07	-0.17851649
216	0x3d1955dd	0.0374354
217	0xbefa2986	-0.48859805
218	0xbe3db1bd	-0.18524833
219	0x3e422c13	0.18962125
220	0xbc39be50	-0.011336878
221	0x3e0baf25	0.13641031
222	0xbe27e33d	-0.16395278
223	0x3dc7aabe	0.09749363
224	0xbdda4c6d	-0.10659108
225	0xbdacb3b9	-0.08432717
226	0x3e06fd48	0.13182557
227	0x3d9a1709	0.07523925
228	0xbe9aa187	-0.3020136
229	0x3e48686b	0.19571082
230	0xbdf92870	-0.12165916
231	0x3d93206c	0.07183918
232	0xbea6731f	-0.32509705
233	0x3dfde144	0.12396482
234	0xbda2b3b5	-0.07944433
235	0x3ce724fb	0.028215876
236	0xbe2e61a2	-0.17029431
237	0x3e4410b1	0.19146992
238	0xbe835b12	-0.2565542
239	0x3dd8145d	0.10550759
240	0xbe9d736b	-0.3075212
241	0x3e60b552	0.21944168
242	0xbd89ff75	-0.06738178
243	0x3cf5bc76	0.029997092
244	0xbe8a6a4a	-0.27034217
245	0xbd8595f3	-0.06522741
246	0x3dd1407d	0.10217378
247	0x3e64a801	0.22329713
248	0xbe4e4f77	-0.20147501
249	0xbe8e0216	-0.27735966
250	0x3e4dc853	0.20095949
251	0xbde61921	-0.11235262
252	0x3e02a0fe	0.12756726
253	0xbe36ea8c	-0.1786291
254	0x3e0e96f6	0.13924775
255	0xbeb46ca5	-0.3523914

post_layers.0.weight f4 [1, 16]
0	0xbdefab1a	-0.11702557
1	0x3e916204	0.28395092
2	0xbd0689e5	-0.03284635
3	0xbc665530	-0.014058396
4	0xbde9b018	-0.1141054
5	0xbcbb1e31	-0.022841545
6	0x3e89ff75	0.2695271
7	0x3ea24602	0.31694037
8	0xbe1397f2	-0.14413431
9	0x3e754ee6	0.23955879
10	0xbd4040e3	-0.04693688
11	0x3e577609	0.2104112
12	0x3e4ba958	0.19888818
13	0xbce95446	-0.028482568
14	0xbe81e58a	-0.25370437
15	0xbdf3b219	-0.11899204
