models/OTC/hoeg/exp_v3/no_subgraph_sampling/lr=0.01_hidden_dim=48/GraphModule_20230830_18h07m/state_dict_epoch14.pt (torch, 176907 bytes, 46 tensors)

convs.0.event__follows__event.lin_rel.weight f4 [48, 20]
-0.1808526 -0.68417567 0.12706189 0.382062 1.5065546 -0.7015364 0.25825274 -1.005638
-0.3633537 1.2709337 -0.5708312 -0.31241396 -0.18398899 -0.073709644 -0.0293042 0.19851732
-0.14289464 -1.0649935 0.5196539 -0.39713603 0.08829233 0.03011565 -1.3800728 0.14835839
0.6901745 0.27792305 0.84750706 -0.38834062 -0.1488546 -0.20830773 0.4554206 -0.04154248
-0.017502498 0.1643858 -0.56658304 -0.15472923 0.7154221 0.23239547 -0.5567512 -0.009109136
-0.5782733 -0.19562225 -0.024207499 0.29418182 -1.804744 -0.3287924 -0.22453816 -0.30559334
0.12337844 -0.33936003 -0.13421711 0.72974634 0.49750498 0.85414463 -1.1121496 0.20928171
1.0519158 -0.5208 0.050236285 0.099981256 0.12046821 0.97950494 -0.13994513 0.19672668
-0.37443075 -0.60943943 1.6154069 1.0206035 -0.6748047 -0.12709579 0.866511 -0.12388245
-0.8592465 -0.29243338 0.9633358 -0.504103 -0.33905876 -1.8039618 0.23889482 -0.16638227
0.56113964 0.25670525 -0.9481933 0.7592552 0.31772283 -0.15833865 -0.7103691 0.9929687
-0.13236853 -0.16660313 -0.47389793 -0.2639678 -0.4815676 0.8985911 -0.6412164 0.43633282
-0.4236511 0.55669963 -0.343922 -0.39242414 0.46657637 0.010494801 0.42979893 -0.57908
-0.19956586 0.7047266 0.59094423 -0.22949333 -0.0837795 1.231459 -0.73105156 -0.6909766
0.42719364 0.44051948 0.36764956 -0.17584893 0.6368684 -0.17155255 -0.3286529 0.016815152
-0.30626428 0.22851156 0.37765554 -0.6167438 0.28005284 0.4885644 0.18842074 0.9552788
0.15443635 0.2553481 0.15056685 0.40969056 0.6225912 -0.7098754 0.45325425 -0.79229707
0.15057632 -0.5827065 0.11356475 0.30340102 -0.1289556 -0.08269145 -0.059670568 0.653199
-1.2705615 -0.21917386 -0.03909873 0.16493267 -0.6825226 0.97498745 0.25678915 -0.0041871257
-0.05018351 -1.2646708 -0.030462356 0.4548113 -0.086881384 -0.7819772 0.17956373 -0.1948463
-0.11829386 1.014022 -0.8240067 0.17972377 -0.14492233 0.4037733 0.15552878 -0.17085277
0.12119968 -0.08987677 -1.2237966 -0.29398453 0.5578866 -0.15710305 0.6826618 -0.47614086
-0.6175684 1.0305077 0.007895372 -0.20738451 -0.4041026 -0.7170976 -0.7540138 -1.1478325
0.109848805 -1.0522163 1.0986176 -0.1803827 0.139943 -0.1579752 -0.3032348 -1.089282
-0.50579196 0.022519782 0.25049356 -0.17732354 0.91322315 -0.2257559 0.36030722 -0.04697905
-0.11329084 0.1069501 -0.34046656 0.63386655 -0.25379074 -0.57526517 0.17211094 0.29688212
0.7885812 -1.1741307 -0.17210756 -0.07693909 -0.10945514 0.06307878 -1.1710317 0.3671735
0.31779283 -0.9717047 -0.058471773 -0.24741925 0.11357402 -0.73447645 0.18901059 -0.39827695
0.514091 0.0498604 0.31765392 -0.24575637 -0.14284326 -1.3553114 1.0497267 0.2628831
0.77404803 -2.000703 0.8325212 0.45254 0.5133008 0.19592537 -0.02114413 0.036949344
-0.102769956 -0.93840814 -1.311958 -0.2616095 0.37604824 -1.1308945 0.5432671 -0.61289835
0.5056895 -0.21847983 -0.3241356 -0.37650335 -0.38221028 -0.30397487 0.21600445 0.3835045
00000000: 6d31 39be 2326 2fbf 831c 023e a19d c33e
00000010: c8d6 c03f e497 33bf b439 843e bfb8 80bf
00000020: 7f09 babe f5ad a23f fe21 12bf b9f4 9fbe
00000030: 9c67 3cbe 15f5 96bd 5d0f f0bc 2048 4b3e
00000040: f952 12be b551 88bf 0a08 053f 6a55 cbbe
00000050: 9cd2 b43d 18b5 f63c 3aa6 b0bf 43eb 173e
00000060: 47af 303f ee4b 8e3e 39f6 583f 95d4 c6be
00000070: 576d 18be 9f4e 55be e42c e93e 7328 2abd
00000080: 6661 8fbc c054 283e 960b 11bf 5771 1ebe
00000090: e725 373f 14f9 6d3e 3f87 0ebf 7c3e 15bc
000000a0: b809 14bf 3351 48be ce4e c6bc 009f 963e
000000b0: da01 e7bf 7a57 a8be 55ed 65be bb76 9cbe
000000c0: d6ad fc3d 99c0 adbe 3670 09be a8d0 3a3f
000000d0: f9b8 fe3e 39a9 5a3f eb5a 8ebf f24d 563e
000000e0: 2da5 863f 2653 05bf 90c4 4d3d f9c2 cc3d
000000f0: 09b8 f63d d6c0 7a3f c74d 0fbe b872 493e
00000100: 63b5 bfbe 3904 1cbf a7c5 ce3f 23a3 823f
00000110: 00c0 2cbf 6625 02be aad3 5d3f 15b6 fdbd
00000120: 94f7 5bbf d4b9 95be 2d9d 763f e50c 01bf
00000130: 1c99 adbe 38e8 e6bf d8a0 743e 1d60 2abe
00000140: d9a6 0f3f df6e 833e ccbc 72bf 8c5e 423f
00000150: 91ac a23e 8723 22be c0da 35bf 3233 7e3f
00000160: 9e8b 07be 039a 2abe c0a2 f2be ca26 87be
00000170: 0790 f6be 110a 663f c226 24bf 0467 df3e
00000180: cce8 d8be de83 0e3f 8b16 b0be d1eb c8be
00000190: 19e3 ee3e 63f2 2b3c 9b0e dc3e 963e 14bf
000001a0: fe5a 4cbe f668 343f 1f48 173f 4d00 6bbe
000001b0: 9694 abbd 73a0 9d3f 3226 3bbf d8e3 30bf
000001c0: 20b9 da3e c58b e13e 903c bc3e be11 34be
000001d0: cf09 233f 79ab 2fbe 3145 a8be eebf 893c
000001e0: acce 9cbe effe 693e 115c c13e ece2 1dbf
000001f0: 1663 8f3e 1d25 fa3e 5ef1 403e 278d 743f
00000200: 9024 1e3e fcbc 823e 322e 1a3e f6c2 d13e
00000210: 2362 1f3f 65ba 35bf f110 e83e fbd3 4abf
00000220: ae30 1a3e 412c 15bf a394 e83d 6157 9b3e
00000230: f00c 04be 235a a9bd 2069 74bd 0d38 273f
00000240: c2a1 a2bf 1d6f 60be fd25 20bd 1ce4 283e
00000250: cdb9 2ebf c798 793f de79 833e 2834 89bb
00000260: 398d 4dbd bce0 a1bf 318c f9bc 07dd e83e
00000270: deee b1bd a82f 48bf 8edf 373e ca85 47be
00000280: 0d44 f2bd 79cb 813f 1af2 52bf 8209 383e
00000290: 8566 14be 60bb ce3e f042 1f3e 07f4 2ebe
000002a0: 8a37 f83d 5011 b8bd 5ea5 9cbf 2485 96be
000002b0: a8d1 0e3f 9fdf 20be ecc2 2e3f bcc8 f3be
000002c0: f618 1ebf ade7 833f 975b 013c 9b5c 54be
000002d0: 89e6 cebe b593 37bf 0c07 41bf 2dec 92bf
000002e0: 69f8 e03d 06af 86bf 809f 8c3f 3eb6 38be
000002f0: 384d 0f3e 40c4 21be 9741 9bbe 986d 8bbf
00000300: 957b 01bf 687b b83c b140 803e 4d94 35be
00000310: fec8 693f 8e2c 67be 307a b83e 1b6d 40bd
00000320: 0705 e8bd a708 db3d a251 aebe 1445 223f
00000330: dcf0 81be 9444 13bf da3d 303e ef00 983e
00000340: 75e0 493f ea49 96bf f73c 30be 3e92 9dbd
00000350: 042a e0bd 732f 813d 5ee4 95bf 2afe bb3e
00000360: beb5 a23e a4c1 78bf 1980 6fbd 795b 7dbe
00000370: 7f99 e83d a606 3cbf fe8b 413e f5ea cbbe
00000380: 789b 033f 6b3a 4c3d 89a3 a23e 8fa7 7bbe
00000390: 8145 12be d87a adbf 725d 863f 9d98 863e
000003a0: 0328 463f 850b 00c0 1c20 553f 53b3 e73e
000003b0: ae67 033f a9a0 483e 7436 adbc 3258 173d
000003c0: 0e79 d2bd 843b 70bf 3dee a7bf aef1 85be
000003d0: 6589 c03e 27c1 90bf 8d13 0b3f e8e6 1cbf
000003e0: de74 013f 2db9 5fbe 1af5 a5be 0cc5 c0be
000003f0: 11b1 c3be 98a2 9bbe 4530 5d3e b45a c43e

convs.0.event__follows__event.lin_rel.bias f4 [48]
-1.0468442 -0.58189696 -0.91720754 -0.7021229 -1.5427002 -0.59852874 -0.49518237 -0.48028186
-1.0591705 -0.6066476 -0.9159998 -0.22203477 -0.7195082 -0.83893275 -0.6964623 -0.23443143
-0.7844839 -0.874181 -0.6122732 -0.08026872 -1.1617591 -0.84664065 -1.0550389 0.002602367
-0.4105294 -0.5383338 -0.7961182 -0.54761595 -0.65712976 -0.45862627 -0.6931451 -0.5716692
-0.54648155 -0.8937639 -0.9231784 -1.1211498 -0.88663745 -0.32274053 -0.86114633 -1.2513614
-0.8285096 -0.8821555 -0.02922468 -0.61765397 -1.1861217 -0.9168528 -0.22096716 -1.082625
00000000: fefe 85bf 33f7 14bf 1dce 6abf 54be 33bf
00000010: 3377 c5bf 2e39 19bf 8b88 fdbe 81e7 f5be
00000020: e692 87bf 424d 1bbf f77e 6abf 155d 63be
00000030: b031 38bf 4cc4 56bf 5a4b 32bf cb0e 70be
00000040: f0d3 48bf 53ca 5fbf f0bd 1cbf ed63 a4bd
00000050: 86b4 94bf 71bd 58bf 840b 87bf 798c 2a3b
00000060: e930 d2be 3ed0 09bf 67ce 4bbf 8f30 0cbf
00000070: a839 28bf 10d1 eabe f571 31bf ea58 12bf
00000080: 37e6 0bbf b6cd 64bf 6b55 6cbf d681 8fbf
00000090: acfa 62bf 3f3e a5be 1674 5cbf 9c2c a0bf
000000a0: 3519 54bf f1d4 61bf 9968 efbc 921e 1ebf
000000b0: d6d2 97bf ddb6 6abf 3745 62be 7593 8abf

convs.0.event__follows__event.lin_root.weight f4 [48, 20]
0.31590962 -0.16315264 -0.09502022 -0.0051546586 0.16511635 0.010024762 0.12823485 0.19092792
0.06563343 0.10179973 -0.0004998409 -0.36075574 -0.88229513 0.24210322 0.44874322 0.4795276
-0.12805599 -0.32496533 0.18521665 -0.07996487 -1.0148621 -0.46508986 -0.16469313 -0.049943183
-0.31011146 -0.381627 0.13358264 0.13327733 -0.09077006 -0.23764841 -0.45027503 0.677319
0.27905554 0.33969313 -0.28019089 0.18516243 0.31560576 -0.30491373 -0.44244432 -0.23189034
0.17569292 -0.30892795 0.001039775 -0.23033315 0.29864502 0.20936613 0.010356543 0.036786426
0.06954393 -0.050270535 -0.14730051 0.02639383 0.23464069 1.208383 -0.983814 -0.41636837
-0.021850161 -0.33909172 0.2728325 0.38218662 -0.2812497 0.5158948 -0.7397061 -0.33989254
-0.2693155 -1.5909187 0.56701404 0.17993605 -0.48213822 0.6197938 0.3766833 -0.43277383
-0.46856397 -0.23316196 0.7584612 -0.9390197 -0.43470445 0.40458223 -0.7518351 -0.24306169
-0.10408001 0.08655287 -0.23059359 -0.31752676 -0.1245709 0.46114683 0.2373126 0.15347736
0.4469695 0.6830508 0.50640094 -0.6953766 -0.4551207 0.5549038 -0.9141302 0.23130922
-0.28482354 -0.2734369 -0.34411868 -0.20635585 -0.2655784 -0.22859964 0.062677145 -0.4604317
-1.2695223 0.090095915 0.108802505 -0.0054240027 0.2941658 0.19050129 -0.3739338 0.47117347
0.1498887 -0.4396791 -0.57072455 0.2758662 0.20418613 -0.5431256 0.03383269 -0.24614182
0.03989876 -0.049037024 -0.13111304 0.13983293 0.278043 -0.5157657 0.35728857 -0.09691418
0.51531565 -0.4024147 -0.18145277 0.30811226 -0.90536714 -0.56406933 0.4072578 -1.3480384
-0.08408718 0.48659512 0.25906974 -0.019980997 -0.0664587 0.40468675 0.27256638 -0.8001797
-0.22009638 0.4055339 0.5712735 -0.079382144 0.21279849 -0.006114179 -0.19304651 0.1120523
0.0951928 -1.2370595 -0.0014631156 0.46000353 -0.27289248 0.00012472649 -0.43034744 -0.70233816
0.03943074 0.43040958 -0.32500294 0.10727178 -0.12491156 -1.1714354 0.44802928 0.29613823
-0.60225004 0.61997414 -0.3111424 -0.29002407 -0.23253325 -0.19138177 0.444218 -0.7391921
-0.43704405 1.0183072 0.19763187 -0.67758137 -0.17604692 0.23319326 -0.5948654 -0.44990388
0.4600373 0.030391388 0.074625194 -0.22096756 -0.21872644 -0.2872594 0.15194048 -1.2385203
0.49081597 -0.07956377 0.07541149 -0.426046 0.9036781 0.21177487 0.93969905 0.5755359
0.15953854 -0.9773622 -0.08572195 -0.29573372 -0.4743352 -0.04219436 -0.23891816 -0.572452
-0.8327101 -0.73889744 -0.11193928 0.3212057 -0.058246233 0.6859009 -1.0440412 0.912749
0.34955376 0.095418885 -0.18747059 -0.049899854 0.32610422 0.4905621 0.10092157 0.24394731
0.25441036 -0.49268037 0.26833576 -0.21907513 -0.54357225 0.41870946 -0.07016939 0.13254024
-0.7675604 -2.1099682 0.70909834 0.7165324 0.113408215 0.09051854 -0.35352957 0.1833552
0.34767398 -0.38441378 0.027166946 -0.1310659 0.22081731 -0.12358492 0.04619262 0.41349766
-0.047870092 0.34251463 -0.074641205 -0.8553968 -0.39335957 0.08930957 0.36563075 0.22634257
00000000: e8be a13e 7c11 27be f699 c2bd 69e8 a8bb
00000010: 4314 293e e63e 243c ff4f 033e 9c82 433e
00000020: d26a 863d 607c d03d c107 03ba fab4 b8be
00000030: 18de 61bf e8e9 773e acc1 e53e a484 f53e
00000040: 1c21 03be db61 a6be 6fa9 3d3e 9fc4 a3bd
00000050: 00e7 81bf 4220 eebe 51a5 28be 3991 4cbd
00000060: eec6 9ebe 9d64 c3be e3c9 083e da79 083e
00000070: a7e5 b9bd 1b5a 73be 738a e6be c764 2d3f
00000080: 5ee0 8e3e 42ec ad3e 2e75 8fbe 389b 3d3e
00000090: 1497 a13e a71d 9cbe 1088 e2be a974 6dbe
000000a0: d8e8 333e ce2b 9ebe 0f49 883a 74dc 6bbe
000000b0: 00e8 983e 1364 563e 7dae 293c 5dad 163d
000000c0: 0c6d 8e3d 7ae8 4dbd f2d5 16be e037 d83c
000000d0: a645 703e 4bac 9a3f 3cdb 7bbf 3c2e d5be
000000e0: 1cff b2bc 6e9d adbe b4b0 8b3e f7ad c33e
000000f0: f6ff 8fbe ae11 043f 615d 3dbf 6506 aebe
00000100: b9e3 89be 39a3 cbbf d527 113f 2841 383e
00000110: d2da f6be ceaa 1e3f a2dc c03e 8894 ddbe
00000120: 9ee7 efbe 02c2 6ebe 832a 423f 9863 70bf
00000130: 9591 debe 6725 cf3e 4478 40bf 2ae5 78be
00000140: e627 d5bd a242 b13d ba20 6cbe de92 a2be
00000150: 071f ffbd 701b ec3e 1302 733e 2b29 1d3e
00000160: 30d9 e43e 6bdc 2e3f 7ea3 013f 3304 32bf
00000170: 9505 e9be 2d0e 0e3f 7004 6abf 53dc 6c3e
00000180: 64d4 91be ecff 8bbe 5330 b0be f34e 53be
00000190: e4f9 87be 0616 6abe e05c 803d b4bd ebbe
000001a0: b57f a2bf 3584 b83d d9d3 de3d d5bb b1bb
000001b0: e69c 963e c512 433e 4074 bfbe a63d f13e
000001c0: 6c7c 193e 9e1d e1be 011b 12bf 563e 8d3e
000001d0: 2b16 513e 480a 0bbf 2694 0a3d 9a0c 7cbe
000001e0: e26c 233d 0cdb 48bd 7f42 06be 5d30 0f3e
000001f0: a75b 8e3e 3909 04bf 87ee b63e f17a c6bd
00000200: baeb 033f 4d09 cebe c1ce 39be e4c0 9d3e
00000210: 24c6 67bf d966 10bf 1884 d03e 868c acbf
00000220: e635 acbd ff22 f93e caa4 843e 30af a3bc
00000230: 801b 88bd 1a33 cf3e d28d 8b3e 94d8 4cbf
00000240: f260 61be 24a2 cf3e fb3e 123f 1b93 a2bd
00000250: d9e7 593e 7359 c8bb fcad 45be ad7b e53d
00000260: 71f4 c23d f757 9ebf 03c6 bfba 9585 eb3e
00000270: 90b8 8bbe 03c9 0239 8056 dcbe 6fcc 33bf
00000280: 2182 213d a55e dc3e c966 a6be 4fb1 db3d
00000290: a2d1 ffbd 98f1 95bf 1864 e53e 6e9f 973e
000002a0: 0f2d 1abf a0b6 1e3f 0f4e 9fbe 097e 94be
000002b0: 321d 6ebe 95f9 43be 8b70 e33e b23b 3dbf
000002c0: 3dc4 dfbe e457 823f 0260 4a3e f975 2dbf
000002d0: a545 34be 37ca 6e3e 1949 18bf cd59 e6be
000002e0: 028a eb3e 5cf7 f83c 18d5 983d 5245 62be
000002f0: d3f9 5fbe aa13 93be 4996 1b3e d587 9ebf
00000300: 3b4c fb3e 54f2 a2bd 5771 9a3d b422 dabe
00000310: 7357 673f 83db 583e 1e90 703f 5256 133f
00000320: 125e 233e 6934 7abf fd8e afbd 696a 97be
00000330: 10dc f2be fed3 2cbd f6a6 74be 378c 12bf
00000340: 7d2c 55bf 6228 3dbf 6c40 e5bd 1375 a43e
00000350: 9a93 6ebd 3497 2f3f 24a3 85bf eba9 693f
00000360: b6f8 b23e fa6a c33d 4af8 3fbe ca63 4cbd
00000370: 22f7 a63e f52a fb3e f8af ce3d 53cd 793e
00000380: 1342 823e 9a40 fcbe 4e63 893e 3b55 60be
00000390: 8d27 0bbf 1661 d63e f8b4 8fbd a1b8 073e
000003a0: d77e 44bf b809 07c0 7887 353f ab6e 373f
000003b0: 9142 e83d c961 b93d d401 b5be 77c1 3b3e
000003c0: 5302 b23e e2d1 c4be 378d de3c 2436 06be
000003d0: ef1d 623e 171a fdbd 7934 3d3d f7b5 d33e
000003e0: 6e13 44bd 145e af3e 7ddd 98bd 49fb 5abf
000003f0: 6d66 c9be f0e7 b63d f433 bb3e 59c6 673e

convs.0.order__interacts__event.lin_rel.weight f4 [48, 1]
-0.9723377 0.24330954 -0.82834554 -1.1065872 1.3088123 -1.5404338 -1.4678214 0.4404102
-0.6335709 -0.93852514 -1.4421562 -0.9751901 -0.4981172 0.3900821 -0.038085785 0.29983363
0.46079436 -0.16407451 -0.8243912 -0.31764913 0.33926362 -1.4209229 0.6566152 -0.1549602
-0.92940336 -0.9999264 -1.9181426 0.0091744205 0.38762262 -0.57422584 -1.7845693 -1.0643197
-0.33172306 0.21356839 0.4507754 0.15135431 -0.18948491 -1.6011492 0.2365406 -1.0802017
-1.6154038 -1.0310603 -0.6232582 -0.2850671 1.2312858 -1.3978163 -0.7691239 1.0145329
00000000: 20eb 78bf 2326 793e 740e 54bf a6a4 8dbf
00000010: 2987 a73f ef2c c5bf 92e1 bbbf 727d e13e
00000020: b431 22bf 2f43 70bf 9398 b8bf 0fa6 79bf
00000030: 3809 ffbe d7b8 c73e d7ff 1bbd cb83 993e
00000040: 3ded eb3e 2603 28be 4d0b 53bf e8a2 a2be
00000050: f6b3 ad3e cde0 b5bf ef17 283f e3ad 1ebe
00000060: 61ed 6dbf 2dfb 7fbf b285 f5bf 4f50 163c
00000070: 7976 c63e 7700 13bf c46c e4bf a13b 88bf
00000080: 9bd7 a9be acb1 5a3e 09cc e63e a0fc 1a3e
00000090: 5508 42be 75f2 ccbf b337 723e 0d44 8abf
000000a0: 8dc5 cebf c9f9 83bf d98d 1fbf 51f4 91be
000000b0: c69a 9d3f a5eb b2bf 4ee5 44bf 37dc 813f

convs.0.order__interacts__event.lin_rel.bias f4 [48]
-0.45233384 -1.022999 -1.0001211 -1.0583581 -1.8500896 -0.7855054 0.082968235 -1.1541585
-0.98077244 -1.6037681 -1.2212873 -0.15020052 -1.0919745 -1.5268517 -1.143185 -0.07368045
0.11893624 -0.5763297 -0.5575283 -0.23218523 -0.2592818 -1.5635098 -1.6856824 0.5506917
0.21646272 0.4025324 -1.6128253 -1.3354955 -1.1816154 -0.14004984 -1.5461793 -0.8368398
0.16887604 -1.0846168 0.026504423 -1.6594713 -1.0989358 -0.83204526 -1.1683837 -1.3288068
-1.4800458 -0.29883733 -0.8260664 -1.062732 -1.0790014 -1.8432745 0.39288843 -0.7975396
00000000: 4d98 e7be a2f1 82bf f803 80bf 4778 87bf
00000010: bccf ecbf e216 49bf 40eb a93d 77bb 93bf
00000020: e713 7bbf 4648 cdbf 2453 9cbf 2ace 19be
00000030: d2c5 8bbf e06f c3bf e353 92bf c7e5 96bd
00000040: d894 f33d 588a 13bf 2dba 0ebf f7c1 6dbe
00000050: 96c0 84be 1721 c8bf 71c4 d7bf 22fa 0c3f
00000060: 67a8 5d3e ba18 ce3e 0f71 cebf 84f1 aabf
00000070: 2c3f 97bf 3a69 0fbe 34e9 c5bf 223b 56bf
00000080: d7ed 2c3e b9d4 8abf ce1f d93c 8e69 d4bf
00000090: eea9 8cbf eb00 55bf 998d 95bf 5716 aabf
000000a0: 2472 bdbf 3501 99be 1679 53bf 9a07 88bf
000000b0: b81c 8abf 6bf0 ebbf ac28 c93e 8e2b 4cbf

convs.0.order__interacts__event.lin_root.weight f4 [48, 20]
0.11959815 -0.0683896 0.13217966 0.18037386 0.06881819 0.31445765 0.16568968 0.52079886
0.39498976 0.061086576 -0.01476842 -0.70685095 -0.8600556 0.29430336 0.20724882 0.20953088
0.024170237 -0.3166227 0.30399945 0.045990173 -0.88696706 -0.27979764 0.11467673 0.030848922
-0.43965387 -0.25338972 0.28336242 -0.15442656 -0.29655048 -0.15351102 -0.7005303 0.4184704
0.23809539 0.5354414 -0.3113021 0.39945754 0.16271421 0.04100855 -0.51749814 -0.1494061
-0.13355978 -0.39967024 0.107997954 -0.274871 0.22360797 0.2858486 -0.007222364 0.3356839
-0.18886504 -0.078674585 0.28140613 0.24855828 0.16706672 1.4510338 -0.85365254 -0.4329101
0.105941616 -0.4065523 0.23810524 0.4315112 0.06413676 0.91817814 -0.40971643 -0.3087136
-0.38814485 -1.3598936 0.7069325 0.21570037 -0.17795224 0.5860308 0.28692052 -0.464693
-0.5913884 -0.042060338 0.68744874 -0.6860161 -0.5009955 0.5093176 -0.67178035 -0.33223194
-0.3911095 -0.09114051 0.024757216 -0.19219103 0.09120553 0.4850342 0.42523557 -0.11071176
0.26335654 0.34479246 0.5663194 -0.9714388 -0.23560648 0.8822728 -0.94819945 0.54088646
0.042739466 -0.18155958 -0.04596376 -0.28397426 -0.12240515 -0.41643238 0.041947633 -0.35172975
-0.9736007 0.18303688 -0.015837576 -0.028856618 0.16321833 0.0040805535 -0.097327694 0.34420002
0.17229871 -0.69315004 -0.36993277 0.20083497 0.11688896 -0.5924052 0.1814018 0.09517744
0.17933437 0.21305707 -0.09421586 0.3795666 0.4272043 -0.5953713 0.045808602 -0.061249766
0.40577543 -0.46934676 -0.27005234 0.5877803 -0.88472736 -0.38552994 0.474689 -1.4759611
0.14121234 0.39181128 0.473028 -0.118990526 0.008250609 0.33935457 0.47343275 -0.72427595
0.021478057 0.49958524 0.3630735 -0.111406066 0.28617346 -0.3977082 -0.27259433 0.07861068
0.4218384 -1.2235396 -0.12802248 0.44223648 -0.24283032 0.12897886 -0.2945125 -0.60476977
-0.0662319 0.46175307 0.04581573 0.029183472 0.014091082 -1.0459677 0.035927866 0.37943843
-0.42380768 0.6843271 -0.15982579 -0.025394723 -0.5566758 -0.51330775 0.47223562 -0.6209847
-0.73764914 0.9374613 0.13350381 -0.67733824 -0.110700674 0.52462536 -0.23713158 -0.6817878
0.2690449 0.016103493 -0.02272951 -0.3304873 -0.18953177 0.03510487 0.24360842 -1.0930763
0.46708295 0.018977117 0.44497266 -0.019915732 1.0564725 0.34190613 0.9117316 0.4848586
0.383164 -1.020402 0.18079293 -0.40069062 -0.47401685 -0.12499105 -0.14541237 -0.75884235
-0.86359704 -0.75063574 -0.27212605 0.30471987 0.007716275 0.3820064 -0.99364734 0.65369797
0.6453739 0.087379016 -0.39030963 -0.050793678 -0.06901564 0.3895088 0.2911245 0.1880432
0.044667237 -0.45689043 0.059772678 0.017178494 -0.6516884 0.3149913 -0.15740784 0.34603134
-0.82947135 -1.9087175 0.8235905 0.61545515 0.107181445 0.028391853 -0.06582921 0.119721174
0.056762047 -0.54885155 0.049783766 -0.18178186 0.2758207 0.0151525615 0.3327825 -0.003311436
-0.24881996 0.1440268 -0.15939628 -0.9692736 -0.17234488 0.09091797 0.34833196 0.4202442
00000000: e0ef f43d d90f 8cbd 1b5a 073e edb3 383e
00000010: 8df0 8c3d 9800 a13e 8eaa 293e 1353 053f
00000020: 193c ca3e eb35 7a3d 3ef7 71bc 2ff4 34bf
00000030: 9b2c 5cbf eeae 963e 0939 543e 438f 563e
00000040: a900 c63c 5f1c a2be d1a5 9b3e 3160 3c3d
00000050: 4610 63bf a341 8fbe a2db ea3d e1b6 fc3c
00000060: 501a e1be 4cbc 81be e114 913e ff21 1ebe
00000070: 77d5 97be fe31 1dbe f455 33bf c141 d63e
00000080: 47cf 733e b012 093f fd62 9fbe b385 cc3e
00000090: 8e9e 263e 95f8 273d c27a 04bf eafd 18be
000000a0: e5c3 08be 94a1 ccbe 082e dd3d e4bb 8cbe
000000b0: 7df9 643e bf5a 923e 95a9 ecbb c3de ab3e
000000c0: d665 41be 2420 a1bd 7714 903e 1086 7e3e
000000d0: 8a13 2b3e 7abb b93f f988 5abf 65a6 ddbe
000000e0: ebf7 d83d a027 d0be dcd1 733e 09ef dc3e
000000f0: 225a 833d b90d 6b3f 5ac6 d1be b50f 9ebe
00000100: ecba c6be fe10 aebf 87f9 343f 8fe0 5c3e
00000110: 1d39 36be 1d06 163f 3fe7 923e 3eec edbe
00000120: 3b65 17bf 7647 2cbd a4fc 2f3f c09e 2fbf
00000130: 3e41 00bf a362 023f ccf9 2bbf 4e1a aabe
00000140: 813f c8be e0a7 babd a5cf ca3c bacd 44be
00000150: f7c9 ba3d 6756 f83e 7ab8 d93e d9bc e2bd
00000160: abd6 863e a388 b03e 4ffa 103f 37b0 78bf
00000170: d342 71be a1dc 613f 33bd 72bf 8977 0a3f
00000180: 940f 2f3d c1ea 39be 7f44 3cbd 1365 91be
00000190: 8daf fabd a036 d5be 48d1 2b3d ec15 b4be
000001a0: e53d 79bf 056e 3b3e cebd 81bc b764 ecbc
000001b0: b522 273e 2ab6 853b be53 c7bd fc3a b03e
000001c0: 136f 303e 4872 31bf d467 bdbe afa7 4d3e
000001d0: 7b63 ef3d dea7 17bf 65c1 393e 64ec c23d
000001e0: 6ea3 373e a22b 5a3e 3ff4 c0bd 8e56 c23e
000001f0: 86ba da3e 416a 18bf cda1 3b3d 09e1 7abd
00000200: ccc1 cf3e 384e f0be 4d44 8abe c578 163f
00000210: 7e7d 62bf 2e64 c5be 700a f33e 4bec bcbf
00000220: f899 103e 7d9b c83e ba30 f23e 4eb1 f3bd
00000230: 902d 073c e2bf ad3e c765 f23e 266a 39bf
00000240: c0f2 af3c a3c9 ff3e c5e4 b93e dd28 e4bd
00000250: 5485 923e 69a0 cbbe 7c91 8bbe a3fe a03d
00000260: 34fb d73e f29c 9cbf 5318 03be d26c e23e
00000270: 83a8 78be 0913 043e 58ca 96be 31d2 1abf
00000280: 97a4 87bd e66a ec3e 46a9 3b3d 2d12 ef3c
00000290: 48de 663c 45e2 85bf 1929 133d c145 c23e
000002a0: 52fd d8be 1030 2f3f 5fa9 23be 9808 d0bc
000002b0: 4e82 0ebf 2368 03bf dec8 f13e daf8 1ebf
000002c0: 93d6 3cbf 77fd 6f3f 39b5 083e 0a66 2dbf
000002d0: 09b7 e2bd d94d 063f 9fd2 72be a589 2ebf
000002e0: 41c0 893e 79eb 833c 3d33 babc a235 a9be
000002f0: 9e14 42be 20ca 0f3d 7c74 793e ede9 8bbf
00000300: 7f25 ef3e e675 9b3c 75d3 e33e 5126 a3bc
00000310: 7e3a 873f 520e af3e 3e67 693f 633f f83e
00000320: 122e c43e 889c 82bf c821 393e 5227 cdbe
00000330: 56b2 f2be 4ffb ffbd fbe6 14be 7e43 42bf
00000340: b214 5dbf aa29 40bf 1b54 8bbe 3e04 9c3e
00000350: ced8 fc3b 5896 c33e ac5f 7ebf c058 273f
00000360: 3937 253f c5f3 b23d aad6 c7be 080d 50bd
00000370: 1258 8dbd b36d c73e 450e 953e 668e 403e
00000380: fef4 363d 8bed e9be 32d4 743d eab9 8c3c
00000390: 0dd5 26bf 8a46 a13e 852f 21be 052b b13e
000003a0: 3c58 54bf db50 f4bf d4d6 523f 788e 1d3f
000003b0: f281 db3d 0896 e83c 77d1 86bd 6030 f53d
000003c0: 527f 683d 8981 0cbf 10ea 4b3d 0625 3abe
000003d0: 5f38 8d3e 7342 783c 7862 aa3e ad04 59bb
000003e0: a9ca 7ebe c37b 133e c738 23be 5122 78bf
000003f0: 2d7b 30be 3333 ba3d 9158 b23e 3f2a d73e

convs.0.item__interacts__event.lin_rel.weight f4 [48, 1]
0.64388436 -0.5150801 0.10833388 -0.8487863 -1.1750683 -0.10184988 -0.07467541 -0.37812796
-0.7500017 -1.0874288 0.5146452 -0.15588874 0.42053288 -0.8297692 -0.16481419 -0.3241108
-1.7508941 -0.37715355 0.13210842 0.085628435 -0.38305518 -0.26419392 -1.1527599 -1.399269
-1.2844111 -1.5467951 0.56053966 -0.82412434 -1.3556503 -1.533817 -0.23515572 -0.7311663
-0.10289789 -0.49181408 0.25262117 0.11995756 -0.4247225 -0.1276872 0.3962096 -0.32130063
0.41825658 0.24642865 -0.7037684 0.5059871 -0.94349617 -1.8668667 -0.064162076 -1.0387889
00000000: 9bd5 243f 4adc 03bf 27de dd3d 0f4a 59bf
00000010: a368 96bf ab96 d0bd 6cef 98bd fd99 c1be
00000020: 1d00 40bf de30 8bbf cabf 033f 4ca1 1fbe
00000030: 1650 d73e c16b 54bf 0dc5 28be daf1 a5be
00000040: 4c1d e0bf 451a c1be 6e47 073e f65d af3d
00000050: cf1f c4be 6d44 87be a38d 93bf 3f1b b3bf
00000060: 9567 a4bf 62fd c5bf 877f 0f3f d0f9 52bf
00000070: f385 adbf 1e54 c4bf a9cc 70be b72d 3bbf
00000080: 21bc d2bd 0ecf fbbe 9057 813e 4fac f53d
00000090: 3a75 d9be 6fc0 02be fcdb ca3e 8481 a4be
000000a0: ba25 d63e cb57 7c3e 2a2a 34bf 5f88 013f
000000b0: f788 71bf 7df5 eebf 6867 83bd 09f7 84bf

convs.0.item__interacts__event.lin_rel.bias f4 [48]
-1.5161593 -1.2087379 -1.4569212 -1.0847298 -2.0514493 -0.2752855 -0.70267195 -0.073809944
-0.957561 -1.2291396 -1.5711349 -1.294661 -0.3287286 -0.50879276 0.1956605 -0.17976193
0.21151729 -1.1655928 -1.4048158 -0.65346193 -1.5520123 -0.0146021815 -1.3734125 0.6400075
0.14057174 -0.16367447 -1.2210304 -0.6388206 -1.1935294 -0.06749517 -1.360473 0.017049136
-0.9211729 -0.2950808 -1.0637021 -0.29192254 -0.8766957 0.030206714 -1.3152683 -2.0100505
-0.20120203 -0.66782635 -0.7217872 -1.0761526 -1.5835015 -1.3327357 0.331561 -1.9968466
00000000: 8211 c2bf ecb7 9abf 657c babf 6dd8 8abf
00000010: f24a 03c0 39f2 8cbe 4fe2 33bf ab29 97bd
00000020: b822 75bf 7254 9dbf f31a c9bf 74b7 a5bf
00000030: 1d4f a8be 3e40 02bf 3a5b 483e 8313 38be
00000040: fd97 583e 2532 95bf 01d1 b3bf 4849 27bf
00000050: 57a8 c6bf fd3d 6fbc fbcb afbf 88d7 233f
00000060: 0af2 0f3e 489a 27be b94a 9cbf bf89 23bf
00000070: 92c5 98bf e83a 8abd fb23 aebf a1aa 8b3c
00000080: fdd1 6bbf d514 97be 6427 88bf df76 95be
00000090: 216f 60bf 1274 f73c b65a a8bf aba4 00c0
000000a0: e807 4ebe abf6 2abf 0cc7 38bf 5ebf 89bf
000000b0: 2db0 cabf 1597 aabf 5dc2 a93e ab98 ffbf

convs.0.item__interacts__event.lin_root.weight f4 [48, 20]
0.20873584 -0.14296164 0.09557142 -0.010622055 0.20808955 0.2585579 0.23132001 0.2604373
0.44445857 0.10587886 0.06529503 -0.5668447 -0.82218355 0.16332184 0.077636056 0.1757432
0.18261029 -0.5021743 0.12789044 -0.20115437 -0.7832357 -0.47262025 -0.05106553 0.064702034
-0.16705646 -0.06708796 0.16298649 -0.3057108 -0.0714781 -0.20032834 -0.31960365 0.28683007
0.25870752 0.6715405 -0.24069259 0.01829506 0.2548617 -0.1112282 -0.39910936 -0.19301555
-0.15486556 -0.21192546 0.10120707 -0.049300525 0.26161006 -0.12772126 0.11192879 0.014330314
-0.11679578 0.03637378 0.2893611 -0.15951446 0.4843416 1.3830646 -1.261981 -0.34874836
0.23377286 -0.46642455 0.17976147 0.09879493 -0.023768386 0.6997648 -0.6826016 -0.31214142
-0.3756648 -1.3150136 0.55483425 0.1907963 -0.3295658 0.47800314 0.27938753 -0.58020234
-0.3892251 -0.215612 0.4037837 -0.74691653 -0.50321865 0.64218724 -0.968561 -0.19491011
-0.30971858 0.119418815 -0.2301819 -0.41816628 -0.14123985 0.4143951 0.5787708 0.2786402
0.41034383 0.4202173 0.5598486 -1.0963957 -0.5881373 0.83152664 -0.73478127 0.4814125
-0.29186296 -0.055715993 0.047598206 -0.25476846 0.064620174 -0.35676733 -0.003849306 -0.63590086
-0.93262637 0.426693 0.04665583 0.010249787 0.23492178 0.16417821 -0.22586407 0.17382465
0.18778627 -0.8150388 -0.3566593 0.27657425 0.16268533 -0.5842495 0.099115975 -0.24529046
-0.15744619 0.06317816 -0.10357058 0.015575408 0.63702035 -0.17026673 0.13528384 -0.13196518
0.23245591 -0.46666592 -0.45615578 0.6295529 -0.6827821 -0.63324726 0.69878864 -1.5320299
-0.060744263 0.5076228 0.3097423 -0.29676756 0.19978137 0.43915772 0.18297 -0.4753843
-0.23420645 0.48207554 0.37528494 -0.20569879 0.2871061 -0.2902449 -0.16107619 0.45158896
0.38587567 -0.87913996 -0.13482189 0.6282103 -0.5234623 0.27416754 -0.27347288 -0.68742543
-0.13782461 0.7078948 0.0438205 -0.013771263 0.09942257 -0.9395917 0.29954544 0.2116232
-0.37342998 0.4158343 -0.026751803 -0.2943434 -0.49906644 -0.13458651 0.35623422 -0.81058043
-0.45769677 0.96583956 0.18086867 -1.0333879 -0.2635862 0.22679214 -0.63787353 -0.5801296
0.20177168 0.17955206 -0.2032906 -0.13924848 -0.4371354 -0.18774611 0.20833862 -0.8552514
0.33530253 0.00884383 0.3542923 -0.16166694 0.9865273 0.4890107 0.8472582 0.87189513
0.2458084 -1.1484029 0.15941459 -0.3839921 -0.5953262 0.059220772 -0.23388736 -0.71310776
-0.74653757 -0.7634227 -0.055983648 0.18550234 -0.06977098 0.7356015 -0.9759775 0.9007804
0.32462096 0.04493048 -0.20177063 -0.00083406916 -0.06750801 0.4032045 0.105802834 -0.1593848
0.39075947 -0.7144711 -0.17240049 -0.20931396 -0.51660806 0.55630714 -0.12586863 0.08160638
-0.6471199 -1.8104639 0.5543571 0.47236037 0.045032855 0.25650218 -0.034334082 0.11245912
0.1496213 -0.5371712 0.06553776 -0.08558238 0.16527486 0.18370476 0.27969447 0.10815837
0.0060126614 0.19150518 -0.43343413 -1.1137272 -0.50105536 0.33225012 0.49979866 0.18933086
00000000: d9be 553e 8964 12be f3ba c33d 2108 2ebc
00000010: 6d15 553e b361 843e 27df 6c3e 0a58 853e
00000020: 1390 e33e 04d7 d83d 67b9 853d bc1c 11bf
00000030: 9f7a 52bf d73d 273e a7ff 9e3d 07f6 333e
00000040: 31fe 3a3e 7f8e 00bf b6f5 023e 69fb 4dbe
00000050: 2382 48bf 48fb f1be 172a 51bd 8082 843d
00000060: d910 2bbe 6a65 89bd eee5 263e 2086 9cbe
00000070: 1c63 92bd df22 4dbe 17a3 a3be 64db 923e
00000080: 5075 843e 14ea 2b3f 1e78 76be 86df 953c
00000090: 3c7d 823e 9ccb e3bd 1058 ccbe dea5 45be
000000a0: 1495 1ebe fd02 59be a745 cf3d 59ef 49bd
000000b0: c1f1 853e 5dc9 02be ec3a e53d b1c9 6a3c
000000c0: a032 efbd acfc 143d 2327 943e c257 23be
000000d0: 9ffb f73e 4308 b13f 9888 a1bf 258f b2be
000000e0: 2762 6f3e 33cf eebe 6413 383e ff54 ca3d
000000f0: ebb5 c2bc c923 333f fabe 2ebf 00d1 9fbe
00000100: 2357 c0be 5e52 a8bf 9e09 0e3f 1b60 433e
00000110: d9bc a8be d4bc f43e e20b 8f3e 2488 14bf
00000120: 8348 c7be 64c9 5cbe bdbc ce3e ec35 3fbf
00000130: f0d2 00bf 6266 243f 9df3 77bf 8496 47be
00000140: 6f93 9ebe da91 f43d ceb4 6bbe e419 d6be
00000150: 2ea1 10be 982b d43e 532a 143f eea9 8e3e
00000160: 9618 d23e b926 d73e 3d52 0f3f b256 8cbf
00000170: 2b90 16bf eede 543f a01a 3cbf b37b f63e
00000180: 106f 95be 7436 64bd 56f6 423d 0371 82be
00000190: 9557 843d 35aa b6be a344 7cbb 66ca 22bf
000001a0: 9ac0 6ebf 8177 da3e 2f1a 3f3d b9ee 273c
000001b0: 568f 703e 551e 283e e948 67be 17ff 313e
000001c0: 0b4b 403e 62a6 50bf 0c9c b6be 249b 8d3e
000001d0: fc96 263e 6091 15bf 51fd ca3d 6c2d 7bbe
000001e0: 9339 21be 8d63 813d d01c d4bd ff2f 7f3c
000001f0: c413 233f 675a 2ebe d987 0a3e e121 07be
00000200: ec08 6e3e d6ee eebe 408d e9be 612a 213f
00000210: cfca 2ebf 7e1c 22bf d0e3 323f 8e19 c4bf
00000220: face 78bd 91f3 013f 8b96 9e3e ebf1 97be
00000230: 7d93 4c3e 48d9 e03e 7d5c 3b3e 9265 f3be
00000240: d1d3 6fbe 9bd2 f63e 5925 c03e b4a2 52be
00000250: 92ff 923e fb9a 94be 28f1 24be ab36 e73e
00000260: 7f91 c53e 510f 61bf c00e 0abe 64d2 203f
00000270: a001 06bf b05f 8c3e a304 8cbe 1dfb 2fbf
00000280: e521 0dbe 9838 353f 207d 333d dda0 61bc
00000290: 0f9e cb3d 1589 70bf 055e 993e c1b3 583e
000002a0: 3732 bfbe 3ce8 d43e 9926 dbbc 2eb4 96be
000002b0: a385 ffbe 0cd1 09be 5564 b63e 3382 4fbf
000002c0: 3b57 eabe 4341 773f a335 393e 0e46 84bf
000002d0: c5f4 86be 333c 683e ae4b 23bf 6083 14bf
000002e0: 3c9d 4e3e 7fdc 373e 692b 50be 2797 0ebe
000002f0: 36d0 dfbe 8440 40be b856 553e c1f1 5abf
00000300: c6ac ab3e b6e5 103c cd65 b53e 058c 25be
00000310: 0e8d 7c3f 9c5f fa3e eae5 583f 8534 5f3f
00000320: 32b5 7b3e defe 92bf 943d 233e 9d9a c4be
00000330: 4c67 18bf 7b91 723d 2b80 6fbe 3b8e 36bf
00000340: 161d 3fbf ac6f 43bf 1c4f 65bd 53f4 3d3e
00000350: 16e4 8ebd 6150 3c3f a9d9 79bf 8b99 663f
00000360: b834 a63e 0609 383d f69c 4ebe 6fa5 5aba
00000370: a441 8abd d270 ce3e 28af d83d c535 23be
00000380: a011 c83e 94e7 36bf c189 30be 6656 56be
00000390: 6d40 04bf 256a 0e3f b5e3 00be 3f21 a73d
000003a0: a6a9 25bf 48bd e7bf 59ea 0d3f 38d9 f13e
000003b0: 5f74 383d 4154 833e e5a1 0cbd f850 e63d
000003c0: 5336 193e 0d84 09bf a938 863d d145 afbd
000003d0: d03d 293e 1a1d 3c3e 1d34 8f3e 2382 dd3d
000003e0: dc05 c53b ef19 443e 14eb ddbe 9d8e 8ebf
000003f0: 2a45 00bf b01c aa3e 9ce5 ff3e f3df 413e

convs.0.package__interacts__event.lin_rel.weight f4 [48, 1]
0.30776364 0.34743696 1.7969897 0.5778179 2.4010763 0.4499227 -1.9130906 -0.12145127
-0.2818812 0.80901045 -3.5788715 -0.36072192 -0.43201676 -0.23889132 -0.89125925 -0.71119475
1.2532611 -0.04096375 1.0627408 0.9232292 -2.6121082 0.05802235 0.9583345 1.5360353
-0.66346866 1.193287 -0.19050671 0.8567838 1.4604311 -1.1723253 -0.4177787 -0.7378758
-0.465742 1.0481037 -0.32082808 -0.4289057 -0.75107414 -2.053788 -0.9288991 1.3514373
-1.4049252 0.56533223 0.54171467 0.45294744 0.21131696 -1.2303587 -1.2429054 -0.09245823
00000000: 3293 9d3e 42e3 b13e c203 e63f e0eb 133f
00000010: 3cab 1940 455c e63e 27e0 f4bf 72bb f8bd
00000020: bc52 90be 4f1b 4f3f 3b0c 65c0 8bb0 b8be
00000030: 4d31 ddbe ed9f 74be 9129 64bf dc10 36bf
00000040: dc6a a03f 9bc9 27bd e407 883f c058 6c3f
00000050: c82c 27c0 d8a8 6d3d 6955 753f ce9c c43f
00000060: 15d9 29bf a1bd 983f 3114 43be 2f56 5b3f
00000070: 68ef ba3f c10e 96bf 17e7 d5be 6ee5 3cbf
00000080: bc75 eebe 4328 863f 9443 a4be 8799 dbbe
00000090: 6546 40bf 4371 03c0 55cc 6dbf e6fb ac3f
000000a0: 97d4 b3bf 9db9 103f d0ad 0a3f bae8 e73e
000000b0: 7963 583e 657c 9dbf 8617 9fbf be5a bdbd

convs.0.package__interacts__event.lin_rel.bias f4 [48]
-0.05520734 -0.13182865 -1.8142715 0.17557001 -1.4307003 -0.53088886 0.19119383 -0.965025
-0.33232886 -0.35314643 -0.575296 -1.0771798 -1.3501608 -0.8947258 -0.8743159 0.35698944
-0.083632275 -1.4541451 -1.3194487 -0.50590366 -1.9634807 -0.6390124 -1.1849405 -0.11913321
0.40272033 -1.0959117 -0.9457318 -0.6870032 -0.19354631 -1.0213604 -1.7489426 0.0040196995
0.4537381 -0.7228971 -1.8604169 -0.25926238 -1.4072618 -0.22373144 -0.56850415 -1.0356398
-1.8398651 0.09878822 0.62852496 -0.8424237 -1.786532 -0.56887615 -0.14583226 -1.0989356
00000000: 1721 62bd 17fe 06be 0c3a e8bf a0c8 333e
00000010: 3021 b7bf 55e8 07bf 51c8 433e e10b 77bf
00000020: 0227 aabe 9ccf b4be 9946 13bf 07e1 89bf
00000030: 12d2 acbf c00c 65bf 2bd3 5fbf 52c7 b63e
00000040: 6647 abbd 6d21 babf b2e3 a8bf e782 01bf
00000050: 5653 fbbf 5196 23bf 21ac 97bf 1dfc f3bd
00000060: 5c31 ce3e d646 8cbf 7b1b 72bf 71df 2fbf
00000070: 0131 46be f0bb 82bf 5add dfbf afb7 833b
00000080: 5c50 e83e c90f 39bf 2422 eebf 0abe 84be
00000090: 2821 b4bf db19 65be 7d89 11bf d88f 84bf
000000a0: b380 ebbf 7a51 ca3d 03e7 203f 14a9 57bf
000000b0: 15ad e4bf dea1 11bf 0d55 15be eca9 8cbf

convs.0.package__interacts__event.lin_root.weight f4 [48, 20]
0.28965858 0.044406023 0.3166178 0.088358335 -0.18135747 0.23629868 0.48059168 0.39087084
0.3766463 -0.1138441 -0.3166528 -0.7509071 -0.72142726 0.24072099 0.17908435 0.33481345
0.22654426 -0.6724999 -0.0030333898 -0.15546581 -0.92158616 -0.48500326 -0.27754182 -0.18885164
-0.34552267 -0.41147155 0.31658787 -0.25323385 -0.23914889 -0.31937125 -0.32563314 0.6136182
0.4510007 0.26633662 -0.0169662 0.3830254 0.500939 -0.34584403 -0.6253292 -0.2729848
0.0008508024 -0.16313131 -0.0019815648 -0.044889692 -0.08742595 -0.07483521 -0.1695746 0.08575159
-0.050700553 -0.26437113 0.2747921 0.1384467 0.17903598 1.1977004 -1.1726085 -0.6812576
0.0044829505 -0.48345262 0.25962853 0.16090372 0.03920247 0.8593456 -0.8137216 -0.16063146
-0.3537121 -1.6701088 0.53372097 0.17108402 -0.23019768 0.5913667 0.011160844 -0.5095598
-0.35503754 -0.06327281 0.6055538 -0.9393308 -0.15329707 0.4833887 -0.78780615 -0.17289323
-0.053309176 0.119862154 -0.058285516 -0.010515735 0.07375658 0.462239 0.566308 0.25328535
0.2426932 0.67209816 0.7056731 -0.8864511 -0.6255254 0.79253167 -0.6786949 0.30604762
-0.14336646 -0.30722693 -0.07281342 -0.13789439 -0.33148384 -0.5022378 0.34948286 -0.28810456
-0.9077905 0.094524115 -0.0049988083 -0.30192244 -0.007285117 0.18590473 -0.2416074 0.31102785
0.15138853 -0.80372804 -0.48216197 0.24265929 0.4513433 -0.3810905 0.14536868 -0.18854341
0.08610764 0.25694114 0.18441495 0.21074222 0.47328836 -0.24960455 0.07597845 -0.1279144
0.19097875 -0.48339352 -0.29296747 0.6187905 -0.6333277 -0.65787435 0.7559563 -1.1887648
0.11851966 0.5311764 0.30600154 -0.07106693 0.17521106 0.415147 0.42211702 -0.7722665
0.009691221 0.3515238 0.5022314 -0.16420454 0.11363092 -0.38158378 -0.38183704 0.370871
0.13482076 -0.972348 -0.001281992 0.7762428 -0.4637906 0.12321442 -0.31672332 -0.51523733
-0.10837728 0.33525383 -0.21391478 -0.17951939 -0.2111856 -1.2231245 0.39071184 0.303154
-0.32239932 0.5465704 -0.0597014 0.028977979 -0.5291959 -0.36352944 0.3290855 -0.9183312
-0.57823354 0.8743874 0.18045838 -0.9356406 -0.19688083 0.14428951 -0.30416888 -0.27718768
0.13900508 0.16996488 -0.15376358 -0.13299753 -0.22875267 -0.00689484 0.0734181 -0.854161
0.20784155 0.09312582 0.4957279 -0.18789588 0.8783505 0.3043632 1.001673 0.6505178
0.33561286 -1.0447435 -0.140833 -0.13504651 -0.73793954 0.027401922 0.07644324 -0.5680318
-0.6560484 -0.98094684 -0.36797708 0.5132626 0.14362395 0.4189214 -0.9817078 0.7898251
0.5449087 0.15144442 -0.5358299 0.16928756 0.28298315 0.4966123 -0.029386574 0.17157665
0.110253595 -0.70226586 0.108306564 -0.24848194 -0.72229564 0.26289165 -0.18483053 0.11918576
-1.0107486 -2.0580537 0.6975697 0.50582427 0.41537324 0.23317586 -0.24575603 0.3466018
0.06326809 -0.4232808 0.11645265 -0.36662814 0.49087745 0.30281842 0.09831255 0.26314053
-0.04737088 0.35015625 -0.14235866 -0.7469989 -0.20177484 0.028663341 0.5948082 0.54823077
00000000: 214e 943e 17e3 353d ba1b a23e 37f5 b43d
00000010: c6b5 39be 48f8 713e 1d10 f63e 3920 c83e
00000020: c9d7 c03e 1827 e9bd 5120 a2be 733b 40bf
00000030: 75af 38bf 907f 763e e361 373e ab6c ab3e
00000040: 38fb 673e f428 2cbf d6cb 46bb 6e32 1fbe
00000050: 12ed 6bbf 5952 f8be f619 8ebe 5362 41be
00000060: 59e8 b0be 66ac d2be ce17 a23e dea7 81be
00000070: 72e3 74be a184 a3be 63b9 a6be 1516 1d3f
00000080: 90e9 e63e 465d 883e b3fc 8abc e81b c43e
00000090: 8a3d 003f 7812 b1be 9315 20bf aac4 8bbe
000000a0: 6208 5f3a e50b 27be 24dd 01bb 41de 37bd
000000b0: 600c b3bd 3443 99bd f7a4 2dbe 889e af3d
000000c0: 62ab 4fbd a75b 87be 8db1 8c3e f9c4 0d3e
000000d0: 3555 373e 3f4e 993f 0918 96bf e666 2ebf
000000e0: b7e5 923b 1a87 f7be 08ee 843e f2c3 243e
000000f0: c592 203d 13fe 5b3f 0f50 50bf 937c 24be
00000100: c119 b5be 20c6 d5bf f0a1 083f a630 2f3e
00000110: f1b8 6bbe cf63 173f f9db 363c 8372 02bf
00000120: 7bc7 b5be 2d95 81bd 9305 1b3f fc77 70bf
00000130: e8f9 1cbe b97e f73e aaad 49bf ec0a 31be
00000140: b95a 5abd 4a7a f53d cbbc 6ebd 304a 2cbc
00000150: b10d 973d 97aa ec3e 90f9 103f 9eae 813e
00000160: 9184 783e a00e 2c3f fea6 343f 76ee 62bf
00000170: 6f22 20bf 5be3 4a3f f3be 2dbf 46b2 9c3e
00000180: a8ce 12be d94c 9dbe 341f 95bd 3034 0dbe
00000190: 40b8 a9be a892 00bf 6bef b23e 7182 93be
000001a0: f564 68bf dc95 c13d 0bcd a3bb 9495 9abe
000001b0: feb7 eebb cf5d 3e3e ee67 77be 0b3f 9f3e
000001c0: 9805 1b3e 1fc1 4dbf efdd f6be ad7b 783e
000001d0: 7816 e73e 4b1e c3be 87db 143e 8611 41be
000001e0: 3459 b03d ca8d 833e 46d7 3c3e cfcc 573e
000001f0: da52 f23e 5698 7fbe 979a 9b3d fefb 02be
00000200: ef8f 433e 5b7f f7be d5ff 95be 0e69 1e3f
00000210: c421 22bf 746a 28bf 5a86 413f 7229 98bf
00000220: 6fba f23d 2dfb 073f 3cac 9c3e 8a8b 91bd
00000230: 876a 333e 268e d43e b91f d83e 42b3 45bf
00000240: edc7 1e3c edfa b33e 3d92 003f 3c25 28be
00000250: 54b7 e83d f35e c3be 2580 c3be cee2 bd3e
00000260: 740e 0a3e cceb 78bf 8308 a8ba d9b7 463f
00000270: f675 edbe d857 fc3d 8f29 a2be 98e6 03bf
00000280: e8f4 ddbd 64a6 ab3e 7a0c 5bbe eed3 37be
00000290: 0a41 58be 588f 9cbf 620b c83e 0037 9b3e
000002a0: 8611 a5be 0aec 0b3f 7589 74bd 3a63 ed3c
000002b0: 6279 07bf 8820 babe e57d a83e c117 6bbf
000002c0: 1d07 14bf dad7 5f3f 15ca 383e 2486 6fbf
000002d0: 219b 49be a1c0 133e 06bc 9bbe 8beb 8dbe
000002e0: 5957 0e3e 460b 2e3e 3374 1dbe 8130 08be
000002f0: 243e 6abe 1cee e1bb 3b5c 963d 4caa 5abf
00000300: 6ad4 543e c0b8 be3d 0cd0 fd3e c767 40be
00000310: 94db 603f 7ed5 9b3e d236 803f 5688 263f
00000320: 73d5 ab3e 28ba 85bf 8736 10be a249 0abe
00000330: 9be9 3cbf ff79 e03c 468e 9c3d 886a 11bf
00000340: caf2 27bf 551f 7bbf 7e67 bcbe 2e65 033f
00000350: 2812 133e de7c d63e 3451 7bbf fa31 4a3f
00000360: 237f 0b3f 3f14 1b3e 262c 09bf b859 2d3e
00000370: 2be3 903e f843 fe3e 1dbc f0bc cab1 2f3e
00000380: a3cc e13d b2c7 33bf d5cf dd3d 0d72 7ebe
00000390: 5ee8 38bf bc99 863e 3744 3dbe aa17 f43d
000003a0: 3660 81bf 27b7 03c0 ee93 323f b37d 013f
000003b0: cdab d43e a7c5 6e3e 78a7 7bbe cb75 b13e
000003c0: b392 813d 43b8 d8be ba7e ee3d afb6 bbbe
000003d0: 4a54 fb3e 040b 9b3e 1758 c93d 5bba 863e
000003e0: f807 42bd ae47 b33e 78c6 11be 523b 3fbf
000003f0: 109e 4ebe 62cf ea3c 5a45 183f da58 0c3f

convs.0.package__updates__package.lin_rel.weight f4 [48, 1]
0.08771989 0.22216558 0.40686506 0.13492481 -0.58678174 -0.32808098 0.4554712 -0.5769179
-0.3962679 0.00670765 -0.052673817 -0.23293436 0.35068098 -0.73878753 0.07327978 0.17259333
-0.807765 -0.18959996 0.43691924 -0.20539415 0.1789004 0.3666627 -0.75204 0.049414154
0.67028385 -0.43186784 0.60875726 0.2747858 -0.5109863 -0.7054848 -0.14842248 0.7443322
0.10683688 -0.20319346 -0.49388403 0.07267473 -0.640835 0.5452925 -0.22858529 -0.567282
-0.90708786 -1.152597 0.8273289 -0.060255524 -0.5522027 -1.2735589 -0.16255414 -0.72849816
00000000: 7ca6 b33d 607f 633e 9e50 d03e bb29 0a3e
00000010: 5437 16bf 3bfa a7be 8533 e93e e4b0 13bf
00000020: a0e3 cabe d9cb db3b 80c0 57bd 5886 6ebe
00000030: 758c b33e 2e21 3dbf b613 963d 4ebc 303e
00000040: b0c9 4ebf 7e26 42be e1b3 df3e d852 52be
00000050: ab31 373e 37bb bb3e b285 40bf 7f66 4a3d
00000060: b997 2b3f c81d ddbe 84d7 1b3f b9b0 8c3e
00000070: 00d0 02bf a79a 34bf 10fc 17be 8e8c 3e3f
00000080: 4bcd da3d f211 50be 5ede fcbe 7dd6 943d
00000090: c30d 24bf 4a98 0b3f 4312 6abe 6539 11bf
000000a0: e936 68bf 4c88 93bf d4cb 533f 7fce 76bd
000000b0: 285d 0dbf fa03 a3bf 9874 26be db7e 3abf

convs.0.package__updates__package.lin_rel.bias f4 [48]
0.0405873 0.3144748 0.01891402 -0.7469044 0.6746909 -0.14549005 0.036671653 0.18092161
-0.15187788 -0.30672994 0.44100812 -0.5045168 0.041666765 0.33744735 -0.5477968 0.41241348
-0.482589 -0.7993908 0.50428057 0.2504422 -0.081779875 -0.9215797 1.0491339 -0.34925473
-0.5980914 -0.5510737 -0.38211668 0.50223535 0.25500205 -0.26855725 0.07281575 0.34222686
0.5033801 -0.19399223 0.4793665 -0.7658656 0.024533922 -0.24113314 0.5250589 -0.14982492
-0.28976172 0.5601468 -0.49778122 -0.43844363 -0.16014084 0.577201 -0.6534384 0.6509421
00000000: de3e 263d d702 a13e 93f1 9a3c 2035 3fbf
00000010: 8bb8 2c3f 58fb 14be 0435 163d 8443 393e
00000020: e085 1bbe b50b 9dbe d1cb e13e 0328 01bf
00000030: c5aa 2a3d e6c5 ac3e 693c 0cbf dc27 d33e
00000040: e815 f7be e0a4 4cbf 8818 013f f639 803e
00000050: 357c a7bd a6ec 6bbf 054a 863f 84d1 b2be
00000060: 851c 19bf 2a13 0dbf cca4 c3be 7f92 003f
00000070: a18f 823e 5680 89be 6d20 953d 5c38 af3e
00000080: 85dd 003f e6a5 46be 876f f53e c50f 44bf
00000090: 5dfb c83c 9beb 76be 436a 063f b46b 19be
000000a0: a65b 94be c865 0f3f 2edd febe af7b e0be
000000b0: f6fb 23be 72c3 133f bd47 27bf 24a4 263f

convs.0.package__updates__package.lin_root.weight f4 [48, 1]
-0.52199507 -0.7951674 0.21213093 0.5654119 -0.37718713 0.4140629 0.36854133 -0.66777796
0.43364173 -0.1395824 -0.41647786 -0.12767231 -0.42027894 0.37621427 0.44544163 -0.5085635
0.3284658 0.46281976 -1.0231978 -0.2290718 -0.16765745 0.00388241 -0.34697506 0.28573686
-0.14569066 -0.50230134 -0.45085374 -0.7896735 0.038910277 0.84134346 -0.24054593 -1.2055256
-0.65236366 0.34449697 -0.112151556 0.42862925 0.67727876 -0.38466978 0.14871691 0.6504608
0.47825545 0.54299843 -0.6116842 -0.19265652 -0.12225918 0.4748613 0.8096537 -0.18660137
00000000: 78a1 05bf 1790 4bbf da38 593e d6be 103f
00000010: ac1e c1be 0d00 d43e 73b1 bc3e 7ff3 2abf
00000020: 4a06 de3e b0ee 0ebe 963c d5be 88bc 02be
00000030: cd2e d7be 289f c03e ed10 e43e 3831 02bf
00000040: ab2c a83e b6f6 ec3e 25f8 82bf cc91 6abe
00000050: 65ae 2bbe 0870 7e3b b7a6 b1be 1a4c 923e
00000060: ef2f 15be d296 00bf 4dd6 e6be 0b28 4abf
00000070: 6260 1f3d 4962 573f ac51 76be aa4e 9abf
00000080: 4e01 27bf e861 b03e b7af e5bd 4b75 db3e
00000090: 2462 2d3f 70f3 c4be 3f49 183e 9984 263f
000000a0: e6dd f43e f201 0b3f 5697 1cbf c047 45be
000000b0: 0563 fabd 0521 f33e 7745 4f3f 6e14 3fbe

convs.0.order__updates__order.lin_rel.weight f4 [48, 1]
0.17250149 -0.76458997 -0.79095334 0.5321147 -0.85091996 -0.31893438 0.07663782 -0.6261624
-0.07601112 0.122009054 0.44142282 -0.2856249 0.007498132 -0.10627901 -0.112905785 0.35763398
-0.4014199 -1.1311557 -0.12497652 0.12413116 0.4384223 0.04979516 0.71553504 -1.0095397
0.21048933 -0.1492805 -0.6113263 -0.17539588 -0.76347506 -0.24001291 0.3398367 0.071144216
0.783845 0.82575274 -0.7821812 -0.6571419 -0.4620796 -0.2493797 0.4883272 -0.38294795
0.06849251 -0.63856 -0.9594027 0.16465677 0.7411827 -0.43474832 0.3903681 0.11751034
00000000: 3ba4 303e 2bbc 43bf eb7b 4abf ab38 083f
00000010: e4d5 59bf 5e4b a3be 4af4 9c3d 2e4c 20bf
00000020: b8ab 9bbd e2df f93d 2c02 e23e 6d3d 92be
00000030: e4b2 f53b cfa8 d9bd 263b e7bd cd1b b73e
00000040: e986 cdbe b6c9 90bf b1f3 ffbd 7a38 fe3d
00000050: e378 e03e 02f6 4b3d 4e2d 373f 9938 81bf
00000060: 848a 573e fddc 18be e17f 1cbf fa9a 33be
00000070: 1a73 43bf f2c5 75be 13ff ad3e 0fb4 913d
00000080: 11aa 483f 8864 533f 073d 48bf 743a 28bf
00000090: b395 ecbe 645d 7fbe 0606 fa3e c111 c4be
000000a0: cd45 8c3d ab78 23bf 6a9b 75bf c99b 283e
000000b0: 26be 3d3f 5597 debe 54de c73e 43a9 f03d

convs.0.order__updates__order.lin_rel.bias f4 [48]
-0.2575994 -0.78637373 0.44630823 0.0010652693 0.16727035 -0.2964524 0.2635668 0.07946759
-0.17240989 -0.11016521 -0.60179204 0.49130484 -0.001824594 -0.59735584 -0.7823243 -1.0562719
0.074901916 0.28685132 -0.8186932 0.08484907 -0.61490065 0.43333998 0.5058506 0.4463484
-0.66558003 -0.27435708 0.87517095 -0.02560975 -0.013190235 -0.42278206 0.6685894 0.20234312
-0.9387892 -0.41027322 0.31292585 1.0361755 -0.03941475 -0.37440208 -0.1856774 0.45229033
0.018131597 -0.46953148 0.010203579 -0.106285565 -0.69115853 -0.091272056 -0.0068353517 0.795791
00000000: 12e4 83be ca4f 49bf 8382 e43e 82a0 8b3a
00000010: eb48 2b3e 9cc8 97be 3af2 863e e7bf a23d
00000020: 388c 30be 4c9e e1bd 0b0f 1abf 4f8c fb3e
00000030: 3727 efba 50ec 18bf 6846 48bf eb33 87bf
00000040: 2d66 993d 2dde 923e e195 51bf 59c5 ad3d
00000050: 216a 1dbf bdde dd3e 6d7f 013f c787 e43e
00000060: 7463 2abf 8878 8cbe 340b 603f 8acb d1bc
00000070: db1b 58bc e476 d8be ad28 2b3f 0933 4f3e
00000080: 7d54 70bf 550f d2be d137 a03e 66a1 843f
00000090: 5c71 21bd a1b1 bfbe 3722 3ebe 9992 e73e
000000a0: b788 943c 6e66 f0be ea2c 273c 3fac d9bd
000000b0: c4ef 30bf d8ec babd 16fb dfbb f5b8 4b3f

convs.0.order__updates__order.lin_root.weight f4 [48, 1]
0.050943702 0.6070062 -0.3856887 -0.5555092 0.6535934 0.4623268 -0.39345992 0.5188524
-0.33834872 -0.03433192 -0.08347192 -1.0519805 -0.08728144 0.66336656 0.83782053 0.67899793
0.28033975 0.71636164 0.52828467 0.5686352 0.13597772 -0.02336343 -1.0522084 -0.08094611
0.3713675 0.09120026 -0.31140986 0.33367237 0.66153026 0.101088434 -1.0357156 -0.56937605
0.6315196 -0.5501486 0.44856024 -0.50382805 -0.61233157 0.5666026 -0.35522678 0.053256117
-0.41614297 0.9756837 0.84461594 -0.09261792 -0.5822142 0.2656404 0.008685981 0.7718847
00000000: 58aa 503d c264 1b3f fd78 c5be da35 0ebf
00000010: e651 273f 19b6 ec3e 9473 c9be 83d3 043f
00000020: 0b3c adbe a19f 0cbd 53f3 aabd 4ca7 86bf
00000030: 9dc0 b2bd 64d2 293f 687b 563f cfd2 2d3f
00000040: b188 8f3e 7a63 373f aa3d 073f 1492 113f
00000050: be3d 0b3e aa64 bfbc c4ae 86bf 13c7 a5bd
00000060: e223 be3e 34c7 ba3d 1d71 9fbe 1bd7 aa3e
00000070: 0c5a 293f 7407 cf3d 5492 84bf a1c2 11bf
00000080: 45ab 213f 8ad6 0cbf b0a9 e53e e0fa 00bf
00000090: c3c1 1cbf de0c 113f 49e0 b5be 1623 5a3d
000000a0: b110 d5be 68c6 793f c038 583f 77ae bdbd
000000b0: fd0b 15bf 0502 883e a54f 0e3c 3c9a 453f

convs.0.item__updates__item.lin_rel.weight f4 [48, 1]
-0.4732115 0.020358214 0.2671002 -0.60126317 0.69188493 -0.0059662955 0.44452518 -0.6598716
-0.83789647 0.24711095 -0.2904157 -1.1318504 -0.65268445 0.25214842 0.19329073 0.45893922
-0.22213116 -0.028413108 -0.4318211 -0.53582996 -0.91784674 -0.036136873 -0.6798202 -0.22877704
0.78041834 0.26194575 -0.1431765 -0.7831396 -1.1139404 0.5414066 -0.5702709 0.22699036
-0.20111632 -0.6337776 -1.0456526 -0.55705625 0.26994243 -0.9039889 0.74237305 -0.6386992
0.021899572 -0.16600202 0.042789724 -0.41710588 0.4363803 0.2811018 0.40969214 -0.60576963
00000000: c748 f2be 45c6 a63c 5bc1 883e 62ec 19bf
00000010: 5f1f 313f ea80 c3bb ce98 e33e 58ed 28bf
00000020: 6280 56bf a70a 7d3e 5eb1 94be 79e0 90bf
00000030: 5416 27bf 9919 813e 01ee 453e 15fa ea3e
00000040: 5a76 63be 9bc2 e8bc a817 ddbe 272c 09bf
00000050: 01f8 6abf 4204 14bd b208 2ebf 8744 6abe
00000060: 7fc9 473f c11d 863e dc9c 12be d67b 48bf
00000070: 9995 8ebf 9f99 0a3f 46fd 11bf 2970 683e
00000080: 70f1 4dbe 403f 22bf f2d7 85bf 3d9b 0ebf
00000090: e535 8a3e d16b 67bf 290c 3e3f ca81 23bf
000000a0: bb66 b33c 6ffc 29be 4744 2f3d e78e d5be
000000b0: 3d6d df3e 93ec 8f3e 2bc3 d13e b813 1bbf

convs.0.item__updates__item.lin_rel.bias f4 [48]
0.34469604 -0.5373241 -0.54495764 -0.50025237 0.017240105 0.3694148 -0.23082022 -0.012198986
-0.51370686 -0.89919806 -0.607427 0.44748202 0.030321123 -0.4429728 -0.07655205 0.49957967
-0.26283336 0.06710495 0.49229267 0.057866883 0.6139638 -0.23568237 -0.55382997 0.3164965
-0.68507296 0.43576214 0.028240036 -0.53959966 0.4970687 -0.88688844 -0.41851228 0.41811144
0.499222 -0.11414402 0.47623676 0.2794878 0.23693722 -0.1885753 -0.2871561 -0.02641931
-1.032521 -0.16610229 -0.1707837 0.22733428 0.051397998 0.24108414 -0.7007794 0.81056273
00000000: 007c b03e 128e 09bf 5882 0bbf 8a10 00bf
00000010: 1f3b 8d3c f023 bd3e 235c 6cbe 41de 47bc
00000020: 4b82 03bf d831 66bf 5680 1bbf 5d1c e53e
00000030: 0164 f83c 55cd e2be 52c7 9cbd e8c8 ff3e
00000040: 1892 86be 526e 893d c90d fc3e d305 6d3d
00000050: bb2c 1d3f b856 71be cdc7 0dbf d40b a23e
00000060: f160 2fbf 371c df3e a657 e73c 3423 0abf
00000070: ca7f fe3e 1f0b 63bf 3e47 d6be b412 d63e
00000080: 079a ff3e 57c4 e9bd 4ed5 f33e 0619 8f3e
00000090: ac9f 723e e219 41be 2006 93be 4f6d d8bc
000000a0: a629 84bf b816 2abe ece1 2ebe 51ca 683e
000000b0: b586 523d c3de 763e 4766 33bf 0a81 4f3f

convs.0.item__updates__item.lin_root.weight f4 [48, 1]
-0.117885225 0.4252509 -0.3414414 0.48452535 -0.7319745 -0.15051934 -0.40596217 -0.86797476
0.85901034 0.51411015 0.6133209 0.59278536 0.035960693 0.12120794 -0.16792917 -1.0069402
-0.5796987 -0.17677018 0.09695922 0.7855014 0.24349318 -0.67966187 0.3470016 0.36723113
-0.09630454 -0.52564776 -0.048321992 0.66482115 0.5206953 0.0037362778 0.3730089 -0.1780874
-0.3645301 0.67012507 0.048177574 -0.3441117 -0.64578724 0.35005575 -0.481397 -0.41151232
0.83005214 0.2753483 -0.55473804 -0.49102572 -0.028226815 0.27356493 0.17619179 -0.31301573
00000000: cf6d f1bd 7cba d93e 68d1 aebe b513 f83e
00000010: ae62 3bbf be21 1abe 46da cfbe 9833 5ebf
00000020: 1ae8 5b3f b99c 033f 9902 1d3f c8c0 173f
00000030: 854b 133d de3b f83d a0f5 2bbe 6be3 80bf
00000040: 2267 14bf 3e03 35be 8e92 c63d 9f16 493f
00000050: 4756 793e 52fe 2dbf 32aa b13e b805 bc3e
00000060: 513b c5bd da90 06bf 48ed 45bd b831 2a3f
00000070: 4a4c 053f 57dc 743b 06fb be3e 8b5c 36be
00000080: b0a3 babe 518d 2b3f d955 453d 692f b0be
00000090: 5052 25bf 823a b33e ab79 f6be beb1 d2be
000000a0: 4c7e 543f 74fa 8c3e 5003 0ebf b967 fbbe
000000b0: ec3b e7bc b410 8c3e 9f6b 343e 9943 a0be
