models/BPI17/hoeg/exp_v3/lr=0.001_hidden_dim=32/GraphModule_20230828_12h07m/state_dict_epoch11.pt (torch, 77579 bytes, 33 tensors)

convs.0.event__follows__event.lin_rel.weight f4 [32, 27]
000000 4e 1a 51 be a5 bf 58 3e 9c 91 72 3e 4f c7 86 3d
       -0.2042019 0.21166857 0.23688358 0.06580984
000010 b4 89 1e 3e c7 f1 11 be 1a d6 e3 3d 2c 72 99 be
       0.15482217 -0.14252387 0.11124821 -0.2996992
000020 61 68 08 be fa 77 f4 bd ec 68 91 be 3b eb e4 be
       -0.13321067 -0.11936946 -0.28400362 -0.44710717
000030 cd cc a6 be f5 d2 43 be 89 2e 30 bd 37 2e 91 bd
       -0.32578126 -0.19123442 -0.04301313 -0.07088893
000040 79 4e f0 bd e9 e8 9b 3d 31 8e 81 be 21 b1 69 bd
       -0.117337175 0.076127835 -0.25303796 -0.05705369
000050 c4 48 8d 3d c4 49 10 be 48 1c aa bb 8d 6d 26 be
       0.068986446 -0.1409064 -0.0051913597 -0.16252728
000060 98 0a e1 3b e1 fa 2b 3e 01 4b 2d 3c 42 8f 73 bd
       0.006867718 0.16794921 0.010576964 -0.059462793
000070 18 06 5b 3e 4e 77 9a bd 10 6c a3 3e 37 e0 8d 3e
       0.21389043 -0.07542287 0.31918383 0.27710125
000080 79 09 43 bd 2f 8b 4f 3e b4 73 35 be b4 65 4d be
       -0.047616456 0.20267938 -0.17719918 -0.20058328
000090 ee 88 f8 bd ae 8c b3 bd ca cf 9e be 0f 9b d4 bd
       -0.12135492 -0.08767067 -0.31017905 -0.103811376
0000a0 e5 74 14 3e 42 ab f8 bd f4 b1 bb 3d 2f 7f 23 3e
       0.14497717 -0.1214204 0.09164801 0.15966485
0000b0 cc 7f c0 bd 1f 6b b0 3a 73 75 0f 3e c1 f4 dc bd
       -0.09399375 0.0013459659 0.14009647 -0.107888706
0000c0 2c aa 4b 3c 98 c7 52 be dc 29 1c 3d e3 70 95 3d
       0.012430709 -0.20583951 0.038125858 0.07296922
0000d0 90 2c 41 b9 2a ef 6e 3e 2d 96 08 3e 15 d4 14 bd
       -0.00018422515 0.23333421 0.13338538 -0.03633507
0000e0 c6 f5 39 be b0 a1 7f 3d 35 5f 63 3e bb 47 6d 3d
       -0.18160161 0.062410057 0.22204287 0.057929736
0000f0 81 6f 2c 3d 2a 22 8e be 4a e7 df bd 38 c9 1e 3e
       0.042098526 -0.2776044 -0.10932787 0.15506446
000100 39 1d 78 be e8 6a 2a be aa 6c 01 be 6e 72 8d bd
       -0.24229898 -0.16642344 -0.12639108 -0.06906591
000110 ea 86 6b bd 6c d5 f6 bd dc 88 bc bd 70 db c3 3d
       -0.05750171 -0.12052426 -0.09205791 0.09563339
000120 e3 c3 21 be c5 7a 52 be dc 78 bc 3d f2 a3 4c be
       -0.15797381 -0.20554645 0.092027396 -0.19984415
000130 fc 53 2d 3d f8 5b 62 be ca 1b ac be 80 1d d3 3d
       0.042316422 -0.22105396 -0.3361495 0.10308361
000140 2b 2d 25 3e 60 c0 35 3e ea 7c 34 3e 34 8d 2c 3e
       0.16130511 0.17749166 0.17625776 0.1685074
000150 94 ca bb bd fa 11 bb 3e ea 30 67 be 4b 3f 74 3e
       -0.09169498 0.36537153 -0.22577253 0.2385227
000160 ff 2b c2 bd ae db 50 be 63 4c b8 3c ae 4f 99 be
       -0.09481048 -0.20396301 0.022497362 -0.29943603
000170 7d bb b3 bd c3 6f 4c be 85 88 08 bd 9e 98 ad bd
       -0.08775995 -0.19964509 -0.03333332 -0.08476375
000180 12 a6 40 be fb 3a 71 be 28 b3 b6 bd af b0 d5 bc
       -0.18813351 -0.23557656 -0.0892089 -0.026085226
000190 53 f8 c2 bc d6 73 39 3b 70 48 6f bd e6 81 1a 3c
       -0.02380005 0.0028297803 -0.05841869 0.009430384
0001a0 5e 1c a2 bd e2 91 7f be cf 0a 7d 3e 96 88 ca bd
       -0.07915567 -0.24957994 0.24711154 -0.09889333
0001b0 df d5 00 3e 58 5f 0d be 12 65 18 bd 36 55 0e 3d
       0.12581585 -0.13805902 -0.037205763 0.034749232
0001c0 76 bc 4b bd 64 c8 85 be a2 1e 54 be 05 20 83 be
       -0.049740277 -0.26129448 -0.2071481 -0.25610366
0001d0 76 21 51 be 4f 07 7d be 97 35 9e be fa 32 d2 bd
       -0.2042292 -0.2470982 -0.3090026 -0.10263629
0001e0 36 b2 92 be ee f2 32 be 6d 8c 9e be 8b 29 83 bd
       -0.2865159 -0.17475483 -0.3096651 -0.06404408
0001f0 25 56 72 be fe 47 27 be 53 c1 39 be e7 d5 b6 3d
       -0.23665674 -0.16336057 -0.18140154 0.089275174
000200 f8 c2 59 be 1a 1a 48 3e f8 71 70 bd 18 b3 39 be
       -0.21265781 0.19541207 -0.05870244 -0.18134725
000210 9e 35 0e be cb f6 93 be f2 f8 c2 bd 36 8e 9f be
       -0.13887641 -0.28899226 -0.09520139 -0.31163186
000220 84 74 0d be 99 6a 4a be de 6d 63 be 57 c3 97 bc
       -0.13813978 -0.19767226 -0.2220988 -0.018525762
000230 3b 0e 38 be 7e ad 11 be ef 14 fb 3d f7 7f b8 3d
       -0.17974178 -0.14226338 0.12259852 0.09008782
000240 9c 4e 1b be 7f ae 0a 3e 01 79 7e 3d 90 6c 59 3e
       -0.15166706 0.13543127 0.062127117 0.2123282
000250 e0 21 50 3e 12 b5 89 3d 6e 4c b7 3d 29 f5 0f 3e
       0.20325422 0.067239895 0.08950125 0.14058365
000260 5b 79 f9 bd 8b 06 00 3d 47 49 1e 3d 27 28 9d bd
       -0.1218135 0.03125624 0.0386441 -0.07673674
000270 d1 72 a8 bd 67 00 77 3c 20 bb 57 3d ce 09 ba 3d
       -0.082250245 0.0150757795 0.05266869 0.09083901
000280 77 fb 42 be 63 f8 ad bd e8 6b 37 bc 14 3f ee 3d
       -0.19041239 -0.08494642 -0.01119516 0.11633125
000290 96 a0 a2 3e e7 ba f1 bd e6 43 49 be 06 b8 83 3e
       0.31763142 -0.11803227 -0.19654807 0.25726336
0002a0 98 c1 8a bd 8e fd 7e be ea a4 d4 bd 63 49 dd bc
       -0.06775206 -0.24901411 -0.10383017 -0.027012533
0002b0 8a 98 8e be 28 78 d7 3e 3a 3b 80 be 08 72 d4 bd
       -0.27850753 0.4208386 -0.25045186 -0.10373312
0002c0 95 33 42 be 54 a7 15 3e 71 ff 16 be b7 59 51 be
       -0.1896499 0.14614612 -0.1474588 -0.2044438
0002d0 c7 fb 86 bd ac 97 09 3e 27 72 d2 3d ea d5 22 be
       -0.065909915 0.13436764 0.10275679 -0.15901914
0002e0 f5 2b 16 be d0 96 b8 be 97 b5 9b bd 05 b7 d0 be
       -0.14665206 -0.3605256 -0.07602995 -0.40764633
0002f0 17 46 2d 3e 97 f4 78 be b7 55 90 bd a4 20 96 be
       0.16921268 -0.24312054 -0.07047599 -0.29321778
000300 cf 33 ea bd 3c c8 a8 bd 01 1e ab bb 00 13 0f be
       -0.11435663 -0.08241317 -0.0052220826 -0.13972092
000310 89 e8 d5 bd b8 61 3d be fe e6 f4 3d 17 2f 08 be
       -0.10444743 -0.18494308 0.11958121 -0.13299213
000320 94 af c4 bd e4 5c 2f 3e 0f 0f 89 bd 19 80 2d bb
       -0.09603801 0.17125279 -0.06692325 -0.0026474057
000330 5f bb 9a 3d 93 ea f0 bd 1a 72 b5 3d cb 21 76 be
       0.075552694 -0.117634915 0.08859654 -0.24036328
000340 8d 5b 48 3d 85 38 5a bd e1 12 30 3d cc bb b1 3c
       0.048915435 -0.053276557 0.042986754 0.021695994
000350 d8 39 fc 3b 4d c9 ca bd 58 91 cb bd 8f e6 8d be
       0.007697325 -0.09901676 -0.099398315 -0.27714965
000360 10 fb 45 3b b5 fc 2f be e1 9e 73 be fe ca b0 be
       0.003020946 -0.17186244 -0.23791076 -0.3452987
000370 8e ad 17 be 25 cc 24 bd 77 38 b3 3d b8 51 db 3e
       -0.148123 -0.04023375 0.08751004 0.42835784
000380 8a 92 28 3e 5a 10 a2 3e cc 45 4f 3e 9c 5c b7 3e
       0.1646215 0.316531 0.20241469 0.35812843
000390 35 0c 7c bc 49 a0 be 3d f5 bf 40 3e 27 dd a1 3e
       -0.01538377 0.09307916 0.18823226 0.31614038
0003a0 78 34 c4 3d 4c 4c 2c 3e 32 53 75 3e 2b 0f 39 bc
       0.0958032 0.1682598 0.23957518 -0.01129512
0003b0 e9 c8 da 3d 09 20 36 3e 62 4a 49 3d 5f 54 b0 3e
       0.10682852 0.17785658 0.049143203 0.3443937
0003c0 30 7f 8f 3d a6 4c fd 3c f3 15 dc bd 8f 46 25 3f
       0.07006681 0.030920338 -0.10746374 0.6456079
0003d0 f0 8c 36 3e 12 a1 2b 3e dd 65 db 3e e5 22 81 3e
       0.17827201 0.16760662 0.42851153 0.25221935
0003e0 13 83 f2 bd 7d fe 1c 3e 9d a7 af 3e bd dc 62 3d
       -0.11841407 0.15331455 0.34307566 0.055386294
0003f0 1f a7 5d be cd 98 6d 3d 52 4b 0f bf 98 e8 ac be
       -0.21645783 0.05800705 -0.55974305 -0.33771205

convs.0.event__follows__event.lin_rel.bias f4 [32]
000000 7c 9b 0e 3e 24 79 0f be a3 23 12 be 6a a1 ac 3d
       0.139265 -0.14011055 -0.14271407 0.08429225
000010 af 8a 83 3d 79 74 29 be ad 69 58 3e 91 a2 13 be
       0.06422936 -0.16548337 0.21134062 -0.14417483
000020 b0 79 36 be 40 cb 13 bd 52 a1 d0 3d 0f dc 94 bd
       -0.17819858 -0.036082506 0.101870194 -0.07268535
000030 7d 21 0e be 37 7e 04 be 62 12 ad bd a8 59 93 bb
       -0.13879962 -0.12938772 -0.08450772 -0.004496772
000040 d7 fa 99 3d ce 2b 44 be ee 29 38 be 67 92 18 bd
       0.07518547 -0.19157335 -0.17984745 -0.037248995
000050 7f 89 ca 3c 8f 75 8a bd aa 91 12 3d e0 72 35 3d
       0.024723766 -0.06760704 0.035783447 0.044299006
000060 fa c2 32 bd b0 71 21 be a7 70 30 be 57 f1 49 3d
       -0.043642975 -0.15766025 -0.17230473 0.049302425
000070 04 f6 da bd cf 89 3a 3e 1b 17 3d 3d 79 10 96 3d
       -0.10691455 0.18216632 0.046164613 0.07327361

convs.0.event__follows__event.lin_root.weight f4 [32, 27]
000000 5f 43 34 bb c5 b7 a4 bd 50 6d e9 bd 8d 24 ac 3d
       -0.0027505977 -0.08042864 -0.11397803 0.08405409
000010 37 e1 66 bd d6 49 93 3d 06 36 45 3e 4c d3 f4 3d
       -0.056367125 0.071918175 0.1925889 0.11954364
000020 07 d6 80 bd 59 70 26 3d 79 ba 5b ba ff 96 7b bd
       -0.062908225 0.040634487 -0.00083819736 -0.061423298
000030 15 59 83 be 38 f1 6f be 34 71 65 bd c2 63 a4 be
       -0.25653902 -0.23431861 -0.056016162 -0.3210736
000040 69 da 4d be 9e 1b 3b bd 7a 0b 02 3e 63 09 0f 3d
       -0.20102848 -0.045680635 0.1269969 0.03492106
000050 ff b3 3a bd a3 63 6c 3d 6e d9 70 be fd 6c 84 3c
       -0.045581814 0.05771221 -0.23520443 0.01616525
000060 d7 02 c2 bd 84 f0 48 3e dc 60 2c 3e 59 d4 85 bd
       -0.09473198 0.19623 0.16833824 -0.06534643
000070 fc 49 71 3e dd af 32 3e 9b 7b c6 3d 29 b7 00 3e
       0.23563379 0.17449899 0.096915446 0.1256987
000080 68 9e ca bd f9 ba 29 3e b2 7d 18 be 40 fe 9e 3d
       -0.09893495 0.1657523 -0.14891699 0.07763338
000090 74 d8 a9 3d 5d a0 ac 3c 00 f7 31 be c2 0b 78 bd
       0.08293238 0.02107256 -0.1737938 -0.060558088
0000a0 d5 8c ca 3d 1b 8b 31 bb 4e 37 2a 3e f2 c3 c7 bd
       0.09890143 -0.002709097 0.1662266 -0.097541705
0000b0 09 ea a0 3d 02 24 23 3d 35 2b 53 3e 62 44 eb 3c
       0.07857139 0.03982926 0.20621951 0.02871913
0000c0 d9 8c 75 bd 3a d3 b7 bd 7b 8a d3 3d c3 95 84 bd
       -0.059948776 -0.08975835 0.103291474 -0.06473877
0000d0 ac 48 03 3e 9a c2 5a 3d 98 10 7c bc 82 d5 3f bc
       0.12820691 0.053408243 -0.015384816 -0.011708619
0000e0 c3 30 01 be b5 1d 84 3e dd 2b 36 3d 91 b9 a2 bc
       -0.12616257 0.25803915 0.044475425 -0.019863876
0000f0 fc 0c f8 3d 65 25 86 3d 83 1d 89 bd e2 95 ad 3e
       0.121118516 0.06550101 -0.06695082 0.33903414
000100 cf f0 4c be 0f 36 80 bd c7 99 61 be 2b c1 77 be
       -0.20013736 -0.06260311 -0.22031318 -0.24194781
000110 5c ac 03 3d d8 0d e0 bd c2 f1 a2 be d0 25 3b be
       0.032146797 -0.109401405 -0.31825072 -0.18276143
000120 e2 28 79 bb 95 f1 ff 3c cc 7a 35 bd 87 fd 96 be
       -0.0038018753 0.031243125 -0.04430656 -0.294903
000130 3f bd cc 3c 84 75 7c 3e 9f 52 98 be 30 a8 93 3e
       0.024992583 0.24654204 -0.29750535 0.28839254
000140 3e 64 0c bd 9c d2 e0 bb 73 b6 0a bd e0 20 7a 3c
       -0.034275286 -0.006861044 -0.033865403 0.015266627
000150 ed af cf bd 0f 7c ac 3e 20 e2 0e be 1d 4b ad 3d
       -0.10140977 0.336884 -0.13953447 0.08461592
000160 15 c3 51 bd 06 06 25 be 3d c9 7d 3e 86 c1 3a 3d
       -0.051211435 -0.16115579 0.24783798 0.045594715
000170 5a c9 17 be 39 32 95 be 8c c5 c4 be 14 cd 3d bd
       -0.14822903 -0.2913988 -0.38431966 -0.046338156
000180 a1 1e 81 be c3 61 16 be 83 09 8c bd 29 36 fd 3d
       -0.2521868 -0.1468573 -0.06837752 0.12363846
000190 9c ba 3a 3e 3f 0d 37 be d3 17 98 bd 8d bc 67 be
       0.18235248 -0.17876147 -0.07426419 -0.2263052
0001a0 3e 81 15 3e 09 aa 5f be 9c 2a 22 3e 61 6c 43 be
       0.14600083 -0.21842207 0.15836567 -0.19084312
0001b0 d5 b0 cb 3d af 82 27 3e 12 d8 c5 3d a2 59 db 3e
       0.099458374 0.16358446 0.09660353 0.42841822
0001c0 b1 2e 75 3e 91 8d 29 3e a6 e9 0e 3e 27 95 58 bc
       0.23943593 0.1655791 0.13956317 -0.013219154
0001d0 22 15 ce 3d 7b 98 cb bc 11 fa 28 bd 8e e2 81 bd
       0.100626245 -0.024852982 -0.041254107 -0.0634204
0001e0 0a d8 7c 3d 24 7c 13 be b8 30 02 3e 12 3b b7 3d
       0.06172947 -0.14402825 0.12713897 0.08946814
0001f0 7f 25 bb 3d 0e 7f 12 be e5 98 ac bd 00 2b c9 3d
       0.09138011 -0.1430628 -0.084276 0.09822655
000200 fe 91 cb bd ea 5b 15 be 25 cc 73 bd d5 91 81 3c
       -0.09939955 -0.14585844 -0.05952086 0.015816608
000210 18 00 06 be 04 5e 81 bd 3c e7 c1 bc 1f 2e cd be
       -0.13085973 -0.0631676 -0.023669831 -0.4007425
000220 70 ad d6 bb fc 2b c3 bd 30 d6 74 be 2f d9 1a be
       -0.006551437 -0.09529874 -0.23909831 -0.15121911
000230 3d c8 ca 3a 4c b6 25 be f3 d7 2f 3e 1a e7 56 be
       0.0015471053 -0.16182822 0.17172222 -0.20986596
000240 2f b3 7c be da ee 18 3d ca 9f 46 be 9a aa 9e 3d
       -0.24677728 0.03733716 -0.19396892 0.077473834
000250 5f 75 6d 3e 3c 7c a7 bd a9 36 7f 3d 40 5d 07 3d
       0.23189305 -0.08177993 0.062307987 0.033047915
000260 51 8d f7 bd 49 cb 79 3c 10 4c 27 3d f2 83 4d be
       -0.12087501 0.015246221 0.040844023 -0.20069864
000270 48 9b 25 3e 15 19 23 be 8b b5 59 be 44 5a 75 3e
       0.16172516 -0.15927537 -0.2126066 0.23960215
000280 bd 4a 81 be 92 c9 25 be 5b a0 e4 3e 6b 52 b9 3c
       -0.25252333 -0.16190174 0.44653592 0.022622308
000290 01 f4 be 3e b6 4c 30 3e 7d b7 3a bf 95 e1 d0 3e
       0.37295535 0.17216763 -0.7293623 0.40797105
0002a0 93 ae 94 3e 84 b5 01 bd 7d a9 0e 3e 76 e5 62 3e
       0.2903944 -0.031667247 0.13931842 0.22157845
0002b0 31 10 92 be d5 5e f3 3e c0 46 e0 3d 8f 36 93 3e
       -0.28527978 0.4753329 0.109509945 0.28752562
0002c0 9d 8c 27 be 68 b0 b4 3e 85 fd 08 3e b1 11 a8 3e
       -0.16362233 0.35290837 0.1337796 0.32825997
0002d0 26 e2 dc 3c 00 3c b3 3d ab fd dc 3c 0d 04 9d be
       0.026963305 0.087516785 0.026976427 -0.30667153
0002e0 09 b5 8f bd 2a ef c4 bd d0 e6 84 3e ca 95 86 be
       -0.070169516 -0.096159294 0.25957346 -0.26286155
0002f0 b3 56 0e 3f 68 85 2c be 3d fa 25 be ba 32 05 be
       0.5560104 -0.16847765 -0.1620874 -0.13007632
000300 f3 c1 9a be f2 7b 19 be 28 eb 28 be 7b 23 a6 be
       -0.30226097 -0.14988688 -0.16495955 -0.32448944
000310 72 fe fb bd 9a c2 08 be f3 f1 01 be 04 09 8d bd
       -0.12304391 -0.13355485 -0.12689953 -0.06886485
000320 96 c7 f3 3c e0 0c 04 3e d2 49 ae 3d 8f 40 e9 3c
       0.029758256 0.12895536 0.08510174 0.028473167
000330 41 b6 1a 3d 79 d0 9b bc 7b b1 9a be d0 88 bb 3c
       0.037771467 -0.019020306 -0.30213532 0.022892386
000340 3f 34 6a bd 8c 84 30 be b6 8f 26 bd 2d b3 49 bd
       -0.057178732 -0.17238063 -0.040664397 -0.04924314
000350 17 96 70 be 0b eb c0 3d 4e 84 a5 be 28 55 34 be
       -0.23494755 0.09419831 -0.32327503 -0.1761061
000360 4e d2 8b be c0 2f 2a be e6 db 3a 3d 32 37 c0 bd
       -0.27308887 -0.16619778 0.045619868 -0.09385528
000370 07 98 01 be 2b ae 05 bd 70 da 82 be 86 9d 93 3e
       -0.1265565 -0.032636803 -0.2555728 0.28831118
000380 f7 e6 20 bd c3 69 dc 3d 04 d2 ce 3d e7 91 e8 3d
       -0.039282765 0.1076236 0.10098651 0.11355954
000390 c7 d7 8c bd e2 77 ab 3d f2 34 31 3e 21 a5 ac 3d
       -0.06877094 0.08372475 0.17305353 0.08429933
0003a0 14 65 08 be 95 b2 af 3c 9f 93 4b bd 6e a5 29 bd
       -0.13319808 0.02144746 -0.04970133 -0.04141753
0003b0 f4 68 bc bc 8e d3 d7 3e f2 fc 7c 3e 82 6f 46 3e
       -0.022999264 0.4215359 0.24705866 0.19378474
0003c0 6e 7c 13 bd 26 a1 ec bd 4b 27 cc be 7d f2 52 3e
       -0.036007337 -0.11554174 -0.39873728 0.20600314
0003d0 61 39 bc 3d a7 db f8 3c 77 3a 23 3f db d8 3b 3f
       0.09190632 0.030378176 0.63761085 0.7337777
0003e0 6b 4f b9 bd 7d c9 84 3e 2e be c7 be 6c 5b 25 3e
       -0.09048351 0.25934973 -0.39012283 0.16148156
0003f0 ea 4d 34 3e 37 a9 3a be 1f 0b 1f 3e fb f3 15 be
       0.17607847 -0.18228613 0.15531586 -0.14643852

convs.0.application__interacts__event.lin_rel.weight f4 [32, 3]
000000 ec 4b a6 be 97 1d cb be 60 24 ae 3e 4c 55 06 3f
       -0.324798 -0.39671013 0.34012127 0.524739
000010 cc e3 a7 3e df 47 0a bf d9 7f 99 be 66 03 fb be
       0.32790983 -0.54015917 -0.29980353 -0.4902603
000020 2e 58 cf 3e c9 76 83 3e 51 82 d6 3e a4 f5 49 3d
       0.40496963 0.25676563 0.418963 0.049306527
000030 32 ce 91 bd 37 8e 0b 3f 1a 4b e9 be 0f 26 de 3d
       -0.07119407 0.5451388 -0.4556511 0.10847103
000040 15 7e e0 bd ef dc cc 3e cb 5d 7f 3e 7f 5a 2d 3e
       -0.10961548 0.4001231 0.24938123 0.16929053
000050 05 b4 df be 76 7b e8 be f3 a0 7b 3e 6c 62 c2 3e
       -0.43692032 -0.45406693 0.24573116 0.37965715
000060 c3 4b 04 3f 47 94 8c b9 17 e3 47 bd 1b 2e 41 3e
       0.51678103 -0.00026813356 -0.048800554 0.18865244
000070 85 08 ed 3d 2d ee bf be ca 04 60 3d 99 62 04 3f
       0.115738906 -0.374864 0.054692067 0.5171295
000080 c1 9d 79 be 68 be 44 3f a7 be 04 3f 1f 6f 81 be
       -0.24376585 0.76853037 0.5185341 -0.2528009
000090 bb 25 0f 3e 9b 3c 0e 3f 51 63 4d 3e 1a 91 f3 3e
       0.13979237 0.55561227 0.20057417 0.4757164
0000a0 3a 09 4a 3d 3c 17 95 bd 43 5b 17 bf 4d 5d 00 3f
       0.049325205 -0.07279822 -0.5912363 0.50142366
0000b0 a3 7c df be 5a 26 1b bf e3 cb 2e be 19 25 ac 3e
       -0.43649778 -0.60605395 -0.17069964 0.33622053
0000c0 15 63 b9 bd 4f 3d d7 3d 4d fd e6 bd a7 c8 bf 3e
       -0.090521015 0.105097406 -0.11278782 0.37457773
0000d0 5a 4a 0e be ce 38 42 3c 23 fe 06 3f e0 17 16 3d
       -0.1389555 0.011854364 0.5273153 0.036643863
0000e0 89 ac c7 be b2 86 52 3e db 8a 60 3e d4 5b bd 3e
       -0.3899882 0.20559195 0.21927969 0.36984122
0000f0 cd 05 1a bf 30 03 cc be 80 05 95 3e 85 b3 7c be
       -0.601651 -0.39846182 0.2910576 -0.24677856
000100 86 17 95 be eb 12 b9 3e 82 fd 7a 3e 3a 53 82 be
       -0.2911951 0.36147246 0.24510768 -0.25454122
000110 0d 86 07 be 41 15 1b 3d 6f 5c 65 3e 8f 1f fe be
       -0.1323473 0.037862066 0.22398542 -0.49633452
000120 93 d1 ac be fb 30 8f be 4e 60 95 be 38 25 90 3e
       -0.33753642 -0.27967057 -0.29175037 0.28153396
000130 1f 75 4b 3e cd ed 91 3e e8 26 00 3e 2b c4 ac be
       0.19868897 0.2850174 0.12514842 -0.33743414
000140 81 73 1d be 20 66 a4 be 64 e8 ae 3e 17 95 72 bd
       -0.15376092 -0.32109165 0.34161675 -0.059224214
000150 db 59 88 3e 24 e9 62 be a2 5d f6 3e 5b d1 d3 be
       0.26631054 -0.22159249 0.4811831 -0.41370663
000160 ad 83 9c be 20 03 8d bd 8b d6 7c 3c e8 1f 90 3e
       -0.3056921 -0.06885362 0.01543201 0.28149343
000170 69 0f 93 3e 92 e8 c6 be 8f 71 63 3e 77 2e eb be
       0.28722695 -0.38849312 0.22211288 -0.45933887

convs.0.application__interacts__event.lin_rel.bias f4 [32]
000000 29 c4 13 be 2b c8 a3 be ad 17 6a 3e 77 44 df 3e
       -0.14430298 -0.31988654 0.22860594 0.43606922
000010 e4 2f 04 be bd 02 8d 3e 38 3c e7 bd ab de dd 3e
       -0.12908894 0.27541152 -0.11290783 0.43333945
000020 2d 12 d5 3e 20 2f f4 3c dc 2f a6 be 8f 4e e5 be
       0.4161543 0.029807627 -0.3245839 -0.44786498
000030 a9 d8 8d be 22 29 86 3e be 5d eb bd 11 99 fc be
       -0.2770436 0.26203257 -0.11492489 -0.4933553
000040 ba 1e 23 bd 25 ad 75 3e 9f 4c 6c be 6a 40 61 3e
       -0.039824225 0.2399183 -0.23076104 0.21997228
000050 94 13 80 3e 6b 26 b8 be 65 dd db 3e 9a c0 dd 3e
       0.25014937 -0.3596681 0.42942348 0.43311006
000060 d8 f6 96 3e b4 1b c1 bd 1c c9 f6 be 28 ee 8c bd
       0.29485202 -0.09429112 -0.4820031 -0.06881362
000070 ef 4b cf bc cd ae 9a 3e 61 19 6e be 67 87 e2 be
       -0.025304763 0.30211487 -0.23251869 -0.4424393

convs.0.application__interacts__event.lin_root.weight f4 [32, 27]
000000 09 1c a3 3d 6b 07 c9 3c a5 7e 25 3d 35 c6 84 bd
       0.07964332 0.02453967 0.04040398 -0.064831175
000010 05 0a ba bd 4c 42 3a be 64 9a bf bd 0b b0 a3 bd
       -0.09083942 -0.18189353 -0.093556195 -0.07992562
000020 ff f5 12 3e f9 fb b3 3c 2b ee 57 bd 85 8e a0 be
       0.14351653 0.021970736 -0.05271737 -0.31358734
000030 d2 d1 90 be e4 6a aa be 07 b3 0c bd 4e a6 87 be
       -0.2828508 -0.33284676 -0.03435042 -0.26494068
000040 73 ed f3 bd df cc db bc f9 35 78 3d 53 34 dd 3d
       -0.11910524 -0.026831089 0.060598347 0.10800996
000050 15 b3 1d be 60 71 6c be ce 77 49 be cc f0 a8 bd
       -0.15400346 -0.23090124 -0.19674608 -0.08249053
000060 d7 3c ec bc ca dc 40 3e d3 6b 66 3e 42 4f f1 3d
       -0.028837604 0.18834224 0.22502069 0.11782695
000070 7f 26 18 3e 5c 48 05 bc a5 7d 8f 3e 80 86 f6 3d
       0.14858435 -0.008134928 0.28025547 0.120373726
000080 29 65 b5 bd 05 0a 59 bd 76 d5 02 3e fe 43 bf 3d
       -0.088571854 -0.05298807 0.12776741 0.0933914
000090 23 ab 8e bd cc 17 18 bd df 6a d6 bd 3b 37 25 bd
       -0.069662355 -0.03713207 -0.10469603 -0.040335875
0000a0 e4 38 ed bd 56 c6 ab 3d 47 1c 15 bd a6 22 ef 3d
       -0.11583117 0.08387439 -0.03640392 0.116765305
0000b0 89 c8 87 bd 19 62 f3 3c 09 bf 36 bd 04 0b 12 bc
       -0.06630046 0.029709863 -0.04461578 -0.008913759
0000c0 67 31 7f 3c 81 bb 37 be 48 c8 9b 3c c2 3f b2 bd
       0.015575743 -0.17942621 0.0190164 -0.08703567
0000d0 c2 83 d9 3d 6f 9d 37 be 26 61 5c 3e 89 7e 77 3e
       0.10620834 -0.1793115 0.21521434 0.24169363
0000e0 33 dd 1c 3e 6f c5 ad 3d ff 31 4b 3e 12 49 75 3d
       0.15318756 0.08484923 0.19843291 0.05988414
0000f0 36 6f 48 3e 75 bc 3c 3e 6b 66 0b be ab 95 60 3e
       0.19573674 0.18431266 -0.13613288 0.21932094
000100 46 f8 85 be e7 b6 73 bd b2 aa 4a bd cb 84 a6 be
       -0.2616598 -0.0595006 -0.049479194 -0.32523188
000110 82 2c d2 bd 0b 6e 44 be 7b 22 2f 3d 53 55 b6 bb
       -0.102623954 -0.19182603 0.042757493 -0.0055643707
000120 2a aa 8c 3d 34 3f d5 3d 74 61 80 bd 6c 71 61 bd
       0.06868394 0.10412446 -0.06268588 -0.05503981
000130 76 c4 0d be 9e 12 83 3c 0a fd 10 be 03 41 c5 3e
       -0.13844475 0.016000088 -0.14159027 0.38526163
000140 16 69 35 3e 59 d9 e8 3d 3c a3 b7 bc 70 15 d8 3d
       0.17715868 0.11369581 -0.022416703 0.10550964
000150 2c 12 32 3e 12 39 b5 3e 50 e0 51 be 0b 3f 54 3d
       0.17389745 0.35395104 -0.20495725 0.051817935
000160 07 95 3a 3d f7 55 37 3e 29 e3 97 3d 86 5e 17 be
       0.04555228 0.17903887 0.07416374 -0.14782152
000170 44 e4 31 3d 7a 23 8c bd 7b f9 07 be 5f d7 a1 bd
       0.04343058 -0.06842704 -0.13278763 -0.07902407
000180 c9 1f 49 bd 31 19 70 be 13 67 94 bb 8d 3b a0 bd
       -0.04910258 -0.2344711 -0.004528889 -0.078238584
000190 fa 67 48 be 6e 8f 48 be f2 fa b4 3d 1a 55 80 be
       -0.19570914 -0.19585964 0.088369265 -0.25064927
0001a0 dc 6f a5 bd 4d d5 fd bd 28 15 79 3d 12 6c 43 be
       -0.08077976 -0.123941995 0.06081119 -0.19084194
0001b0 4a 37 7e 3d 25 79 00 3e f1 b5 05 3e d9 24 e8 3d
       0.062064447 0.12546213 0.13057686 0.11335153
0001c0 6c 04 ef 3d 47 c2 73 3d fd e0 18 3e 51 2b 83 be
       0.11670765 0.05951145 0.14929576 -0.25618985
0001d0 4d b6 66 3d ce 90 42 be 7a 03 59 3c 18 c7 8c be
       0.0563262 -0.19000551 0.013245458 -0.27495646
0001e0 b1 30 6f bd e6 21 15 3d e3 a9 0d be 5b 6c 52 bd
       -0.058396045 0.03640928 -0.13834338 -0.051372867
0001f0 00 3b 5a 3c 65 95 b5 bd ff d2 3a bd 54 99 d8 bd
       0.013319731 -0.08866385 -0.045611378 -0.1057612
000200 d7 88 c2 bd a4 6b 34 be 78 70 e9 3d d9 78 61 be
       -0.094987564 -0.17619187 0.11398405 -0.22018756
000210 03 99 08 3e a8 35 be bd 6d 81 c5 bc 00 95 67 be
       0.1333962 -0.09287578 -0.024109567 -0.22615433
000220 a0 9b 36 be dc db 75 be 86 ee 3b be df 4a ab be
       -0.17832804 -0.24009651 -0.18352708 -0.3345556
000230 88 36 c1 3d 60 58 86 be f8 2f 6d 3e dd 8b 63 be
       0.09434229 -0.262393 0.2316283 -0.22221322
000240 12 eb 50 be 1d 44 41 be 98 85 50 bc b1 fa 08 3d
       -0.20402172 -0.1887364 -0.012727164 0.033442203
000250 16 43 83 3e f0 26 65 be 67 b9 dc 3d d0 0e 3c 3d
       0.2563712 -0.22378135 0.1077755 0.045912564
000260 21 91 05 bd e4 40 3f 3d 79 c3 a9 bd 6d ec 65 3d
       -0.03260911 0.046692744 -0.082892366 0.056133676
000270 a0 5c b8 3d b2 8c 86 3d d4 ae ab be 7f e8 20 3c
       0.09002042 0.06569804 -0.3353182 0.009821056
000280 3c f5 3b be 33 ec 80 3b 87 33 96 3e c1 3d 07 3e
       -0.18355268 0.003934407 0.29336187 0.13207151
000290 1a b3 8e 3e 64 3c eb 3d 5e c6 1e bf 8a 00 21 3f
       0.2787102 0.11486128 -0.62021434 0.6289145
0002a0 fa f9 06 3e 1f d9 17 3e 45 e5 cc 3e dd 6e 63 3e
       0.13181296 0.14828919 0.4001867 0.2221026
0002b0 3e 3c 81 bd 4a bc 42 3e b5 89 6e 3d cf d4 1b 3e
       -0.063103184 0.19017139 0.058236796 0.15217899
0002c0 4a f7 44 3d 16 db b4 3e 26 fe 8c 3e d4 d7 83 3e
       0.048087396 0.353234 0.2753765 0.257506
0002d0 13 3a c7 3d 27 78 df 3d 34 bd 87 3e f4 41 88 be
       0.09727874 0.10911589 0.26511538 -0.26612818
0002e0 8d 4b 24 3e 46 33 a0 be 43 36 5b 3e d2 02 7f bd
       0.16044445 -0.3128912 0.21407418 -0.06225855
0002f0 b0 16 20 3f d8 63 94 be 2b 35 64 be 5c 73 94 be
       0.6253462 -0.28982425 -0.22285907 -0.28994262
000300 46 f6 e4 bd 46 91 6d be 1d 96 bf 3d 9d 37 d0 be
       -0.111797854 -0.23199949 0.09354804 -0.4066743
000310 39 03 5d 3d c2 7c 65 bd ee 9b 37 be f8 57 df bd
       0.05395815 -0.05602718 -0.17930576 -0.109054506
000320 a5 83 f1 bd 5e 22 22 3e d2 0c c7 bb 87 3d 8b be
       -0.11792687 0.15833423 -0.0060745263 -0.2719538
000330 3c 26 71 bd d4 17 17 3e c9 fb ee bd 08 01 51 be
       -0.058874354 0.14755183 -0.11669118 -0.2041055
000340 5f 08 11 bd bf 83 30 be cc 2e 26 be e8 eb 9d 3d
       -0.035408374 -0.17237757 -0.16228789 0.07711011
000350 5e 56 f4 bd aa a9 86 3e 7f 22 b3 be c1 20 82 3d
       -0.11930536 0.26301318 -0.34987256 0.063539036
000360 8b a5 4d be 20 37 bf be 32 e6 62 be f3 76 b1 bd
       -0.20082681 -0.37346745 -0.22158125 -0.08665266
000370 c6 3d 93 bd 5c 73 4b bd 6d f5 86 be 36 6a 04 3e
       -0.07189517 -0.049670562 -0.2635912 0.12931141
000380 59 0d fd 3d 66 15 07 3e a7 db 30 3e b2 4e 52 3e
       0.123560615 0.13191757 0.1727129 0.20537832
000390 44 1f 08 bd b9 be 70 bd 98 ca c3 3d 7b 0b 6e 3c
       -0.033232942 -0.058775637 0.09560126 0.014529104
0003a0 60 dd ed 3d 38 3b 64 3d 71 b1 10 be 19 21 4e be
       0.116144896 0.055720538 -0.14130189 -0.20129813
0003b0 73 9a 43 be 62 b6 96 3e e7 6c ba 3d 01 d8 73 3e
       -0.19101886 0.29436022 0.09102803 0.23812868
0003c0 50 03 72 bd 81 b1 ae bd bd 8c 66 bd 32 7b a4 3e
       -0.05908519 -0.0852995 -0.056286562 0.3212524
0003d0 87 23 ce 3d 56 33 4b 3e 96 08 c5 3e 90 e8 3c 3f
       0.1006537 0.19843802 0.38483113 0.7379236
0003e0 69 fa 37 3e b0 76 e8 3d 7b 58 0d bf 9a fc 32 bc
       0.17966618 0.11350763 -0.55213135 -0.010924483
0003f0 7c 11 d7 3e 87 e7 0d be b3 1b aa 3e f8 24 c7 bd
       0.42005527 -0.13857852 0.33224258 -0.09723848

convs.0.offer__interacts__event.lin_rel.weight f4 [32, 7]
000000 8a 20 1e 3f d6 bb 2c bd c1 63 d4 3e 1d 9a d8 3c
       0.617684 -0.04217132 0.41482356 0.026440674
000010 9a 4f 11 c0 16 86 f1 bc 90 6c 9a be a5 f2 42 bd
       -2.2704835 -0.029482882 -0.30160952 -0.047594685
000020 ad 9a 11 be eb b9 83 be c8 62 06 3e 02 a8 56 bf
       -0.1421916 -0.25727782 0.1312362 -0.8385011
000030 83 47 18 bd b2 f5 42 3e e9 10 06 3f 89 34 0d 3a
       -0.037177574 0.19039038 0.5236955 0.00053865515
000040 37 e1 a1 bd 7c e6 f9 3c a7 dc b3 be 29 74 75 3e
       -0.079042844 0.030505411 -0.35129282 0.23970093
000050 2c 97 81 3e 6b 67 1d 3f 02 53 68 be 21 7f 66 3e
       0.25310647 0.6148593 -0.22687915 0.22509433
000060 45 92 1c be ba f6 5c bf 98 5e fe 3b 38 94 4b be
       -0.15290172 -0.86313975 0.0077627413 -0.1988076
000070 78 ef b7 3e 06 e5 9b be c9 36 d3 3e c1 ac 95 bd
       0.35924888 -0.3044817 0.41252735 -0.07308341
000080 e6 70 88 bf 70 60 9f be 94 f8 05 be 04 bf 10 be
       -1.0659454 -0.31128263 -0.13083106 -0.14135367
000090 64 c3 9f 3e 4c 9b ff bd af f3 54 3e 31 d7 f0 3c
       0.3120376 -0.124807924 0.20796083 0.029399486
0000a0 e3 d6 77 be 47 4c 88 b9 45 b1 a5 3e 96 d1 7e be
       -0.24203067 -0.00025996772 0.32361808 -0.24884638
0000b0 02 e2 32 3c c3 b7 7d be f2 80 9a be 74 dc 61 be
       0.010918142 -0.24777131 -0.30176502 -0.22056752
0000c0 8d 9b 98 3e 1f 4b 68 3d 38 ae 4b 3e 7b 00 69 be
       0.29806176 0.056712266 0.19890678 -0.2275409
0000d0 1c 2b 8e be 7e d0 0b 3f bc 7b 26 3e be 53 52 be
       -0.27767265 0.5461501 0.16258138 -0.20539758
0000e0 3d 49 5e 3c 02 53 44 3e be 27 03 be 8f 51 4b be
       0.013567266 0.1917229 -0.12808129 -0.19855331
0000f0 95 8a 95 3e 1d 11 90 be 26 00 2a 3c 68 73 48 be
       0.29207292 -0.28138056 0.010376012 -0.19575274
000100 42 77 76 3e 74 eb 27 bd 22 16 0e bd 52 40 aa 3f
       0.24068931 -0.04099603 -0.034689076 1.3300879
000110 4e 6b 53 bd 28 de f1 3c 64 d0 e5 be 0b df f7 bd
       -0.051616006 0.029524878 -0.44885552 -0.12103089
000120 c7 7c 1b 3e 0c f4 6c 3e ce d3 de 3f d5 35 cf 3e
       0.15184318 0.23139971 1.7408388 0.40470758
000130 ef cb 87 be e0 c1 25 3f 74 5b 89 be a8 ae c0 be
       -0.26522776 0.64748955 -0.26827586 -0.37633252
000140 38 8a d2 3e fd 7b 23 bf 31 38 ec be 98 48 6f 3c
       0.41121078 -0.63861066 -0.4613662 0.01460471
000150 23 fd 60 3e 72 3d c7 be f8 01 87 3e a3 eb 57 3e
       0.21971564 -0.38914067 0.2636869 0.21085982
000160 5f 2b 95 bf bd 36 51 3e 64 fe f3 3d e0 03 78 bd
       -1.1653861 0.20431037 0.119137555 -0.06055057
000170 53 37 3c 3e ae 8b b9 3e 28 a8 bd be ee 13 03 c0
       0.1838048 0.3623938 -0.37042356 -2.0480914
000180 23 7f ac 3e 31 e6 88 3e f5 6f 2d bf 83 cd 15 3b
       0.33690748 0.26738122 -0.6774896 0.002285809
000190 bb 49 46 be bd 21 92 bd 52 a5 4d 3f 12 b2 e3 bd
       -0.19364063 -0.07135341 0.80330384 -0.111179486
0001a0 a6 cf 1d 3d ae 09 d7 be 37 07 f2 be d9 1d 6f 3c
       0.038528107 -0.41999573 -0.4727113 0.014594519
0001b0 ca 90 e1 be 33 4a 07 3f e4 c9 c9 3d b2 ef 44 3e
       -0.44055778 0.52847594 0.09852961 0.19232062
0001c0 c4 b3 36 bf d2 8c f7 be 5e 89 b0 be cf 73 04 bf
       -0.7136805 -0.48349625 -0.34479803 -0.5173921
0001d0 d3 cf 10 be 53 df e0 be 66 9d 84 be 90 c2 d9 3e
       -0.14141779 -0.43920383 -0.25901335 0.42531252
0001e0 b5 ae 47 3e 05 7d 43 3e 54 20 3d bc 54 3a 75 bf
       0.19500239 0.1909066 -0.011543352 -0.95792127
0001f0 05 93 ad be 4b 81 3c 3e 38 5e 5e be d6 86 a3 3c
       -0.3390123 0.18408696 -0.21715629 0.019961756
000200 4d fa 60 bd 2a 42 43 bd b2 e3 7a bf 17 65 9d 3e
       -0.054926205 -0.04767052 -0.98003685 0.30741188
000210 e4 c0 11 be b1 c7 5e be 9d cc 40 3e d9 35 4e be
       -0.14233738 -0.21755864 0.18828054 -0.20137729
000220 ba a7 dc 3d 33 34 fa 3f 2d 90 bf bd 44 a3 95 be
       0.10774179 1.954718 -0.09353671 -0.29226124
000230 c3 82 c6 3e 52 39 e8 3d 5a eb 29 bc 6d 26 8a 3e
       0.38771638 0.11339058 -0.010371054 0.26982442
000240 ec 2a cd bf 20 0c 38 be d9 67 95 3c 7b 2f d6 3e
       -1.6028724 -0.17973375 0.018237995 0.418331
000250 c5 b3 88 be 4b c9 d3 3d d2 df d5 3d b3 c3 3a bf
       -0.26699653 0.10341128 0.10443081 -0.72954863
000260 09 52 0b bf 28 de aa 3e b2 f9 30 3d c1 3e 80 be
       -0.5442205 0.33372617 0.043206878 -0.25047877
000270 c1 62 2d 3e 56 cc 4b be fb 94 af 3e 04 b9 21 3e
       0.16932203 -0.19902167 0.3429335 0.15793234
000280 56 df 26 bd 65 0c 30 3e 83 7d 41 be a4 2b 45 3c
       -0.040740333 0.17192228 -0.18895535 0.0120343305
000290 77 d2 cb be 8f ba 2b bf 2c 64 6a 3e 65 3b c6 3d
       -0.3980901 -0.6708154 0.22889775 0.09679297
0002a0 ed be bd 3e 29 e2 7d be ea dc 10 be d8 fb 97 3d
       0.37059727 -0.24793305 -0.14146772 0.07421082
0002b0 a0 74 66 bf 09 ce 90 3d 02 f9 82 3e 9a 60 74 bc
       -0.90021706 0.07070548 0.25580603 -0.01491561
0002c0 a0 1e f3 3e ad ee 31 3e 9c a6 b6 3e bd 05 8e bc
       0.47484303 0.17376204 0.35673988 -0.01733672
0002d0 88 43 a8 3e b6 77 b8 3e 37 d1 47 3e 03 9f 21 3d
       0.32864022 0.36028832 0.19513403 0.039458286
0002e0 c4 53 a5 bd 8c fe cb 3d ff 15 56 bf a2 fa 52 be
       -0.08072618 0.0996066 -0.83627313 -0.20603421
0002f0 3e 81 b4 3e 8d 24 79 3e 2d 42 b4 3e 6f 7e 86 3e
       0.35254854 0.2433035 0.35206738 0.26268336
000300 f4 22 a5 3e 01 57 c8 bf b5 b8 1b bf d9 a5 16 3e
       0.3225323 -1.5651551 -0.60828716 0.14711703
000310 ab dc c8 3d f8 65 5b bd 85 3e bf bd 95 f0 fc bd
       0.09807714 -0.05356404 -0.093380965 -0.12350575
000320 47 4d ca bf 90 0c 4d be 78 9c 0c be c5 d2 87 bd
       -1.5804833 -0.20024323 -0.13731563 -0.06631998
000330 97 9c 26 3e 48 a2 e2 3d f3 57 e2 bd 8f c3 00 c0
       0.16270672 0.11066109 -0.11051931 -2.011936
000340 79 97 e6 bb e6 7b 74 be 08 db 26 3f 7b 0e c7 3e
       -0.0070371 -0.23875389 0.65177965 0.38878235
000350 d7 51 5c bc c5 42 56 3e 31 2f ab c0 bc b5 1b 3e
       -0.0134472465 0.20923908 -5.3495107 0.15206045
000360 74 72 47 3f c5 de 05 3d e5 8e 8f 3e 71 7a 4f 3e
       0.77909017 0.032683153 0.28038707 0.20261551
000370 cd 9c 97 3e ce 33 a6 3f f7 e4 8e 3e a5 f9 2b bc
       0.29611817 1.298456 0.2790906 -0.010496532

convs.0.offer__interacts__event.lin_rel.bias f4 [32]
000000 82 57 35 3e 64 07 b9 bd 8c 91 70 be 13 78 a8 be
       0.17709163 -0.09034613 -0.23493022 -0.3290411
000010 6c 86 1a 3e 49 11 8c 3d ad f8 88 3d cd cf db 3d
       0.1509034 0.068392344 0.06688056 0.10732994
000020 cd da 8d be c6 1a cd bd ac 8b 32 3e 4d de 38 be
       -0.27705994 -0.10014872 0.17436093 -0.18053551
000030 07 c4 8a 3e 53 ed d9 3d 58 2d c4 3e ad c7 92 3e
       0.27102682 0.10640969 0.38315845 0.28667966
000040 0f da b7 bb bf b0 85 3e 27 39 3c ba cd b8 98 be
       -0.0056107114 0.2611141 -0.0007180147 -0.29828492
000050 00 4d ee bb f6 4a 11 be df 3a 92 bc 24 07 9c be
       -0.0072723627 -0.14188752 -0.017850338 -0.30474198
000060 78 eb 26 be eb 83 6e be cc a6 aa bd 25 a1 03 be
       -0.16300762 -0.2329251 -0.08332595 -0.1285444
000070 45 58 63 bd e2 2c d0 bd 40 ac 19 be 55 8e ba 3e
       -0.055504102 -0.10164811 -0.15007114 0.36436716

convs.0.offer__interacts__event.lin_root.weight f4 [32, 27]
000000 b3 44 83 3e a6 d7 3b 3c e3 a4 7a 3e 3d 09 22 3e
       0.2563835 0.011464989 0.24476962 0.15823837
000010 e3 dc 2b 3e 49 4c 6e 3a db c6 53 3d 6f 54 13 be
       0.1678348 0.0009090347 0.051703315 -0.14387678
000020 28 21 66 3d 2a 83 23 bd 09 c6 6a bd cb f3 ce be
       0.056183964 -0.03992001 -0.057317767 -0.40420374
000030 77 c8 31 be 7a c3 92 bd d7 32 12 be 3f 47 4c be
       -0.17361628 -0.071661904 -0.14277206 -0.19949053
000040 1e 7e 9a be e7 6c 72 3c 89 07 29 be 3c e1 54 be
       -0.30174345 0.014796472 -0.1650678 -0.20789045
000050 7f 7a 0e 3e 06 c2 41 bd 2e 87 38 be 7b c5 1c be
       0.13913916 -0.047304176 -0.18020317 -0.15309708
000060 11 d1 17 be c8 d7 61 3d 9f ed 9e bd 99 eb b8 bc
       -0.14825846 0.055137426 -0.077601664 -0.02257328
000070 68 87 96 3d 97 9b 27 bc 03 ca c3 3e b0 ea 8a 3e
       0.073500454 -0.010229967 0.3824006 0.27132177
000080 fe 50 31 3c d8 06 13 3e 66 bd 32 3e db e2 18 bd
       0.010822533 0.1435808 0.17455062 -0.03732572
000090 81 f9 1b 3e db 27 90 bc 38 a5 bc bd f1 92 b7 be
       0.15231897 -0.01759713 -0.092112005 -0.35854295
0000a0 4b 5d a1 3c a2 9d d3 bb 46 09 5f 3e f6 ff be bd
       0.019697806 -0.0064580003 0.21780881 -0.093261644
0000b0 fc 04 44 bd c3 6b 0a 3e 52 25 70 3e 13 ff 2b 3e
       -0.047856316 0.1351767 0.23451737 0.16796522
0000c0 2b c4 e8 3d 60 7d 0d 3e da e3 1a 3e 8e c6 83 bd
       0.11365541 0.13817358 0.15125981 -0.06434356
0000d0 11 48 1a 3e a7 85 1e be 51 27 cb 3d b7 76 ee 3c
       0.15066554 -0.15480672 0.099196084 0.029109342
0000e0 9a eb bc bd d9 cb 73 3e ee d1 1d 3e 0a 5c 3e bd
       -0.09224625 0.2380823 0.15412113 -0.046474494
0000f0 90 ae dc 3d 35 ff 1a 3e 24 7c 2e 3e 8a 27 78 3d
       0.10775483 0.15136416 0.17039543 0.060584582
000100 0c 37 6e be 07 e7 a7 be 3b 4d f1 bd cb 36 ac bd
       -0.23263186 -0.32793447 -0.11782309 -0.084088884
000110 9c 0f 31 be bd b9 86 be 8f 7e 42 be 7c 14 53 bd
       -0.17291111 -0.26313582 -0.18993591 -0.051533207
000120 7e a5 45 be 87 86 9f 3d 12 bd 1d 3d a0 4a ab be
       -0.19301412 0.07789331 0.03851039 -0.33455372
000130 2c 06 16 be 01 44 85 3e 30 df a8 be bd f5 9c 3e
       -0.14650792 0.26028445 -0.3298278 0.30656233
000140 6a cc 38 3e 97 c6 c0 3d 60 79 47 3e 3f a0 98 bb
       0.18046728 0.09412878 0.19479895 -0.0046577747
000150 72 e7 3a 3e ab 16 c4 3e 91 37 38 be 80 cf 7d 3e
       0.18252352 0.38298544 -0.17989947 0.24786186
000160 75 74 90 bd ac ea e3 bd 7f d6 2f 3e 01 8c 85 be
       -0.070534624 -0.111287445 0.17171668 -0.26083377
000170 ef 48 99 be b9 fe 0b be 20 22 45 be 3c 9f a9 be
       -0.29938456 -0.13671388 -0.19251299 -0.331293
000180 c6 35 d3 bd ec 1d 83 bd 6f bc 18 be 5e 6d 54 be
       -0.10312991 -0.064021915 -0.14915632 -0.20744845
000190 cd 6f 86 3c 5c 8c fd 3d 67 00 76 be 27 88 b1 3c
       0.016410733 0.12380287 -0.24023591 0.021671368
0001a0 2e 11 32 3e 3b 6f ad be ba 03 70 3e 94 f6 09 bd
       0.17389366 -0.33873925 0.23438922 -0.03368242
0001b0 86 7a 1e 3e cf cb 5d 3e cf 93 1e 3e 13 db c6 3e
       0.15476426 0.21659778 0.15486072 0.38839015
0001c0 92 88 af 3d 60 35 18 be d1 2e 9f 3d d6 3e 1e ba
       0.085709706 -0.14864111 0.077726014 -0.0006036585
0001d0 a2 24 ba 3d 53 85 35 3d f1 0a 73 be 51 7c 41 be
       0.090890184 0.0443166 -0.23734643 -0.18895079
0001e0 88 f1 ce bd 98 e8 16 be a3 9e 86 bd 38 b1 a7 bd
       -0.10104662 -0.14737165 -0.06573226 -0.08188099
0001f0 ee d3 76 bc e5 19 9c bd ac a5 eb 3b 1e da 1c bc
       -0.015065176 -0.076221265 0.0071913805 -0.009573488
000200 65 b8 b8 3d 0b d6 90 bb d9 87 ed 3d 41 f4 5d bc
       0.090195455 -0.004420047 0.115981765 -0.013547004
000210 11 21 2d bd 18 cf 07 be 36 68 e8 bd ef 53 b4 bc
       -0.042267863 -0.13262594 -0.11348002 -0.022012679
000220 f8 a6 a3 be c9 15 8c be cf fb a5 bd 8d ab c9 be
       -0.31963325 -0.2736037 -0.08104669 -0.39388695
000230 5b 3d c9 3d 0a 4b b8 be b0 f5 7d 3d 27 55 0a be
       0.09826156 -0.3599475 0.062001884 -0.13509046
000240 9c c0 2b 3d e6 df 21 bd 84 7c 60 be 87 84 88 3d
       0.041931733 -0.039520167 -0.21922499 0.066659026
000250 75 a5 65 3d 36 35 71 bd 42 6e 2e be d0 8c c1 3d
       0.056065995 -0.058888637 -0.17034248 0.09450686
000260 78 5c b7 bd 24 0a 25 be 42 39 cc bd 04 0b 1a 3d
       -0.08953184 -0.1611715 -0.099718586 0.03760816
000270 b8 12 25 3d 9a 0f 34 be e4 d1 46 be d6 ed 50 3e
       0.040301055 -0.17584077 -0.19416004 0.20403227
000280 4a 50 02 bf a8 9c ee bd ed 91 b3 3e d8 f7 23 3e
       -0.5090376 -0.116509736 0.3507227 0.16012514
000290 39 61 a4 3e ce 7f 16 3e 50 54 0e bf 19 52 d9 3e
       0.32105425 0.14697191 -0.555974 0.42445448
0002a0 40 f0 9a 3e 96 08 59 3e 64 d2 98 3e f3 80 b3 3e
       0.3026142 0.21194682 0.29848015 0.35059318
0002b0 47 55 a2 bd a5 7c 5e 3e 59 ff 05 be 3f eb a9 3d
       -0.079264216 0.21727236 -0.13085689 0.08296823
0002c0 95 90 18 3e fb c4 c0 3e 4e 7d d1 3e 1d 22 ee 3c
       0.14898904 0.37650284 0.40915912 0.029069
0002d0 29 54 fc bc dc 33 05 bd 2b 42 09 3e 40 3b f3 bd
       -0.03080185 -0.03252016 0.13404147 -0.118765354
0002e0 08 e7 04 3e 24 32 31 be 06 84 89 3e 45 15 62 3d
       0.12978756 -0.17304283 0.26858538 0.055196065
0002f0 ae 3e f5 3e 5f d1 78 be 0e 7e 7b be 38 41 4d be
       0.47899383 -0.24298619 -0.24559805 -0.2004441
000300 c5 c5 8f be b2 a4 28 be f1 48 c5 bc 16 c9 a3 be
       -0.28080574 -0.16469076 -0.024082633 -0.31989354
000310 e1 fc 0e 3e 69 f8 d4 bd 3b d3 c1 bd 98 30 26 3d
       0.13963653 -0.10398943 -0.09464117 0.040573686
000320 33 4d 5e be 0d b5 13 3e 40 69 f1 3c e3 2c 8d be
       -0.21709137 0.14424534 0.029469132 -0.27573308
000330 ad 72 f8 bd f4 18 94 bd 3a fc 11 be 49 c9 95 3c
       -0.12131248 -0.07231322 -0.14256373 0.018284457
000340 51 4c 39 be a4 25 c5 3c e9 65 2f 3c 42 e9 8d 3d
       -0.18095519 0.0240658 0.01070545 0.06929256
000350 3d 9b e9 bc 4d 99 68 3e 6f 1f 9f be 32 b1 7b be
       -0.028516406 0.2271473 -0.3107867 -0.24579313
000360 ce ca a9 be fb 95 63 be e7 97 69 be 7e 41 13 be
       -0.3316254 -0.22225182 -0.22811852 -0.14380452
000370 85 da a0 be 96 77 3f be d8 30 83 be aa 83 8e 3d
       -0.31416717 -0.18697962 -0.25623202 0.06958707
000380 55 85 a3 3c 19 56 75 bd a8 45 35 3e e0 a9 8b 3d
       0.019961039 -0.059896562 0.17702353 0.068195105
000390 a8 b8 36 3e 95 14 c4 bd a8 84 1b be 0b 58 81 3a
       0.17843878 -0.09574238 -0.15187323 0.0009868158
0003a0 04 54 71 be be ee 14 3e 15 01 af 3c a7 87 ed bd
       -0.23567206 0.14544198 0.02136282 -0.11598139
0003b0 ce a6 6e bc 67 ef 55 3e 69 03 1e 3e 15 ba b6 3d
       -0.0145661365 0.20892106 0.15430988 0.08922211
0003c0 e1 67 27 3e 6e da c2 3d ca 2a ad be d5 dc f0 3e
       0.1634822 0.095143184 -0.33821708 0.4704348
0003d0 44 b9 51 3e 60 5f 94 3e 29 17 f6 3e e1 ff 21 3f
       0.2048083 0.28979015 0.48064545 0.63281065
0003e0 89 6a ad 3c e4 b0 a6 3e 5f d1 b9 be 6d fa 4e 3e
       0.021168964 0.32556832 -0.3629255 0.20212717
0003f0 ca aa b6 3e ab e3 c8 bc ae ee 5c bc bd 57 cd be
       0.35677177 -0.024522623 -0.01348464 -0.40106001

convs.0.application__updates__application.lin_rel.weight f4 [32, 3]
000000 25 ae 29 bd 67 e1 06 3f f5 ec 0b be 17 00 a4 3e
       -0.041425843 0.52687687 -0.1366461 0.3203132
000010 ed 56 03 bd cc 0e d7 3e 68 71 38 3e e1 ad 16 3e
       -0.03206532 0.42003477 0.18012011 0.14714767
000020 af 2e 29 3e bd ed 00 be 46 f1 c7 3e 5c 32 03 3f
       0.16521715 -0.1259069 0.39051265 0.5124872
000030 c6 a9 48 be 14 6d 7f 3e b8 f6 8f 3e 46 3b 9e be
       -0.19596013 0.24943954 0.2811792 -0.30904597
000040 12 8d eb be ff 43 bd 3d 7e 4e 6d 3e 11 e3 df 3d
       -0.46006066 0.09241485 0.23174474 0.10931981
000050 9c 1b 3f 3e e1 c5 4f be 8d e6 b3 3e e2 2b 98 3b
       0.18662876 -0.20290329 0.35136834 0.004643903
000060 4b df 59 3d 63 be c9 be 94 53 8a be c1 d3 4c bd
       0.053191464 -0.39403066 -0.2701689 -0.05000663
000070 4e 9a 37 3d 05 dc 87 be b5 ef b2 3e 30 7a 14 bf
       0.04482489 -0.2653505 0.34948507 -0.57998943
000080 07 89 f7 3e 87 38 c9 be 7c 45 b7 3e d9 9d d4 3c
       0.4834673 -0.3930094 0.357952 0.025954174
000090 e6 be 6b 3e 86 87 4c be 11 92 c8 be 5b dd b8 be
       0.2302204 -0.19973573 -0.3917394 -0.3610638
0000a0 b7 e2 98 3e 38 94 d5 be 9e f5 e1 3e cc ea b9 be
       0.2986047 -0.41714644 0.44132704 -0.36311948
0000b0 dd b1 b5 be 58 bf 92 be f0 69 80 3e 84 4b d4 be
       -0.3548726 -0.2866161 0.25080824 -0.41463864
0000c0 36 9b b5 3e 71 50 50 bd fe b2 a7 3e 63 cb 90 bd
       0.3546998 -0.050857965 0.32753748 -0.07070043
0000d0 b4 77 df 3e af 70 01 3e 99 31 db 3e de c8 68 3e
       0.43646014 0.12640642 0.42811278 0.22732875
0000e0 a8 15 fc 3e 31 ad 07 bf 9e 4f b7 3d fc 55 08 bf
       0.49235272 -0.52998644 0.08950733 -0.532562
0000f0 f2 ee 5b 3d 35 dd 50 3e f5 3b 53 3d 91 eb e7 be
       0.053694673 0.20396884 0.05157085 -0.4529691
000100 2e 2d f0 3b db 9c 9e 3e 9a 0b cf 3e f6 9e cb be
       0.0073296046 0.30979046 0.4043854 -0.39769715
000110 dc c6 13 3c 6c 90 31 bf f2 f2 1f 3f 5a ac 0e 3f
       0.00901958 -0.69360995 0.6248008 0.5573174
000120 ad b2 88 3e 74 19 c9 3e 74 63 35 3b 05 0d cf be
       0.2669882 0.39277232 0.0027677687 -0.4043962
000130 a3 89 6f be 31 0a d0 be 3c 40 4a 3f 76 c4 a4 be
       -0.23392348 -0.40632775 0.79004264 -0.32181138
000140 d2 61 43 3e 56 37 39 3f c1 1c d5 be 4f b8 10 3f
       0.19080284 0.7235006 -0.416235 0.5653123
000150 a0 55 47 3e 8b 92 06 3e eb 0e 6d bc 23 70 11 3f
       0.19466257 0.13141839 -0.014468889 0.5681173
000160 1f d4 eb bd 2f d9 64 bc 11 93 58 3e 62 98 83 3e
       -0.11515068 -0.013967796 0.21149851 0.25702196
000170 06 5b ae be af 6f a1 3e 3a 6e 89 be dc 0d d1 be
       -0.3405382 0.3153052 -0.2684191 -0.40830886

convs.0.application__updates__application.lin_rel.bias f4 [32]
000000 ff b7 19 bd f1 44 b4 3e f7 a9 2d 3c a3 4f 03 bf
       -0.037528988 0.35208848 0.010599605 -0.5129339
000010 ba 3b 20 3e 11 88 aa be 18 03 4a bd 8a 97 b8 bd
       0.15647784 -0.33306935 -0.049319357 -0.09013279
000020 17 41 c9 be 75 20 0c bd 37 af 87 be c7 f9 1a bf
       -0.39307472 -0.03421064 -0.26500866 -0.6053738
000030 63 d9 cb 3d 84 11 8c be 83 e7 b2 be 43 b7 8f be
       0.099535726 -0.27357113 -0.34942254 -0.28069505
000040 ba b9 27 bf 03 35 70 3c d8 ec 14 bf 3a d3 ca 3e
       -0.6551777 0.0146610765 -0.58173895 0.39614278
000050 d8 77 0a bf bb bc 43 be e8 b0 8c 3d 8d 45 e6 be
       -0.5408912 -0.19114964 0.0686968 -0.44974938
000060 06 d6 2e bd 10 72 e1 be 71 54 44 bd 12 08 b3 3d
       -0.042684577 -0.44032335 -0.047932092 0.08741774
000070 70 c1 74 be 55 fd 2d 3d aa de 73 3e 1b 44 82 be
       -0.23901916 0.042477924 0.23815408 -0.25442585

convs.0.application__updates__application.lin_root.weight f4 [32, 3]
000000 2a 79 58 bf ec 09 08 bf e3 24 84 be d3 84 eb be
       -0.8455988 -0.5314014 -0.25809392 -0.45999774
000010 23 ca 5b be c4 ea 55 3e b1 66 04 bf 0f 14 3b be
       -0.21463828 0.20890337 -0.51719195 -0.1826937
000020 e9 a4 82 be c5 b4 40 bc ae 6f e5 3d b9 30 8a bd
       -0.2551644 -0.011761849 0.11202942 -0.06747574
000030 c4 bb 16 be 82 23 c1 be 59 db 30 bf ed 70 08 3f
       -0.14720064 -0.37722403 -0.690847 0.5329731
000040 ba d7 17 bf aa 5a fe 3e da 61 93 be 22 ea bb bd
       -0.5931355 0.49678546 -0.28785592 -0.09175517
000050 9f f2 0d be ba f8 4c 3e 95 59 e3 be f2 92 92 3b
       -0.13862084 0.20016757 -0.44404283 0.0044730837
000060 0f 1c ba 3e 92 de 22 3a 09 57 35 3f 17 c0 15 be
       0.36349532 0.0006212975 0.7083593 -0.14624058
000070 d9 44 ba bc aa 8b 66 3e 27 cb 51 3e 9a 94 66 3d
       -0.022737907 0.22514215 0.20487653 0.05629406
000080 33 e3 88 be b6 07 98 3e 06 64 ca 3e 23 0a fd 3e
       -0.2673584 0.29693383 0.39529437 0.49421796
000090 c3 8f 03 3e f4 37 18 bd c7 74 5d 3e 42 40 16 3f
       0.1284781 -0.037162736 0.21626578 0.586918
0000a0 b1 7c 60 3e 11 ed 17 3f 4f 56 97 3d b7 4c 2d 3e
       0.21922566 0.5934611 0.07389509 0.16923796
0000b0 34 69 e5 3e e4 23 1e bf 98 c3 04 bf 0f e8 f5 be
       0.44806826 -0.61773515 -0.5186095 -0.4802861
0000c0 9e b9 d6 3d bd 7b 94 3e 55 a8 a7 3e 06 45 cb be
       0.104846224 0.29000655 0.32745615 -0.39701098
0000d0 7f 0f 9a 3e fb 9d ce be 4c b6 40 be 7e c4 ae 3e
       0.30089948 -0.40354905 -0.1881954 0.34134287
0000e0 ca 4d f9 bc 4e 20 b9 3e 9c de 0d 3f 62 49 fe 3d
       -0.0304326 0.3615746 0.554178 0.124163404
0000f0 a4 a3 87 3e c4 51 47 3e 05 4a c9 3e 1d e6 c4 be
       0.26492035 0.19464785 0.39314285 -0.38456813
000100 d3 23 1f 3d 51 7a 14 be a6 e7 47 3e c5 be 91 3e
       0.038852524 -0.14499785 0.1952196 0.28465858
000110 97 3d 47 be d7 69 64 bf 68 c0 fb be 2d b6 e0 bd
       -0.19457088 -0.89224 -0.49170232 -0.10972247
000120 d0 62 67 3f 0b 30 26 3e ce c9 41 3e 4b 96 8e be
       0.9038515 0.16229264 0.18924639 -0.2784904
000130 8d 01 ee 3e 04 fe d1 be 34 38 bb bc c1 1a 01 3f
       0.46485558 -0.4101411 -0.022853948 0.5043145
000140 0e cc 7b be 54 b1 af be 9c b6 2d 3f e4 27 7b be
       -0.2458956 -0.34314978 0.67856765 -0.24526936
000150 97 6a 84 bd c4 b6 df be df 5b 4c 3e 49 5c eb 3d
       -0.06465643 -0.43694127 0.19956921 0.11492211
000160 35 3a 19 be 3b e6 d8 3c 51 6a 05 bf 01 ed d0 bc
       -0.1496361 0.02647697 -0.5211535 -0.025503637
000170 04 47 89 bd d0 13 a9 be eb 60 38 be 7d 9f 9a be
       -0.06702998 -0.33022928 -0.18005721 -0.30199805
